models/anomaly_models/WH004_SKU-014.pth (torch, 242563 bytes, 20 tensors)

encoder_lstm1.weight_ih_l0 f4 [256, 6]
00000000: b362 173e 86cb de3d 5f56 8b3d 0137 243d
00000010: 3ab3 8ebd 4b55 173d 84fb 83bd 57da 473d
00000020: 6990 fe3d 1f71 133e c211 93bc 34a3 2d3d
00000030: 9615 6dbd c6cd 953c 8b9f 0fbd 66a0 9bbc
00000040: 2b81 fa3d 6699 c6bc 0429 843d ba9d a93c
00000050: b095 babd 80fd 49bd eaa9 88bc 5a1e 9ebd
00000060: 6e04 4f3d 222d a3bb e1fb 9ebd efa3 e3bd
00000070: 0b95 eebd c833 0f3e 237e b2bb f924 e0bd
00000080: 79d7 1f3e 7082 1d3e b142 11bb aea8 7cbd
00000090: 1d3c 463c e5ae bbba 5975 54bd 2b8a 89bd
000000a0: e4bc 98bd e654 003d 4deb cd3d 4824 143e
000000b0: d131 9d3d 86cc c73d 2b86 8abd 7ce8 69bc
000000c0: 2fcf e73d 0ca2 2ebd a11e aabd 9051 39bd
000000d0: 5b09 443c 2fe0 0bbb 1fbd 2f3c 79fc b2bc
000000e0: 88b9 7e3b 1d7c d63d cced 293d 549f f23d
000000f0: 9022 9fbd b684 a63d 7de2 b93d ce24 5bbd
00000100: 60ba 61bd 3a9b 823d 5368 f03d 8c55 f63d
00000110: 3ece 943d b20a 99bb 9f99 cbbd 3d2e 943d
00000120: 021c 8d3d a63b b7bb 9b44 b2bd d686 af3d
00000130: 76ff 71bd ebbb cbbd 199f a8bd 7048 303d
00000140: 2150 cf3d 3734 0a3c 817d 97bd a389 e1bd
00000150: 2aa9 94bd c665 b43c 05a0 b2bc 91c4 ae3c
00000160: 8e6e f7bd ae30 0bbe 8faa 55bc 7e04 89bd
00000170: a3a8 a2bd 573e 9ebd 580d 3b3d b356 003e
00000180: c5c3 983c 72b2 48bd dc71 1f3c 12e5 fdbb
00000190: f13f 43bd b4ea de3d 9aac a53d 4066 f83b
000001a0: 01f6 9d3d 0ca1 4bbc 29e5 1f3d acad bebd
000001b0: 8126 033d d8de 68bd 29a7 023d 0793 de3d
000001c0: 1aa0 723d f196 abbc 1ec5 143e 6fb9 063e
000001d0: 2c16 e63d a075 40bd b278 9ebd e47b d03c
000001e0: c048 a93d 838d 503d 3a96 393b 4001 da3d
000001f0: 2a06 313b a6f3 e3b9 1c57 92bc 46ed f4bd
00000200: 8f3b 4c3d 6e8b 0c3e c1b8 343d 8293 173e
00000210: b039 9bbd 08e6 903c 155d 78bd f286 f73d
00000220: a150 cc3d 8456 bebd 00d4 d83d c8a5 fd3d
00000230: 71d5 6cbc e6c3 783d c4c5 e53d 05d9 8c3d
00000240: 7940 58bd 0461 913d 2cde 85bc ecab aebd
00000250: 4652 9cbd 2dc3 48bd 0613 78bd b4b7 033d
00000260: 94d6 9c3d 3b79 b33d 4c36 9abd 8223 cf3d
00000270: ab6f e3bd 6965 c73d 739a 82bd 371f e0bd
00000280: ce7d 883d b326 d23d 2745 043d 7f03 683d
00000290: 859b a13b 391b 6f3d 529d d1bd 3071 a3bd
000002a0: 7d7a 083e 4dbf 133e d79c 1d3d b1e5 913d
000002b0: 51d9 323c 6a08 3cbd 4f4b 013e 7064 dd3d
000002c0: 4640 dd3d dc48 fc3d bb3b 92bd ab27 42bc
000002d0: f25c 36bd 15ba e13d 9c41 b1bd 68d6 a93d
000002e0: 2fab 3fbc 64fe c73d 85f8 883d e643 ecbd
000002f0: 5bb1 a83d 5c70 c1bd f0f7 943d fc4a f0bd
00000300: ed54 7f3d 26c2 a0bd eccc ccbc b8ee 58ba
00000310: 6836 28bd b072 9bbd 0213 67bd 6203 9dbd
00000320: f750 033d 3de8 c33d bf55 6dbd 5a1e bc3c
00000330: dd92 c43d 1264 803c 60dd 7a3d 875e 2e3d
00000340: 734f c6bd a877 d1ba 16ab c8bd 821f 8ebc
00000350: 7261 3b3c c83b 9bbd c723 3fbd bbc4 193b
00000360: dc12 d73d 3bf6 e43d a9c9 143d cd15 043e
00000370: 1207 80bd ac51 91bd b442 12bd 149e 72bc
00000380: 7b61 5e3d d6bf a8bd 6243 af3d eee5 e73d
00000390: 7d1a d4bd daa2 0cbe 546c 533d ddb3 713d
000003a0: 5703 c4bd a4b2 ddbd 9646 a33d ccba bc3d
000003b0: a9d7 203d 44b8 083e 2f43 003e 3c29 a63d
000003c0: 8936 3dbd 6dc6 583c 6e62 f7bc 8861 1e3e
000003d0: 49ff ff3d ad34 873c e3ab b7bc 2fc6 5a3d
000003e0: b7f7 dabc 3539 21bd c446 4a3c eec9 36bd
000003f0: 1956 38bc 7f30 8cbd 1ed8 acbd c6b5 613d
0.14783745 0.10878663 0.06803583 0.04009152 -0.069677785 0.036946576 -0.06444457 0.04879221
0.12429888 0.14398621 -0.017952804 0.04239197 -0.057881914 0.018286597 -0.03506426 -0.018997382
0.12231668 -0.024243068 0.064531356 0.020705093 -0.09110582 -0.049314022 -0.016682584 -0.07720633
0.050541334 -0.0049797455 -0.07762886 -0.11115252 -0.116495214 0.13984597 -0.0054471656 -0.10944552
0.1560954 0.15381789 -0.0022164995 -0.061684303 0.012099293 -0.001431909 -0.051869724 -0.067158066
-0.07457903 0.031330965 0.10054646 0.14466965 0.07675517 0.097558066 -0.06763872 -0.01427662
0.11318814 -0.04263501 -0.08306623 -0.0452438 0.011965121 -0.002134334 0.010726242 -0.021848904
0.003886791 0.104728915 0.041486546 0.11846796 -0.07770264 0.08130781 0.09076402 -0.053501897
-0.05510938 0.06377263 0.11738648 0.120280355 0.072659 -0.0046704644 -0.0994141 0.07235382
0.06890108 -0.0055918274 -0.08704492 0.0857064 -0.059081517 -0.09947952 -0.082334705 0.04303783
0.10122705 0.008435301 -0.07396985 -0.1101258 -0.07258828 0.022021186 -0.021804819 0.021333965
-0.120816335 -0.13592789 -0.013041153 -0.0669031 -0.07942321 -0.07726734 0.045667022 0.12533073
0.018648038 -0.048998304 0.009731736 -0.0077482546 -0.0476684 0.1088461 0.08089562 0.0075805485
0.07712937 -0.012428533 0.039036904 -0.09310469 0.032019142 -0.056853145 0.031897698 0.10867887
0.059234716 -0.020945998 0.14528319 0.13156675 0.11234698 -0.046987176 -0.077378646 0.0254497
0.08265829 0.050916206 0.0028318302 0.1064477 0.002701173 -0.00043478346 -0.017863803 -0.11959319
0.049861487 0.13725063 0.044121508 0.14802364 -0.075793624 0.017687812 -0.060635645 0.12086286
0.09976316 -0.09293845 0.10587311 0.12385136 -0.014455185 0.0607337 0.112193614 0.06877331
-0.05279586 0.070985824 -0.016341291 -0.08528885 -0.0763288 -0.04901426 -0.060565017 0.032157615
0.07658115 0.08763357 -0.075298876 0.101141945 -0.11105283 0.09736139 -0.06377115 -0.10943454
0.0666462 0.102612875 0.03229251 0.05664396 0.0049318695 0.05837557 -0.102350846 -0.07980573
0.13327976 0.14428444 0.038479652 0.07123888 0.01091607 -0.04590646 0.12626384 0.108101726
0.10803275 0.12318584 -0.07140299 -0.011850278 -0.044522233 0.110218205 -0.08655092 0.08292848
-0.011698528 0.09765318 0.06688026 -0.11536388 0.08236953 -0.09445259 0.07273853 -0.11733052
0.06233685 -0.07849531 -0.025000058 -0.0008275318 -0.04106751 -0.07590234 -0.05641461 -0.07666661
0.032059636 0.0956578 -0.057943102 0.022963692 0.095983244 0.015672717 0.061246276 0.042570617
-0.096831225 -0.0015981095 -0.09798257 -0.017349008 0.011436807 -0.07579762 -0.04666498 0.0023463208
0.10501644 0.11179777 0.03632513 0.12898941 -0.062513486 -0.07095656 -0.035708144 -0.014808197
0.054292183 -0.08239715 0.08557774 0.113231525 -0.10356615 -0.13733998 0.05161698 0.05900942
-0.095709495 -0.108250886 0.079724476 0.09215316 0.03926817 0.13351542 0.12525629 0.081133336
-0.046194587 0.013230902 -0.030198302 0.15466893 0.12499864 0.01650461 -0.02242083 0.05341166
-0.026729448 -0.039361198 0.012345973 -0.04462617 -0.011250996 -0.068451874 -0.084396586 0.055104993

encoder_lstm1.weight_hh_l0 f4 [256, 64]
00000000: 451a 09bd 9e6b debb f116 0a3e 9487 d5bd
00000010: d873 0abe 3538 c2bd 8d2f 76bd 16fc 0a3d
00000020: 7a92 183e 5a02 a1bc 7135 bc3d e34a 06be
00000030: 9d1e 0bbe dfd4 873c ed2c d2bd 5116 83bc
00000040: b22f dfbd d4bf e5bd bfb4 7ebd 47d6 46bd
00000050: 6541 6abd 964e 58bc 9d9f b7bd 2ba3 92bd
00000060: 4353 e23d 2cc5 e43d 7de7 8f3d ca5d 6abd
00000070: 90d9 18bd beb8 c3bd f52d ac3c 73a6 363d
00000080: fd37 1abc f209 893d 6357 ca3d 1f29 1cbe
00000090: b5b3 c6bb 395e e6bd ee92 3fbd 1506 05be
000000a0: a0cf da3d 2450 07bd c969 c3bd 4755 cabd
000000b0: 46e7 ba3c 5562 b6bd 5d41 f23d 97ef 16be
000000c0: a95a d73d 34cf e4bc a327 a83d b99e 4c3d
000000d0: 26e0 bc3d f170 a23d c4a9 c23d 6944 a6bd
000000e0: 3744 f7bb 73d0 c33d 5295 1d3d 125b 223e
000000f0: c131 9ebd 9484 833d 9bc1 aa3b cfe7 7f3d
00000100: da53 c6bc 02a1 ddbd 0c6e 9fbd 836c d73d
00000110: 2e62 de3d 06f1 a73d 1718 d23c cc3d a9bd
00000120: b56b c6bd 2ebd 073c aa1a 03bc bd61 56bd
00000130: 4b3b 70bd 3fbe c6bc a8ba bdbd d7f0 40bd
00000140: a708 1cbd 8a1e d63c d422 afbd 438d 023d
00000150: 0517 51bd 8a93 d03c ef47 c83c a440 003e
00000160: 8b01 fa3d 07b8 a8bd 0865 a3bd dc1d f2b6
00000170: 6e76 ad3d 090d 2bbd fc9e 08be d46f 933d
00000180: 15f2 123e f8b8 7bbc c2d2 ab3d 925c d53d
00000190: 7291 b6bd 0595 933d a6e3 d53d 89d4 103d
000001a0: 2378 2dbd 2529 dcbd 9b95 c0bd 4976 533d
000001b0: 9443 b0bd 8803 3dbd 46f2 e83d 3506 08bd
000001c0: 2f11 0dbe 8c94 963c ce8a 463c 1f07 963d
000001d0: 91f0 013e 03a6 cbbd 0832 9d3d 687f 8fbc
000001e0: 3781 adbc 369b 963d cb8a 88bd 6919 fe3d
000001f0: 6fc9 e03d 181b 343d 196e 8bbd f14e b23d
00000200: 07f0 f73d 8608 6e3c 8e8c 173e 1d51 84bd
00000210: 1aa3 07be 7ece 21be d04f a13d ce03 7d3d
00000220: 778e 873c caab 073e 6691 6ebd de75 a0bd
00000230: 9d8a 3abd 4fe3 8dbd b11c d8bb 79ed 063e
00000240: 92da 50bd 1b16 ddbd 10f6 863d 1e85 f9bc
00000250: ddb0 12bd 6898 523d 94d0 eb3d 5f0b 92bc
00000260: 5955 8fbd 79cf e73c c118 9e3d d79c da3c
00000270: 4e00 e23d 551c f0bc 08d2 07be facc 843b
00000280: c819 1f3e feeb 92bc 7aaa 0b3e 4a80 f3bd
00000290: 3fdc 033d 0b2c 6bbd 8264 7c3d d0bc 4a3d
000002a0: 65fc e63d a764 9d3c d2fa 843d 085e 6dbd
000002b0: 59fc a33d e01c 0b3d 0392 9bbd 6bad a3bb
000002c0: 3b50 a83c 6251 0e3e 1523 aebc 881e 453c
000002d0: 4184 0bbd dcd3 e8bd 31c5 013e 4533 ff3d
000002e0: f287 673c aa47 803c d5aa 06be de89 183e
000002f0: 9a88 56bd bb28 5e3c a380 9ebd 9c48 48bd
00000300: 0fbc 8c3d 51a1 883b 59cf d23d ade5 a43d
00000310: 4b81 ccbd 4aec dc3b aa1f a63c 4fc8 30bd
00000320: d854 f03d 784b 4dbd 442b db3d 3265 bdbc
00000330: 7cc5 d13d 000c 3fba 9597 04be cff6 1cbd
00000340: 6676 ebbd ac55 8cbb 5686 8fbd 6e15 ff3d
00000350: 9c00 d9bc 6caa 86bc 3efb 9ebd afe4 e7bd
00000360: 6284 573d 3ff9 87bd 6f81 9dbc 10c6 bdbd
00000370: 5cfb 1fbc c618 8d3d 4870 ba3c dddc 7abd
00000380: 00c8 ef3d 3bb3 e83c 33f6 843d ed48 bbbd
00000390: e768 33bc 2ac2 01be 2e28 553d 827e e2bd
000003a0: 644d dd3a a60c 843d d7c5 d53d a5d1 bc3d
000003b0: 9490 c2bc 98e5 563d 5209 2c3d 2473 0f3b
000003c0: fff5 e23c 1e2f 2f3e 3dbd e63d fa35 84bb
000003d0: e182 b03d 35de 0bbe 277a d7bc 753e c7bd
000003e0: 9dbd 843d bc55 1b3e b8b4 edbd d0b7 46bc
000003f0: 5648 efbc 9694 33bd 51eb 843d 73d8 f43d
-0.03347232 -0.0067877313 0.13485314 -0.1042625 -0.13520753 -0.09483377 -0.06010394 0.033931814
0.14899626 -0.019654442 0.09189881 -0.13114505 -0.13585897 0.016580997 -0.10262475 -0.016001852
-0.10897769 -0.11218229 -0.06218409 -0.048544195 -0.05719127 -0.01320233 -0.08965991 -0.07160028
0.11051037 0.1117042 0.07026575 -0.05721835 -0.03731686 -0.09556721 0.021018008 0.044592332
-0.009412763 0.0669135 0.09879949 -0.15250061 -0.006063903 -0.1124844 -0.046770982 -0.12990601
0.106841326 -0.033035412 -0.09541661 -0.098795466 0.022815358 -0.08905474 0.11828873 -0.14739834
0.10515339 -0.027930833 0.08210685 0.049956057 0.092224404 0.07931698 0.095050365 -0.08118517
-0.0075459736 0.09561243 0.03847248 0.15855053 -0.077243336 0.06421772 0.005211068 0.06247693
-0.024209905 -0.108217254 -0.07784662 0.10518744 0.1085857 0.082002684 0.025646253 -0.0826374
-0.09688512 0.00828485 -0.008001963 -0.052339304 -0.058650296 -0.024260638 -0.092641175 -0.047104683
-0.03809419 0.026137609 -0.08551565 0.031873 -0.051047344 0.025460977 0.024448363 0.12524658
0.122073255 -0.082382254 -0.079782546 -7.215638e-06 0.08469854 -0.04176048 -0.13341898 0.07199064
0.1435016 -0.015363924 0.08389808 0.10418047 -0.0891446 0.072061576 0.10443811 0.03535894
-0.0423509 -0.10750035 -0.09403535 0.051626477 -0.086066395 -0.046145946 0.11374335 -0.033209044
-0.13776086 0.01838138 0.012118055 0.07325577 0.12689425 -0.099437736 0.07675558 -0.017516807
-0.021179779 0.07353823 -0.06667098 0.1240719 0.109759204 0.04397115 -0.06808109 0.08706463
0.121063285 0.014528399 0.14799711 -0.06460784 -0.13245812 -0.15801427 0.07876551 0.061771207
0.016547425 0.13249126 -0.05824413 -0.078349814 -0.04554235 -0.06928121 -0.006595217 0.13176526
-0.050989695 -0.10795232 0.065899014 -0.030458983 -0.0358132 0.051414877 0.115143925 -0.017827688
-0.06998701 0.028297173 0.07719565 0.026686115 0.11035214 -0.029310385 -0.13263714 0.0040527554
0.15537179 -0.017934795 0.1363925 -0.118897036 0.032192465 -0.05741505 0.06161929 0.049496472
0.11278609 0.019213034 0.06493153 -0.057951003 0.08007116 0.033963084 -0.07596209 -0.0049950383
0.02054607 0.13898233 -0.021256963 0.012031205 -0.034061674 -0.11368534 0.12672879 0.12460951
0.014131533 0.015659172 -0.13151105 0.14896342 -0.052376367 0.013559516 -0.07739379 -0.04889737
0.06871807 0.004169621 0.10293455 0.0805162 -0.09985598 0.006742035 0.02027877 -0.04315978
0.11734933 -0.0501208 0.10701612 -0.023119543 0.10242745 -0.000728786 -0.12948449 -0.038321313
-0.11497192 -0.004282674 -0.070080444 0.12455259 -0.026489548 -0.016438685 -0.077627644 -0.11322915
0.052616484 -0.06639337 -0.019226758 -0.09266293 -0.009764519 0.06889491 0.022758618 -0.061245788
0.11708069 0.028405776 0.06492271 -0.09144769 -0.010950304 -0.12671724 0.05204027 -0.11059286
0.0016884026 0.06447725 0.104381256 0.09219674 -0.02375058 0.05246505 0.042001076 0.0021888698
0.02770519 0.17107818 0.11266563 -0.004034755 0.08618713 -0.13658984 -0.026303364 -0.097287096
0.06481478 0.15169424 -0.11606735 -0.012128785 -0.029209297 -0.043842874 0.064901955 0.11955347

encoder_lstm1.bias_ih_l0 f4 [256]
00000000: f7cd d23d 9c81 80bd c863 f93b 9a4a 8cbd
00000010: 9882 eebd 4800 44bd 2f8b 793c 189f 7fbd
00000020: 3474 43bd e5f6 223d 144a c9bd 66f9 623d
00000030: 684e 793d 7bfd 9dbc 9ba0 07bb be78 b83c
00000040: 6da0 92bd 181c 523d 288f bdbc 61ce 853d
00000050: 2d60 32bd 930e ddbc 354c cbbd 7ea9 9bba
00000060: c067 62bd c52d d4bd bef8 c63d bba7 a3bd
00000070: 0f84 213d 5bf8 3cbd 8f7d 0cbd 741e 483d
00000080: 87b2 033e 7a27 82bd f613 a2bd 71f0 4d3d
00000090: 8a01 40bd eeef 7b3d 0588 243d 7bbe d2bc
000000a0: ad79 b53d da54 ff3c 9c56 3ebd 2217 b0bd
000000b0: a24f 963d d0fd c53d 0a8d e8bd 2948 dc3d
000000c0: 77a3 0cbe 4eb0 78bd ee8a 113d 3d53 fb3b
000000d0: 3908 943d 936b 053e 2495 aabc c900 85bd
000000e0: 2caf ba3d 8302 0abe 4860 afbd ef52 9d3c
000000f0: d076 9e3d 4050 183a d15a 633d 47e9 ba3c
00000100: 7922 b53b f8bb 9e3d b692 31bd 8419 a8bd
00000110: 2012 153d 5989 ab3d d01f 283c 763f a5bd
00000120: 27d2 223d 791f ae3c b05e f3bc 78ca b2bc
00000130: 73c7 df3d 86d5 0e3c b566 263d dfd8 453d
00000140: d7c9 80bd fda9 a43d 5e6d e93c a46d 433d
00000150: 4ead 043e ee66 8f3c 53d4 d7bd b53e f2bc
00000160: 22c5 41bd 8833 07bd b18a 413d 18c9 30bd
00000170: 91a8 d53d 0c0b b9bd 2bc0 a7bd a5df 873d
00000180: ffed 89bd 956b 783d 8001 f83d c296 a83c
00000190: d904 d7bc 1829 ee3d 9df2 07bd 49fd 85bd
000001a0: c682 24bd 346e 97bd d046 fdbc daf0 62bd
000001b0: 02ee e13d f9e7 cc3d 7dee c6bb f99a 483d
000001c0: 4199 9abd 7019 0abd 39b2 823d 1647 88bd
000001d0: 866c 643d 4007 c6bd 998f ec3d a94b 003e
000001e0: 26a2 9a3d 0a65 923d a56b e03c e745 8fbd
000001f0: 1d1b 8d3d 0de7 1d3d 21c4 2cbc 2085 b7bc
00000200: 44c4 833d 1594 c3bd c445 3e3d c39c d43d
00000210: 1eef a7bd 0555 f9ba 45fd b53d b101 713c
00000220: fd1c a83d 923c 183d db6d bbbc 5d6c adbd
00000230: a127 133e 149a b43d 6977 db3c 8cab 1bbd
00000240: 9678 24bd a7c7 f73c 678f c4bd 71f3 efbc
00000250: 76f0 a43d 7057 e7bd 1eb1 3fbd 3023 26bd
00000260: 9fa1 713d d0be ceba a13d 63bd 3053 173e
00000270: 5835 783d 96ad 29bd 5389 eb3d 065d 1fbb
00000280: 1465 9bbd b6d1 5f3d f1a7 d53d 3066 7fbd
00000290: 46dc b33d 9ea3 a23d 4716 d73d 56d4 00bd
000002a0: db92 c23d 92be 29bd 0d4a b5bd f89b 3cbc
000002b0: 8918 96bd 6726 bd3d 465a ca3b e377 25bc
000002c0: 2c98 8ebc 28a8 d3bd dcb0 093c 10e7 b6bd
000002d0: dd21 a7bd 2b95 0a3e 84f0 9d3d bd92 e03d
000002e0: 3686 633d 2384 95bd deea 0cbc abc7 c2bd
000002f0: d682 ac3d 2de1 f53c c9ab ebbd d4b0 a8bd
00000300: c424 063e 08ec 8d3d f039 af3c 273c acbd
00000310: 4d92 c33c 777e 40bd 6d98 553d eed6 153e
00000320: 989b d4bd 24e9 bd3d d0ee cdbd 5f77 b1bd
00000330: 00bc ae3d 064d 8dbd 4c42 a4bd 7330 b63c
00000340: 39fb debc b901 0cbe 3e81 a5bd 9862 873d
00000350: 4297 003e 044c b23d c9ab 593d 08d0 94bd
00000360: f86a 873d 1d98 bebd 9c6f a63d d608 86bd
00000370: 46a6 0b3e 7ec1 cb3d 270d 0f3e 9978 4e3c
00000380: 480c ba3d 04e5 413d 796f 203d 0641 b83d
00000390: c18c 8b3c e127 703c c0a1 62bd 87f9 a5bd
000003a0: 0d01 863d 319a 783d e498 9b3d e837 a53c
000003b0: 79c0 66bc a5bf 55bd 5abf 603d 32d4 023e
000003c0: 64f5 1cbe f918 0b3e 5b5c c6bc 37c3 0cbd
000003d0: 09bd 643c 1e87 983d 0334 ca3d fb0d 6bbd
000003e0: 6fab c3bd ed80 41bc 9863 4e3d 99df c3bc
000003f0: 8dca d5bd 2401 09be b080 063e 0375 cebd
0.10293191 -0.06274721 0.007610772 -0.068501666 -0.116460025 -0.04785183 0.015230938 -0.062407583
-0.04771824 0.03978624 -0.098285824 0.055413626 0.06086579 -0.019285908 -0.0020695094 0.022518512
-0.07159505 0.051296324 -0.023139551 0.06533504 -0.04354875 -0.026984489 -0.09926645 -0.0011876074
-0.055274725 -0.10360292 0.097154126 -0.079909764 0.03943258 -0.046135288 -0.03429943 0.048857167
0.12861072 -0.06355186 -0.079139635 0.05027813 -0.046876468 0.06150811 0.04016878 -0.025725594
0.088610984 0.03116839 -0.046469316 -0.08598162 0.073394075 0.096675515 -0.11355026 0.10755951
-0.13734232 -0.060715012 0.035532884 0.007669835 0.07228131 0.13029318 -0.020823069 -0.064942904
0.09115443 -0.1347752 -0.08563286 0.019204585 0.077375054 0.0005810298 0.05550653 0.022816313
0.005527791 0.07750696 -0.043352805 -0.08207992 0.03639424 0.08375806 0.010261491 -0.08068745
0.0397512 0.021255242 -0.029708236 -0.02182506 0.10926714 0.0087179 0.040625293 0.048302528
-0.06288498 0.08040235 0.028494533 0.047711983 0.12956735 0.017505135 -0.105385445 -0.029570917
-0.04730714 -0.03300813 0.047251407 -0.043160528 0.10432542 -0.0903531 -0.0819095 0.06634454
-0.06734847 0.060649473 0.12109661 0.0205797 -0.026247429 0.11628932 -0.03319036 -0.06542451
-0.040163778 -0.073940665 -0.030917555 -0.055405475 0.110317245 0.10005183 -0.0060709105 0.04897592
-0.07548762 -0.033715665 0.063816495 -0.066541836 0.05576756 -0.096693516 0.115508266 0.12528862
0.075504586 0.07148178 0.027395079 -0.06995755 0.06889937 0.038550425 -0.010544808 -0.022402346
0.06433919 -0.09549729 0.046453252 0.103814624 -0.08199905 -0.001902253 0.08886198 0.014709876
0.08208654 0.03716714 -0.022879532 -0.08467934 0.14370586 0.088184506 0.026790338 -0.038005397
-0.040154062 0.030246569 -0.09597664 -0.029290887 0.08053677 -0.11295974 -0.04679977 -0.0405609
0.058992025 -0.0015773419 -0.055478696 0.14777827 0.060597748 -0.04142531 0.11500802 -0.002431692
-0.075876385 0.054643355 0.10432423 -0.062353313 0.08782248 0.07941364 0.10502296 -0.0314525
0.09500667 -0.041441508 -0.08852015 -0.011511795 -0.073288985 0.0923584 0.006175312 -0.010099384
-0.017406546 -0.10334808 0.008403983 -0.089307904 -0.08160756 0.13533466 0.0771189 0.10965488
0.055547915 -0.07300594 -0.008600919 -0.0951074 0.084233925 0.030014599 -0.11507375 -0.08236852
0.13099962 0.06929785 0.021389931 -0.08409911 0.023873473 -0.046995606 0.052147318 0.1463277
-0.1038124 0.09272984 -0.100553155 -0.08665346 0.08531952 -0.06899457 -0.080204576 0.0222399
-0.027219402 -0.13672532 -0.080812916 0.06610602 0.125577 0.08705905 0.053142343 -0.07266241
0.066121995 -0.09306357 0.081267565 -0.06544654 0.13637647 0.09949015 0.13969861 0.012601995
0.09084374 0.047337547 0.03916881 0.08996777 0.01703489 0.014657945 -0.055330038 -0.08104234
0.06543169 0.060693923 0.07597521 0.02016826 -0.014083975 -0.05218472 0.054869987 0.12776259
-0.15327984 0.13583745 -0.02421396 -0.03436586 0.013961085 0.074476466 0.09873202 -0.05738638
-0.09554183 -0.011810523 0.05038795 -0.02391033 -0.10439024 -0.13379341 0.13135028 -0.10080912

encoder_lstm1.bias_hh_l0 f4 [256]
00000000: 2ae4 a0bb 1544 c63d d8a9 273d 9f22 cebc
00000010: 5814 a4bd ba88 913d 6450 d6bd 4857 04bd
00000020: 641c 583d 3f68 9c3d c1f2 2a3b ac83 c0bd
00000030: 4969 a43d e31b f03c 26af 06be 5340 b5bc
00000040: 4ecc febd 56e4 b13d b726 53bd bf4e e23d
00000050: 76d7 763d 11bc 913d 7625 fbbc ffa1 32bb
00000060: 3b6f d33d 75b1 923d 3ec2 b33d ab2b 7a3d
00000070: 3228 b9bc cde5 183d 3f9f 993d 0ea2 37bd
00000080: 78a8 8fbd 81ae dbbd dc84 c23d ccaa 48bc
00000090: d73f 97bc 8cec d3bc c68b f0bd 2e7a 8c3d
000000a0: 47dc e7bd b724 c13d 371f 97bd 75fe a4bd
000000b0: 0a05 843c b4b9 dd3c ee9b b0bd c16f de3c
000000c0: 172f 653a 75ce b83d 6edf 25bd 2080 dcbd
000000d0: 506c e93d 6f9e c7bd d8ea dc3d c60f 80bd
000000e0: af09 0fbc e701 0ebe 0d24 9b3d caa6 cf3d
000000f0: cf83 df3c 034f 05be f053 b83d ef8e 88bb
00000100: 22ce ac3d bfa9 17ba 507b babd f217 b4bd
00000110: 9a3f ccbd a0aa 403d 0741 91bd 64db 50bc
00000120: 3682 7abb 6241 2bbc 3b23 4b3d d65e ab3d
00000130: 1dbe e43d 95ec 0f3e f361 9bbc 6fcc 183e
00000140: e38f e33d 7ed9 f9bc ee21 22bd 43f2 7a3b
00000150: 5d25 dcbd 2302 ff3c 40bd 7b3d 9e2a 62bd
00000160: ae64 fa3d af35 ae3d b3af 36bc 1905 a3bd
00000170: a64c 093e eefe bbbd 93f0 863d 8897 303d
00000180: c176 853d 494d b4bd fee1 ddbd b0e9 b6bd
00000190: 6588 233d 46d7 ee3d fb08 19be c2b5 b8bd
000001a0: 1fa3 e63d d1e5 4ebd 2401 a53c 901a c63d
000001b0: 3c62 843d 44d5 e13c f5e7 4a3d e5f9 3dbd
000001c0: 7e65 03be 46a1 e0bd 7117 9cbd 816c e2bc
000001d0: 0a06 2dbd 90b2 a43d 9402 583d fb17 c03d
000001e0: 99e7 563d df13 0fbe 2340 033d 8325 0cbd
000001f0: 15ba 333c ef6c 633d 4164 c1bb 0474 453d
00000200: 8e62 6d3d 29fb 9cbd 0e0b 4d3a 1480 70bd
00000210: 7f6a 393c cf81 30bd 1e58 bd3b bd5c 2abd
00000220: e0b8 b63c cf9c 793c f903 cdbd b90e 8abd
00000230: fcbc 89bd 98b7 6d3d 7009 d83d ea79 603d
00000240: f529 6dbc 50cf a73d 8ffa c2bd a286 c6bd
00000250: 66f5 a7bc 7414 69bd 0286 86bc 8514 063c
00000260: d683 fbbd 9ad4 0b3d e081 993c 441a d23d
00000270: 9523 d6bd 4682 773c ad50 9abd 0369 b23d
00000280: 6954 7dbd 2ae1 e43d cb90 f9bd 8be7 75bd
00000290: 5193 80bd 2ade cf3d 1bb1 993d 95fa e83d
000002a0: 679d d73d 0650 adbc 136c a3bd 06fc 23bd
000002b0: cead 13bb 1142 adbd 62a8 a93d 96b5 1b3d
000002c0: 5651 863d 7e65 60bd 9ddd 6e3c 1e1a f4bb
000002d0: 95b0 d4bd a475 1ebb fd83 a1bc 348b 023d
000002e0: 1cd7 d9bd 66f9 52bd 83c3 6b3d 9bd4 8a3d
000002f0: 466b 463d 6f1e 9b3d 10a3 a5bd 329d a93d
00000300: 7d52 083e 9fe0 5cbc 2633 f83c 95d1 cd3d
00000310: 6920 673d 0025 0e3e 9f7d 56bd 40aa 7c3d
00000320: 879f 2c3d 4a41 21bc 9955 f93d 0b46 2ebd
00000330: 8612 47bd ff76 193e 916e 5dbc b51c 103e
00000340: 3a24 903d 5d24 eebd 9387 40bc 46ab a6bd
00000350: 04d7 d13d d617 d5bd 1d9d 1e3c 6518 283d
00000360: d057 86bc b7be cb3d dceb e8bd e153 a53d
00000370: ff86 163e 98a9 b9bd 4ca9 98bd 667a 0fbe
00000380: ffe2 743c b57e c53d 4ded 2b3d 841d e43c
00000390: 4933 ecbc bf50 a13d bb83 3dbd 43e2 d5bc
000003a0: 111f a5bd 4f18 d33d ad2d db3a b404 98bd
000003b0: 2f7f 58bd d13b 29bd 1a9b 83bd e1e1 b1bd
000003c0: 2750 9e3d 1bd9 df3d 6e7d c23d da5b cd3d
000003d0: eda3 b1bd efa8 c13d f382 56bd 7599 91bd
000003e0: 6160 a33d 521e 8cbd a5e7 203d 7444 ef3d
000003f0: 176d 323c fa3c 47bc 7420 bc3d 0858 33bd
-0.004910012 0.09680954 0.04093346 -0.025162993 -0.08011693 0.07106157 -0.10464552 -0.0323098
0.05276145 0.07637071 0.0026084634 -0.094001144 0.08027894 0.029310172 -0.13152751 -0.022125399
-0.12441312 0.0868613 -0.051550593 0.11050176 0.060264073 0.07115949 -0.030657511 -0.0027257202
0.1032395 0.071627535 0.08777283 0.0610768 -0.022602174 0.03732853 0.07501077 -0.04483228
-0.07014555 -0.10726643 0.09497997 -0.012247752 -0.018463058 -0.02586963 -0.1174541 0.068592414
-0.113213114 0.09430831 -0.07379001 -0.08056346 0.016115684 0.02706609 -0.08623491 0.027152898
0.00087426737 0.090237536 -0.040496282 -0.107666254 0.11397612 -0.09747016 0.107869804 -0.062530085
-0.008730336 -0.13867913 0.075752355 0.10139234 0.02728453 -0.13018422 0.09000385 -0.0041674296
0.08437754 -0.0005785487 -0.09105551 -0.0879363 -0.099730685 0.04703772 -0.07092481 -0.012747619
-0.0038224584 -0.0104526 0.049594145 0.08367698 0.11169074 0.14055093 -0.018967604 0.14921735
0.111114286 -0.030499216 -0.03958314 0.0038291372 -0.10749314 0.031128949 0.06145978 -0.055216424
0.122262344 0.08506333 -0.011150288 -0.07959957 0.13408145 -0.09179483 0.06588855 0.04311326
0.06516791 -0.088038035 -0.1083412 -0.08931291 0.039924998 0.11662154 -0.14944832 -0.090190426
0.11261582 -0.05051214 0.020142145 0.09673035 0.06464049 0.027567513 0.049537618 -0.046380896
-0.12831685 -0.109682605 -0.076216586 -0.02763963 -0.042242087 0.080418706 0.052736834 0.09379574
0.052466962 -0.13972424 0.032043587 -0.03421546 0.010969658 0.05552381 -0.005901844 0.048206344
0.057955317 -0.076650925 0.00078217767 -0.058715895 0.011316895 -0.043092545 0.0057783267 -0.04159235
0.022304952 0.01523514 -0.10010523 -0.067410894 -0.06725499 0.058036417 0.10548675 0.054803766
-0.014475335 0.081938386 -0.095204465 -0.09693648 -0.020502757 -0.05690427 -0.016421322 0.008183603
-0.12281005 0.0341383 0.018738687 0.10258916 -0.104560055 0.015106743 -0.07534919 0.08711436
-0.061848078 0.11175759 -0.1218582 -0.06003527 -0.062780984 0.10149796 0.07504483 0.1137592
0.10528069 -0.021156322 -0.07979598 -0.04003527 -0.0022534016 -0.08459867 0.082840696 0.03801497
0.06558482 -0.05478429 0.014579204 -0.0074494025 -0.10385243 -0.0024179006 -0.019716257 0.031871036
-0.10636732 -0.051507376 0.0575595 0.067788325 0.048442148 0.07574164 -0.08087742 0.08281936
0.13312717 -0.013481288 0.030297827 0.1004974 0.056427393 0.13881302 -0.052365895 0.0616858
0.042144325 -0.009842226 0.121745296 -0.042547267 -0.04860165 0.149868 -0.013515131 0.14073451
0.0703816 -0.116280295 -0.011751073 -0.081381366 0.10246089 -0.10404937 0.009681013 0.04103889
-0.016399294 0.09948485 -0.113731116 0.08072639 0.14699934 -0.090655506 -0.07454166 -0.14011535
0.014946698 0.09643308 0.041974355 0.027846105 -0.028833048 0.07876729 -0.046268206 -0.026108867
-0.08062566 0.10307371 0.0016721986 -0.07422772 -0.052855667 -0.04131681 -0.06426068 -0.08685661
0.077301316 0.109300815 0.0949658 0.10027285 -0.086738445 0.0945605 -0.052370977 -0.07109348
0.07977367 -0.06841721 0.039283413 0.11682978 0.010890267 -0.012160534 0.091858774 -0.043785125

encoder_lstm2.weight_ih_l0 f4 [128, 64]
00000000: f54a 1f3e a055 c5bd e344 f33d 23d8 043e
00000010: 0c1d 2d3d 52fb 83bd 1449 42bd 9b9e 223d
00000020: 0021 193e f9f7 cabd fdf2 0b3e c921 7fbd
00000030: db78 ee3d 74bb ec3d f32c 3b3d 06f8 433c
00000040: bc1c 973d 75ba 0cbe 1c88 b23d fe4c abbd
00000050: 02fb 313e a032 8a3c 08aa a0bd 5d6f 953d
00000060: c8d0 68bd 3280 bbbd f254 233d 1602 913c
00000070: 0215 e1bc ad18 6bbd e864 aabd e4c6 d5bd
00000080: f440 483e b668 f43c b989 2dbd 2cb0 39be
00000090: b3c2 603d 962d 2d3d 7057 bbbc f114 d83b
000000a0: 8f75 bc3d 9c5a 17be eb85 48bd 6f32 8dbc
000000b0: e099 303e 431a b73d b378 8d3c fccc 08be
000000c0: 6e22 ebbd aae5 ea3d 1a9c 9dbd 8138 77bd
000000d0: 2421 cbbd 2f27 8fbd 8310 9bbd 495a 403e
000000e0: a9e3 14bd 8ab9 e43d fd51 0a3e 5004 0dbe
000000f0: b646 ccbb dc7d 273e 47c9 343e ee90 cabc
00000100: 0ae1 f4bc 8d4e dabd 2c48 9c3d 5767 073e
00000110: 8a29 10be 9703 39bd 4052 b43d e856 9bbd
00000120: 9d0e b5bd 2622 e9bc cb3b cabd 7880 37be
00000130: 7ea8 cfbc e680 4a3d 1ace 0d3e 33e5 35bd
00000140: 0da4 1ebe 078d 31bd 38d6 68be 7e8c a23d
00000150: d414 013e 280b df3d 5dc0 303e 7d6f 2dbe
00000160: 9c94 1bbc 37e5 a6bc 4dd2 87ba ece5 033c
00000170: db79 56bd 3fc5 afbd d6cf 48be 6840 f63d
00000180: b6af ccbd 98b4 1d3e bad1 85bd 949f da3d
00000190: 8ae2 373d 72eb 5c3d dbac e7bd d11f 813c
000001a0: db76 003d 183b 3cbe fb6b 60be a616 74bd
000001b0: dcac 083c 2e8f 51bd d31e 283e a2f1 8bbd
000001c0: 021d 833d 35f1 993d 1966 173e a112 003e
000001d0: d3de e23d 3fcb fb3c dddc ce3d 0687 003e
000001e0: 1caf 5d3d aea0 ddbd b1c6 dc3d 00f8 f9b9
000001f0: c8d8 123d 2796 1f3e f00f 0c3d 9330 313e
00000200: af66 bcbd 3979 8a3d 9bcb 0e3d c254 a53d
00000210: fa4d 06be 507c 34be a173 493e 7e3a e13d
00000220: 8f81 7fbd 3bf0 423e 339c 5abd cf61 44be
00000230: e349 923d dc74 203e 5dfd 5b3c 56a9 61bd
00000240: 1e62 03be 4d3f 1bbe 6b1e 4bbe beec ef3c
00000250: 2969 8fbc 08df 1c3d d153 2a3e 86e0 1ebd
00000260: d884 133e 9952 833d 0b99 3dbd ce9f f83d
00000270: fbe0 f93d 89d6 b8bd d482 f6bb cedb c3bd
00000280: 668e 853b a8bf f5bd a3c5 203e a1e1 94bb
00000290: 719a 983d 5c7f 613d ae9f 8ebd 923a 8fbd
000002a0: 45d8 0f3d 3672 c7bd 5923 97bd 715c b7bd
000002b0: 3929 6f3c 7bd0 afbc 60e7 ffbd cb4f d3bd
000002c0: f721 c5bd 969b 96bd 97c1 54bd f624 353b
000002d0: 330e 66bd d352 0d3e 7f27 213e efff 1ebe
000002e0: 9245 9dbd 4a48 733d dace 30bd 2bd3 42bd
000002f0: f85c 083e b858 9fbd b6a7 ce3d 0bba 293e
00000300: 2075 1d3e b749 e9bd 6cec 223e 8657 183e
00000310: 122b f0bd 8696 c7bd 20f7 52bd 521a 2a3e
00000320: 6d60 55bd aace 7cbb b709 763c 9031 39bd
00000330: c2bc 2fbe 8405 943d af06 bfbd ea0d 153e
00000340: 74ae d7bd 0798 27be 6212 473d d08b 593e
00000350: c4c6 a23d fa08 843d 216f 7bbd 33bd 8cbd
00000360: 5916 d8bd 462a ce3d 1b43 1ebc e4c1 04bd
00000370: 910c 47bd 9f98 0d3d c031 6e3d fd57 04bb
00000380: 6fd2 1f3e a670 7e3c 896e b2bc 341a 18be
00000390: 325e dcbd 2598 833d 73cd a9bd f6b2 8c3d
000003a0: f868 3d3e b280 783d f7a2 d23d ceaf efbd
000003b0: 6b65 32bd b770 fa3b a06a 36bd 1551 10be
000003c0: 0172 933d 856b f83d 4ee4 063e 0f45 9cbd
000003d0: cb52 a43d 65de 81bc 614a 1fbd 28a7 99bd
000003e0: b4e4 39be 8e1b ba3d 814b 33be 84eb 933b
000003f0: 7941 be3d 5cb4 0ebe 5e0f f63c ce56 d2bd
0.15555938 -0.09635472 0.118783735 0.12973075 0.04226403 -0.0644442 -0.047432974 0.03970204
0.14953995 -0.09910578 0.13666911 -0.06228808 0.11644145 0.11559191 0.045697164 0.011960989
0.073785275 -0.13743003 0.08717367 -0.083642945 0.17380908 0.016869843 -0.07844931 0.072966315
-0.056839734 -0.09155311 0.039875932 0.01770119 -0.027475838 -0.05739658 -0.083200276 -0.10438326
0.19556028 0.029835086 -0.04236767 -0.1813361 0.05487318 0.042279802 -0.022868842 0.0065942933
0.0920211 -0.14780658 -0.04895584 -0.017235963 0.17246199 0.08940556 0.017269468 -0.13359445
-0.11481176 0.11469586 -0.0769579 -0.06035662 -0.099184304 -0.069898956 -0.07571509 0.18784441
-0.036349926 0.11168201 0.13507839 -0.13771176 -0.0062340153 0.16356605 0.17654906 -0.024727311
-0.029892463 -0.106595136 0.07630953 0.13223015 -0.14078346 -0.04516944 0.088047504 -0.075849354
-0.08840678 -0.028458666 -0.09874686 -0.179201 -0.025348898 0.049439333 0.13848153 -0.044408035
-0.15492268 -0.043347385 -0.22737968 0.07936953 0.12605602 0.108908 0.17260881 -0.1693706
-0.00949588 -0.02037297 -0.0010362357 0.008050423 -0.052362304 -0.085825436 -0.19610533 0.12024003
-0.09994452 0.15400922 -0.06534143 0.10674968 0.04489378 0.053935476 -0.113122664 0.015762242
0.03136335 -0.18381917 -0.21916191 -0.05959191 0.008341994 -0.051161937 0.16418009 -0.06833197
0.06402017 0.0751671 0.14785041 0.12507106 0.110776566 0.030736564 0.1010072 0.12551507
0.054122075 -0.10821663 0.10780085 -0.00047677755 0.03585127 0.15584622 0.034194887 0.17303686
-0.09199273 0.06761403 0.034862142 0.08072807 -0.13115683 -0.17625546 0.19673015 0.109974846
-0.062379416 0.19036953 -0.05337162 -0.19177936 0.07142999 0.15669578 0.013427106 -0.055093132
-0.12830397 -0.15160866 -0.19835822 0.029287692 -0.017506199 0.038298637 0.16633536 -0.03878834
0.14406145 0.06412239 -0.04628853 0.12139855 0.12201115 -0.09025294 -0.00752292 -0.09563409
0.004075813 -0.11999446 0.15700392 -0.0045434986 0.07451332 0.0550531 -0.0696405 -0.06993593
0.03511836 -0.09738581 -0.07379789 -0.08953179 0.014597231 -0.021461716 -0.12495303 -0.10317954
-0.09625619 -0.073538944 -0.051942434 0.0027640439 -0.056165885 0.13801126 0.15737723 -0.15527318
-0.07679285 0.059395112 -0.04316602 -0.047564667 0.13316715 -0.07780594 0.10090582 0.16574876
0.15376711 -0.11391013 0.159105 0.14877138 -0.11726965 -0.09745507 -0.051505208 0.16611603
-0.052093912 -0.003857533 0.015016965 -0.045213282 -0.17161849 0.072276145 -0.09327447 0.14556089
-0.10531321 -0.16366588 0.048601516 0.2124474 0.07948068 0.06447025 -0.061385278 -0.068720244
-0.105511375 0.10066657 -0.009659554 -0.03241147 -0.04859597 0.03456938 0.058152914 -0.0020194047
0.15607618 0.015529787 -0.021781223 -0.14853746 -0.10760154 0.06425504 -0.082911395 0.068700716
0.18497074 0.06066961 0.10284989 -0.11703454 -0.04355375 0.007642831 -0.04453528 -0.1409343
0.07199479 0.12129883 0.13173029 -0.076303594 0.08023604 -0.015853116 -0.038889293 -0.07502586
-0.1815365 0.09087287 -0.17509271 0.0045141596 0.09289832 -0.13935989 0.030036625 -0.10270463

encoder_lstm2.weight_hh_l0 f4 [128, 32]
00000000: 5519 a73c fbc8 e4bd 1ef8 14be ab0f 02bd
00000010: b2f7 4a3d b5b2 1d3e 9ec7 4a3e 6db1 13be
00000020: a1ec 3abe cf81 36bd 3e03 bebd 568e 2bbd
00000030: 5e85 19be 3e04 243d 3514 083e f877 0d3e
00000040: dd8c 58bd e18f 4f3d 1bee 1dbe 217b aabd
00000050: f792 1ebe de19 bb3d 9eaf 043d 9608 31bd
00000060: eb13 4b3e 584a 75bd 1e76 f4ba 1816 be3d
00000070: 6a2c 55bd 935f 053e d1a4 243e b1c4 d3bd
00000080: e052 a5bb ed10 8a3c 119b ec3c f144 ea3d
00000090: 272a 863d 50f7 66bd 2154 693c c5c1 b33d
000000a0: 570d 873d efd2 b2bd ec61 89bd c566 1ebd
000000b0: eeb6 6c3d 9c85 29be 55b3 8f3d 0f14 fabd
000000c0: baeb 82bb b4fb fabd 1ac4 043e fd4e 5e3e
000000d0: 5585 05be ab72 5c3e 411d 6dbd 497b 4c3e
000000e0: 90fc d7bd 259b 40be 9937 02be 5ba0 f43c
000000f0: f50c cabd bd8c e43d 5313 383e 803e 76bd
00000100: 21ae cbbd 7ed9 8b3c b2c4 de3b 293d ecbc
00000110: dc83 45be 9dd4 153e 651f aa3d 4c16 de3d
00000120: 1b1c c0bd 2e84 5c3e e747 1a3d 9243 25be
00000130: 9ad4 a43d 2353 ffbd 845b 083e f4c7 03be
00000140: e133 453c 40b3 403e babe b53d 3a44 d73d
00000150: 5bda 273d 1341 2a3e b8fc a6ba 205b f6bd
00000160: eeb0 e13d 7c7a b2bd df59 c9bd 9842 0c3d
00000170: 9fd4 90bd 4a72 653d b0e5 673a 8a7c 0f3d
00000180: 7cf5 803d 7b5f a2bd db7c e03d 8a5c efbc
00000190: 7244 a93c 4ef4 4d3e dd7b fa3d aed5 dabc
000001a0: bbbf 07bd da17 393e efd7 5a3e 0f78 7fbc
000001b0: 2251 d43d c3aa 393e 96f4 163e 0419 81bd
000001c0: 40ad e9bd 1529 013e c31a 173e 17d4 f63d
000001d0: 9914 e9bd a8a3 0cbc bb4b b2bd b4d9 163e
000001e0: a2eb 403e 0420 39be ee81 0fbb 1cf2 243e
000001f0: d062 ef3d 8573 ae3d 0a5a 05bd b99d 8bbd
00000200: 8f61 6ebd 4d05 e4bd 2d10 4bbd 85d9 cb3c
00000210: d5df 8ebb 8170 00be 253a 473d e90f 36be
00000220: 475d 04be 2b26 15be 2309 e73d 6dec 203e
00000230: caf8 693d fdbc a1bd d8b0 0d3e b8ac 8cbc
00000240: def6 4bbc 9c36 3d3d b1fb 8f3a 3819 3a3c
00000250: 54ef 7abd a216 ccbd a774 4abd 2d09 89bd
00000260: 1b52 82bc 20fb 8bbd 6acc 063b 76e8 ab3d
00000270: 0248 68bd 786f 28be a56a ab3d 1061 413c
00000280: 53e3 3fbe 3fb6 c5bd 8c53 6cbd 57d9 8c3d
00000290: 82ae e33b 9e76 f93d 99d8 693d ca5b cebd
000002a0: f20e 21be 1a61 27be 7261 45bd 7a17 d2bd
000002b0: 713a c9bd 6ba6 ad3d f77d 2fbc c9b6 ae3d
000002c0: 065c b43d a187 5ebb a3fd b6bd 6002 f1bc
000002d0: 0010 21be 0056 98bc 1512 82bd 563f e23d
000002e0: 4a89 1c3e d43f b93d 4a03 413d 7f38 323e
000002f0: df43 fbbd cb19 bbbd fb88 7a3d 0bb9 e63d
00000300: 8872 42be 1ced 743d 3fcb e3bc 438e 00be
00000310: ca44 d2bc d7b4 5dbd ebba 75bd ee76 89bd
00000320: 74eb e43c 0529 07be b85f 243e a76d f6bd
00000330: 5422 d73d aeec 613c 8613 b6bd 2f57 263e
00000340: 821f 1c3e 2eaa b23b 811f 8bbd e6a4 bcbd
00000350: d669 d13d f2ae 6cbd c609 883d b7bb 973d
00000360: a45e 073e ac56 a7bc 399f 11be e454 bebd
00000370: c73d 44be ab60 93bd 8a49 c03d fff8 143e
00000380: 5416 e7bd 613b 87bd f175 e23c 207a ff3d
00000390: 2452 3a3e e939 193d 0300 d53d ad29 61bc
000003a0: fc5e 29bc 70eb 3ebe 2d7a 02bd fc9e fbbd
000003b0: 3b52 243e 72d7 1abc 07ff bdbc 4d71 38bd
000003c0: e1db de3d 258f ac3d 340d 37be d486 42be
000003d0: 29cb b73d f934 333c 176d 98bd df9f c43d
000003e0: b438 49be 8d1b 023e 49c8 5fbd e0eb 1a3d
000003f0: 8ae8 dc3d 66bc c43d 3ca3 0a3d 9b71 abbc
0.020397821 -0.111711465 -0.14547774 -0.031753223 0.049552627 0.15400203 0.1980271 -0.14423151
-0.1825433 -0.04455739 -0.09277962 -0.04188379 -0.14992282 0.04004311 0.13288958 0.13815296
-0.052868713 0.050674323 -0.15422861 -0.08324266 -0.1548575 0.09135793 0.032394044 -0.04322108
0.19831817 -0.059885353 -0.0018650924 0.09281558 -0.05204431 0.1302474 0.16078497 -0.1034025
-0.00504528 0.016853774 0.028882535 0.11438931 0.06551009 -0.0563882 0.014241249 0.08777193
0.06594341 -0.08731639 -0.0670813 -0.038672227 0.057791643 -0.16554874 0.07016627 -0.12210857
-0.003995386 -0.1225504 0.12965432 0.21709819 -0.13039143 0.21528117 -0.057889227 0.19968905
-0.10546219 -0.18809183 -0.12716521 0.02986162 -0.098657526 0.11159656 0.17976122 -0.0601182
-0.09945322 0.017071482 0.0067983503 -0.028837757 -0.19288582 0.14631887 0.08306769 0.108440965
-0.09380361 0.21534798 0.037666228 -0.16139057 0.08048363 -0.12467029 0.1331616 -0.12869245
0.012036295 0.18818378 0.08874269 0.1051106 0.040979724 0.16626386 -0.0012740111 -0.120290995
0.11020075 -0.08714768 -0.09831595 0.034243196 -0.07071804 0.056017198 0.0008846177 0.03503088
0.062968224 -0.07928368 0.10961314 -0.02921893 0.02066252 0.20112726 0.12230656 -0.026713219
-0.033141833 0.18075505 0.21371435 -0.015592589 0.10367037 0.18131547 0.1474174 -0.063035995
-0.11409998 0.12613328 0.14756303 0.12052172 -0.11380882 -0.008583941 -0.08705851 0.14731485
0.18839887 -0.18078619 -0.0021897512 0.16107982 0.11688769 0.08518127 -0.03255657 -0.068171926
-0.058198508 -0.111338235 -0.049575973 0.024883995 -0.004360179 -0.12542917 0.048639435 -0.17779507
-0.12926207 -0.14565341 0.112810396 0.1571519 0.05712203 -0.07897375 0.13836992 -0.017172202
-0.012448994 0.046194658 0.0010985044 0.011358552 -0.061263397 -0.09965254 -0.049427655 -0.06691203
-0.015908292 -0.06835008 0.0020568618 0.08393948 -0.056709297 -0.16448772 0.0836995 0.011802927
-0.18739061 -0.09653901 -0.057696864 0.06877392 0.006948293 0.121808276 0.05709133 -0.10076101
-0.15728357 -0.16345635 -0.048188634 -0.10258384 -0.098256 0.08479007 -0.010711185 0.08530957
0.088066146 -0.0033955353 -0.08935096 -0.029420078 -0.1572876 -0.018595695 -0.06351105 0.110472366
0.15286747 0.090453774 0.047122277 0.17404364 -0.12268805 -0.09135779 0.06116579 0.11265763
-0.18989003 0.059796438 -0.027806876 -0.12554269 -0.025667567 -0.05412754 -0.059992712 -0.06712137
0.027944304 -0.13199241 0.16052139 -0.12032633 0.105045944 0.013789339 -0.088904426 0.16244195
0.15246394 0.005452416 -0.06793118 -0.092111394 0.10225265 -0.05778403 0.06642489 0.07408851
0.13219696 -0.02042707 -0.14220895 -0.09293535 -0.19164191 -0.07196172 0.093890265 0.1454811
-0.112835556 -0.066031225 0.02764413 0.12474465 0.18195397 0.037408743 0.10400393 -0.013742846
-0.010337587 -0.186445 -0.031854797 -0.12286183 0.16046993 -0.00945078 -0.023192896 -0.045029927
0.10881782 0.0842574 -0.1787613 -0.18996745 0.089742966 0.010937923 -0.07442682 0.096008055
-0.19650537 0.12705822 -0.054634366 0.037822604 0.10786541 0.09606247 0.03384708 -0.020928195

encoder_lstm2.bias_ih_l0 f4 [128]
00000000: f51a 9ebd f942 573e 89c2 da3d d443 9d3c
00000010: 807c ab3d b52b ff3d 8db6 133e 48e1 a83c
00000020: 0801 de3d 0292 ebbd 1386 d03d 5684 253e
00000030: b18c 063e 8f46 0cbe 1744 363e eb9f ddbd
00000040: e7a5 eebd 4392 18be 46f8 b13d 0641 0cbe
00000050: 0d89 e73d 8875 52bd 578d fc3c 5c98 073e
00000060: ed79 153d eb2c 5fbd 48f1 11be cc1e 033b
00000070: 6f91 ccbc e415 f13d b57b a5bd 0afe c93d
00000080: eea7 adbd 834a 843e 96f7 093e c964 19be
00000090: d8b7 94bc 8cd5 23bd ca8c e3bd aab9 86bd
000000a0: 4d14 0f3e e433 2f3e aac4 19be ac6b aa3c
000000b0: be5d 423e 0e3b 843d eb83 353e 7122 253e
000000c0: 74c2 42bd 58f3 07be 1ec6 43bd aced 143e
000000d0: 17b5 383c 4dd9 17bd 7bd3 0cbe a4b8 703e
000000e0: b81c 513e e3df c83d a17b fbbb 0c8c 323e
000000f0: 2e5b b9bd 17aa 2b3e 2994 a53d 1f93 1bbd
00000100: a2d5 a6bd 555d 8e3d 6936 c1bd 0e99 ae3d
00000110: 7244 553d ec8d 8cbd 1234 a03d 34f5 8abd
00000120: 677a 1a3e c295 1fbe 1fb5 413d 1e8b 01be
00000130: b185 6dbd 33bc e1bd b696 8b3d 84b3 e7bc
00000140: 656e 233d c270 9bbc df86 37bd 1db7 10be
00000150: 1363 c5bd b4a3 a83d 5cb0 103e 3032 d63d
00000160: 4f42 b93d ea09 173d aee7 e4bd 095b 3ebd
00000170: 4102 2cbd c83d 3fbd 4774 233e faca 673d
00000180: 027b 003d 2be0 9ebd e952 c13d 191e 033e
00000190: 00b8 f5bd 6e75 333e 46db 163e 3588 ab3d
000001a0: 5569 d83d 667f a4bd c9c3 bcbd a6fd 06be
000001b0: 010a da3d 107b f53d 7ec0 403e b3b2 29bd
000001c0: 99ed 403e 14a3 bb3c 500e 333c 0435 31bd
000001d0: d662 e4bd b6ad 2bbc b99c 5abd 0d93 8abd
000001e0: cb1e 433e 6245 77bb 3709 8a3c 7612 9bbd
000001f0: bdea 1f3e a807 d0bd cc3d 133d d0a6 8a3d
-0.077199854 0.21021642 0.10681636 0.019197382 0.08373356 0.12459508 0.14425106 0.020615235
0.108400404 -0.11502458 0.10181823 0.16163763 0.13139607 -0.13698791 0.17799412 -0.108215176
-0.11652737 -0.14899544 0.086899325 -0.1369668 0.11305437 -0.051381618 0.030829115 0.13241714
0.03649323 -0.054486196 -0.14252198 0.002000737 -0.024971692 0.117717534 -0.08080236 0.09862907
-0.08479296 0.25838098 0.13473353 -0.14979853 -0.01815407 -0.039998576 -0.11110838 -0.06578381
0.13972588 0.17109638 -0.15016428 0.020803295 0.18981072 0.06456576 0.17726104 0.1612642
-0.047548726 -0.13276422 -0.04779636 0.1454379 0.011273644 -0.03707247 -0.13752548 0.23507935
0.20421112 0.09808328 -0.00767465 0.17436236 -0.09050594 0.16764103 0.080849 -0.037982102
-0.08146216 0.069513954 -0.09434206 0.085252866 0.052067228 -0.06863007 0.078224316 -0.0678505
0.15085755 -0.15584472 0.04729187 -0.12650725 -0.057988826 -0.11022224 0.06815855 -0.028283842
0.039900202 -0.018974666 -0.044806357 -0.14132352 -0.096380375 0.08234349 0.14129776 0.10458791
0.090458505 0.03687469 -0.11177002 -0.046473537 -0.041994337 -0.04668978 0.15962325 0.056590058
0.03136731 -0.077576004 0.09439642 0.1280445 -0.11997986 0.17525265 0.14732084 0.08375589
0.105669655 -0.08032112 -0.092170306 -0.13182697 0.10646439 0.11986363 0.1882343 -0.041430186
0.18840636 0.02290491 0.010928705 -0.04326345 -0.11151664 -0.010478428 -0.05337212 -0.06766329
0.19054715 -0.0037730564 0.016850097 -0.075718805 0.1561689 -0.1015771 0.035947606 0.06770098

encoder_lstm2.bias_hh_l0 f4 [128]
00000000: 4cf6 a1bd 739f 2e3d 855c 8dbd 4de7 0d3e
00000010: 4e73 913d e623 8abd 818d 0e3e 1bcb b53d
00000020: 4d3b 3d3e 214d 14be b518 a3bd 9435 9c3c
00000030: e9c8 283e 4f64 363e 205f aebd 70fa c53d
00000040: 7db7 af3d 50ac 6fbc c857 56bd d4e7 d63d
00000050: a13b 1a3d 4d76 cfbd 5d74 663c 95c4 343e
00000060: e567 303e 7ff9 86bd 7f3d 1f3e 691b e8bc
00000070: ff8b 513d a205 303d 34f0 043d f718 e4bc
00000080: c1b9 273d 9b94 4e3e 24ef 553d c41c 1bba
00000090: 07ba 663c 3a30 e7bd 9e36 1ebe 701c 8abd
000000a0: ed2f f7bc 002d 953c f6bb 7ebd 7405 c33d
000000b0: 53ec 473d 5fbe 943d 4b65 723e d257 0a3e
000000c0: 85f0 963d c09f c0bc 2a9b 3e3e 35b9 ddbd
000000d0: 7963 5ebc fed9 03be 0ec9 073e f1ce 023d
000000e0: 656b c9bd 6322 20ba cb15 a3bd c2b8 203e
000000f0: 4911 3c3d 2bf5 d6bd d9a4 ae3d c009 c7bb
00000100: 5cb1 113e 24cf 28be df3e fb3c db56 f43d
00000110: a7de dcbb 7a64 213e 7c72 c93c 146e d6bc
00000120: 30ec 7cbd 8fb9 27bd 70c7 2bbd 5ad6 18be
00000130: 2807 2f3e 7245 f7bd 92e8 29be 658c 40be
00000140: c29c 46bc 83c6 ccbd a24e e1bd 7746 f7bd
00000150: 254f f63d b314 f33c 7da9 b73c 0c9b 92bd
00000160: ca34 dbbd d1af 053d 27a6 d9bc d416 103e
00000170: 2a4a c13d db5e 15be c222 bb3c 9260 63bd
00000180: 8a8e 0c3e 19f0 bdbd 865d cd3c ebb9 0f3e
00000190: d1db 58bc dee0 3a3d 180b 13be 6700 8a3d
000001a0: 6657 43bc ac36 083e 9563 233d 1196 033e
000001b0: 083c 70bd 0a1c 18be 20ee 8abd 64c9 a2bd
000001c0: 1cd7 a73d 4294 b5bc 3688 3b3e 5a12 48bc
000001d0: bd33 a0bd 3834 5dbd 4457 f2bd 4032 cc37
000001e0: c495 e53b 4341 eb3d 0574 323e dc3e cf3c
000001f0: 66e1 373d a758 cd3d 8486 32bb a703 5e3d
-0.079083055 0.04263253 -0.06902412 0.13857765 0.07102071 -0.06745128 0.13921167 0.0887663
0.18479653 -0.14482547 -0.07963697 0.019068517 0.16482891 0.17811702 -0.085142374 0.09666908
0.085799195 -0.014628485 -0.05232981 0.104934365 0.037654523 -0.10129986 0.014065829 0.17653115
0.17227133 -0.06590556 0.15550803 -0.028333383 0.0511589 0.042974122 0.032455638 -0.027843935
0.040948633 0.20173876 0.052230015 -0.0005917067 0.014082438 -0.11288495 -0.15450522 -0.06743705
-0.03017422 0.018209934 -0.062190972 0.095225245 0.04880936 0.07262873 0.23671453 0.13510063
0.07370094 -0.023513675 0.18613878 -0.10826341 -0.013573521 -0.12876126 0.1326029 0.031935636
-0.09834937 -0.00061086396 -0.07963141 0.1569548 0.045914922 -0.10495981 0.08527536 -0.0060741603
0.14227813 -0.16485268 0.030669628 0.11930629 -0.0067404094 0.15760985 0.024590723 -0.026175536
-0.061748683 -0.040948447 -0.041938245 -0.14925519 0.17092574 -0.120737925 -0.16592625 -0.18803556
-0.012122335 -0.099988006 -0.11001326 -0.12073987 0.12026814 0.029672956 0.022419685 -0.07158479
-0.10703428 0.032638375 -0.026568485 0.14071208 0.09437974 -0.14586966 0.022843722 -0.05551202
0.1372625 -0.092743106 0.02506901 0.14035766 -0.013236002 0.045624606 -0.143597 0.06738358
-0.011922693 0.13302106 0.03988989 0.12850215 -0.058651 -0.14854446 -0.067837 -0.079485685
0.08195326 -0.022165421 0.18313679 -0.012211407 -0.07822368 -0.054004878 -0.11833051 2.4342095e-05
0.007006379 0.11487057 0.1742707 0.025298528 0.04489269 0.10026675 -0.0027240822 0.054202702

encoder_fc.weight f4 [16, 32]
00000000: 5c81 bfbd 71a8 76be 6be9 01be e804 fb3c
00000010: 391a 6abe 2b3d 673e 70f5 663e 07be 083e
00000020: 4d0f 2d3e 1436 bf3d 5e3f babd 6acf c63d
00000030: b89a 00be f56b 4c3d a72b eabd 6853 11be
00000040: a3ca 283d c1f0 933d 5acb 0c3e e600 3f3e
00000050: f764 91bd e06c 2d3e 9851 613e 47b9 713a
00000060: 10cb 183e af35 ae3d 57a6 033e 0c3a 553e
00000070: 052f 363d 5da5 5ebe 854c a5bd bb88 51be
00000080: 483b b23d ffa3 f1bd 97f3 2ebe eee9 7fbc
00000090: a147 283e aa68 083e 78d7 883c 38cf 19bd
000000a0: c72d 8b3d a749 9f3d 28ca 2dbe 0557 2dbe
000000b0: 23f1 483e 419a b53d 515c 913d 5ef6 933c
000000c0: 18d9 153e 0a2d 0b3e b39b 9cbb a231 09bd
000000d0: 3c23 613d 04f9 d4bd 9437 cdbd 488b af3d
000000e0: f9f2 1f3e 787c 143e d53b f43d 4b90 18be
000000f0: 98b9 21bd 8ae4 b1bd 96bf 80bd 16cc d43c
00000100: 3c15 a73d ba10 59bd 8701 0e3e f1cf 943d
00000110: 5e4e 0c3e 2f5b 72bd 103c 9ebd cdc3 1cbe
00000120: c32a d93d fd80 a53c 17e2 d5bd 617f a3bd
00000130: cff7 543e 72e4 3abd efe3 383e 40b3 8cbd
00000140: faad 91bc 8550 d7bd b288 b9bd c6a1 c1bd
00000150: 2791 473d aec4 19be 7665 173e 7a7f febd
00000160: cdc8 e7bd ede9 073e 69a3 d13b 8b92 653d
00000170: f289 98bb 4280 7a3c 593e 2e3e eb53 113e
00000180: e1aa 9e3d 5faa abbd cc77 15be 81a3 0abd
00000190: 1508 423d c3c7 613e b415 cebd 6856 08be
000001a0: 4604 81bd a795 0ebd 6b31 aebd a8d4 2a3e
000001b0: 33ad 51bd cf6d 1b3d 51ed e9bc 3747 27be
000001c0: adf7 2b3e 3eef 9d3d 07fa 073e a600 1f3e
000001d0: 7d4d a53d 0b0f 93bd f5d8 f63d ceaf 1c3e
000001e0: 813d dfbb 5027 e4bd 4d6f 1e3e e4f0 163e
000001f0: 5359 ffbd 688c 4b3d 50cd 383e b786 65bd
00000200: 4dec 57be 7b2d 823c 22aa b1bb 1189 5e3e
00000210: a9a4 40be a734 233e 6a0f 7e3d 9a8d 07bd
00000220: 2c3f 9fbd a0c3 073e 6f6f f63d 8533 343e
00000230: 6a98 da3d eeff debd 7795 50be 29df 08be
00000240: efdf 6c3e 0447 263e 07fb 943d 9d96 ea3d
00000250: 2d5f fbbd 3731 953d 6ff6 123e f2d5 cf3c
00000260: 5891 c4bd e7c7 66be 9180 86bc ea0a 573e
00000270: ae6f 55be 8aca 6ebe e5a5 fc3d f3e1 1fbe
00000280: a49b 26be f60a 3abe 9730 c3bd 96c5 373e
00000290: 1f0b acbd 4901 0abe ccaf dcba 7377 92bc
000002a0: c5b5 ac3d f437 bf3d 07d7 683c cf61 453e
000002b0: 2dac 523c 3b89 503d c859 21be c135 57be
000002c0: 1082 733b 7870 92bd d13a d73c 0453 f7bd
000002d0: c7fd c7bd d788 ed3b d55c c33d f472 3e3e
000002e0: 6f70 1a3e 2950 24be 4f3f bc3d e1a9 9bbd
000002f0: 51c9 43be 650f 07be 1536 223e 862f 02be
00000300: 9a52 92bc d417 f0bd 77eb 03be d4b9 743d
00000310: b131 6b3e 590d 54be bb21 c2bd 03f5 1ebe
00000320: 6538 bfbc 8308 4abe ca25 c0bd d40f abbd
00000330: 42e9 623e 7a80 35bc 9716 01be a1d2 9e3c
00000340: 0585 f2bd 640b 6cbe 73c4 e03b 4dd4 6e3d
00000350: 7ea9 403e 864b d93d 3235 bcbd d6eb 04be
00000360: 2f4e 75be 5e40 f03d 7c40 5cbd 9576 a93d
00000370: d0ca 9abd 93a3 4b3d 5e6a bf3d cb9b 50bd
00000380: 9ffe 243e 7929 5a3d 80d5 cd3d 3896 863d
00000390: 2211 cfbd 110e bfbd 2b89 0c3e 85a3 29be
000003a0: 871f 483d 0ec1 f63d a634 2ebd 5ee8 9e3d
000003b0: 23c6 0a3e a051 03bd 5383 1fbe cdb5 c2bd
000003c0: 41cd a93d c8aa c73d 4c0c dabd 0fdd 7b3d
000003d0: be47 b33c ee9c 493d 1f40 08bd 21fc e7bd
000003e0: b5f1 ddbd 316e e93d d494 913d 0554 b13d
000003f0: bb3b 153d 19aa c6bd 2cc3 2bbc 6044 2a3e
-0.09350845 -0.24087693 -0.12686698 0.030641988 -0.22861566 0.22581927 0.22554564 0.1335374
0.16900368 0.093364865 -0.090941176 0.0970753 -0.1255902 0.049907643 -0.11434107 -0.14191973
0.041208874 0.072236545 0.13749447 0.18652686 -0.07099336 0.16936064 0.22003782 0.0009221029
0.14921212 0.08506333 0.12856422 0.20822924 0.044478435 -0.21742769 -0.080712356 -0.20462315
0.08702713 -0.11798858 -0.1708511 -0.015619738 0.16433574 0.13321176 0.016704306 -0.037551135
0.06795841 0.0777772 -0.16971648 -0.16927727 0.19623236 0.08867312 0.07097686 0.018061813
0.14633596 0.135914 -0.004779303 -0.0334946 0.054965243 -0.103990585 -0.10020366 0.08571488
0.1562003 0.14500606 0.119254746 -0.14898793 -0.039483637 -0.086861685 -0.06286542 0.025976222
0.08158347 -0.052994467 0.1386777 0.07266224 0.1370177 -0.05916899 -0.077263 -0.15309067
0.10603859 0.020203108 -0.10443514 -0.0798328 0.20797656 -0.04562802 0.180557 -0.06870127
-0.017783154 -0.10513405 -0.09059276 -0.09454684 0.048722412 -0.15016434 0.14784798 -0.12426658
-0.113175966 0.1327283 0.006397654 0.056047957 -0.0046551162 0.015289368 0.17015971 0.14192168
0.07747436 -0.08382105 -0.1459648 -0.033847336 0.04737099 0.2204886 -0.10062733 -0.13314211
-0.06299643 -0.03481069 -0.085055195 0.16682684 -0.051190566 0.03794652 -0.028555544 -0.1633576
0.167937 0.077116475 0.13278972 0.15527591 0.0807142 -0.071806036 0.120531 0.15301439
-0.0068127518 -0.11140311 0.15472145 0.1474033 -0.12468209 0.04969445 0.1804707 -0.056036677
-0.21086235 0.015890827 -0.0054218927 0.21731974 -0.18812813 0.15938054 0.06202642 -0.033094026
-0.07775721 0.13258219 0.12032973 0.17597778 0.10673602 -0.108886585 -0.20369516 -0.13366379
0.23132299 0.16238028 0.07274442 0.114545085 -0.12274013 0.072847776 0.1435182 0.025370572
-0.095980346 -0.22537194 -0.016418727 0.21000257 -0.20843384 -0.2331945 0.12336329 -0.15613537
-0.1627031 -0.18168244 -0.09530752 0.17946467 -0.08400559 -0.13477053 -0.001683706 -0.017879223
0.08433107 0.09336844 0.014211423 0.19275592 0.012858433 0.050912123 -0.15756905 -0.21016599
0.003715638 -0.07150358 0.026273163 -0.12076381 -0.09765201 0.0072489786 0.09539191 0.18598539
0.15081953 -0.16046204 0.09191763 -0.07600761 -0.19119765 -0.13189466 0.15840943 -0.12713441
-0.017861653 -0.11723295 -0.12882791 0.059747532 0.22968175 -0.20708217 -0.0947909 -0.15523152
-0.02334232 -0.1972981 -0.09382208 -0.08352628 0.22159293 -0.0110779945 -0.12606274 0.019387545
-0.11841778 -0.2305122 0.006859356 0.058307935 0.18814656 0.10610108 -0.09189834 -0.1298059
-0.23955606 0.11731027 -0.053772435 0.08274571 -0.07558215 0.049716543 0.0934646 -0.050929826
0.16112755 0.053262208 0.100504875 0.06571621 -0.1011069 -0.09328855 0.137242 -0.16566284
0.04885819 0.12048541 -0.04253068 0.07759164 0.13552146 -0.032060266 -0.1557744 -0.09507332
0.08291102 0.09749371 -0.10646877 0.061490115 0.021884795 0.049221925 -0.033264276 -0.11327387
-0.108371176 0.113979705 0.07108465 0.086586036 0.036433917 -0.09700412 -0.010483544 0.16627645
