models/anomaly_models/WH005_SKU-012.pth (torch, 242563 bytes, 20 tensors)

encoder_lstm1.weight_ih_l0 f4 [256, 6]
000000 13 1c 82 3d 50 aa 7c 3d 63 75 76 3c bb 8b b3 bc
       0.06353011 0.06168586 0.015042636 -0.021917215
000010 b0 c4 eb bd ed 07 65 bd 6b cb a1 bd 22 00 d9 3d
       -0.115121245 -0.05591576 -0.07900127 0.105957285
000020 33 3e 02 3e 92 92 90 bd 0c d5 1a bd bc 33 1e bd
       0.1271904 -0.07059206 -0.037800834 -0.038623556
000030 88 12 92 3a dc 85 f0 bd 19 42 51 bd 8d 76 30 bc
       0.0011144439 -0.11744282 -0.051088426 -0.010770452
000040 71 65 f0 3b dc 0a c4 3d a6 a1 1f bd 6b 3e 12 3b
       0.0073363115 0.09572384 -0.03897252 0.0022315036
000050 3b a8 50 3d ec 40 be bc 47 96 a7 3d 72 cb ab 3c
       0.050941687 -0.023224317 0.0818296 0.020971034
000060 8c 79 ce bc 13 29 ec bd 34 22 51 3c 32 6b a0 3c
       -0.025204442 -0.11531272 0.012764502 0.019582365
000070 53 c4 b1 3d 74 03 0c 3e 1f a7 ef 3b 7f cb 9a bd
       0.08680024 0.13673192 0.0073136236 -0.07558345
000080 6d 0d e5 bc 54 61 c0 bd 69 34 e5 3c 19 28 04 bd
       -0.027960503 -0.09393564 0.027979093 -0.032264803
000090 6a 43 36 bc a7 de 8a bd b9 29 1c be e3 64 78 3d
       -0.011124471 -0.06780749 -0.15250291 0.060643088
0000a0 40 0d e6 3d 36 0d e2 bd 8e fc a5 bb 19 3d 3e 3d
       0.11232996 -0.11037676 -0.0050655073 0.046444986
0000b0 45 49 a9 bc 0d d5 a9 bd 7d 4e a1 3d 3d 80 0e 3e
       -0.02066482 -0.08292589 0.078762986 0.13916107
0000c0 7e 6e 9e 3a ba 84 5e bd cd 29 ed bc d1 65 82 3d
       0.0012087373 -0.054325797 -0.028950596 0.06367076
0000d0 82 af 00 3e 3f aa 9d 3d c6 8f 90 3d 9a f0 96 bb
       0.12566951 0.076984875 0.070586726 -0.0046063187
0000e0 a5 f4 7f 3d 7a 45 4a 3d 39 4a a0 3d f1 50 89 3d
       0.06248917 0.049382664 0.07826657 0.067048915
0000f0 c5 b8 ee 3d 75 f3 bf bd 42 43 62 3c c6 01 b6 bd
       0.11656336 -0.093726076 0.013809981 -0.08887057
000100 d8 80 69 3c ce fe 17 be 7f d2 fb 3d f9 52 a0 3d
       0.01425191 -0.14843294 0.12296008 0.07828326
000110 b8 e4 cf bd 12 89 82 bc 6f c7 90 bd 60 35 99 3d
       -0.101510465 -0.0159345 -0.07069289 0.074808836
000120 b6 1d dc 3c 7d ca 08 3d 5d 83 e2 3d ad 78 24 b9
       0.026869636 0.033396233 0.11060212 -0.00015685214
000130 48 32 1f 3d ec 16 d0 bd 40 02 9d bd fa fd 8f bc
       0.03886631 -0.10160622 -0.07666445 -0.01757716
000140 01 f7 53 3d f6 ba 54 bc 1b d1 82 3d 6c 29 e0 3c
       0.051749233 -0.012984028 0.0638754 0.027363501
000150 a9 83 0a be 43 f4 db bd 50 6c a1 3d 02 4c d2 3d
       -0.13526787 -0.107399486 0.07881987 0.102684036
000160 f6 22 a2 bd ba 9d e3 bd 90 30 b2 3d 38 54 cd bd
       -0.079168245 -0.11114068 0.08700669 -0.10025829
000170 4c df b8 bb 96 9b 29 3d e8 c7 d0 bd b2 e6 e4 3d
       -0.0056418534 0.041408144 -0.10194379 0.11176814
000180 6a bf d6 3d c2 10 f7 3d ca 68 0d 3d 0b 2b 85 3d
       0.10485728 0.12063743 0.034523763 0.065023504
000190 fa cd 01 bd 32 e6 0f 3e a8 25 03 3d 9b 81 12 3c
       -0.031690575 0.14052656 0.032018334 0.008942033
0001a0 66 aa 3e 3d 23 62 98 bc 8a da c2 3d 39 55 c3 3d
       0.046549223 -0.018601483 0.09514339 0.09537739
0001b0 d0 c0 9f bc 2a 04 75 3d f7 f6 2f 3d f9 ce f1 bd
       -0.01950112 0.059818424 0.042960133 -0.11807055
0001c0 ed 3a ad 3d a4 98 45 3c d6 53 27 3d bd a5 bd bd
       0.08458505 0.012060318 0.040851437 -0.09260128
0001d0 e2 4a 76 3d bb a9 c4 bd e3 de 9d 3d 93 cc 0d 3e
       0.060130008 -0.09602686 0.07708528 0.1384757
0001e0 f1 e8 0b 3c 3c 3c b3 bd 7c 70 6a 3d b7 90 e9 3d
       0.008539424 -0.08751723 0.05723618 0.11404555
0001f0 b7 ee 61 3c 40 3a 9d bc 6e 67 a1 bd df 77 ab 3b
       0.013789824 -0.019192815 -0.07881056 0.0052327956
000200 0b 96 a2 3d 33 42 5d bc cb 30 e2 3c fc ca f5 3d
       0.07938775 -0.013504553 0.027611157 0.12001607
000210 39 83 c7 3d cb e5 35 bc b2 e8 16 3e 05 44 09 3e
       0.097418256 -0.01110215 0.14737204 0.13404854
000220 cc 28 80 3d 75 3d df bd 0b 12 72 bc 0c d5 11 be
       0.062577814 -0.10900394 -0.01477481 -0.14241427
000230 6f 24 9e 3d 8c 53 32 bd e8 4b a1 3c 0f 1e a1 3d
       0.07721793 -0.043536708 0.019689515 0.07867061
000240 9a f7 6f bc 7e 34 d9 bc 69 93 5f bc 54 5f e6 3d
       -0.014646435 -0.026514288 -0.013645985 0.11248651
000250 42 77 ac 3d ac e9 21 bc a5 45 e7 bd 6d ad a5 3d
       0.08421184 -0.009882372 -0.112925805 0.08089719
000260 e6 56 d1 bd 72 8a 2b bd 18 2b e8 3d 65 52 c3 bd
       -0.10221653 -0.04188008 0.113363445 -0.095372
000270 da eb db 3d b3 35 ec bd 28 67 ce bd 39 b6 26 bd
       0.107383445 -0.1153368 -0.10078269 -0.040701125
000280 af 42 86 bd b6 8f 95 3a e5 d7 a5 3d 8b 2a 70 bd
       -0.06555688 0.0011410627 0.08097819 -0.058634322
000290 6e 1d d1 3d 70 f4 93 3d eb c5 92 3d 2f 2b fb bb
       0.102106914 0.07224357 0.07166656 -0.00766506
0002a0 38 78 eb 3d f4 e8 a8 3d 30 3a a9 bd 84 32 b1 3d
       0.11497539 0.08247557 -0.082630515 0.08652213
0002b0 5f 88 eb 3d 6e 6b c0 bd 32 b6 45 3d 18 bc df bd
       0.1150062 -0.093954906 0.048269458 -0.10924548
0002c0 c0 96 c1 bd d8 e8 f2 3b 77 a1 e3 bb 56 77 73 bd
       -0.094525814 0.007413011 -0.0069467383 -0.05943998
0002d0 5c 3b a0 bc be e9 9a bc 3a f5 4f 3d e0 9f 7d 3c
       -0.019559555 -0.018910285 0.050770976 0.015480012
0002e0 54 6f 88 3d f5 33 77 bc cf 8e 92 3c 82 b8 c3 bd
       0.06661859 -0.015088071 0.017890362 -0.095566764
0002f0 09 2d 0a 3e 15 65 9d bc bc 31 91 bd 86 02 68 3d
       0.13493742 -0.019213239 -0.07089564 0.05664303
000300 a2 c6 dd bd 4b df 16 bd bc 6b b2 bd 12 ec 88 bd
       -0.10828902 -0.036834043 -0.08711955 -0.06685652
000310 56 ee 9d 3d 30 48 a5 bc 63 c6 fa 3b f9 48 ab 3d
       0.077114746 -0.020176023 0.007653044 0.08363528
000320 8b 8d 7c bd 39 cb 8b 3d 3b 5b a1 3d 3c 42 96 3c
       -0.061658423 0.06825871 0.07878729 0.01834213
000330 2a 8f c1 3d dd c1 f4 bd 1c 28 f5 3d 53 5d 0f 3e
       0.094511345 -0.11951039 0.11970541 0.14000444
000340 cc 46 d7 bd 46 f2 66 bd 55 9f ad bd 69 41 1b bd
       -0.1051155 -0.056383394 -0.08477656 -0.037904177
000350 e7 19 54 3c f0 4c fb bd e4 f8 41 3d f4 b3 1b 3d
       0.012945629 -0.12270534 0.0473565 0.038013414
000360 67 9c 06 bd b4 15 b3 3c 27 fa dc 3d bb a0 d7 3d
       -0.032864 0.021860935 0.107899 0.10528704
000370 55 b5 d1 3c 69 63 67 bc 99 ae 26 bd ce 88 34 bc
       0.025599161 -0.014122822 -0.040693853 -0.011018945
000380 1c f7 aa 3d 89 e4 d2 bd 14 73 ac bc 9a a7 df 3d
       0.083479136 -0.10297496 -0.021050967 0.10920639
000390 7f 34 43 3d 53 7b e7 bd 25 83 89 bd 2e 2e ff 3c
       0.047657486 -0.11302819 -0.06714467 0.03114995
0003a0 d1 ae 0c bd a5 d1 e0 3d ae 0c 85 bd e5 27 bf 3c
       -0.034346405 0.109774865 -0.06496559 0.023334453
0003b0 0e ea 37 3d 8f fa a3 bd fd 92 2b bd 68 7e a9 bd
       0.044900946 -0.08006775 -0.041888226 -0.08276063
0003c0 5f 74 15 3e e6 e5 e1 3c 1e d3 d5 3d 6f 2e aa 3d
       0.14595173 0.027575444 0.10440658 0.08309638
0003d0 bd 4a ce bc cb e8 d6 3d 2c e9 b2 3c f3 60 b3 bb
       -0.025182122 0.104936205 0.0218397 -0.0054742037
0003e0 8b 3b 99 3c f5 53 a6 bb 96 fc b2 3d dc 9f ad 3d
       0.01870515 -0.0050759264 0.08739583 0.084777564
0003f0 12 0b 4f 3d 75 cd f2 3d 9c 61 9d bd d9 24 f1 bd
       0.050547667 0.11855594 -0.07684633 -0.11774606

encoder_lstm1.weight_hh_l0 f4 [256, 64]
000000 2b f7 f9 3d 5c aa 1b 3e 59 01 02 3b 47 e7 02 3e
       0.12205347 0.15201706 0.001983723 0.12783538
000010 bc d6 ef 3d b9 d6 28 3c 71 8a 85 bd a9 71 24 bd
       0.11710879 0.0103051 -0.06520546 -0.040147457
000020 38 66 1f 3c 43 5e 74 bd fc 0e 0d be 62 66 31 3c
       0.009728961 -0.059660207 -0.13775247 0.010827633
000030 2d d8 bf 3d bd 3c 90 3c 85 ca 2c 3e 5f 28 05 3e
       0.09367404 0.017607087 0.1687413 0.13003682
000040 f6 0a 18 3d 80 3a 95 bd 2c bf d7 3d 6b 6d 16 be
       0.03711983 -0.072865486 0.1053451 -0.14690177
000050 52 74 b9 3c d7 2b 4e bc 5f dd 07 3d 3c 0b da bc
       0.022638474 -0.012583694 0.0331701 -0.026616685
000060 1e 87 97 bd 45 8b 95 3d 27 36 8a 3d 0a 20 b6 bd
       -0.073988184 0.07301954 0.0674861 -0.0889283
000070 df 9f 49 bd 5b cb 92 3d 8b 48 a6 bd 7f 67 b7 3d
       -0.04922473 0.07167693 -0.08119305 0.08955287
000080 45 3e 15 bc 3f 4f 6d 3d 32 70 5b ba 4c 24 08 3e
       -0.0091090845 0.057936903 -0.00083709054 0.13295096
000090 5c 49 0a be 91 6a 43 bd 89 18 19 3d 26 f2 eb bd
       -0.13504547 -0.04770905 0.037376914 -0.115207955
0000a0 96 02 ed 3d 03 2c 0b 3c 90 1f c9 bd 49 92 47 bd
       0.11572759 0.00849438 -0.09820473 -0.048723493
0000b0 ff 79 92 3d 3d 8c 90 bc 2e a9 c7 bd da 76 c1 3d
       0.07152175 -0.017644996 -0.09749065 0.09446497
0000c0 48 a1 ec 3d 9a d1 0b bd 0e 85 1b 3b 40 3c 1c be
       0.115541995 -0.03413544 0.002373043 -0.15257359
0000d0 93 1f 3a bd bc f1 6f bb 22 0d 46 3c e4 1b e2 3c
       -0.045440268 -0.003661259 0.012088092 0.02760119
0000e0 8f c8 c1 bd 63 5d d1 3d 42 5b 53 3d a3 38 ff bd
       -0.09462082 0.1022289 0.051600702 -0.124619745
0000f0 cd 96 b5 3c f3 8b 54 3d 83 49 b7 bd f5 d5 aa 3d
       0.022166634 0.05189128 -0.08949568 0.0834159
000100 4f 12 01 bd 37 47 11 3d d3 96 0d be f7 68 03 3e
       -0.0315116 0.035468306 -0.13827066 0.1283301
000110 8e c4 67 3d 75 54 d3 3d 82 27 04 3d 32 ea 3a 3c
       0.056583934 0.10318843 0.03226424 0.011408376
000120 08 d1 03 3d 52 af 12 3d a5 32 1e 3d 3e 52 f2 bd
       0.03218177 0.03581173 0.038622517 -0.11832093
000130 51 30 df 3c bb 54 ef 38 e4 bb 92 3d a0 52 bf bd
       0.027244719 0.0001141219 0.071647435 -0.09341931
000140 35 f3 ff 3d 02 dc bf 3d a1 be 42 bd a0 3b 11 3e
       0.1249756 0.09368135 -0.04754508 0.14182901
000150 26 06 12 3e 42 2d dd 3a be a2 9c bc 80 7d db 3d
       0.14260158 0.001687445 -0.01912057 0.107172966
000160 63 23 8d 3d ef b2 e5 bd 33 c1 d4 bd 0f 73 35 3e
       0.06891515 -0.112157695 -0.10388412 0.17719673
000170 21 62 bd 3c 71 d5 85 bd 07 a9 4f bd cb 16 9e 3d
       0.02311808 -0.06534851 -0.050698306 0.07719191
000180 a9 ec 29 3d d9 f8 a4 bd f3 c9 d2 3d 04 0a 08 be
       0.041485462 -0.080552764 0.10292425 -0.1328507
000190 03 f1 eb 3c bc fa 77 3d b9 2d 84 bd fb 4e e5 bc
       0.028801447 0.060541853 -0.064540334 -0.027991762
0001a0 a3 e9 8a 3d f8 ba 2c 3d bd 06 9d 3c 14 db 03 3e
       0.06782844 0.042170495 0.019168252 0.1287654
0001b0 41 e4 be 3c d3 92 cc bd 90 d4 be 3d 4e 35 b1 bb
       0.0233022 -0.09988942 0.09317887 -0.0054079657
0001c0 b5 35 f1 bb f4 68 9f 3d 8f 25 bb 3c 5b 6d 33 bd
       -0.0073611387 0.0778369 0.022845058 -0.04380546
0001d0 87 45 9b bd b1 7a 03 3e 42 65 d3 3d c1 40 ab bb
       -0.07581621 0.12839772 0.10322048 -0.005226225
0001e0 8e d2 6f bd ae c1 9d 3d 25 9d 5a 3d 7b 29 82 3d
       -0.05855041 0.07702957 0.05337252 0.06355568
0001f0 6a d2 03 3a 51 cb 0c be 82 6c ba bd a5 fe 8f bd
       0.00050286076 -0.13749434 -0.091027275 -0.070309915
000200 91 d5 df bd 0c e0 69 bc 3d b4 ef bc 1d 3d fe bd
       -0.109294064 -0.014274608 -0.029260749 -0.12414
000210 a1 8c b9 bd 06 01 88 3d 0e ec 00 3e 47 e7 95 bd
       -0.09060026 0.0664082 0.12590048 -0.07319503
000220 27 c0 43 bd 9d 9e 19 bd e7 bf be 3d a9 da 74 3d
       -0.047790673 -0.03750478 0.09313946 0.059778843
000230 8b 59 c1 bd cb c2 45 3d 16 3d c1 bd ad 6c 9d bd
       -0.09440907 0.048281472 -0.09435479 -0.07686744
000240 46 c6 ce bc 86 5f 74 3d ca 91 20 3d 36 ae a3 3c
       -0.025241029 0.05966141 0.039201535 0.019980531
000250 79 97 dc bd 68 89 f2 3c ec 0d 7b bd 42 3f 5f 3d
       -0.107710786 0.029606536 -0.061292574 0.054503687
000260 4b 53 51 bc ab 62 a0 bd 43 3b a9 bc aa 0d 9a bd
       -0.012776206 -0.078313194 -0.020658141 -0.075221375
000270 61 61 b7 3d ca 24 87 bc 98 eb b0 bd 02 84 c4 bd
       0.089541204 -0.016497035 -0.08638686 -0.09595491
000280 ba 81 72 3d 21 e7 8b bd cb a2 ff bc 8d c3 03 be
       0.05920575 -0.06831194 -0.031205555 -0.12867565
000290 18 85 eb 3d be 1b 98 3d 51 db 0c be 9f d9 dd bd
       0.11499995 0.074271664 -0.13755538 -0.108325236
0002a0 59 ab d3 bd 8e a4 2f 3d b5 3e 9b bc 20 89 2d bd
       -0.10335416 0.04288154 -0.0189508 -0.0423671
0002b0 b4 27 ed 3c f8 37 30 bd b9 c7 05 be 71 30 24 3d
       0.028949596 -0.043022126 -0.1306447 0.04008526
0002c0 27 10 05 bd 90 be 98 3c b2 e7 48 3d b8 48 cb bd
       -0.032486107 0.018645555 0.049049087 -0.099259794
0002d0 12 e0 1b 3d a5 7a 0a be f0 d8 bc bd 21 1f 9a bd
       0.038055487 -0.13523348 -0.09221065 -0.075254686
0002e0 f0 d7 70 bc e3 18 2a bd ae 86 ef 3c 65 ca f1 bd
       -0.014699921 -0.04152764 0.029239025 -0.11806182
0002f0 98 17 1c bd 24 96 8e 3d 2f f7 ad 3d a3 65 70 3d
       -0.03810844 0.06962231 0.08494412 0.05869068
000300 ba 4d a5 bb d7 0e 2e 3d 4d 05 40 3c aa ae 6a bd
       -0.005044666 0.04249462 0.011720014 -0.05729548
000310 52 51 92 bc 15 41 b1 bd 07 dc 09 3e a5 f6 17 3e
       -0.017861042 -0.086549915 0.1346284 0.14840181
000320 c9 9d cb 3d 10 d7 fc bc 89 d7 91 3d 01 2b db 3d
       0.099422045 -0.030864269 0.07121188 0.10701562
000330 de bf 87 3c d0 9b cd bd 28 4a 00 3e 16 f8 7c bd
       0.016570982 -0.100394845 0.12528288 -0.06176003
000340 05 59 cb 3d da 67 4a 3d e7 5e 8f bd ba d3 94 bd
       0.099290885 0.049415447 -0.07000523 -0.07266946
000350 dd d1 4e bd 4d 35 76 3d 29 e8 82 bd 33 60 8c bd
       -0.05049311 0.060109425 -0.06391937 -0.06854286
000360 97 61 00 3e 29 8f 94 bd 76 eb dc 3d ad 17 a6 3d
       0.12537228 -0.07253868 0.10787098 0.081099845
000370 f1 d7 8e 3c 79 7b 20 3e e7 60 1d 3e 16 5e 0a be
       0.017436953 0.15672101 0.15368997 -0.13512453
000380 03 38 f5 bd 4d 55 f0 bc 30 6e 26 bd 25 1d cb 3c
       -0.11973574 -0.02933755 -0.040632427 0.02479417
000390 f8 fb c2 bd b9 ae 14 bd a6 16 10 3e f4 49 48 bd
       -0.095207155 -0.03629944 0.1407114 -0.048898652
0003a0 3d 37 47 bd 7e a7 10 be d1 f1 a0 bd fd f7 8d 3d
       -0.048636664 -0.14126393 -0.07858623 0.06932066
0003b0 06 b8 c7 3d dd c4 87 bd 8b 82 9d bd 8a 55 c8 bc
       0.097518966 -0.066293456 -0.07690915 -0.02445485
0003c0 04 bc b1 3d 2a 6b f7 bd ba c1 5c bc 10 bb 02 3d
       0.08678439 -0.12080987 -0.013473922 0.031916678
0003d0 e9 68 5c bd 7f 30 0e 3e 2f 4c 71 3d 88 34 0e 3c
       -0.053810988 0.13885687 0.058910545 0.008679517
0003e0 d8 31 55 bd 5f a2 a1 3d e6 76 4a bd e3 64 9e bd
       -0.052049488 0.07892298 -0.049429797 -0.07734086
0003f0 0c 51 af bd ac 3a 56 3c 76 33 1e 3e 7e a2 24 bd
       -0.0856038 0.013075512 0.15449318 -0.040194027

encoder_lstm1.bias_ih_l0 f4 [256]
000000 3f d0 d5 3d 80 3b e1 3d 0d 37 9b 3d 8d 83 9d bd
       0.104401104 0.10997677 0.075788595 -0.07691107
000010 6c 22 d7 bd d6 ea c8 3d 13 8d c7 bc a0 0c 6e bd
       -0.10504612 0.098104164 -0.024359262 -0.05811751
000020 f7 99 e1 bd 6d f5 04 3d e7 09 94 3d f9 85 f9 bd
       -0.110156946 0.03246062 0.07228451 -0.121837564
000030 a8 15 e3 bc 15 dd 54 bd 50 fa 6f 3d 35 29 9e 3b
       -0.027720287 -0.051968653 0.058588326 0.0048266896
000040 e6 df f9 3c f4 d0 50 bd 27 29 de 3d c6 8f 13 be
       0.03050227 -0.050980523 0.10847693 -0.14410314
000050 d8 75 c8 3d 61 a1 b3 bd b7 4e da 3d 0f 30 e4 bd
       0.09788102 -0.08771015 0.10659545 -0.11141979
000060 9d b3 84 bd 7d 82 56 3d 18 16 c7 3d 07 07 b1 bc
       -0.06479571 0.052370537 0.09721011 -0.021609796
000070 b1 5c 3c 3d 6f de 04 bd 6c d8 84 bd ce 0c 3d 3d
       0.045986835 -0.03243869 -0.06486592 0.04615479
000080 f4 1f d5 bc 3a 6e 9f 3c 70 58 ef bd 02 ad 44 bd
       -0.026016213 0.01946174 -0.1168679 -0.048016556
000090 65 c3 05 bd 54 9e 6e bc 1c 05 5f 3d eb f8 4c 3d
       -0.032657046 -0.014564116 0.054448232 0.050042074
0000a0 7f fe e9 bc 09 fd 90 3d 28 8f 3c bd 00 8a 97 bd
       -0.028563736 0.070795126 -0.046034962 -0.07399368
0000b0 a9 0b 37 3c e9 6a dc bd 46 e2 94 bd 09 fa f6 bd
       0.011172214 -0.10762579 -0.07269721 -0.12059409
0000c0 83 f7 65 3c 83 e4 21 be 2c aa c7 3d f9 bc 99 bc
       0.014036062 -0.15809827 0.097492546 -0.018766867
0000d0 40 9d a3 3d 86 99 30 3d ab 7c 0f 3d 2f 07 52 bc
       0.079889774 0.04311516 0.035031002 -0.0128190955
0000e0 fe 4e 37 bd 90 cb d4 bd 5a 6f fd bd 8e d1 d6 3d
       -0.044753067 -0.10390389 -0.12374754 0.10489188
0000f0 2e ae 58 3d 8b e5 f8 3c 1d 76 c8 bc 5d 0b 01 be
       0.052900486 0.030382892 -0.024470383 -0.12601991
000100 b8 e6 34 bd 35 b9 7a 3d a6 95 06 be 87 48 e9 bc
       -0.044165343 0.061211783 -0.13143024 -0.028476967
000110 72 e7 d9 bc c8 f6 9f bd 36 c8 ae 3d b1 8d 63 3d
       -0.02659962 -0.07810742 0.08534281 0.05555505
000120 9f 06 88 3d 9f eb 73 bd 92 5b 2b 3c ed d6 8d 3d
       0.06641888 -0.059550878 0.010458844 0.069257595
000130 bf 64 85 bd f1 a8 72 bd d4 8b ba 3d 02 11 c1 bd
       -0.065133564 -0.059243146 0.09108701 -0.09427072
000140 02 a2 a8 3d 33 16 1f 3e eb a6 d1 bd d8 e8 bc 3d
       0.082340255 0.15535812 -0.10236915 0.09224099
000150 65 a6 93 bd 35 ab ec bd f1 d7 c4 bd ad 81 4f 3d
       -0.072094716 -0.11556093 -0.096115 0.050660778
000160 5d 64 3f 3d c8 81 d3 3d da f0 94 3d b1 c2 18 bd
       0.046726573 0.10327488 0.07272501 -0.037295047
000170 81 81 98 3c 27 ee 5f 3d 2d a6 d9 3d 73 a2 cc bc
       0.01861644 0.05467048 0.10627399 -0.024979806
000180 ce 93 b6 3c 72 72 ca 3b 36 6b 90 bd c2 82 36 3c
       0.022287276 0.0061781937 -0.07051699 0.0111395735
000190 11 8a a7 bd ef 84 88 3d 31 01 93 bb 10 39 34 bd
       -0.08180631 0.0666598 -0.004486226 -0.04399973
0001a0 d3 6b db bd f5 74 95 bd 47 a9 c1 bd 8f 3d fa 3c
       -0.10713925 -0.072976984 -0.09456115 0.030546932
0001b0 ea 86 c6 3d fe eb 58 bd e7 70 a8 3c 68 a2 d6 3d
       0.096937016 -0.052959435 0.020561649 0.10480195
0001c0 98 b1 83 bd bd 81 1b 3d ea 46 65 bd 09 53 fb 3d
       -0.06430358 0.037965525 -0.055975832 0.12271697
0001d0 e6 36 0a bb 3f 3e b6 bd 08 87 07 3e 34 d1 a0 bc
       -0.002108985 -0.08898591 0.13235104 -0.019631006
0001e0 d2 65 f1 3d c7 bc 3c 3c 00 80 50 bd 5a 92 a4 bd
       0.11786999 0.011519617 -0.05090332 -0.08035727
0001f0 59 8c 28 bd eb ee 08 3e cb b0 b3 3c f7 d3 c0 3d
       -0.04114947 0.1337239 0.021934887 0.09415429
000200 f1 21 1f bc ca f6 a3 bd d0 1e a4 bd 9d 5d e2 bc
       -0.009712682 -0.08006056 -0.080136895 -0.027632529
000210 7d 9d d4 bd ff 44 b3 3d 60 2a 89 bd 5a de f9 3c
       -0.10381601 0.08753394 -0.066975355 0.030501533
000220 6e 0a 99 3d 91 c4 c5 3d 8e 58 59 3b 87 13 4e 3d
       0.074726924 0.09656633 0.0033164355 0.05031159
000230 39 63 b3 bb 8c a9 84 3d a8 f6 21 3d 8a 69 cb bd
       -0.0054744747 0.06477651 0.03954187 -0.09932239
000240 f8 51 c8 3d 1a d1 84 bd 16 95 d8 bd f7 93 36 3b
       0.09781259 -0.064851955 -0.10575311 0.002785919
000250 cb 12 70 3c 0f ac e0 3d 57 73 3d bd c9 16 bd bd
       0.014652918 0.109703176 -0.046252575 -0.092328615
000260 c9 72 98 bc 8e 5e 65 3d 74 2f 85 3d bc 66 b7 3d
       -0.018609421 0.055998378 0.065031916 0.08955142
000270 a9 d8 2f 3d e5 b2 0a 3d f3 3a b8 3d 1c 3b d3 bd
       0.042931233 0.033862013 0.08995619 -0.103140086
000280 05 33 b1 bd 08 5e d0 3d fa d7 de bd a4 4e c1 3d
       -0.08652309 0.10174185 -0.10881038 0.09438828
000290 43 2e 5c bc 7c 0c 44 bd 7d c8 4a 3d bf b8 bb bb
       -0.013438764 -0.04786347 0.049507607 -0.0057288106
0002a0 72 ca 51 3d 3c 75 f1 bb 3e 23 b0 3d a5 1c b4 bd
       0.051218458 -0.0073687118 0.08600472 -0.08794526
0002b0 6a ec b3 bd 72 48 3a bc 9d 62 bb 3d 88 41 d8 bd
       -0.08785327 -0.011369811 0.09149668 -0.10559374
0002c0 26 34 36 3d ac f2 8d 3c db 8f 61 bd d6 48 40 bc
       0.044483326 0.017327629 -0.055068832 -0.011736115
0002d0 ee 85 4e 3d 2a 90 44 3d 8d 36 91 bd 1e 69 78 3d
       0.050420694 0.047989048 -0.07090483 0.060647123
0002e0 ef 70 a9 3d a2 7d a8 bc 26 8d 5a 3c 1b 25 c7 bd
       0.082734935 -0.020567719 0.0133393165 -0.09723874
0002f0 73 5d 0d 3d 58 51 14 3e a2 cc ea 3d 57 8c a5 3d
       0.03451295 0.14484155 0.11464812 0.08083408
000300 07 25 bd 3d b8 15 0b bd 1e 35 b9 3d 71 ff 39 bc
       0.09235578 -0.03395626 0.090433344 -0.011352406
000310 23 ee 9a bc 61 67 ec bd 12 71 3f 3c 65 4e 63 3d
       -0.01891238 -0.115431555 0.011684673 0.055494685
000320 bc 29 c5 3d 27 00 92 3d 43 a7 34 3d 1d 7f b9 3d
       0.09627101 0.07128935 0.044104826 0.09057448
000330 7e cf 75 bd ad bc f3 3c 77 bb ef bd 6b 26 a5 bd
       -0.060012333 0.029753054 -0.11705678 -0.08063968
000340 8e 72 ad 3d e5 b2 09 3e 4b 2a 8e bd 84 fc 2f bd
       0.08469115 0.13447149 -0.069416605 -0.042965427
000350 5b ea 16 3e aa a5 1b bd 7e 75 49 3d 87 76 83 bd
       0.14737837 -0.037999786 0.049184315 -0.06419092
000360 dd ba 06 3e c4 36 c7 bd c1 cf 6a bd ae ab 0b bd
       0.1315722 -0.097272426 -0.057327036 -0.034099273
000370 82 bf ad 3c 1e a6 91 bd a3 fd 32 bd ad 0a c2 bd
       0.021209482 -0.071117625 -0.043698918 -0.094746925
000380 78 8f 35 3d 4e fe e1 3d 1b b5 a1 bd 9b 21 84 bb
       0.044326276 0.11034833 -0.07895871 -0.0040323264
000390 fa 24 93 bb ab c8 bd 3d 1e ac 53 3d 04 fd 89 3d
       -0.004490492 0.0926679 0.051677816 0.06737712
0003a0 5a e4 a2 bd 91 f0 96 3d ec 71 0f bd d7 c6 62 3d
       -0.07953711 0.07370103 -0.035020754 0.05536541
0003b0 95 6c 30 3d dc 55 e9 3c 74 91 02 3e 59 dd dc bd
       0.043072302 0.028483324 0.12750798 -0.10784406
0003c0 6e 14 e2 bb f1 5a 88 bd c9 c3 45 3b a0 81 f9 3d
       -0.006899408 -0.06657971 0.0030176512 0.12182927
0003d0 ea d1 33 bd 91 2c 3b 3d f3 1d 76 3d c2 6a af 3d
       -0.04390136 0.0456968 0.060087156 0.08565284
0003e0 99 1a 55 3d e8 25 59 3d 99 cb 94 3d e8 e6 4a bd
       0.05202732 0.053014666 0.07265396 -0.049536616
0003f0 db 16 ab 3c 56 8e 55 bc ca 86 cc 3d 38 8a 8c 3c
       0.020884922 -0.013034424 0.099866465 0.017155752

encoder_lstm1.bias_hh_l0 f4 [256]
000000 fa a1 c3 3b dc 9d cf bd aa 6c 02 be bb a0 c7 bd
       0.005970237 -0.10137531 -0.12736765 -0.09747454
000010 70 ba a8 3d 68 d5 ee bd bf 6e 52 bd 70 c3 f9 bd
       0.08238685 -0.11661798 -0.051375147 -0.1219548
000020 f1 01 89 3d 98 76 21 bd 72 90 88 3d a1 99 94 3d
       0.066898234 -0.03941974 0.06668176 0.07255865
000030 b1 0e af bd 2a ec db bc 80 4d a0 3c 66 2d cf bd
       -0.08547724 -0.02684601 0.019568205 -0.10116081
000040 4a 7f ef 3d 2a 7b 2e bd 3d ab c6 bd 97 80 08 be
       0.116942 -0.042597927 -0.0970063 -0.13330303
000050 02 26 c8 bd 65 f4 b7 3d 37 77 ec 3c 95 60 f1 bd
       -0.097728744 0.089821614 0.02886544 -0.11786
000060 8d 1e a1 3c 33 bc 01 3e bb 04 14 3d 94 38 bb bd
       0.019667888 0.12669449 0.036137324 -0.09141651
000070 c3 4d 4c bd f3 eb 34 bc aa bb b1 bd f9 d9 c4 bd
       -0.049878847 -0.011042583 -0.08678372 -0.096118875
000080 69 c3 89 3d b8 25 80 3d 94 8d ce bc d2 ae 44 bd
       0.06726725 0.06257194 -0.025213994 -0.048018284
000090 aa ec 02 3d ff 80 25 bd 31 f6 e3 bd 78 57 ad 3d
       0.03196398 -0.040406223 -0.11130942 0.08463949
0000a0 bf 78 26 bd f3 89 5e 3d 6f bc 9d 3d bd 4c ea bc
       -0.040642496 0.054330777 0.077019565 -0.028601045
0000b0 1f 60 a9 bc 17 3f d5 3d db 7a 88 bd 58 0e 88 bd
       -0.020675717 0.10412424 -0.06664058 -0.06643361
0000c0 d4 8c 87 bd da 66 17 3d 69 69 a0 3c ac da bc bd
       -0.06618658 0.03696332 0.019581513 -0.09221396
0000d0 82 cc 57 bb c5 39 b8 bd 87 bf 61 bc 7a 5b b8 bd
       -0.0032928293 -0.08995394 -0.013778574 -0.09001823
0000e0 84 10 84 bd 07 ec 14 3d 2c cf ae bb df 49 3e 3d
       -0.064484626 0.036357906 -0.0053347554 0.046457168
0000f0 90 d8 9f bc f8 79 71 3d 84 d8 d7 3d a9 5b 36 3d
       -0.019512445 0.05895421 0.10539344 0.044521008
000100 b6 2f 6d 3b e4 f7 89 3d 1c 92 bc bd 3e 2f 07 3e
       0.0036191768 0.067367345 -0.09207556 0.13201615
000110 0c 6e a8 bd f0 31 09 be 38 45 94 3d 9d 25 15 bd
       -0.08224115 -0.13397956 0.07239765 -0.036412824
000120 5d f1 f2 bb 74 56 af 3d 71 c6 27 3d 3f a7 d6 bd
       -0.0074140267 0.085614115 0.040960733 -0.104811184
000130 05 02 b5 3d 3c 65 c5 3d 97 c8 1f bd 46 23 4e 3d
       0.08838276 0.096384495 -0.039009657 0.050326608
000140 9f 69 d0 3c a3 2c de 3d 29 18 5a 3d cb 8b eb 3c
       0.025440989 0.108483575 0.053245697 0.028753182
000150 71 28 1d bd d1 e6 04 bd 7e 24 67 3d 49 9d 8f bd
       -0.038368646 -0.032446686 0.056431286 -0.07012422
000160 6d a8 7b bd f5 5f 9c 3d 46 9c 31 3d bc c2 dd 3c
       -0.06143992 0.0763549 0.043361925 0.027070396
000170 0c 1d f4 3d 1b fd 73 3c 21 56 97 bd f0 c0 17 bd
       0.11919603 0.014891888 -0.07389475 -0.037049234
000180 1e af 16 3d 9f 35 70 bd e8 19 77 3d 51 d5 c0 3c
       0.0367881 -0.058644887 0.06032744 0.023539217
000190 ad 43 b5 bd 58 65 8b bd 8d f6 c3 3d 96 1f d3 3d
       -0.08850799 -0.06806439 0.0956851 0.10308759
0001a0 98 d5 32 bd 5e 77 a3 3c a7 85 81 bd 31 5c e1 3d
       -0.04366073 0.01995438 -0.0632432 0.11003912
0001b0 6e ef 2f 3d c1 ff ff 3d a4 54 0d bc 44 3b 34 bd
       0.042952947 0.12499953 -0.008626137 -0.044001833
0001c0 c0 c2 f3 bc 60 2e 49 3c 58 13 86 3d 57 bd 9e bd
       -0.02975595 0.012279123 0.06546658 -0.077509575
0001d0 f6 ad 14 bb 7b 71 c3 bd 7d 00 f1 3d 51 6f c8 3c
       -0.0022686697 -0.09543129 0.11767671 0.024467142
0001e0 ce 0a 9b bc 60 25 51 3d 22 a9 6e 3d 54 53 95 bc
       -0.01892605 0.051061034 0.058266766 -0.01822821
0001f0 03 67 9a 3c ac b8 a2 bd db f7 e6 3d 91 26 e7 bd
       0.018847948 -0.079453796 0.112777434 -0.11286653
000200 01 16 ab bb 60 5e b3 3d 82 d9 c2 bc 7a 0a 96 3d
       -0.005221129 0.08758235 -0.023785356 0.07326217
000210 84 39 41 3c 97 4e de 3d b1 fd 64 bd f7 70 00 3d
       0.011793498 0.108548336 -0.055906 0.03135773
000220 5e 23 cd bd 44 86 59 3d 05 bc bf 3d 70 22 ff 3d
       -0.100165114 0.05310656 0.09362034 0.1245774
000230 8a 92 9a bc d7 28 cd bd 73 73 13 be a6 25 48 3d
       -0.018868703 -0.10017555 -0.14399509 0.04886403
000240 6f a7 fd 3d 64 5c 88 3d c6 8b c9 bc 14 3e b3 bd
       0.12385451 0.06658247 -0.024602782 -0.08752075
000250 5c 46 65 bd 66 10 a1 3d 46 63 97 3c c6 13 a0 3d
       -0.055975303 0.07864456 0.018479954 0.078162715
000260 8a 51 f2 bd 51 cc d4 bd b7 f5 c6 3c 90 e4 0e 3e
       -0.118319586 -0.10390533 0.024287088 0.13954377
000270 2d 68 45 3d 2d 2c d7 bc 3e b2 3d bd 34 53 2b bd
       0.048195053 -0.026266182 -0.046312563 -0.041827396
000280 6a 13 d3 bd de 43 f8 3d 14 c5 88 bd ef f1 95 bd
       -0.10306437 0.1212232 -0.06678215 -0.07321536
000290 2c 80 fb 3c 77 e4 07 be e8 94 22 3d ff cf 9b 3b
       0.030700766 -0.13270746 0.03969279 0.0047550197
0002a0 cd 72 f6 3d 20 66 b7 bd d0 a6 e8 3d 1c 54 07 3e
       0.12033615 -0.08955026 0.11359942 0.13215679
0002b0 d4 0e e6 3d f5 51 b7 3d 47 15 08 bc 8e f9 dd bd
       0.11233297 0.08951179 -0.008305854 -0.108386144
0002c0 67 63 b6 3d b3 38 5a 3d 3a d9 cc 3d 3d 11 eb 3d
       0.08905678 0.05327673 0.1000237 0.11477897
0002d0 e4 d0 3c bd af 55 c6 3c 3c 1b 31 3c bf 3b fc 3d
       -0.04609765 0.024210779 0.010809716 0.12316083
0002e0 14 ae a1 bd 4b ac 8a 3d 19 5f 0d bd 58 7b 38 3c
       -0.07894531 0.067711435 -0.03451452 0.011259876
0002f0 1b ae b3 3c 61 5f 66 bd 74 ea 9f 3d 71 b5 de 3a
       0.021933606 -0.056243304 0.0780839 0.001699133
000300 65 c4 86 bd dd 1b ef 3d f8 f2 b6 bd 54 33 3e bd
       -0.06580428 0.116752364 -0.08933061 -0.04643567
000310 77 73 84 bd 98 57 ad 3d c2 c8 e4 3d c3 63 e8 3d
       -0.06467336 0.08463973 0.11171104 0.11347153
000320 07 a6 1a 3e f5 ca 4a 3c 3b 54 bf 3d 2b 53 e9 bd
       0.15102397 0.01237749 0.093422376 -0.11392816
000330 31 4a e2 3d 00 30 ce bd 4a bd 5b bc 08 12 4d bd
       0.11049307 -0.10067749 -0.013411829 -0.050066024
000340 8a 2f f3 bc 49 14 f3 3d 3a a8 89 bc ac 83 4f bd
       -0.029685754 0.118691035 -0.01680385 -0.05066268
000350 f8 13 b7 bd 10 a9 d9 3d a6 7b 1a bc 92 b2 16 bd
       -0.089393556 0.10627949 -0.009428894 -0.03679139
000360 93 15 3e 3c 74 1d ec 3d ed bb 5d bd 59 98 c6 3d
       0.011601823 0.11529055 -0.054134298 0.09697027
000370 9e 18 6b 3c c4 be 86 3d 2b 60 e6 3d 6c 8d e6 bc
       0.014349131 0.065793544 0.11248811 -0.028143607
000380 55 0e f2 bc f2 95 9e 3d 73 58 c7 3d 21 b4 1d bd
       -0.02954785 0.077434435 0.09733667 -0.038501862
000390 3b d4 11 3e ea f0 1d bc 6e 87 6f 3d be aa dd bd
       0.14241116 -0.009639958 0.058478765 -0.10823582
0003a0 3b 1a 3b bc ea fe 9b bd 84 8a 0f 3d d2 47 92 3d
       -0.011419828 -0.076169804 0.03504421 0.07142605
0003b0 8b 4d 4e 3d 22 7a 41 3d 55 9a 81 3d 13 44 db bc
       0.05036692 0.047235616 0.063282646 -0.026765859
0003c0 05 db 92 bd 7c e1 ce bd 25 e4 b0 3d d6 25 da 3d
       -0.07170681 -0.101016015 0.08637265 0.10651748
0003d0 10 49 49 bd 88 d2 f0 3c d5 36 0b bd c9 3b 9d 3d
       -0.049141943 0.029397264 -0.03398784 0.07677419
0003e0 1e 61 65 bd 63 d3 99 bd 5e d7 06 3c 2e 84 c2 bd
       -0.05600082 -0.07511022 0.0082300585 -0.094978675
0003f0 8a 81 84 3d da 64 2a bd 9b 9c 2d bd 33 94 c0 3d
       0.0647002 -0.041600086 -0.04238568 0.09403267

encoder_lstm2.weight_ih_l0 f4 [128, 64]
000000 09 2e f8 3d e4 8b a4 bc 20 06 a2 b8 fb 08 c5 3c
       0.121181555 -0.020086236 -7.725903e-05 0.024052134
000010 9d cc af bd 2b a1 20 be e1 70 32 3e 66 fc b3 3d
       -0.08583949 -0.1568648 0.17425872 0.087883756
000020 3c 91 13 3d db e0 23 3e 94 7d 3b be a0 57 45 bc
       0.03602718 0.16003744 -0.18309623 -0.012044817
000030 80 68 e4 3d 55 33 f1 bd c7 26 4c 3e 73 a1 02 3e
       0.11152744 -0.11777369 0.19936667 0.127569
000040 8a 88 34 bc 30 64 15 3c eb d9 21 3e 02 bc ba 3d
       -0.011018882 0.009118125 0.15805785 0.09117891
000050 b5 f5 a6 3d e7 91 d1 bd 74 ae 00 be 60 0b 26 3e
       0.08152334 -0.10232907 -0.12566549 0.16215277
000060 6d d3 a5 bb df 5e 87 3d 79 83 08 3d ac 44 d4 3d
       -0.0050606043 0.06609892 0.033328507 0.103646606
000070 36 8c 32 3d 24 b1 09 bd d8 07 e7 3d 68 90 24 3d
       0.043590747 -0.0336162 0.11280793 0.04017678
000080 e8 b7 66 bc 30 92 6f bd 99 dc ef 3d bc 1e 66 3d
       -0.014081933 -0.058489025 0.117119975 0.056181654
000090 86 ea 04 3d 41 91 06 3e d4 07 4a 3d 74 07 4b 3e
       0.03245022 0.13141347 0.04932387 0.19827062
0000a0 a4 19 13 3d 05 ea 91 bd 81 2f 3b be 4c 77 8e 3d
       0.035913125 -0.07124714 -0.1827984 0.06956348
0000b0 6d 0b 19 3e ee 6b d1 3d 28 9e 13 bb 71 f0 a8 bd
       0.14945765 0.10225664 -0.0022524688 -0.082489856
0000c0 9b 2a 2f bd 92 b9 60 bd e0 45 aa bd 33 3f e0 bd
       -0.04276524 -0.054864474 -0.08314109 -0.10949554
0000d0 75 df 04 3d 6b fe 49 3e f0 4f 23 3e a0 cf b6 bd
       0.032439668 0.19725959 0.15948462 -0.0892632
0000e0 2c fa 0f 3d 0c 71 41 3e 67 02 04 be ee e9 82 bd
       0.035150692 0.1889078 -0.12891541 -0.06392275
0000f0 73 64 fc bd c3 db 0b be 67 1d db bd ba f9 cd 3d
       -0.12323847 -0.13658051 -0.106989674 0.10057397
000100 42 24 23 3e a7 30 01 3e 1b 11 29 3e a3 1e 53 bd
       0.159318 0.12616216 0.16510431 -0.05154289
000110 b9 c3 b2 bb 82 10 2f be 37 bd 3f 3e 72 55 55 bd
       -0.005455461 -0.17096141 0.18724523 -0.05208344
000120 26 04 90 3d 4c 02 f1 3d d6 e4 24 bd fc 65 28 be
       0.07032041 0.11768016 -0.040257297 -0.16445154
000130 1f 3d 38 be 49 f9 17 be 21 cc ad 3d 63 6c 3b 3d
       -0.17992066 -0.14841188 0.084862 0.045757663
000140 43 ca 75 bc b4 18 fe 3c ae ab 56 bc 70 c2 1b 3e
       -0.015001836 0.031017639 -0.013102455 0.15210891
000150 d2 19 c4 bc 80 e6 b0 3c 31 76 ba 3d bc dd b2 3d
       -0.023938093 0.021594286 0.091045745 0.08733699
000160 38 f5 e4 bd c0 2d 05 3c 56 ff c2 3d e3 91 b5 3d
       -0.11179584 0.008128583 0.09521358 0.08865716
000170 cf cb 9e bd cf 23 c9 3d cf 09 56 3e cb 73 0c 3d
       -0.07753717 0.09821283 0.20902179 0.034290116
000180 d0 0a f5 3c c9 52 0a 3e 41 6f 2e be 18 88 1d 3d
       0.029912382 0.13508143 -0.17034627 0.038459867
000190 38 f8 9c bd e3 84 39 be d4 02 83 3d 38 a2 e3 bd
       -0.076645315 -0.18117099 0.06397024 -0.11114925
0001a0 82 f5 04 bd 67 6c e0 3d 26 88 c0 b9 fa 82 27 3d
       -0.032460697 0.10958176 -0.00036722532 0.040896393
0001b0 fe 20 ed bb 26 8b 1b be 14 4e 06 3e fb ea 04 3e
       -0.007236599 -0.151898 0.13115722 0.12980263
0001c0 ff 33 d7 bd ed 23 7d bc 54 f8 f9 bd 11 fd 57 3d
       -0.10507964 -0.01545046 -0.12205568 0.052731577
0001d0 af f4 2b be 14 68 20 3d b0 5c 3a 3e be 4a 1b 3e
       -0.16792558 0.039161757 0.1819942 0.1516523
0001e0 05 8b d6 3c 4d ba b9 3c 3e de fa 3d 01 f6 ed 3d
       0.026189337 0.022671843 0.122494206 0.11619187
0001f0 fc 4e 63 bd 2e 0d 6d be ca ae ca 3d e4 71 b7 3d
       -0.055495247 -0.23149559 0.098966196 0.0895727
000200 2c 83 a3 3d aa 3c 51 3d a8 d8 02 3d 2f 8d ad 3d
       0.079840034 0.051083244 0.0319449 0.08474194
000210 ee 09 1e be 38 09 16 be 39 57 1b 3e c3 fa 09 be
       -0.15433475 -0.14651954 0.15169992 -0.13474564
000220 1d 19 a1 3d 09 5d 28 be 98 d7 08 bd c7 2c 5e 3d
       0.07866118 -0.1644174 -0.03340873 0.05424192
000230 73 b8 29 be 63 cd 92 bd 1b 18 ad 3d 54 21 e8 3d
       -0.16574268 -0.07168081 0.084518634 0.11334482
000240 af 25 86 3d 60 fb 25 3d 7a 11 2f 3e fc e5 3a bd
       0.06550156 0.040522933 0.1709651 -0.045629486
000250 66 0b 1c 3e c9 fc 48 3e 24 cd ad bd d7 2c 9b bc
       0.15238723 0.1962768 -0.08486393 -0.01894228
000260 20 98 54 bd d2 12 e1 3d 10 ef cb bd be 96 a4 bd
       -0.05190289 0.10989918 -0.09957707 -0.08036564
000270 de 28 8d 3d ed 54 4c 3e b7 82 0a bd 6e 4c 11 bb
       0.068925604 0.19954272 -0.033816066 -0.00221708
000280 e4 d5 82 3c 06 55 ed 3d 4a 75 9b 3c 5e 3e 5c bd
       0.015971132 0.115884826 0.018976826 -0.053770415
000290 1e 8c c4 3b 60 c6 03 3e 8a a3 69 3c 37 f8 38 be
       0.0059981486 0.12868643 0.014260182 -0.18063436
0002a0 82 f6 7a 3d b6 21 68 be 04 c6 cb 3c 91 69 49 3e
       0.061270244 -0.2266911 0.024874695 0.19669177
0002b0 8a 64 2c be 29 1c 91 bc a5 00 22 3d 6e 47 83 bb
       -0.16835228 -0.017713623 0.039551396 -0.004006318
0002c0 2a bc 30 bd b4 7a f0 3d f3 d0 09 bd f6 87 12 bd
       -0.043148197 0.11742154 -0.033646535 -0.035774194
0002d0 cd 22 50 be 36 b6 b0 bc 07 d1 39 bb 4c b2 6e bb
       -0.20325775 -0.02157126 -0.002835335 -0.0036422191
0002e0 1d 82 06 bd b7 e5 31 bc 1c be 27 be 6a d0 c1 bc
       -0.03283893 -0.010857991 -0.16381115 -0.02365895
0002f0 5c 62 0e 3e 89 75 5d 3d 9f 37 3f 3e 4d 9d 99 bd
       0.13904709 0.05406717 0.18673562 -0.07500706
000300 eb 4a 97 3d 3a 9c 36 bd d1 eb cb bd 26 31 84 3d
       0.07387336 -0.044582583 -0.09957088 0.06454687
000310 20 ac ef bd 36 a9 b0 bc e6 06 73 bd 7b 89 53 be
       -0.11702752 -0.021565061 -0.05933275 -0.20657913
000320 51 44 ce bd 64 7b e7 bd c3 ba 01 3e c4 85 5a 3d
       -0.10071624 -0.11302832 0.126689 0.053350225
000330 f8 f1 56 bd 3a 6b c3 3c 71 c3 ad bd 62 1d 48 bd
       -0.052476853 0.02385484 -0.08484543 -0.048856147
000340 44 ba de 3d e0 09 fb bd 52 25 e0 bd b3 73 b1 bc
       0.10875371 -0.12257743 -0.10944618 -0.021661615
000350 a3 9d 13 be 59 d0 f0 bc f7 cd 29 3d 51 29 13 3e
       -0.14415602 -0.029396223 0.04145619 0.1437123
000360 ea 5c 2a be c7 5c dd bd 5e 09 02 ba ec 00 bf bd
       -0.16637006 -0.108087115 -0.0004960502 -0.09326348
000370 fc f6 ca bd da c6 08 3e 02 e1 1d be 40 cb 03 be
       -0.0991039 0.13357106 -0.15417865 -0.12870502
000380 ca b8 ec 3d da 3a 29 be 62 f7 9e bd 66 12 56 bd
       0.11558683 -0.16526356 -0.07762028 -0.05226364
000390 32 12 96 bd 85 aa 2c bc 3c 1c 47 be 3d 89 35 3b
       -0.07327689 -0.010538702 -0.19444364 0.0027700209
0003a0 18 47 58 be ce 54 62 3e e0 4f c7 3c 95 3f 65 bd
       -0.2112087 0.22102663 0.02433008 -0.05596884
0003b0 6c 7a 40 3e bb f5 b1 bd 15 55 1b 3e 9e ce 8b 3d
       0.187967 -0.086894475 0.15169175 0.068265185
0003c0 6a 09 85 bd db 82 9b bc d4 6b aa 3d ed 09 ab 3d
       -0.06495936 -0.018983295 0.08321348 0.083515026
0003d0 0d 8a 17 3e 1b 65 db 3d db 29 7b bd 95 a0 55 3d
       0.14798756 0.10712644 -0.061319213 0.052155096
0003e0 1c 77 b6 ba 1a 25 d1 3d 8c c8 21 3e d7 db 0b bd
       -0.0013920995 0.10212155 0.15799159 -0.034145202
0003f0 05 21 f6 3c 8c 52 cb bd 78 dd 0d 3d cd fb 4a bc
       0.030045042 -0.09927854 0.034635037 -0.012389136

encoder_lstm2.weight_hh_l0 f4 [128, 32]
000000 c0 53 15 bd d4 36 51 3b db 77 6e bd 3b 96 96 3c
       -0.036456823 0.003192355 -0.05821977 0.018382182
000010 0d 0f 8c 3b 3d 06 b0 3d 4e b2 0d 3d 53 a0 46 be
       0.004274255 0.0859494 0.034593873 -0.19397096
000020 7d 83 74 bd bc 56 50 bd 87 f1 62 3d af 9c 2a 3e
       -0.05969571 -0.050863966 0.05540612 0.16661333
000030 de f5 c0 3c 57 a2 da 3d da 09 69 3d 2b 61 88 bd
       0.023554739 0.10675495 0.05689416 -0.06659158
000040 8f 68 27 bd e3 d8 90 bd 30 ee c9 bd 1d 97 4b 3c
       -0.0408712 -0.07072618 -0.09859884 0.012426165
000050 95 51 f8 bd 06 71 08 3e fb d3 eb 3d 2f 0b 9c bc
       -0.121249355 0.13324365 0.115150414 -0.019048302
000060 f6 ad 0d be 11 b0 b5 bd 03 0c 5d be a9 11 17 be
       -0.13835892 -0.088714726 -0.21586613 -0.1475283
000070 c3 fb 7d 3d a1 48 85 3d 9b 14 d5 bd f3 68 d0 bd
       0.062007677 0.065079935 -0.10404321 -0.101762675
000080 98 cf c6 bd 58 68 c3 ba 4e 00 af 3d 13 29 c4 3c
       -0.09707564 -0.0014908416 0.0854498 0.023945367
000090 93 b7 86 3d ca 95 bd bd 07 b6 af bc d3 f1 23 3e
       0.06577983 -0.092570856 -0.021449102 0.16010217
0000a0 76 ea 85 3d d4 f0 9c 3d e1 ae a4 3d ec e1 f0 3c
       0.065388605 0.07663122 0.08041168 0.029404603
0000b0 36 a0 8e 3c 9f ab 62 bd ee 92 26 bd 98 bb f6 bc
       0.017410379 -0.055339452 -0.040667467 -0.030118749
0000c0 4a e3 2b bd 2e f5 8c 3d 88 02 a0 bd a7 21 ec 3d
       -0.041964807 0.06882702 -0.07812983 0.11529856
0000d0 eb 4d b2 bd 9a a9 07 3e 44 2f f4 bd 74 b6 f0 3b
       -0.08706268 0.13248292 -0.11923078 0.007345969
0000e0 60 fa 85 bd 7a 83 08 3e 58 5e 37 3e c2 74 0d be
       -0.06541896 0.13331404 0.17907083 -0.13814071
0000f0 19 66 89 3d 2a f3 8b bd 87 30 37 bd 5e 77 a9 bd
       0.06708927 -0.06833489 -0.044724014 -0.082747206
000100 95 08 8a bc 8b 7d 97 bd 6e 41 12 3e de c3 b3 bd
       -0.016849795 -0.07396992 0.14282772 -0.08777593
000110 16 99 0f be 0d a5 2b bd 7d 74 14 be f3 2d 10 3e
       -0.14023241 -0.04190545 -0.14497562 0.14080028
000120 a7 f3 42 bd 82 d6 04 3e 06 fc 56 3e 60 61 5a bd
       -0.047595646 0.12972453 0.20994577 -0.05331552
000130 30 09 2a 3e 2e 03 84 bc 33 5c 74 3c 2f 2e e5 bd
       0.16605067 -0.016114797 0.01491456 -0.111904494
000140 cb 04 22 be b5 c5 25 be 9b 8f 2e bd f6 1d f5 3d
       -0.15822141 -0.161887 -0.04261742 0.11968605
000150 c6 ce b1 3c f3 01 35 be 09 08 2f 3e d4 4f ad 3d
       0.021705043 -0.17676525 0.17092909 0.08462492
000160 22 13 b3 bc e3 8a a7 bd 63 3a e6 bd e9 c4 30 3d
       -0.02185971 -0.081807874 -0.11241605 0.04315654
000170 e4 f0 87 bd ab 3f c3 bc 21 07 a6 3d a9 35 83 3b
       -0.06637743 -0.02383407 0.081068285 0.0040041995
000180 df c7 59 bc 5d 28 10 3e 17 ff e0 bd e4 1c 96 bc
       -0.013292282 0.14077897 -0.109861545 -0.018324323
000190 6b f8 4e bd b4 40 2d 3d fd c8 17 3d 2d a6 ec bd
       -0.05052988 0.042298034 0.03705691 -0.11555133
0001a0 95 c2 1f be 1d e1 d5 3d 2f bb f9 bd 5b 66 36 be
       -0.15601571 0.104433276 -0.121939056 -0.17812483
0001b0 ad 25 f4 bd bd 0c 8c 3d ed 8f 96 bd 84 03 13 bd
       -0.119212486 0.06838367 -0.073516704 -0.035892025
0001c0 27 5e 02 be c2 7f 19 3e 95 7e 16 bd 6b b0 5d be
       -0.12731229 0.14990142 -0.03674181 -0.2164933
0001d0 82 3b 78 bd 40 89 82 3d f3 f2 f9 bd fb 88 83 bd
       -0.060603626 0.063738346 -0.12204542 -0.06422611
0001e0 1f ae 13 3e 6f c1 21 be f7 c8 ce 3c 9c 05 91 bc
       0.1442189 -0.15796445 0.025242312 -0.01770287
0001f0 2c d0 d4 3c a1 f7 9f bd b6 99 d7 3d 44 b2 4f be
       0.02597817 -0.07810903 0.10527365 -0.20282847
000200 c0 e1 c6 bd 83 5c e8 3d 38 50 ae bc 75 81 a8 3d
       -0.09711027 0.1134577 -0.021278486 0.08227817
000210 c9 89 ae 3d 12 79 ff bc 76 77 c8 3d d7 db 6e 3c
       0.08522374 -0.03118566 0.0978841 0.014578781
000220 c0 4d d4 bb 39 5a 40 3d 6a 93 9f bd d1 0c d7 3c
       -0.006478995 0.046961043 -0.07791789 0.026251229
000230 d0 d0 83 bd df 93 1a be 23 00 aa bd 39 d5 0b be
       -0.06436312 -0.15095471 -0.08300807 -0.13655557
000240 37 a0 fd 3d 1b 99 d7 bd b6 4c be 3d 4a 84 c8 bb
       0.12384074 -0.105272494 0.09291975 -0.0061192857
000250 3d 1f 7f 3d 37 f2 d4 bd 1a 18 f4 3d 71 00 28 3e
       0.06228565 -0.10397761 0.119186595 0.16406418
000260 16 cf a8 bd 2f d8 3d 3e a4 0a 0d be 3e 63 00 3e
       -0.082426235 0.18539499 -0.1377359 0.12537858
000270 d8 ae 10 be 16 3c 02 3e c9 15 73 3d e3 08 1b be
       -0.14129198 0.12718233 0.059346948 -0.15140109
000280 5e e0 16 be 05 ca 28 3e 42 dd 87 bc ff 28 2e be
       -0.14734027 0.16483314 -0.016584996 -0.17007826
000290 fe 62 c1 3c ea 82 25 3e 9d c4 d2 3c 27 b8 19 bd
       0.023606773 0.16163221 0.025728518 -0.037529137
0002a0 42 48 67 bb 86 a7 11 3e b3 17 1e 3e 34 4a 29 3e
       -0.0035290872 0.14224061 0.15438728 0.16532212
0002b0 63 4e e1 bd 71 48 1b be ef fd d5 bc 53 d7 c9 bd
       -0.11001279 -0.15164353 -0.026122062 -0.09855523
0002c0 08 d3 9d 3d 5e be c1 3d e8 ca 15 be 75 d6 4c 3b
       0.07706267 0.09460138 -0.14628184 0.0031255756
0002d0 91 75 02 be 4a 06 31 3e f2 38 f0 bd c6 32 7c bc
       -0.1274016 0.17287555 -0.117296115 -0.015392965
0002e0 09 a8 16 3e 03 f5 ba bd 65 8f 2c 3e f1 85 0f bd
       0.14712538 -0.091287635 0.16851576 -0.035039846
0002f0 cb 1d ef bd a4 93 cd 3d e2 9f 1f 3e 8a ab 5a bd
       -0.116756044 0.10037926 0.15588334 -0.05338625
000300 2f 7a 1b be da 42 2d 3e 83 9b 66 bd f2 e7 c6 bc
       -0.15183328 0.16920033 -0.05630065 -0.024280522
000310 5b a2 ad bb f7 1f 72 bd 3a 59 1e be 72 ee 93 3d
       -0.0052988953 -0.059112515 -0.15463725 0.07223214
000320 e6 ba 4d be e1 e0 9b 3d 95 04 ac 3d 7a 06 0a 3e
       -0.20090827 0.076112516 0.083993115 0.13479033
000330 76 82 b9 3d 40 19 fc bc 65 c9 4d bc e6 f5 c6 3a
       0.090580866 -0.030773759 -0.012560223 0.0015179485
000340 d5 ba 16 bd 41 13 5c bc 35 7d d2 3d 2f ad 58 bd
       -0.03679927 -0.013432325 0.102777876 -0.052899536
000350 20 89 38 be 79 f5 c4 bd 6b a1 06 3d 48 42 05 3e
       -0.18021059 -0.09617133 0.032868784 0.13013566
000360 68 1c 81 3c 2d bc eb bc 22 2a 00 3e c4 f8 92 bc
       0.015760615 -0.028776253 0.12516072 -0.017940886
000370 60 5d 77 bd 8e 8d 58 3b cf 39 0d be 66 dc 2f be
       -0.060391784 0.0033043358 -0.13791583 -0.17173919
000380 e7 22 42 3c e1 34 e6 bd f9 f7 08 3e 9c b5 85 bd
       0.011849142 -0.112405546 0.13375844 -0.0652878
000390 b4 e5 05 3e 2a 2f 28 be 7e 37 00 3e e6 b0 ec bd
       0.13075906 -0.16424242 0.12521169 -0.11557178
0003a0 ae de da bd ea 84 15 bd 9a 5f 14 3d b6 51 e1 bd
       -0.10687004 -0.03650371 0.036223985 -0.11001913
0003b0 68 f5 43 bd a9 c8 13 bd 17 0c 9f 3d bf f8 4b 3c
       -0.04784146 -0.036080036 0.07765978 0.012449442
0003c0 5e e6 0f be 5f 68 ba bd 2f 7c 50 3e b8 aa b5 bd
       -0.14052722 -0.091019385 0.20359872 -0.08870453
0003d0 5a fa 1b 3e ea 9c 89 bd d5 ef a4 bd 22 f4 d7 bd
       0.1523222 -0.06719382 -0.08053557 -0.105446115
0003e0 19 5d 21 be d7 e0 18 3d 2b 1a 0f be a9 a3 77 3d
       -0.1575817 0.0373238 -0.13974826 0.060458813
0003f0 b8 71 29 3d f3 75 00 bd df a4 14 3d 6c 56 79 bd
       0.041368216 -0.031362485 0.036290046 -0.060873434

encoder_lstm2.bias_ih_l0 f4 [128]
000000 25 26 2f 3e 42 7f ec bd c1 36 a3 bd 42 2f aa bd
       0.17104395 -0.1154771 -0.07969428 -0.08309795
000010 6a 33 0b bd fd 8c 80 3d 96 0e 21 be a4 f7 1c 3e
       -0.03398458 0.062768914 -0.1572822 0.15328842
000020 e2 65 bb 3c 53 6f f7 3d d9 53 b0 3d 35 4b f1 3c
       0.02287573 0.1208178 0.08609743 0.029454807
000030 13 13 ba 3d 13 ed ab 3d 05 db 52 bc 81 99 8b 3d
       0.09085669 0.08394828 -0.012869601 0.06816388
000040 ee f3 05 3e 3a 90 57 bb ab dc 7f bd d5 e4 08 be
       0.13081333 -0.0032892362 -0.062466305 -0.13368542
000050 ed cf 5f bd 92 82 83 3d db 48 28 3e a7 17 0d 3d
       -0.054641653 0.06421389 0.16434042 0.034446385
000060 4a c4 6a bc 31 81 c5 3d 46 e0 f3 bc 54 85 0c 3d
       -0.0143290255 0.09643782 -0.029770028 0.03430684
000070 ca b8 10 bd ab 65 ce 3d 3b 96 7a bd 2b 9b 8f 3c
       -0.03533248 0.100779854 -0.061178427 0.017530045
000080 bd ee e5 3c 1c f8 69 3d 1a a0 0b 3e 85 dd 0a 3e
       0.02806794 0.05712138 0.13635293 0.13561065
000090 fc 59 a1 3c 84 ac d1 3d a1 24 1a 3e 5c 73 a1 bc
       0.019696228 0.10237983 0.15053035 -0.019708328
0000a0 f2 66 b0 3d 3e 70 80 bb ec 18 44 3e ba a1 ef 3d
       0.08613385 -0.0039196303 0.19150132 0.11700769
0000b0 83 b0 85 bb a3 10 07 bd 6d b8 9a bd d4 f7 7a 3d
       -0.0040798797 -0.03297485 -0.07554708 0.061271504
0000c0 85 2f 36 3e 60 d8 df 3d 5b 47 ff 3d 88 3b 42 bc
       0.17791565 0.10929942 0.12464782 -0.011855014
0000d0 68 00 48 3d 5f 13 1d 3d c6 ec 28 3e 47 71 cd bd
       0.048828512 0.03834855 0.16496572 -0.100313716
0000e0 a7 f1 0b be 4e db 69 bc df 2e 07 bd 12 da b1 bc
       -0.13666402 -0.014273478 -0.033003684 -0.02171043
0000f0 ce 9d f8 bc 0c a5 25 bd 0f 0f 1d 3e 6b 84 20 be
       -0.030348685 -0.040440604 0.15337776 -0.15675513
000100 cc b9 f7 bd 27 3a eb 3d 1e 66 a9 bd 7b a7 15 be
       -0.12095985 0.11485701 -0.082714304 -0.1461467
000110 c4 f9 df bd 8f 11 c5 3d 56 87 b5 bd e3 32 fc 3d
       -0.10936311 0.0962249 -0.08863704 0.12314393
000120 c1 e6 9b 3d e5 a3 a8 3d 0a 35 b0 bb 52 fc 07 3e
       0.07612372 0.082343854 -0.0053774165 0.13279846
000130 91 f1 90 3d 75 0f 43 be 65 82 c4 bd 8e d2 ef 3a
       0.07077325 -0.19048865 -0.09595183 0.0018297003
000140 7d 24 0a 3e 91 78 29 be a7 ba 23 3e df 21 24 3e
       0.13490482 -0.16549899 0.15989171 0.16028546
000150 53 b3 1c 3e c1 42 09 3e 3c 2c f8 3d 37 60 d6 bd
       0.15302782 0.13404371 0.12117812 -0.1046757
000160 f8 26 34 3e e7 2d 25 3e 1b ed 1d be 2c 9e 13 be
       0.1759299 0.16130792 -0.1542248 -0.14415807
000170 d2 e1 4b 3d d0 54 04 3d ab 53 42 3e 68 a6 15 3e
       0.049775906 0.032307446 0.1897723 0.1461426
000180 d0 51 50 bd 64 cf 0f 3d 0d e9 06 3e 35 d6 ad 3d
       -0.050859272 0.035109892 0.1317484 0.084881224
000190 01 39 18 bd bb aa 7b bd d0 26 be bd 14 e0 35 3e
       -0.03716374 -0.06144212 -0.09284747 0.1776126
0001a0 9f 29 42 3e 28 19 16 3c 30 63 01 3e 4f 5c 05 3e
       0.1896119 0.009161271 0.12635493 0.13023494
0001b0 d1 93 4f bd af 03 e2 bc 55 95 9c bd a7 f1 bc 3d
       -0.050678078 -0.027589647 -0.0764567 0.09225779
0001c0 cd f3 2a 3e bf cf 1e 3e 90 79 45 3e d3 60 b0 bd
       0.16694565 0.15508936 0.19284654 -0.08612218
0001d0 2b c0 a2 bc fd 3c 72 ba 03 8b 58 3e e8 09 04 be
       -0.019867023 -0.00092406553 0.21146779 -0.12894404
0001e0 84 ad 4f 3d ba 28 bf bd 6f ea 8e 3d 21 bd 31 3e
       0.050702587 -0.0933394 0.069783084 0.17357303
0001f0 d8 0b 9c 3a 7b 3f f6 bd 5a 40 bd 3c 30 4a 9d 3d
       0.0011905385 -0.12023827 0.023101974 0.07680166

encoder_lstm2.bias_hh_l0 f4 [128]
000000 ae 2b 1e 3e af a7 25 be f9 63 d3 bd 29 31 44 be
       0.1544635 -0.16177247 -0.10321803 -0.19159378
000010 fb b4 19 3e a5 04 37 bd 62 ab 18 be 2e 32 9c 3d
       0.15010445 -0.044682164 -0.14909127 0.076267585
000020 c9 aa 4c bd 02 ab 26 be b7 e1 83 bd a2 bd 3a 3e
       -0.04996756 -0.16276172 -0.06439536 0.18236402
000030 a5 bb 01 3d 56 9f 12 3e 72 84 e9 bd 9c a7 27 3e
       0.031673092 0.14318594 -0.11402215 0.16372532
000040 bf cd 0e bd 9c 40 33 3d 49 76 37 3e c2 e6 11 be
       -0.034864184 0.04376279 0.17916216 -0.14248183
000050 45 b3 17 3e bf 1a 4d 3c 43 cf ff 3d 1b 41 f5 3b
       0.1481448 0.012518584 0.12490704 0.007484568
000060 7d 63 a6 bd 07 b5 ab 3d db 28 b3 3d a5 24 d8 bd
       -0.08124445 0.083841376 0.08748027 -0.105538644
000070 91 60 9b bd d3 07 e4 3d 01 d9 14 be 54 ad 4b 3d
       -0.07586778 0.11134305 -0.14535905 0.049725845
000080 52 02 72 3d fc 9c ed bd 46 10 2d be 9f be e8 bc
       0.059084244 -0.11602208 -0.16900739 -0.028411208
000090 36 04 4f 3e ef 83 04 3e 41 f8 16 be 89 55 e5 bd
       0.2021645 0.12940954 -0.14743139 -0.11197955
0000a0 f8 5f 0c be 6b a5 5a bd 0f 45 33 3e 7c 98 10 bd
       -0.13708484 -0.05338041 0.17506813 -0.03530167
0000b0 dc e1 11 be 14 bb ad 3d 52 db 2f 3e a8 f9 bf ba
       -0.14246315 0.08482948 0.17173508 -0.0014646547
0000c0 cc f0 11 be de c8 4d 3d 43 ee 24 3d bd 3a 76 bd
       -0.14252013 0.05024039 0.040266287 -0.06011461
0000d0 e0 e7 71 bc 6a 0d a9 3d b9 ba e0 3d cd b3 fe bd
       -0.014764756 0.08254512 0.109731145 -0.12436638
0000e0 88 40 1c bd 2a a3 88 3d 2a 6d 76 3c 08 ec fd bd
       -0.03814748 0.06671746 0.015040675 -0.12398535
0000f0 7b ad 8d bd 2e a8 01 be 05 37 99 bd f9 e0 ca 3d
       -0.069178544 -0.12661812 -0.07481197 0.099061914
000100 a3 a5 e0 3d dd d8 36 be 66 60 29 bd 84 3b 17 be
       0.10969093 -0.17856164 -0.0413517 -0.14768797
000110 4b c2 23 3e 27 8c ff bd 4d 4b f4 bd 8d ba 81 3d
       0.15992086 -0.12477904 -0.11928425 0.0633441
000120 8a a4 2f bd db b8 1e 3e 0a 2f bd bd 60 89 4b 3d
       -0.042881526 0.15500204 -0.092374876 0.049691558
000130 de 90 47 bd 4e c5 3c bd 0b 1e 9b 3d 5b 48 56 bc
       -0.04872214 -0.046086602 0.075740896 -0.013078774
000140 07 d6 09 3e 7f 4e 9c 3d d1 8d b6 bd 51 9f 95 3d
       0.13460551 0.076321594 -0.08913768 0.07305778
000150 7d 58 39 3d 05 76 38 be ab 09 13 be b8 f9 02 bd
       0.045250405 -0.18013771 -0.14359157 -0.03197643
000160 b5 0b 6f 3d 07 df 22 3e dc 36 8b 3d 69 ca b5 bd
       0.058360774 0.1590539 0.06797573 -0.08876497
000170 8a f1 3b bd a2 7c b7 bc c7 7c 00 3e e2 3c 6f 3d
       -0.045884646 -0.022398297 0.12547599 0.05840767
000180 36 39 bf bd 54 be 07 3e bf 00 43 bd e9 65 19 3e
       -0.09337084 0.13256198 -0.047608133 0.14980282
000190 28 30 ff 3d 86 42 4e 3c 33 62 cb bd 25 cf 26 bd
       0.12460357 0.012589103 -0.099308394 -0.040724892
0001a0 ba 45 ce 3d d6 15 29 3e d4 9d c8 3b d6 0a 2e 3e
       0.10071893 0.16512236 0.00612233 0.16996321
0001b0 76 e1 6a 3c 65 61 0f be 14 a4 16 3e 06 24 6b 3d
       0.014335981 -0.14001997 0.14711028 0.0574074
0001c0 aa 3a 42 bd 69 22 5b 3d 23 f5 f3 3c 5f 77 ab bd
       -0.047419228 0.053499613 0.029779976 -0.083723776
0001d0 b3 de ba bd d7 e0 26 bd bc 0d a7 bd f2 f5 c8 3c
       -0.09124508 -0.040741768 -0.081569165 0.024531338
0001e0 2b 22 5f bd 57 25 ab 3c ea 30 dc bd 83 81 87 bc
       -0.054475944 0.020891828 -0.10751517 -0.016541248
0001f0 98 4d 5f 3d 81 17 0e bc 0b 59 3b 3e fb 30 1b bd
       0.05451736 -0.008672596 0.18295686 -0.03788851
