models/anomaly_models/WH005_SKU-014.pth (torch, 242563 bytes, 20 tensors)

encoder_lstm1.weight_ih_l0 f4 [256, 6]
000000 29 37 e9 3c b6 76 fc 3d 9f f2 85 3c c5 f4 b8 3d
       0.028468685 0.1232733 0.016351042 0.09031061
000010 a4 8d 7e 3d 48 3b 30 3e ec 77 e8 bc 69 bd f2 3d
       0.062146798 0.17210114 -0.028377496 0.11852533
000020 38 31 1d 3c aa 21 98 3d 98 fb 61 bc 97 e5 ce 3b
       0.009594254 0.07428296 -0.013792895 0.0063139903
000030 54 09 8f bd 01 87 65 3c 1c 6d aa bd d9 6f a4 bd
       -0.06984201 0.014009238 -0.08321592 -0.08029146
000040 4f 23 c5 bd dc f1 2e be cf 36 a3 3d 49 30 a5 bd
       -0.09625875 -0.1708445 0.07969438 -0.0806585
000050 a6 09 38 3d 26 92 25 bd bc 65 6e 3c 04 4a f4 3d
       0.044931076 -0.04042258 0.014550623 0.1192818
000060 33 a7 a6 3c 9f 8a 3a bc b9 01 05 3c f1 c6 b3 bd
       0.020343399 -0.011385589 0.0081180865 -0.087781794
000070 42 22 be 3d 9f 2a 0c bc a4 75 77 3d a4 6f c4 bd
       0.09283878 -0.008555084 0.060414925 -0.09591606
000080 6e f8 e9 3d 0b 21 25 3e 25 2c e8 bd 9f ac 86 bd
       0.11424337 0.16125886 -0.11336545 -0.065758936
000090 a6 71 02 3d f2 85 dc bd b1 5e 68 3d bf 74 b6 bc
       0.031846665 -0.107677355 0.05673093 -0.022272466
0000a0 85 b2 ae 3d 56 76 03 3e 87 8c c3 3b 72 fb 8c bd
       0.08530144 0.1283811 0.00596768 -0.06883897
0000b0 f9 bf 8c bc 82 83 17 3c fd 2d 44 bd 31 ce 39 3d
       -0.017181383 0.0092476625 -0.04789542 0.045362655
0000c0 18 6b d3 3d 45 41 36 3d 46 4a 53 bd 9e 99 9c 39
       0.10323161 0.04449584 -0.051584505 0.00029869092
0000d0 e1 61 93 bd 12 8f 87 3d 99 11 e3 bb b2 1a 1e 3e
       -0.07196403 0.06619085 -0.006929588 0.15439871
0000e0 1e dd fc bb f8 44 a3 3c af f8 a9 3d 3a 11 72 bd
       -0.007716789 0.019930348 0.08299386 -0.05909846
0000f0 dc 92 e2 3c 8a 86 83 bd 09 e9 9d 3d 7c 6a 2c 3e
       0.027657919 -0.06422146 0.077104636 0.16837496
000100 71 ef 7f bc eb e6 11 3d 7e f9 12 3d 8b 49 5a 3d
       -0.015621052 0.03562061 0.035882466 0.053292792
000110 36 68 00 3e c6 7a 20 bc 47 87 18 bd f7 26 41 3d
       0.12539753 -0.0097948965 -0.037238386 0.0471563
000120 84 16 4d bd 3c f2 21 3c 58 26 a3 3c 30 82 4c 3d
       -0.0500703 0.009884413 0.019915745 0.049928844
000130 72 31 a1 3d 2c 00 5d bc db a8 65 bd cf d4 f5 3d
       0.07870759 -0.0134888105 -0.056069236 0.12003481
000140 54 ab 0b be 7e a9 57 bd 71 57 cd 3c 6a 79 ba bc
       -0.13639575 -0.052651875 0.02506611 -0.022762973
000150 99 e5 e9 3d 8d e4 12 bd f9 9c cd 3d ea e4 62 bd
       0.114207454 -0.035862494 0.10039706 -0.05539409
000160 5a 12 36 3b 22 b5 cc 3c d1 f1 2b bd 87 c5 72 bc
       0.0027781934 0.024988715 -0.04197866 -0.014817602
000170 63 11 13 be 52 f3 84 3d 1b cb c6 3d f8 7b 48 3c
       -0.14362101 0.06491722 0.09706708 0.012236588
000180 3c 97 bb bd 31 96 b4 bd a7 a6 56 bd 92 c3 c2 3c
       -0.09159705 -0.08817709 -0.052405026 0.023774896
000190 15 0f c4 bd a6 3e a6 bd 3e 04 10 3d 6c 5f 61 bd
       -0.09573189 -0.08117418 0.035160296 -0.055022642
0001a0 fb 5a 04 3e de 3f 66 bb fc 4f 4a 3d 3b 1b 25 bd
       0.12925331 -0.0035133283 0.049392685 -0.040309172
0001b0 9d 98 7f bd e7 e2 19 3e 39 ff 37 bc 92 77 ce 3d
       -0.062401403 0.15027963 -0.011230283 0.100814
0001c0 0f bc b6 3d 02 66 72 bd b2 d6 7d 3c 7d 6d 21 3d
       0.08922588 -0.059179313 0.015493082 0.039411057
0001d0 d6 a7 bc 3d f8 29 75 bd 9a 42 b8 bd 9a 19 ff 3d
       0.092117 -0.059854478 -0.08997078 0.12456055
0001e0 c9 3f 9e bd d3 f6 d7 bd b4 06 f2 3d 8e 2e 2a bd
       -0.0772701 -0.10545125 0.11817685 -0.041548304
0001f0 98 53 04 be ae 1e 52 3d 3f cf 43 bd da e3 b3 3d
       -0.12922513 0.05129879 -0.047805067 0.087836936
000200 0a cb 8e 3d 94 6a bf 3b d5 4a f1 3d 00 d6 ba bd
       0.069723204 0.0058415625 0.11781851 -0.091228485
000210 2a 2c ff 3d 22 3c 2b bd bc 35 bc 3d 62 17 ef 3d
       0.124595955 -0.041805394 0.091899365 0.11674382
000220 66 5e 1a 3d 6c 28 be 3d e0 7e c0 bc a0 cb c9 bc
       0.03768768 0.092850536 -0.023497999 -0.024633229
000230 87 1b 22 bc 34 27 4f bd ea c1 57 3d a9 8e 8f bd
       -0.009894258 -0.050574496 0.052675165 -0.07009632
000240 cd 44 f6 3d 4f d8 62 bd 11 b7 20 3e 62 b7 d6 3d
       0.120248415 -0.05538207 0.15694834 0.10484196
000250 a1 ea 59 bc 2d ff 9b 3d 2a 33 2b 3d b3 14 9b bc
       -0.013300569 0.0761703 0.04179684 -0.018930769
000260 c4 b7 8b 3d 07 7c 28 3d 32 bc 49 3c f2 ea b5 bd
       0.0682216 0.041133907 0.012312936 -0.08882703
000270 81 cc dd 3d 2b 47 59 bc 7c 21 bb 3d 8f 15 b0 3d
       0.10830022 -0.013261597 0.09137246 0.08597862
000280 8e 3e aa 3d 65 ba 57 bc 0a 11 72 ba de 8a c9 bd
       0.083127126 -0.0131669985 -0.00092341064 -0.0984094
000290 d3 d7 49 bd 99 c2 f3 3d 74 25 bd bd e0 28 4d 3d
       -0.04927809 0.11902351 -0.09235659 0.05008781
0002a0 5e ee a8 3d 8d 9d 45 3d 1e 25 24 bd cc e2 9c bd
       0.0824859 0.048245955 -0.04007446 -0.076604456
0002b0 fa e7 1d bc f9 24 af 3d 92 e6 ef bd f7 47 ea bd
       -0.009637827 0.08551974 -0.117139 -0.114395075
0002c0 1f aa e2 bd 62 93 cd bd 14 79 e7 3c 5b e2 9f 3d
       -0.11067604 -0.10037877 0.028255977 0.07806846
0002d0 f7 98 1b 3d 5b 58 13 3d 2c 37 d8 3d 86 f9 60 3d
       0.037987676 0.035972934 0.10557398 0.054925464
0002e0 5a 8e ce bc 6b c3 e2 3d 88 e4 53 bd 42 df d4 3d
       -0.025214363 0.11072429 -0.051731616 0.103941455
0002f0 4f bc d8 3d cb 59 7d bd 40 ce 75 bc 36 44 09 3e
       0.10582792 -0.06185321 -0.015002787 0.13404927
000300 36 21 fd bd 89 ca ec bd 32 28 bd bd be 31 0b 3b
       -0.1235985 -0.11562068 -0.09236182 0.0021239365
000310 19 26 9e 3d cd 25 ed 3d 07 66 6c 3d e7 92 ec 3d
       0.0772211 0.115794756 0.05771449 0.11551457
000320 0e f4 95 3d a1 62 dd 3d e5 34 1f 3d 90 ec 25 3d
       0.0732194 0.108098276 0.038868804 0.040508807
000330 44 65 b0 3c 42 80 2f 3d 51 5a 0f be 24 ea a8 bc
       0.021532662 0.042846926 -0.13999297 -0.02061946
000340 b2 61 e3 bd 73 26 83 bd ea 6f 0c 3e 77 e6 31 bd
       -0.11102618 -0.06403818 0.13714567 -0.04343268
000350 69 c4 84 3d dd 01 e8 3c f6 d5 84 3d ff f6 80 3d
       0.06482775 0.028321201 0.06486122 0.06297111
000360 f9 12 3b bd 79 48 9f 3d 50 fd e5 bd e7 6d 99 3d
       -0.04567239 0.07777495 -0.11229956 0.07491665
000370 38 96 b9 bc d4 60 79 bd c6 98 b3 bd fa 9c 1e 3d
       -0.022654638 -0.060883358 -0.087693736 0.038723923
000380 a1 79 87 bd 25 eb c8 3d df 1f 2a bd e8 b8 ab 3c
       -0.06614996 0.09810475 -0.0415343 0.020962194
000390 24 36 8d 3b 4b fc 74 3d 2a 49 80 3d 14 8b aa 3d
       0.0043094326 0.059810918 0.06263955 0.08327308
0003a0 05 4e 02 be 9e 99 8b bd 7e 69 d2 3d 5e 40 8c 3d
       -0.12725075 -0.068164095 0.10274027 0.068482146
0003b0 d8 45 13 bd ca c5 82 bc d8 58 3c 3d e2 24 8d 3d
       -0.03595528 -0.015963454 0.045983166 0.068918005
0003c0 54 68 92 bd 4e 54 59 3c ce 1c e8 3d 0a 9a 80 bd
       -0.07148805 0.013264729 0.11333619 -0.062793806
0003d0 4e 28 70 bc 6d dc fa bc 0e 47 10 3e 79 b1 98 bd
       -0.014658047 -0.030622685 0.14089605 -0.07455725
0003e0 b4 68 37 3e 99 22 89 3d d7 0f 8d 3d a8 4e 45 3d
       0.17911035 0.06696052 0.06887787 0.048170716
0003f0 9e 0e 69 bd be 92 b8 bd 2b 79 c3 3d 6d 5e f0 3c
       -0.056898706 -0.09012364 0.09544595 0.0293419

encoder_lstm1.weight_hh_l0 f4 [256, 64]
000000 a9 50 5e bd 7d 8a 95 3d 40 fc 27 be d3 b7 20 3d
       -0.054276142 0.07301805 -0.1640482 0.03923781
000010 b2 59 99 3d 62 aa 83 bd d4 bb 02 3e 8c 4e 6b 3d
       0.07487811 -0.06428982 0.12766963 0.057447955
000020 d7 03 1e 3c ba d1 49 3d b4 7e e8 3b a4 42 c4 bc
       0.00964447 0.049272276 0.0070951823 -0.023957558
000030 25 71 a1 bd 99 0a 42 3d 77 c1 37 bd e9 c5 0c bc
       -0.07882909 0.047373388 -0.044862237 -0.008592107
000040 94 58 85 3d 9a 1e 6e 3c 8d be cd 3d 9c 5a 59 3d
       0.065110356 0.014533663 0.1004611 0.053064927
000050 d5 2a 36 bd bc 37 c1 3c b1 3e 7e 3d a8 14 5e 3d
       -0.04447444 0.023586147 0.062071506 0.054218918
000060 0f da bf 3c eb a9 24 bd 5f ee ab 3d cd bf d2 bd
       0.023419408 -0.04020111 0.08395075 -0.10290489
000070 3a 5d 07 3b 39 56 11 3e c4 fb 97 bd 52 41 69 3d
       0.0020654933 0.14193048 -0.07421067 0.05694706
000080 4c 3f 04 be 52 b8 b8 3d 99 99 bb bd aa c4 35 3d
       -0.12914771 0.09019531 -0.09160156 0.044377007
000090 f5 c3 56 bd fc 94 80 bd e7 4e 11 3d 28 70 33 3b
       -0.052432973 -0.062784165 0.035475638 0.0027380083
0000a0 dc 83 a5 bd 6f fd cd 3c 39 54 09 3e 95 16 b4 bd
       -0.08081791 0.02514526 0.13411035 -0.0879337
0000b0 16 1e 05 3e 85 61 e2 3d 58 43 f5 3d d0 cd 89 bd
       0.12999758 0.110537566 0.119757354 -0.06728709
0000c0 ff 3d dc 3d 27 92 5a bd 32 1c a5 bc d5 7f a0 3d
       0.10754012 -0.053362038 -0.020155046 0.07836882
0000d0 4a 19 04 be 1f ca 9e 3d d2 72 c7 3b 7d 4b 0a bd
       -0.12900272 0.07753395 0.0060866857 -0.033763397
0000e0 54 56 11 3c fe 1f da 3d 9a 9a 87 3d a1 93 b0 bd
       0.00887068 0.10650633 0.06621285 -0.08621908
0000f0 73 10 fd 3c 67 b6 bf 3c 0a 0b 44 3d 04 12 b0 bd
       0.030891633 0.023402406 0.04786209 -0.08597186
000100 8b 8e 6b 3d 1c 7b 5d 3d 57 16 17 3e c8 ee 98 ba
       0.057508986 0.054072484 0.14754616 -0.0011667842
000110 29 06 ab bd f2 e6 c5 3c 88 6f f9 bc 22 1c 14 bd
       -0.08350784 0.024157975 -0.03044869 -0.036159642
000120 21 6d 59 bd 94 f2 0a bd c9 d8 d6 3d bf 4e 10 3e
       -0.05308259 -0.033922747 0.10490567 0.14092539
000130 02 b5 7c bd f0 fd 30 3e de a2 a8 bc aa 37 3f bd
       -0.06169606 0.1728437 -0.020585474 -0.046683945
000140 41 5f b6 bb f2 94 3d bd 37 b5 0a 3d bf e4 38 be
       -0.0055655544 -0.046284623 0.033864226 -0.1805601
000150 a9 79 2e 3e 55 45 32 bd 4e a6 f9 bd a8 6a 61 bc
       0.17038597 -0.04352315 -0.12189923 -0.013758339
000160 8f 88 0c 3d 42 88 67 bd 58 95 ca bd 45 ce 25 3e
       0.03430992 -0.05652643 -0.09891766 0.16191967
000170 5f 35 ef 3d 33 fe 6a 3d bc 58 08 3e 5f 94 f9 bb
       0.116801016 0.05737133 0.133151 -0.007616564
000180 92 af a1 3d 77 9f c0 3d 2c b7 19 be 1d 69 e9 3c
       0.078948155 0.094054155 -0.15011281 0.028492505
000190 2d b4 c7 bc 82 a4 7c 3d de 96 03 3e 11 0b d0 bc
       -0.024377907 0.061680324 0.1285052 -0.025395902
0001a0 97 f2 2e 3e 25 41 88 bd c9 54 bc 3b e8 f8 1e be
       0.17084728 -0.0665305 0.005747412 -0.15524638
0001b0 5b 2e b1 3d 9c 4f 0d be 15 b8 16 3d 13 59 83 3d
       0.0865142 -0.137999 0.036796648 0.06413474
0001c0 8d 86 be bb 42 49 01 3e 64 02 cb ba 52 3d d6 3d
       -0.0058143795 0.12625602 -0.0015488383 0.10460915
0001d0 44 ed ea 3b 33 a1 91 3c 18 bc 0e be 7c a5 2f 3d
       0.0071693975 0.017777061 -0.1393894 0.042882428
0001e0 a0 9f 20 be 7c 2f 1c bd 1c 4d a1 3d 9b f5 c5 3d
       -0.15685892 -0.038131222 0.078760356 0.09665986
0001f0 43 aa 86 3d 72 df 17 3e b2 27 2d 3e 3b 2c cb 3d
       0.065754436 0.14831331 0.16909674 0.09920546
000200 4c 67 15 3e f8 31 4d 3c 42 18 c0 3c 31 3e f4 3d
       0.14590186 0.0125241205 0.023449067 0.119259246
000210 79 09 08 be eb d3 a4 3c 99 69 1c 3c aa 34 97 3d
       -0.13284864 0.020120582 0.009546661 0.07383092
000220 0b 24 8e bd 0f 9e b3 bd 38 33 b5 bd 8e 65 e1 3a
       -0.069404684 -0.08770382 -0.0884766 0.0017196403
000230 ac 44 09 be 4d f7 eb 3c c2 b7 9b 3d 7a 02 92 bd
       -0.13405102 0.028804446 0.076034084 -0.071293786
000240 59 16 95 3c 09 3a 91 3d e7 8c 9f bd 1c 0a 84 3d
       0.018199133 0.070911475 -0.07790547 0.06447241
000250 28 fe 4b bd 37 8a 9c 3d 26 33 e4 3c 40 09 c2 bb
       -0.04980293 0.0764355 0.02785642 -0.005921513
000260 da 64 0d 3e e1 47 c8 3c 04 f9 8a 3d 0d 9d 94 bd
       0.13808003 0.024448337 0.06785777 -0.072565176
000270 74 10 dd 3d f8 e4 b7 3d e8 91 db 3c 25 b6 3f bd
       0.10794154 0.08979219 0.026802972 -0.046804566
000280 df 93 02 be e1 90 75 bd 03 de 26 be bb 54 87 bd
       -0.12751721 -0.05995262 -0.16295628 -0.06607958
000290 96 81 30 bc 0d 63 c5 3d d9 53 ea bc 5b 39 16 bd
       -0.010773083 0.09638033 -0.028604435 -0.036675792
0002a0 d9 28 c1 bc 1b f4 2a 3c c7 fd 8d bd cb 03 8b 3c
       -0.023579048 0.010434176 -0.0693317 0.016969582
0002b0 33 1f 9a bd e5 b0 af 3d e2 c6 40 3c 57 64 94 3d
       -0.07525482 0.08578662 0.011766167 0.07245701
0002c0 a0 0c 5d 3d 86 6e 03 3e e8 85 db bd ce 30 74 bc
       0.05396712 0.1283513 -0.107189 -0.014904214
0002d0 1a 9d 26 bc 73 8b 9c bc 0c 7d 5a 3d 72 b9 f8 bd
       -0.010169292 -0.019109463 0.05334191 -0.12144746
0002e0 de 02 cd 3c b8 d7 ab bc e7 d5 9a bc 1c 23 92 bd
       0.025025781 -0.020976886 -0.018900825 -0.07135603
0002f0 bf 5e a1 bd b6 c0 a0 3d 57 b7 00 bc 30 a4 e1 3c
       -0.078793995 0.07849257 -0.007856212 0.027544111
000300 73 62 02 3e dd c2 14 3e a7 4f e4 3c 19 0d a7 bd
       0.12732868 0.1452746 0.027870012 -0.08156795
000310 e6 ab 37 3c 36 4e 1e bc 04 a2 12 3e a0 8b a4 3d
       0.011210417 -0.009662202 0.14319617 0.08034444
000320 cb 37 93 3c 34 bc 84 bd 56 f6 5d bd 57 41 af 3c
       0.01797094 -0.064812094 -0.054190002 0.021393461
000330 15 0c ce bd b9 d3 ca 3d 2f 3d f7 3d f0 b6 d3 bd
       -0.10060898 0.09903664 0.12072217 -0.10337627
000340 7d de b5 bd ff bf 46 3c ba fe 1d be 19 84 dc bc
       -0.08880327 0.012130736 -0.15429202 -0.026918458
000350 5a ca 8c 3c fe e9 91 3d 12 5e 5c bd 4e 5e fd bc
       0.017186332 0.071247086 -0.05380065 -0.030928757
000360 63 b6 67 bd 38 db 12 3d 55 89 c2 bd 88 4e 88 bc
       -0.056570422 0.035853595 -0.0949885 -0.01663901
000370 ad f0 c5 3c 97 74 42 3d c9 74 0b 3e 41 35 56 bd
       0.024162615 0.04747447 0.13618769 -0.05229688
000380 df c2 8a bd 5d fb e8 3d 16 e0 ed bd 00 de b3 3d
       -0.0677545 0.11376069 -0.116150066 0.087825775
000390 03 7c 5a 3d 15 90 b4 bd 18 96 a3 bd 69 c2 65 3d
       0.053340923 -0.08816544 -0.079876125 0.056093607
0003a0 d5 0b 18 bd e1 b0 b0 3b d9 c6 64 3d eb 82 0c be
       -0.03712066 0.0053921794 0.0558537 -0.13721816
0003b0 c1 4b 66 3d 31 8f d6 bd e8 74 55 3c 1b 40 2a bd
       0.05622459 -0.1047653 0.013028361 -0.041565042
0003c0 bf 0c 7b 3d 7e c2 18 bd 43 a3 2a 3e c3 40 24 3e
       0.061291452 -0.037294857 0.16663842 0.1604033
0003d0 ae a0 00 be 4f 6a 1f be e4 ea a0 bc b8 86 73 3a
       -0.12561294 -0.15567897 -0.019643255 0.0009289789
0003e0 65 e2 03 be 0b 97 d5 3d 57 f0 83 bc 98 8e 85 bd
       -0.12879331 0.104292 -0.016105814 -0.06521338
0003f0 75 5b 8d 3d 0e ae 4b 3c 57 dd 27 bc a7 c9 51 bd
       0.0690221 0.012431635 -0.010245643 -0.0512177

encoder_lstm1.bias_ih_l0 f4 [256]
000000 8e 0b 35 ba 72 4c 68 3d 49 48 d2 3c 75 6e 9d 3d
       -0.0006906324 0.05671353 0.025669234 0.07687084
000010 e6 3e b0 3b f9 c5 93 bc fc 63 96 bd d0 b5 7c 3d
       0.005378592 -0.018038737 -0.07343289 0.061696827
000020 1d b4 00 3d ef 82 92 bd 62 eb e3 3d d9 86 5a 3d
       0.03142177 -0.0715388 0.1112888 0.053351257
000030 c2 56 83 3d 11 a4 be 3d 86 f0 ba 3c 03 ce 8d bd
       0.06413032 0.09308637 0.022819769 -0.06924059
000040 ec 48 80 3d 6d c3 cc bc 43 c5 0a 3d 82 94 f7 3d
       0.06263909 -0.02499553 0.03387953 0.120888725
000050 ba 61 de bd 28 d6 bc bc 98 ce 2b bd a9 62 80 3d
       -0.108584836 -0.023051336 -0.04194507 0.06268818
000060 a6 2e df 3d 9d 60 d9 bb eb d5 88 bd 87 0e 9d bd
       0.10897569 -0.0066338317 -0.066814266 -0.076687865
000070 d6 4f c4 3d 4e a2 78 3d 13 ba 71 3c f9 c2 2d bd
       0.0958554 0.06070166 0.014753836 -0.04242227
000080 51 87 5b bd a1 b2 b0 bd de 66 7e 3d 65 c6 db 3d
       -0.053595845 -0.08627821 0.06210982 0.107312
000090 c8 97 ea bc 6e 00 ab bd be fc 42 3c 7c 36 55 bd
       -0.028636828 -0.08349691 0.011901079 -0.052053913
0000a0 2b 4d 70 bb d0 a7 66 bc 1f d5 72 bd 38 00 4e 3b
       -0.003666709 -0.014078096 -0.05928528 0.0031433236
0000b0 45 7a 21 3d d3 29 03 bd e3 44 98 bd 0e 95 7f 3d
       0.039423246 -0.03202231 -0.07435014 0.06239801
0000c0 65 97 f1 bc d1 48 a1 bd 9b f0 b1 bc c0 a0 94 3d
       -0.029491136 -0.07875217 -0.021721175 0.07257223
0000d0 00 ba da 3c 11 5f da 3d 27 4d 85 bc b2 c3 dd bd
       0.02670002 0.10662664 -0.01627214 -0.108283415
0000e0 32 f9 b1 3d 9f 04 f1 3d 98 44 c9 bc a2 67 ec 3d
       0.08690108 0.117684595 -0.02456884 0.11543204
0000f0 f7 f1 09 be b4 23 31 bd 0f ab 0f 3e 97 5e da 3c
       -0.13471209 -0.04324694 0.14030097 0.026656432
000100 1c 9b f9 3c 08 8c 46 3d 45 5c b5 bd 83 a3 48 bd
       0.03046947 0.048473388 -0.0885549 -0.048984062
000110 94 bc ce 3a a7 34 32 3d 26 e2 97 3d 7b b2 ce 3d
       0.0015772753 0.043507244 0.07416181 0.10092636
000120 f3 77 8c 3b 5d 24 81 bc e7 cc 2a 3d 67 3f a0 bd
       0.00428676 -0.01576441 0.041699316 -0.07824593
000130 c4 8b f1 3d 00 91 1a 3e 92 a2 d8 bd d7 5b 91 3d
       0.11794236 0.15094376 -0.10577883 0.07097595
000140 0e eb 5c bd e1 e1 a9 3d c9 e5 8c 3d 54 e5 8c 3a
       -0.053935103 0.08295036 0.068797655 0.0010749497
000150 d6 b1 43 3d 4f 3d e5 3c 1b 04 b2 3d c2 a2 cc 3d
       0.04777702 0.027983336 0.08692189 0.09991981
000160 d2 11 64 bd 02 07 0b be 65 a3 05 3e 56 aa f6 bd
       -0.055681057 -0.13576892 0.13050611 -0.12044208
000170 67 3d 80 bd 42 a5 c3 bd f5 9d 36 3c e6 2c 83 bd
       -0.062617116 -0.09553005 0.011146058 -0.06405048
000180 59 9d 63 bd 91 b0 9a 3c 14 3e 95 bd 0a 31 89 3d
       -0.05556998 0.018883022 -0.07287231 0.066988066
000190 c9 28 c9 bd fd a5 66 3d 93 98 8a 3c 34 06 c2 3c
       -0.09822232 0.056310643 0.016918456 0.023684599
0001a0 64 34 de bd 7d 5f 26 bd 78 f4 d6 3c fb 81 71 3d
       -0.108498365 -0.04061841 0.026239619 0.05896185
0001b0 ea c3 5a 3d 41 a5 03 3e 0a 4a 6a bd f3 e9 e5 3d
       0.053409494 0.12856008 -0.057199515 0.11226263
0001c0 5f 63 ac bd 26 5b 94 bd 6b 42 ef 3c 68 3d 59 bd
       -0.08417391 -0.07243948 0.029206475 -0.053037077
0001d0 38 aa 96 bc 2f 5c df bc 27 2a af bd 74 fd d8 3c
       -0.018391714 -0.027265636 -0.08552962 0.026488043
0001e0 f9 9e cc 3d 8a dc bf 3d 8b 74 17 3d 5a c3 5b bd
       0.09991259 0.09368236 0.03697638 -0.0536531
0001f0 41 fa ec bd 1f 8a 3e 3d c4 4c ce 3d 67 bb ed 3d
       -0.1157117 0.04651844 0.10073236 0.1160801
000200 33 35 7f 3d 40 06 8a 3d ca 19 96 3d 54 2f 84 bc
       0.062306594 0.06739473 0.073291376 -0.016135849
000210 f8 1b 06 be 52 5c 8c 3d a9 96 b2 3d 14 4c 14 be
       -0.13096607 0.06853546 0.087201424 -0.14482147
000220 ab 68 ad bd be 2b 06 3d 9a da 1b be dc 0b df bd
       -0.084672295 0.03275656 -0.15220109 -0.10890934
000230 aa 92 8a bd 64 87 c3 bc 00 db 84 bd ab ae d3 bd
       -0.06766255 -0.02386827 -0.064870834 -0.1033605
000240 66 0d 34 bd b4 4e 88 bb 44 64 3f bd f9 e0 c1 bd
       -0.04395809 -0.004159773 -0.04672648 -0.09466738
000250 b0 9b e5 3d af 4f 15 bd a1 79 f4 bd ec de 50 3d
       0.11211336 -0.036452945 -0.119372614 0.050993845
000260 35 7f 4c 3d 07 8b 2b bd 9a 42 87 ba af fa b2 3d
       0.049926 -0.041880634 -0.0010319531 0.0873922
000270 41 f9 59 bc 8a 4c 01 bb 88 1b 38 3d 81 74 75 bd
       -0.013304056 -0.0019729459 0.04494813 -0.05992556
000280 fb 16 d0 bc 9f cb e2 3d 82 c5 d4 bd e2 8e fd bc
       -0.025401583 0.11073994 -0.10389234 -0.03095192
000290 8f 92 ef bc c6 8c f1 bd fb 50 c7 3c 0d 2c 2d bd
       -0.02924469 -0.117944285 0.024330607 -0.04227834
0002a0 a9 b0 f8 3d 51 0a ca bd cc 82 0d bd a8 bd b1 bc
       0.1214307 -0.09865249 -0.034548566 -0.02169688
0002b0 f0 a0 47 3d 91 be 0c be dc 52 1b be 07 1c 6a 3d
       0.048737466 -0.1374457 -0.15168327 0.057155635
0002c0 a4 97 cc 3d ce 30 f6 3c cc 91 0f 3d 98 c4 80 3c
       0.09989861 0.030052569 0.035051152 0.015718743
0002d0 e1 61 6c 3d 22 2e 39 bd 14 25 51 bc ec 50 33 bd
       0.057710532 -0.04521001 -0.012765188 -0.043778345
0002e0 5e c3 8d bd d7 55 97 bc 5e 07 31 3d 8b c0 ce 3d
       -0.06922029 -0.018473549 0.043219917 0.100953184
0002f0 77 0f b0 bd 92 17 02 3e 23 9e 9d 3d 04 5e e0 3d
       -0.085967 0.12704304 0.07696178 0.10955432
000300 4c 96 b3 bd 06 14 0a bd f4 65 ee bb 53 24 a6 bd
       -0.08768901 -0.033710502 -0.0072753374 -0.08112397
000310 82 21 5b 3d e4 e1 a9 bd 24 15 0e 3d 51 9e 81 bd
       0.053498752 -0.08295038 0.03468813 -0.063290246
000320 36 8d b6 bd 5a 20 4e bd 32 76 0c bd 7c 46 81 3d
       -0.089136526 -0.05032382 -0.034292407 0.06312272
000330 cd 57 98 3d 15 0e 9d bc e0 49 d6 3d 8d 40 d3 bc
       0.07438622 -0.019171754 0.10463309 -0.025787616
000340 de 71 53 bd bc 74 03 3e 2c 56 e9 3d df 8e 02 3e
       -0.051622264 0.128375 0.11393389 0.12749813
000350 dc 9f 12 bd 2c 29 cf 3d aa ec 5a 3b ec f6 90 3d
       -0.035796985 0.10115275 0.0033405223 0.070783466
000360 b4 25 35 bd 8f 10 15 3d 96 a5 0c 3d dc b1 b9 bc
       -0.04422541 0.036392745 0.034337603 -0.022667818
000370 70 82 b5 3d 08 d2 95 3c 61 cd 11 3d d9 8e ce bd
       0.088627696 0.018288627 0.035596255 -0.1008584
000380 4b 80 31 3c 18 b4 a5 bd ee 33 36 bc 77 c8 ab 3d
       0.01083381 -0.08090991 -0.011120779 0.08387845
000390 4f d9 cf bc df e5 b5 3c f3 3f 28 3d 3e a6 be bc
       -0.025372175 0.022204338 0.04107661 -0.02327263
0003a0 74 f2 99 bd ed e4 f8 3d 0b c0 a9 3d c6 c7 b3 3d
       -0.075169474 0.12153039 0.082885824 0.08778338
0003b0 bd 9d 55 3d 75 da 13 3d 0e ac 95 3d d2 15 9b bb
       0.052152384 0.03609701 0.073082075 -0.004732826
0003c0 94 1b aa bd 67 16 3e bd 24 66 1b bd bc f5 33 bc
       -0.08306041 -0.046408083 -0.037939206 -0.010983881
0003d0 36 95 85 3c dd 0f 64 bd 6d a1 28 bc d6 38 f7 3d
       0.0163065 -0.05567919 -0.010292393 0.120713875
0003e0 3e 10 7d bd 33 a7 a8 3c 7a d5 0b 3e b1 a8 8a bd
       -0.061783068 0.02058754 0.13655654 -0.067704566
0003f0 17 a0 6b 3d 3c ff 77 3d 14 a7 72 bc b5 16 8c bd
       0.05752572 0.060546145 -0.014810342 -0.068402685

encoder_lstm1.bias_hh_l0 f4 [256]
000000 f5 79 1b bd 4e ef 85 bd 4c 11 4f 3d 2d 98 d6 3d
       -0.037958104 -0.06539784 0.050553605 0.10478244
000010 78 d0 d5 3c 0b 7b e0 bd 1e 5d e3 bd 81 89 b2 bd
       0.026100382 -0.109609686 -0.11101745 -0.08717633
000020 eb a7 89 bd 58 92 08 bd 96 8e ee 3d 25 35 b5 3d
       -0.06721481 -0.03334269 0.1164829 0.08848027
000030 96 f0 da bc 2b 70 ce 3d 15 b2 a3 bd e4 a4 0c bd
       -0.026726048 0.10079988 -0.07992951 -0.03433694
000040 74 6a 0e bd 01 38 be 3d 52 f4 f5 3d 74 f7 bc 3d
       -0.03476949 0.09288026 0.12009491 0.092268854
000050 1e 69 94 3d dd c9 e6 3d 35 52 82 bd 38 56 87 bd
       0.07246612 0.11268971 -0.06363336 -0.06608242
000060 22 d9 e9 bd b1 58 81 3d 19 57 53 bd 4a 90 bd 3d
       -0.11418368 0.06315745 -0.051596735 0.092560366
000070 b6 f8 39 3d 2d 41 a7 3d ca 49 da 3d b9 52 88 bc
       0.045403205 0.08166728 0.106586054 -0.016641008
000080 23 d1 28 3d 85 b0 eb 3d ee 68 98 bd 16 9d 8d bd
       0.041215073 0.11508278 -0.07441889 -0.069147274
000090 18 b4 86 3d 0e 27 36 bc 62 db c9 bc 7d cf 04 bd
       0.06577319 -0.01111771 -0.024640743 -0.03242444
0000a0 e4 99 75 bd 32 41 01 bd fa a1 2c 3c 50 ac df 3d
       -0.059961215 -0.031556316 0.010536665 0.10921538
0000b0 d1 d8 4f 3d 07 13 df 3c d6 71 0c 3e 33 ba 99 bd
       0.05074388 0.027230753 0.137153 -0.07506218
0000c0 ef d2 e9 ba 63 31 a7 3b 10 c4 4a bd 52 0a ff 3d
       -0.0017839352 0.005102323 -0.049503386 0.1245314
0000d0 d4 a3 c8 bd 55 0a 55 bd d1 c2 4c 3c c8 da 98 3d
       -0.09796873 -0.052011807 0.01249762 0.07463604
0000e0 2d dc 6a 3c 6d 10 84 3b 9d a4 23 bd b8 9b df bb
       0.014334721 0.0040302784 -0.03995191 -0.006823983
0000f0 db b6 f9 bc ed 7e 9f bd 13 0f 5e 3c 04 60 33 3d
       -0.0304827 -0.07787881 0.013553399 0.04379274
000100 3a 4e 4f 3d 1d 4b ea 3d 36 99 2b bb 7d 34 6b 3a
       0.050611712 0.11440108 -0.002618385 0.000897236
000110 b3 38 13 bd b6 12 63 bd 4c d5 76 bc 3d 15 92 bd
       -0.035942744 -0.055437766 -0.015065502 -0.07132957
000120 11 7b 86 3c 92 1e 94 3b 45 f8 25 3e 1c 1c b9 3d
       0.016416105 0.004520246 0.16207989 0.090385646
000130 a8 38 4a bd c2 b0 a1 3d 4c b4 d1 bd d6 b9 88 3d
       -0.049370438 0.07895042 -0.10239467 0.066760704
000140 a9 1c 8c 3d 68 65 8c bd 71 ed 2d 3d a2 eb 39 bd
       0.06841404 -0.06855279 0.04246277 -0.045390733
000150 c8 2b d8 3d 61 38 84 3a 56 e7 46 3d 8f a5 99 bc
       0.105552256 0.0010087603 0.048560463 -0.018755702
000160 7c 08 c9 bc bc 10 ce 3d 88 5b e5 3d dc dc f5 3c
       -0.024540178 0.100617856 0.11199099 0.03001254
000170 04 a6 73 3d ee 5c 8d bd 99 c1 7f 3d 37 ee ca bd
       0.059484497 -0.069024906 0.06244049 -0.09908717
000180 a1 90 82 bd da ac 34 3d 2b cc 7f 3c 2e c4 2f 3d
       -0.06375242 0.044110157 0.015612642 0.0429117
000190 38 24 7b bb 44 cb 4f bd 0a c6 80 3d 45 9e 3f bd
       -0.0038321149 -0.05073096 0.06287773 -0.046781797
0001a0 1c d3 9e 3d b2 6d 0f 3e 25 5d 13 3e 74 12 b7 3c
       0.0775511 0.14006689 0.14391 0.022347666
0001b0 f4 26 2b bd 21 0c 1b 3c 4f 41 9b 3d e8 f3 b2 bc
       -0.041785195 0.009463341 0.07580816 -0.02184482
0001c0 e4 f0 5c bd 14 d4 e8 3d e5 24 aa 3d 73 e3 40 bd
       -0.05394067 0.11368576 0.08307818 -0.047091912
0001d0 6f 6f de 3d 7b b3 83 3d 09 1c c8 3d eb 82 07 3d
       0.10861098 0.064307176 0.09770972 0.033083837
0001e0 e5 3a 90 3d 0c cf fd 3d 69 5f c5 bd 9c 9e 03 3d
       0.07042483 0.12393007 -0.09637339 0.032133684
0001f0 f3 bd 7a 3b 18 e5 38 3d 22 48 d5 3c d0 48 3a 3d
       0.0038260191 0.045140356 0.026035372 0.045479596
000200 66 9d ee ba 64 a7 02 3d f7 d7 43 bd 5e 8d fb 3c
       -0.0018204867 0.031897917 -0.047813382 0.030707058
000210 cd ae fe bc 4d 43 80 3d d7 ed d7 3b b1 f1 25 3d
       -0.03108921 0.062628366 0.006589632 0.040513698
000220 ce d4 82 3d 81 7f 7d bd 56 5e b2 3d 2a db d1 3c
       0.063882455 -0.061889175 0.087093994 0.0256172
000230 2a cd 90 bd 81 71 28 bc cf 73 06 3d bd 64 80 3d
       -0.07070382 -0.010280968 0.032825287 0.06269214
000240 f2 6f 67 bc f7 0e 80 3d bf dc 98 3d 4b 1b d2 bc
       -0.014125811 0.06252854 0.07463979 -0.02564778
000250 16 f8 27 bd 1d 34 6e bd 9d e5 14 be b8 0b 1d bd
       -0.041008078 -0.058155168 -0.14540716 -0.038341254
000260 97 c0 cd bb f2 be 8b bd fb ac 01 be 2a c7 40 3c
       -0.006279062 -0.06823529 -0.12663643 0.011766234
000270 5d 07 14 bd 41 b7 41 bd 5b c3 ca 3d ed 53 29 bd
       -0.036139835 -0.047293905 0.09900542 -0.041339803
000280 a7 f6 96 bb 66 6a c1 bd 9c 88 cd bb fb 8d ba 3d
       -0.00460704 -0.09444122 -0.0062723886 0.09109112
000290 b8 ea b2 3d 08 89 ec bd 39 3b e0 3c 63 72 90 bd
       0.08736175 -0.11549574 0.02737199 -0.070530675
0002a0 6b ea 93 3c 20 e2 5f bd 71 1a cf 3d de c4 06 bd
       0.018056115 -0.05465901 0.10112465 -0.03290259
0002b0 3f be 15 bd 63 0d 9f 3b f1 70 1f be ee b9 3f bd
       -0.036558386 0.0048538907 -0.15570427 -0.046808176
0002c0 e5 18 d5 3d fd c0 8c 3d 02 8b 47 bd f8 48 48 bc
       0.10405139 0.06872747 -0.048716553 -0.012224428
0002d0 bb 2e 0e bd 73 b4 fe bb 3e 3f 6d bd 51 c6 c5 3b
       -0.034712534 -0.007772976 -0.05792164 0.006035604
0002e0 e3 0a f7 bc 74 88 0a 3e fb 9d c8 bd de c5 e7 bc
       -0.030156558 0.13528615 -0.097957574 -0.028292593
0002f0 cb a1 b6 bd 25 38 bd 3c 45 82 89 3d 1e 91 86 bd
       -0.08917578 0.02309806 0.067143 -0.06570648
000300 7a 35 6c bd 68 87 2d 3d d9 f3 8b 3a 76 64 f2 3d
       -0.057668187 0.04236546 0.0010677531 0.11835568
000310 98 58 af bc 64 ce 9e bd 61 ec ab bd 2b 69 b4 bd
       -0.02140455 -0.0775421 -0.08394695 -0.08809122
000320 c6 b1 ef 3c b5 f9 8d 3d b0 b2 90 bd bb b0 bf 3d
       0.029259574 0.069323935 -0.07065332 0.093598805
000330 01 e6 7f 3d fa eb 3d 3d 45 6a 32 3d b2 1d c2 bd
       0.06247521 0.046367623 0.043558378 -0.0947832
000340 64 fa 9b 3d 56 65 70 bd fa c7 06 3d d2 2b b9 bd
       0.076161176 -0.05869039 0.032905556 -0.09041561
000350 3a 1d 2d 3d b6 3f 8d bd 67 d6 9d bd 42 a7 d2 bb
       0.0422642 -0.068969175 -0.077069096 -0.00642863
000360 6e fc 05 bd 82 50 33 bb 3b 6b 8c 3d 5d e9 66 bd
       -0.03271144 -0.0027361219 0.0685639 -0.056374896
000370 ab 2f f4 3d 63 8d 49 3c cc 6d db bd d5 fe 14 bc
       0.119231544 0.012301776 -0.107143015 -0.00909396
000380 bd e1 33 bd cc ed ef 3d 78 66 e4 3d 53 fe ee 3d
       -0.043916453 0.11715278 0.11152357 0.11669602
000390 2b 24 ac bd 0c 02 49 bb 93 32 fe 3d 1d cf 15 bd
       -0.08405336 -0.0030671386 0.1241199 -0.03657447
0003a0 e3 c9 24 bd 2b 96 8d 3d b5 12 e6 3d e9 b5 13 bd
       -0.040231597 0.06913408 0.11234037 -0.036062155
0003b0 a2 ce b4 3d fa ce 0f 3e e8 9d 69 3d 61 a9 bc bd
       0.088284746 0.14043799 0.057035357 -0.09211994
0003c0 24 65 cd 3d c9 d3 27 bd 61 dd 86 bc 5c 8c 02 3e
       0.10029057 -0.04097346 -0.016462984 0.12748855
0003d0 cf f2 6f 3d 1b a6 b8 3d db 53 c2 3d d2 91 0b 3d
       0.05858117 0.09016057 0.094886504 0.034074612
0003e0 6e e0 79 3d 5f f4 b8 bc 93 b6 3a bd e1 df 91 bc
       0.06100505 -0.022577463 -0.045584273 -0.01780695
0003f0 ad 25 74 bd b4 c3 03 3d 20 e0 4d 3c f6 0c 8c 3d
       -0.059606243 0.03216906 0.012565643 0.068384096

encoder_lstm2.weight_ih_l0 f4 [128, 64]
000000 6a 4f 8a bd a5 ca d5 ba ac e3 4c bd 24 02 3d 3d
       -0.06753428 -0.0016311003 -0.050021812 0.04614462
000010 cb e2 07 be 4f 8d 32 3d e5 f8 59 3d f0 f9 9c 3d
       -0.13270108 0.043591794 0.05321588 0.07664859
000020 47 bf c7 3d e6 12 fd bd 0f 0d a5 bd 4f d1 e3 3d
       0.0975328 -0.1235712 -0.08059131 0.11123907
000030 b7 4b 44 bc 25 39 e5 3d 84 a9 41 3e 63 b6 d3 3d
       -0.011980942 0.1119254 0.18912321 0.10337522
000040 66 d2 0e 3e 27 ff f2 bc a1 86 23 be c6 15 68 bd
       0.13947448 -0.029662682 -0.15969326 -0.05666139
000050 34 6d 12 bd 91 3b 29 3d 96 e1 31 be 9d 24 96 bd
       -0.035748675 0.041316573 -0.1737121 -0.07331202
000060 71 46 5b 3d 8d 05 d1 bd e9 15 6d 3d db 69 77 bd
       0.053533975 -0.10206137 0.057882223 -0.060403686
000070 19 50 16 3e 0c eb 17 be 18 f6 f1 bd 51 41 04 3e
       0.14678992 -0.14835757 -0.11814517 0.12915541
000080 b1 d8 bf 3d 90 b3 c1 3d a8 cf 90 3b e1 aa 2d 3d
       0.093675025 0.09458077 0.004419286 0.04239929
000090 7f 69 0a 3e d4 4b f4 bd 0a c8 d7 3d 63 81 08 3e
       0.13516806 -0.119285256 0.10536201 0.13330607
0000a0 3e 10 42 3e 15 30 0a be 44 fc af bc 86 32 21 be
       0.18951508 -0.13494904 -0.021482594 -0.1574193
0000b0 ad da de 3d 5d de 03 be ba 53 c9 3d 42 a6 58 bc
       0.10881553 -0.12877794 0.09830423 -0.013223233
0000c0 2b 88 47 3d db 6d ba 3d 41 28 81 bd c8 81 bc 3d
       0.048713844 0.091029845 -0.06306506 0.09204441
0000d0 2f f3 74 3d 65 ff d7 bd 5e 82 9b bd d5 ff 14 be
       0.05980223 -0.105467595 -0.07593225 -0.14550717
0000e0 06 24 98 3c c8 17 c8 3d 18 7b 1f 3e db c1 7e bd
       0.018571865 0.09770161 0.155743 -0.062196594
0000f0 f5 51 49 be 27 bc e2 bc 5c 0a 14 bd b3 4d b6 3d
       -0.1966017 -0.027677609 -0.036142692 0.08901539
000100 c9 b9 66 bd c2 76 d6 3d 22 37 e8 bd 8a 0f 33 be
       -0.056329522 0.1047187 -0.11338641 -0.17486396
000110 6c d4 a8 3b 93 b3 0e 3e e0 6b 47 3e f9 4a a4 bd
       0.005152276 0.1393569 0.19474745 -0.080221124
000120 f5 c3 d9 3d 85 4f 9a 3d e3 b4 55 3e 64 e0 ad 3d
       0.10633079 0.075346984 0.20869784 0.08490065
000130 e3 48 03 3e 05 d7 2b 3d c3 53 84 3d 63 38 49 bd
       0.12820773 0.041953105 0.06461289 -0.04912604
000140 49 1f 21 be 19 9b f9 3d c9 6f 9f bd 73 87 cf bc
       -0.1573459 0.12187786 -0.07784993 -0.025333142
000150 0c be f0 bd 97 7f f2 3d 9c cc fc bd f8 83 b0 bc
       -0.117549986 0.11840742 -0.12343714 -0.021547303
000160 62 4f f6 3c b3 ef 56 bd 10 c1 08 3e 2f b0 8a 3d
       0.03006715 -0.05247469 0.13354897 0.067718856
000170 5d b0 14 3e 50 bf a6 3d 2f a2 8e bc e7 90 90 3d
       0.14520402 0.08141959 -0.01741132 0.07058888
000180 5e 34 31 be ba 6c 2c bc ec a1 d8 bd b5 7e 04 3e
       -0.17305133 -0.010523969 -0.10577759 0.1293896
000190 1f 33 0c be 7b e2 9e bb 55 7a 00 3e bd 54 06 3e
       -0.13691376 -0.004848776 0.12546666 0.13118263
0001a0 1d 7d 6c 3d 5d 10 07 be 9a 6f c8 3d 68 41 43 3d
       0.057736505 -0.13189836 0.09786911 0.047669798
0001b0 1c 8e 31 3e 3c c2 5c 3d c6 97 2a 3e 21 33 2a 3b
       0.17339367 0.053896174 0.1665946 0.0025970417
0001c0 f1 38 5f 3d 54 4c cd bb f1 e5 b7 bd 2d 7f 80 3d
       0.054497663 -0.0062652025 -0.08979405 0.06274257
0001d0 79 e8 32 be 9d 19 f2 3c 6b 1a 96 3d 83 d7 9e bc
       -0.17471494 0.029553229 0.073292576 -0.019389873
0001e0 a6 11 45 bd 01 b4 d1 3d 81 ce 90 3d 2b 98 03 3b
       -0.048112534 0.10239411 0.070706375 0.0020079713
0001f0 38 dd 44 be a1 a3 2e 3e 09 37 20 3c 32 e8 09 bd
       -0.19225013 0.17054607 0.009778746 -0.033668704
000200 1f 80 85 bd 94 00 90 bc 7f 98 35 3d c7 64 9c 3d
       -0.06518578 -0.0175784 0.044334885 0.07636409
000210 00 ea 9a 3d 4c 46 ff bd 91 a5 e3 3d c5 70 22 bc
       0.07564163 -0.1246458 0.11115564 -0.009914582
000220 91 52 1c be 73 81 0f be a1 eb 4c 3e 16 82 e2 3d
       -0.15265872 -0.14014225 0.2001176 0.11059968
000230 43 6f 1c 3d e5 3e 07 3e e6 2f cd bd 46 1d ce bd
       0.038192045 0.13207586 -0.100189015 -0.10064177
000240 d2 bd b2 bd c1 1e a9 3d 8b 22 a6 bd ee aa 7a bc
       -0.087276116 0.08257819 -0.08112057 -0.015299542
000250 aa 25 2e 3e 39 51 e2 3c 93 b2 07 3e 16 24 16 be
       0.17006555 0.02762662 0.13251714 -0.14662203
000260 6d 03 1e 3e bc 33 47 3d c1 40 37 3d de f0 0f 3e
       0.15430994 0.048633322 0.04473949 0.14056727
000270 06 6b 0c be 6b c1 17 be dc 4a 00 be 33 da ed bd
       -0.13712701 -0.14819877 -0.12528557 -0.11613884
000280 db 70 31 be ee 49 13 be 24 be d8 bd a3 36 5e 3d
       -0.17328207 -0.1438367 -0.105831414 0.054251324
000290 2a d1 99 3d 1e ec d1 3c 96 27 17 be e1 a8 06 be
       0.07510598 0.025625285 -0.14761195 -0.1315036
0002a0 f6 b5 3c 3e 64 b8 34 3e 51 ea 1f 3e ab b8 02 3e
       0.18428788 0.17648464 0.15616728 0.12765758
0002b0 9e 77 18 3e 2a 0a 1b 3e 8a 36 93 3d 83 a5 09 be
       0.1488938 0.15140596 0.07188137 -0.13442044
0002c0 0c 6f 11 3e 33 23 e0 3c a6 40 40 bc 93 25 87 3d
       0.14202517 0.027360534 -0.011734163 0.065989636
0002d0 9a 48 93 3d f2 02 52 3d 64 39 1e 3d ba 95 0b 3e
       0.07191582 0.05127234 0.03862895 0.13631335
0002e0 30 61 f4 bd c9 8c 0e 3e ee 53 94 3d 7c 11 67 3d
       -0.119325995 0.13920893 0.07242571 0.05641316
0002f0 df 08 a3 bd 7c 7e 4b 3d d1 93 12 3e 13 9b d7 bd
       -0.079606764 0.04968117 0.143142 -0.10527625
000300 dd 50 7d 3d 73 95 65 3e a3 bb a0 3c 43 71 14 3c
       0.061844695 0.22420292 0.019620722 0.009060207
000310 1f bc 25 3d 2c 8e 04 be 59 02 27 3e dc 10 43 3e
       0.04046261 -0.1294486 0.1630949 0.190494
000320 df 40 36 be 95 f9 97 bd 94 3c 0f 3c 69 54 28 3e
       -0.17798184 -0.07420651 0.00874247 0.1643845
000330 1c fd 92 3d 4c 39 2f be 61 6b e0 bd 10 1b 09 3d
       0.07177183 -0.17111701 -0.10957981 0.033473074
000340 fd df b5 bd ee 76 d1 bd 70 32 16 bd b7 7e 40 be
       -0.08880613 -0.10227762 -0.036669195 -0.18798338
000350 9e c4 fe bd 9b c7 7d bd 56 32 7c bc 26 a1 21 be
       -0.124398455 -0.061957937 -0.01539286 -0.1578413
000360 13 d1 57 bd da a0 5d bc c2 46 3e be 4c ea 33 3d
       -0.052689623 -0.0135271195 -0.1858168 0.043924615
000370 aa f5 2f 3e 23 23 ab 3d 24 7b ab bd 61 1e 30 3d
       0.17183557 0.08356311 -0.083730966 0.04299772
000380 e7 be 68 bc 95 f8 9d bd 18 f6 95 bc 40 3d 56 3d
       -0.014205671 -0.07713429 -0.018305823 0.052304506
000390 d3 b4 93 3d 62 de 36 3c 77 5e 84 3d ff 75 99 bd
       0.07212224 0.011161419 0.0646333 -0.07493209
0003a0 26 f5 a8 bd 10 91 87 3d c6 eb ee bd 92 a6 b4 3d
       -0.08249883 0.06619465 -0.11666064 0.08820833
0003b0 3c 41 e7 3b 8a 53 30 be b4 47 a2 bd 71 43 9e 3d
       0.007057337 -0.17219368 -0.079238325 0.07727707
0003c0 68 99 6f 3d f9 a5 c5 bd 70 ff 56 3e 29 92 0d 3e
       0.05849591 -0.096507974 0.20995879 0.13825287
0003d0 4c 22 18 be af 68 1c be 5b e1 5e 3d 4b 88 d3 bc
       -0.14856833 -0.15274309 0.054414134 -0.025821825
0003e0 fd 3b a6 3c c7 47 60 bc 31 1f de bb 45 4e cf 3d
       0.020292277 -0.013688988 -0.0067786206 0.101223506
0003f0 b7 8e 07 3e 36 93 09 3e ed 8e f8 bd e2 9c 8a bd
       0.13238035 0.13435063 -0.12136636 -0.06768204

encoder_lstm2.weight_hh_l0 f4 [128, 32]
000000 ec 5b 01 be 77 cc dc 3d 94 c2 f4 bd a8 89 79 3d
       -0.12632722 0.10781186 -0.11951175 0.060922295
000010 5a 34 85 3d 21 1c e7 3d 22 25 d1 3d ce 94 6d 3d
       0.06504126 0.11284662 0.10212161 0.05800324
000020 b1 ea 36 3e a3 86 18 be a8 d6 ba bd 38 63 4b bd
       0.17862965 -0.1489511 -0.09122974 -0.04965517
000030 81 76 08 3d 26 fa 12 bd bb e0 09 be 5a f8 ea bc
       0.03331614 -0.03588309 -0.13464634 -0.028682876
000040 03 22 0e bd 68 93 b2 3d 6e fe d6 3c aa eb 1b bd
       -0.034700405 0.08719522 0.026244368 -0.038066544
000050 4c 53 01 be 2c 53 26 3e 24 de 99 3d f7 51 80 bb
       -0.12629431 0.16242665 0.07513073 -0.003916021
000060 49 00 79 bc dc d0 b9 3c c8 48 56 3d 1e 63 94 3d
       -0.015197822 0.0226826 0.052315503 0.072454676
000070 26 bd df bd c4 0b a8 bd 6f 10 a3 bd 09 6d 9d 3c
       -0.10924749 -0.08205369 -0.07962119 0.019217031
000080 fa 52 1a 3c 94 5f 0d be 57 61 ec bd 1c 5c 1c 3e
       0.009419197 -0.13805991 -0.115420036 0.15269512
000090 d3 87 30 bc e5 f2 88 bd 68 19 12 3e c4 43 4d 3d
       -0.0107745705 -0.066869535 0.14267504 0.050113454
0000a0 d2 24 8b bd 4c f9 1a be 80 4d e8 bd f6 96 24 3d
       -0.06794132 -0.15134162 -0.11342907 0.04018303
0000b0 bd 4d 27 3e 4b d5 67 bd 49 12 e6 3d f9 cc 76 3d
       0.16338249 -0.056599896 0.11233956 0.06025407
0000c0 ee 2b 1c bd 9d 28 06 3e bb 15 13 3e f5 10 3e 3e
       -0.038127832 0.1310143 0.14363758 0.18561156
0000d0 0e cb cd bc 0c 02 88 3d f5 7b 08 be 24 dc af bc
       -0.025121238 0.066410154 -0.13328536 -0.021467276
0000e0 eb ac ea bd 06 b3 ac bd 3e 50 c5 3b f9 61 ee 3d
       -0.11458763 -0.084325835 0.0060215285 0.116397806
0000f0 7d cb 06 bd 34 39 10 be 7e 6c c9 bc 6f e0 d9 3d
       -0.032908905 -0.14084321 -0.024587866 0.106385104
000100 5d c0 91 bc 37 a9 e7 3c 31 9b 99 3d 54 42 07 3e
       -0.017791921 0.02827893 0.075003035 0.13208896
000110 d8 9f d1 bd 23 5a 0e be a6 d9 3a be c1 03 26 bc
       -0.10235566 -0.13901572 -0.18247089 -0.010132731
000120 51 72 02 3e f9 2f 17 be 2a 7a 94 3c ba e9 d8 bd
       0.12738921 -0.14764394 0.018124659 -0.10591455
000130 9d d7 60 bd f3 53 e3 3d 3d d9 14 3e 0b 8a 08 be
       -0.054893125 0.110999964 0.14535995 -0.13333909
000140 fe dc 2e 3e df 80 8d 3d 68 78 11 bd ec 35 e0 bd
       0.1707649 0.06909346 -0.03551522 -0.10947785
000150 7f da 82 bd 31 11 a6 bd 68 9c ed 3c 2e 44 fa 3d
       -0.06389331 -0.08108748 0.029005244 0.122200355
000160 fe 1c 54 bc e5 e3 2a 3e f5 9a b4 bd 96 39 da bd
       -0.012946365 0.16688497 -0.08818618 -0.10655515
000170 30 e9 97 bd 95 db 26 be 90 08 79 3d 6b 3d 3f bc
       -0.07417524 -0.16294701 0.06079918 -0.011672358
000180 e1 63 c5 bd df 96 d2 3d b1 0d 94 3d 48 06 2a be
       -0.09638191 0.102826826 0.07229174 -0.16603959
000190 86 1e 75 bd fa fe 1f bb 87 c8 93 bd 46 7f 10 be
       -0.059843563 -0.0024413452 -0.07215982 -0.14111051
0001a0 4c 21 db 3d 85 42 11 3b 29 11 5c 3d 37 81 b1 3d
       0.1069971 0.0022164893 0.053727303 0.08667224
0001b0 9c 64 4d bd da d1 23 be 89 a3 4a be 0b 18 10 bc
       -0.050144777 -0.15998021 -0.19788946 -0.008794795
0001c0 dd a1 9d 3c 95 dd c6 bc ee 79 31 bd 72 57 17 bd
       0.019242221 -0.02427558 -0.04332917 -0.03694863
0001d0 98 d1 06 3e 0a 47 47 3e d8 30 39 3d 11 87 a4 bd
       0.13165891 0.19460693 0.045212597 -0.080335744
0001e0 f2 2d 27 3e 83 79 d0 3d 0c e7 2f 3e 75 b8 f5 3d
       0.1632612 0.101794265 0.17177981 0.11998073
0001f0 e1 b6 5a 3e 27 b6 3b 3d 00 9a 27 be f0 1c d4 bd
       0.21358825 0.04582801 -0.1636734 -0.10357082
000200 9b 25 e8 bd 7f 8f ea 3c c5 ec d8 bc ad b7 cf bd
       -0.11335298 0.028632877 -0.026480088 -0.10142455
000210 3c 53 0f be e8 97 1b 3d b2 28 d7 bd f4 02 32 be
       -0.13996595 0.037986666 -0.10505809 -0.17383939
000220 cc 62 17 be bf 4f 05 be 80 b3 ab 3c 29 4a cf 3c
       -0.14783782 -0.13018702 0.020959616 0.025303917
000230 f9 86 b8 bd 9b ec a3 bd 05 ef 91 3d c7 b1 fc bd
       -0.09010119 -0.08004113 0.071256675 -0.12338596
000240 11 c4 5f 3d 07 a1 c3 bb b0 1d 1a 3e 97 27 9c bd
       0.054630343 -0.0059701237 0.15050387 -0.07624739
000250 43 59 70 3d 60 2c 55 bd 9b ec 7e bd bd c6 c7 bc
       0.058678877 -0.052044272 -0.062237363 -0.024386758
000260 2b 78 8e bd a0 6c 86 bd 50 28 a2 3d a3 3a f3 bd
       -0.06956514 -0.06563687 0.07917845 -0.118764184
000270 c1 47 20 3e 39 c5 0e 3d dc 78 80 3d 0d 60 91 bd
       0.15652372 0.034856055 0.06273052 -0.07098398
000280 24 03 86 3d ce df 3f 3c 32 17 d8 3c bc b7 54 bd
       0.06543568 0.011711074 0.026378248 -0.051933035
000290 f0 2d 8c bd c3 66 c1 3d 0f ce f8 bc 36 18 b2 3d
       -0.068446994 0.09443428 -0.030371694 0.08696024
0002a0 38 1f 83 3d e5 e8 4d be c9 69 5a 3c 98 a5 29 bd
       0.06402439 -0.20108373 0.013330885 -0.041417688
0002b0 46 e9 04 3e 13 ff 1c bc 17 02 68 3d 73 2b de bd
       0.12979612 -0.009582299 0.056642618 -0.10848131
0002c0 e8 f2 c0 3b 6a b5 b8 bd 69 e5 1c be 48 c8 d2 3d
       0.0058883317 -0.09018977 -0.15321888 0.10292107
0002d0 56 c1 36 be 64 ff 03 3e 92 2a d0 bd 26 f8 f3 bd
       -0.1784719 0.12890393 -0.1016437 -0.11912565
0002e0 54 c4 32 bc 85 0b d0 bd 8c 00 ef bb fd ec 63 bd
       -0.010911066 -0.10158447 -0.0072937664 -0.05564593
0002f0 83 74 0a 3e 17 d9 56 3d 80 5b 68 3d 35 dc d2 bd
       0.13521008 0.052453127 0.056727886 -0.102959074
000300 5d d2 d7 bd 78 48 31 3e df b9 b9 3d 5e 1b 67 3d
       -0.105381705 0.17312801 0.09068655 0.056422584
000310 b7 19 d7 3c b5 7f 39 3d 1b 6d c0 3c 05 4d 3b 3c
       0.026257379 0.045287807 0.023489526 0.011431937
000320 26 cb 1b 3d c4 3e cc 3d 4c dd 1a be d0 6b 31 3e
       0.038035534 0.09972909 -0.1512348 0.17326283
000330 70 33 ad 3d e8 cb 63 3d 2d 70 ea 3c 15 ed c7 bd
       0.084570765 0.055614382 0.028617943 -0.09762017
000340 0e dd a9 bb 81 a7 28 be 69 83 2a be 11 9a 45 3d
       -0.0051838225 -0.16470148 -0.16651691 0.048242632
000350 18 18 31 3e 3e ac 2c bc ae 1c eb 3d 6a d7 92 3c
       0.17294347 -0.010539113 0.114800796 0.017924983
000360 18 44 cf 3d d8 5e 5a 3d 8d 8c 2e 3e 4a 6e 41 3d
       0.1012041 0.053313106 0.17045803 0.04722432
000370 3c b9 37 bb c8 2a d7 3d 52 60 23 3e e5 de d8 bd
       -0.0028033992 0.10506207 0.15954712 -0.10589389
000380 10 5f a1 3c 59 9e 0a be 58 07 c1 bd d6 63 10 3e
       0.01969865 -0.13536967 -0.09425229 0.14100584
000390 6b e1 e8 3d 02 54 02 3b de 7c 1d 3e f2 83 33 bd
       0.1137112 0.0019886498 0.15379664 -0.043827005
0003a0 a9 dd 01 be ec b5 39 3e 71 c1 14 3e 7a 82 1a be
       -0.12682213 0.18135804 0.14526917 -0.15088835
0003b0 69 e6 74 3d 28 69 1b bd c7 db 23 3e c3 3c 0a 3d
       0.05979005 -0.03794208 0.16001807 0.033749353
0003c0 9d 04 8c bc 8b 19 da bd 8a 73 c6 bd b1 84 49 bd
       -0.017092044 -0.10649403 -0.09690006 -0.04919881
0003d0 f7 30 5d 3d b4 7b 40 3d 5b 57 d8 3d c4 e9 8e 3d
       0.054001775 0.046992972 0.10563537 0.06978181
0003e0 13 64 0f 3e 32 06 b4 3d e6 b0 0b bd 9d a2 d2 3d
       0.14003019 0.08790244 -0.03410425 0.10284922
0003f0 79 0c 1b be 71 a9 02 be 66 69 ec 3d b5 92 2f 3e
       -0.15141477 -0.1275995 0.11543541 0.17145808

encoder_lstm2.bias_ih_l0 f4 [128]
000000 db 34 39 bc 06 cd 0f 3e f7 40 01 3e 44 8b 57 bc
       -0.011304106 0.14043054 0.12622438 -0.013155762
000010 47 bc d1 3d d7 6f 6c 3d b4 ff db 3d 50 c1 d9 3d
       0.10240989 0.057723846 0.10742131 0.106325746
000020 12 7b 7d bd 88 ca 13 be bb da 88 bd 43 53 63 3b
       -0.061884947 -0.14432728 -0.066823445 0.003468708
000030 6e db 0b be 9c 2d a4 bd 52 80 66 3d 03 4f 0e 3d
       -0.13657925 -0.08016512 0.05627472 0.03474332
000040 4f 60 dc 3c 4b 11 99 3d fc 84 06 3e b1 b1 9a 3d
       0.026901392 0.074740015 0.13136667 0.07553423
000050 07 8c d1 bd a4 c2 cd 3d 15 2e 1b bd 86 19 0b 3e
       -0.10231786 0.100468904 -0.037885744 0.13583955
000060 8c 5e 53 bd f5 1d c6 bd 23 ca 18 3d b4 1a 9f bd
       -0.05160384 -0.096736826 0.037302148 -0.07768765
000070 41 d3 df 3a 16 6f 78 3d da 90 11 3e b4 6a 1f be
       0.0017076508 0.060652815 0.14215413 -0.15568048
000080 d5 1d f8 bd ed 4e 4f 3d 73 1a 2e 3e cc b7 19 be
       -0.12115065 0.05061238 0.17002277 -0.15011519
000090 94 3e 1e be c8 52 ca 3c ec c5 a5 bb c2 41 21 3e
       -0.15453559 0.024697676 -0.0050589945 0.15747741
0000a0 e1 9e cd 3d 9d 8a 94 3a fc ee d5 3b b6 56 79 3d
       0.10040069 0.0011332814 0.0065287333 0.06087371
0000b0 da 3e 11 3d 73 e4 3f 3e be e3 60 3d be 18 01 be
       0.03546033 0.1873949 0.054904692 -0.12607095
0000c0 a2 3a 79 bd 10 af 7f 3d a2 e0 dc 3d 7f f3 85 bd
       -0.060846932 0.062422812 0.10785033 -0.06540584
0000d0 67 1b 2b be ae a8 a9 3d 8a 64 26 3e 06 55 fb bd
       -0.16709672 0.08284126 0.1624929 -0.12272076
0000e0 56 b1 92 3d 34 58 ad bd 4b ed 8b 3d 7b 5b 4b 3d
       0.071627304 -0.08464089 0.068323694 0.04964779
0000f0 c8 5e f6 bd 68 01 a3 3d 2b ac 3c 3e 18 c4 3a bc
       -0.12029797 0.079592526 0.18425052 -0.011399291
000100 5b 9f f7 3d ae ef 26 3e a4 a3 37 be fa b1 25 be
       0.120909415 0.16302368 -0.17933518 -0.16181174
000110 5b 81 12 3e 7d 6a 10 3e 6f 3d 96 bd 5b be f9 3d
       0.14307158 0.14103122 -0.07335936 0.121945105
000120 78 d8 8c bd 73 45 0e 3c 2f 7d 31 3d 90 53 20 3e
       -0.06877226 0.00868355 0.043332275 0.15656877
000130 3e ba 15 3e cb de 2a be 41 a4 81 3d 47 8e 16 3e
       0.14621827 -0.16686551 0.06330157 0.14702712
000140 85 e0 30 3e 52 46 e9 3b 95 84 d3 3d e4 bf 02 3e
       0.17273147 0.0071189785 0.103280224 0.12768513
000150 17 f1 9c bd 1a 7d e2 3d c1 18 dc bc 90 df b1 bd
       -0.07663172 0.110590175 -0.026867272 -0.08685219
000160 95 b5 be bd a1 28 e0 3d f5 fe 0b 3e 4d 89 91 3c
       -0.09311978 0.10945249 0.13671477 0.017765665
000170 e2 6d ee 3c 9a 73 9c 3c 03 f1 37 3e 94 74 00 3e
       0.02910513 0.019098092 0.17963032 0.12544471
000180 13 a0 97 bc bb 97 ad bd f3 bb ff bd 3e 65 1f bd
       -0.018508947 -0.08476206 -0.1248702 -0.03891491
000190 d5 7d 2b bd d0 9d 97 3d 9b 47 24 be f1 18 c8 bd
       -0.04186805 0.07403147 -0.1604294 -0.09770382
0001a0 db d0 a2 bd d4 23 42 3e 7b 7e 1a 3e 05 dd c9 3d
       -0.07949992 0.1895898 0.15087311 0.09856609
0001b0 86 3a 0e be f3 3c 16 be 44 e2 4c 3e 76 78 cb 3c
       -0.13889512 -0.14671688 0.20008188 0.024837714
0001c0 ca 6d 23 3e b4 b6 7e bd c8 81 f9 3c 81 eb 44 bc
       0.1595985 -0.062185958 0.030457392 -0.012019039
0001d0 c6 0c 8a 3d 24 0a 71 bb a6 af 7f bd 84 d6 1f 3e
       0.067407176 -0.0036779726 -0.06242337 0.15609175
0001e0 c0 4d f3 bd 00 25 09 3e f1 21 ec 3d e2 18 bc bd
       -0.11880064 0.1339302 0.11529911 -0.091844335
0001f0 6d d9 ed 3d b3 1e 53 3e 51 0b 8e bd 9e e7 37 3e
       0.11613736 0.2061718 -0.06935752 0.17959449

encoder_lstm2.bias_hh_l0 f4 [128]
000000 a8 05 1c 3e fa 2b a1 bd 8e 0f 26 3e 71 24 3e 3d
       0.15236533 -0.07869716 0.16216871 0.046421472
000010 a8 7c 82 3b fa 7c 21 be 22 9b af 3d 7d 59 1d 3e
       0.0039821453 -0.15770331 0.08574511 0.15366168
000020 7e 1e 0c bd f6 79 c8 3c 55 3f ae bc 5f 49 fd 3d
       -0.034208767 0.024472218 -0.021270433 0.1236751
000030 32 cb be bd a2 72 36 3e 66 f5 bb 3d c1 95 6e bd
       -0.093161 0.17817166 0.091776654 -0.058248285
000040 e1 0b 1d 3e 79 71 0b 3e 4d 4d 03 be af d8 c6 bd
       0.15336563 0.13617505 -0.12822457 -0.09709298
000050 68 ba d5 3c 67 f0 90 bd 00 ed 76 3d f9 bf 5b 3d
       0.026089862 -0.07077103 0.060284615 0.053649876
000060 da 51 b6 3d 00 2c 33 3e 8a 21 c9 3d fb af 21 be
       0.08902331 0.17497253 0.0982085 -0.15789787
000070 4d 54 9a bd b3 65 52 3e 8a 21 19 be f0 d1 ca 3c
       -0.0753561 0.20546608 -0.149542 0.02475831
000080 1d 5a 21 3e 3b 42 0a be 8c d0 b9 3d 67 13 b3 3d
       0.15757032 -0.13501827 0.0907298 0.08743935
000090 e8 04 1e 3e 28 94 0b be 24 c7 1f 3c 22 28 22 3e
       0.15431559 -0.13630736 0.009752069 0.15835622
0000a0 95 b3 df 3d 0e 7c 87 bd 57 e3 fb bc 51 42 ed 3c
       0.109229244 -0.066154584 -0.030748053 0.028962286
0000b0 1e 51 22 be 73 81 22 be cd f2 d3 3d 11 68 39 3b
       -0.15851256 -0.15869693 0.10349045 0.0028290788
0000c0 1b 3d 8c bc b4 b3 bd bc 9a ed 02 3c 83 95 d3 bd
       -0.017118981 -0.023156978 0.007991219 -0.103312515
0000d0 11 70 84 bd 79 ec 1c 3d 10 80 ba bc a7 34 9f bd
       -0.064666875 0.038311455 -0.022766143 -0.077737145
0000e0 b0 39 1b bd 9e 46 33 3e f0 5c 0d 3d 54 71 02 be
       -0.037896812 0.17507407 0.03451246 -0.12738544
0000f0 2c 3c 78 bd 15 f5 66 bd df 57 bd bd 3d 34 21 3e
       -0.06060426 -0.056386072 -0.09245276 0.15742584
000100 cb 31 00 be 6f 0d 84 3c f4 24 ec bd ba 1f d4 3d
       -0.12518995 0.016119687 -0.11530486 0.10357614
000110 6a 6d d6 3d c9 19 62 bd 24 bb 04 be bb dc f3 bd
       0.10470088 -0.055200372 -0.12962013 -0.11907335
000120 c0 a4 2e 3d d4 9e cb bd 89 c1 c7 bd 9b e7 8c bd
       0.042637587 -0.099424034 -0.09753711 -0.06880113
000130 88 04 35 3e 50 8d d5 bc d5 f1 65 bd 34 ae 8f 3d
       0.1767751 -0.02606836 -0.056138832 0.070156485
000140 64 ab 90 bd 50 0a 22 3d c6 4f 2c bd df ec 6d bc
       -0.0706394 0.039560616 -0.042068265 -0.0145218065
000150 81 13 8b bd 41 26 d6 bd 95 50 02 3d 78 95 e1 3d
       -0.067908294 -0.10456515 0.03181513 0.11014837
000160 fb 0f 1e 3e e9 82 2a 3d 36 81 7c ba 14 60 64 bd
       0.15435784 0.041628752 -0.0009632291 -0.05575569
000170 58 47 10 3c 36 8e 1a bd 14 6a 22 bd 1c 7c 0f bd
       0.008806072 -0.03773328 -0.039651945 -0.03503047
000180 26 bc 08 be 02 c2 48 3e a7 f3 36 3d 13 67 c9 3d
       -0.13353023 0.19605258 0.04466596 0.09834113
000190 d3 1c 87 bd f2 11 85 3c 1a 82 60 bd 34 7d 07 3e
       -0.06597295 0.016243909 -0.054811575 0.13231355
0001a0 51 d6 56 3c 50 34 96 3d c5 7f 8f bc 9c 6f 19 3e
       0.01311262 0.073341966 -0.01751698 0.14983982
0001b0 c9 3a bc 3d 3f cf f3 3d d7 0f 22 3e 20 1f ca 3d
       0.091909 0.119047634 0.15826355 0.09869218
0001c0 54 c2 ad bc fa 99 14 be fe 24 6d 3d a2 a5 19 be
       -0.021210827 -0.14511862 0.057896607 -0.1500459
0001d0 cd e2 d7 3c 44 25 9c 3c 8a c9 69 bd aa fa be 3d
       0.026353264 0.019060738 -0.05707697 0.09325154
0001e0 98 d4 0c 3e 6d 09 07 3b c3 0c b5 bd 6a 70 81 bd
       0.13752973 0.0020604983 -0.08840325 -0.063202694
0001f0 01 75 df bc 98 98 c3 3d 02 a0 c3 bd b3 81 0e be
       -0.027277471 0.09550589 -0.095520034 -0.13916664
