models/anomaly_models/WH001_SKU-019.pth (torch, 242563 bytes, 20 tensors)

encoder_lstm1.weight_ih_l0 f4 [256, 6]
00000000: 6df7 8b3d f4f4 7ebc 5c3f 2b3d ca19 d8bd
00000010: cae9 9abd 48f6 f13d 3fcf c0bd 2f70 1bbd
00000020: 7628 ee3d 8e4c 63bd a33c 953c 8fde 113e
00000030: a185 b23d 1848 8bbc 54d6 1d3d 4921 1f3e
00000040: 92df f73d fb22 fc3d b540 843d 790a f23d
00000050: 2782 b3bc 2fb7 5b3c 999f 3ebd 6da5 8c3d
00000060: 6bfb 0c3d ae79 c13d ade3 023e c66f cb3d
00000070: 01ad 12bd bafc ebbd 9e1b e3bb 8722 a6bd
00000080: 999d 233e 3319 fe3c e3a2 ed3c a0f3 f03d
00000090: f64d c83d f199 bf3d 6cc1 64bc e431 b2bd
000000a0: 000c d9bd 6225 8e3d 7495 ecbc a152 87bd
000000b0: 7b16 4a3d c55d 76bc 0f10 08bc 169f a8bd
000000c0: ca73 453d fe16 94bd 5dc7 883b d21c 2e3d
000000d0: f611 bdba 3be1 693c 0481 f93d 4272 e23d
000000e0: 6cc4 493d bb2b 9bbd e1c5 2bbd a2cd d83d
000000f0: 06f7 c3bd 2543 cc3d 57d6 adbd 81eb 763c
00000100: 0e30 98bd 42c2 39bd e32c fc3d 9cb3 ff3d
00000110: a955 003e 57e3 1a3e f618 e73b 7831 84bd
00000120: b89c 773c 4a05 ad3d 8c78 c73d bc16 94bd
00000130: 1473 1f3d 3390 123e 8429 0e3e 7060 07bb
00000140: 6b63 a53d fe3e 573d 32a2 bdbd 6341 08be
00000150: 6f1e 98bd bb3d a4bd 65cf a0bb 6973 193e
00000160: d616 9e3d 6699 bbbd aaec 35bd 8111 22bc
00000170: b779 dfbc cd8c b83d 7933 69bc ea00 923d
00000180: b0cc 65bc 1c15 843c f62c 09bc 1954 163d
00000190: 71e8 89bd c1f7 e93d ba9f 593d ac2a 9cbd
000001a0: e4d9 183e 6532 f13d 3800 973d 7ee6 013a
000001b0: 1bfd 31bc 98f7 ca3d 3eb3 f83c 959d c2bc
000001c0: edca 8fbc b267 8f3c f35c 983c 6618 a7bd
000001d0: fdd4 543d 3649 0f3e a68e d5bd 62a9 863c
000001e0: 872b a93d f88b cabd 6f12 fabc 8cba b33c
000001f0: 4afb 943d 88d2 d73c 09b7 3cbd c292 783d
00000200: 7026 0ebc 8ede 49bd 08aa 463d 1cce 07bd
00000210: 30cc b2bd d434 be3d 25c0 8c3d bd1f 113e
00000220: 745f b63d 7c19 7bbd e9ea d13d 6b5e 7c3d
00000230: 19ae 37bd 5330 df3c 02f0 c03d ecde 0fbc
00000240: e6de bebd b741 92bd 4266 47bd 7e2d 2a3e
00000250: 3d07 603d d140 063e 7831 2fbd 7466 a5bd
00000260: 6ed6 24bc ab6f 2dbe 3276 1c3e dae8 04be
00000270: e8f2 9fbd 8c25 e33d 7cc3 8a3d 3288 e43d
00000280: 3aef a73c 8c51 18bc 5c66 1c3d b6c4 cc3d
00000290: 15f8 c93d ce10 e03d 1ce0 d93d 94bd ef3b
000002a0: 3003 013e edde 4cbd 2e86 1a3d 2fde 7a3d
000002b0: dfcd 333c f615 97bd 6567 8bbb b530 a2bd
000002c0: e099 1c3d 7e36 813d 671e e53d b4be 02bd
000002d0: 46ff e73d 8e25 5bbd 0082 f13d e19e f63d
000002e0: 82b9 c93c 6feb 8fbd 0f40 c0bd 18be b3bd
000002f0: 8d0f b83d 8544 953d faf9 81bd b502 023e
00000300: 5a10 9d3c 8b9f 7f3d da29 923d 3540 31bd
00000310: ffca ee3d aa48 2ebe e1b5 353d 0b2e b43d
00000320: b0f9 523d 514b f7bc eaae 8a3d 90ca e73c
00000330: 073b 72bd fb17 c53d f9de 923d dcbd ba3d
00000340: 993d 93bd 465f 8d3d 28c3 7abd 28d1 11bd
00000350: 0250 9e3d 8a4e 033e 83c7 a73b f0d2 bcbd
00000360: 208b f03d a019 efbd 9313 17bd 177e 953c
00000370: c137 483d 6185 a3bc 6ff1 583c da41 25bc
00000380: db1b 08bd 808a 28bc 790f c2bd 523b 49bc
00000390: 4b0a e03d 7e20 8fbd 11c2 8bbd c6d1 343c
000003a0: 4e22 d73d eee6 d1bd 9646 fdbc fd14 113e
000003b0: 8b36 4abc dc61 f23d bd8e da3d c265 473d
000003c0: 7623 aabd 6df5 003e 39e8 913c 397f a93d
000003d0: 1c7c 493d 134e 13bc 84cb 083e becf ca3d
000003e0: 3f5c 53bd 04ee cb3b ed78 82bd a9ed e9bd
000003f0: 4b82 7c3c 44d4 f03d cf4b 863d f4f0 de3d
0.06834302 -0.015561331 0.04180847 -0.10551794 -0.07564123 0.118145525 -0.09414529 -0.037948783
0.11628811 -0.05549293 0.01821739 0.14245056 0.08716894 -0.01700215 0.038534477 0.15540041
0.121031895 0.123113595 0.064576544 0.11818404 -0.021912647 0.013410374 -0.046538923 0.0686749
0.03441946 0.09447037 0.12782164 0.099334285 -0.03580952 -0.11522813 -0.0069307825 -0.08112054
0.15978087 0.031017875 0.029008335 0.11765218 0.09780495 0.09355534 -0.013962131 -0.08700922
-0.10597992 0.06940724 -0.028879859 -0.06607557 0.049337845 -0.015037005 -0.00830461 -0.08233468
0.04820613 -0.07230948 0.0041741566 0.042507954 -0.0014424908 0.014274891 0.12182811 0.11056949
0.049259588 -0.075767 -0.04193676 0.10586096 -0.095686 0.09973744 -0.08488148 0.015070797
-0.07431041 -0.045351274 0.12313249 0.1248543 0.12532677 0.15125786 0.007052536 -0.06454748
0.015113048 0.084482744 0.09739789 -0.07230899 0.038928106 0.1431282 0.13883024 -0.0020656846
0.08075603 0.05255031 -0.09259452 -0.13306193 -0.0742768 -0.08019587 -0.004907536 0.14985432
0.07719199 -0.09160118 -0.044415154 -0.009891869 -0.027279718 0.090112306 -0.014233463 0.071290806
-0.014025852 0.016123347 -0.008372536 0.036701296 -0.06733788 0.114242084 0.053130843 -0.076253265
0.14926869 0.1177719 0.073730886 0.00049553055 -0.010863568 0.09910506 0.030358907 -0.023756782
-0.017552817 0.0175055 0.01859901 -0.081589505 0.051960934 0.13992772 -0.10427599 0.01643819
0.08260255 -0.09889978 -0.030526368 0.021939538 0.07274492 0.026345506 -0.046072993 0.060686834
-0.008676156 -0.04928451 0.048502 -0.033155546 -0.08730352 0.0928742 0.06872586 0.14172263
0.08904925 -0.0613036 0.10249884 0.06161348 -0.044843767 0.027244722 0.09420778 -0.008781176
-0.09319858 -0.0714144 -0.048681505 0.16618916 0.054694403 0.13110663 -0.042771786 -0.08076182
-0.01006089 -0.16937129 0.15279463 -0.12979451 -0.078100026 0.11091146 0.06775567 0.1115879
0.020499814 -0.009296786 0.038183555 0.09998457 0.09861771 0.10940705 0.106384486 0.0073163006
0.12598872 -0.050017286 0.03772562 0.061247047 0.010974376 -0.073772356 -0.004254269 -0.079194464
0.038232684 0.06309222 0.111874394 -0.03192015 0.113279864 -0.05350261 0.11792374 0.120420225
0.02462459 -0.07027327 -0.09387218 -0.08776492 0.08987341 0.0728846 -0.06346507 0.12696345
0.019172836 0.06240801 0.07136889 -0.043274123 0.11659812 -0.17019907 0.044362906 0.087978445
0.05150765 -0.03018728 0.067716435 0.028294832 -0.059138324 0.096237145 0.07171435 0.09118244
-0.07189483 0.069029376 -0.06122127 -0.035599858 0.07730104 0.12822929 0.005120219 -0.09219921
0.11745286 -0.116748095 -0.0368839 0.0182486 0.048881296 -0.019961061 0.013241156 -0.010086501
-0.03322969 -0.010286927 -0.094756074 -0.0122822095 0.10939463 -0.06988619 -0.068241246 0.011036342
0.1050459 -0.102491245 -0.030917447 0.14168163 -0.012342106 0.118350714 0.106717564 0.04868103
-0.08307545 0.12593623 0.017810928 0.08276219 0.049190626 -0.008990782 0.13358885 0.09902905
-0.051601645 0.006223442 -0.06370721 -0.11422283 0.015411924 0.117592365 0.06557428 0.10885802

encoder_lstm1.weight_hh_l0 f4 [256, 64]
00000000: 9908 933d 1380 173d dbd8 983d 1f5c b5bd
00000010: 1966 a53c 34a3 2ebc 7d50 4d3c 4725 b5bd
00000020: d905 b1bd 6723 b03b 8a89 1ebc fa2b e9bd
00000030: 538d eebc 3d7f 833d 73e3 fc3d c8d1 bf3d
00000040: 4cd8 f4bc ff40 823c c02c ed3c 97be 153e
00000050: e437 46bd 2997 613d 003e aa3c b3ba fb3c
00000060: 0f61 4dbd 0853 94bb c5fa 0ebd cb8a 843d
00000070: 9b39 fabd 3cca 1e3c cb08 903d bd79 653d
00000080: d4bf b33d eac2 f83d 5c62 873d a351 0dbd
00000090: ae0b 983d 1f51 d2bd 6b3b 8bbd bc80 03be
000000a0: c75e 0dbd 34f6 a9bd 8d52 35bd aa87 19bd
000000b0: 8b76 c53d 52d5 d2bd 0362 ec3c 27ef ae3d
000000c0: c608 e0bd 34e9 aebd b681 f7bd 2328 393c
000000d0: 6536 c83d 19d8 8abd 51c4 04be c803 c73d
000000e0: cf7e ae3d 4c88 f83d fcfa b93d b702 a7bd
000000f0: 5656 713d d15e 5e3d b7b2 e53d cdc3 81bd
00000100: baab a03c afc5 a4bc 946f 0abd 1fbb ba3d
00000110: 5fb4 803c b630 21bd d234 02bd 8152 8b3c
00000120: 5d50 ef3d 1370 2a3c bb1b d73d 0efc 8cbd
00000130: dae4 873c a33e fabc baa2 8d3c e7eb 543d
00000140: 3def 133d d8d3 a0bd 5b3d 41bd aa51 72bb
00000150: afda e03a 7204 5a3d 9770 eabd 90ce f23d
00000160: 4740 95bc bf79 b23c 64ad 1dbd 93bc 01be
00000170: 09ea f43d d070 913c c4d6 c73d dcea f13b
00000180: 1a1b 92bd 4510 c23d cbb0 aa3d 0d71 bebd
00000190: a6ea e53d 8785 fcbc 1aeb a83d 8454 ef3a
000001a0: 4d5c ad3d 2088 8c3d 3467 c6bc 7f7e ec3c
000001b0: 83bc 4b3d 8b26 d6bd ac77 aabd 0d01 cbbd
000001c0: 8c70 173e ca8a 5cbd 2970 62bd 8f30 d1bc
000001d0: 64d2 e93d 09c8 bf3d eb56 173e 1815 35bd
000001e0: 1c8a 973d 096c a4bd 57a9 a03d f7d7 e03d
000001f0: 876a 90bc 70e4 d9bb 7ab2 f53d 58e3 6f3b
00000200: 6fba cc3c 892e 1abd 9bb2 f1bd cd80 663d
00000210: e178 ab3d 6b8b 03bc 3dc7 df3d 3ebd b83d
00000220: 1420 fabc 943b 58bd 0376 ee3d cc1b 8fbc
00000230: dd64 fe3c f126 96bd c2a8 98bd 36f1 c53d
00000240: 4551 7c3c cd98 febd db74 7bbd 8343 f63c
00000250: bf03 9a3d 39ed d2bd 56b7 be3d b1b0 833d
00000260: 7f9b d93d 268e 0f3d a59f cdbb 6b59 333d
00000270: 6865 823b 1e7a 8ebd 282c 133d 4846 afbd
00000280: 301f afbd 080a d8bc b57b 8d3d 4dc0 a33d
00000290: b7c9 a13c c12d b63d 9fdf e33d a3a3 b8bd
000002a0: b7d6 09be 6902 8c3c ef35 febd d98d 523d
000002b0: 1ba1 19bd 7925 9b3d 9351 bcbd a9b7 bcbd
000002c0: d191 833d e638 54bd e137 1fbd 4857 a03d
000002d0: 5d77 fa3d d885 08be edf0 acbc 1cc6 973d
000002e0: df80 15be 9439 e4bc 6c83 0a3c d3e7 ea3c
000002f0: 9ea8 61bd 8460 02be 9594 383c 3658 b2bd
00000300: eb64 cbbd 9a7e 903d fa5d 393d 5ddf 733d
00000310: 13d4 03be 4689 a1bc 00d1 4b3d a735 04be
00000320: 299e d4bb dea5 acbd bb10 01be 834c d1bb
00000330: dfef c6bc 6be1 643d 8049 39bd 9188 c2bc
00000340: ff32 55bd 03d3 50bd af85 9f3d 6992 18bd
00000350: 8caf 19b8 a16b 51bd 3730 babd b7e2 edbc
00000360: e1ba 8dbd e6a3 033e 78cd 8c3d faa1 9f3d
00000370: b329 0b3e 80b4 123e 2d01 e4bb d424 0f3e
00000380: 6718 9abd a85e 183d 9da8 b03d bd6f c0bc
00000390: b402 df3d b4af eabc 1e7e 02be bd0b 423d
000003a0: 3e83 85bd 9728 d13d 443a 0a3e 56c4 f63c
000003b0: cca2 b93c 5c7b a4bd 6e49 a2bd 0546 493d
000003c0: b3c6 05be b53f 3fbd 8d3b f53d a552 063d
000003d0: 07d8 cfbc 719c 06bc 951f 95bd c002 853d
000003e0: d20f 87bd e088 c23d 3923 c03c 6c40 213d
000003f0: 8838 dc3d 55cd 913d 8397 bbba 296c 7a3d
0.07179374 0.036987375 0.07463237 -0.08855461 0.020190286 -0.010659028 0.012531397 -0.08845001
-0.086436935 0.005375314 -0.009676347 -0.11385341 -0.029120123 0.06420753 0.1234807 0.093661845
-0.029888295 0.015900133 0.028952003 0.14623486 -0.048393145 0.0550758 0.020781517 0.030728674
-0.05014139 -0.0045264997 -0.03490712 0.06471785 -0.122180186 0.009691771 0.07032927 0.0560243
0.08776823 0.12146552 0.066105574 -0.034501683 0.07424103 -0.10269379 -0.067984425 -0.12842077
-0.034514215 -0.08298913 -0.04426818 -0.037482895 0.09641751 -0.10294594 0.02885533 0.085417084
-0.109391734 -0.08540574 -0.12085287 0.011301073 0.09776 -0.067794986 -0.12965514 0.09717518
0.085202806 0.121353716 0.090810746 -0.08154815 0.058920227 0.054289643 0.11215728 -0.06336174
0.019613136 -0.020113794 -0.033797815 0.09117722 0.015711008 -0.039353095 -0.031788655 0.017007114
0.1168525 0.010402697 0.10503336 -0.06884013 0.016588617 -0.030547446 0.017289508 0.051982787
0.036116827 -0.07852906 -0.047177654 -0.0036974945 0.0017155017 0.053226896 -0.11447256 0.11855805
-0.018219126 0.021786569 -0.038495436 -0.12669592 0.11958701 0.017753989 0.0975776 0.0073827337
-0.071340755 0.094757594 0.08334502 -0.092989065 0.11226396 -0.03082539 0.08247967 0.001825944
0.084648706 0.06861901 -0.024219133 0.028868912 0.049740326 -0.1045657 -0.08323607 -0.0991231
0.14789027 -0.053843297 -0.055282746 -0.02553585 0.11417082 0.093643256 0.1477925 -0.04420957
0.07399389 -0.080284186 0.07844799 0.10978692 -0.017628921 -0.0066495463 0.11996932 0.0036604013
0.024991242 -0.037642036 -0.118016444 0.056275178 0.08372665 -0.008028845 0.109266736 0.0902047
-0.030532874 -0.052791193 0.11643603 -0.01746931 0.031053955 -0.07331646 -0.07454063 0.09665148
0.015400236 -0.12431488 -0.06139074 0.030061489 0.07520246 -0.10299153 0.09312312 0.064301856
0.10625362 0.035047673 -0.0062751346 0.043786447 0.0039793737 -0.06956886 0.035930783 -0.08558327
-0.085508704 -0.02637197 0.06908361 0.07995663 0.019749505 0.088954456 0.11126637 -0.09015586
-0.13460813 0.017090993 -0.12412631 0.051404808 -0.037507158 0.07575507 -0.091952465 -0.09214718
0.06424297 -0.051812075 -0.03887165 0.078291476 0.12229798 -0.13332307 -0.021110976 0.07410833
-0.14599942 -0.027859487 0.008454185 0.028674996 -0.055092447 -0.1273213 0.0112658935 -0.08708231
-0.09931358 0.07055397 0.04525564 0.059539188 -0.12873869 -0.019718777 0.049759865 -0.12911092
-0.0064885807 -0.08430074 -0.12604038 -0.0063872947 -0.024284301 0.055879038 -0.04523611 -0.02374676
-0.052050587 -0.050982486 0.0778917 -0.037249003 -3.6641533e-05 -0.051128034 -0.090912275 -0.02903877
-0.0692041 0.12855491 0.068751276 0.077945665 0.13590126 0.14326668 -0.006958148 0.13978893
-0.07524186 0.037199646 0.086259104 -0.023490781 0.108891875 -0.028648235 -0.12743422 0.047374476
-0.06519173 0.1021282 0.13498789 0.030122917 0.022660635 -0.080313414 -0.07924162 0.04913904
-0.13064079 -0.046691615 0.11974249 0.03279366 -0.025371565 -0.0082160095 -0.072814144 0.06494665
-0.06594814 0.09498763 0.023454295 0.039368078 0.1075297 0.07119242 -0.0014312122 0.061138306

encoder_lstm1.bias_ih_l0 f4 [256]
00000000: 8177 243b 2e74 a63d b8f1 81bd 5f0d dbbd
00000010: 0a56 bb3d 1b5d 5fbd 93cc babd c533 14bc
00000020: f80b b9bc 617b 463d 6eb9 82bc 3f81 973d
00000030: f4cf 153d 03c8 b73c 9882 2cbd 8ec4 e7bd
00000040: c919 96bd 5395 bcbd 1602 94bb 1b50 823d
00000050: e4b4 363d 155d 67bd a454 10be 91e5 093d
00000060: 116e e5bb b53a 433d 31fb 1f3d eed7 57bd
00000070: 1a4d 473d 098b 4e3d e435 04be d0cf edbc
00000080: 7bd6 cfbd a5a4 ffbd 39b8 063e 69d7 d8bd
00000090: 9b18 c0bd dc53 533d a1ae fa3c cf08 80bd
000000a0: 795a c03d 256f e33d 5a9f 9ebd 9297 61bc
000000b0: 17ff 963d 4551 a73d 5c11 29bc 491f e6bb
000000c0: f4e4 693d 4f46 c6bd 255e 843b 889b 19bd
000000d0: 03bc 8ebd cadf 923c 8721 513c 868c 8abd
000000e0: bb7e 07bd acfc 083e db77 dd3d 7b80 81bd
000000f0: e8c7 1a3e 75cb f6bc c4f1 223d 2106 403d
00000100: 7343 f53d 9d83 b4bd 7146 f93d 9009 f13c
00000110: ea51 cf3d f4a9 253d acb9 533d 5156 d23d
00000120: 6b15 9cbd b903 a3bd daf3 073d ce9f 2c3d
00000130: f382 c5bd 5a3f 823d 3c2b c7bd ff07 2ebd
00000140: d8ae 0abd 0390 d63d 4662 123e 6020 cb3c
00000150: 0925 3d3d b524 70bd 3ca2 85bd 9aa0 953d
00000160: 3823 833d 209b 69bb 6050 863d 7ae1 523d
00000170: 023e 11bd d3a8 a8bd 9f07 cf3d 7f7c a93d
00000180: 8fa8 6a3c d61d f93d 73fe 6d3d 7723 133d
00000190: d42b 953d a59a 463b 8725 89bb 2259 213d
000001a0: 83a7 863b db91 a3bd d3fd 4cbc d912 9f3b
000001b0: 428c 013d e118 c8bd 7f07 b0bc 884e db3d
000001c0: 61db 25bd 9580 973d 98d7 cebd c314 4f3d
000001d0: 875b 923c 8828 83bc 9a5d a5bc 9dd4 593d
000001e0: cc72 123e 1788 9c3d f22f b03c 0956 013e
000001f0: e484 e3bc ad4e 913d 1c1f 4fbd d44c f63d
00000200: 7c52 da3c be2c bcbd bb69 fabd bc14 8e3d
00000210: 1913 9e3c 96b8 d039 9c40 f73d fe37 3cbc
00000220: 7940 35bc e423 7cbd f986 c33d 536d 87bd
00000230: bca2 ee3d 8d88 1e3d e414 cfbc f29f 0a3e
00000240: ce5b 503d e8c6 a1bd a1bb 03bd 0a4d d43d
00000250: 55ea f4bd 729f be3d 6265 b03d 1e30 fabc
00000260: 5279 c0bd 4f45 753d 559d 17be e12f d9bd
00000270: 82e2 2f3d df92 223c 94ac c3bd fafd bfbd
00000280: 32b3 24bb 0d3a d1bb 230c 793d a986 8dbd
00000290: df66 e2bb cbef 01be 6003 aebc 326f ce3d
000002a0: 48df c5bd 5572 f8bd 39e8 9ebc b6da 81bd
000002b0: 59de 8b3d 54cf 00bd 343f 983d dca7 9f3d
000002c0: 98b6 75bd 4dce 39bd 85e4 a43d ced6 99bd
000002d0: ceb9 ecbd 1a6a 09bd 7a47 07be f2f9 b43d
000002e0: 0b87 4fbd f8d1 4abd 75a2 b2bd 5016 8dbd
000002f0: 9675 04be 129f a73c 4e07 263d 6cc1 b8bd
00000300: 3d95 6f3d 9128 0fbd 2fe7 933b 0f31 e3bd
00000310: 4140 733d 6db3 ee3d 7fb1 54bb f335 11bd
00000320: 7314 dd3d 2e62 953d 7187 ccbd 659b 943d
00000330: efd0 42bd 30ce 563d a33d 103d 51fd bdbd
00000340: fd6c d2bc 05c6 fb3c 0772 e63d be67 3bbd
00000350: b8ee 89bd 5eef 3f3d 3e0f b93d 0cd9 bd3d
00000360: a7d9 adbd c931 a93c ab49 1ebd 3f95 a83d
00000370: ad52 683d 0c9b a33b ffcc c7bd 6ed4 34bd
00000380: 10c0 9d3d 0e95 1d3d c6f2 b4bd 64db 4dbd
00000390: eeef d6bd f231 873d 335e a03d 0b55 bd3b
000003a0: 8983 313d ee5b 733d 6344 a2bd 62bf 243d
000003b0: 2325 453c 638e 123e db77 a83c 5d21 913d
000003c0: bd22 123d 6e33 003c 85ad 8abd 2c81 8abd
000003d0: d5b0 2a3d 46c4 c63d 24a4 3d3d d2ff c7bd
000003e0: f936 e6bc 203f 4abd 3c0f 203e 9dca a8bd
000003f0: 7997 1e3e f3c1 35bd b5b9 a93c 30bf 2bbd
0.0025095644 0.08127628 -0.06344932 -0.1069591 0.0914727 -0.05453215 -0.09121051 -0.009045546
-0.022588715 0.048457507 -0.01595756 0.073976986 0.036575273 0.02243424 -0.04211673 -0.11316787
-0.07329137 -0.09208169 -0.00451685 0.06362935 0.044606104 -0.056485254 -0.14094788 0.033666197
-0.0070016463 0.04766341 0.039057914 -0.05269616 0.048657514 0.050425563 -0.12911183 -0.029029757
-0.10148331 -0.12482575 0.13156213 -0.10587961 -0.09379693 0.051593646 0.030600848 -0.0625168
0.09392256 0.111051835 -0.07745238 -0.013769047 0.07372873 0.08169798 -0.01031908 -0.0070227725
0.057103112 -0.09681379 0.004039543 -0.03750184 -0.06969454 0.017928977 0.012764341 -0.06765084
-0.033079844 0.13377637 0.10813876 -0.06323334 0.1511532 -0.030126313 0.039781347 0.046880845
0.119757555 -0.08814166 0.12171639 0.029423505 0.10123046 0.040445283 0.051690742 0.1027037
-0.07621273 -0.079596944 0.03319154 0.04214459 -0.09644117 0.063597396 -0.09725043 -0.042488094
-0.03385815 0.10476687 0.14295301 0.024795711 0.046177898 -0.058628757 -0.065250844 0.07306023
0.06403202 -0.003564544 0.06558299 0.051484562 -0.035459526 -0.08235326 0.101088755 0.08275699
0.014322414 0.12163894 0.05810399 0.035922494 0.0728375 0.0030304578 -0.004185382 0.039391644
0.0041093244 -0.07986804 -0.012511688 0.0048545417 0.0316279 -0.0977037 -0.02148795 0.10708338
-0.04049242 0.07397572 -0.10099715 0.05055691 0.01786591 -0.016010538 -0.020186234 0.05318128
0.14301604 0.076431446 0.021507237 0.12630476 -0.027773328 0.07095084 -0.050566778 0.120263726
0.02665066 -0.091882214 -0.12227198 0.069375485 0.019296216 0.0003981038 0.1207287 -0.011487959
-0.011062735 -0.061557665 0.09547228 -0.06612649 0.11652133 0.038704444 -0.025278516 0.13537577
0.0508688 -0.078992665 -0.03216136 0.103662565 -0.11958758 0.093077555 0.08613087 -0.030540522
-0.0939814 0.05988055 -0.14806111 -0.10604835 0.042940624 0.009922712 -0.09554401 -0.09374614
-0.0025131223 -0.006385094 0.06080259 -0.0691045 -0.006909236 -0.1268913 -0.021241844 0.100798026
-0.09661728 -0.12131182 -0.019397842 -0.06340544 0.06829519 -0.031447724 0.0743393 0.077956885
-0.059988588 -0.04536276 0.08051399 -0.07511674 -0.11558877 -0.033548452 -0.1321086 0.08836736
-0.050665896 -0.049516648 -0.087223925 -0.068890214 -0.1293548 0.020461593 0.04053431 -0.09021267
0.058491934 -0.034950797 0.004513643 -0.110933416 0.05938745 0.116553165 -0.0032454429 -0.03545184
0.10794916 0.07294117 -0.09986771 0.07256202 -0.047562536 0.05244273 0.03521503 -0.09276832
-0.025686735 0.030734072 0.11252218 -0.045753233 -0.06734985 0.046859138 0.0903611 0.09269914
-0.084887795 0.020653622 -0.038644474 0.082315914 0.05671947 0.0049928483 -0.09755897 -0.0441479
0.07702649 0.038472228 -0.08835368 -0.050258055 -0.10494982 0.06601323 0.07830467 0.00577796
0.043338332 0.059413843 -0.079232 0.04022158 0.01203278 0.14312129 0.020564964 0.07086442
0.03567766 0.007824762 -0.067713775 -0.06762919 0.041672546 0.09705405 0.046299115 -0.09765591
-0.028102385 -0.049376607 0.15630811 -0.082417704 0.1548747 -0.044374418 0.020718435 -0.041930377

encoder_lstm1.bias_hh_l0 f4 [256]
00000000: 08f3 433d 64af 973d 9315 ac3d 42bd 003e
00000010: 06a7 c6bc 32c9 91bb 0178 f43d fcf6 863d
00000020: e9d3 1abd d6aa 873d 1720 823d d238 1bbb
00000030: f84b e8bc e841 77bd 5c3e a23d 1e1e 913d
00000040: 9cd5 823d 3cad 423d 6fc2 c73d 35e7 ba3d
00000050: 3c58 813d 67be 07be 1020 723c 8fa5 8bbd
00000060: 987b 25bd 3a68 053e f3e8 193e fb6b a6bd
00000070: 50d1 ec3d 7419 ef3d 0dcc e13d b833 e13d
00000080: 0c05 fdbc 9739 a93d efd7 86bd 83cb f23d
00000090: 8e2c 083e 5bbd adbd c019 743d 1f10 24bd
000000a0: a3f1 b3bd 7a7e 853c 063f adbd d541 03bd
000000b0: 4e2e f93c c15f 8cbd 4eb8 a73d bd52 d5bd
000000c0: 04ec 203d 2b58 00be a970 bd3b e59c c03d
000000d0: 7eb5 9dbd 2e6e 6c3d c3bb 283d 8a7f fdbd
000000e0: 9002 083c 3353 53bd 4b31 f03d f24f 00be
000000f0: 8657 2a3e 8eb9 093d e439 1c3d 1c21 e43d
00000100: 8f54 d53d 301b 83bc f054 73bd d0a1 f13c
00000110: 406e b4bd 36e4 32bd 9dd6 bc3d 8180 c33d
00000120: 99eb 1fbd 0b62 9e3d c3fe 0abd 85be d33b
00000130: 0707 30bd 004d 98bd b0a1 bcbc 65ef 603d
00000140: 5210 cc3d 0c43 8cbd 3fcb 943c 9630 87bd
00000150: ffd9 043e 3a55 05bc 6c13 54bc df44 27bd
00000160: 1274 13bd bf2e c63c 0ea7 6dbd 9611 98bd
00000170: b16d af3d d2b3 013e 2072 2aba 003b f0bc
00000180: 0860 f3bd 2d9a dfba fd1e 163e 6bc0 b2bc
00000190: 9e5b c23d e539 bcbd 55c0 c4bc d246 27bd
000001a0: 82a4 ad3d 1e9a 9e3b c70f cd3d 815c de3d
000001b0: 58aa 64bd cfc9 0e3e 0712 173e a477 a13d
000001c0: aab7 043d 051f 85bd 9ec5 ddbc a76f e0bd
000001d0: e0fd b6bd 606c 913c d112 be3d 4208 7fbc
000001e0: 055e ab3d 7b89 bfbd 42f5 923d 2072 9cbc
000001f0: e8c5 303d a266 a03d 2f03 bbb9 f081 afbd
00000200: 9421 4cbb fe48 bfbd b673 07bd be3f 13bd
00000210: 1ade 50bd 7d2b ce3d 8c57 0abd 61c6 0abe
00000220: 9256 13bc 390c dabc 5552 a03d 2192 cbbc
00000230: 25c0 043e 0ea5 70bd 6ed4 143d 7a85 8fbd
00000240: 779e dabd d60d abbc abe3 b2bd 6aaf bfbd
00000250: 925a 1dbd 9f99 b3bc 9003 e63d 9c4c e93d
00000260: eaf0 643d 93e5 3ebd 4644 95bd dd42 c7bd
00000270: ae2a 903d 87e1 c3bd bc08 8abd 8ca1 653d
00000280: dc0f e5bd 9a68 56bc 548a eb3d b674 3c3d
00000290: c2b2 bebb 359e 01be 0c03 54bb fcc2 55bd
000002a0: 8424 02be 3867 78bd 676d a53c 8e9f 9e3d
000002b0: bbba 4d3d 8c0e ff3c d5ce c73c c68f c43c
000002c0: d273 8e3d 778c d4bc c262 bd3c 470f 41bb
000002d0: 3601 b03d c019 d23d 3469 763d 2454 9f3d
000002e0: 5b20 913d f1c3 673c 7a78 613d 7316 12bd
000002f0: e319 e6bd c83f 423c 4e27 863d d059 843c
00000300: 7dff 723d 39a2 c23b 4928 d2bb 61df bcbc
00000310: fec8 a03d c926 893d 858e c2bc e8d0 8bbd
00000320: 19cb c03d 3d35 26bd 6951 c9bd 56aa 0d3e
00000330: 8f0f 223d 53c9 88bc cf13 eb3d 68f0 e3bc
00000340: da5a bf3d ed9b ee3d 05dc e33d 9c73 afbd
00000350: 2b5d 86bd 2ae1 43bd e49a c03d 8809 0cbd
00000360: 2622 3bbd 7357 73bc 62a8 1bbd d2b9 1cbd
00000370: b13c a3bc d1bb 823d db46 f63d bf9f 27bd
00000380: 8d66 163c 401a 543d ca69 043e 58c7 e33b
00000390: e98b 403d de8c 083d 3330 7abd ed40 093e
000003a0: 0622 673b 6583 e4bd 6d5f aebc 5edb ccbd
000003b0: d080 1d3d 72ba 163d f525 0c3e c9b9 8dbd
000003c0: c249 053e 5acb a3bd 283a e6bc 09da cebd
000003d0: 7176 203d 3d73 f3bd 1295 f23c 7edb ad3d
000003e0: c3ab 21bd ea25 3ebd f48c 823c 7f3a bcbd
000003f0: 9e27 c73d b971 d23d ae9b 87bd d1ad 94bd
0.047839195 0.074065 0.084025525 0.12572196 -0.024249565 -0.004449033 0.119369514 0.06590077
-0.03779975 0.06624381 0.06353777 -0.002368499 -0.028356537 -0.060365587 0.0792205 0.070858225
0.06388399 0.04752849 0.09753882 0.091261305 0.063156575 -0.13256226 0.014778152 -0.06818687
-0.04040107 0.1302804 0.1503027 -0.081260644 0.11563361 0.11674777 0.11025248 0.10996193
-0.030886196 0.082629375 -0.06584155 0.11855223 0.13298246 -0.08483382 0.05959487 -0.040054437
-0.08786323 0.01629566 -0.084592864 -0.032045204 0.030417588 -0.06854201 0.0818945 -0.10416172
0.039287582 -0.12533633 0.0057812524 0.09404925 -0.077006325 0.057722263 0.04119469 -0.12377842
0.008301392 -0.051593017 0.11728152 -0.12530497 0.1663495 0.033624224 0.038141146 0.111391276
0.10416519 -0.016004175 -0.059407175 0.029496104 -0.08810091 -0.04367467 0.09220622 0.095459945
-0.039043043 0.07733544 -0.033934366 0.0064619207 -0.04297545 -0.074365616 -0.023026317 0.054915804
0.0996405 -0.06848726 0.018163322 -0.06601064 0.12973784 -0.008137995 -0.012944084 -0.040837165
-0.035999365 0.024192212 -0.058020644 -0.07425229 0.08565844 0.12666252 -0.00065019913 -0.029325008
-0.11883551 -0.0017059498 0.14660259 -0.021820268 0.09490131 -0.0919073 -0.024017492 -0.040839024
0.08478643 0.0048401495 0.10012775 0.108574875 -0.055826515 0.13944171 0.1475297 0.07884148
0.03240172 -0.06500057 -0.02707177 -0.10958796 -0.089351416 0.017751873 0.09280933 -0.015565934
0.08367542 -0.09352394 0.071756855 -0.019097388 0.043157488 0.07832076 -0.0003566979 -0.085697055
-0.0031147944 -0.09340094 -0.033069335 -0.03594946 -0.050993063 0.100668885 -0.033774897 -0.13552238
-0.008992808 -0.026617156 0.078282036 -0.024849953 0.12963922 -0.05875116 0.0363354 -0.070078805
-0.10674756 -0.02088062 -0.087348305 -0.093596295 -0.038416453 -0.021923838 0.11231148 0.11391565
0.055893816 -0.046605658 -0.07288413 -0.0972955 0.070393905 -0.095645 -0.06739947 0.056062266
-0.111846656 -0.013086462 0.11500993 0.04600974 -0.0058196494 -0.12658007 -0.003235045 -0.052187905
-0.12709242 -0.060645312 0.020193769 0.077452764 0.05022691 0.031134866 0.024390617 0.023994338
0.06955685 -0.025945885 0.02311838 -0.002945857 0.08593981 0.10258818 0.060158923 0.077797204
0.070862494 0.014145837 0.055046536 -0.03566594 -0.11235406 0.011856027 0.065504655 0.016156107
0.059325684 0.0059397486 -0.006413494 -0.023055734 0.07850836 0.06696851 -0.0237496 -0.06826955
0.09413738 -0.040578116 -0.09829981 0.13834509 0.03956562 -0.016697561 0.114783876 -0.027824596
0.093435004 0.11650834 0.1112595 -0.085669726 -0.06560739 -0.047822155 0.09404543 -0.034188777
-0.045686863 -0.0148523925 -0.03800238 -0.03826315 -0.0199264 0.063834794 0.12025233 -0.04092383
0.009179723 0.051782846 0.1293098 0.006951254 0.04700843 0.033337466 -0.061081123 0.13403673
0.0035268082 -0.11157874 -0.021285737 -0.100027785 0.038452923 0.0367989 0.13686354 -0.06920201
0.13016418 -0.079977706 -0.028103903 -0.10100181 0.039175455 -0.11887214 0.029612098 0.084891304
-0.039470445 -0.046422876 0.015936352 -0.09190845 0.09724353 0.10275597 -0.066214904 -0.07259715

encoder_lstm2.weight_ih_l0 f4 [128, 64]
00000000: 1282 14be 2a72 023d af53 16be 9b70 ec3d
00000010: 76f3 97bd 554d ffbd 91c4 8cbc 1b7f dcbd
00000020: 2bf9 85bd bd54 e13d ea96 1bbe af4d 10be
00000030: e1c6 113e 78a2 ecbd 0d78 d7bc 9fd5 483c
00000040: 2686 4cbd a1bc 81ba 275c de3c 5696 15be
00000050: 3517 48bd aa66 5fbd df01 e53d bf61 5f3d
00000060: bdc6 1ebe 0768 983d b77c ebbd 6dfa a7bd
00000070: 922d 26be be5e 33be bfe9 70bd 3998 083e
00000080: bc6a 7dbd b236 703d 77bb 9d3d b28d 0b3e
00000090: 5234 83bd 75fa 1abe 4b16 78bd e55a ecbc
000000a0: e774 d0bc c62f 2b3d 7372 b33d 405e 82bd
000000b0: a760 043e d885 06be 0cb3 30be 08e8 edbd
000000c0: 963d bb3d 5802 74bd 5fe8 233e ca47 8b3c
000000d0: a40f 8f3d 9e14 53be c945 303e 9ed3 543a
000000e0: a051 0dbe 8e5a d2bb 856b 9cbc 4387 0e3e
000000f0: ef5b fb3d 2669 e53b 47ce c9bc c5e7 e23d
00000100: 5b42 a63d 9738 fc3d 86bc 48be afd0 f13d
00000110: 7540 443e 9b28 2ebe 58a7 923d b576 983d
00000120: daab ae3d e10c 073e a5ef 78bd 9e06 373c
00000130: 6cb0 9b3d 2dde c53d b4a6 0fbe 30ec 5f3d
00000140: ce37 253e d3de bb3d 2072 16bd 1897 313d
00000150: ad54 a43d 4e98 f8b9 406e babc 31c1 e03d
00000160: d2b5 92bd e53e db3c 7391 b43d b479 db3d
00000170: 72f7 653c a516 163d cea2 c33d 9f97 2a3d
00000180: b196 70bc 8390 20be 5144 0e3e 5527 8fbd
00000190: 5302 393d 20e0 eb3d d121 32bd c1de 98bd
000001a0: fea6 d43d 44e6 c5bd c775 a8bd 1795 b93d
000001b0: c1f8 443c 0b29 b5bd 6fe2 8abd 23ca 2c3d
000001c0: 98b3 643e a62a 9c3d bf4f d1bc 4c55 c83d
000001d0: 9806 99bd 9395 0ebe 39d0 91bd 574a aebd
000001e0: 18cd 32be f5aa e2bd 57c5 54bc 9ca0 423b
000001f0: 3205 ea3d 5577 b5bc 11dc 543e bd2b 7abc
00000200: 11cc 24be e807 38bc 07ba f2bd 796a dd3d
00000210: 781a 453e aa69 163d cec3 9abd 1902 ecbd
00000220: ad69 0fbe 6858 94bd 7651 1e3e edcc 133e
00000230: 1a10 963d c6a5 e93d 6041 ea3d 000d 2c3d
00000240: d323 e03b 6548 e03d 8c68 23bc 140e ec3d
00000250: 6306 093d b029 723c b8ad a1bd f81e 4e3b
00000260: 1f59 f3bd 2f33 9d3d fd95 99bd 4520 943d
00000270: db1c 0ebe 0126 4cbe 73e0 b73d a0b3 2dbd
00000280: 83e5 10bc eb24 123e a102 9a3c 5d02 f7bd
00000290: 0c7a 20be 000d b8bd 8198 2a3c 91c9 ac3c
000002a0: 9b8e 913d b11f adbd fcdf 9fbb cffb 353e
000002b0: 0303 da3d 247f 1abe 226d 203e ad01 2cbc
000002c0: 8381 473d c7dc 893d 8eba e0bd 0924 4b3d
000002d0: f671 07be e9d0 1dbe 5319 753d 4d91 0a3e
000002e0: 4d34 103e 1775 023e 2051 1f3e 5f95 bebc
000002f0: 5355 e3bd acf9 fa3d feaa 05be 6e23 21be
00000300: 9509 1dbe 4a26 14be 8e22 953c 4dbc 0c3e
00000310: dec0 73bd fb18 583d be24 c93d 6587 1d3e
00000320: 25de 33bd ea88 e3bc 1fe7 bebc dce8 fe3d
00000330: e361 5cbd fdef 13be 0d7b d83d 153a 11bc
00000340: 075a 083d 36f4 1abe 7c25 56bc 6761 eb3d
00000350: 5cee 263e 6207 de3c 694f 1c3e 3284 f6bd
00000360: 74bb f03d 3743 ab3d 3a46 1a3e ed1a 3d3d
00000370: b525 8fbd 8a9a ee3c 816d acbd b180 b9bd
00000380: 5490 293e 937f 86bd 0109 39bd e35e 243c
00000390: eecb 01be 8cb2 0abe 82ad 35bd ba2b 9f3b
000003a0: a59a 25be 9ca6 c5ba 4e92 9abd 1200 08be
000003b0: ae7b ac3b a947 03be 0dcf 80bd 2587 8b3b
000003c0: 7132 143e c332 27be e060 e83d 8e9e 91bd
000003d0: f57d 443d ee11 3fbd ed4b f13c c5fb 19be
000003e0: f436 c93d b9ac 07be 6cfb bcbd a0ab f93d
000003f0: 566b 133e 51bc ed3d 3629 9bbd eb38 ce3d
-0.14502743 0.031847157 -0.1468036 0.11544915 -0.07419483 -0.12465922 -0.017183574 -0.10766431
-0.06541666 0.11002491 -0.15194288 -0.14092134 0.14236023 -0.11554426 -0.026302362 0.0122579625
-0.04993262 -0.0009898135 0.027143551 -0.1460813 -0.048850257 -0.054541267 0.111819975 0.054536577
-0.155055 0.07441717 -0.11498397 -0.08202062 -0.16228321 -0.1751661 -0.058816668 0.13339318
-0.061869368 0.05864591 0.07701772 0.13628271 -0.06406464 -0.15134604 -0.060568135 -0.028851936
-0.025446368 0.041793607 0.08762064 -0.06365633 0.12927495 -0.13136995 -0.17255801 -0.11616522
0.09142606 -0.059572548 0.16006611 0.017002005 0.06985405 -0.20613334 0.17214121 0.00081186916
-0.13800669 -0.0064194864 -0.019094238 0.13918786 0.12273394 0.00700106 -0.024634494 0.11079363
0.08118125 0.12315481 -0.19603166 0.11807381 0.19165213 -0.17007677 0.071608245 0.074445166
0.08528872 0.13188507 -0.060775418 0.011171011 0.07602009 0.09661517 -0.14028436 0.054668605
0.16134569 0.0917336 -0.03672993 0.043356985 0.08023963 -0.00047415722 -0.02275765 0.10974348
-0.07163586 0.026763389 0.08816805 0.107165724 0.014036046 0.03664269 0.09552537 0.041648503
-0.014684365 -0.15680127 0.13893248 -0.06989924 0.045168232 0.11517358 -0.04348928 -0.07464362
0.10383414 -0.0966306 -0.08225589 0.0906164 0.012022198 -0.08845719 -0.0678147 0.04218496
0.22334135 0.07625322 -0.025550721 0.09781894 -0.07471961 -0.13924246 -0.071197934 -0.08510273
-0.1746105 -0.11067764 -0.012986503 0.0029697781 0.11426772 -0.022151629 0.20787074 -0.015269217
-0.1609347 -0.011232354 -0.11851888 0.10811324 0.19248378 0.036721863 -0.07556878 -0.115238376
-0.14005156 -0.07243425 0.15460762 0.14433642 0.0732729 0.11408572 0.114382505 0.042004585
0.006840208 0.10951308 -0.009973656 0.11526123 0.033453356 0.014780447 -0.07894462 0.0031451564
-0.11882233 0.07675778 -0.07499311 0.072327174 -0.13878195 -0.19936372 0.08978357 -0.042407632
-0.008843782 0.14271896 0.018800082 -0.12060998 -0.15671557 -0.089868546 0.010412336 0.021092208
0.07107278 -0.0845331 -0.004878996 0.17771839 0.10645106 -0.15087563 0.15666631 -0.010498446
0.048707496 0.06731563 -0.109730825 0.049594913 -0.13227066 -0.15411724 0.059838604 0.1353199
0.14082451 0.12739979 0.1555829 -0.023264585 -0.11100259 0.122546524 -0.1305351 -0.15736172
-0.15335687 -0.14467731 0.018204954 0.13743706 -0.059510104 0.0527582 0.09821461 0.1538368
-0.043913025 -0.027775247 -0.023303567 0.12446758 -0.05380429 -0.14447017 0.10570345 -0.0088639455
0.03328898 -0.15132222 -0.01307046 0.114931874 0.16301864 0.02710313 0.15264668 -0.12036933
0.11754504 0.083624296 0.15065852 0.046168257 -0.06989614 0.029126424 -0.08419324 -0.09057749
0.16558963 -0.065673016 -0.045174602 0.010032388 -0.12675449 -0.13544673 -0.044354923 0.0048575075
-0.16172273 -0.0015079561 -0.07547437 -0.13281277 0.005263767 -0.12820305 -0.06289492 0.004258054
0.14472367 -0.16327958 0.113466024 -0.0711032 0.047971684 -0.04664796 0.02945515 -0.15037449
0.098249346 -0.13249482 -0.092276424 0.12190938 0.14396414 0.11608184 -0.0757622 0.1006945

encoder_lstm2.weight_hh_l0 f4 [128, 32]
00000000: 3520 003d 7fd6 debb 2c3f 3dbd 51f2 bb3d
00000010: e9a7 273e e39b 25bc 1ed9 79bc c388 d1bb
00000020: 58d9 f33d ed3e 0dbe 9326 d73d f78f f63d
00000030: 0042 24be b155 323b 147e ad3d 0ed4 9f3d
00000040: dd6f 1bbd 2574 2d3c 034a f83d 644e 8f3d
00000050: 7978 89bb 6311 e83d 8a34 2bbe 089e 023e
00000060: a2bd 133e aafb 0cbc aa6e 03be 6537 0e3e
00000070: 062b 12bd 47cc 8a3d 7430 ed3d 41a5 433c
00000080: 82b0 123e 5513 283e 2ac0 89ba ad04 4bbe
00000090: 6792 fdbd 07c9 b73d 80f7 dcbc d9d6 50bd
000000a0: 231f 873d 7a50 053e 9922 b4bd 39df 62bd
000000b0: 196d 86bd 06f2 c3bd 4ec4 ebbd 04a7 c03d
000000c0: c346 ecbd 2f33 37be 5e54 ccbd 543c d83d
000000d0: 8654 0cbe 0c7d 53be c74f e23d 777c c73d
000000e0: 1715 5a3d ef01 65bb d752 e8bd 562a 6abd
000000f0: 510c 31be 0d37 01be cd46 d4bd d0be 11be
00000100: 415f a53c a0e5 ffbc 2c73 17be 5dc6 3abe
00000110: 0d98 0f3e 0400 eabd 5df3 77bd f4ce da3d
00000120: 87b2 c6bd 7847 24be 4a59 adbc d715 413d
00000130: db58 cbbc effa 3dbd c74d 49bd 2040 41bd
00000140: 7cc2 023c 28cb 9c3c 9a91 2e3e 6e3e 023e
00000150: 7d0d d13d 7a5d 23bd b07a f93d faa6 a03c
00000160: b42c 213d 0b66 e5bd 5c4f 0ebe c90a 8e3d
00000170: c3f6 33be 73d9 ef3d 25e1 2c3e e093 4c39
00000180: b216 083e 5980 dcbb f1fb febd 00f5 5c3d
00000190: a9a4 d03d c810 03be 73c1 0d3e 87d1 633d
000001a0: 865e 193d e022 cc3d 3a26 5ebc c96e 053e
000001b0: 0ae2 8e3c eb0b 873d 9351 3fbd 8ed0 0f3e
000001c0: f689 a4bd 8ad6 03be ab1d d73d 7b7a fa3d
000001d0: f584 db3d 66af e93d 9642 4cbd adf4 473d
000001e0: e39b ac3b 7267 173e 618f 313d 4fd3 ee3d
000001f0: d6f8 85bc a45f c93d 5af7 bd3c 2ca9 0d3e
00000200: ec4d 2d3d 6bd8 4f3e b0db e1ba 45f4 f4bd
00000210: 1545 cd3c ef84 1e3d 593f ca3d 8378 153e
00000220: 9aa4 553d f0be dabd 77ca 9f3d 7cda 143e
00000230: 158b b1bd de65 473e 20f1 6ebd 38bf 82bd
00000240: 2551 673e 01e4 3d3d 9444 3b3e 6530 17bd
00000250: 20ae 5c3d dda7 4c3e 2171 0b3e bbe9 f83a
00000260: 7594 2e3d ba31 97bd 21a5 aa3d b68f d63d
00000270: 7d6c f3bd 5430 f2bd 9cd6 863c 27ec b6bc
00000280: b691 a33d d73a 70bc 45ff 873d db8e 103c
00000290: 129c 12be 9cd2 48be 62b3 e63d 1342 183a
000002a0: 51a3 643d 510e 533c c2b4 08bc a532 e8bd
000002b0: 7947 4fbd 2a8a fbbc 2563 44bc ec93 0c3d
000002c0: 8f65 1cbe 737e e4bd d31f d33d ec67 463d
000002d0: 8939 afbd 4b96 30be 5104 f33d 8632 4bbd
000002e0: 5a14 0c3e 77af febd 7c4c 733d 2677 4c3e
000002f0: 3a7d 73bd e190 1a3e 6eb5 1c3c 2267 0cbc
00000300: ad6c eabd a462 62bb 2a7e eb3b 214e 0a3e
00000310: 6bd7 97bc 666b 013e 2d45 703d 46fa bb3d
00000320: 3a21 0b3e 1e61 4ebe aff4 0d3e bb7d f03d
00000330: 327d f0bc e08e e23d eaf2 b5bc 7c0c 7bbd
00000340: 7835 033d cc7d 09bd aba9 a1bd 5557 c13d
00000350: 78fe 2ebe a27a 143e 4cc4 e43d 1e05 9b3c
00000360: cf1f 3fbd 1613 16be 37c7 20be 1c73 233e
00000370: 3dc4 37be bfae 203e 4ef1 a7bd cd8b 03bd
00000380: e784 a13c dd44 d4bd 6d2f 34be 25e8 56bc
00000390: bc0d 9abd 8c14 263e 9f6e 233e 7124 483d
000003a0: 6efb 443b 2753 eebd 1974 09bd a66a 26bd
000003b0: 7f3e 62bd b147 ebbc 7253 febc 0aaa bf3d
000003c0: f6df 1abe 0143 0a3e a594 6e3d 33b5 0a3e
000003d0: d84e 2b3e 0971 023e 943f 3a3e f6b5 64bd
000003e0: 9f03 b13c ab6a f7bd 2f6e 9b3d 8c37 43bd
000003f0: 41c9 3bbe ad5b 8e3c 999e f63d 37d2 093e
0.031280715 -0.0068004723 -0.046202824 0.091770776 0.16372646 -0.010107967 -0.015249519 -0.006394477
0.119066894 -0.13793536 0.10505404 0.12039178 -0.16040802 0.002721172 0.08471313 0.07804118
-0.037948478 0.010586773 0.121234916 0.06997374 -0.0041952697 0.11331441 -0.16719261 0.12755597
0.14427808 -0.008604923 -0.12835184 0.13888319 -0.03568556 0.06777244 0.11581507 0.011941255
0.14325145 0.16413625 -0.001050954 -0.19826002 -0.1238144 0.0897389 -0.026973486 -0.050986145
0.06597736 0.1301898 -0.087956615 -0.055388663 -0.065637775 -0.09567647 -0.115120515 0.09406856
-0.11536934 -0.17890619 -0.09977029 0.10558382 -0.13704118 -0.2065317 0.110503726 0.09740537
0.05324277 -0.003494378 -0.113439254 -0.05716928 -0.17289855 -0.12618656 -0.10365067 -0.14232945
0.020187022 -0.031237423 -0.14790028 -0.18239732 0.14022847 -0.11425784 -0.060534824 0.106840044
-0.0970202 -0.16042888 -0.02116074 0.04713997 -0.024822643 -0.046381887 -0.04914644 -0.047180295
0.007980939 0.019139841 0.1704773 0.12719128 0.10207651 -0.039884068 0.12181604 0.01961087
0.039349273 -0.11201104 -0.1389746 0.06935651 -0.17574601 0.11711397 0.16882761 0.00019510044
0.13289908 -0.0067291674 -0.12450398 0.053944588 0.101876564 -0.1279937 0.13843326 0.055619743
0.03744366 0.099675894 -0.013558919 0.13030542 0.017441768 0.0659407 -0.046708655 0.14044401
-0.080341265 -0.12874809 0.105037056 0.122303925 0.10718719 0.11410408 -0.04986819 0.048817325
0.0052676066 0.14785555 0.043349627 0.11661398 -0.016354006 0.09832695 0.023189235 0.13834065
0.04231064 0.202974 -0.001723161 -0.11960653 0.025057355 0.038700994 0.09875364 0.14596753
0.05215893 -0.1068095 0.07802289 0.1453647 -0.08669106 0.19472453 -0.058335423 -0.06384128
0.22589548 0.04636002 0.18287879 -0.036911387 0.053876996 0.1998591 0.13617374 0.0018990556
0.04262205 -0.073825315 0.08332277 0.104766294 -0.11885927 -0.11825624 0.016459756 -0.022329403
0.079867765 -0.014662466 0.06640486 0.008823122 -0.14317349 -0.19611591 0.11264683 0.00058081857
0.055819813 0.012881831 -0.008343877 -0.11337785 -0.05060527 -0.03070553 -0.0119865285 0.034320757
-0.15273117 -0.11156931 0.10308804 0.04843895 -0.08555896 -0.17244832 0.11866058 -0.04960873
0.13679639 -0.12435811 0.059399113 0.19967327 -0.059445597 0.1509433 0.009564741 -0.008569511
-0.114465095 -0.0034543658 0.007186671 0.13506366 -0.018535336 0.12638626 0.05865972 0.09178595
0.13586894 -0.20154235 0.1386287 0.11742731 -0.029356573 0.110624075 -0.022210557 -0.061291203
0.032033414 -0.033567235 -0.0789369 0.094404854 -0.1708926 0.14499906 0.11170253 0.018923339
-0.046661194 -0.14655718 -0.15700994 0.1596188 -0.17945953 0.1569166 -0.08200322 -0.032115746
0.019716693 -0.10364697 -0.17596216 -0.013116871 -0.07522151 0.16218776 0.15960167 0.04886288
0.003005709 -0.11636954 -0.033557985 -0.04062905 -0.055235382 -0.028720709 -0.03104565 0.09358604
-0.15124497 0.13502122 0.058247227 0.13545685 0.16729295 0.12738432 0.18188316 -0.055837594
0.021608172 -0.12080892 0.07589375 -0.047660396 -0.18338491 0.017377699 0.12041969 0.13459097

encoder_lstm2.bias_ih_l0 f4 [128]
00000000: 5280 543d d096 12be 72ac c9bd f50d ce3d
00000010: fdcf f0bd f329 f5bd 1a11 fabd 80f2 1c3e
00000020: d0d9 923c f3d1 de3d b011 babc 965d dfbd
00000030: 98da a3bd 8a90 fdbd 30f7 6c3d dbbb 853d
00000040: 6a1b 593a 415d 563e decf 1e3e 46d9 95bd
00000050: 5665 3b3e 9d85 883d 9d54 f13d 1c78 90bc
00000060: 550a 4b3d d4d4 2b3e de80 2a3e c10f 3f3c
00000070: 89bc 85bd 4c5e c83d 0da0 00bd df31 59bc
00000080: 3fae 4f3d 8a81 eebd 13be b63d b619 66bd
00000090: 1450 5d3d 0a29 a53c 86d6 5a3b c840 c53d
000000a0: b49f 273d 7812 6fbc efa6 09be 0b9c e43d
000000b0: 447e 013e 3782 133e bbe6 c1bd 93b2 d8bd
000000c0: 1c0c b63d 5f42 233e 8a5a 183d 1cfa 133e
000000d0: df2d 3f3e c562 2c3d 2cd2 953d 462b a03d
000000e0: 0436 db3d d57c d23d bd4b 053e 937e 383d
000000f0: a4ca a1bd ae7c c43d 92af 113a 1ee5 71bc
00000100: 2f4f c63c 91e9 3abd ca36 47bd e73e d5bd
00000110: 7e9c 02be 8ff1 b83d 708b 3dbc 7842 7ebd
00000120: bde8 6f3d e6e6 3a3e 4887 bd3d ba25 073e
00000130: dc8c 103a 9fca f3bc 33aa 5b3d 6859 323d
00000140: 782a 23be b78d c13d 72ba bf3d 8e35 4abd
00000150: 71ef 113e b23a 273e af6e 1dbc d448 033d
00000160: f646 d5bd bade 7bbb 1494 8dbd 69b9 5e3d
00000170: 6a96 b73d f6f9 e13b 8e5a e1bd a33e 31be
00000180: 89d5 11be 56e0 68bd 1bbf b0bd 2d02 523e
00000190: 66f1 203e c754 1dbd 4930 423b 759b f83d
000001a0: 9060 99bd 0d5c b8bd 05e6 823d 79fc 5dbd
000001b0: 1049 013e 7bfc fcbd 77a5 103e cbeb e1bd
000001c0: 821c 003e 1252 243e 82f6 49bd fa96 89bc
000001d0: b7ff 3c3e c528 15bc 0242 efbc 4c4f 0cbe
000001e0: db96 c8bd e00c 503e c4cd 4f3d fe22 7f3d
000001f0: 5944 d7bd e5ed 29be 1a84 193e 985f 1d3e
0.05188019 -0.14315343 -0.098473445 0.10061256 -0.117584206 -0.11970892 -0.12210293 0.15326881
0.017926127 0.108798884 -0.022713512 -0.10906522 -0.08000678 -0.12381084 0.057852924 0.06529971
0.0008281978 0.20934011 0.15508983 -0.07316832 0.18300375 0.0666611 0.11783717 -0.017635398
0.0495704 0.16780406 0.16650721 0.011661471 -0.06530101 0.09783611 -0.031402636 -0.013256519
0.050703283 -0.11645801 0.089229725 -0.056176864 0.054031447 0.02016117 0.0033392026 0.09631497
0.04092379 -0.014591806 -0.13442586 0.11162575 0.12645823 0.14405142 -0.094678365 -0.10580935
0.088890284 0.15943287 0.03719572 0.14450878 0.18669842 0.04208638 0.07315478 0.07820754
0.10703662 0.10277716 0.13017173 0.045042586 -0.07899979 0.09594093 0.0005557473 -0.014764098
0.02420768 -0.045632903 -0.048636235 -0.10412388 -0.1275501 0.09030449 -0.011568889 -0.06207511
0.058571566 0.18252143 0.092543185 0.13197985 0.0005514154 -0.029759703 0.05362911 0.043542296
-0.1593417 0.09450858 0.093617335 -0.04936748 0.14251496 0.16330984 -0.009608909 0.032051876
-0.10413925 -0.0038432316 -0.06913009 0.05437604 0.08964236 0.0068962527 -0.110036 -0.1730905
-0.14241613 -0.05685457 -0.086302005 0.20508642 0.15717086 -0.038410928 0.002963083 0.12139026
-0.07489121 -0.09001932 0.06391529 -0.054195855 0.12625527 -0.12352844 0.1412562 -0.11031302
0.12510875 0.16046932 -0.049307354 -0.016795624 0.18456922 -0.0091039585 -0.02920628 -0.13702124
-0.097943984 0.20317411 0.050733343 0.06228923 -0.10511083 -0.16594656 0.14991799 0.15368497

encoder_lstm2.bias_hh_l0 f4 [128]
00000000: 8227 17be 4230 e53c 5ae1 803d 9ae3 893d
00000010: 2bca 053e 9ef3 503e b8eb b53d 740f 253e
00000020: b934 84bd 2aca a5bd 11ea 343e aa7e 6e3e
00000030: dac6 f8bd 12ba fe3d c808 643d 820e 0fbd
00000040: 6aff 203a 97fc 4c3e 0b55 0cbe 4bad 18be
00000050: 0815 adbd e159 22be 1941 c4bd 26ec f6bd
00000060: 9e23 e1bd a2cd 543d 68b7 d3ba 1c35 0b3e
00000070: 897c a0bc cce6 13be fc78 26be a0e7 223d
00000080: 8bf2 01bb 33b1 29bd b60c fb3c ca9f 3f3d
00000090: 5c69 8e3d 65fd 023c 0392 713d 1e95 b1bd
000000a0: 4a23 03bc 5709 98bd d50c 0d3e 970f 7e3d
000000b0: f782 cb3d a069 e33d 9f5a 2cbe 9f7d 80bd
000000c0: e72e ccbc 3577 243e 3ae8 01bd 2b42 a03d
000000d0: f642 833d c986 e63c 8acd a23d 301f 083d
000000e0: f194 23be 7be5 b53d a0a9 e13d eaaa 573c
000000f0: 2a90 083d a3eb 18be 6757 253b e1a3 8b3d
00000100: 9cf4 9a3d 37cd 103e a390 8f3d 7ec8 3abd
00000110: fc8f 26bd a52f bfbd 2e45 2ebe 7b2d a73d
00000120: 4208 8abc 4a72 c63d 80a7 173e 0f55 33bd
00000130: fb73 ebbd f128 363e 2281 9abc d2b2 7d3d
00000140: 3a11 e53d e71e 503e 2bae 583c 6cd3 f6bd
00000150: 42f4 883d 7c3a 8cbd 0978 113e 5901 c53d
00000160: 412f 60bc 0d19 173e dccc 21be e0e8 183e
00000170: 4645 a5bd d8fa 073e c271 073e b5dc d83c
00000180: 2086 dc3c 2bf6 2fbe 8e72 36bd f115 eb3c
00000190: 29a1 82bc e2be bcbd 4652 04be 539b c7bd
000001a0: 108f d0ba 652d 913d 7fc7 3fbd 00af 68bd
000001b0: 9d77 cebc db78 8c3d 2cf1 d3bc 6f30 1c3e
000001c0: 60d2 f9bd 6372 023e 22c4 ef3d 1595 3bbd
000001d0: 5e75 943d 86d8 e83c f37a aabd 8da7 3a3d
000001e0: 02ad 303e 9863 4c3e abf2 fd3d 5280 91bd
000001f0: d879 363e c893 b33d cc27 923b ad42 723d
-0.14761165 0.027977113 0.062929824 0.06732865 0.13065402 0.20405433 0.088828504 0.16119176
-0.064553685 -0.080952 0.17667414 0.23290506 -0.12147303 0.12437834 0.055672437 -0.034925945
0.0006141575 0.2001823 -0.13704316 -0.14909856 -0.08451277 -0.15854599 -0.09582729 -0.120567605
-0.109931216 0.05195392 -0.0016152682 0.13594478 -0.019590633 -0.14443511 -0.1625709 0.039771676
-0.0019828405 -0.041428756 0.03064571 0.046783246 0.069536895 0.007994984 0.05897714 -0.0867102
-0.008004019 -0.074236564 0.13774426 0.062026586 0.09937089 0.11104131 -0.16831444 -0.0627396
-0.024924709 0.16061099 -0.03171561 0.078251205 0.06409256 0.028140442 0.0794936 0.033232868
-0.15974785 0.088816606 0.110186815 0.013163308 0.03334061 -0.14933638 0.0025229098 0.06818367
0.07566187 0.14140783 0.07010009 -0.04560136 -0.040664658 -0.09335259 -0.17018577 0.081629716
-0.01684964 0.09689768 0.1480999 -0.04378229 -0.11496731 0.17789055 -0.018860403 0.061938114
0.11184926 0.20324288 0.013225119 -0.12052044 0.066872135 -0.068470925 0.14205946 0.09619398
-0.013683141 0.1475565 -0.15800804 0.14932585 -0.080698535 0.13279283 0.13226989 0.026472429
0.026919425 -0.1718375 -0.04454284 0.028696986 -0.015945988 -0.092160955 -0.1292201 -0.097464226
-0.0015911777 0.070887364 -0.046821114 -0.056807518 -0.02520352 0.06858989 -0.025871836 0.15252851
-0.12198329 0.12738948 0.11707331 -0.045796473 0.072489485 0.028423559 -0.08324232 0.045569945
0.17253497 0.19959867 0.12399801 -0.07104553 0.17819917 0.087684214 0.0044603106 0.05914562

encoder_fc.weight f4 [16, 32]
00000000: 65e8 a6bd 1c46 efbc 5240 04bd 955f a43d
00000010: 2625 aa3d 375a 9d3d e310 3fbd e041 00bd
00000020: 93c8 393d a79e 0fbe bdd6 07be 9f4a 09bc
00000030: d730 203e 1767 f63d 76ac 1c3e 2e44 473e
00000040: 55c6 ba3d aaf6 9ebc 847c 0bbe 110d 123e
00000050: 3e80 f63d c8ab 3b3d a68d debc 2c77 a53d
00000060: 9c29 81bd e36a f7bd e3af d4bb fcb9 913d
00000070: 2f58 1b3c f929 0abd ba72 443d d996 06be
00000080: a49c 2b3e d9b9 c53d 35e8 84bd cc54 16be
00000090: 7298 d83d 9c0c 1c3e 932d 0bbe 4b6e a13d
000000a0: 366d 6cbd 8a7b 10be ccb4 1ebe 64cc 403d
000000b0: 2d7d c7bd 6f3a 12bd 27d8 c93c 918a 05be
000000c0: b539 c1bd 653b 6d3e ccd9 cfbb a438 71bd
000000d0: 42ed ef3c bb6b 4b3e 921c 993d 127d b8bc
000000e0: 8c54 393d d46e 2fbd 1066 cc3d ad55 0cbe
000000f0: 90e9 25bd 692c 423d 6843 bf3c 6c70 00be
00000100: 4eb5 ddbc a822 e53d fd27 f73c c9ab f23d
00000110: 53e2 50bb 2ab8 463d 1f73 e13d d290 7a3c
00000120: f250 593d 0204 0ebe fa4d 0d3d 49c2 52be
00000130: 35c7 e8bd bc35 0dbe 6ae0 abbc 4db1 183e
00000140: ff4c e33d 07ca 90bd cb5a 0cbd cccc 9b3d
00000150: 6989 d1bb 2077 873d 39d1 093e 1509 6dbc
00000160: 17a3 16bd fb81 1f3e 97a9 d9bd a3a0 2cbe
00000170: 99d6 0abe bc08 cf3d aea4 e3bd 38ef 9f3d
00000180: 6fd6 da3d e0de 0bbe 7cd1 193d 2588 72bd
00000190: e2dc 0fbe b476 343e 74fe 04bd 5919 c83d
000001a0: a72b 8b3c 67b5 07be 93ef cb3d 81b1 f5bd
000001b0: b8c4 acbd afd4 21be 7fd0 2c3e e994 193e
000001c0: bf99 1a3e bea1 093e 8663 0dbe 0ea3 b73d
000001d0: 9ef3 5abd 3242 dfbc 5ea4 bdbd e20c 3a3e
000001e0: 0849 03be 643f 483c 13ba 0ebe 3dd3 b2bd
000001f0: 909b 00be 842c 0d3e 944f 45be 1acd 15be
00000200: 3c52 2d3e b50c d53d 8ae0 71be cab2 41be
00000210: 5b43 2a3e b7f4 2cbe 5501 d5bc 6f52 20be
00000220: 68cb ddbd 21c4 28be 2a5e ccbc 0b32 f73c
00000230: 9e71 abbd a87d f43d dfee f2bd eadf fabd
00000240: 12d5 c6bd c0d7 dd3d 183f 1c3e a61c e2bd
00000250: 52bc ff3d c4b8 37be 1180 1b3e 87cf 323e
00000260: b84f 4ebe 3d04 3fbe e377 5b3e 4b80 363e
00000270: 6480 39be 28af 5c3e aa90 133e 5298 88bd
00000280: a089 813d 60d4 5f3a 0477 cfbd c713 b43d
00000290: bedb 593e 98c1 853d b16f 3c3d 077d 053c
000002a0: 6a00 133d 7222 6abe 599f e2bc 1fe6 38bc
000002b0: 12d8 c13c 8b94 5b3d dec6 09be c411 30bd
000002c0: b52e d1bc 8d90 363d 340f a6bd 06f3 b73d
000002d0: 5b62 1e3e a6e3 993c 389f 483e 18a2 73bd
000002e0: b334 9b3d cd5e 54be 6d8b 8d3d 2c43 c73b
000002f0: 77f6 13be d100 123d c4c7 97bd a78d 18bd
00000300: e476 90bd 035f 6ebd f2df 76bd c550 993d
00000310: 66e7 64be 7273 5d3b db9d df3d 60e4 61bd
00000320: 3a58 283e a052 603e 537f 45bd ace4 693e
00000330: aab2 abbd 8adc bfbd e95b b2bc daf1 9dbd
00000340: f7f4 aa3d a5b3 4a3e 3653 a7bd 76df d7bd
00000350: a644 9dbd d147 ecbd 7445 063e cca5 a9bd
00000360: 7b32 86bd 393c 553e 4291 3c3b 4482 d1bd
00000370: b63a 003e 8ede bb3d 5ce4 9c3d df7b 1fbd
00000380: caa2 8abd 38a5 463c 8ceb d0bc fa05 b93d
00000390: ab06 ad3d 5358 34ba 4e8f e8bc 40af cd3d
000003a0: ce7c 1b3c 517e 9bbd 6d96 28be 865a 493d
000003b0: 4982 91bd ef55 19be 38ed 2a3e 3fe7 2b3e
000003c0: d9bd 94bd bf1a f5bd 9617 90bd 360e 39bd
000003d0: 24e7 163e d4e1 183d d5cc 17bd 3ff1 37be
000003e0: 9a7c 203d b634 373c 7917 12be 5313 04be
000003f0: 7c36 163e c3a4 85bd 2956 3d3d 0b28 363e
-0.081497945 -0.029208235 -0.032287903 0.08026043 0.08307867 0.07683223 -0.046646964 -0.031312823
0.045357298 -0.14025365 -0.1326551 -0.008379607 0.15643631 0.120313816 0.15300164 0.19459602
0.0911986 -0.019404728 -0.13621718 0.14262797 0.12036179 0.04581812 -0.027167153 0.08079371
-0.063067645 -0.12080934 -0.006490694 0.07115552 0.009481474 -0.033731434 0.047960974 -0.13143481
0.16758972 0.09654588 -0.064896025 -0.14680785 0.10575952 0.15239185 -0.13591604 0.07882365
-0.05772134 -0.14109626 -0.15498656 0.047069922 -0.09740672 -0.035700258 0.024639202 -0.1304114
-0.09434835 0.23167188 -0.006343102 -0.058891907 0.029287938 0.19865315 0.074761525 -0.022520576
0.045246646 -0.042830303 0.099804044 -0.13704558 -0.040505946 0.047405634 0.023347571 -0.12542886
-0.027063992 0.11188251 0.030170435 0.11849172 -0.003187318 0.048515476 0.11008286 0.015293317
0.05305571 -0.13868716 0.034498192 -0.20581926 -0.11366121 -0.1379003 -0.020981032 0.14911385
0.1109867 -0.07069784 -0.034266274 0.07607421 -0.0063945544 0.06614518 0.13458718 -0.014467497
-0.03677663 0.15576927 -0.1062805 -0.16858153 -0.13558425 0.10109088 -0.111153945 0.07809299
0.10685431 -0.13659239 0.037553295 -0.05921187 -0.14049104 0.17623407 -0.032469228 0.0977046
0.016988588 -0.13252793 0.099578045 -0.11996747 -0.084359586 -0.15803789 0.1687641 0.14998211
0.15097712 0.13440606 -0.13807496 0.08966647 -0.053454988 -0.027253244 -0.09259866 0.18168977
-0.12820828 0.012222145 -0.13938169 -0.08731697 -0.12559342 0.13786513 -0.19268638 -0.14629021
0.16925901 0.10402814 -0.23620811 -0.18915859 0.16627257 -0.16890226 -0.026001612 -0.15656446
-0.10829812 -0.16481067 -0.024947245 0.03017523 -0.0837128 0.119380295 -0.11861967 -0.122497395
-0.09708609 0.10832167 0.15258443 -0.110406205 0.12487091 -0.17941576 0.15185572 0.17461978
-0.20147598 -0.1865396 0.21432452 0.17822377 -0.18115383 0.21551192 0.14410654 -0.06669678
0.06325078 0.0008538421 -0.10130122 0.08792835 0.21275231 0.06531066 0.046004955 0.008147485
0.035889067 -0.22864702 -0.027663874 -0.011285334 0.0236626 0.05360846 -0.13454768 -0.042985693
-0.025534967 0.044571448 -0.081083685 0.089819 0.15467207 0.018785309 0.19591987 -0.059480757
0.07578411 -0.20739289 0.06911359 0.0060810056 -0.14449488 0.03564531 -0.07411149 -0.037244465
-0.070539266 -0.05819608 -0.060272165 0.07486109 -0.22353896 0.0033790735 0.109187804 -0.055149436
0.16439906 0.21906519 -0.04821713 0.22841138 -0.08383687 -0.09368236 -0.021772342 -0.07712145
0.083475046 0.19795091 -0.08170168 -0.10540669 -0.07679109 -0.115371354 0.13112432 -0.08283576
-0.06552597 0.20823754 0.0028773104 -0.10229924 0.12522396 0.09173308 0.076607436 -0.038936492
-0.06769331 0.012124352 -0.025502943 0.09034343 0.084485374 -0.00068796164 -0.028388645 0.10043192
0.009490205 -0.07592452 -0.16463633 0.049158596 -0.07104928 -0.14974187 0.16692054 0.16787432
-0.07262773 -0.11967992 -0.07035749 -0.04517957 0.1473661 0.03732474 -0.037060577 -0.17963122
0.03918133 0.011182001 -0.14266767 -0.12897997 0.14669222 -0.065255664 0.046224747 0.17788713
