models/anomaly_models/WH003_SKU-013.pth (torch, 242563 bytes, 20 tensors)

encoder_lstm1.weight_ih_l0 f4 [256, 6]
00000000: 4dbc 9b3d 9c22 7fbd 982c f93d 61da 803d
00000010: da6d 65bd 5113 6abd 05c6 963d 0df8 863d
00000020: 677b 0d3e 94e7 e93c a102 9abd bb6d c5bd
00000030: 978d e5bb 536e 4dbc 93b8 ab3d d45a c43d
00000040: 792f d0bd b1e2 ff3d b562 d03d 1037 59bd
00000050: 623a 9abd 469b 62bd 1c24 123b f781 b9bd
00000060: eb60 90bd 543b e7bd 92d1 85bc 9571 e13a
00000070: c942 66bd 2cd1 933d 4ff5 c1bd 6868 b13d
00000080: b010 973d c839 44bc 1043 ee3d 69eb 373d
00000090: 7718 e63b 3a40 c03b 7374 013e 5cd3 023e
000000a0: d75c 6c3d e5ed a13d 1216 babc a698 d33d
000000b0: 9aa6 c7bc 2525 883c fadd b13d 3b28 97bd
000000c0: b901 72bc 6941 163d 9d10 b03c 6ee7 723c
000000d0: b7b3 c7bd 24a1 e83d f33b c23d bb06 e8bd
000000e0: 3885 b53c 3d35 d43d 2975 50bd 4461 a33d
000000f0: f38f e83d dc06 6e3c 07f6 033e fda0 ddbc
00000100: 7c85 df3c fe0d 423d b42d 8ebd 1db8 d5bd
00000110: d0ec d83c 5ba1 28bb 2087 8bbd 6878 74bd
00000120: 41fb b23d 3544 92bd cff1 1dbd a25f 1ebd
00000130: 0989 753d 9183 c93d 4929 02be ef8b 49bd
00000140: ebcb b2bd f32b 763d 5871 b6bd bcc2 ebbd
00000150: 832a aebd 3aaf abbd e54b 3b3d faad 8f3d
00000160: 08f3 8b3d 97a6 223c e85c 113e 9c85 5c3d
00000170: aee3 293e 9fdd 1bba 2de8 7cbd a8ae b43d
00000180: a044 1a3e 3d55 113d 7f6a 86bd 500a 513d
00000190: e7a6 8b3c 1f69 bd3d 4977 c03d 384f 9a3d
000001a0: c081 023e ed6e 263e 5fad a73d 93c1 943d
000001b0: bc78 c3bd 9401 563d f6da c5bc d7bc a7bb
000001c0: c803 adbd 088f 8cba b561 a0bc 1980 c83d
000001d0: 4916 9e3d f4db 3c3b ed92 74bd 3d97 5abd
000001e0: 6ae8 bcbd 490b ebbd e768 5cbd d090 eabb
000001f0: 1189 18be d12f 233e b0a3 75bc 519f b63c
00000200: e486 f23d 7871 133e aa04 0e3e 6b6a f03d
00000210: 9614 723d 3ba7 cd3c 7c6e 303e 3482 af3d
00000220: 62e0 1e3e 49f0 0dbd 7609 023e 978f 8c3d
00000230: 620e 68bd 6957 633d d9b0 f3bd b7d3 133e
00000240: 3b47 a43c ced6 1b3e a2ce ab3d dd80 663d
00000250: 0e5b 92bd 5946 603c d005 30bd ae0f ce3d
00000260: 0108 813d 8e75 123d 5afd 033e 597e acbd
00000270: b1a1 f43b ddcb 38bd 5ef4 193e 6f88 023e
00000280: 95c1 6cbd 685c aebc 5fb9 9b3d e5fe 75bc
00000290: 51da b9bd 2dd1 fabd 1e01 36bd 4c68 683d
000002a0: 097b eebc 9aaf 9a3c 8c84 013c 5e12 51bc
000002b0: 37bc 823d 6bfa d93b 3fd3 91bd ff67 ed3d
000002c0: 5a75 0d3e d461 023d 1672 6a3d e3a5 e73d
000002d0: 19bc c1bd d4db 503d 20e6 b43d 85d1 083e
000002e0: 9add 15be 0807 7cbd 11d3 df3c c0be 35bd
000002f0: 3446 65bd d15c 273d a083 b7bd 47ee fc3d
00000300: bf20 d93c d551 903d 8a3a 59bd 0af1 19bd
00000310: fe1f 49bb 50c0 423d a664 b1bc a85e 10bd
00000320: 9c24 493c d88a 133e 0363 433d 2b66 d03d
00000330: 879a 14bd d95b d53d 3266 ffbc 97df a3bc
00000340: 3aee 40bd c8f5 7fbd bb19 0abd 4737 fc3d
00000350: 0d64 293e 0e03 153e 4e92 713d 645a be3d
00000360: 49cd ad3d 5806 b13b e990 c6bb 8eea df3d
00000370: f4d0 f73d 6eb7 933c 0204 8dbd c276 553b
00000380: 8e8f b43d 103c 933d 318b e93d 53c6 273e
00000390: c1d5 a83d c167 c53d 715d 153e c9a4 84bd
000003a0: 5fa9 7a3d c471 80bd 5edb e63d aea3 c63d
000003b0: 7f94 df3d 94d1 31bd 5e5c 993d 7227 913d
000003c0: 9513 b23d 7399 cb3d 8fdc 083d 7e79 173c
000003d0: 49ec 11bd d2e2 9fbd 5555 8f3c a960 14be
000003e0: 4a93 c2bd dc2b 523d e37a cdbd 32f1 033e
000003f0: 9900 8fbd 59b9 52bd 03e6 a73d 565e 2ebd
0.07604275 -0.062288865 0.12166709 0.062916525 -0.056012966 -0.057147328 0.07361988 0.06590281
0.13816606 0.028552808 -0.07520033 -0.0964007 -0.007005404 -0.01253851 0.08384814 0.095876366
-0.10165305 0.1249441 0.10175077 -0.053031027 -0.07530667 -0.05532386 0.0022299355 -0.09057992
-0.07049736 -0.11290613 -0.016335282 0.0017199988 -0.056216035 0.07217631 -0.09470617 0.08662492
0.0737623 -0.011976667 0.11633885 0.04490224 0.0070219594 0.0058670314 0.12642078 0.1277594
0.057705726 0.07906703 -0.022715602 0.1033185 -0.024371434 0.016619274 0.08684917 -0.0738072
-0.0147709185 0.036683474 0.021492297 0.014825685 -0.09751075 0.1135886 0.09484091 -0.11329409
0.02215825 0.10361717 -0.050892983 0.07977536 0.11355581 0.014528003 0.1288682 -0.027054304
0.02728533 0.047376625 -0.06942311 -0.104355074 0.026480108 -0.002573094 -0.068128824 -0.05968514
0.08739329 -0.07141916 -0.038560685 -0.03866542 0.05994514 0.098395474 -0.12711062 -0.049205717
-0.087303005 0.060100507 -0.08908337 -0.11511752 -0.08504202 -0.08383031 0.045726676 0.07015605
0.06833464 0.009927413 0.14195597 0.053838357 0.16590759 -0.0005945805 -0.061744858 0.088223755
0.15065241 0.03548168 -0.06563281 0.051035225 0.017047359 0.09248566 0.09397752 0.07534641
0.12744808 0.16253252 0.08187365 0.07263484 -0.09544513 0.0522476 -0.02415226 -0.005118947
-0.08447987 -0.0010723779 -0.01957784 0.09790058 0.07719094 0.0028817626 -0.05971043 -0.05336689
-0.09224017 -0.11476762 -0.05381098 -0.0071583763 -0.14896037 0.1593621 -0.014992639 0.022292765
0.118421346 0.14398754 0.13868967 0.117390476 0.059101664 0.025104156 0.17229646 0.08569756
0.15515283 -0.034652982 0.12698922 0.06863325 -0.05665434 0.055503283 -0.118989654 0.14436232
0.020053497 0.1521866 0.083890215 0.056275237 -0.071462736 0.013688647 -0.042974293 0.100615844
0.06300355 0.03575664 0.12889615 -0.084225364 0.007465564 -0.045116294 0.15034625 0.12747358
-0.0578018 -0.021284297 0.07603716 -0.015014385 -0.09074844 -0.12246928 -0.04443466 0.05674009
-0.029111402 0.018882561 0.007905137 -0.012760727 0.063835554 0.0066521666 -0.0712037 0.11592101
0.13814297 0.031831577 0.057237707 0.11310937 -0.09459705 0.050990894 0.08832955 0.13361175
-0.14635316 -0.061530143 0.027322324 -0.044371367 -0.055975154 0.04086 -0.08960652 0.12350135
0.026504872 0.07046858 -0.053034343 -0.03758339 -0.0030689235 0.047546685 -0.021654438 -0.03524652
0.012276795 0.14408433 0.047701847 0.10175737 -0.03628018 0.10417909 -0.03117666 -0.020004077
-0.04710219 -0.062490255 -0.033715945 0.12315231 0.16542073 0.14551947 0.058977418 0.092945844
0.08486421 0.0054023676 -0.006059755 0.1093341 0.121004015 0.018031802 -0.0688553 0.0032572006
0.088164434 0.071891904 0.11403502 0.16384248 0.08243895 0.0963893 0.14586426 -0.06476743
0.06119668 -0.06271699 0.1127231 0.09699188 0.10916995 -0.04341276 0.07488321 0.07087602
0.08695141 0.099413775 0.033413466 0.009245275 -0.03562573 -0.078069344 0.017496744 -0.14489998
-0.095007494 0.05131136 -0.100332044 0.12884977 -0.06982536 -0.051446293 0.08198168 -0.042570435

encoder_lstm1.weight_hh_l0 f4 [256, 64]
00000000: f097 663d 3c6b 8d3d 152f 89bb 5751 3d3d
00000010: 6251 14bc 3471 333b 331e 143e c5d7 f23d
00000020: b96d 993b 3f71 f13d fb5e d13b 365c 623b
00000030: 2ab7 cfbc 50f1 b13c efbe 20be 93ed a23d
00000040: 846e 4c3d dbf4 d83d 6cb5 a2bd 16b8 7ebc
00000050: 826e 0b3e a845 babc fd39 39bd b34c c3bc
00000060: 30de 6fbc d8d6 93bd 8c5b 9f3d cd30 eabd
00000070: fe84 023d 8522 053e 0356 81bd a107 96bd
00000080: 6047 8d3d 06f9 843d 3c26 f53d 7826 1bbd
00000090: f965 203a 401d ba3c d086 7d3d 52d1 f6bd
000000a0: 8054 613d c894 11be 0224 f83c b58b 13bc
000000b0: a134 18be 045d 393d 7004 a43d 5bf7 3ebc
000000c0: b20e e1bc b965 e13d dedc df3d 51a6 693d
000000d0: 3a33 c03c 56ed 823c f0ad 3e3d 7529 843d
000000e0: bd2e 6bbb 6e9e 95bc bd95 79bd c851 0bbe
000000f0: 45ca a6bd d704 1e3d 336f 13be 3a56 9c3c
00000100: a001 0dbb 7357 12bd 1367 523d 55d1 c5bc
00000110: 3b61 a2bd e6a5 8bbd 452e a53c 60a0 023e
00000120: 12a8 2e3d 4667 493d cc09 d73a 6c9e dcbd
00000130: bd8b 90bc 5857 923b 9ccc bebd 6037 64bd
00000140: 5c34 c13d acf2 833c 999f 8a3d f9b2 6abd
00000150: 94b8 90bc c829 ee3d 64a7 52bc 56db 09bd
00000160: 1282 9f3d 6966 d6bd b447 46bd 1f20 453b
00000170: 5224 6fbd a89f e83c 7b7b 43bd 58d0 36bd
00000180: 03ca a03d b189 a5bc 9469 003d 1a72 98bd
00000190: a6ca b13d c5ec b5bc 1f1a 9cbd fd96 893d
000001a0: e753 f4bb 6bfd 2b3c acef 15bc 1c7a b13c
000001b0: 7651 e8bd 56fa 00be dd8c 0cbd c2cf 78bd
000001c0: 4e66 bbbc e9ca 8a3d 2031 933d ae86 cdbc
000001d0: e641 18be ba5a 0abd 47e5 f5bd 71fe 63bd
000001e0: a95b 953d 1284 0cbe 5cde 853a 551e b4bd
000001f0: 912a 91bd 0f05 6c3d 9460 e93c 91aa d4bd
00000200: b899 b63d 4174 103e 7d5c 11bd 2d26 9f3c
00000210: 5ae3 ce3d c761 a2bd 86ef cbbc 4d2e 14bd
00000220: 098c 3d3c 34af 0d3e 0838 6b3d 153f 96bc
00000230: 9142 b93c 2908 dbbd 4e01 c0bd d373 fabd
00000240: 26f0 b83d 9b46 b93d f5ec c3bb 0555 7ebd
00000250: 41a0 92bd 0e68 073e 219a e03d 1b9d a93d
00000260: badc 9fbd ab11 dabd b375 90bd 0e1c ad3d
00000270: e33c b8bd 3514 f13d 5e75 f2bb 80c7 063e
00000280: 7ee2 4c3c 8bd9 a3bd 7d45 a0bc 148b 543d
00000290: 6f08 2a3e b031 c8bd 7d73 72bd fea4 653c
000002a0: adc8 6abd 2b3d b7bd aacb 7e3d 874a a23d
000002b0: e666 8f3d 35db ffbd ba1d 8cbd 2d36 5b3c
000002c0: 6689 053e c37c 133d bbd8 f53b bb2e 43bd
000002d0: f6bc 85bb 5172 8d3d 38c4 f3bd 2601 c63d
000002e0: fb35 b33d 3b8f a53d 5ee4 de3d c139 0abe
000002f0: 1652 4f3d eb02 b5bd e685 ccbd 8e7e 2cbc
00000300: 95ae 8b3d 7983 963d 1fc2 8d3d fa00 813d
00000310: b6b9 7d3d d611 ae3d 04cf 05bd 67bd e93d
00000320: 876b 393c fae8 8dbd 58a2 3abd 6161 87bc
00000330: cb7c d5bd e246 c7bb 8257 1abe 1282 2cbe
00000340: 7a83 963d df43 9abd ac9d 2cbc 67a6 2ebc
00000350: 408c 17bc 0226 e6bb 3d29 d93d 5836 2f3d
00000360: c186 c5bd 8d70 02be ece3 e93c af89 d93d
00000370: 0426 2d3d ac46 893d 45ab ce3d 2ed8 973d
00000380: 8ff5 a93d 353e 83bd 6561 e73d dc14 95bc
00000390: 5fa3 833d b5b6 32bb 187d dcbc a818 a53d
000003a0: 5122 0a3d 35e0 f63d 74bc d23d a213 07bc
000003b0: dc53 1b3c 8f2e 24be 3dd3 f63d 2519 e43c
000003c0: 7136 bc3b 2b3a 0e3e ad6d 743b ab95 2fbd
000003d0: bd2b fbbd 3f6e c13d e05b cc3c c408 0bbe
000003e0: cbcc b3bd 800b 4c3d 7739 5cbd b50b 0ebe
000003f0: 39bf e13c 6429 2dbe 0745 8c3d 052d 55bc
0.056297243 0.06905219 -0.004186521 0.04622015 -0.009052606 0.0027380707 0.14464645 0.11857561
0.0046822694 0.11789178 0.0063894964 0.0034539825 -0.025355894 0.021721512 -0.15697835 0.0795547
0.049910083 0.105935775 -0.0794476 -0.015546819 0.13616374 -0.022738293 -0.045221318 -0.023840284
-0.014640376 -0.072187126 0.07781133 -0.11435089 0.031865112 0.1300145 -0.063152336 -0.07325674
0.06898379 0.0649281 0.11970183 -0.037878484 0.0006118711 0.022719026 0.061896145 -0.120516434
0.055012226 -0.14216912 0.030290607 -0.009005477 -0.14863826 0.045254722 0.08008659 -0.011655654
-0.027472828 0.1100573 0.10930799 0.057043377 0.023461927 0.015982311 0.0465526 0.0645322
-0.0035886012 -0.018264022 -0.060933817 -0.13605416 -0.081440486 0.038578834 -0.14397888 0.019084085
-0.002151586 -0.03572793 0.05136783 -0.024147669 -0.079287015 -0.06818752 0.020163665 0.1275649
0.042640753 0.049170755 0.0016406118 -0.10772404 -0.017644757 0.0044659786 -0.0931637 -0.055716872
0.09433815 0.016106926 0.06768722 -0.057299588 -0.017666139 0.11629063 -0.012857292 -0.03365644
0.07788481 -0.10468752 -0.048408225 0.003007896 -0.058384247 0.028396443 -0.047725182 -0.044632286
0.07851031 -0.020207258 0.031350687 -0.07443638 0.0868123 -0.022207627 -0.0762217 0.06718252
-0.007456291 0.010497431 -0.0091513805 0.021664672 -0.113436624 -0.12595496 -0.034314025 -0.06074501
-0.022875931 0.06776983 0.07187104 -0.025088634 -0.14868888 -0.03377793 -0.12006622 -0.055662576
0.072928734 -0.13722256 0.0010213363 -0.08794848 -0.07088197 0.05762201 0.028488435 -0.103840955
0.08916038 0.14106847 -0.035488594 0.019427383 0.101019576 -0.07928806 -0.024894487 -0.03617697
0.0115690315 0.13836366 0.057426482 -0.018340627 0.02261475 -0.10694916 -0.09375249 -0.12229123
0.0903018 0.0904667 -0.005979175 -0.0620928 -0.07159472 0.13223287 0.10966898 0.082819186
-0.07805772 -0.10647901 -0.07053699 0.08452617 -0.08995988 0.11771432 -0.007399245 0.1316204
0.012505172 -0.080004774 -0.019564385 0.051890448 0.1660478 -0.09775102 -0.05919217 0.014016388
-0.057320286 -0.08947214 0.062205948 0.07924371 0.07002048 -0.12492982 -0.068416074 0.013379616
0.13040695 0.036007654 0.007502643 -0.047651988 -0.004081364 0.0690657 -0.1190266 0.09668188
0.0875053 0.0808396 0.10883401 -0.13498594 0.050615393 -0.08838447 -0.099864766 -0.01052822
0.06820408 0.07349295 0.06921791 0.062990144 0.061944686 0.08499496 -0.03266813 0.11413079
0.01131714 -0.069292024 -0.04556498 -0.016525926 -0.10424193 -0.006081448 -0.15072444 -0.16846493
0.07349296 -0.07532477 -0.010535639 -0.010659791 -0.009249747 -0.007023574 0.10603569 0.042776436
-0.09644843 -0.12738247 0.028551064 0.10621964 0.042272583 0.06702933 0.10091261 0.0741428
0.0829879 -0.064083494 0.112978734 -0.018198423 0.06427645 -0.0027269546 -0.026915118 0.080613434
0.033724133 0.12054483 0.10289851 -0.008244427 0.009480443 -0.16033386 0.12052009 0.027844021
0.0057437946 0.13889377 0.0037296817 -0.042867344 -0.12264202 0.09444856 0.024946153 -0.13577563
-0.087792955 0.049815655 -0.05376574 -0.13871653 0.027557002 -0.1691032 0.068491034 -0.013011222

encoder_lstm1.bias_ih_l0 f4 [256]
00000000: 6ccc 7a3d 775d 913d 865e f53d 3f4f 1a3e
00000010: 5e19 fdbd 4b7b 083d 5308 8b3d 1d4a 5c3b
00000020: dc18 8d3d 5bb3 dabd f72c 59bd 1f07 c3bd
00000030: 4d7a 2b3d b19b 01bd e2d9 2abc f426 633c
00000040: 4eff 0a3d 9650 00bd 8b4f bbbd f8a0 debc
00000050: 5aea 09be afc5 0b3d efba d23d 8075 f93d
00000060: 26d0 113e 2b39 ff3d a881 b83d 364c 933d
00000070: 19fa debd 11d5 0dbd d697 c2bd db6b a2bd
00000080: f501 9ebd 412e d43c 47bb 02bc 6aaa 03bc
00000090: 81c2 27bd 1db0 113d 8e3d d03d 1c3c fa3d
000000a0: 1eb7 933d e8fe 9f3d c5f8 b5bd 896b 49bd
000000b0: 759b b83d 4ee8 8fbd d46f b1bd c497 6abd
000000c0: 3630 c13d d3f2 6cbc b476 e9bd 25b6 b6bb
000000d0: b32c 8e3d 9709 bebd 6c20 e13d d3bd 55bb
000000e0: aed3 cabd 1c3b f03d e2c6 353d f4e7 c43d
000000f0: 47c6 aebd b080 cfbd 8df9 c03a cbab e13d
00000100: 0518 3b3d 3112 9f3d a96d b2bd f8f8 80bd
00000110: 73de 81bd ba1a e23d 93f7 093e 6707 94bd
00000120: e21b b13d c13d 7a3d eb8e 733c c9ab bb3d
00000130: 37e5 633d 583e ba3d 331a 073e 7c42 0d3e
00000140: 7a71 783d b7ea 063e c974 00bc 3279 f43b
00000150: 425c 453d f57b 0a3e b830 d63d bc89 9ebc
00000160: 3112 003c 71ea 2e3d 08c8 d23d 48d6 5d3d
00000170: 1b4a e6bd 7e88 de3d 0a55 ddbd a056 1bbd
00000180: b569 d9bd 1f0d 563c c748 7fbd 945d 7f3d
00000190: 1042 0f3e 4306 d2bd dede 8fbd 2c87 23bd
000001a0: 5c33 3cbd a2ef ae3c e824 df3d ec33 90bc
000001b0: 2100 963d 7e98 36bd 06c7 5f3d 1f14 7dbd
000001c0: 9891 4dbd d462 ba3d 4352 c53d cad2 d1bd
000001d0: ed9d e4bd 112e 85bd 299b da3d 0878 cbbd
000001e0: 4638 913d 7515 1c3e f9a7 4a3d a480 04bd
000001f0: 9efa bebd 9f3a 043d 2ce2 a0bd b82f 0fbd
00000200: 0e4f 24bc 75bb 43bd c11e eabd e1c1 62bb
00000210: 13a7 babd 8090 02be 0222 ef3d 6087 653d
00000220: 9853 b2bd 4609 c4bd 9495 95bd 289c de3c
00000230: f8ff d0bd fff8 9bbd 271c 853d da6d d43c
00000240: a1dc 83bd 674a 1bbc 9621 e5bd 4542 7ebd
00000250: d505 8e3d 4fcd 21bd c9b0 dbbd e3f3 35bd
00000260: 7617 23bc 65f5 1ebd 5559 133c a44e ed3c
00000270: aa1e 47bc 8d0b f8bd 74a7 a33d acb3 0dbc
00000280: 4ebb d23c a8da ba3d b0dd 9f3d cb95 4ebc
00000290: 8e70 e3bd 0313 8fbd 2228 ae3d 97ab 093e
000002a0: df25 273d a7fe 433d aeff fe3d d1d7 b5bd
000002b0: b312 79bd c9db 70bd 1c95 a83d 02fc 863b
000002c0: 5fda 853c 8fe3 f83c d283 e13c 54e0 debd
000002d0: e7bd fa3d fce7 66ba aa9b 003d 40ea 89bd
000002e0: d725 b2bd 990c 8e3d 43f5 973d cd76 afbb
000002f0: 21dc 253d e4ce 64bd 0a14 303a 7f0c a4bd
00000300: 745b 48bd d22c a73d e3c0 7b3d ae7a e83d
00000310: 1d38 63bd 859d b4bd 1994 363d c45a 27bc
00000320: fd60 d9bb d6d6 9cbd bcae 23bd 702a 9b3d
00000330: 63dc 89bc a68e 0abe b84e 7b3d a679 433d
00000340: a08d 2d3d d116 6f3d 6e23 143c 86e8 d03d
00000350: faba 683d 1f94 333e 55c4 5dbd 3cc6 c43d
00000360: 5adb 5d3c aefa d4bd 49ad 8e3d 9481 6ebd
00000370: 4529 a5bc 3af7 c6bb 5350 993d e491 cc3c
00000380: 29f9 11be ef49 033e de79 bb3c a1e0 083d
00000390: 21b7 093e 07b3 c13d 2221 dfbd b318 883d
000003a0: 8984 ca3d ba4e e2bd 00ad 64bd bf8c f13d
000003b0: 6810 c53d 4614 8a3d 5690 76bd ad8e 92bd
000003c0: 38c7 07be a815 f13d 73a0 4339 b4f6 d73d
000003d0: 9abf 313d c0fc ba3d 9232 983d 3b39 12bd
000003e0: 178b 9dbc 8a55 6b3d 44bb 203e 287c 9b3c
000003f0: 287d c33d 8911 39bd a845 11bd 60a5 dabc
0.06123011 0.07097905 0.119809195 0.15069292 -0.12358354 0.033320706 0.06788697 0.003361351
0.06889507 -0.106787406 -0.053021397 -0.095228426 0.041864682 -0.03164262 -0.010427924 0.013864268
0.033934884 -0.031326853 -0.09146031 -0.027176365 -0.13468304 0.034124073 0.10289561 0.121806145
0.14239559 0.12462076 0.09009105 0.071922705 -0.10887546 -0.034627024 -0.09501617 -0.07930728
-0.07715217 0.025900962 -0.007979221 -0.008036235 -0.040956978 0.035568345 0.101679906 0.12218496
0.07212661 0.078122914 -0.0888534 -0.04917482 0.09014026 -0.070267305 -0.08663908 -0.05727364
0.09433024 -0.014462191 -0.11399594 -0.0055759125 0.069421194 -0.09279173 0.10992512 -0.0032614365
-0.09903656 0.11730024 0.044379123 0.09614554 -0.08533912 -0.10131967 0.001472281 0.11019095
0.045677204 0.077671416 -0.08712322 -0.06297487 -0.06341257 0.11040254 0.13473348 -0.072279744
0.08647896 0.06109405 0.014865617 0.09163625 0.05563852 0.090939224 0.13193588 0.13794893
0.060655095 0.13175474 -0.007840344 0.0074607367 0.048183687 0.13523848 0.10458511 -0.019352786
0.007816837 0.04270405 0.10292059 0.054159433 -0.11244603 0.108658776 -0.108072355 -0.03792441
-0.10615865 0.013064652 -0.062325265 0.062345102 0.13990045 -0.102551006 -0.070249304 -0.03992383
-0.045947418 0.0213545 0.10895711 -0.017602883 0.07324243 -0.04457902 0.054633163 -0.061786767
-0.050187677 0.09100881 0.09634831 -0.10245283 -0.111629345 -0.06502927 0.10674126 -0.099350035
0.070908114 0.1524256 0.049476597 -0.032349244 -0.09325145 0.032282468 -0.07855639 -0.034957618
-0.010028614 -0.047786195 -0.11431647 -0.0034600424 -0.09113898 -0.12750435 0.11676408 0.056037307
-0.087073505 -0.09572081 -0.073039204 0.02717407 -0.10205072 -0.076158516 0.0649951 0.025931288
-0.06438566 -0.009478188 -0.11188047 -0.06207492 0.06934706 -0.03950244 -0.107270785 -0.04442204
-0.009954324 -0.038808245 0.008993466 0.028968163 -0.012153307 -0.12111578 0.079909235 -0.008648794
0.02572408 0.091237366 0.078059554 -0.012608956 -0.111054525 -0.06986048 0.085037485 0.13444363
0.0408076 0.047850277 0.12451111 -0.08879054 -0.06080885 -0.058803353 0.08231565 0.004119397
0.016339479 0.030381946 0.027528677 -0.10882631 0.12243252 -0.0008808372 0.031398453 -0.06734133
-0.086986236 0.069359966 0.07419827 -0.0053547383 0.040493134 -0.05586137 0.0006716853 -0.08010196
-0.04891534 0.08162846 0.061463248 0.11351524 -0.055473436 -0.08819107 0.04457483 -0.010214511
-0.0066338764 -0.07658164 -0.03996156 0.07576454 -0.016828721 -0.13530979 0.06135437 0.047723435
0.042371392 0.05837137 0.00904165 0.102006 0.05681894 0.17536972 -0.054142315 0.09608123
0.013541067 -0.10399376 0.06966645 -0.058229044 -0.02016128 -0.006071952 0.07486024 0.02497191
-0.14255203 0.12821172 0.02288526 0.033417348 0.13448764 0.09457975 -0.108949915 0.06645336
0.0988856 -0.11050172 -0.05582905 0.11794423 0.0962227 0.06742148 -0.060196243 -0.071561195
-0.1325959 0.11771709 0.00018656421 0.10545102 0.043395616 0.091302395 0.074315205 -0.03569911
-0.019231362 0.057454623 0.15696436 0.0189801 0.09545356 -0.04518274 -0.03546682 -0.026690185

encoder_lstm1.bias_hh_l0 f4 [256]
00000000: 9535 603c cfe2 fb3d 7531 87bd fe09 003d
00000010: a1d2 703d ca16 883d 1929 b4bb bf7d b6bc
00000020: edff 233d 6568 953d 5a30 c3bc 2d34 593d
00000030: f037 06be ec6e 533d 32aa 973b db7e fd3d
00000040: 86da 843d cd04 c3bd 7516 04bd 6826 633d
00000050: 7524 473d 8bac 123e f621 5e3c 165a d8bb
00000060: e1f0 94bd 25d9 dabc f792 4a3d ae3c 8fbc
00000070: 5744 943d 00c7 4b3d 6ed4 cd3d 7f12 4f3d
00000080: 37e8 b93c 5458 1f3d 372a fdbc d04a e13d
00000090: 5fd0 db3d d7cc 8ebc 2a8e 8e3d 1416 ad3d
000000a0: 5b34 a5bc bbe2 15bc 4793 1bbd 44dd b73b
000000b0: fc1e 223d 14d7 df3d 7c56 263d 9c21 153e
000000c0: 03fd 363d 2811 0a3c 2c51 b93c 04d7 a2bd
000000d0: fa52 8e3c 2d44 cc3d f726 c33c cecf 61bd
000000e0: a548 5f3d eef9 b8bc 8fd5 003c 2478 f43d
000000f0: e425 043d cab6 cb3d d327 e83d 184b a63b
00000100: 70f4 a63d 42d1 733c fb14 883d b103 473c
00000110: a229 b43d 20f1 9dbd 41cf 1c3e f78a 59bd
00000120: b0bc 00bc 71fd 503d 7daf fa3d 47d3 623d
00000130: 1986 a63c d076 0a3d dda8 0abd ce95 58bd
00000140: d011 afbd ac48 173d 485f 46bd 53d9 8cbd
00000150: b660 bdbb ef23 5e3d 166d a63d a6a9 8ebd
00000160: 661d 083d 6422 8f3d 9f03 88bd 6105 033e
00000170: 281c fa3d 7c3f c2bb 03ee 0bbe c9d1 a5bd
00000180: b811 91bc e25b 323b 838c be3c 6e7b 82bd
00000190: 1d62 0abd 02b8 d7bb c8ef 85bd 4667 7fbd
000001a0: 1b9d 463d 9e70 c33c d87e b5bd c04f 7d3b
000001b0: 1756 0ebd 64f6 d5bd 6cb6 11bc 2e40 89bd
000001c0: a1ad 16bd d69c 393d 615c 9e3b f851 963d
000001d0: f170 823d 5756 fe3d 4ee6 203d 13ef bb3b
000001e0: f364 3abd 5ea7 a13c 15bf b7bc 5f32 34bc
000001f0: d326 39bd 6208 b5bc aa1f bdbd 63cd a5bd
00000200: e701 e7bc e591 933d 7dcb 103d 883a 963d
00000210: 57e7 8dbd 345e a5bd 1baf f8bd a4f1 b93d
00000220: 6bda e8bc a3b0 413d 8ef3 7cbd 5048 ffbb
00000230: 3617 9dbc c4d2 043c 438d 9fbd 40b6 f23c
00000240: 0148 91bc df7a 7dbd bc52 bfbc 15cf f0bc
00000250: 7906 11bd 8437 42bd 12bf 663d 922f b5bd
00000260: d7b3 bf3d 59b2 6f3b 0153 063d 18f1 523d
00000270: 4266 e2bd 80e3 953c d30e 9bbd d100 78bc
00000280: d85f 0a3c 1768 e03d 0a53 02be 5a00 52bd
00000290: f3e1 e03d 6028 cabd def0 933d a2a4 d2bc
000002a0: 03b1 783c f078 9c3d 85f0 443d 33f9 e43d
000002b0: c54a b0bc 06ef f93b 0f0c 6ebd b4c0 c7bd
000002c0: daae 5a3d 8e8a b73b cd58 803d 5af6 083b
000002d0: 2341 bf3a 4821 5b3d 0582 7bbd 2615 9abd
000002e0: 30fb 473c 5fa5 a4bd f3cb b13d 1dd9 d73d
000002f0: b39b 233d 7eaa c9bd edaa e5bd 37c5 d3bd
00000300: 3846 103e ad58 0e3e 7fb3 103e a943 1dbd
00000310: b1d0 5ebd c218 873d 2685 b4bd a04b a23d
00000320: ed59 a9bd 1a33 e53c ecae c1bd df49 9fbd
00000330: b26b dfbd c1d2 903d 595e 41bc 6171 253e
00000340: 48a3 53bd f1d6 c73d 3dcb 613c 33bd 89bc
00000350: 0953 fb3d e67b b33d 0f0e 1abd f8ea e23d
00000360: d896 173d 1810 c13d df19 68bc f281 1fbd
00000370: b6db e73d 500f b03d 191a a13d 5286 5c3d
00000380: 5f55 7b3d 8549 533c 3d61 053e 8101 7c3d
00000390: 704e f63d 3b41 823c f018 c63d ed31 3ebd
000003a0: 14c8 ea3c 0024 80bd b517 c0bc 1ddd 3f3d
000003b0: b158 9bbd a308 2dbd b2ab d6bc 7238 43bc
000003c0: 38fb b9bd 32cc 083e cc81 3d3d e5cb 33bc
000003d0: 22a1 81bc 6173 51bd 687e ae3d 14db 8b3d
000003e0: d4a1 28bd e6ec 19bb ffbc 74bb 698d cd3d
000003f0: 388d 963d 7123 363d ea19 0bbd 42b6 ee3d
0.01368465 0.1229912 -0.0660123 0.03125953 0.05879462 0.06644972 -0.0054980633 -0.022276757
0.04003899 0.07295302 -0.023826767 0.053028274 -0.13107276 0.051619455 0.004628443 0.123777114
0.064869925 -0.095224 -0.03224798 0.05545655 0.048618753 0.14323632 0.013557902 -0.006602536
-0.072725065 -0.02671487 0.049456563 -0.017484989 0.07239597 0.049750328 0.10050283 0.05055475
0.022693736 0.038902596 -0.030903919 0.110005975 0.10733103 -0.01743166 0.069607094 0.08451477
-0.020166567 -0.009148295 -0.03798225 0.0056110937 0.03958033 0.10929695 0.04060982 0.14563602
0.044674885 0.008426942 0.022621714 -0.07951167 0.01737355 0.09973941 0.02382229 -0.05512982
0.05451264 -0.022580113 0.007863416 0.119369775 0.032262698 0.099469736 0.11335721 0.00507487
0.081520915 0.014881434 0.06644627 0.012146876 0.08797003 -0.077120066 0.15313436 -0.053111043
-0.007857487 0.05102295 0.12240503 0.05537727 0.020327615 0.033804715 -0.033852447 -0.05287724
-0.08548319 0.03693454 -0.04843071 -0.06877389 -0.005779351 0.054233488 0.08126275 -0.069659516
0.03323116 0.06988981 -0.06641316 0.1279502 0.12212402 -0.005927978 -0.13665013 -0.08096654
-0.017708644 0.002721541 0.02326036 -0.063711986 -0.033784974 -0.0065832147 -0.06539875 -0.06235435
0.04848967 0.023857411 -0.08862084 0.003865227 -0.03475007 -0.10447386 -0.00889359 -0.067016944
-0.03678668 0.045315586 0.00483279 0.07339853 0.06369198 0.12418812 0.039282136 0.005735287
-0.04550643 0.019733127 -0.022429982 -0.0109983375 -0.04520304 -0.022098724 -0.09234555 -0.08095815
-0.02819915 0.072055615 0.03535031 0.07335383 -0.0692889 -0.080746084 -0.12142774 0.090792924
-0.028424462 0.047287595 -0.06175571 -0.0077906027 -0.019176107 0.008106891 -0.077906154 0.02962792
-0.01773453 -0.061884757 -0.02335488 -0.02939562 -0.035406563 -0.047416225 0.056334563 -0.08846964
0.093604736 0.003657481 0.032794002 0.051499456 -0.110546604 0.018296957 -0.07571187 -0.015136913
0.0084457025 0.109573536 -0.1272699 -0.051269867 0.109805964 -0.09870982 0.07223676 -0.025713269
0.015178922 0.076402545 0.04808094 0.111803435 -0.021520028 0.007627371 -0.05811697 -0.09753552
0.053389408 0.005601234 0.062669374 0.002089879 0.0014591556 0.053498536 -0.061403293 -0.07523565
0.012205884 -0.080393545 0.08681478 0.10539458 0.03994341 -0.09846972 -0.11214242 -0.1034035
0.14089286 0.13901015 0.14130972 -0.038394604 -0.054398242 0.06596519 -0.088144585 0.079245806
-0.08269105 0.027978469 -0.09457192 -0.07777762 -0.10909213 0.07071448 -0.011802279 0.16156532
-0.05166939 0.09757794 0.013781366 -0.01681385 0.12271697 0.08763866 -0.037611064 0.11079973
0.03700909 0.09426898 -0.014166324 -0.038942285 0.113212034 0.08596671 0.07866306 0.053839035
0.061360713 0.012895946 0.13025375 0.06152487 0.120266795 0.015900245 0.09672725 -0.04643433
0.028659858 -0.062568665 -0.023448804 0.04684173 -0.07585276 -0.042244565 -0.026204918 -0.011915313
-0.09081119 0.13359144 0.046266362 -0.010973905 -0.015823904 -0.051135425 0.08520204 0.06828895
-0.041169956 -0.002348715 -0.0037344096 0.100367375 0.07351154 0.044467393 -0.03396026 0.11655857

encoder_lstm2.weight_ih_l0 f4 [128, 64]
00000000: 14d6 ddbd 8a0e 04bb 3bcd 103e 3382 47be
00000010: 18bd 0b3e 70e6 893d f692 163e d565 e63d
00000020: 7aee 76bc e1f5 dd3d 5bcd 103e e33b ddbd
00000030: 27a0 2abe 42e0 a1bd 60b4 d73a 0cfd a1bd
00000040: 7bef e3bd 95a0 3a3e 6e07 0c3d e5c8 2b3e
00000050: fb0d 2fbe 64df 313c 122d 62bd 3108 c93d
00000060: 9947 f9bd 074a 2bbe 4f58 31be 4ebb 82bd
00000070: bcce e43c 5286 193e 0533 f8bd e579 363e
00000080: 83d1 e6bd d7f2 a7bd b651 373e 1493 1bbe
00000090: fc5c 263e 3ddd 303e 44f6 37bd 159b f63d
000000a0: 5440 c33d 5af8 8d3d aac1 74bd 0100 b3bc
000000b0: 9527 30be 6e23 893d 1cd4 80bd b541 823d
000000c0: e353 52bd 6682 4c3d ca01 bbbd 4930 92bd
000000d0: 6b63 fdbd dd15 fe3d ad8b edbc cb4c 4b3d
000000e0: cadd 253e 43c2 fbbd e435 403d 4db6 7e3d
000000f0: d508 9dbd 7d1a 453c 449b 2a3e 41ce 3b3e
00000100: 960f 213e a1d0 b9bd c3b6 4a3e fac4 ebbc
00000110: 38c9 5f3a de47 32be 690e e1bd b32b 5ebc
00000120: 5adf 023e face 07bc 0beb 90bd 12c9 08be
00000130: 39d1 1cbd 51e0 43bc 7b74 8ebb 92ae 8b3d
00000140: 6f8a b7bd da39 073e 8968 16be e277 e6bb
00000150: c837 cabd fef1 bb3d bdea 9e3c cc82 48bd
00000160: dc65 c1bc 6364 a0bd 7800 2dbe 2b51 053e
00000170: 3637 f7bd 9238 cb3c 686e 213e 1f29 c7bd
00000180: 32d5 c33d 5c10 dcbd 7c3c dabd 6f68 e3bd
00000190: 53fe 9abc d0e2 6fbd 4533 413e b8c7 003e
000001a0: 1b29 ad3d 16a7 50bd ecfa b5bd 9701 513e
000001b0: d8a6 ecbd 66ca ba3d c217 bdbd a6b9 16be
000001c0: 832b ffbd f294 e73d fc82 313d d7b7 0a3d
000001d0: 0a07 2c3e e4cf 97bd 6492 2f3e 670b 1c3e
000001e0: 1af7 253e 0eb4 013e b32c 433e c024 e1bd
000001f0: 60f4 7bbd e049 ecbd 8ff4 62bc 3e02 8c3d
00000200: 4506 2dbd f0b6 00be d500 52bd 85c3 ebbd
00000210: 4e9c a93d d3af f03d 0dd2 823d 7991 043e
00000220: bca3 12be 0f1b fcbd d635 133e e211 2a3e
00000230: c1d7 4c3e f40f 16be 7cda cdbc a0bc 4d3e
00000240: fe21 65bc 844c a0bc 84df 09bd dc72 a33d
00000250: 76e0 163e a2a3 44be 9118 103d 87bb dabd
00000260: e3a0 e43d 0c92 16bd d964 0d3d b03d 49bd
00000270: 79ce 543e f873 cd3d bb26 95bd 777b 053c
00000280: c453 d33d 9211 a23d 722c 723c a35a b7bd
00000290: d01b 143e ef0d a9bd fb11 0dbd a54b 213c
000002a0: 28d9 25be e6c5 dbbd 5c41 6f3d a819 013e
000002b0: f04d 0cbe fcae 3c3e 9fa7 9abc b74b afbd
000002c0: 794d 56bd 16f4 21be 7e60 f53d c92d b2bd
000002d0: 1141 f6bd 62cb b8bc 56be 0fbe 05e7 a23c
000002e0: 17b1 a3bc 78ba d8bd 6839 f3bd b0db 823d
000002f0: df31 3dbe 607a 773d b544 153e feea 56bd
00000300: 6956 703d 0bcf 2a3d d021 59bc 1de2 39bc
00000310: a50a 0f3e 0663 5d3c d9d9 63be da95 c53d
00000320: d23b 103d 32ce edbd 6fbc 023e bb64 533e
00000330: f05c 3c3e a2ce bdbd b8f2 d13d 358f 5e3e
00000340: 83c9 f0bd e2b6 60be 3f20 1c3e 7659 d9bd
00000350: fa43 e6ba 5c1a 5b3d af04 e43d 2317 84bd
00000360: 8519 4f3e 2862 e43c 415e e23d aa80 9b3d
00000370: 18c0 11be 2111 ac3d 13d1 54be fd7e 323d
00000380: d0c0 e23d af35 013d e754 92ba b9de 143d
00000390: 57b0 813d 4f3c 763c 95ec 9bbd af1e 1d3e
000003a0: b19b 5439 fd27 a3bb 61ac 623d 5480 003e
000003b0: 8272 9d3c 5628 6b3c aa82 8d3c d82a cdbd
000003c0: 135e 1ebe d818 cdbd 1985 0dbe fece ac3d
000003d0: b1a6 f93d 4545 07be f27a dbbd 53fa eebd
000003e0: 840d 0c3c bf58 653e 36aa 2bbe 42eb 233e
000003f0: 6998 0c3c 4afe 473e fbd2 103d 13d2 e23d
-0.10831848 -0.0020150268 0.14140789 -0.19483261 0.13646352 0.067334056 0.14704499 0.11249892
-0.015071506 0.10837913 0.14140837 -0.10802438 -0.16662656 -0.07904102 0.0016456954 -0.07909593
-0.11129662 0.1822532 0.034186773 0.16775854 -0.17095177 0.010856483 -0.055218764 0.098160155
-0.12171859 -0.16727458 -0.17318843 -0.06383382 0.02793061 0.14992645 -0.12119106 0.17819937
-0.1127043 -0.08200615 0.17902264 -0.15192825 0.16246408 0.17271896 -0.04491259 0.12041298
0.09533754 0.06932135 -0.059755005 -0.021850588 -0.172026 0.06696211 -0.06290457 0.06360189
-0.05134953 0.049929045 -0.091312006 -0.07138116 -0.12372478 0.12406514 -0.028997267 0.049633782
0.16197887 -0.12292912 0.046926394 0.062185574 -0.076677 0.012030241 0.16660792 0.18340398
0.15728602 -0.09072996 0.1979628 -0.02878045 0.0008536759 -0.17410228 -0.10989077 -0.013560223
0.12780514 -0.008289093 -0.07076081 -0.13357952 -0.038285468 -0.011955337 -0.0043473816 0.06820406
-0.08961951 0.13205662 -0.14688314 -0.007033334 -0.09873921 0.09177016 0.019399041 -0.048952863
-0.02360814 -0.07831647 -0.1689471 0.13019244 -0.120710775 0.024807248 0.15764773 -0.0972464
0.09562148 -0.10745308 -0.10656068 -0.111039035 -0.0189201 -0.058565915 0.18867214 0.12576187
0.08455106 -0.050940596 -0.0888575 0.20410763 -0.115552604 0.09120636 -0.09233047 -0.14719257
-0.12459471 0.11307706 0.043337807 0.03386673 0.1679956 -0.07412699 0.17145687 0.15238725
0.16207543 0.12666342 0.1906002 -0.10993338 -0.06151235 -0.11537528 -0.013852253 0.06836365
-0.042242307 -0.12569785 -0.051270325 -0.11511902 0.08281766 0.11752286 0.0638772 0.12946118
-0.14320272 -0.123098485 0.14376006 0.16608384 0.20004179 -0.14654523 -0.025128596 0.20091486
-0.013985155 -0.019567735 -0.033660427 0.07980892 0.14734063 -0.19203046 0.03517968 -0.10680299
0.11163499 -0.036760375 0.034520004 -0.049131095 0.20781888 0.10031885 -0.07282778 0.008147112
0.103187114 0.079135075 0.014781104 -0.089528345 0.14463735 -0.08254611 -0.034440976 0.009844695
-0.1619612 -0.107311055 0.05841194 0.12607443 -0.13701606 0.18426126 -0.018878756 -0.08559363
-0.052319977 -0.15815768 0.11981295 -0.08700139 -0.12024129 -0.022557918 -0.14037451 0.01988555
-0.019981904 -0.10582441 -0.11876184 0.06389558 -0.18476056 0.06041944 0.14576991 -0.0524702
0.058676157 0.041701358 -0.01325269 -0.0113454135 0.13968904 0.013512379 -0.22251071 0.096477225
0.0352133 -0.11611594 0.12767194 0.20643894 0.18394828 -0.09267928 0.10251373 0.21734317
-0.11757185 -0.21944764 0.15246676 -0.106127664 -0.0017567866 0.053491935 0.11133706 -0.064497255
0.20224579 0.027878836 0.11053134 0.075929 -0.14233434 0.084017046 -0.2078288 0.043578137
0.11071932 0.031545337 -0.0011164219 0.036345217 0.06332462 0.015029027 -0.07613484 0.15343736
0.00020275895 -0.004979132 0.055340175 0.12548953 0.01921964 0.014352879 0.01727422 -0.100179374
-0.15465574 -0.10014504 -0.13820304 0.08437918 0.12189997 -0.13210018 -0.10716809 -0.11668839
0.008548144 0.22397135 -0.16764149 0.16007712 0.008581259 0.19530597 0.035357457 0.11075225

encoder_lstm2.weight_hh_l0 f4 [128, 32]
00000000: b622 1a3e bb69 21bd 1539 b63c 029c 853d
00000010: 2998 ea3d b8b8 e13d 0166 2d3b 9153 733b
00000020: d94f c23d de39 1ebe 4933 713d cacd c7bd
00000030: a58b bbbd ee46 c4bd b95f 8d3d a9c8 38bc
00000040: 87a3 a1bd 1aa4 94bd b6c3 6e3d a3f5 0c3d
00000050: 03a0 acbd edc7 a8bc 450f ed3c bd58 0ebe
00000060: 8a07 e6bd 2c2a 243e 55c7 1f3e ab54 58bd
00000070: 9b35 6f3c f5c8 d4bd e156 2ebe 75d5 053d
00000080: d51a 053d 7ebb 5abe 21c1 31bd 12a4 01be
00000090: 8822 833d 51bf 83bd 13d6 24be 3179 33be
000000a0: 6d11 1a3e 2503 30bd b1fd b03d dd7d 093e
000000b0: ae07 aabc b334 08be 9846 82bd 19ea 0d3e
000000c0: 4432 523e 7846 87bc af9c 26bd 463f c23d
000000d0: a701 f23d 9de6 25bd dfc9 f9bd 4b2f e0bd
000000e0: a585 4bbe d15f f73c af9c f0bd 1a4f b3bc
000000f0: 1f56 de3b 1828 573e 12f8 80bd bfa0 22bd
00000100: 57a1 75bd 454c 9d3d 7a26 233e 0835 1b3e
00000110: 521f 3c3e 65d5 4abe 4e79 90bb 93fb 0abe
00000120: ffd2 3e3e 9971 af3d f3b9 64bb 079c 79bd
00000130: a20c d1bc c1ff 403e 907f a33d 9805 d33d
00000140: 034b 3abd 9c72 4a3c cb57 0b3e 8057 a23d
00000150: c80b 3d3e 28f0 253e cdc1 563d 800e ee3d
00000160: 6119 d03b 5c3b 8dbd 29ed 1b3d 62d8 46be
00000170: acc8 84bd 5fc6 dfbd fb69 22bd ef0d 23be
00000180: 7cf4 22be 2f9c dfbd d0e0 c73d 1319 463d
00000190: 566b f33d ecb6 20be d09c c4bd b606 5d3d
000001a0: 7933 103e 0e01 dd3d ede0 913c 91fb b23d
000001b0: 33b9 ddbd cb48 3b3d 3c37 dabd 3439 c1bd
000001c0: 0fbd 0f3e 3106 8dbd b1db 423e d247 3fbe
000001d0: 143c c13d 5336 d23d f640 fabd 7da9 1cbd
000001e0: 5a82 7e3d a63b f83d c175 513d 9396 18be
000001f0: b731 c6bd 9898 1dbe d7d9 e6bd e6a0 f83d
00000200: cd60 b33d e8b3 a53d 34e9 ce3c 41c1 3bbd
00000210: f286 143e b1f2 0b3e ad2f 053e dc44 66bd
00000220: c918 32be 6149 c83d 8a1b 083e c01d a4bd
00000230: 4761 e0bd 7e7b 82bd 33cf 7fbd 85a7 2e3e
00000240: d739 a43d 01bd c6bd 0e46 00bc b125 873c
00000250: c876 e13c 4be4 6bbb 411d a03d e517 0ebe
00000260: 4ced aebb 4a1e 073e 743e 00bd e713 ed3d
00000270: 29ce 72bd 56aa b3bd 9e8b 9ebd 128e 93bb
00000280: 39c2 1dbd 08e6 b33d 5435 b43c df3d 9e3d
00000290: 6791 953c b612 bd3c cd99 8b3d a412 0ebe
000002a0: dd35 0d3c eb15 3bbe a32c 0dbe 8395 d73d
000002b0: 2865 513e 599f 2d3d cedd 87bd 0bd6 8d3c
000002c0: 4e8b 00be 05b9 d0bd 9281 e7bd 074a 4d3e
000002d0: 30c4 0fbe 1c30 ad3c ccc9 b13d c446 073e
000002e0: 2960 0bbe 343c 213e 917e 3bbd a4df ff3b
000002f0: 8039 373e 2393 e53c f371 cc3d 8fe2 0e3d
00000300: 3787 753d 0482 8d3c 0635 473d f585 0cbd
00000310: c2c2 19be 7545 04be 0730 5dbd 4474 89bd
00000320: ebde b6bc 3d34 043e 5639 e33b e601 463d
00000330: e737 babd 493b 22be df3f c3bd e1ca 00be
00000340: 8ce4 893d efda d83c 0dea 6e3d a03b d5bb
00000350: 3384 703d 7755 aabd 35c5 7ebd 5d82 f33d
00000360: 9863 db3c deaa 903d 0d17 663d e948 4fbe
00000370: 8a94 6cbb 6a26 d3bc f01d 4abd 564e e63d
00000380: f56a fd3b cb4f ea3d 2c1d 903c 6c15 25be
00000390: 22af 5dba 9284 7bbd e33c 363e 87e3 823d
000003a0: 5eee 0f3d 0d3b 2cbe 7b06 27be 4dd4 bdbc
000003b0: e9da 32bd 7712 aebd 8913 bfbd cfd7 093e
000003c0: 5eb9 253e 5540 fabd 5fd2 abbd 45bf e13d
000003d0: 0375 27be b4d9 24bd 3d59 1b3d dd2e fa3d
000003e0: 6117 53bd 0e78 26be fed9 c9bd efc3 0cbe
000003f0: 2bd4 82bd eba4 2cbe e4e5 ac3d fa5b 5ebe
0.15052304 -0.039407473 0.022244016 0.06523897 0.114548035 0.110215604 0.0026458504 0.0037128667
0.09487886 -0.15451762 0.0588868 -0.09756048 -0.091574945 -0.09583841 0.06903023 -0.01127831
-0.078925185 -0.072578624 0.058292113 0.034413945 -0.08428957 -0.020603145 0.028937945 -0.13901038
-0.11231907 0.16031712 0.15603383 -0.05281512 0.014600183 -0.10389892 -0.17025329 0.03267427
0.032496292 -0.21360585 -0.043397073 -0.12660244 0.06403071 -0.06432975 -0.16097288 -0.175267
0.1504571 -0.04297175 0.08642138 0.1342692 -0.020755615 -0.13301353 -0.06361121 0.13858832
0.20526987 -0.016513094 -0.04067677 0.09484725 0.118167214 -0.040503133 -0.12196707 -0.109465204
-0.198752 0.030197056 -0.11748635 -0.021888305 0.006785169 0.21011388 -0.06297316 -0.03970408
-0.05996832 0.07680563 0.15932646 0.15156949 0.18371323 -0.19807966 -0.004408992 -0.1357253
0.18635176 0.08566589 -0.0034900873 -0.060939815 -0.02551872 0.18847562 0.07983315 0.10303801
-0.045481693 0.012356427 0.13607709 0.079268456 0.18461525 0.16204894 0.052430917 0.116238594
0.0063506817 -0.068960875 0.03806797 -0.19418481 -0.064835876 -0.10926508 -0.039651852 -0.15923284
-0.15913576 -0.109184615 0.097596765 0.048363756 0.11885707 -0.15694779 -0.09600222 0.05396148
0.14082135 0.10791217 0.017807448 0.08739389 -0.108263396 0.045723718 -0.10655066 -0.09434739
0.14036964 -0.068859465 0.19029118 -0.18679741 0.09435287 0.10264268 -0.122194216 -0.038247574
0.06213603 0.12120752 0.05113769 -0.1490119 -0.09677451 -0.15390241 -0.112720184 0.12140064
0.08758698 0.08090955 0.025257684 -0.0458386 0.14504603 0.13666798 0.13006468 -0.056218013
-0.17392267 0.09779621 0.13291755 -0.08013487 -0.10956054 -0.063712105 -0.06245346 0.17056091
0.080188446 -0.097040184 -0.007829202 0.016497465 0.02752246 -0.0035994228 0.0781808 -0.13876303
-0.0053383466 0.13195148 -0.03130956 0.11576062 -0.05927864 -0.087727234 -0.077414736 -0.00450302
-0.038515303 0.08784109 0.021998085 0.07726645 0.01825781 0.023080211 0.068164445 -0.13874298
0.008618799 -0.1827008 -0.13786559 0.10526564 0.20448744 0.042388294 -0.06634103 0.017313978
-0.1255314 -0.1019154 -0.113040105 0.2004777 -0.14039683 0.021141104 0.08681068 0.13210589
-0.13610901 0.15745622 -0.045775 0.0078086425 0.17893028 0.028024262 0.099826716 0.03488403
0.059943404 0.01727391 0.04863455 -0.03430744 -0.150157 -0.12917121 -0.05400088 -0.06711629
-0.022323092 0.12910552 0.006934325 0.048341654 -0.09092694 -0.15842928 -0.09533667 -0.12577392
0.06733045 0.026471583 0.058328677 -0.006507352 0.058719825 -0.083170824 -0.06219979 0.11890099
0.026780888 0.0706384 0.056174327 -0.20242657 -0.0036099278 -0.025775153 -0.049344957 0.1124541
0.0077336975 0.114410006 0.017592035 -0.16121453 -0.0008456578 -0.061405726 0.17796664 0.06391054
0.035139434 -0.16819401 -0.16311066 -0.023172522 -0.0436658 -0.08499616 -0.09329898 0.1346123
0.16183993 -0.122193016 -0.083897345 0.1102281 -0.1635323 -0.04024668 0.0379269 0.1221597
-0.051535968 -0.16256735 -0.09856032 -0.13746618 -0.06388124 -0.16859786 0.08442286 -0.21714774

encoder_lstm2.bias_ih_l0 f4 [128]
00000000: 1448 08be 9d43 0d3e 7a4e 0d3e 734c 843d
00000010: dac7 2a3e f4ab c6bd 43fd 8d3d f624 ec3d
00000020: fa9a 823d ebfd 93bd 6289 4e3d 6408 e83c
00000030: 04c1 fd3d ffe2 6b3d b693 f7bd 35df b33d
00000040: 2516 86bd d819 0bbe 047f da3d c8cb 133d
00000050: f506 583c cfd4 043e efb9 623d d25e 24bd
00000060: 93ce eabc 1721 41bd 4bd6 973c 0683 6d3c
00000070: 3a49 03bd f09a 15be df38 683c 0f7c 2b3e
00000080: f34d 2bbe 3821 a8bd 060e 44bd 1950 ccbc
00000090: 8c57 463d 7f6c 10be 1b45 ce3d a3df f03d
000000a0: b528 e5bc e240 243e 4bda 353e 2010 73bd
000000b0: acd9 3d3e 43df acbd 5e15 0ebe 3b24 debc
000000c0: 474e 093e e2ef d8bd 7703 2e3e e954 df3d
000000d0: 871a c73d a9bf 2a3e b615 1a3d f4e2 22be
000000e0: d4fe ba3c 5894 22be 715e 75bd 77c6 d73d
000000f0: 2117 213e c3c5 06be df6f d7bd 1770 9abc
00000100: 44b9 d2bd 8093 8f3d cbb0 113d dce9 8cbd
00000110: bd03 f9bd 2045 8f3d a6bd 07be bbb6 9abc
00000120: 7826 ffbd b7f3 f7bd 5dbf 05be 2704 5ebd
00000130: adf7 2c3e e200 b1bd fcb4 95bc ffb5 e13d
00000140: 95b0 cf3d 4b4c babd 38dc c93d d72a e5bc
00000150: 8387 96bd c203 2cbe 1543 de3d 18ff 30be
00000160: b3f5 09be 0369 1abe 2d4e 333c 843b adbd
00000170: 1687 063e 8f07 e93d a019 a1bd 02d6 673d
00000180: dd3e 9f3b 4ffb 773d 5db0 e9bd cbc7 133d
00000190: d6d2 56bd b7f7 3f3d 5daf 75bc 3ab6 3b3e
000001a0: 8fd7 693c 3dc4 aa3d 08da b5bd 6c8c 253b
000001b0: 9283 01be 2c29 0f3d 2d4d 7b3d 0e6a 1e3e
000001c0: a0d3 9a3b 1fbd 253e 8bf4 a33c 322b 55bb
000001d0: 2468 1e3e 35c7 263e a3fb ba3d 0853 ae3d
000001e0: 56aa 49bd a258 bdbd aa09 423e 8168 063e
000001f0: 9bdf e33d 1537 cfbd 9544 d63d 6651 783d
-0.13308746 0.13795324 0.13799468 0.06459894 0.166778 -0.09700766 0.069330715 0.11530487
0.06377216 -0.072261654 0.050423987 0.028324313 0.123903304 0.057589527 -0.120887205 0.08782808
-0.065471925 -0.13584077 0.106687576 0.036083013 0.013185252 0.12971805 0.0553531 -0.04012949
-0.028662955 -0.047150698 0.0185348 0.01449657 -0.032052256 -0.14609885 0.014173715 0.16746543
-0.16728954 -0.08209461 -0.047864936 -0.024940537 0.048423335 -0.14103888 0.100717746 0.11761405
-0.027973512 0.16040376 0.17759053 -0.05934155 0.18540066 -0.08441021 -0.13875338 -0.027116885
0.13408767 -0.10592629 0.16993509 0.10904867 0.097218566 0.16674675 0.03761836 -0.15906888
0.02282659 -0.15876901 -0.05990452 0.10535901 0.15731479 -0.13161378 -0.105193846 -0.018852277
-0.10289243 0.07010555 0.035568994 -0.06880543 -0.12158916 0.069956064 -0.13255939 -0.01888596
-0.12458509 -0.12107032 -0.1306128 -0.05420318 0.16891356 -0.086427465 -0.018274777 0.11021041
0.10141102 -0.09096583 0.098564565 -0.02797453 -0.073500656 -0.16798308 0.10852639 -0.1728481
-0.13472633 -0.15079121 0.0109439315 -0.08458617 0.13137469 0.11378395 -0.07866216 0.056600578
0.004859789 0.0605424 -0.11410592 0.03607921 -0.052447163 0.0468671 -0.014995423 0.18331233
0.014272585 0.08338211 -0.08879477 0.00252607 -0.12647846 0.034951374 0.061352897 0.15470144
0.0047249347 0.16185425 0.020014068 -0.0032526967 0.15469414 0.16286929 0.09130027 0.08511931
-0.04923471 -0.09245421 0.18948999 0.13125803 0.11126634 -0.10117928 0.104623 0.060624503

encoder_lstm2.bias_hh_l0 f4 [128]
00000000: 7da5 fabd ad4b 10be ac07 b9bd bdf6 6f3d
00000010: 39da 2c3d b242 8e3c d95b b0bd 225e 043e
00000020: 18c3 febd f410 f2bd b70c 1f3e 5692 233e
00000030: 73d8 17be 7880 7cbd 4327 6d3d 8b87 083e
00000040: 5967 c8bc bdcc 143d cc4a 503e 8f9b 5c3d
00000050: 6e3a cd3b 6733 02be 4fcc 5abd 00d6 523c
00000060: de71 a8bd 215f 3bbe 9c0e 06be 6007 433e
00000070: 8888 f93d 2771 193a 60fd 423b 2fea 7cbd
00000080: 8618 2c3d 4709 e2bd f672 01bc 74b4 f63d
00000090: 2565 d9bd dbc3 33be 0d59 ff3d a60b 6d3d
000000a0: c1ac 3f3e d62c b3bd 5574 c63d bb00 acbd
000000b0: 7ff4 28be 1a49 813c 9e48 dfbd a0da 873d
000000c0: d7c1 14bd f8fb a33d 95bb 493e bb67 8abc
000000d0: e9a8 a6bd 66b1 cbbd def9 12be 8da4 5abd
000000e0: 8915 a53d 1885 0b3d 039e a2bd ae3b 58bd
000000f0: e565 853d 9f72 c83d fd1c 8bbc 1e02 b03d
00000100: 2b7e 9dbb 3540 1e3e 5781 92bd aefa fcbd
00000110: 43d6 8d3d 87ea 173e 7544 47bd 265f 51bd
00000120: c24b 11be b2b4 193d c2f9 123e 8013 2d3e
00000130: 8c8b 74bc 1490 883d 62ac 21bd 1500 a83d
00000140: d8d5 87bd 5062 0b3d 90e7 d03d 8364 15be
00000150: 7129 d4bd c4fd 60bd 418a b73d 8057 f73c
00000160: fc7c 353d 1b75 2bbc bc69 943d 304f d13d
00000170: da83 b83d 2b1f df3d d3aa 2b3d 7b15 85bc
00000180: c6b9 073e 647b a8bd 913c 5fbd 8eec a2bc
00000190: 0750 213e 9ba8 2cbd b5a1 2ebe 24d9 273e
000001a0: 3d78 abbc dad0 c03d 98df b73d ad65 08be
000001b0: d66d 0dbe 9116 fd3d 41f5 733d 45f1 c7bd
000001c0: 81c2 fcbd 694d 0f3d eb0d 503d e75c 563d
000001d0: dac2 243e 69b2 3bbe 50a5 76bd 1e45 9f3c
000001e0: 1776 1abe 4a77 a43d 7996 b5bd c48e 4a3e
000001f0: df84 e0bd 9853 cebd 256f b73d 57cc 2e3e
-0.12238596 -0.14091368 -0.090346664 0.058584917 0.0422003 0.017365787 -0.086112686 0.12926534
-0.12439555 -0.1181964 0.15532194 0.15973791 -0.14828663 -0.061645955 0.05789877 0.13332956
-0.024463343 0.036328066 0.20341033 0.05385929 0.006263069 -0.12714921 -0.0534175 0.012868404
-0.082248434 -0.18298008 -0.1309151 0.19045782 0.121842444 0.0005853348 0.0029753074 -0.061746772
0.042015575 -0.11036926 -0.007900944 0.120461375 -0.10614995 -0.17555182 0.12468157 0.057872437
0.18718244 -0.08748786 0.09690157 -0.08398577 -0.16499518 0.015781928 -0.109025225 0.06633496
-0.036317673 0.080070436 0.19700463 -0.016895166 -0.08137686 -0.099459454 -0.1435313 -0.053379584
0.08060748 0.034062475 -0.079402946 -0.05279129 0.065135755 0.09787487 -0.016981596 0.08594154
-0.0048063 0.1545418 -0.07153576 -0.12352501 0.06925633 0.14835559 -0.04864927 -0.05111613
-0.14189056 0.03752584 0.14353088 0.1690197 -0.014925849 0.06668106 -0.039471038 0.08203141
-0.06632584 0.034029305 0.10200417 -0.14589123 -0.10359467 -0.05492951 0.08961917 0.03019309
0.044308648 -0.010464932 0.0724673 0.10220182 0.09009524 0.10894617 0.041910958 -0.016245594
0.1325446 -0.0822666 -0.05450112 -0.019888189 0.15753184 -0.042152982 -0.17053874 0.16391426
-0.020931358 0.09414835 0.08978194 -0.13320036 -0.1381143 0.1235782 0.059560064 -0.097628154
-0.12341786 0.034985933 0.050794523 0.052334692 0.16089955 -0.18329777 -0.060216248 0.019442137
-0.1508411 0.08030565 -0.08866591 0.19781023 -0.10962843 -0.10074538 0.08956746 0.17070137

encoder_fc.weight f4 [16, 32]
00000000: 7a32 8d3d cbe8 20be b84a a83d 4368 f43d
00000010: c7ac 35be 56f5 10be 2c8c f03d 85d4 093b
00000020: c29e 04be 2608 f83b 5229 7a3d f438 0b3e
00000030: e5d2 aa3b cdef 1ebe 3c91 e4bd e7ab c1bd
00000040: dc35 203b efb5 8fbd 7ac1 9fbc b74c ab3d
00000050: 83ec e1bb 0e3b 333e ddb7 09be 5eca b93d
00000060: cc96 e23d 1c55 3d3d 2008 e43d 5242 10be
00000070: 2d9b 12be 2240 9cbd e91b debd 2cf0 58bc
00000080: 8b7d 28be f562 013e a805 dfbd 0ec6 d9bb
00000090: 7c1f 57bd d368 31be 4ac7 023d 619b 5fbc
000000a0: 0728 c4bd e220 c5bd 51de 3ebc 684e 073d
000000b0: 810f 7dbb 7df6 e13d e419 133e 32b8 57bd
000000c0: 932a 0b3d 65ac 5e3d 3a08 1ebe d80e d0bc
000000d0: 6288 e6bd 02a0 283e 0e2f c73d 7f8e b5bd
000000e0: 6dab 7bbd 6bdd 1f3d d9e5 bf3c fb9b 093e
000000f0: e3cc e1bb 1eba 5cbd e600 aebd 709b 8c3c
00000100: 0fdf febc 3a9f ce3d 31fa cd3d 34c9 eebc
00000110: c9ac d5bd d3fc 08be bbe2 b33d e36a 293c
00000120: 95a5 9cbc 63f8 6cbb 1349 0dbe b983 1c3e
00000130: 5dee 0d3b 3b86 213e 996b 613d 183c b93d
00000140: 99e6 8abd 1766 d0bd 3e62 f33c 3fc9 043e
00000150: 95c8 21be 8e5e f4bd e951 d6bd e567 773d
00000160: d534 3d3e bc7e 213c 2be6 4c3c 5a04 0bbe
00000170: 0878 9c3d d760 16bb 1963 b4bc 327c 82bd
00000180: 8596 aa3c 999a febd e476 de3d 45a7 93bd
00000190: be85 e83d 4319 0ebe 5909 a83d 8d41 d43c
000001a0: 989e e83d 8e07 813d 1974 3cbe 5917 8d3d
000001b0: b28a 9bbd 0afd 64bd 3092 37be 47cd c9bc
000001c0: 6e1b 6fbd 6318 5cbd dc7c f1bb f0ff ad3d
000001d0: 646d 2fbe 2ae4 ca3d 5bff 2bbe a977 213e
000001e0: f2bf 953d c9ec fa3c 8620 0dbe b06d 21be
000001f0: 7fbc 4cbe 42cd 273d ea24 23bd c399 ed3d
00000200: 3fbf 193e e2a2 e73d 7e9f ce3d cc36 4a3d
00000210: bf8e a0bd 8098 d3bc 3f9b 223e ecf1 803d
00000220: 4c54 f3bd 78cd adbd d93f 2dbe d027 3abc
00000230: 3a15 d6bd 4f7b 053e c07d 463c 9600 02be
00000240: ac45 8d3d f910 313e c05e 753c 354f bbbd
00000250: 369d f4bd f81d 0ebe ff9a 2d3e fb2d 083e
00000260: 8312 2f3e 9d4b 133e a838 823d 8c91 3fbd
00000270: c02f 993c b012 0a3c 7bd8 c0bd 23bc 103e
00000280: a4ca ebbb ced8 e13d 6621 5c3d ba7f 31be
00000290: a532 893d 2b7c 293e 0e6d 873d 6aa9 ea3d
000002a0: 97ab a8bd b33a 453d 3ad9 4d3e 0ae2 f4bd
000002b0: f720 52bd 75d3 0abe a2b9 053e 967b d63d
000002c0: fb55 a3bd 15b0 ec3b 7f27 4d3e 7261 35bd
000002d0: c5aa 903d 3d49 8e3d 67e1 043d bde4 acbd
000002e0: 5d33 c73d 6073 233e 55bc 003e 4e4b 833d
000002f0: fc21 8c3d 07a6 f23d e523 f4bd e3ba cf3d
00000300: be04 3f3e ffeb 71be eaba 7c3d ef3f 3bbd
00000310: e7c0 acbd 09bf 00be e2b2 53bd 592d 47be
00000320: c4f7 84bd 8a69 46be 61c4 49bd 8a58 083a
00000330: f291 453e f1ba 6cbe 8a2a f8bd 24bb f43d
00000340: 51fd 303e 5830 eabd 9764 7ebe 800b 243e
00000350: 260d 4bbe f84e 2b3d b43d 563d 1100 aebd
00000360: 3e8c c33b 3ad6 b43d 1c46 79be 5a48 f43c
00000370: 1fe5 073e b36a 1a3e df22 2e3e f2dc 7e3d
00000380: e11f 5e3d 8322 aa3d f08d 1e3e 0e40 edbc
00000390: 72bc bc3d 5a35 df3d 8ff6 11bd 91ed 19be
000003a0: a5ba b0bd adc4 b13c 5458 5abc 6a59 173e
000003b0: b394 a53d f146 ad3d b188 9a3d 120a a4bd
000003c0: ab37 4abc ee15 a9bd 0b55 f83d 2499 a03d
000003d0: eb19 db3c ed8d d53d 3bb3 0abe 1f8d fa3d
000003e0: 3257 fa3d 4a2d a93c e132 813d eec7 48be
000003f0: 6818 1b3e 05c3 13be 8ed1 8dbc a7cd 483d
0.06894393 -0.15713803 0.082173765 0.11933949 -0.1774169 -0.14156088 0.11745486 0.0021031213
-0.12951186 0.0075693307 0.061074562 0.13595945 0.005213129 -0.15521164 -0.11160514 -0.09456616
0.0024446165 -0.07017123 -0.019501437 0.083642416 -0.0068946495 0.17502996 -0.13449045 0.090718016
0.110639185 0.046223745 0.11134362 -0.14087799 -0.14317007 -0.0762942 -0.10845167 -0.013240855
-0.16454141 0.12635405 -0.10889751 -0.0066459244 -0.05252026 -0.17325144 0.031928338 -0.013647885
-0.09577947 -0.096254125 -0.011649684 0.03303376 -0.0038613977 0.11033342 0.14365345 -0.052665897
0.03397615 0.054363627 -0.15432826 -0.025397703 -0.11256482 0.16467288 0.09725772 -0.088650696
-0.06144278 0.03902952 0.02342503 0.13438408 -0.0068908795 -0.053888433 -0.08496265 0.017163962
-0.031112222 0.10088964 0.10057486 -0.029148676 -0.10433347 -0.13377695 0.0878348 0.010340425
-0.019121924 -0.0036158792 -0.13797407 0.15284623 0.0021656968 0.15773861 0.055034254 0.09044665
-0.06782264 -0.10175722 0.029709931 0.12967394 -0.15799172 -0.119320974 -0.10464842 0.060401816
0.18477185 0.009856876 0.012506048 -0.13575879 0.07640082 -0.0022945905 -0.02201991 -0.063713446
0.020823726 -0.12431831 0.1086252 -0.072096385 0.11353634 -0.13876824 0.08204908 0.025910163
0.11358374 0.06300269 -0.18403663 0.06889219 -0.075948134 -0.05590538 -0.1792686 -0.024634017
-0.05837577 -0.053734194 -0.0073696207 0.08496082 -0.17131573 0.099068 -0.16796629 0.15768303
0.07312001 0.030630486 -0.13781938 -0.15764499 -0.1999378 0.040967233 -0.039830126 0.11601593
0.15014361 0.11310364 0.100890145 0.049368665 -0.07839727 -0.025829554 0.15879534 0.06296143
-0.11881313 -0.08486456 -0.16918887 -0.011362031 -0.104532674 0.1303532 0.012114942 -0.12695536
0.068980545 0.17291631 0.014976203 -0.09145967 -0.11944048 -0.1387862 0.16953658 0.1329879
0.17096905 0.14384313 0.063584626 -0.046769664 0.018699527 0.008427307 -0.094162904 0.14134268
-0.0071957875 0.1102768 0.05374279 -0.1733388 0.06699113 0.16551273 0.066125974 0.114580944
-0.08235853 0.048151683 0.20102397 -0.11957176 -0.05130097 -0.13557227 0.13059095 0.10472791
-0.07975384 0.007223139 0.20034598 -0.044282384 0.07063822 0.06947563 0.032441523 -0.08442066
0.09726594 0.15961981 0.12571843 0.064108476 0.068424195 0.118480735 -0.11920909 0.10143068
0.18654153 -0.23625182 0.061701693 -0.04571527 -0.08435231 -0.12572874 -0.051684268 -0.19450893
-0.0649257 -0.19376197 -0.049259547 0.00052011816 0.19293955 -0.23118187 -0.12117489 0.11949757
0.17284133 -0.11435002 -0.2484306 0.16020012 -0.19829234 0.041823357 0.05230494 -0.084961064
0.005967646 0.08829923 -0.24343151 0.029819656 0.13270997 0.15079765 0.1700549 0.06222243
0.05422962 0.08307364 0.15483832 -0.028961208 0.092156306 0.10898848 -0.035635527 -0.1503203
-0.086293496 0.021700228 -0.013326723 0.14780203 0.08085003 0.084607966 0.07545603 -0.08009733
-0.012342374 -0.08256136 0.12125596 0.07841709 0.026745757 0.10427461 -0.13544933 0.12233948
0.122236624 0.020651478 0.063085325 -0.19607517 0.15146029 -0.14429863 -0.017311838 0.04902425
