backend/models/WH001_SKU-010.pth (torch, 830897 bytes, 13 tensors)

lstm.weight_ih_l0 f4 [512, 6]
0	0x3dc10c8c	0.09426221
1	0x39e7971b	0.00044172336
2	0x3db6e507	0.08930402
3	0xbd55f432	-0.052234836
4	0x3dad748f	0.084694974
5	0x3dc96010	0.098327756
6	0x3dc38e21	0.09548593
7	0x3d28d0df	0.04121482
8	0xbc370d07	-0.01117254
9	0x3dc4cae1	0.096090086
10	0x3b416912	0.002951209
11	0x3d764670	0.06012577
12	0x3d825261	0.06363369
13	0xbd8c9577	-0.06864446
14	0xbcdaa735	-0.026691059
15	0x3db82214	0.08990875
16	0xbd7d8bd2	-0.06190092
17	0x3b91f993	0.0044548004
18	0x3d57049d	0.052494634
19	0x3d73e9ca	0.05954913
20	0x3d7e9d7c	0.062161908
21	0x3c979474	0.018503405
22	0x3cd9f7a8	0.02660735
23	0xbc2e958b	-0.010655771
24	0xbd01ecee	-0.031720094
25	0x3d751dba	0.059842803
26	0xbbe95d62	-0.007121728
27	0x3b963e0d	0.0045850337
28	0x3bdfeaa7	0.0068333927
29	0x3c888d94	0.016669072
30	0x3db7f1be	0.089816555
31	0xbd116967	-0.03550091
32	0x3da52892	0.08064379
33	0x3cd86173	0.026413655
34	0x3dd1ea95	0.10249821
35	0x3db93421	0.09043146
36	0x3bb836b1	0.005621754
37	0x3d881867	0.066452794
38	0xbd63277e	-0.055457585
39	0x3c88ba46	0.016690385
40	0x3cb5983f	0.022167323
41	0x3cb68f39	0.02228509
42	0x3d9a02d7	0.07520073
43	0x3abffaa5	0.0014646841
44	0x3d6782de	0.05652129
45	0x3d8a9e9e	0.06768535
46	0x3d6dfb6c	0.058101103
47	0x3d3d47e2	0.04621113
48	0x3d9829aa	0.07429822
49	0x3dabb0e9	0.08383352
50	0x3dc5cb59	0.09657926
51	0x3dd8e951	0.105913766
52	0xbce867cf	-0.028369812
53	0xbb4f032b	-0.0031587582
54	0x3dd3a0cb	0.10333403
55	0x3d643f52	0.05572445
56	0x3d76574c	0.060141847
57	0xbd7fdcf4	-0.062466577
58	0xbd3c013e	-0.045899622
59	0xbd9c7e90	-0.076413274
60	0x3cf0d4f5	0.02939842
61	0xbd2bd0c9	-0.04194716
62	0x3d80291c	0.06257841
63	0xbd3dd15a	-0.04634223
64	0xbd785833	-0.06063099
65	0x3db4b932	0.08824386
66	0xbd100a9f	-0.03516638
67	0x3d6f732f	0.058459457
68	0x3dc46465	0.09589461
69	0x3d4ca5eb	0.04996292
70	0x3dd3bcbb	0.10338732
71	0x3cc7985b	0.024364641
72	0x3d5e2345	0.054232854
73	0x3ce16f5f	0.027518926
74	0x3da06a77	0.078328066
75	0x3cd5a3d7	0.026079101
76	0x3d82e8d5	0.063920654
77	0xbd73a612	-0.05948455
78	0x3dada215	0.0847818
79	0x3cf4e9d8	0.029896662
80	0x3dbe761c	0.09299871
81	0xbd024ffb	-0.031814557
82	0x3da56bca	0.080772
83	0x3d00e7f8	0.031471223
84	0x3a958cb5	0.0011409732
85	0xbc468cb2	-0.012118505
86	0x3dce6a40	0.10078859
87	0x3dc52afd	0.0962734
88	0x3d35a756	0.044349037
89	0x3d5c22ba	0.053744055
90	0x3d00dfe8	0.031463534
91	0x3dd939bb	0.10606714
92	0xbd521158	-0.05128607
93	0xbd5a18ce	-0.05324631
94	0x3d491b48	0.049098283
95	0xbcab152a	-0.020884115
96	0xbc32db2b	-0.0109165115
97	0x3cd9ba62	0.026578132
98	0xbd8cef1a	-0.068815425
99	0x3d7a43db	0.06109987
100	0x3b5d5ac2	0.003377602
101	0x3c657f26	0.014007365
102	0x3d7b555b	0.0613607
103	0xbcdb284a	-0.02675261
104	0x3dc26567	0.09491997
105	0x3d87bbcd	0.06627617
106	0xbd1993b0	-0.03749436
107	0xbd33d496	-0.04390391
108	0xbd6d0e92	-0.057875223
109	0x3d965a51	0.07341445
110	0xbd1211d7	-0.035661545
111	0xbcd4c53c	-0.025972955
112	0xbbf0e2bc	-0.0073512476
113	0xbc0e1252	-0.00867136
114	0x3be40ccd	0.006959534
115	0x3c11eb0e	0.008906139
116	0xbd27fe87	-0.04101422
117	0x3c4d0347	0.012512988
118	0xbd622051	-0.0552066
119	0x3dd47d69	0.103754826
120	0x3d88a2bc	0.06671664
121	0x3dd73891	0.10508836
122	0x39b9fa08	0.00035472238
123	0xbca7854c	-0.020449303
124	0xba472671	-0.0007596976
125	0x3cab773b	0.020930877
126	0xbcf82950	-0.030293137
127	0x3dcdfdb0	0.10058153
128	0x3dae8e76	0.08523266
129	0x3dba0734	0.09083405
130	0x3a241a77	0.0006260047
131	0x3d1f8b30	0.0389511
132	0x3dc1bc8f	0.09459793
133	0xbc47d8d4	-0.012197692
134	0x3ddcf6a2	0.10789229
135	0x3caaa6dd	0.02083152
136	0x3d9d672a	0.076856926
137	0xbd844c7c	-0.06459901
138	0xbd43d8f5	-0.04781433
139	0x3d895a1f	0.06706642
140	0xbb47c6f4	-0.0030483576
141	0x3d13aae7	0.036051657
142	0xbafa5f19	-0.0019101828
143	0xbc8bba31	-0.017056556
144	0x3d9f08a8	0.07765323
145	0xbbee3c15	-0.007270346
146	0x3c954d5f	0.01822537
147	0xbbfb4b04	-0.0076688547
148	0xba66e408	-0.0008807783
149	0x38fb1267	0.000119720404
150	0x3d308fca	0.043105878
151	0xbc85f750	-0.01635328
152	0x3be75d8a	0.0070607113
153	0xbc88f0b3	-0.016716337
154	0xbccf92ac	-0.025338493
155	0xbc603a0b	-0.0136857135
156	0x3d133b65	0.035945315
157	0x3bb9389a	0.0056524994
158	0x3d066629	0.03281227
159	0x3c2e1131	0.010624216
160	0x3c2f314b	0.010692905
161	0x3d175eb9	0.03695557
162	0xbd17efdb	-0.03709398
163	0x3c5aef0a	0.013362655
164	0xbd05cc6c	-0.032665655
165	0x3c967218	0.018364951
166	0x3d081ecc	0.033232495
167	0x3d909098	0.07058829
168	0x3ce0e868	0.02745457
169	0x3db8ba52	0.09019913
170	0x3d3597b5	0.044334132
171	0x3ce88ee2	0.028388444
172	0xba945dc0	-0.0011319444
173	0xbd0f0c56	-0.034923874
174	0x3d4fdb76	0.050746404
175	0xbd7d3783	-0.06182052
176	0x3dbfec47	0.09371238
177	0x3d81034b	0.06299456
178	0x3d95f055	0.0732123
179	0xbbacb775	-0.005270893
180	0xbc9661a2	-0.018357102
181	0xbb405c27	-0.0029351802
182	0x3d9203c8	0.071296275
183	0x3d36ba07	0.044611003
184	0xbd36af82	-0.04460097
185	0x3d1f4794	0.03888662
186	0xbd408cdd	-0.047009338
187	0x3d83b044	0.064301044
188	0x3cd40521	0.025881352
189	0x3cb45cc8	0.022016898
190	0x3ddd6993	0.10811152
191	0x3c81af44	0.015830643
192	0xbd44a11a	-0.0480052
193	0x3c3df4d2	0.011594014
194	0xbcd877a0	-0.02642423
195	0x3de1479b	0.10999986
196	0x3d987407	0.074440055
197	0x3de60832	0.11232032
198	0x3dac14f5	0.08402435
199	0xbd0507b4	-0.03247805
200	0x3c1fe587	0.009759313
201	0xbd0d5e24	-0.034513608
202	0x3da305d4	0.07960096
203	0xbd126fef	-0.03575128
204	0xbd83a907	-0.06428724
205	0xbb95da7f	-0.004573166
206	0x3cc5508d	0.024086261
207	0x3c9dc91f	0.019260941
208	0x3d9da6b9	0.076978154
209	0xbcb50a46	-0.022099625
210	0xbcdaa4ca	-0.026689906
211	0x3d906e11	0.070522435
212	0xbd745256	-0.059648834
213	0x3d548052	0.05188019
214	0x3d395a2d	0.045252014
215	0x3c887cb1	0.01666102
216	0x3d8b6c36	0.06807749
217	0x3d4823f2	0.048862405
218	0x3dd2cdfb	0.10293194
219	0xbc4c2a43	-0.012461248
220	0xbd863d5d	-0.06554673
221	0xbd7ac2e0	-0.061221004
222	0x3da5ea1f	0.08101296
223	0xbcd6b505	-0.026209364
224	0x3dbe7bba	0.09300943
225	0x3cc77988	0.024349943
226	0xbd422243	-0.047395956
227	0x3d809290	0.062779546
228	0x3db197d5	0.08671538
229	0x3d69c30a	0.05707077
230	0xbcd67b39	-0.026181804
231	0xbc873a3f	-0.016507266
232	0xbc08c40f	-0.008347525
233	0x3d279f8c	0.04092364
234	0x3dd2332d	0.10263667
235	0x3c8ec777	0.017429097
236	0x3b1a9827	0.0023589225
237	0xbd8654e0	-0.06559157
238	0xbce30ddd	-0.027716571
239	0xbd10240e	-0.035190634
240	0x3b829a87	0.0039857063
241	0xbd5028d1	-0.050820176
242	0x3c4b3d22	0.012404712
243	0x3de6e8c2	0.11274864
244	0xbcdee4e1	-0.027208747
245	0x3c024d77	0.007953039
246	0x3c854c3c	0.016271703
247	0xbc1f504b	-0.009723733
248	0x3cd65786	0.026164781
249	0x3b8f882b	0.004380246
250	0xbd220268	-0.039553076
251	0x3b5ec5d6	0.003399243
252	0xbcac3805	-0.021022806
253	0x3d82ee1f	0.06393074
254	0x3c9e9acb	0.01936092
255	0xbc038805	-0.008028035

lstm.weight_hh_l0 f4 [512, 128]
0	0x3dbe90d8	0.093049705
1	0x3c7e880c	0.015535366
2	0x3daad8ba	0.083421186
3	0x3d667a1f	0.056268808
4	0x3d9657a1	0.07340933
5	0xbdc4d961	-0.09611774
6	0x3d869e34	0.065731436
7	0xbd1433da	-0.036182262
8	0x3c606847	0.013696737
9	0xbd841173	-0.06448641
10	0xbd31ff51	-0.04345638
11	0xbd650dcb	-0.055921357
12	0xbc05bf3b	-0.008163269
13	0x3ce53a89	0.027982013
14	0xbce8268e	-0.028338697
15	0x3b1ec9ec	0.0024229242
16	0xbd2421f5	-0.040071446
17	0x3d237056	0.039902054
18	0xbd83b1ad	-0.06430373
19	0xbd543c69	-0.051815424
20	0xbddc3f0b	-0.10754212
21	0xbbacec52	-0.005277195
22	0x3d539463	0.051655184
23	0x3d150dde	0.036390178
24	0xbd2c837c	-0.04211758
25	0xbcc3f9df	-0.023922859
26	0x3d797652	0.060903855
27	0xbcd1e867	-0.025623513
28	0xbc7e05e5	-0.015504335
29	0xbd7ef1df	-0.062242385
30	0x3dcbf6a8	0.09959155
31	0xbcd2a2ac	-0.025712334
32	0x3d08c48d	0.03339057
33	0xbd3f9d92	-0.04678113
34	0x3d842926	0.06453161
35	0xbd302ae3	-0.04300965
36	0x3dc356b0	0.09538019
37	0xbd27e7f8	-0.040992707
38	0x3da0df7b	0.078551255
39	0xbd0c8b3c	-0.03431247
40	0xbda63db7	-0.0811724
41	0xbd5ab2c0	-0.053393126
42	0xbd1be227	-0.038057473
43	0x3d1c0383	0.038089287
44	0xbd13a4fa	-0.036046006
45	0xbd5d1aa5	-0.05398049
46	0x3dc98857	0.09840458
47	0x3db3dccd	0.08782349
48	0x3d6ee53a	0.058324076
49	0xbc60610c	-0.013695013
50	0x3d052c9c	0.032513246
51	0x3d287677	0.041128602
52	0xbc559068	-0.013034917
53	0xba3b14fa	-0.00071366096
54	0x3dc88d8d	0.09792624
55	0xbcdd79d0	-0.027035624
56	0xbcf210b1	-0.029548975
57	0x3d571ba8	0.05251661
58	0x3d46b9ca	0.048517026
59	0x3cbbd35d	0.022927934
60	0x3d803418	0.06259936
61	0xbd79bccb	-0.060971063
62	0x3b519806	0.0031981482
63	0xbc5f2e6c	-0.013621908
64	0xbd8823d6	-0.0664746
65	0xbd1396c8	-0.036032468
66	0xbcd5fc64	-0.026121326
67	0xbdc3b000	-0.09555054
68	0x3d714136	0.05890008
69	0xbd201c44	-0.039089456
70	0x3d8446ca	0.064588144
71	0x3c852d3f	0.016256927
72	0xbb9f2d6c	-0.0048577096
73	0x3d818738	0.06324619
74	0xbc89fe84	-0.016844995
75	0x3d0649e3	0.032785308
76	0x3c1a9911	0.009435908
77	0xbd262c59	-0.040569637
78	0x3d281314	0.04103382
79	0x3d7a3c2b	0.061092537
80	0xbc2100ae	-0.009826822
81	0xbdaaa7bd	-0.08332775
82	0xbdbb279c	-0.09138414
83	0xbd3d8382	-0.046267994
84	0xbd8eb263	-0.06967618
85	0x3d086f47	0.033309247
86	0x3d453a86	0.048151515
87	0x3d66b880	0.056328297
88	0xbd9f5e80	-0.07781696
89	0xbd302453	-0.04300339
90	0x3d925a9f	0.07146191
91	0x3cb86137	0.022507293
92	0xbcba060c	-0.022707961
93	0x3bf147c9	0.007363294
94	0x3d4fd0ad	0.050736118
95	0xbd12fa78	-0.035883397
96	0xbd318c70	-0.043346822
97	0x3d9b845d	0.07593606
98	0xbc2a049a	-0.010377074
99	0xbdca91b9	-0.09891076
100	0x3d8153e5	0.0631483
101	0x3d8f5437	0.069984846
102	0xbcefa8e5	-0.02925534
103	0xbc3a1577	-0.011357657
104	0x3c63606b	0.013877968
105	0xbd2b2ac9	-0.04178885
106	0xbdb1f59f	-0.08689427
107	0xbcc4ada7	-0.024008585
108	0x3c9c0455	0.019045034
109	0xbd37bc58	-0.044857353
110	0xbd88cdbd	-0.066798665
111	0xbd723d7a	-0.05914066
112	0xbca9ae86	-0.020713102
113	0x3cb9ab12	0.02266458
114	0xbc6094cb	-0.01370735
115	0x3cf3e0d9	0.029770302
116	0xbd8771c8	-0.06613499
117	0xbda0ca77	-0.07851117
118	0xba9b216e	-0.0011835524
119	0xbd70a651	-0.05875236
120	0x3c333ff1	0.010940538
121	0x3dc6b3a9	0.09702236
122	0xbc29dd64	-0.010367725
123	0x3d8642c5	0.06555704
124	0xbce11fe2	-0.027481023
125	0xbbee9426	-0.0072808443
126	0x3c8c60af	0.017135946
127	0x3db8c0e9	0.0902117
128	0x3d00d0b6	0.031449042
129	0xbdd7c337	-0.10535281
130	0x3db0e911	0.08638204
131	0x3d8a8ada	0.06764765
132	0x3de19dde	0.11016439
133	0xbd31ca81	-0.043406013
134	0x3c9c4000	0.019073486
135	0xbd97125f	-0.07376551
136	0xbd643d09	-0.05572227
137	0x3a98d3f1	0.0011659843
138	0xbc9ece8e	-0.019385602
139	0xbc68b500	-0.01420331
140	0xbcb61833	-0.022228336
141	0xbd359e1e	-0.044340245
142	0xbce9af1e	-0.028525885
143	0x3cabcb63	0.020971006
144	0x3d725e3e	0.059171908
145	0xbc431e39	-0.011909061
146	0xbc7a3c65	-0.015273188
147	0x3d54b7db	0.05193315
148	0x3d1ec0df	0.038758155
149	0xbd8e2724	-0.06941059
150	0xbc9e751f	-0.019342957
151	0x3d34a038	0.04409811
152	0xbc9de078	-0.019272074
153	0xbdd318fc	-0.103075
154	0x3c9c58ac	0.01908525
155	0x3d733b10	0.0593825
156	0x3d8a91ba	0.067660764
157	0x3caf82e0	0.02142471
158	0x3d92708d	0.071503736
159	0x3ba33ba7	0.0049814763
160	0x3d2300ec	0.0397958
161	0xbd74c486	-0.05975773
162	0x3ddf0eca	0.10891493
163	0x3c9c8377	0.019105656
164	0xbb1513be	-0.0022747363
165	0xbcd62cec	-0.026144467
166	0x3d00b46c	0.031422064
167	0xbcf468a7	-0.029835058
168	0xbd504a33	-0.050852012
169	0x3bd5aba0	0.0065207034
170	0x3d4e06a0	0.050299287
171	0xbb30e3eb	-0.0026991318
172	0x3dce6520	0.10077882
173	0x3d79bccc	0.060971066
174	0x3d9fd920	0.07805085
175	0x3c8e84c0	0.017397285
176	0x3cd5afa0	0.026084721
177	0x3dd83924	0.10557774
178	0x3c89cd31	0.016821476
179	0xbbf0059c	-0.0073248874
180	0xbd458b74	-0.048228696
181	0xbce2ba79	-0.027676808
182	0x3d7c8152	0.061646767
183	0xbda8723d	-0.08224914
184	0xbdd4cebb	-0.10390993
185	0x3d42a9c3	0.04752518
186	0x3dcba4a0	0.09943509
187	0xbd067e8e	-0.032835536
188	0xbc904de9	-0.017615275
189	0x3d767eff	0.060179707
190	0x3cb475d3	0.02202884
191	0xbcc92f2f	-0.024558632
192	0x3d80081e	0.06251548
193	0x3cc938fc	0.024563305
194	0xbd689839	-0.056785796
195	0xbd92a6f2	-0.071607485
196	0xbd771790	-0.060325205
197	0xbd233f05	-0.039855022
198	0x3db73ea2	0.08947493
199	0x3d3f40f2	0.046692796
200	0xbdca2749	-0.09870774
201	0xbd23f222	-0.040025838
202	0xbd66b51c	-0.056325063
203	0x3da2ef3b	0.07955786
204	0xbd8d444e	-0.06897794
205	0xbdb71b3e	-0.08940743
206	0xbbb982c0	-0.0056613386
207	0xbdd2424b	-0.10266551
208	0x3d79098e	0.060800128
209	0xbd1a984f	-0.03774291
210	0xbd1d7fd0	-0.03845197
211	0x3d0b5d3d	0.034024466
212	0x3d6f7d3f	0.058469053
213	0x3cac810e	0.021057632
214	0xbd5224ec	-0.051304743
215	0x3cb8993e	0.02253401
216	0x3bf2c306	0.0074085025
217	0x3cb288a1	0.021793665
218	0x3b333000	0.0027341843
219	0x3cf39b2b	0.029737076
220	0x3d04b177	0.032395806
221	0xbc8f5602	-0.017497066
222	0xbcd1b9cd	-0.025601292
223	0x3c7df31a	0.015499854
224	0x3db2fd91	0.0873977
225	0x3d812204	0.06305316
226	0xbc095dad	-0.00838415
227	0x3d68cec0	0.056837797
228	0x3dcb91f2	0.09939946
229	0xbd3e47ab	-0.046455067
230	0x3dc3180d	0.09526072
231	0xbddaa2ee	-0.106756076
232	0x3da6de92	0.08147921
233	0x3d447d1f	0.047970887
234	0xbda13907	-0.07872205
235	0x3d6e042b	0.058109444
236	0xbb99eff9	-0.0046977964
237	0x3ca422a4	0.02003605
238	0x3ddd081e	0.10792564
239	0x3d4cd88b	0.0500112
240	0x3d92201a	0.07135029
241	0xbcd490d1	-0.02594796
242	0x3d4bc31a	0.04974661
243	0x3d1b176a	0.037864126
244	0xbd8227ea	-0.06355269
245	0xba9998ed	-0.0011718549
246	0x3b7563a2	0.003744342
247	0x3d4225ea	0.04739944
248	0x3cb37eec	0.021911107
249	0x3d6d189a	0.05788479
250	0xbd3606eb	-0.04444019
251	0x3d4ac668	0.04950562
252	0xbd65f4b0	-0.056141555
253	0xbd94c129	-0.07263405
254	0x397081d2	0.00022936545
255	0x3ca02c24	0.019552298

lstm.bias_ih_l0 f4 [512]
0	0x3d2fbca1	0.0429045
1	0x3d662289	0.05618528
2	0xbd55a5e0	-0.052160144
3	0x3dc3df85	0.09564117
4	0x3d0b7ec1	0.03405643
5	0x3cf0c46d	0.029390538
6	0xbd35553d	-0.044270743
7	0x3dca556c	0.09879574
8	0x3d5293a8	0.051410347
9	0x3d860028	0.065429986
10	0x3d8b6c56	0.06807773
11	0x3dae1742	0.0850053
12	0x3d7a28f7	0.061074223
13	0xbd81a4ec	-0.063302845
14	0x3d6393bb	0.05556081
15	0x3be70a15	0.0070507624
16	0xbcc3af34	-0.023887254
17	0xbc6f989a	-0.014623785
18	0xbc28d04b	-0.010303567
19	0xbcff5d0a	-0.031172294
20	0x3d2a3f02	0.041563995
21	0x3ddb65b8	0.10712761
22	0x3d8186eb	0.06324562
23	0x3d068ca4	0.03284897
24	0xbd2741c9	-0.040834222
25	0x3dc84d56	0.09780376
26	0x3d972d9c	0.07381746
27	0x3d969d48	0.07354218
28	0x3c36308f	0.011119976
29	0x3dd3c89a	0.10340996
30	0x3d90e21f	0.07074379
31	0x3d01942f	0.03163546
32	0xbc714d88	-0.014727958
33	0x3d9d0e58	0.076687515
34	0x3d2255f1	0.03963274
35	0x3d9ec1d5	0.07751814
36	0xbb6a6e2b	-0.0035771232
37	0xbc831c5c	-0.016004734
38	0xbd87443d	-0.06604812
39	0xb9997be7	-0.00029274749
40	0x3d1da014	0.03848274
41	0x3de324c0	0.11090994
42	0x3ddb738f	0.107154004
43	0x3c697d22	0.014251025
44	0x3d9901f1	0.074710734
45	0x3c59cc08	0.013293274
46	0xbd453ed9	-0.04815564
47	0xbd1784aa	-0.036991753
48	0x3dd1449a	0.10218163
49	0x3dcf65ac	0.10126814
50	0xbd6bb09a	-0.057541467
51	0x3be638cc	0.0070258137
52	0xbd1fd6a3	-0.039023053
53	0x3dcf85cc	0.101329416
54	0x3c48a128	0.012245454
55	0x3dd61214	0.10452667
56	0x3c97e15f	0.018540082
57	0x3d03ac72	0.03214688
58	0x3d63b7bd	0.05559515
59	0x3d4cc522	0.049992688
60	0x3da2e6b9	0.07954163
61	0x3d89689b	0.06709405
62	0x3ddd7b72	0.10814561
63	0x3d587d83	0.052854072
64	0xbd3131a2	-0.043260224
65	0x3dd342cd	0.103154756
66	0x3d4d7ea1	0.05016959
67	0xbcb93467	-0.022607995
68	0xbb0d12bd	-0.0021526061
69	0xbd784b1a	-0.060618497
70	0xbc104a5b	-0.00880679
71	0x3b8ecc13	0.0043578236
72	0x3d8bb845	0.06822256
73	0xbd6505e1	-0.05591381
74	0x3d15b7e8	0.03655234
75	0xbd6a316a	-0.05717603
76	0x3da26eca	0.079312876
77	0x3dd461f2	0.10370244
78	0xbd0f1c81	-0.034939293
79	0x3dbace1d	0.09121344
80	0xbd7f4156	-0.06231817
81	0x3d44525e	0.047930114
82	0xbddbadf2	-0.10726537
83	0xbc14dde6	-0.009086108
84	0xbcf35954	-0.02970568
85	0xbd824188	-0.06360155
86	0x3d153542	0.036427744
87	0xbd092d76	-0.03349062
88	0x3d0ec6f8	0.03485772
89	0x3d78cb7c	0.060740933
90	0xbc84d4cf	-0.016214756
91	0xbc2c5abc	-0.01051968
92	0xbb9ce34b	-0.0047878376
93	0xbd16fad4	-0.036860302
94	0xbd8f444a	-0.06995447
95	0xbcfad7c5	-0.030620465
96	0x3d353154	0.044236496
97	0x3cd278be	0.02569234
98	0x3dbe94e8	0.09305745
99	0x3d8cb241	0.06869937
100	0x3cba1472	0.022714827
101	0x3d7fcac2	0.062449224
102	0x3d1bcaab	0.038035076
103	0xbd4c5fec	-0.049896166
104	0x3d164a48	0.036691934
105	0xbc603a21	-0.013685734
106	0x3d879560	0.06620288
107	0xbd2972f2	-0.041369386
108	0x3d751d9a	0.059842683
109	0x3d568330	0.052371204
110	0xbd281714	-0.041037634
111	0x3ca4cf7c	0.020118468
112	0x3d74133f	0.059588667
113	0xbd5421eb	-0.05179016
114	0x3d2e41be	0.042543165
115	0x3b7f761c	0.003898031
116	0xbd6462ae	-0.05575817
117	0x3b93d9eb	0.004512062
118	0x3d98ab00	0.07454491
119	0x3be24943	0.006905706
120	0x3d43af9b	0.047774892
121	0x3da7f44f	0.08200895
122	0x3d43aa6e	0.047769956
123	0x3d83b573	0.06431093
124	0x3d90ec85	0.070763625
125	0x3d2197a4	0.039451256
126	0xbd3a303a	-0.04545615
127	0xbcf23753	-0.029567396
128	0x3d9aea2a	0.075641945
129	0x3d24e42c	0.040256664
130	0xbd7a333f	-0.06108403
131	0x3c630036	0.013855031
132	0x3d8c5ca7	0.068536095
133	0xbc1add6c	-0.009452205
134	0xbd2478e3	-0.04015435
135	0xbb847bd3	-0.0040430813
136	0xbd2b924f	-0.041887578
137	0x3d533939	0.051568244
138	0xbd86ed71	-0.06588257
139	0x3def3edc	0.11681911
140	0xbd56da4b	-0.052454274
141	0x3cf62f9e	0.030052003
142	0x3d65434a	0.055972375
143	0x3dad8f69	0.08474619
144	0x3b8c4356	0.004280488
145	0xbd47ede6	-0.048810862
146	0x3da00a70	0.07814491
147	0x3dba8a2a	0.09108384
148	0x3dc364a6	0.095406815
149	0x3d76f495	0.060291845
150	0x3daf3d50	0.08556616
151	0xbcd120a2	-0.025528256
152	0xbd35d51d	-0.044392694
153	0xbc860602	-0.016360287
154	0xbce96acc	-0.028493308
155	0xbd7dbe85	-0.06194927
156	0x3dc3b69f	0.095563166
157	0xbd08ef9d	-0.033431638
158	0xbcd265be	-0.02568328
159	0x3d5626a1	0.052282933
160	0x3c540e6b	0.012942891
161	0xbd4ea705	-0.05045225
162	0x3d5585e9	0.05212966
163	0x3dc2f697	0.095196895
164	0x3ca98686	0.020694029
165	0xbd696d0d	-0.056988765
166	0xbd72a103	-0.059235584
167	0x3ddeb91f	0.10875153
168	0x3d7a0318	0.061038107
169	0xbbcebd88	-0.006309215
170	0x3d9a019c	0.07519838
171	0x3d4ad501	0.049519543
172	0xbc2c7002	-0.010524752
173	0x3d20a69c	0.03922139
174	0xbd86565f	-0.06559443
175	0x3c218c99	0.009860181
176	0x3c91efb3	0.017814493
177	0x3db3868c	0.08765897
178	0x3dcfd92e	0.101488456
179	0x3c9f8a37	0.019475086
180	0x3dc1b37f	0.09458064
181	0x3d30b906	0.043145202
182	0x3dd8fdf5	0.105953135
183	0xbd0093df	-0.03139102
184	0x3d2f0de0	0.04273784
185	0x3ce282a7	0.02765019
186	0xbcfb62ad	-0.0306867
187	0x3c838700	0.016055584
188	0x3d0302b7	0.03198501
189	0x3d34505a	0.04402194
190	0xbd52ac1c	-0.051433668
191	0x3d1e3b92	0.03863103
192	0x3cf21917	0.02955298
193	0xbd1cb4a2	-0.038258202
194	0x3d6a9d11	0.057278696
195	0x3c9a12d2	0.018807802
196	0x3d04716a	0.032334723
197	0xbc8e0538	-0.017336473
198	0xbc808f01	-0.01569319
199	0x3de14a1d	0.11000464
200	0x3dd7a999	0.10530395
201	0xbd10b013	-0.035324167
202	0x3c2af3b5	0.010434081
203	0x3b80ca61	0.0039303754
204	0x3ccf033d	0.025270099
205	0x3d8380bc	0.064210385
206	0xbd982212	-0.074283734
207	0xbce8f275	-0.028435925
208	0x3d09cc9c	0.033642396
209	0xbd4266a5	-0.04746117
210	0xbda46532	-0.08027114
211	0x3d01560b	0.031576198
212	0xbc2e15ba	-0.010625297
213	0xbd14ca25	-0.036325593
214	0x3d380adf	0.044932242
215	0xbd83f6f6	-0.064435884
216	0xbc45baf1	-0.012068496
217	0x3dcf2c84	0.101159126
218	0x3d2daf48	0.04240349
219	0x3c21bad3	0.0098712025
220	0x3cb6c0db	0.022308758
221	0xbcbc4f43	-0.022987014
222	0x3d62ddd7	0.055387344
223	0x3d5819d2	0.052759
224	0x3d67d59a	0.05660019
225	0xbd69297c	-0.05692433
226	0x3cb1c869	0.021702008
227	0x3d3745c9	0.044744287
228	0x3d8a205d	0.06744454
229	0x3dac87ff	0.08424377
230	0x3c8900c8	0.016724005
231	0x3d62a09a	0.055328943
232	0x3cf651da	0.030068327
233	0x3ae351c8	0.0017343098
234	0x3d92e781	0.07173062
235	0x3da8c906	0.08241467
236	0xbd78d194	-0.060746744
237	0x3d9c4dea	0.076320484
238	0x3d902559	0.070383735
239	0xbcfe2e96	-0.031028073
240	0x3cb893ca	0.022531409
241	0xbc35732b	-0.011074821
242	0x3d111867	0.035423663
243	0xbd3ec571	-0.046575014
244	0x3d9ecd11	0.07753957
245	0xbd36d7b6	-0.04463931
246	0x3ccbb58a	0.024866838
247	0x3d6db8ea	0.058037676
248	0x3c5ca61f	0.013467341
249	0xbd3b0bf4	-0.045665696
250	0x3da73134	0.081636816
251	0x3c81cbaa	0.015844185
252	0x3d6bcf82	0.05757094
253	0x3dd91a5f	0.10600733
254	0x3d0e7df4	0.034788087
255	0x3d812c10	0.063072324

lstm.bias_hh_l0 f4 [512]
0	0x3d9e9f68	0.07745248
1	0xbcba254e	-0.022722866
2	0x3cdb5aa3	0.026776617
3	0xbd80f4c5	-0.06296686
4	0x3db17df5	0.086666025
5	0x3d711316	0.058856092
6	0x3d14123b	0.0361502
7	0xbd17b251	-0.03703529
8	0x3dada43a	0.08478589
9	0xbc348d65	-0.011020039
10	0x3d984ab0	0.074361205
11	0x3d2080a2	0.039185174
12	0x3bd3b8c5	0.006461235
13	0xbd1bd9c6	-0.03804948
14	0x3dad6ee7	0.084684186
15	0xbc8090d7	-0.015694065
16	0xbd30a120	-0.04312241
17	0xbceba1e3	-0.028763717
18	0x3dda725c	0.106663436
19	0xbd37a882	-0.044838436
20	0xbd03e732	-0.032202907
21	0xbcaae6fa	-0.020862091
22	0x3d4ce5f0	0.050023973
23	0xbd134cde	-0.03596198
24	0x3d200c6f	0.039074358
25	0x3db74d04	0.089502364
26	0x3d41a50e	0.04727655
27	0xbd61c0d2	-0.05511553
28	0xbc2b331f	-0.0104492
29	0x3db4d86c	0.08830342
30	0x3d93eee1	0.07223297
31	0xbbd176a2	-0.006392316
32	0x3c923511	0.01784757
33	0x3dbff6db	0.09373256
34	0x3d45d625	0.048299927
35	0xbbd6a2ff	-0.0065501924
36	0x3d6c03dd	0.05762087
37	0x3d934f58	0.07192868
38	0xbd34e567	-0.044164088
39	0x3d35f70b	0.04442505
40	0xbd801081	-0.06253148
41	0x3d3b42f2	0.04571814
42	0x3d1b708c	0.03794913
43	0xbd7a7957	-0.061150875
44	0x3dce455d	0.10071824
45	0x3d918b45	0.07106642
46	0x3d5fa8ff	0.054604527
47	0xbd996e40	-0.07491732
48	0x3db9e120	0.09076142
49	0xbc7eef28	-0.015559949
50	0xbcf51e36	-0.029921632
51	0xbd223a76	-0.039606534
52	0x3d97fffd	0.07421873
53	0x3bd41084	0.0064716954
54	0x3db847ae	0.08998047
55	0x3d7e04f3	0.06201644
56	0x3ccf4c6c	0.025304995
57	0x3d5f1715	0.054465372
58	0x3c04a001	0.0080947885
59	0x3de0106b	0.109406315
60	0x3d82e85e	0.06391977
61	0x3d5bd9a3	0.05367435
62	0x3c0fc991	0.0087760845
63	0x3d6b5033	0.05744953
64	0xbd8f9434	-0.070106894
65	0xbc95e905	-0.018299589
66	0x3dc01f2b	0.09380945
67	0x3d4d2cc9	0.05009154
68	0xbd87e850	-0.06636107
69	0x3c415409	0.011799821
70	0x3d9cfbf1	0.076652415
71	0x39c3a619	0.0003731705
72	0x3b3450e7	0.0027514042
73	0x3db07952	0.0861689
74	0x3d8d42d6	0.068975136
75	0xbc8b92bf	-0.017037747
76	0x3d6dfa65	0.058100123
77	0xbd562f34	-0.05229111
78	0xbd9b618d	-0.07586966
79	0x3dbd9859	0.09257574
80	0x3d93112c	0.0718101
81	0x3da50d67	0.08059197
82	0x3c074b7e	0.008257745
83	0xbd1f059b	-0.038823705
84	0xbcebfd6d	-0.028807366
85	0xbd95ea96	-0.07320134
86	0xbc6cea17	-0.014460108
87	0x3ce00e93	0.0273507
88	0xbdb67ae2	-0.08910157
89	0x3d160bd1	0.036632363
90	0x3d00cb39	0.03144381
91	0xbd22504a	-0.03962735
92	0xbc584ed7	-0.013202391
93	0xbbec9edc	-0.007221086
94	0xbd2ed288	-0.042681247
95	0x3d9d3968	0.07676965
96	0xbad972ad	-0.0016589962
97	0xbcd1932e	-0.025582876
98	0x3c9fd2f2	0.019509766
99	0xbd77754e	-0.060414605
100	0x3dc9c1ee	0.09851442
101	0x3da03e7c	0.07824418
102	0xbcb6e448	-0.02232565
103	0xbd7d9bf1	-0.061916295
104	0xbc05754a	-0.00814564
105	0xbc14cbb2	-0.009081768
106	0xbd4c3685	-0.04985668
107	0xbd29b1be	-0.041429274
108	0xbb7e8c7b	-0.0038841057
109	0xbcabe4bf	-0.020983098
110	0xbb6d7d72	-0.0036238101
111	0x3d7013ba	0.058612563
112	0x3d8ad103	0.06778147
113	0xbd2a886e	-0.041634016
114	0xbd717062	-0.058945067
115	0x3c85c672	0.016329978
116	0xbd791a12	-0.06081588
117	0x3da1df3e	0.07903908
118	0x3d107832	0.035270877
119	0x3d2d7931	0.042351905
120	0x3dba7494	0.09104267
121	0xbcd3706f	-0.025810448
122	0x3c9645de	0.018343862
123	0xbcf16cdf	-0.02947086
124	0x3cb371e4	0.021904893
125	0xbcdcdb97	-0.026960177
126	0x3cd56e0e	0.026053455
127	0xbd64ef23	-0.05589212
128	0x3dc730b3	0.097260855
129	0xbd451775	-0.048118073
130	0x3c96dc61	0.018415632
131	0x3d9d6795	0.07685772
132	0x3d7fb4d5	0.062428314
133	0x3dc6f3bb	0.09714457
134	0x3cbc3fb2	0.022979591
135	0xbc0e8313	-0.008698243
136	0x3ddc1950	0.107470155
137	0x3dcf6ab9	0.101277776
138	0xbd30a3cb	-0.043124955
139	0xbd2bb736	-0.04192277
140	0xbd014b8b	-0.031566184
141	0x3dac19db	0.08403369
142	0xbcff3704	-0.031154163
143	0x3dc712b3	0.097203635
144	0xbc6db634	-0.014508773
145	0x3c748ebb	0.014926608
146	0x3d040366	0.032229804
147	0xbcd35650	-0.025797993
148	0x3c8248c0	0.01590383
149	0xbc70600f	-0.01467134
150	0x3c114bbb	0.008868153
151	0xbd69833d	-0.057009924
152	0xbc05ff85	-0.008178596
153	0xb9b1b669	-0.00033895977
154	0x3d556264	0.052095786
155	0x3d082a31	0.03324336
156	0xbd65aba4	-0.056071892
157	0x3d1c0140	0.03808713
158	0xbc4ffad8	-0.012694083
159	0x3b48d59b	0.0030644897
160	0x3d31dd26	0.043423794
161	0x3cff4403	0.03116036
162	0x3cbdebfa	0.023183811
163	0x3d6f7d76	0.05846926
164	0x3d0f2dd9	0.034955833
165	0xbd2d2903	-0.04227544
166	0x3d8b5ecf	0.06805193
167	0x3bd1491c	0.006386889
168	0x3d8cd2a5	0.06876115
169	0x3d559296	0.05214175
170	0xbd527adf	-0.05138671
171	0x3c6c529f	0.014423995
172	0xbd139d0a	-0.036038436
173	0x3d13f015	0.036117632
174	0xbd8443e3	-0.06458261
175	0xbd9e9d94	-0.077448994
176	0x3d9782a5	0.07397965
177	0x3bca574b	0.006174957
178	0x3d45c4cc	0.048283383
179	0x3bb19ec8	0.0054205395
180	0x3d4e7d44	0.05041243
181	0x3d8392e6	0.06424503
182	0x3beda87f	0.0072527523
183	0x3c9e2e24	0.019309111
184	0xbd85bd31	-0.06530226
185	0xbd6f4e93	-0.058424544
186	0x3dde1e21	0.108455904
187	0x3d97c5a8	0.07410747
188	0xbd6e907d	-0.058243264
189	0x3d2bf34e	0.04198008
190	0xbca3ac16	-0.019979518
191	0x3dd1183a	0.10209699
192	0x3d2d2f5a	0.042281486
193	0xbc3501a4	-0.011047754
194	0x3d85204f	0.06500303
195	0x3ca020c5	0.019546876
196	0x3dcf2b39	0.10115666
197	0x3db474dd	0.088113524
198	0x3d2e3fd8	0.042541355
199	0xbc6fdf3c	-0.014640626
200	0x3d421386	0.0473819
201	0xbcb024c4	-0.021501906
202	0x3d8b0371	0.06787766
203	0x3d44924a	0.047991075
204	0x3dac2384	0.084052116
205	0xbd378966	-0.044808768
206	0x3d7c9d15	0.061673243
207	0xbd0f34cf	-0.03496247
208	0xbceede88	-0.029158846
209	0x3c98a563	0.01863355
210	0x3d8d3ec4	0.06896737
211	0x3da3486e	0.07972799
212	0x3d8b8323	0.06812122
213	0xbc8158bf	-0.015789388
214	0xbd5363e1	-0.051608924
215	0x3d8d5f6f	0.06902968
216	0x3da41c6a	0.08013232
217	0x3d7b6b02	0.061381347
218	0xbd864cb9	-0.065576024
219	0xbb971745	-0.0046109282
220	0x3d2054c5	0.039143343
221	0x3d5fe500	0.05466175
222	0xbcc51ee3	-0.02406258
223	0x3cda5c39	0.026655303
224	0x3d391866	0.045189284
225	0x3d7b053f	0.0612843
226	0xbd0058a0	-0.03133452
227	0x3db70c33	0.08937874
228	0x3dafb955	0.08580271
229	0x3d70a267	0.05874863
230	0x3d757d74	0.059934095
231	0xbb83a065	-0.0040169233
232	0xbd21aca9	-0.039471302
233	0xbd937caf	-0.07201516
234	0xbb93b3b6	-0.004507507
235	0x3cb7e55d	0.022448236
236	0xbd120f27	-0.03565898
237	0xbd552273	-0.052034806
238	0x3db91264	0.09036711
239	0x3db1a5d0	0.08674204
240	0x3d006f51	0.03135616
241	0xbcd5c690	-0.026095659
242	0xbd215fe8	-0.039398104
243	0xbc00f587	-0.007871038
244	0x3d8dc0b3	0.0692152
245	0x3d773b40	0.06035924
246	0xbd26a3ab	-0.04068343
247	0x3d3bdf24	0.0458671
248	0x3d234a9a	0.039866067
249	0xbd779774	-0.06044717
250	0xbd4330ac	-0.04765384
251	0x3d639271	0.05555958
252	0x3cda0414	0.026613273
253	0xbd6cdf71	-0.057830278
254	0x3d40f2e7	0.04710665
255	0x3c8eeb24	0.017446108

lstm.weight_ih_l1 f4 [512, 128]
0	0x3cc188cc	0.0236248
1	0x3d82230d	0.06354342
2	0xbcb85d33	-0.022505378
3	0x3cf9557e	0.030436274
4	0x3dad290e	0.08455096
5	0xbdd651fb	-0.10464855
6	0x3c20b4ad	0.009808701
7	0xbc29303a	-0.0103264395
8	0x3da85434	0.082191855
9	0xbc242371	-0.0100182155
10	0x3d2d678c	0.042335078
11	0x3d526c75	0.051372964
12	0x3d531b67	0.051539805
13	0x3caaf805	0.020870218
14	0x3cc7f6a0	0.024409592
15	0x3cefcae9	0.02927156
16	0x3d4ef8b3	0.050530147
17	0xbcf0ba68	-0.02938576
18	0xbcefd0e8	-0.029274419
19	0xbb361956	-0.0027786097
20	0xbd6b615c	-0.057465896
21	0xbd9d6901	-0.076860435
22	0x3d0b043c	0.033939585
23	0x3d69d732	0.057089992
24	0xbc533678	-0.012891404
25	0x3d41f0a6	0.04734864
26	0x3d2eb1ed	0.042650152
27	0xbce42e4b	-0.027854105
28	0x3ddad0c3	0.106843494
29	0x3cc79ed1	0.024367722
30	0x3d8cfcb7	0.06884139
31	0xbd096716	-0.033545576
32	0x3d833676	0.06406872
33	0x3db7c0ac	0.08972296
34	0x3db8e3c3	0.09027817
35	0xbd053ce3	-0.03252877
36	0xbc7ee99a	-0.015558625
37	0x3d57682b	0.052589577
38	0x3dc0f1cc	0.09421119
39	0x3de060ab	0.10955938
40	0xbda36c21	-0.07979608
41	0xbd37d70d	-0.044882823
42	0x3d4341b0	0.047670066
43	0x3d782a89	0.06058744
44	0x3da736c1	0.0816474
45	0xbd25ad3c	-0.040448412
46	0x3d1a77c9	0.037711892
47	0x3dbcdf44	0.09222272
48	0xbd314ac7	-0.043284204
49	0x3db356f4	0.08756819
50	0x3b7ff4bb	0.0039055783
51	0xbd857759	-0.065169044
52	0x3d3e7078	0.046493977
53	0xbdd62995	-0.1045715
54	0xbcd2ec52	-0.025747452
55	0x3cf929cc	0.030415438
56	0xbd04bd59	-0.03240714
57	0x3d8559e8	0.06511289
58	0x3dc25656	0.094891235
59	0xbdcd3e30	-0.10021627
60	0x3d0a2695	0.0337282
61	0x3da1b4e2	0.07895829
62	0xbc8ef6d1	-0.017451676
63	0x3d3c9b8f	0.04604679
64	0xbd929f11	-0.07159246
65	0xbd37a40d	-0.044834185
66	0xbce453bb	-0.027871957
67	0xbd201a5e	-0.039087646
68	0xbd8b5c83	-0.068047546
69	0x3d9cb2ec	0.07651314
70	0xbcc84335	-0.02444611
71	0xbd7999ad	-0.060937572
72	0x3d4b1100	0.04957676
73	0xbc298f0b	-0.0103490455
74	0x3c65bd95	0.014022251
75	0x3db475ac	0.08811507
76	0x3d7e0877	0.06201979
77	0xbd6833e4	-0.05669011
78	0x3da6142c	0.08109316
79	0xbd98bda8	-0.07458049
80	0x3cd006b9	0.02539383
81	0xbdda0825	-0.10646085
82	0x3d9730f1	0.07382382
83	0x3dd20a2d	0.10255847
84	0xbd1cfb14	-0.038325384
85	0xbc6da037	-0.01450353
86	0xbcb840f3	-0.022491908
87	0xbb134a30	-0.002247464
88	0xbda024ae	-0.07819496
89	0x3d25b27c	0.04045342
90	0x3dcceb3b	0.10005804
91	0x3d2c320d	0.04203992
92	0xbdaf75fd	-0.08567426
93	0xbde10ddd	-0.10988972
94	0x3d660400	0.05615616
95	0xbcc33325	-0.023828099
96	0x3dde2086	0.10846047
97	0x3cabb2b5	0.020959238
98	0xbd29684e	-0.04135924
99	0x3d649199	0.055802915
100	0x3d160496	0.036625467
101	0xbd5a2555	-0.05325826
102	0xbd220cc4	-0.039562955
103	0xbd812958	-0.06306714
104	0xbcc5caa8	-0.024144486
105	0xbcce5e49	-0.025191443
106	0x3bcf807d	0.0063324557
107	0x3d7f7a05	0.062372226
108	0x3c3bb465	0.011456584
109	0x3ceeb788	0.029140249
110	0xbcf1be71	-0.029509755
111	0xbd7aadc4	-0.061200872
112	0x3d5273cd	0.051379967
113	0x3d22ac3e	0.039715044
114	0xbd12ec93	-0.035870146
115	0x3dd6e49f	0.10492825
116	0xbd00804c	-0.031372353
117	0x3d184b25	0.03718104
118	0xbadc57e4	-0.0016810861
119	0x3cb118c7	0.02161826
120	0xbd1580c8	-0.03649977
121	0x3c0acf2b	0.008472244
122	0xbd10b664	-0.03533019
123	0x3db4fe14	0.08837524
124	0x3b532ab4	0.0032221498
125	0xbd05d750	-0.03267604
126	0xbd0aa34f	-0.03384715
127	0xbd89e1c0	-0.067325115
128	0xbcff9e95	-0.031203547
129	0xbc12035f	-0.008911937
130	0xbd6614ff	-0.056172367
131	0x3d889137	0.066683225
132	0xbd3cee30	-0.04612559
133	0xbd62b1b9	-0.05534527
134	0xbd3cab3e	-0.046061747
135	0xbbc35e0b	-0.0059621385
136	0xbd35207d	-0.044220436
137	0xbd8b8762	-0.068129316
138	0xbc61b421	-0.013775856
139	0xbcb6700f	-0.02227023
140	0x3ad37f75	0.0016136008
141	0xbd84b9c6	-0.06480746
142	0x3cb382e6	0.021913003
143	0x3d276a98	0.04087314
144	0x3ce2278c	0.027606748
145	0x3d1d033d	0.038333166
146	0xbb1c41d3	-0.0023842945
147	0x3caab6c1	0.020839097
148	0x3ca7a305	0.020463476
149	0x3c600f19	0.013675475
150	0x3cffe4ef	0.031237094
151	0xbca2a96c	-0.019856177
152	0xbd52f558	-0.05150351
153	0x3ced39ac	0.028958164
154	0xbcf40f32	-0.029792402
155	0x3d63f9cc	0.055658147
156	0x3b84353e	0.0040346673
157	0xbc982477	-0.018572075
158	0xbd846513	-0.06464591
159	0xbd968f4b	-0.0735155
160	0x3dace7e0	0.08442664
161	0x3d155b99	0.036464307
162	0xbd7052f1	-0.05867285
163	0xbd822314	-0.06354347
164	0x3dbd1d6c	0.092341274
165	0x3caf23df	0.02137941
166	0xbd9b6638	-0.07587856
167	0xbd617e9e	-0.055052392
168	0xbdd7047f	-0.104989044
169	0xbd895158	-0.06704968
170	0x3d724dad	0.05915611
171	0x3dc35d83	0.0953932
172	0xbd4e9124	-0.050431386
173	0xbc32b1a7	-0.010906613
174	0x3d69fa37	0.05712339
175	0x3dcc1928	0.09965736
176	0xbd81814c	-0.063234895
177	0xbc72ae78	-0.014812104
178	0x3d8575f7	0.06516641
179	0xbd712722	-0.05887521
180	0xbcde003d	-0.027099723
181	0xbdd1b20c	-0.10239038
182	0x3d6827d1	0.056678597
183	0xbd66e3e0	-0.056369662
184	0xbda6e5a6	-0.08149271
185	0xbc127a3c	-0.008940276
186	0x3dc0145c	0.09378883
187	0xbd0d4367	-0.034488108
188	0x3d76c019	0.060241792
189	0xbc470c1d	-0.012148884
190	0x3d836982	0.064166084
191	0xbbc74a05	-0.006081822
192	0xbdd491ab	-0.103793465
193	0xbc238dc3	-0.009982529
194	0xbd844297	-0.064580135
195	0x3d21dad9	0.03951535
196	0x3da8d9e6	0.08244686
197	0x3d9820ca	0.07428129
198	0x3b0dcb30	0.0021636002
199	0xbdcdafe4	-0.10043314
200	0x3d1cea1d	0.038309205
201	0x3dc546ab	0.096326195
202	0xbdb9768a	-0.09055813
203	0x3da71b37	0.08159488
204	0x3d1783b9	0.036990855
205	0x3c3c2519	0.011483454
206	0x3db5f6ac	0.088849396
207	0x3d89449e	0.06702541
208	0xbd7d53ed	-0.061847616
209	0xbcffd769	-0.031230645
210	0x3d75fbc3	0.06005455
211	0x3d403ce5	0.046933074
212	0x3c265c3a	0.010153824
213	0x3d3d097c	0.046151623
214	0x3b5dff95	0.0033874263
215	0x3d516dbf	0.051130053
216	0xbce1a23c	-0.02754318
217	0x3cae8075	0.021301487
218	0xbd6d8c81	-0.057995323
219	0xbd8709c6	-0.06593661
220	0x3c4c15ab	0.012456338
221	0x3d7e2b62	0.06205309
222	0x3d775ba6	0.060390137
223	0x3d10fa3c	0.035394892
224	0xbd8b1969	-0.06791956
225	0xbd25d140	-0.04048276
226	0x3d6b6374	0.057467893
227	0x3d8a26b2	0.06745662
228	0x3db64817	0.08900469
229	0x3d17c3ee	0.037052087
230	0x3d744bea	0.05964271
231	0xbda5bbf4	-0.0809249
232	0x3c68af62	0.014201971
233	0xbda4ea7b	-0.08052536
234	0xbdc582e4	-0.09644106
235	0x3c6d0573	0.014466631
236	0x3d9e5ee0	0.0773294
237	0x3d1a0f80	0.03761244
238	0x3d25d4fa	0.040486313
239	0x3d2ddce5	0.04244699
240	0x3db301b1	0.08740557
241	0xbd84eccf	-0.0649048
242	0xbc06af67	-0.00822053
243	0x3ce1bf23	0.027556961
244	0xbc9b5c65	-0.018964956
245	0x3c70a2e4	0.014687274
246	0xbdc20ecb	-0.09475478
247	0x3c9ff8dd	0.019527847
248	0xbd52b7f1	-0.05144495
249	0xbd867dac	-0.06566939
250	0x3ca73133	0.020409202
251	0x3dc1433e	0.094366536
252	0x3d9153da	0.070960715
253	0xbd450b0b	-0.048106235
254	0x3add195d	0.0016868521
255	0x3dc86cd9	0.09786386

lstm.weight_hh_l1 f4 [512, 128]
0	0xbdba036f	-0.09082686
1	0xbd81917d	-0.06326578
2	0xbdd7c3fe	-0.105354294
3	0xbd41fe7c	-0.047361836
4	0xbd66a27c	-0.0563073
5	0x3db29b57	0.08721035
6	0xbd86b4d3	-0.06577458
7	0x3d3f061b	0.046636682
8	0x3d7a1aab	0.06106059
9	0x3dd0f48a	0.10202892
10	0x3d0b8804	0.03406526
11	0xbb4ac3f4	-0.003093955
12	0xbd85471a	-0.06507702
13	0xbd3e8acf	-0.046519097
14	0x3d5bfa60	0.053705573
15	0xbd944c18	-0.07241076
16	0x3ca0c87f	0.019626854
17	0x3d983b36	0.074331686
18	0x3c02d9af	0.00798647
19	0x3bfa993d	0.007647662
20	0x3dcea632	0.10090293
21	0xbceb979b	-0.028758815
22	0xbd69eebb	-0.057112437
23	0x3dcb936c	0.09940228
24	0x3d8b5500	0.06803322
25	0x3db65e69	0.08904726
26	0xbd20f4da	-0.03929601
27	0x3dd09bbd	0.10185955
28	0x3be17bd8	0.0068812184
29	0xbd575645	-0.052572507
30	0xbd8c0c8b	-0.0683833
31	0x3d0b9c77	0.034084763
32	0x3d178daa	0.037000336
33	0x3d84f431	0.06491888
34	0xbce502a1	-0.027955355
35	0xbd712cb1	-0.05888051
36	0x3d620a6c	0.05518572
37	0xbd2c8b87	-0.04212525
38	0x3d60ec33	0.054912757
39	0x3cf67697	0.030085845
40	0x3d8519ae	0.06499039
41	0xbd8805af	-0.06641709
42	0xbd9ba4ba	-0.075997785
43	0x3d8b5f29	0.0680526
44	0x3b98a2e2	0.004658089
45	0x3d0f0524	0.03491701
46	0xbd500be3	-0.050792586
47	0xbdbddcfe	-0.092706665
48	0x3d0d32ff	0.03447246
49	0x3d7bd36e	0.061480932
50	0xbd3787f8	-0.044807404
51	0x3d477d51	0.048703495
52	0xbd0e66da	-0.034766056
53	0x3d9e70c5	0.07736353
54	0x3d71a2b7	0.058993068
55	0xbda9df01	-0.08294488
56	0xbd4776a1	-0.048697118
57	0x3d9cd970	0.076586604
58	0xbd571119	-0.05250654
59	0x3d262c74	0.040569738
60	0xbbfeac77	-0.0077720243
61	0x3dc45861	0.095871694
62	0xbd46bd36	-0.04852029
63	0x3ce193aa	0.027536232
64	0xbcbbc55d	-0.022921259
65	0x3d1e1aa3	0.03859962
66	0xbc02391a	-0.007948184
67	0x3d79db7e	0.06100034
68	0x3d8260bd	0.063661076
69	0x3b957ead	0.00456222
70	0xbdae195a	-0.08500929
71	0xbd3939c6	-0.045221113
72	0xbd173395	-0.036914427
73	0x3d23ff02	0.040038116
74	0xbd263516	-0.04057797
75	0x3dbb01aa	0.09131177
76	0x3dd2be5c	0.102902144
77	0xbb2e64eb	-0.0026610445
78	0xbc94faa3	-0.01818592
79	0xb8fae9db	-0.00011964488
80	0x3cf034de	0.029322084
81	0xbc24d258	-0.0100599155
82	0xbb3e32ba	-0.0029021935
83	0x3cf108de	0.029423174
84	0xbd6876a7	-0.05675378
85	0x3d7e20e9	0.062043104
86	0x3da94ae3	0.08266237
87	0x3d6b9251	0.057512585
88	0xbcf896f5	-0.03034542
89	0xbda4f43f	-0.08054399
90	0xbba22067	-0.0049477103
91	0x3b2d5bb8	0.0026452374
92	0x3dd9722d	0.106174804
93	0x3d1ffa35	0.039056975
94	0x3da70220	0.08154702
95	0xbc49ac6d	-0.012309176
96	0xbd48f3dc	-0.049060687
97	0xbda20a1f	-0.07912087
98	0x3d61cca1	0.05512679
99	0x3c111036	0.008853963
100	0x3d104861	0.035225276
101	0xbd8d3c19	-0.06896228
102	0x3cf7abcf	0.030233292
103	0x3d7dd203	0.06196786
104	0xbcb2d60f	-0.021830587
105	0xbcd33ae7	-0.025784923
106	0x3d800a8e	0.06252013
107	0x3d7ee2aa	0.062227882
108	0xbb8c7d70	-0.0042874143
109	0xbd123591	-0.035695616
110	0xbdd1141c	-0.10208914
111	0x3d185f67	0.037200358
112	0xbd7f59f0	-0.06234163
113	0x3d2c5f81	0.042083267
114	0xbdadc2a1	-0.08484388
115	0x3d37b417	0.04484948
116	0xbd7293f9	-0.05922315
117	0xbcabaa74	-0.020955302
118	0xbb3a017e	-0.0028382237
119	0x3d5f6f13	0.054549288
120	0xbc99b12b	-0.018761238
121	0xbd66524f	-0.05623084
122	0x3d687c5c	0.056759223
123	0x3d925e3b	0.07146879
124	0x3be08f4e	0.0068530207
125	0x3d8e1da2	0.06939246
126	0xbcca43e7	-0.024690581
127	0xbd153788	-0.03642991
128	0x3cc68041	0.024231078
129	0x3d959bab	0.07305082
130	0xbd2ebcc2	-0.042660482
131	0xbd34ed39	-0.044171546
132	0x3d4687c6	0.048469327
133	0x3d9a723e	0.07541321
134	0x3d43ce92	0.047804423
135	0xbdbece46	-0.09316687
136	0x3cdb72f0	0.026788205
137	0xbc933b4b	-0.017972609
138	0x3d0ad979	0.033898804
139	0x3d9810c2	0.07425071
140	0xbd241e3f	-0.040067907
141	0xbc6594cd	-0.014012528
142	0x3da9c2aa	0.08289082
143	0xbcc75c1d	-0.024335915
144	0x3c0ed7a1	0.008718402
145	0xbbf7dd8f	-0.0075642536
146	0x3db5646f	0.08857047
147	0xba38f291	-0.0007055188
148	0xbd8fc671	-0.070202716
149	0xbd91960d	-0.07108698
150	0x3cdfaaac	0.027303062
151	0x3d240f7a	0.040053822
152	0x3d8f24f7	0.06989472
153	0x3d03561f	0.032064553
154	0xbd17e931	-0.037087623
155	0x3dd4b91a	0.10386868
156	0x3d6c8862	0.057747252
157	0x3db4b16e	0.088229045
158	0x3d138904	0.03601934
159	0xbd41e033	-0.047332954
160	0x3c5bbada	0.013411248
161	0x3d39f492	0.045399256
162	0xbd81b7f5	-0.06333915
163	0xbd8958b2	-0.067063704
164	0xbd62ae8a	-0.055342235
165	0xbcfe920a	-0.031075496
166	0x3d2f86e8	0.042853266
167	0xbd89122c	-0.06692919
168	0x3d290965	0.041268725
169	0xbcd4c360	-0.025972068
170	0xbd9773ce	-0.07395135
171	0x3dbc7141	0.09201289
172	0x3d9728ae	0.07380806
173	0xbc9460a4	-0.018112488
174	0x3d06c16d	0.03289931
175	0xbdb642f3	-0.08899488
176	0xbc263202	-0.010143759
177	0xbd4d3ae7	-0.050105
178	0x3d18b10e	0.037278228
179	0xbbe7622d	-0.007061264
180	0x3d73e56e	0.059544973
181	0x3d31b27f	0.043383118
182	0xbd47e583	-0.048802864
183	0x3d043d52	0.032285042
184	0xbcff8d29	-0.03119524
185	0x3d8c9a8f	0.06865417
186	0xbcc933fc	-0.02456092
187	0xbc4bfa23	-0.012449774
188	0xbc847df2	-0.016173337
189	0xbbfd3fc5	-0.007728549
190	0xbd8c8635	-0.068615355
191	0x3d307bae	0.0430867
192	0xbd23c6bc	-0.03998445
193	0x3db3831e	0.08765243
194	0xbd49b5e7	-0.04924574
195	0x3d4aad33	0.049481582
196	0xbd79800d	-0.060913134
197	0xbdd1f914	-0.10252586
198	0xbcbc035b	-0.022950819
199	0xbd8e7d48	-0.06957489
200	0xbdc17264	-0.094456464
201	0xbb7b49ff	-0.0038343666
202	0xbd87fe0e	-0.06640254
203	0x3d744719	0.059638117
204	0x3da787f2	0.081802264
205	0xbd6b63f6	-0.057468377
206	0xbd132ae3	-0.03592957
207	0xbc92c33d	-0.017915362
208	0xbd703f32	-0.058654018
209	0xbd2d27bc	-0.04227422
210	0x3d1f0d7b	0.038831215
211	0x3c98c436	0.018648248
212	0x3c00a9c8	0.007852979
213	0xbb85ff3b	-0.0040892637
214	0xbc8e9465	-0.017404744
215	0x3d4d83d8	0.050174564
216	0x3c17e08c	0.009269845
217	0xbd238365	-0.03992023
218	0xbc36ab03	-0.011149171
219	0xbce6bc2b	-0.028165897
220	0xbd18bd3a	-0.037289836
221	0xbc16fafe	-0.009215115
222	0x3c8f302c	0.017479025
223	0xbd4e1d8c	-0.050321147
224	0xbb4682fa	-0.003029047
225	0xbd8bba8e	-0.06822692
226	0xbc88fdba	-0.016722549
227	0xbdcda957	-0.10042065
228	0x3cd05842	0.02543271
229	0xbdd94230	-0.106083274
230	0x3b9eebdf	0.0048498954
231	0x3d271a4a	0.040796556
232	0xbba1333d	-0.004919438
233	0xbd437fd7	-0.04772934
234	0xbd0ed855	-0.03487428
235	0x3dbce479	0.09223265
236	0x3cab6648	0.020922795
237	0xbcd54225	-0.026032517
238	0xbcdc9998	-0.026928708
239	0xbd99db51	-0.075125344
240	0x3d51c316	0.05121144
241	0xbd8ba937	-0.068193845
242	0x3d3e0797	0.046393957
243	0x3d733896	0.059380136
244	0x3d677d23	0.056515824
245	0xbd5f5940	-0.054528475
246	0x3d94ec46	0.07271628
247	0x3d9977ae	0.0749353
248	0xbc55bd2b	-0.013045589
249	0x3d4cca1d	0.049997438
250	0xbd1b29ae	-0.037881546
251	0x3d669f3b	0.056304198
252	0xbd109393	-0.035296988
253	0x3c6119ae	0.013739033
254	0x3d9fa458	0.07795018
255	0xbc41cb3f	-0.011828243

lstm.bias_ih_l1 f4 [512]
0	0x3da7eefe	0.08199881
1	0x3d60f7bf	0.05492377
2	0x3db2ea16	0.087360546
3	0x3c46926e	0.0121198725
4	0x3dbdca5f	0.09267115
5	0x3dcdaddf	0.10042929
6	0xbd0886fd	-0.03333186
7	0x3dde6df6	0.10860817
8	0xbd32a337	-0.043612685
9	0x3d785b51	0.06063396
10	0x3d9874be	0.07444142
11	0x3c8f30bc	0.017479293
12	0xbcab7829	-0.02093132
13	0xbc9f866b	-0.019473275
14	0x3da98b57	0.0827853
15	0x3dbdce2f	0.09267842
16	0xbd0d03c9	-0.034427438
17	0xbc8e9bff	-0.01740837
18	0x3d872f93	0.06600871
19	0xbd427f90	-0.047484934
20	0x3dcc405d	0.09973214
21	0xbd9f85ab	-0.07789167
22	0xbd4f6e81	-0.050642494
23	0x3db0e75c	0.08637878
24	0x3d8f5e60	0.070004225
25	0xbd4cc17a	-0.0499892
26	0x3cff9a26	0.031201433
27	0x3ce6b3db	0.028161934
28	0x3d2ba79e	0.0419079
29	0xbd2d7b47	-0.042353895
30	0x3ccf5ecd	0.02531376
31	0xbd2f64a2	-0.04282058
32	0x3d835f3e	0.064146504
33	0x3c02ac79	0.007975691
34	0x3dc943d5	0.09827391
35	0x3bd50623	0.0065009757
36	0x3d9e50bd	0.07730243
37	0xbd94427a	-0.07239242
38	0xbca50f74	-0.02014897
39	0xbd6e22b4	-0.058138564
40	0x3dd30401	0.10303498
41	0x3da390d6	0.0798661
42	0xbd09f358	-0.033679336
43	0xbd8b71d9	-0.06808824
44	0x3d308e22	0.0431043
45	0xbd00445a	-0.031315185
46	0x3b2916f2	0.002580103
47	0x3cc92035	0.02455149
48	0xbd1ca3eb	-0.03824226
49	0x3c1ed8dc	0.009695258
50	0x3d9534af	0.07285439
51	0xbd6c4de7	-0.05769148
52	0x3c123183	0.008922937
53	0x3dc09036	0.09402506
54	0x3d88b6a2	0.066754594
55	0x3c1c179b	0.009527112
56	0x3cd3be9d	0.025847727
57	0xbd53b2c1	-0.051684145
58	0xbd8e665b	-0.069531165
59	0x3d0ef8c4	0.03490521
60	0x3d23f410	0.040027678
61	0xbcd18a5a	-0.025578666
62	0xbd82ea3e	-0.063923344
63	0xbd8b543c	-0.06803176
64	0x3d4e497b	0.050363045
65	0x3cecd62c	0.028910719
66	0x3c403906	0.011732345
67	0xbd98afc4	-0.074554
68	0x3d27e332	0.040988155
69	0x3cda8993	0.026676929
70	0x3dc23239	0.094822355
71	0x3d35422c	0.04425256
72	0x3da1a429	0.07892639
73	0x3c195b3f	0.009360134
74	0xbd49eced	-0.049298216
75	0x3da639f0	0.081165195
76	0x3d5aa787	0.053382423
77	0x3c2306b0	0.009950325
78	0xbd04fc37	-0.032467093
79	0x3dba9a8a	0.09111507
80	0x3d578807	0.05261996
81	0x3d944f0a	0.07241638
82	0x3d8372c5	0.06418375
83	0x3cbcf7d3	0.02306739
84	0xbd2fdfab	-0.042937916
85	0xbd238703	-0.03992368
86	0x3d9ad19d	0.07559512
87	0xbb77bfdf	-0.0037803573
88	0xbcc997bb	-0.024608484
89	0xbcd1d5a4	-0.025614567
90	0xbd7563a1	-0.059909467
91	0xbc9a68d4	-0.018848814
92	0xbd3d6ad8	-0.046244472
93	0x3d9113a5	0.07083825
94	0x3da5c738	0.080946386
95	0x3cb02c26	0.021505427
96	0x3d922ec5	0.07137827
97	0x3c119be9	0.0088872695
98	0xbda082fa	-0.07837482
99	0x3ddb388c	0.10704145
100	0xbd76af4f	-0.06022578
101	0xbd155b1c	-0.03646384
102	0x3dd5ed38	0.104456365
103	0xbc18ef91	-0.009334461
104	0x3db67f2b	0.08910974
105	0xbce68218	-0.028138205
106	0x3c254436	0.010087064
107	0xbc0ea72a	-0.008706847
108	0x3b4b1d37	0.0030992755
109	0xbd4b5325	-0.04963984
110	0xbd813e06	-0.06310658
111	0x3da6460b	0.081188284
112	0xbc82f38c	-0.015985273
113	0x3dd729f3	0.10506048
114	0xbcdd5c41	-0.02702153
115	0xbd3fae74	-0.04679723
116	0x3de232a8	0.11044818
117	0xbce01f3f	-0.02735865
118	0xbd2fd573	-0.04292817
119	0x3c09a156	0.008400282
120	0x3da488f3	0.080339335
121	0xbd27acbc	-0.040936217
122	0x3ccee2bf	0.025254605
123	0x3d923dfd	0.071407296
124	0x3d9762ee	0.07391916
125	0xbd2cfffe	-0.04223632
126	0xbd6ad69b	-0.05733357
127	0xbd84042a	-0.06446107
128	0x3b431d66	0.0029772162
129	0xbce9e905	-0.028553495
130	0x3daf8c05	0.085716285
131	0x3de1f46a	0.110329464
132	0x3d95fb80	0.073233604
133	0x3d951924	0.07280186
134	0x3ca179ac	0.019711338
135	0x3d7709ff	0.060312267
136	0x3cfa0cb2	0.030523632
137	0x3dc3068b	0.09522732
138	0x3cf7e99a	0.030262757
139	0x3d9eb8bf	0.07750081
140	0x3cb8b424	0.022546835
141	0x3d9fff6a	0.07812388
142	0x3d4ccf85	0.050002594
143	0xbd87ef58	-0.06637448
144	0xbcb5c2f2	-0.022187684
145	0xbd053bf1	-0.032527868
146	0x3cd60fb8	0.026130542
147	0x3ca36437	0.019945247
148	0x3dac3edf	0.08410429
149	0x3d068999	0.032846067
150	0xbcee2dbb	-0.02907454
151	0x3d024c4f	0.031811055
152	0xbb34b530	-0.0027573816
153	0xbc2f1929	-0.010687151
154	0xbd868443	-0.06568196
155	0xbd900abe	-0.07033299
156	0x3c5c603a	0.013450677
157	0x3d592a0e	0.053018622
158	0x3d9e94ab	0.077432
159	0x3c30ab50	0.010783032
160	0x3d5653a8	0.052325875
161	0x3d30c6de	0.043158405
162	0xbd176a78	-0.03696677
163	0x3d9a3691	0.07529939
164	0x3c0ccb1c	0.008593347
165	0xba3e86ef	-0.00072680315
166	0xbd06aa5d	-0.032877315
167	0x3d8f5e73	0.07000437
168	0x3cde275e	0.027118381
169	0xbcd43f6b	-0.025909146
170	0x3c7a3b25	0.01527289
171	0xbd804663	-0.06263425
172	0xbd7c40a9	-0.061585102
173	0x3c9b1b09	0.01893379
174	0x3dd1aaf2	0.10237683
175	0xbc83e24b	-0.016099116
176	0xbc86af9f	-0.016441165
177	0x3c2ecbbb	0.01066869
178	0xbd3dd70b	-0.04634766
179	0x3d81c3d7	0.063361816
180	0x3be8e119	0.007106912
181	0x3d5e5891	0.054283682
182	0x3d8936f9	0.06699938
183	0x3d5372a3	0.051622998
184	0x3da85466	0.08219223
185	0xbc0cf970	-0.008604392
186	0x3c25b83c	0.010114726
187	0xbd5d5b7f	-0.054042336
188	0x3d36bc3a	0.0446131
189	0xbce5738d	-0.0280092
190	0xbd0c5485	-0.03426029
191	0x3cd409e3	0.02588362
192	0x3d55df22	0.05221475
193	0xbd49a975	-0.049233872
194	0xbd675bf7	-0.05648419
195	0x3cb66274	0.022263743
196	0x3d02e61b	0.031957727
197	0x3d6efc62	0.05834616
198	0x3d329eb6	0.04360839
199	0xbb43b874	-0.0029864581
200	0x3ce42d9f	0.027853785
201	0xbcb54f47	-0.022132529
202	0x3da760dd	0.08172772
203	0x3dcd45d7	0.100230865
204	0xbd223cd6	-0.0396088
205	0xbd21f3a3	-0.03953899
206	0xbd2336d6	-0.039847218
207	0x3dc6a580	0.09699535
208	0xbd6245ac	-0.055242226
209	0x3d156393	0.036471914
210	0x3d6d7b39	0.057978842
211	0x3d87917d	0.066195466
212	0xbcfca8ad	-0.03084215
213	0xbd40c44c	-0.047062203
214	0x3be71e04	0.0070531387
215	0xbb07484f	-0.0020642465
216	0x3d30e79f	0.04318964
217	0xbc59fe74	-0.013305295
218	0x3be9a426	0.0071301637
219	0xbba1f656	-0.0049426956
220	0x3d8ae586	0.06782059
221	0x3db3d166	0.08780174
222	0x3d8836e8	0.066510975
223	0x3dbbdf92	0.09173502
224	0xbc9f7612	-0.01946548
225	0xbd8492b3	-0.06473293
226	0xbc886911	-0.016651662
227	0x3d79aae8	0.060954005
228	0x3d2f20e3	0.042755973
229	0xbd352e9a	-0.044233896
230	0xbd675e38	-0.05648634
231	0x3da52da2	0.080653444
232	0x3c6a1208	0.014286526
233	0x3d112e04	0.035444275
234	0x3d7b2603	0.061315548
235	0x3d9787fa	0.07398982
236	0x3d7b6bd4	0.06138213
237	0xbdbeb6ba	-0.09312196
238	0xbd012e38	-0.03153822
239	0x3d195500	0.037434578
240	0x3d5f6a2b	0.05454461
241	0x3d4254db	0.047444206
242	0x3dc5e0ef	0.09662043
243	0xbceb4ed6	-0.028724115
244	0xbd364f6f	-0.044509348
245	0xbd2f22e5	-0.042757887
246	0xbcf7c1bf	-0.030243753
247	0xbd11a74b	-0.035559934
248	0xbd88052d	-0.06641612
249	0x3bcae637	0.0061919945
250	0x3d9922fd	0.074773766
251	0x3d8c4ba6	0.06850366
252	0x3d76c74d	0.06024866
253	0x3d27f63c	0.04100631
254	0x3da88329	0.08228142
255	0xbd784e5e	-0.06062161
