backend/models/WH003_SKU-002.pth (torch, 830897 bytes, 13 tensors)

lstm.weight_ih_l0 f4 [512, 6]
00000000: 4d86 ab3d 9d00 16bd 1071 acbc 7974 783c
00000010: 79b4 af3d b44b e43d c797 663d c420 82bd
00000020: eb1b 803c cf78 56bd 3c6f 993d 0f2d 15bc
00000030: 8b9a 9cbd 3350 e03c 3b80 bf3d 27a3 09bd
00000040: 2409 5b3d 6096 dd39 2f58 b13c 8639 3b3d
00000050: 35d0 9e3d cdcc c13c 6caf 03bd c6e3 023d
00000060: 44bc 663d 1663 823d bfc7 e5bc a7d9 3e3d
00000070: d8d3 da3d f858 6fbd cf51 88bc 7f73 8fbd
00000080: 871e c93d 1732 d43d 345d 433d 6c2a d43c
00000090: 3091 c43d c8b7 133d 9f70 a83d 0ef4 f3bb
000000a0: a402 9abc feea 683d 5a8d 7f3d f6ac 183c
000000b0: 51a8 5e3d c814 533b ba3a 9e3d 43fe d33d
000000c0: 310d 19bd b4b4 ca3d 8691 843b 1440 59bc
000000d0: e62b 92bc be2c 723b e83f a83d 1a39 87bd
000000e0: aad1 8d3d d97c 793d 7c3d 583d 8dec 30bd
000000f0: d5ac f7ba 1428 a23d 51e7 b33d 9509 8b3d
00000100: 3f27 c33d 0c60 793d fef2 18bc 2ebb d13d
00000110: 16e8 7fbb b991 8e3d e47b 103d 9e1f 843d
00000120: faab 8fbc 1705 09bd fbad af3c 6298 7b3d
00000130: 2ca4 20bd ce1c b83b 4d33 4e3d 1d9e 113d
00000140: 832d 4f3d e98c b73d f1bb 14bd 4cf0 cfbc
00000150: 7dc8 0bbd b542 6a3c a1bf 123c 0cdb a9bc
00000160: 0cb6 513d 355a c63d 840c 50bd 8188 a1bc
00000170: c500 a93d af05 edbc e539 8fbb 1e79 103c
00000180: 288e 8a3d 4e9e 893d 5414 28bd 9cff 29bd
00000190: ab55 ca3d 25b7 853d 7254 863c 21f5 8b3d
000001a0: ae7f c53d cc62 c53d 45b8 b33c 387b 8e3d
000001b0: 4c01 b63b 0798 2f3d 3089 62bd da30 a03d
000001c0: 444f 06bd 60ee 41bd 68ed 753d 4a09 de3d
000001d0: 7ae9 aa3d 06eb c83d 9fde a03c 341b 583d
000001e0: bf43 73bd 71c2 5fbd 39fc a63d 4fd3 ea3c
000001f0: b309 aa3d bbfb fe3c 03a2 22bc f5b5 243c
00000200: a751 91bc d882 58bd 87fa 1d3d f912 07bd
00000210: 4f44 6ebc 5cf9 803c 2b42 5d3d be5b 8f3d
00000220: 4197 7bbc dac0 653d fce7 7cbc c314 b13d
00000230: fd36 60bc 2219 733c 731a aabc dfe7 0abd
00000240: b70c e23d 8f61 51bd 4b28 17bd 4435 a73d
00000250: 9aa0 ad3d 30e0 2c3b 833d 093d 8f83 b43c
00000260: 0701 683d be39 843d d07a ddbc 8bf4 8a3d
00000270: 0923 1a3b 7add ab3d 2af8 58bd bd63 17bd
00000280: 13dd 5abd 9842 56bd b324 c3bc 4795 b03d
00000290: 47b5 bb3d 534c 1dbd 2d08 933d b865 b73c
000002a0: 5ece 163c e62d 613d 38dc ac3c 8f75 053d
000002b0: 6199 273d 68ab 2fbd 3e21 2abb f4b0 ccbb
000002c0: 4c16 993b a416 35bd 60e0 a53d 94fe a43d
000002d0: 6dc4 4d3d f849 303d 646a f3bc 5fdb d93d
000002e0: 3f95 033d ecc0 c83d 94d9 123c 6400 2d3d
000002f0: d5e5 763b 42f3 5e3d c5e5 ae3d 6cdb a73d
00000300: 9536 873d 9bd2 23bd c0cd 84bb afa9 e73c
00000310: 652f 3d3a a819 5fbb 053f 9f3d 0d42 c03c
00000320: ed57 65bd 5a48 8c3d 29fd bb3d d3ab 693d
00000330: 24ea b83d 2640 c93d 5554 88bd 9ae9 903b
00000340: 0831 8a3d 604d 783c 3377 28bd 9774 b53d
00000350: 415e 61bb 4113 e73c 768c 7bbd 44df dabc
00000360: 703d 4e3c bc7f 3f3c 7245 de3d 520d a43c
00000370: 811b 8f3d d6f7 763d 002b 74bd 7059 593d
00000380: 0795 73bd f5bc c73d a000 a4bc cf6d af3d
00000390: ee2b e4bc ac2c 7dbc 306a 923d 233a 3e3d
000003a0: 5974 a13d 0c8a b43d 319e 653d 3bd2 993c
000003b0: 0c88 f23c 32dd 12bd 27ec 3c3b 750a 87bc
000003c0: 4b57 a33c 6702 bf3c 9bbf bd3c ec2a 55bd
000003d0: 0be0 2cbd af1f 923c aa81 52bc f4c8 39bd
000003e0: 3aa7 5a3d 3611 ce3d 1f41 cb3d d239 05bd
000003f0: 0aee 79bd 152d 4a3d 5b0f a03d 5114 70bc
0.08375225 -0.03662168 -0.021050006 0.015164488 0.08579344 0.11147252 0.05629709 -0.06353906
0.015638312 -0.052361306 0.074919194 -0.009104981 -0.07646664 0.027381992 0.0935063 -0.03360286
0.053475514 0.00042264443 0.021648495 0.045709155 0.07754556 0.023657227 -0.032149717 0.031955503
0.056331888 0.063665554 -0.028049348 0.04659429 0.10684937 -0.058434457 -0.016640572 -0.07004451
0.09820276 0.103611164 0.047696307 0.025899135 0.09598005 0.03606394 0.08224606 -0.007444865
-0.018800087 0.05686473 0.062390663 0.009318581 0.054359738 0.0032208432 0.07726045 0.10351231
-0.037366096 0.09897748 0.004045668 -0.013259906 -0.017843198 0.0036952938 0.08215314 -0.06602688
0.06924756 0.06091008 0.05279301 -0.043194342 -0.0018896112 0.079178005 0.087843545 0.06788937
0.0952897 0.060882613 -0.009335278 0.1024078 -0.0039048246 0.06961388 0.0352744 0.06451343
-0.01753806 -0.03345212 0.021445265 0.06142462 -0.039219067 0.005618668 0.050341893 0.03555118
0.050580513 0.08962423 -0.036312047 -0.025383137 -0.034126747 0.014298131 0.008956821 -0.020734333
0.051199004 0.096851744 -0.050793186 -0.01971841 0.082521 -0.028933374 -0.0043709152 0.008817939
0.067653954 0.06719647 -0.04103501 -0.041503534 0.09879621 0.06529073 0.016397689 0.06833864
0.096434936 0.09637985 0.021938452 0.06957096 0.005554354 0.042869594 -0.055306613 0.07821818
-0.032790437 -0.047346473 0.06004086 0.108416155 0.08345313 0.09810452 0.019637404 0.052760318
-0.05939078 -0.054628793 0.081535764 0.028665213 0.08302631 0.031125894 -0.009926322 0.010053148
-0.01773913 -0.052859157 0.038569 -0.032977078 -0.014542653 0.015743904 0.05401818 0.0699992
-0.015355886 0.05609212 -0.015436169 0.08646538 -0.013684985 0.014837535 -0.020764565 -0.033912536
0.110375814 -0.05111843 -0.03690366 0.081644565 0.08477898 0.0026378743 0.033505928 0.022035388
0.056641605 0.06456326 -0.0270361 0.06784924 0.0023519418 0.08391853 -0.052971043 -0.036960352
-0.05343349 -0.052309602 -0.02382121 0.086222224 0.09165435 -0.038402867 0.07179294 0.02238737
0.009204475 0.054975413 0.021101102 0.032582816 0.040917758 -0.042888075 -0.0025959755 -0.0062466804
0.0046718474 -0.044211045 0.08099437 0.080563694 0.050236154 0.043039292 -0.029713817 0.10637545
0.032124754 0.09802422 0.0089630075 0.0422367 0.0037673612 0.054431207 0.08539919 0.08196148
0.066022076 -0.03999577 -0.0040528476 0.028279154 0.000721684 -0.0034042392 0.07775692 0.023468995
-0.055992056 0.068497375 0.09179146 0.05704863 0.09029034 0.098266885 -0.0665671 0.0044223787
0.06747633 0.015155166 -0.041129302 0.088601284 -0.0034388455 0.028207423 -0.06141325 -0.02671779
0.01258789 0.011688169 0.108530894 0.020025883 0.06987668 0.06029495 -0.05961132 0.05306381
-0.059468295 0.097528376 -0.02001983 0.08565866 -0.027852979 -0.015452545 0.0714916 0.046442162
0.0788352 0.08815393 0.056059066 0.018777004 0.029605888 -0.03585548 0.0028827281 -0.016484478
0.019939085 0.023316575 0.023162654 -0.052042887 -0.04220585 0.017837374 -0.012848297 -0.04535766
0.053382136 0.100618765 0.0992453 -0.032525845 -0.061018027 0.0493594 0.07815429 -0.014653281

lstm.weight_hh_l0 f4 [512, 128]
00000000: 87de b93c 6656 373d 3fbd 7d3a 2b7a abbd
00000010: 7df7 a2bd 649c 94bd b727 29bd 40b2 62bc
00000020: 8d91 a5bd 4ca7 473d 1d8f 233d 5a24 823d
00000030: 8998 5bbd 24e8 943d 89b6 a9bd 7dec 40bd
00000040: fa4b 1c3d 8bd8 80bd a63c 573b 52f7 413d
00000050: 3221 613c f58a cfbd 27e5 f6bc 2fb1 98bd
00000060: 37b0 91bc 8226 54bc 7b6b 68bd 3b86 d6bd
00000070: d71d fcbb cb43 393d 4eca 0c3c e5bb e83b
00000080: 9c81 613d 94d9 febc 1dd1 02bd 97d3 dabd
00000090: fdff c03c 447a 2d3d 6bca 3ebd 3183 bfbb
000000a0: 9838 e53d 92fd 423d 6a97 e2bd ab7f 67bc
000000b0: 3391 423d 8e8e a13d 51dc 4bbd 8e29 31bd
000000c0: 636f b2bc 1733 773d f6ad 293d fe8f 1f3d
000000d0: d389 18bc 6ccb 263d 1392 383b 58e8 be3c
000000e0: c71c 3a3d a4e6 8bb8 cfe3 f23c 21df dd3d
000000f0: ee6a a0bc 18ab 53bd f6aa bdbd afb5 e73d
00000100: 2da9 893d 209f 06ba 74c2 56bd f922 c53b
00000110: 0a35 61bd f0b6 483b 7005 a83d e9ee a63d
00000120: 26a9 e4bd 7068 a9bd 3080 89bd d14c a3bc
00000130: e6dc 3a3d 6dde 25bd 108e 7bbc f932 7dbb
00000140: c4ff 76bd 2a9d 833c 7a87 e1bc 588e 933c
00000150: 2733 143c ea71 07bd 0473 62bd 720b 47bb
00000160: 5bb2 95bd 769d cb3c b2e8 46bd 1dd8 7c3d
00000170: f605 cfbd 5dbe 12bd ab91 1abd c14e 58bc
00000180: e97a 32bb 20db 373d 3cc5 523d 721f 90bb
00000190: 8d46 5abc 00de 443d bc9e 30bd 0ebb 44bc
000001a0: a024 c53c c208 2ebd 8e47 63bd 2b20 9c3b
000001b0: 4f9c b9bc e3f4 bd3c 170d 3cbd 95ce d83a
000001c0: 9b64 b0b8 681d b13c a4e8 07bd 31bd edbd
000001d0: faea 01ba c5ab 8abd 4ca1 17bd 2db7 8bbc
000001e0: e78d bc3d e523 7fbd 5c1b 1c3d 177c 393d
000001f0: 0d56 a53d 9f9b 04bd 2e7a 19bd cfff b2bc
00000200: 4122 ce3c 3c58 643d 0675 cd3c bbfb 76bd
00000210: 9fdc 1e3a 6ab9 b53c 9883 cf3d 99ed 58bc
00000220: 5f3d 56bb f76e 803d a4ac cf3d 659b a8bd
00000230: abb2 163d f3c6 cf3d 4cf0 403d b1cb cabd
00000240: fbcd 45bd f18f 7fbd 0597 acbd 97e8 b13d
00000250: 17a5 183d 59aa 253c a9e8 fb3b 316d d13c
00000260: 3065 203d 5cd2 1bbd c93d 1ebd 969e 673d
00000270: 452a 1abd 66a9 343d 4176 bfbd bdf0 3a3b
00000280: c3f9 9c3c 9b09 8abc 51b3 7f3c 2aba d73c
00000290: 178b a4bd e888 38bd 4bb1 4f3d bc24 a33d
000002a0: 1636 c63b 8609 85bd 8dc4 f43c 8508 39bd
000002b0: 561b 873d 036f 97bc 366e 03bd e326 79bc
000002c0: c31f 983c fbc4 7c3d 95be 08bd b8e9 bb3b
000002d0: 738c d03d 8731 923c 3ff4 abbd 5fa0 6cbd
000002e0: 6572 a43d 6fa0 ed3c ba87 8e3d 7327 333c
000002f0: a6d9 a6bd 3485 a83d fc62 77bd b791 a63c
00000300: 4119 dd3a 34e8 c1bc 7c71 16bc dfd8 803d
00000310: e45d 993d 0134 70bd 2019 4cbd 9f8a a53c
00000320: 9461 44bd 2e50 5d3d 57cf 3ebd c3ad d1bc
00000330: 920f 6cbd 3340 8b39 b81b 57bb f40a 9bbd
00000340: 1522 d83d 63fc 06bd a71b b2bc b926 b73c
00000350: 3435 b33c c4a9 a03d b27b ca3d b1df 52bd
00000360: a067 bebd b4b9 64bc 5869 8c3d 986c 9d3d
00000370: 9bc0 693c 5905 313c d3d6 323d 72e9 8ebc
00000380: be2f a4bd 9860 f03c 51ce 193d 20c9 403c
00000390: 446c c53c 2ef6 c4bc c5ab 683d 60c4 313c
000003a0: 13d0 b8bc f17c b6bc b641 5d3d 5036 0f3c
000003b0: cbd6 a53c f7c8 36bd 310a 8539 6cc8 6ebd
000003c0: 84ed 743d 2f7a 1ebc 835a e43b 0e50 8ebd
000003d0: f890 a7bc cfc1 30bd a299 c53d 50eb bfbc
000003e0: 2b53 8cbd c4ee 413b 7acd 983d 3e0c 8a3d
000003f0: 0f43 ba3d 0953 22bc e83f 23bd bf5a 41bd
0.022689117 0.04476013 0.0009679384 -0.08372911 -0.07957361 -0.07256392 -0.04129764 -0.013836443
-0.08084402 0.04874353 0.039931405 0.0635459 -0.053612266 0.0727084 -0.08286769 -0.047100533
0.038158394 -0.06291302 0.0032842546 0.047355004 0.013740825 -0.10133926 -0.030138565 -0.0745567
-0.017784221 -0.012948634 -0.056743126 -0.10474821 -0.007693987 0.045230668 0.008593155 0.007102477
0.055055246 -0.031109609 -0.031937707 -0.10684889 0.023559565 0.04235293 -0.04657976 -0.0058444967
0.11192435 0.047605105 -0.11064036 -0.0141295595 0.047501754 0.07888518 -0.049770657 -0.04325252
-0.021781629 0.060351457 0.041425668 0.03895568 -0.009310204 0.040721342 0.002816324 0.02330415
0.0454376 -6.670997e-05 0.029649643 0.10833574 -0.019582238 -0.05167684 -0.09261124 0.1131395
0.06721721 -0.0005135406 -0.05243154 0.006016132 -0.054982223 0.0030626617 0.08204162 0.08151037
-0.11165075 -0.08271873 -0.06713903 -0.01993409 0.04562082 -0.040495325 -0.015353695 -0.0038635118
-0.06030251 0.016066153 -0.02753042 0.01801221 0.009045399 -0.03306762 -0.05528547 -0.0030371812
-0.07309409 0.024855357 -0.04856176 0.06172954 -0.10108559 -0.035826076 -0.037736576 -0.01320237
-0.0027233905 0.04488671 0.05145763 -0.00439828 -0.013322485 0.04806328 -0.04312013 -0.012007488
0.024065316 -0.04248882 -0.05548816 0.004764577 -0.022657542 0.02318806 -0.04591092 0.0016541058
-8.411073e-05 0.021620467 -0.033180848 -0.11608351 -0.0004955974 -0.06771044 -0.03701906 -0.017055118
0.09206753 -0.06229009 0.03811203 0.045284357 0.080730535 -0.032374974 -0.037470035 -0.021850495
0.025162818 0.05574821 0.025080215 -0.060298663 0.0006060097 0.022183139 0.101325214 -0.013240241
-0.0032690389 0.06271165 0.101403505 -0.08232764 0.036791485 0.101453684 0.047104165 -0.09902132
-0.04829214 -0.062393133 -0.08427242 0.08686941 0.037266817 0.010111415 0.0076876474 0.025564762
0.039159 -0.03804241 -0.03863314 0.056547724 -0.037637968 0.044106863 -0.09348727 0.002852484
0.019162064 -0.016850283 0.015606717 0.026333887 -0.08034342 -0.04505244 0.05070619 0.07965991
0.006048928 -0.06495957 0.029878879 -0.04517414 0.06597011 -0.018485552 -0.032087527 -0.015207025
0.018569833 0.061711293 -0.03338488 0.0057346486 0.101830386 0.017845882 -0.083961956 -0.05777013
0.080296315 0.029007165 0.069594815 0.010934698 -0.08146982 0.082285315 -0.060397133 0.020333154
0.0016868488 -0.023670293 -0.00918233 0.06291365 0.07488611 -0.058643345 -0.04982865 0.020207701
-0.04794462 0.054031543 -0.046584453 -0.025595551 -0.057632037 0.00026559978 -0.0032822918 -0.075704485
0.10553376 -0.03295554 -0.021741701 0.022357332 0.021875955 0.0784488 0.09886874 -0.05148286
-0.09297109 -0.013960291 0.0685603 0.07686728 0.014267112 0.010804498 0.043661904 -0.0174453
-0.080169186 0.029342934 0.037550274 0.011766702 0.024099477 -0.024043169 0.056804437 0.010850042
-0.022560155 -0.022276374 0.054017745 0.008740976 0.020244023 -0.04462525 0.0002537533 -0.058296606
0.059796825 -0.0096726855 0.0069687977 -0.06948863 -0.020454869 -0.04315358 0.09648444 -0.023427635
-0.068518005 0.0029591778 0.074610665 0.06740616 0.09094822 -0.009907492 -0.039855868 -0.047205683

lstm.bias_ih_l0 f4 [512]
00000000: 2a97 ce3d 808d 7b3b d596 f4bc ef95 99bc
00000010: e040 943c 6484 373c 967c 22bd 8746 efbc
00000020: f1e4 1e3d f69d 9b3d b53e 8c3d 223b 8dbc
00000030: 244b 763d 40bd c03d b1dc 703c 5483 1c3d
00000040: f998 03bd 1fb2 1bbd e883 54bc 3867 663d
00000050: 876c 80bd 38e1 733d daa5 d83d 9c35 963c
00000060: dc2f da3c 6ef4 c7bc 9042 4b3d 7b22 153c
00000070: 0495 6a3d 6e21 203d abaa d63d f398 b83d
00000080: eb27 c83b f837 503c 3493 80bd e3a1 d4bc
00000090: 5a42 9f3d d917 2e3d b0a1 e9bb f37e f23c
000000a0: d236 d6bc b155 d23d ff90 4fbd 7738 50ba
000000b0: 09c6 c7bc 2b15 b03d a446 d93d 2fd7 253d
000000c0: 1e30 c63d f56a 823d f1e5 16bc 56dc 333d
000000d0: 44a1 863d 654e 3b3d 7cd2 bf3d 1cfb be3d
000000e0: 1181 d13d d6ba df3c 8628 6f3c 4edb 9a3d
000000f0: 50a5 e53d 66ed a43d 18ea 14bd a0e6 863d
00000100: 327b 083d 6c32 7fbd dbf0 613d 4988 9c3d
00000110: 7122 4f3d a2bb e7bc b1a7 fcbc 7ad8 52bc
00000120: c99c b73c b5f6 a23c 68d4 27bc 8c93 8abd
00000130: cb27 493c d8ff 5c3d a78d 813d 92fc 5a3d
00000140: ec81 713d d66d 49bd 18b7 823d 74c6 33bc
00000150: cf02 e0bc db90 d33d 8f5f d23c 5dbd a53d
00000160: f3cb 4a3b b33e 62bd 844a 4a3d 04f2 393d
00000170: b896 52bb 676e 883d ab01 82bd df44 49bd
00000180: 6f67 6c3d 278a 3b3c e800 ab3c da14 2f3d
00000190: 0348 b63d 9e0f 223c 9adc 583d 36ba 57bd
000001a0: 0fa1 1cbd 3898 0c3d 39ea 89bc eca5 013d
000001b0: d41e 883c 50f1 423d d93b 4fbd 83f4 af3d
000001c0: 287b a83d 77d7 953d 6d09 0bbd ac1f da3d
000001d0: e39e e43d a722 35bd 7110 4a3d 0458 fcbc
000001e0: 6aef c63d 7d87 35bd 89c7 253d 6583 ba3c
000001f0: 8816 ce3c a11d 1dbd 885a 20bd cfea 8d3c
00000200: 706e 82bc 21d5 9a3d 9a1f d7bc 1a31 523d
00000210: 5777 643c 10bc bf3d 983f c23d c7ff 9ebc
00000220: 1109 bb3c 2d32 44bd 153a fc3b d9e0 00bb
00000230: 2bfc a83c 4e8e df3d 6b08 ba3d efc0 5d3d
00000240: 4f2b 993c 12a1 86bc 8c60 a53d 3d13 5a3c
00000250: 44b5 28bc b43f bb3d dcce 13bb adc6 d23d
00000260: fcd4 493d 5e2d a33d f478 a63b 81ef c43d
00000270: 49c6 453c 6250 b13d 7cc2 9d3d 27f2 633d
00000280: 8513 58bd ecbb ba3d a613 df3c 02c4 3abc
00000290: 599e 103a 897d bdbb fc22 a2bc b794 3e3d
000002a0: 2b61 463a 32f8 41bd c545 ac3c b2e6 95bb
000002b0: 4cf4 7b3d 96ce a73d dcd4 d0bb f26d 5abd
000002c0: 39ab c63d bd3e a4bc 7f8e c63c a2b8 3ebd
000002d0: d104 b9bc 1b9a 0f3d da24 09bd c5fc 9a3d
000002e0: 152f d83d 4a49 d43d 586a 903c a2ff 273d
000002f0: aea8 71bd 1a5f 88bc 4cf2 683d 36af e53d
00000300: 7b1c e3bc d7c8 9a3d 3636 173a a8a1 94bb
00000310: 3d86 6c3d 5aa5 82bc 0502 acbc 29d3 7a3d
00000320: da3b bd3d bb2d 363d 7240 81bd 389b a9bc
00000330: 58a5 933a a3ce ab3d 8a2b 00bd fd4e 103c
00000340: e986 a9bc 8f13 03bd ef6c 19bd 2b81 8abd
00000350: 5c17 a2bc 5b2b 323d ec9b da3c ce2d c53c
00000360: cdf4 59bc 4a76 0dbd 5eec 0ebd e7e8 883d
00000370: ae4c e13d 00af 4cbd dd5a 5f3d 1cf5 e03a
00000380: 9489 71bd c456 593c 829a 0d3d c46e ec3c
00000390: c074 573d 875e 56bd e5f3 6c3d 2a63 be3d
000003a0: 3c59 df3c 1e49 a73d 24b3 b23d d50d f3bc
000003b0: be20 8cbd 83af 4abd 63dc 903d 1254 48bd
000003c0: c435 2fbd 2113 593b 7010 1dbd 1e6c 8c3d
000003d0: 5641 b53d 38b0 413d 65f9 b03d 7fb3 913d
000003e0: c706 18bd a315 993d ac83 e2bc fd42 c93d
000003f0: a4bc 153d 8d6c 4d3d f5d1 8a3d 0c27 e93d
0.10087426 0.00383839 -0.029857079 -0.018748252 0.018097341 0.011200998 -0.039669596 -0.029208435
0.038792554 0.07598488 0.06847898 -0.01724011 0.060130253 0.094110966 0.014701054 0.03821118
-0.032128308 -0.038011666 -0.012970902 0.05625078 -0.062707 0.059540957 0.10578509 0.01833611
0.02663415 -0.024408545 0.049624026 0.009102459 0.05727102 0.03909438 0.10481771 0.09013548
0.006108274 0.0127086565 -0.06278077 -0.0259561 0.077763274 0.04250321 -0.0071298704 0.02960155
-0.026149187 0.102702506 -0.05067539 -0.0007942984 -0.024386423 0.085977875 0.10609177 0.04048842
0.096771464 0.06368057 -0.009210096 0.0439113 0.06573728 0.04572906 0.093663186 0.09325239
0.102296956 0.02731077 0.014597064 0.0756136 0.112131715 0.08053093 -0.03635606 0.06586957
0.033320613 -0.062303945 0.05516134 0.07643182 0.050569955 -0.028287712 -0.03084168 -0.012868995
0.022413628 0.01989303 -0.010243513 -0.067664236 0.012277554 0.05395493 0.06325846 0.053463526
0.058961794 -0.049177013 0.063825786 -0.010972608 -0.02734509 0.10330363 0.025680332 0.08092759
0.0030944317 -0.055235576 0.04938747 0.04539682 -0.0032133292 0.066616826 -0.063479744 -0.049137946
0.05771583 0.011446512 0.020874456 0.042744495 0.08900454 0.009891419 0.052944757 -0.05266782
-0.038239535 0.034324855 -0.016835319 0.031652376 0.016616262 0.047593415 -0.050594185 0.08591559
0.08226615 0.07316487 -0.033944536 0.10650572 0.11163118 -0.0442225 0.049332086 -0.030803688
0.09713633 -0.044318665 0.040473495 0.022767732 0.025157228 -0.038358334 -0.039148837 0.01732388
-0.015921801 0.07560182 -0.026260186 0.05131636 0.013944468 0.09362042 0.09484786 -0.019409074
0.022831472 -0.047899414 0.0076973536 -0.001966527 0.020628056 0.10915814 0.09083637 0.054139074
0.018697409 -0.016434226 0.080750555 0.013310251 -0.010297123 0.0914301 -0.0022553718 0.10291801
0.049275383 0.079676375 0.0050803367 0.09615994 0.012071201 0.0865791 0.077031106 0.055650856
-0.05275299 0.091178745 0.027231049 -0.011399271 0.00055167597 -0.005782787 -0.019792072 0.046528544
0.000756758 -0.047355838 0.021029362 -0.00457462 0.061512277 0.081937 -0.006373031 -0.05332751
0.09700627 -0.020049447 0.02423787 -0.0465628 -0.022585304 0.035059076 -0.03348241 0.07567743
0.10555855 0.10365541 0.017628834 0.041015275 -0.058998756 -0.01664691 0.056871697 0.112150595
-0.027723541 0.075578384 0.0005768271 -0.0045358725 0.057745207 -0.015947986 -0.020997057 0.061236534
0.092399314 0.044477206 -0.0631112 -0.020703897 0.0011264486 0.08389022 -0.031291522 0.008807895
-0.020694213 -0.032001074 -0.037457403 -0.06762918 -0.01978653 0.04349838 0.026685677 0.024069693
-0.013302994 -0.034536637 -0.034893386 0.066850476 0.110009536 -0.04997158 0.054530013 0.0017162892
-0.058969095 0.013265315 0.03457118 0.02886141 0.052601576 -0.052336242 0.057849783 0.09296258
0.02726423 0.08168243 0.087255746 -0.029669682 -0.068421826 -0.049483787 0.070732854 -0.0489083
-0.042775884 0.0033122974 -0.038345754 0.06856559 0.088503525 0.047287196 0.08641318 0.07114314
-0.03711584 0.0747483 -0.027650677 0.0982723 0.036556855 0.05015235 0.067783274 0.11384401

lstm.bias_hh_l0 f4 [512]
00000000: 9267 c7bb b049 903a 204d 4d3a 7b8f bf3b
00000010: 101e cfbc 5a97 053d 0f7a 003d e880 ef3c
00000020: c4ab e2bc 99bf 69bd 4eda ce3d ee5e 8ebd
00000030: fe84 913c 936a a13d 457e 883b 5770 8f3d
00000040: f0de 3fbd 23a6 31bd c29d 5b3d 8e01 22bd
00000050: 788c 4abd ad0e 413d 4eaf b4ba c75a 9b3c
00000060: af39 8e3d 4f0e 833d 29d5 70bd 2878 593c
00000070: e877 7a3d 65c2 1abc 41d0 c83c a7ae b53b
00000080: cb95 bb3d 03fb b8bc 10ee c63d 5579 513d
00000090: 026c 2d3d 1128 283d 0247 e23d e20d 813d
000000a0: 64b4 58bd de16 243b dd85 313c fd3d a83b
000000b0: 333e 8bbd c972 373d e618 a6bc 450a 273d
000000c0: 37d3 2fbd aa61 88bd bb4c 36bd 7fe7 593d
000000d0: 2dbe 73bd 9946 943a b421 66bd 5ab8 c43d
000000e0: 07fa c53d 5d83 0e3d fec6 1a3c 6a37 a03d
000000f0: be7e 533d 2df6 db3d a25c 17bd 419d c93d
00000100: 93c6 9cbc fda0 2e3b 8935 2fbd 6e4b 81bd
00000110: 2b9f 853d 2a48 273d de9c 093c afa0 c53d
00000120: d75a c5bc 7af3 c0bc 1cf6 2abd df13 733c
00000130: 1d59 c9bc 9640 783d aeaa d43d 34fc d93c
00000140: 4d68 fb3c 4119 9e3c 6913 d13c 8980 c83d
00000150: fa27 ce3d 6a12 b63c 1924 20bd b668 613d
00000160: 847a cbbc 6626 9a3d 923b b43c ac8c 7ebd
00000170: e4fc 223d ff81 663d 3860 923d 5d74 343b
00000180: 9707 123c 0350 f33c 4ce8 cfbc b3be bd3d
00000190: 49c7 e53b 32b6 a83d 3946 af3c 7232 733d
000001a0: f9b9 2cbd d8f5 1abd cb77 9b3d c6b7 503d
000001b0: 76b1 8e3b 871c 77bd 5e3b a53d 1d5c 6d3d
000001c0: ccc6 c03d a589 933d 8608 863c 077a 4abd
000001d0: 1f42 1cbd 4c82 bd3d d088 883d 084f 883b
000001e0: fb8e 8d3d 559a 3dbd 965b 803c 0e2d 67bc
000001f0: 4866 c43d 930b 25bc 1902 403c 59ee 8d3d
00000200: 41ce 6abb 24fe 59bd 5ed1 e2bb e6a5 793d
00000210: 4099 d0bc 0de5 3dbd 96a5 823d cc5b d9bc
00000220: 0bb0 883d 8084 843d e184 133d 65d5 023c
00000230: b643 a53d 4763 803d 1af8 e7b9 66d0 573c
00000240: e43e a23d c4be 47bd 8ebc 9c3d 0786 da3d
00000250: 5f08 c23d 2327 ecbc a4f8 573c 7de4 553d
00000260: 5fa5 883d 6a22 8e3d 98e5 863d c9ae 74bd
00000270: 6d2d a33d ccaa 38bd aaaa d03b 1663 b13d
00000280: ca69 d43d 54e6 c53d b977 1ebd fb13 803d
00000290: 1e93 d93d 25a7 523c f308 76bd d132 a8bc
000002a0: 590d c1bc 7c24 c33d a208 74bd b237 3fbd
000002b0: b8a4 3e3d 5fa5 ffbc ec61 c93d 8fd7 9f3c
000002c0: 1e2b 6fbc ca0d 9e3d 5bb8 e7bc c5e5 34bc
000002d0: 9912 7fbd 9193 cb3c 9208 2abd d47d 833d
000002e0: c9e5 ad3d 5fb8 aa3d 9737 dd3d 1549 6cbc
000002f0: 381a 45bd 9850 86bc ac22 343d 9d0f 2dbd
00000300: 9570 edbc ddaa 48bd f1b9 413d d2a2 dc3d
00000310: e3f0 48bd 0698 39bc f45b f03c 0568 6e3d
00000320: 8874 493d 36e9 43bc f0c5 6bbc b392 f3bc
00000330: 09f4 e8bc f618 5e3c f071 933c 9a8f 533d
00000340: 1885 603d 0d0a 213d f4b5 73bd 5d29 a13d
00000350: 232b 3d3b 1be0 b83d f45e 813d 73ae 2a3d
00000360: 9438 853d b82f 24bd 0e1a ab3d de09 6f3d
00000370: 1d5f 263b fcec dd3d 8151 ca3d f1e7 e03d
00000380: 1244 a23c e3a9 00bd 8799 1ebd 2556 35bd
00000390: 810c 2ebc 907b d73d 176a d23c fb99 fcbc
000003a0: 348f 753d b801 513d c95a d53c d63d cf3b
000003b0: dfaa 7a3c 3299 583d 8b75 8f3d c279 a23b
000003c0: a15c 2bbd c1d3 b23a 8eae a1bc 49d0 c33d
000003d0: ffbe 7ebd 0dc7 843c 99e4 82bd e60b ad3c
000003e0: 0af0 abbc 092c 85bd bda4 b3bc b5ee ae3d
000003f0: 5feb 49bd 9b52 d73d 3c4d ad3d 5d39 a83d
-0.0060853446 0.0011008289 0.0007831622 0.0058459616 -0.02528289 0.032615043 0.031366404 0.029236272
-0.027669795 -0.057067487 0.10100232 -0.069517 0.01776361 0.078816555 0.004165443 0.07003849
-0.04684347 -0.04337133 0.053617246 -0.039552264 -0.049450368 0.047133137 -0.0013785155 0.018964184
0.06944596 0.063992135 -0.058797035 0.013273276 0.061149508 -0.009445761 0.024513366 0.005544502
0.0915943 -0.02258063 0.097133756 0.051141102 0.042339332 0.041053835 0.110487 0.06301476
-0.05290641 0.0025038044 0.010835138 0.0051343427 -0.06798973 0.044787202 -0.020275544 0.04078128
-0.04292604 -0.06659253 -0.04450677 0.053199288 -0.059507538 0.0011312544 -0.056184486 0.09605475
0.096668296 0.034793247 0.0094468575 0.078230694 0.051634543 0.10740314 -0.036953576 0.09844447
-0.019137656 0.002664625 -0.042775664 -0.06313215 0.065244995 0.040840305 0.008399216 0.096497886
-0.024091167 -0.023553599 -0.041738614 0.014836281 -0.024578625 0.06060847 0.10384117 0.026609518
0.030689383 0.019299151 0.02552195 0.09790141 0.10066219 0.022225577 -0.039096925 0.0550315
-0.024838693 0.07526855 0.022001062 -0.062145874 0.039791957 0.056276318 0.071472585 0.0027535178
0.008912942 0.029701238 -0.025379322 0.092648886 0.007012282 0.08237876 0.02139579 0.05937428
-0.042169545 -0.03783211 0.07591208 0.05095651 0.004354651 -0.06032994 0.08067964 0.057949174
0.094129175 0.07203988 0.016361486 -0.04943278 -0.038148995 0.09253368 0.0666672 0.004159812
0.06912037 -0.04628976 0.015668672 -0.014109863 0.09589821 -0.01007356 0.01171925 0.06930227
-0.0035828503 -0.053220883 -0.006921931 0.06094923 -0.0254637 -0.046361018 0.06379239 -0.02653303
0.066742025 0.06470585 0.036015395 0.0079854475 0.080695555 0.06268936 -0.00044244603 0.013172245
0.07922152 -0.048765913 0.076531515 0.10670095 0.09474253 -0.028827256 0.013181839 0.052219857
0.06672167 0.06940158 0.0658676 -0.059737 0.07967649 -0.04508476 0.006368001 0.08661477
0.1037174 0.09663072 -0.038688395 0.06253811 0.106237635 0.012857233 -0.06006713 -0.020532044
-0.023565935 0.09528443 -0.059578545 -0.046683975 0.046543807 -0.031206785 0.0983313 0.019511966
-0.014597682 0.07717474 -0.02828615 -0.011041109 -0.062273595 0.024850639 -0.04151208 0.06420484
0.08491094 0.08335947 0.108016185 -0.014421721 -0.048120707 -0.016395852 0.04397838 -0.042251218
-0.028984347 -0.048991073 0.04729647 0.10773243 -0.049057852 -0.011327749 0.029340722 0.05820467
0.0491834 -0.011957457 -0.014390454 -0.029733038 -0.028436678 0.013555756 0.017998666 0.05165062
0.054814428 0.039316226 -0.059499696 0.078692175 0.0028864823 0.0902712 0.06316939 0.041670274
0.06504932 -0.04008457 0.08354579 0.05835902 0.0025386282 0.10836217 0.09878827 0.10981739
0.01980785 -0.031412017 -0.038720634 -0.044271607 -0.010623098 0.105216146 0.025685353 -0.030835142
0.059951022 0.05102703 0.026044266 0.00632451 0.015299528 0.052880473 0.070048414 0.0049583623
-0.041836385 0.001364343 -0.019736554 0.095612116 -0.062193867 0.016208196 -0.06391258 0.021123838
-0.020988483 -0.0650254 -0.02192914 0.085416235 -0.049296733 0.105138026 0.08461997 0.08214066

lstm.weight_ih_l1 f4 [512, 128]
00000000: 13a5 5bbd b726 9fbd 1b26 763a 418a 91b8
00000010: 5fe8 a9bd c725 a8bd f1fe a63c 56dc c03c
00000020: efc4 90bd 962b 9b3d 4250 a53d 3fed 90bd
00000030: aac0 153d ec78 91bd e948 493d a5a0 b13c
00000040: 41b1 89bd a857 47bd d94e 3abd 5d63 6b3b
00000050: fdde 403d 33e3 c5bd bd2d c6bd 1b31 513d
00000060: 2777 bc3c a583 4ebc 337b bfbc 4b1d 0b3d
00000070: 7db9 bf3d a15c 7a3c c7cf cabd b99f 7bbd
00000080: 220f 8cbd 8c9c 993d f5a6 0d3d 023f 0f3d
00000090: b8bc 60bd 9fff 903c 7bea e4bc bdb7 7fbc
000000a0: 0466 53bd 633d 9abd 968b 02bc 5f8b 98bd
000000b0: 33e2 37bd 38cd 91bd 0c0c 2b3d 4f35 bcbd
000000c0: d404 de3c 4762 d1bc 947b 233d 08cd 113d
000000d0: 0e46 7abd 3930 243d 18ca 683d e672 69bd
000000e0: 01e4 8c3c 0ee9 bbbd 443e 113d 26d5 3b3b
000000f0: 57e0 8d3d 175f 353d 6afe 2abd fd72 8b3d
00000100: 53e5 87bd 2de7 30bd 28f4 38bc 93b2 ac3a
00000110: 82cf 6ebc 881f 7bbd 4a04 953b 8759 7f3d
00000120: c9b8 2fbd e1c4 9ebc e735 a6bd 567b 213d
00000130: 4e2b 87bd 0cb2 143d e0f6 c8bd ebea 54bd
00000140: 5617 a93d 7d03 9fbc e294 813d c076 86bd
00000150: f0c4 9ebd bc64 b73c 5686 27bd 44a2 493d
00000160: 8f69 81ba 5f55 ae3d 003e 9a3d 90a8 07bd
00000170: 3007 82bd 61a5 5b3d bfbb 96bd 6455 19bb
00000180: 15f1 89bd 6f3b bdbc 0299 a93d b851 7c3d
00000190: 39ea edbc ed54 50bd 30f9 a83d 0bee 92bd
000001a0: c7ec aabc 0ed6 22bd b2ed fd3c 2abc aa3d
000001b0: 1945 aa3c aeac fd3c 0d8d 32bd fd4b b7bd
000001c0: cee4 1bbc 99ec f4bb bc73 a0bd 810e 233d
000001d0: 1e06 57bd 5af1 5fbc b4ea 73bd 0a40 833b
000001e0: 7937 c93c 75bf 31bc 131a 7b3d d587 98bd
000001f0: db89 5abd 0eaa 11bb 24b0 513d 74cb 743d
00000200: f30d 3cbd 87cf aebd 2d41 863c 3de9 98bd
00000210: 017c bcbd b1b9 2cbd 6d4a ae3d bae5 acbd
00000220: 72aa 98bd d133 643c 0d67 8dbd 063c c6bc
00000230: cad4 69bc d736 133d ad94 8abc 1d02 d9ba
00000240: 86d8 2cbd 5b6f 4c3c 517a 723d 5537 7a3d
00000250: 73a8 c03d da11 6fbd 111e c33b b687 ce3c
00000260: e28a 5d3d 9612 d6bd 7a3e 353d 2f3e 483d
00000270: 38a8 83bd 1522 3b3d 7449 f7ba 6689 94bb
00000280: 70c2 64bd c98f 9bbd 3338 80bd 7146 83bc
00000290: 3cc3 9fbc 7032 de3d 2e07 b4bd 3569 87bc
000002a0: 2660 843d 4377 1dbd 5eed 85bd cf99 d2bd
000002b0: 3f94 7bbd e55c 9f3d 9cea 26bd 2b65 09bd
000002c0: 1086 cabd 5581 c8bd 0dfe 843d 0dd2 58bd
000002d0: 9a5f eebb 5936 64bd 14ab 76bd c014 a0bc
000002e0: c160 f2bc 88d8 a5bd b376 acbd 5af0 1d3c
000002f0: 81d4 4cbd c8d2 ca3d aed2 c6bd 7ea8 053d
00000300: 3ed4 6b3d b9a8 6a3a 4924 853d 4ec2 ae3c
00000310: 7e9e 94bc 8419 8fbd e8cf b5bc df92 2b3d
00000320: fe5b c6bd d234 6fbc 077f 5f3d 5f8b 973d
00000330: 96fd 8c3d 0e95 833d 6239 b3bc 1d32 73bd
00000340: 1f91 af3d b727 803c a919 1fbd e21e 4d3d
00000350: e9b1 1e3d e9d2 0f3d 5b43 bfbc 802c 25bd
00000360: 6794 8ebb 4dcc 1cbd 9b3e 34bd ec02 19bb
00000370: 7194 eb3c 18c8 59bc 0a6d 403c d14d 30bc
00000380: 4f6f 5c3d 71d4 31bd db17 483d 4120 bf3d
00000390: e62d 6dbb 28f7 49bd 9f24 0abd 6d8e be3d
000003a0: 190c 98bd 44e4 bb3c dc53 f53c 6943 6f3d
000003b0: 8b8b bf3c 58e3 943d 502b e43c 1a0e b1bd
000003c0: b5aa 64ba 8914 35bd 7e73 2bbd 67dd 3abd
000003d0: 7a61 32bd ef54 2cbd c5f2 b83c bba8 a2bc
000003e0: 06e2 0d3d d3c6 2d3d 9d3d cd3c b2e1 15bd
000003f0: 6deb 1c3d 6bfe 463d 12bb f0bb 4cb6 b13a
-0.053624224 -0.07771056 0.00093898334 -6.9398906e-05 -0.082962744 -0.082103305 0.020385237 0.023542564
-0.07068812 0.07576673 0.080719486 -0.07076501 0.036560692 -0.07103142 0.0491418 0.021683047
-0.067232616 -0.04866758 -0.04548535 0.003591738 0.04708766 -0.096624754 -0.09676693 0.05107222
0.023006035 -0.012604629 -0.023374176 0.033963483 0.09361551 0.0152808735 -0.09902912 -0.06143162
-0.06838824 0.07500562 0.03458305 0.0349722 -0.054867476 0.017700015 -0.02794384 -0.015607771
-0.05161096 -0.0753124 -0.00796785 -0.07448458 -0.044893455 -0.071192205 0.041759536 -0.09189855
0.027101912 -0.025559558 0.039912775 0.035595924 -0.061101966 0.04008505 0.056833357 -0.05699434
0.017198564 -0.09175311 0.03545977 0.0028660982 0.06927555 0.044280138 -0.041746534 0.06809042
-0.06635537 -0.043189216 -0.01128868 0.0013175778 -0.014575841 -0.061309367 0.0045476304 0.06234124
-0.042900834 -0.019380989 -0.0811575 0.039424263 -0.066000566 0.03630261 -0.09812713 -0.051981848
0.08256404 -0.019410843 0.06327225 -0.065656185 -0.077524066 0.022386901 -0.040899597 0.049227014
-0.0009873378 0.08512377 0.07531357 -0.033119738 -0.06349027 0.053624514 -0.073600285 -0.0023396844
-0.06735436 -0.02309963 0.08281137 0.06160137 -0.02904235 -0.05086224 0.08250654 -0.07174309
-0.020864857 -0.03975492 0.030997131 0.08336671 0.020784901 0.03096613 -0.043591548 -0.089500405
-0.0095150005 -0.0074744937 -0.078345746 0.039808754 -0.05249607 -0.013668383 -0.059550002 0.004005437
0.024562584 -0.01084887 0.061304163 -0.07447783 -0.053354125 -0.0022226605 0.05119337 0.05976434
-0.04591174 -0.085356764 0.0163885 -0.07466362 -0.09203339 -0.042169277 0.08510289 -0.08442254
-0.07454385 0.01392837 -0.06904421 -0.024198543 -0.014271924 0.03594097 -0.016916597 -0.0016556416
-0.04219868 0.012477721 0.05919868 0.061087925 0.09407129 -0.058366634 0.005954512 0.025211196
0.054087527 -0.10452764 0.044249035 0.048887428 -0.064285696 0.0456868 -0.0018866495 -0.0045329807
-0.055849493 -0.07595784 -0.06260719 -0.0160248 -0.019502275 0.10849464 -0.08790432 -0.016529659
0.06463651 -0.038443815 -0.06539415 -0.10283243 -0.061420675 0.0778139 -0.040751085 -0.033543747
-0.09888852 -0.09790293 0.06493769 -0.052934695 -0.00727458 -0.055715892 -0.060221747 -0.019541144
-0.029587151 -0.08097941 -0.084210776 0.009639824 -0.050007347 0.099034846 -0.09708153 0.03263139
0.057575457 0.0008951533 0.065010615 0.021332886 -0.018141981 -0.069872886 -0.022193864 0.041888114
-0.09685515 -0.014599996 0.054564502 0.0739963 0.06884305 0.06424914 -0.021877948 -0.059373964
0.085726015 0.015643938 -0.03884283 0.05007828 0.038743887 0.03511325 -0.023347547 -0.04032564
-0.004351187 -0.038280774 -0.044005018 -0.002334769 0.028757306 -0.013292335 0.011744747 -0.01076074
0.05381709 -0.04341549 0.048850875 0.09332324 -0.0036190688 -0.049307972 -0.03372633 0.09304509
-0.074241824 0.022935994 0.029947214 0.058413897 0.023381969 0.07269925 0.027852684 -0.08645268
-0.0008722947 -0.044209037 -0.04185819 -0.045621302 -0.043549992 -0.042073186 0.022576699 -0.019855848
0.03463938 0.04242594 0.025053794 -0.036592193 0.038310457 0.048582476 -0.0073465193 0.0013558357

lstm.weight_hh_l1 f4 [512, 128]
00000000: db07 c93d 23b7 d53d 6101 bc3d 18b7 933c
00000010: ed79 69bd 2220 b93c 874f 273d f58a 62bd
00000020: 2591 0b3d bc2f 1cbd 2f01 5e3c f6c1 073c
00000030: 070b 293c 4f9f b03d 2f36 8f3d 94d9 293d
00000040: aff4 a0bd ab90 cdbb 24e1 b5bc 4381 083d
00000050: 04c6 933d 5b0e ae3c 309c 7abd 4f6e e5bc
00000060: 8156 e5bc 1236 2c3d 5542 f53c e427 163d
00000070: d98b 163d c256 99bd 52ae bebd e9a0 693d
00000080: 8de4 cb3d 138e bbbc 84cb a23d bfd8 a9bc
00000090: f642 843d bcbe a4bd f5a9 88bd b4ca 903c
000000a0: 21a5 9f3d b830 f13b 98f4 6c3d b6fa 1fbd
000000b0: 8e6d b8bc b9f9 8cbd dbfe b6bb d3c1 953d
000000c0: 07fa 653d fbd5 a0bb 6d4e 45bd 6058 9dbd
000000d0: b076 8e3d 807c a83c efe8 263c 15c3 9cbd
000000e0: cdff a7bd 853b b1bd 0c52 99bc b446 80bd
000000f0: 6294 d4bb 7bf5 d4bb 1e50 b73b c673 cabb
00000100: 110d 6ebd e4b5 37bd 3f24 8c3c 60d3 553d
00000110: 3af1 8cbd d6b6 a3bc b287 b83d a3d8 38bd
00000120: 1c2a 243d d2ae df3d a4d8 7d3d 8b7b 3fbd
00000130: 1839 81bd 7ae0 cf3d eedf 3abd 6f1b 8dbd
00000140: 0f00 73bc 73fb 84bd a258 bd3d 4145 f33c
00000150: 9b58 8cbc b660 b6bd 4b5b be3d db19 87bd
00000160: 7183 023d 0547 483b 82c9 6f3d 1d33 a53d
00000170: 3648 843d 73d5 3bbd 3721 5c3d 9193 e33d
00000180: b3e6 4bbc eae6 f13c ad72 66bd 23db 903c
00000190: e7fb 623c 19af 453d 4dde d6bd 48f2 593d
000001a0: 47a9 99bd e4d5 ea3c 4f00 203d 9ccd d7bc
000001b0: a73d aebd 121e 463b 650b 8b3c 705d d1bd
000001c0: e822 77bc e741 b7bc bdb0 c83d 5e8b cd3d
000001d0: 6fe3 6f3d e203 06bd a6ea bd3c 0674 3bbd
000001e0: 352c 0fbd 7378 8b3d d780 a53d d017 b4bd
000001f0: 8717 a43d 2c17 6ebc a295 c43c 601e 55bd
00000200: 1992 883d 2c73 b23d e3c1 1f3d fc10 a7bd
00000210: c162 45bd ae51 77bc 0af8 79bd 1af6 e33b
00000220: 2e18 c73d 8c58 dbb9 848a 4abd dd3f 8c3d
00000230: 0032 b3bd 2f5f ce3c 68af d13d 2d57 7e3d
00000240: 1170 b9bd 14e4 533d 1cfd 183d 8af7 823d
00000250: c5df 5c3d f5f1 69bc 0aca 73bd a85e d9bd
00000260: 0158 b7bd 4ae9 85bc 6eed 1ebd 31e5 43bd
00000270: 7747 34bd bfa7 86bd e95e 9fbd 76a2 07bc
00000280: cba9 d0bc 39f0 db3d f797 02bd e5e1 e03c
00000290: 51a3 94bd 5706 b6bd f15a 043d 630a 933d
000002a0: 119d 753d 4a81 42bd bf48 203d af14 9ebd
000002b0: 60d4 b03c 5163 bbbb a1da cabd 15af cdbd
000002c0: 58ae 093d 6240 03bc 1435 fabc 8e0b 90bd
000002d0: f94f 4bbd 360e 443c 293e 7c3c 7af2 a33c
000002e0: 23f0 393d 758b c2bc cda6 19bd 4ee8 063d
000002f0: 2ddd 313d 840a 5e3d 480b 94bc 85d3 d23d
00000300: fc85 d93d c873 89bc 6b09 a3bb 6819 2ebd
00000310: 1275 4dbd 4713 073d b3a1 ac3d c726 debc
00000320: 075e f1bb d227 47bd 7b5b 5ebd 77a7 ab3c
00000330: 2a7b 4a3d 1569 3e3d 7c18 8e3c ccff 85bd
00000340: c249 adbd 3e62 8f3d e4fd a43c 28ee bcbd
00000350: 9fa5 a5bd b649 0f3d 2562 cbbc 2dde 863d
00000360: 0a47 75ba 1396 b53d be79 dc3c 2405 7e3d
00000370: 0640 34bc c10a 25bd fa85 b83d 5fa1 c83d
00000380: 211f 313d 5a03 9e3d 1e20 cebd 6d44 3dbc
00000390: c462 283d cc1d c03c aec7 373d 5193 a3bc
000003a0: 6d86 da3b ee61 5a3d d251 c4bb 6405 cfbc
000003b0: ef55 9bbd c54c d1bc 0547 9a3d b50f 823d
000003c0: 02cf 18bd 0283 47bd d00c 3ebd 0ad0 c8bc
000003d0: 142e b03d 4c5f 3cbd 803e 0ebd c178 d5bb
000003e0: b698 8ebc a104 1fbd 2990 58bb 4ed7 c2bd
000003f0: ac87 8fbb f626 c93d 0bd9 0cbd f14c 7abd
0.098159514 0.10435321 0.091799505 0.018031642 -0.057001043 0.02259833 0.040847328 -0.0553083
0.034073967 -0.03813146 0.013550087 0.00828599 0.0103175705 0.08624136 0.069927566 0.041467264
-0.0785917 -0.0062733493 -0.022202082 0.0333264 0.07215503 0.02124708 -0.06118411 -0.0280067
-0.02799535 0.042043753 0.029938856 0.036659136 0.036754463 -0.07487251 -0.09310593 0.05703822
0.09955702 -0.022894895 0.07948974 -0.020733235 0.06458084 -0.08044192 -0.06673042 0.017674781
0.07795168 0.007360544 0.05785045 -0.039057456 -0.022513177 -0.06883568 -0.0055845804 0.0731236
0.056146648 -0.004908321 -0.048170496 -0.07682872 0.069562316 0.020567179 0.010187372 -0.076543964
-0.08203087 -0.086539306 -0.01871588 -0.062634856 -0.006487415 -0.00649899 0.0055942675 -0.006178352
-0.05811793 -0.0448512 0.017107127 0.052203536 -0.06881948 -0.019984644 0.09010257 -0.045128476
0.04007922 0.10922016 0.061974183 -0.04674868 -0.06309718 0.101502374 -0.045623712 -0.06889998
-0.014831557 -0.06493273 0.09245421 0.029696109 -0.017132094 -0.08905165 0.092947565 -0.065967284
0.031863634 0.003055991 0.058541782 0.0806639 0.06459086 -0.045857858 0.053742614 0.111121304
-0.01244514 0.029529054 -0.056261707 0.017682618 0.0138540035 0.04826269 -0.10491619 0.053209573
-0.0750299 0.028666444 0.039062794 -0.02634316 -0.08507853 0.0030230326 0.016973207 -0.102229
-0.015084006 -0.022370292 0.09799335 0.10036348 0.058566507 -0.032718547 0.023183178 -0.045764945
-0.03495427 0.06810083 0.08081215 -0.087936044 0.080123 -0.014531892 0.023997132 -0.05203092
0.06668491 0.087133735 0.039003264 -0.081575364 -0.048189882 -0.015095158 -0.061027564 0.006956828
0.09721409 -0.00041836908 -0.049448505 0.068481185 -0.08749771 0.025191871 0.10238534 0.062094856
-0.09054578 0.051731184 0.03735076 0.063948706 0.05392434 -0.014278878 -0.05951885 -0.10613757
-0.08952332 -0.016346592 -0.03880065 -0.047825996 -0.044013467 -0.06574964 -0.077817746 -0.00827848
-0.025471589 0.10739178 -0.031883206 0.027451465 -0.07257713 -0.08887928 0.03231329 0.071797155
0.059964243 -0.04748658 0.039131876 -0.07718789 0.021585643 -0.0057186265 -0.099049814 -0.1004316
0.033613533 -0.0080109555 -0.030542888 -0.07033454 -0.049636815 0.011966279 0.0153956795 0.020013083
0.045395028 -0.023748139 -0.03751259 0.032936387 0.04342382 0.054209247 -0.018071786 0.102942504
0.106212586 -0.016778842 -0.004975488 -0.042504698 -0.050160475 0.03297737 0.08429279 -0.0271181
-0.0073659453 -0.04862196 -0.05428646 0.020953877 0.049433865 0.046486933 0.01734566 -0.0654293
-0.08461334 0.0700116 0.020140596 -0.09225112 -0.0808823 0.034982406 -0.024827072 0.065853454
-0.0009356594 0.08866515 0.02691352 0.06201662 -0.0110015925 -0.04029346 0.09009929 0.09796404
0.043242577 0.07715483 -0.100647196 -0.0115519585 0.041109815 0.023451708 0.044868164 -0.019967707
0.006668857 0.05331605 -0.005991199 -0.025271125 -0.0758475 -0.025549302 0.07533077 0.06350652
-0.037306793 -0.048708923 -0.046398938 -0.024513263 0.08602539 -0.04598932 -0.034727573 -0.006514639
-0.017406803 -0.038822774 -0.003304491 -0.09513722 -0.004380187 0.09821884 -0.034386676 -0.061108533

lstm.bias_ih_l1 f4 [512]
00000000: c1f9 dcbc 90ae d8bc 857e 9c3d 2270 a93d
00000010: 1f3f 973c 4493 aa3d 6214 7c3d c839 4cbc
00000020: 72ad a73d 3e0e 783d 8c8a 913d 6b30 78bd
00000030: 1281 ae3d 0760 23bc 7064 85bd 6c79 5dbc
00000040: 5495 833d 118b 30bd 6344 d43b e6be 133d
00000050: 82aa 723b 2579 843c 6a18 0abc 6383 8abd
00000060: 0a98 163c d5fa 3dbc 4a61 b93d 456f d23d
00000070: bde6 cb3d dc98 a23d 3550 ba3c d962 37bd
00000080: 6c38 8bbd 169a 9fbc 3af9 af3d f227 413d
00000090: d2df c93c afd9 3abc 3070 e0bc af2c e7bb
000000a0: d1ed 3dbd 0f22 00bd 3dfd 9d3d 5ad7 883d
000000b0: bf4f d93b 3d74 13bd 543b 1d3c fb81 6fbb
000000c0: 9120 4f3d 5a87 39bd de9d db3d 2e5e 80bc
000000d0: e581 eebc d86e 273d d4aa 9c3d 6f21 ecbc
000000e0: 5697 e6bc 8905 8e3d 2a1f c83c 1ddf bb3b
000000f0: 4f0b f1bb be4f fc3c 9aad 263d fce9 8cbd
00000100: 490f 943c 66e3 14bd 517f 4b3d 630c d8bc
00000110: 28b8 593c d488 9b3d 537e 883c b7bd 583d
00000120: d888 b63d b107 aa3b 535a cabc 7d28 eebc
00000130: 6475 6bbd 5a55 c03d b2cc e13c 33d4 263d
00000140: 4865 9d3d c66e 7dbd 4727 823c f38f 4c3d
00000150: 0156 dfbb 3486 b23c 7f55 cdbc ff0d d83d
00000160: f76e 0bbd 3628 b83d db2f a33d 63d0 973d
00000170: 105b 823d 7d42 183c d446 1e3d 095a 11bc
00000180: e1ab 80bc eec4 443c bd04 993d 3687 923d
00000190: 9848 c33c b64a 4cbc 2bd4 2abd 1ef3 7c3d
000001a0: 4b6d 3a3d 7fe9 2dbd fcbd 343d 2a2b 363d
000001b0: e638 653d 2c9a bd3d 8eb3 45bd b836 da3d
000001c0: 5a62 bcbb e9a7 88bd ad82 2e3d 0ee0 35bd
000001d0: 50f1 34bd 978f dc3c 3137 4e3d 2603 e43c
000001e0: ee36 763d 043a a13d 69c2 583d 1d35 853d
000001f0: 692c d03d 14c7 873d 4267 963b 5417 7fbd
00000200: d191 92bd 5898 0c3d 2ab1 0bbd 255d 7e3d
00000210: 33b5 7ebd 8906 1f3c 84f3 fa39 5d5f 223d
00000220: 649c 393d 8f68 c7bc 1ff7 5abd fd40 debc
00000230: 4059 9b3d 05fa bc3d d383 de3c c203 8c3d
00000240: 692f 823d 818c d73d 48ac e5bc 30e5 4a3d
00000250: 112c 33bc afd4 9d3d 5383 2b3c 69dc a4bc
00000260: b66f 243d b957 58bd 4fdc 52bc d8b9 193d
00000270: 14c8 ae3d 7fc3 a63d bd48 04bd ef51 24bd
00000280: e02f 8ebc b414 f03b d4bf 233c 9d9f 893d
00000290: 7acd d43c b7cb 183d 6bb7 0e3d 5aed 17bd
000002a0: c2a6 9a3d cc92 913d 7fdc 593d 24e4 efbb
000002b0: 6528 1d3d 48fb 26bd 7bf0 3bbd 5cab 933d
000002c0: df0d d73d f461 80bb 4d65 8d3d b9f8 8ebd
000002d0: 5a5a 81bb e80f 7e3c c025 2e3d 1f4b 6dbd
000002e0: aaf0 babc c488 bdbc 2312 0a3c ced2 e3bc
000002f0: 869f 593d 4b42 31bc a120 c13c 0e22 b03c
00000300: 630d 1cbd 31a0 0c3c f87b 713d 50eb 9b3b
00000310: 63b6 4d3c 3765 85bd 1c51 c53c 0ec0 a23c
00000320: c4c7 2bbd 3074 653c 6743 e03d 76d9 6abd
00000330: c922 a13d f504 a83d 6985 8abc 912e dfbc
00000340: 6a77 81bd 85b6 7cbc 5b74 1dbd 4596 273d
00000350: 2eb8 90bc 4304 d23c 4bca 053d 3a09 b43d
00000360: 7940 263a 1d1a 57bd 3923 af3d 6a96 7a3d
00000370: 872d 8fbd a867 9bba 5092 b93d 1fa5 cb3d
00000380: 8d68 a8bc 787d c43c 36fb 65bc aaa5 d83c
00000390: fb46 cd3d 5e3b 323d 7384 dfbc 925f 10bd
000003a0: dbed feba aa76 963d 4ae8 cd3d def8 623c
000003b0: f30f f0bc 7dfa 3b3d b6b5 d7bc bcb4 bbbb
000003c0: c421 49bc f40b 1e3d b5fc a43c e46c 87bd
000003d0: 9fc1 e03d 0ada fd3c 681b db3d 7735 6e3d
000003e0: c0b9 6a3d ee05 86bd ea29 3cbd 60f7 6abd
000003f0: 5cfb db3d 05d6 b43c eaae 633c 8c92 bc3d
-0.02697456 -0.026450425 0.07641319 0.08273341 0.018462716 0.0832887 0.061542876 -0.012464948
0.08187379 0.060560457 0.07106504 -0.06059305 0.08520712 -0.009971625 -0.065132976 -0.013517719
0.064249665 -0.043101374 0.006477879 0.036070727 0.00370279 0.016171047 -0.008428672 -0.06763341
0.009191522 -0.011595448 0.090517595 0.10275129 0.09956119 0.07939312 0.022743324 -0.044772003
-0.06797871 -0.019482654 0.08592458 0.047157235 0.024642859 -0.011404439 -0.027397245 -0.0070548872
-0.046369378 -0.03128248 0.07714317 0.066817 0.006631821 -0.035999525 0.009596664 -0.003654598
0.050568167 -0.045295097 0.1072347 -0.015669908 -0.029114673 0.040877193 0.076497704 -0.028824536
-0.028148334 0.069346495 0.024428923 0.0057333843 -0.0073560844 0.030799743 0.040692903 -0.068805665
0.018073695 -0.036349677 0.049681965 -0.026373094 0.013288535 0.07594457 0.016661799 0.0529153
0.089128196 0.005188905 -0.024701273 -0.02907204 -0.057485 0.093912795 0.027563427 0.040729713
0.076853335 -0.06187322 0.01588787 0.04994197 -0.0068156724 0.021792509 -0.025065182 0.105495445
-0.03404137 0.08992045 0.07968112 0.074127935 0.06365025 0.009293196 0.038641766 -0.008871564
-0.015706958 0.012009842 0.07471607 0.07154696 0.023838326 -0.012468984 -0.041706245 0.061755292
0.045514386 -0.042459007 0.044126496 0.04447476 0.055962466 0.092579216 -0.04826694 0.10654968
-0.005749029 -0.06672651 0.04260509 -0.04440313 -0.044175446 0.026923938 0.050345603 0.027833533
0.06011098 0.07872394 0.05291978 0.06504271 0.101647206 0.06629768 0.004589946 -0.062278107
-0.071567185 0.034324974 -0.034104504 0.06210055 -0.062184524 0.009706148 0.0004786515 0.039641727
0.04531516 -0.02434185 -0.05345833 -0.027130598 0.075853825 0.09227375 0.027162468 0.06836654
0.06356699 0.10524846 -0.028036252 0.049534976 -0.010935799 0.07706582 0.010468322 -0.020124631
0.0401456 -0.052818034 -0.0128699085 0.03753075 0.085342556 0.08142757 -0.03229593 -0.0401172
-0.017356813 0.0073266868 0.009994466 0.06719897 0.025976885 0.037303653 0.03484289 -0.03709159
0.07551338 0.071080774 0.053188797 -0.0073208977 0.0383686 -0.040766984 -0.045883637 0.072104186
0.105006926 -0.003917927 0.06904087 -0.06981034 -0.0039475383 0.015506722 0.04251647 -0.05793297
-0.022819836 -0.023136504 0.008427176 -0.02781048 0.05313065 -0.010819028 0.023575129 0.021500614
-0.038098704 0.0085831145 0.058956116 0.004758276 0.012555691 -0.06513446 0.024086528 0.01986697
-0.04193856 0.014004752 0.10950356 -0.057336293 0.07867963 0.082040705 -0.016909318 -0.027243884
-0.063216045 -0.015424375 -0.038441043 0.040914793 -0.017665949 0.025636798 0.032663625 0.08790822
0.00063420046 -0.052515138 0.0855164 0.061178602 -0.069911055 -0.0011856453 0.0906111 0.09943604
-0.020557666 0.02398561 -0.014036944 0.026446182 0.10023304 0.04351365 -0.027284836 -0.035247393
-0.0019449549 0.07346852 0.10054071 0.01385328 -0.02930448 0.04589318 -0.026331764 -0.0057283323
-0.012276117 0.03858562 0.020140031 -0.06612566 0.1097443 0.030987758 0.10698587 0.058156457
0.05730605 -0.065441 -0.04593841 -0.05736482 0.10741302 0.022074709 0.013896683 0.09207639
