backend/models/WH002_SKU-001.pth (torch, 830897 bytes, 13 tensors)

lstm.weight_ih_l0 f4 [512, 6]
0	0x3c87a243	0.016556865
1	0xbd0d705a	-0.034530975
2	0xbd8c4da7	-0.068507485
3	0x3dc1e477	0.09467404
4	0xbd191e6b	-0.037382524
5	0xbb90c547	-0.0044180485
6	0x3db08c3f	0.086205
7	0x3d1a7c86	0.03771641
8	0xbd191c59	-0.03738055
9	0x3da8b635	0.08237878
10	0xbd1eba35	-0.0387518
11	0x3dc04647	0.09388404
12	0xbd2ca6b4	-0.042151168
13	0x3b8c2b60	0.0042776316
14	0xbcb1ef4b	-0.02172055
15	0x3db0a08f	0.08624374
16	0x3d40d956	0.047082268
17	0x3d83aafb	0.06429096
18	0x3dc5567a	0.09635635
19	0x3dba0870	0.090836406
20	0x3b4101ce	0.0029450539
21	0xbc7f7fce	-0.015594436
22	0x3d4d7fb4	0.050170615
23	0xbd637f3a	-0.055541255
24	0x3d88e8b9	0.06685013
25	0x3dd52fe7	0.10409527
26	0xbc2ee1ab	-0.010673921
27	0x3dac3c1e	0.08409904
28	0x3d9a1d1d	0.07525084
29	0x3d0025cd	0.03128605
30	0x3cd0a184	0.025467642
31	0x3d5a4873	0.05329175
32	0x3d241ccc	0.040066525
33	0x3c6fa878	0.014627568
34	0x3d6d061d	0.05786716
35	0xbcb8569e	-0.02250224
36	0x3d7c8d47	0.06165817
37	0xbca825c8	-0.020525828
38	0x3bb9cb6a	0.005670001
39	0xbd70dd21	-0.058804635
40	0x3dab8d3b	0.08376547
41	0xbc6fdbf5	-0.014639844
42	0xbd120778	-0.035651654
43	0x3ca3e15e	0.020004924
44	0x3d0982b8	0.03357193
45	0xbd54d3bc	-0.051959738
46	0x3cf3b8c7	0.029751195
47	0x3d069df3	0.032865476
48	0xbc5c9b90	-0.013464823
49	0x3d77f890	0.060539782
50	0xbaec4862	-0.0018026943
51	0x3d1cd579	0.03828952
52	0xbb90d66e	-0.0044200933
53	0x3d9db790	0.077010274
54	0x3d704374	0.05865808
55	0x3d3719e8	0.04470244
56	0x3d2c7b0c	0.042109534
57	0xbb579ab1	-0.00328986
58	0x3c287017	0.010280631
59	0x3cd93da6	0.026518654
60	0xbd80c1c3	-0.06286957
61	0x3c7ae00d	0.015312207
62	0x3da9896e	0.08278166
63	0x3da577e6	0.080795094
64	0x3d6c25fb	0.05765341
65	0xbb9a72b1	-0.0047133793
66	0xbd5d62c2	-0.05404926
67	0x3da63d56	0.08117168
68	0x39c9e321	0.00038506932
69	0x3d925009	0.07144172
70	0xbc8d0d3a	-0.017218221
71	0x3d03436e	0.032046728
72	0x39c796d2	0.00038068608
73	0x3cedabd0	0.02901259
74	0xbcd99b47	-0.0265633
75	0xbd6bd8a8	-0.057579666
76	0x3cac2d26	0.021017622
77	0x3d9bf2df	0.07614683
78	0x3c0769a0	0.008264929
79	0xbce92ac4	-0.028462775
80	0x3ce0dfc1	0.027450444
81	0x3cce78e5	0.025204131
82	0xbd47fd5f	-0.048825618
83	0xbdd2216d	-0.10260282
84	0x3b5581a5	0.0032578495
85	0xbda12125	-0.0786765
86	0xbcd11e39	-0.025527107
87	0xbd28ea10	-0.041238844
88	0x3d17be42	0.03704668
89	0x3d0f27bc	0.034950003
90	0x3d421641	0.047384504
91	0x3d90c7fd	0.07069395
92	0x3d49732c	0.049182102
93	0x3ca1e932	0.019764517
94	0x3d6f5fbf	0.05844092
95	0x3d1698f6	0.03676697
96	0x3ca9a5a2	0.020708863
97	0xbd78137f	-0.060565468
98	0x3d279cda	0.04092107
99	0x3d9b9d4c	0.075983614
100	0xbd879964	-0.06621054
101	0x3c0fea47	0.008783883
102	0xbd59aa5e	-0.05314099
103	0x3da9b238	0.08285946
104	0xbd1d0120	-0.03833115
105	0xbd7e5b4f	-0.062098797
106	0x3d706f14	0.058699682
107	0x3d6f5784	0.05843307
108	0xbd45fe90	-0.048338473
109	0x3b37c0bc	0.0028038463
110	0x3dd2ac05	0.10286716
111	0x3cc6d1c0	0.024269938
112	0xbd6e13fa	-0.05812452
113	0xbcc942ef	-0.02456805
114	0x3dac1731	0.08402861
115	0x3dd18a71	0.10231484
116	0x3d85adee	0.06527315
117	0x3da177ab	0.07884153
118	0x3baeef6d	0.0053386004
119	0x3ddb2a76	0.10701458
120	0xbd65c36c	-0.056094572
121	0xbd77ca28	-0.060495526
122	0x3db22699	0.08698768
123	0x3d74959c	0.05971299
124	0xbd718efc	-0.05897425
125	0xbca2b372	-0.019860957
126	0xbd1bcd01	-0.038037304
127	0x3da4a024	0.08038357
128	0x3b34df99	0.0027599095
129	0x3d6878bb	0.056755763
130	0x3d7c6eec	0.06162922
131	0x3dd64952	0.104632035
132	0xbb8dead8	-0.004330974
133	0x3c9a46b9	0.018832551
134	0x3c21aa08	0.009867199
135	0x3d901aae	0.07036339
136	0xbd2ba40d	-0.041904498
137	0xbc6f74ef	-0.0146152815
138	0x3d47fad6	0.0488232
139	0x3b4d1ea2	0.0031298776
140	0xbd0b5669	-0.034017954
141	0x3d8f0896	0.069840595
142	0xbcd29748	-0.025706902
143	0x3c609d5b	0.0137093915
144	0x3ce7c7be	0.028293487
145	0x3da317c0	0.07963514
146	0xbd0eef64	-0.03489627
147	0xbbd04150	-0.006355442
148	0x3d1ccdbf	0.038282152
149	0xbd25a2e5	-0.04043855
150	0xbd3715f8	-0.044698685
151	0x3b1c5d51	0.0023859332
152	0xbb4a6388	-0.003088208
153	0xbba698ff	-0.0050841565
154	0xbc5f4b4e	-0.013628794
155	0x3d93f23f	0.07223939
156	0xbd49f108	-0.04930213
157	0x3d63de71	0.05563206
158	0x3d7ff038	0.06248495
159	0xbd3f636d	-0.04672568
160	0x3d6000bb	0.054688197
161	0x3b234d56	0.0024917922
162	0x3db05bd7	0.08611267
163	0x3db4af47	0.08822494
164	0x3d5c8b9d	0.053844083
165	0x3d71784d	0.05895262
166	0x3d55b8f3	0.052178334
167	0x3dd94bdb	0.106101714
168	0x3dc01803	0.0937958
169	0xbc282934	-0.01026373
170	0xbd6ec676	-0.058294736
171	0x3a066102	0.00051261496
172	0x3d0381f0	0.03210634
173	0xbcfe8436	-0.031068902
174	0xbd5356ce	-0.051596455
175	0xbcc45616	-0.02396683
176	0x3d90a8c2	0.07063438
177	0x3d228018	0.03967294
178	0x3dab4891	0.0836345
179	0xbd80bc8b	-0.06285962
180	0x3dc47f1a	0.09594555
181	0x3d6cfd59	0.0578588
182	0x3d978855	0.0739905
183	0xbbf93cd8	-0.00760613
184	0x3ccd5324	0.025064059
185	0x3d8639e7	0.06554013
186	0x3de36b6a	0.11104472
187	0xbcc77d90	-0.024351865
188	0xbcbed482	-0.023294691
189	0x3d70b64b	0.058767598
190	0x3de092b6	0.10965483
191	0x3ca05112	0.019569907
192	0xbd038dc9	-0.03211764
193	0x3dc9e874	0.0985879
194	0xb8a453df	-7.8357516e-05
195	0x3d8f1b42	0.06987621
196	0x3d993539	0.074808545
197	0xbd907baa	-0.07054837
198	0x3d706301	0.058688167
199	0x3dd16434	0.1022419
200	0x3da648ad	0.081193306
201	0x3d1e83f3	0.038700055
202	0x3d940919	0.07228298
203	0xbb745609	-0.0037282726
204	0x3d30a5c0	0.04312682
205	0x3da30324	0.079595834
206	0x3daeb696	0.08530919
207	0xbd1e309d	-0.03862058
208	0x3dab3bd9	0.083610244
209	0x3d45ae17	0.04826173
210	0x3d96de68	0.073666394
211	0x3b4034cc	0.0029328344
212	0xbc97095e	-0.018437084
213	0xba7d5de6	-0.0009665176
214	0x3d81e8a7	0.06343203
215	0xbd6fc042	-0.05853296
216	0xbc84bed4	-0.016204275
217	0xbd298bcf	-0.041393097
218	0xbd8797f7	-0.06620782
219	0xbc7ab911	-0.015302912
220	0x3d19f9d3	0.037591767
221	0xbd60a46b	-0.0548443
222	0x3c3fc583	0.011704805
223	0x3d8149f0	0.063129306
224	0x3dc3b036	0.09555094
225	0xbd2ebd98	-0.04266128
226	0xbcd0e139	-0.02549802
227	0xbd9bfc6a	-0.076165035
228	0x3d636544	0.055516496
229	0x3cce8b11	0.025212796
230	0x3bb92fa8	0.005651433
231	0xbbf30f8d	-0.0074176253
232	0x3ba43ee2	0.005012379
233	0x3cff4c0d	0.031164194
234	0x3c9481d1	0.018128308
235	0x3dbe62ba	0.09296174
236	0xbc38fbea	-0.01129053
237	0x3cb4662e	0.02202138
238	0x3d470635	0.048589904
239	0xbd71b646	-0.05901172
240	0x3dbc6ae4	0.09200075
241	0x3d0aadca	0.033857144
242	0xbd06bc0a	-0.03289417
243	0x3d2be5ce	0.041967206
244	0xbd216efe	-0.03941249
245	0xbccd9a6d	-0.02509805
246	0x3d33e7cf	0.04392224
247	0xbd84cb42	-0.06484081
248	0xbbec3a7a	-0.0072091194
249	0x3d03cb8f	0.03217655
250	0x3d4b38db	0.04961477
251	0xbd7f333a	-0.062304713
252	0x3d3c255a	0.04593406
253	0xbd1bec8a	-0.038067378
254	0xbd624bca	-0.05524806
255	0xbd2ec37c	-0.042666897

lstm.weight_hh_l0 f4 [512, 128]
0	0xbc521d2f	-0.012824341
1	0x3c184445	0.0092936205
2	0xbd5b7b8b	-0.053584617
3	0x3b08d323	0.00208778
4	0x3dbd97d2	0.09257473
5	0xbdab5e18	-0.08367556
6	0x3ced129a	0.028939534
7	0x3d63049b	0.055424314
8	0xbc1ebb06	-0.009688145
9	0x3d483fad	0.04888885
10	0xbd383644	-0.044973627
11	0x3b27c88e	0.0025601718
12	0xbba63d1c	-0.005073203
13	0xbdbec069	-0.09314043
14	0x3d69631d	0.056979287
15	0xbdc36178	-0.09540075
16	0xbd25a860	-0.040443778
17	0xbdb61ee6	-0.08892612
18	0xbdc3f39a	-0.09567948
19	0xbdd73015	-0.10507218
20	0x3b58d19f	0.0033083928
21	0xbb7b42a1	-0.0038339274
22	0xbd37aabc	-0.04484056
23	0xbd6fd8b1	-0.058556262
24	0x3dd1ae1e	0.10238288
25	0x3b711c47	0.0036790536
26	0xbdcb8181	-0.0993681
27	0x3c9ca0bc	0.019119613
28	0x3d8fb1f2	0.07016362
29	0xbda4da2b	-0.08049425
30	0x3dad8e2f	0.08474385
31	0xbdd27b76	-0.102774546
32	0xbd8e4854	-0.06947389
33	0x3d3cee25	0.04612555
34	0x3bf6cae1	0.0075315093
35	0xbd3e6326	-0.046481274
36	0x3cc80194	0.024414815
37	0xbb1dfe6a	-0.0024107941
38	0x3ab34eda	0.0013680116
39	0xbd5f2a41	-0.054483656
40	0x3c5355cd	0.0128988745
41	0x3da067bb	0.07832285
42	0xbd44a007	-0.048004176
43	0x3da7c88d	0.08192549
44	0xbc333ea8	-0.010940231
45	0xbd0ecfbd	-0.034866083
46	0xbd2e9aca	-0.042628087
47	0x3c884489	0.016634243
48	0xbb3538f2	-0.002765235
49	0xb9c00bb0	-0.00036629802
50	0xbc26afab	-0.010173718
51	0xbd5bd409	-0.05366901
52	0x3dcf9e8e	0.10137664
53	0x3c88fc75	0.016721943
54	0x3d80728f	0.0627185
55	0xbd40a1bd	-0.047029246
56	0xbd8c7305	-0.06857876
57	0xbd29c933	-0.041451644
58	0xbc3c43ff	-0.011490821
59	0xbd5f3b49	-0.054499898
60	0x3d02af0e	0.031905226
61	0xbc9e02f7	-0.019288523
62	0xbdc492ed	-0.09598336
63	0xbd6849b1	-0.056710903
64	0x3da69668	0.081341565
65	0x3da3bba1	0.07994772
66	0xbd715685	-0.058920402
67	0x3dbe3972	0.092883006
68	0xbd805a15	-0.06267182
69	0x3deb8443	0.11499836
70	0x3dc375e3	0.095439695
71	0x3d880279	0.066410966
72	0x3cf44462	0.029817764
73	0x3ccde3d3	0.02513305
74	0x3c9c01c0	0.019043803
75	0x3cf80012	0.030273471
76	0x3ceefefc	0.02917432
77	0xbd84b0eb	-0.06479057
78	0x3d0131f7	0.03154179
79	0xbd915da6	-0.0709794
80	0x3dcb2069	0.09918291
81	0xbc090097	-0.008361957
82	0x3dd7c5ed	0.10535798
83	0x3c86d124	0.016457148
84	0xbd8ade53	-0.06780686
85	0x3cdf124e	0.027230408
86	0xbdc47652	-0.0959288
87	0x3c324975	0.010881771
88	0xbc4b982f	-0.01242642
89	0xbd8ce2c7	-0.06879192
90	0xbd2d23ff	-0.042270657
91	0xbd50d78b	-0.050986808
92	0xbd04785d	-0.03234135
93	0xbdc879d0	-0.09788859
94	0xbd7ad535	-0.061238486
95	0x3dca485a	0.09877081
96	0x3dd66e01	0.104702
97	0x3d7d5ea5	0.06185784
98	0x3a839585	0.0010039067
99	0x3d8c3dd6	0.06847732
100	0x3cf82a28	0.03029354
101	0xbcc8955f	-0.024485288
102	0xbd875b59	-0.0660922
103	0x3d7ae23d	0.061250914
104	0x3de32f39	0.110929914
105	0xbcc16cbd	-0.02361142
106	0xbca65ef3	-0.020308947
107	0x3d447cd0	0.047970593
108	0x3d482b0d	0.04886918
109	0xbcee39b3	-0.029080248
110	0x3cc1ad10	0.023642093
111	0xbbd9300e	-0.006628043
112	0xbcfa78d2	-0.03057519
113	0x3d927bbe	0.07152508
114	0x3a9a37dc	0.0011765915
115	0xbd24cf8a	-0.040236987
116	0xbd15bc60	-0.0365566
117	0x3daf145a	0.08548804
118	0x3d25b5ba	0.04045651
119	0x3d1d0556	0.038335167
120	0xbb9f51f6	-0.0048620654
121	0xbd66c6ca	-0.056341924
122	0x3ddc545a	0.10758276
123	0x3d8e9962	0.06962849
124	0x3d9af361	0.07565952
125	0xbc9d561d	-0.019206101
126	0xbd41f910	-0.047356665
127	0x3ce54f76	0.027991991
128	0xbd25b426	-0.040455006
129	0x3d0c07db	0.03418718
130	0x3d92ccf8	0.07168001
131	0x3d8d3411	0.068946965
132	0x3d9a9001	0.07546998
133	0x3d49f75f	0.049308177
134	0xbd370174	-0.04467912
135	0xba78f3cc	-0.0009496778
136	0xbdaee824	-0.08540371
137	0xbd174bf4	-0.03693767
138	0xbd1972b9	-0.037462924
139	0xbdb5ea64	-0.08882597
140	0xbd058d60	-0.03260553
141	0x3d6c55e7	0.05769911
142	0x3d3567c0	0.044288397
143	0x3c6c6ae6	0.014429783
144	0x3d9710fc	0.073762864
145	0xbd83b8b2	-0.06431712
146	0x3d4f980b	0.05068211
147	0xbdba74f0	-0.09104335
148	0x3d8efd43	0.069818996
149	0x3d5e286f	0.05423778
150	0xbb7af56e	-0.003829326
151	0xbc9d6236	-0.01921187
152	0xbd7d2875	-0.06180616
153	0xbc6b22cb	-0.014351557
154	0xbba531d5	-0.005041341
155	0x3cc4e491	0.02403477
156	0x3d5e1b38	0.054225177
157	0x3d17cd92	0.03706128
158	0xbcdca3e5	-0.02693362
159	0xbd26b6ea	-0.040701784
160	0x3d7550a1	0.059891347
161	0xbd8a66c1	-0.0675788
162	0xbcdf2559	-0.027239488
163	0x3c300dcb	0.010745476
164	0x3d33e7d5	0.043922264
165	0x3d9eb025	0.07748441
166	0x3cb67723	0.022273606
167	0x3d331959	0.043725345
168	0xbdb06bb2	-0.08614291
169	0x3cd2e5d9	0.025744366
170	0x3d80be25	0.06286267
171	0x3dc3606e	0.09539877
172	0xbd2ddacc	-0.04244499
173	0xbd8d0aed	-0.068868496
174	0x3cd795ab	0.026316484
175	0xbd7f6618	-0.062353224
176	0x3d8cca06	0.068744704
177	0x3cb2a424	0.021806784
178	0xbd31399c	-0.04326783
179	0xbdafd948	-0.08586365
180	0x3d63a924	0.055581227
181	0x3c9d2407	0.019182218
182	0xbca42622	-0.020037714
183	0x3caa44d1	0.020784767
184	0xbdca7fea	-0.09887679
185	0xbd1cba43	-0.03826357
186	0x3bc55686	0.0060222773
187	0x3d547306	0.051867507
188	0x3c168c4c	0.009188723
189	0x3da8ef63	0.082487844
190	0x3d38d047	0.045120504
191	0xbd9b9796	-0.07597272
192	0xbce12892	-0.027485166
193	0x3d75cad9	0.060007904
194	0x3dd2ffe8	0.103027165
195	0x3d7faf61	0.062423114
196	0x3d14a4a3	0.036289822
197	0x3d4c9a81	0.049952034
198	0x3ddc5a98	0.10759467
199	0x3b9c3163	0.0047666295
200	0x3db74bf3	0.08950033
201	0xbd7bf1c8	-0.061509877
202	0xbdb87509	-0.09006698
203	0xba9e5ce0	-0.0012082122
204	0x3dc90f60	0.09817386
205	0xbd2e3b44	-0.04253699
206	0xbd77eea7	-0.06053033
207	0xbd532563	-0.051549327
208	0x3cae233d	0.021257037
209	0xbcece6a9	-0.028918581
210	0x3dcf0097	0.101075344
211	0xbc643b25	-0.013930117
212	0x3cf6d9dd	0.030133182
213	0x3d168eab	0.036757153
214	0x3d8ab3ee	0.067726
215	0x3d715c63	0.058925997
216	0x3dc42cf5	0.095788874
217	0x3d3af56f	0.04564422
218	0x3b92b559	0.0044771847
219	0x3d86c4c2	0.06580497
220	0xbd85a6ee	-0.0652598
221	0xbd40d764	-0.047080413
222	0xbd4691b9	-0.048478816
223	0xbb142332	-0.0022603986
224	0xbcc7e607	-0.024401678
225	0x3caf30be	0.021385547
226	0x3daa4908	0.08314711
227	0x3d41b607	0.047292735
228	0x3d2da237	0.04239103
229	0xbda7c6df	-0.081922285
230	0x3c8c4221	0.017121376
231	0x3d853030	0.06503332
232	0x3d2fbb25	0.042903084
233	0xbd324c1e	-0.043529622
234	0x3b615e96	0.0034388653
235	0xbdb6b7ba	-0.08921762
236	0xbdc6af1e	-0.0970137
237	0xbd36602b	-0.044525307
238	0x3dd13d6d	0.10216794
239	0xbb5b731d	-0.003348536
240	0x3d48658b	0.048924964
241	0x3c80d56a	0.015726764
242	0x3dabcc6f	0.08388602
243	0x3db3fc78	0.08788389
244	0xbd620cd6	-0.055188023
245	0x3d0b4395	0.033999998
246	0x3d188a7a	0.037241437
247	0x3cf9cb7b	0.030492535
248	0x3d952b15	0.07283608
249	0x3d2be0c4	0.0419624
250	0x3d7d8ee4	0.06190385
251	0x3b41f51c	0.002959556
252	0xbbb221f7	-0.005436178
253	0x3dbbc170	0.09167755
254	0xbd73e980	-0.059548855
255	0xbbbaaa27	-0.0056965533

lstm.bias_ih_l0 f4 [512]
0	0xbd239e63	-0.03994597
1	0x3d10584e	0.035240464
2	0x3dafbd17	0.08580988
3	0x3bda033d	0.006653218
4	0x3d85bd4c	0.06530246
5	0x3d992be0	0.074790716
6	0xbd81587e	-0.06315707
7	0xbd77bc92	-0.06048257
8	0xbcf1d0d2	-0.029518519
9	0xbc7dd3a9	-0.015492358
10	0xbbf6a67b	-0.0075271702
11	0x3d8b77b0	0.06809938
12	0x3d19677c	0.037452206
13	0xbcc1ae92	-0.023642812
14	0xbcad14e1	-0.02112812
15	0xbc18fac4	-0.009337131
16	0x3d93419c	0.07190248
17	0xbd0cae19	-0.03434572
18	0x3d8aef3e	0.06783913
19	0x3d2a637c	0.041598782
20	0xbd1b04ce	-0.03784638
21	0x3dd22536	0.10261004
22	0x3ceb43c6	0.02871884
23	0x3da5223c	0.0806317
24	0x3d9acf57	0.07559078
25	0xbcd6ffcf	-0.026245026
26	0xbb58eebf	-0.0033101288
27	0x3d58c842	0.052925356
28	0x3d8f99ae	0.07011734
29	0x3dcff31d	0.10153792
30	0x3be424a1	0.0069623743
31	0x3db5e21c	0.088810176
32	0xbcb9c8ae	-0.0226787
33	0x3dac77dd	0.084212996
34	0x3dcbfb42	0.09960033
35	0xbcbeaf18	-0.02327685
36	0x3b70beeb	0.003673489
37	0x3da8c5b3	0.08240833
38	0xbcc187b4	-0.023624279
39	0xbd0f835e	-0.03503739
40	0xbd06d599	-0.032918546
41	0x3d23f677	0.04002997
42	0x3d0163c4	0.031589285
43	0x3de4dcf1	0.11174954
44	0xbd568723	-0.05237497
45	0x3d997ddf	0.07494711
46	0xbdd40b10	-0.103536725
47	0xbcf0ab1e	-0.02937847
48	0x3c32eee5	0.010921215
49	0xbd44ec4b	-0.04807691
50	0xbcb4faaf	-0.022092192
51	0xbd2bc8ac	-0.041939422
52	0x3c8eaa29	0.017415123
53	0x3d990238	0.07471126
54	0xbd044d6a	-0.03230039
55	0x3da04290	0.07825196
56	0x3d49eea5	0.049299855
57	0x3dc39ac1	0.09551001
58	0x3bef93bb	0.007311312
59	0xbc823177	-0.015892727
60	0xbd1e9185	-0.038712997
61	0x3dac0ec9	0.084012575
62	0x3b9e2c5f	0.004827067
63	0x3da3dc28	0.08000976
64	0x3d937b9a	0.072013095
65	0xbd93a882	-0.07209875
66	0x3c685677	0.014180771
67	0x3b947016	0.0045299632
68	0xbcf0c2f7	-0.029389841
69	0x3c908954	0.017643608
70	0x3d4b6d3d	0.049664725
71	0x3da30d91	0.07961572
72	0xbd77eff3	-0.060531568
73	0xbcf83bdf	-0.030301986
74	0x3da9fa91	0.08299745
75	0x3d958e33	0.07302513
76	0x3dc49f01	0.0960064
77	0x3db2677b	0.087111436
78	0x3d8947c0	0.06703138
79	0x3d676525	0.056492943
80	0x3cfc13a2	0.03077108
81	0xbd7a7aed	-0.061152387
82	0x3d68bd13	0.05682094
83	0x3daec48a	0.085335806
84	0xbd0c109c	-0.034195527
85	0x3dc7d07f	0.09756564
86	0xbd063c23	-0.032772195
87	0x3dc6e0a2	0.09710814
88	0xbd0569f3	-0.032571744
89	0x3cfec693	0.031100547
90	0xbd377733	-0.04479141
91	0x3cc611fb	0.024178496
92	0x3d80f2b2	0.062962905
93	0x3bf17b4c	0.0073694345
94	0x3d9a4ab3	0.07533779
95	0xbcd649a4	-0.026158161
96	0x3c08f671	0.008359537
97	0x3d7f1196	0.06227263
98	0x3cc35afb	0.023847094
99	0xbd19a162	-0.037507422
100	0x3d47a942	0.0487454
101	0x3cbc882d	0.023014152
102	0x3c2f355c	0.010693874
103	0xbd857caa	-0.065179184
104	0xbbba2fb2	-0.0056819553
105	0x3d6891e0	0.056779742
106	0xbbd59b63	-0.0065187677
107	0x3d3c8e36	0.04603406
108	0xbd503ee8	-0.050841242
109	0x3d9635c0	0.07334471
110	0xbd038152	-0.03210575
111	0xbca12ea7	-0.019675566
112	0xbc514ac6	-0.012774175
113	0x3d933a12	0.071888104
114	0xbd2b4c44	-0.04182078
115	0x3d22102f	0.039566215
116	0xbd65332d	-0.05595701
117	0xbc0c2006	-0.008552557
118	0x3c681279	0.0141645605
119	0xbd2a7a5d	-0.0416206
120	0xbd4c1b34	-0.04983063
121	0xbd2e4ae1	-0.04255188
122	0xbd1b41af	-0.037904438
123	0x3d7a8ccf	0.06116944
124	0x3d13817a	0.03601215
125	0xbd4e018c	-0.050294444
126	0xbd7c6b1d	-0.06162559
127	0xbd5c8c9f	-0.053845044
128	0xbb162bf3	-0.002291438
129	0x3c605863	0.013692948
130	0x3de3b3a0	0.11118245
131	0xbccd31dc	-0.025048189
132	0xbd297a0b	-0.041376155
133	0x3b4b924f	0.0031062549
134	0x3d3e1d42	0.04641462
135	0x3c7796d1	0.015111641
136	0xbd267114	-0.040635183
137	0x3d852e53	0.06502976
138	0x3d945219	0.072422214
139	0x3cf255de	0.02958196
140	0xbd3f0c1c	-0.046642408
141	0x3cac7042	0.021049622
142	0x3d1c8499	0.038212392
143	0x3d2e4968	0.042550474
144	0x3d678b8b	0.056529563
145	0x3dc1320a	0.09433372
146	0xbce9a4c4	-0.02852095
147	0xbd198f29	-0.037490044
148	0x3dd92987	0.10603624
149	0xbcc0cb93	-0.023534572
150	0xbc4f705d	-0.012661067
151	0x3daaaa1e	0.083332285
152	0x3d89e4d6	0.067331
153	0xbc9c9b6e	-0.019117083
154	0x3d4242a6	0.047426842
155	0xbd6c4ee2	-0.057692416
156	0x3d2ac7ff	0.041694637
157	0x3ddcc469	0.1077965
158	0x3d1eabea	0.03873817
159	0xbd6a3292	-0.057177134
160	0x3d6222c7	0.055208948
161	0xbd4c5e57	-0.049894657
162	0xbd00dc33	-0.03146
163	0x3cf19f66	0.029494952
164	0x3d737d21	0.059445504
165	0x3b6d9491	0.0036251883
166	0x3d3b197e	0.045678608
167	0xbc8c91a9	-0.0171593
168	0x3cc1fd8b	0.023680469
169	0xbb21e40b	-0.0024702575
170	0xbd42388a	-0.0474172
171	0x3cafb609	0.021449106
172	0x3ad4e6c9	0.0016243096
173	0x3d1697d1	0.036765877
174	0xbd99b1ad	-0.07504592
175	0xbc9ec49f	-0.019380866
176	0xbd0df689	-0.034658942
177	0x3d2301de	0.039796703
178	0x3b97c614	0.004631767
179	0xbcc9a215	-0.02461342
180	0x3c965ca7	0.018354727
181	0xbb4cf3a4	-0.003127315
182	0x3d556ded	0.052106787
183	0x3d86dd4c	0.06585178
184	0xbd6689d5	-0.05628379
185	0x3d3ed3b4	0.046588615
186	0xbd576e0f	-0.052595194
187	0x3d83a3ce	0.06427728
188	0x3de373da	0.11106081
189	0x3c88c5d2	0.01669589
190	0xbd61c177	-0.055116143
191	0x3d426d27	0.047467377
192	0xbd29ae9f	-0.041426297
193	0xbd2818b7	-0.041039195
194	0x3cfed632	0.031107996
195	0x3da43c60	0.08019328
196	0xbc9f483f	-0.01944363
197	0x3c22ce91	0.009936945
198	0x3cf8da79	0.030377613
199	0x3d2e8a73	0.042612504
200	0x3c165228	0.009174861
201	0x3c046e54	0.008082945
202	0x3d32f8ca	0.043694295
203	0x3c9168c8	0.017750159
204	0x3c7c3c34	0.015395213
205	0x3d5c9408	0.05385211
206	0xbd677b86	-0.056514286
207	0x3a228750	0.00061999727
208	0x3d10e141	0.03537107
209	0xbd5f446f	-0.054508623
210	0x3dbd9016	0.09255998
211	0x3cfba64c	0.030718945
212	0x3d8e2012	0.06939711
213	0xbd03b0a2	-0.032150872
214	0x3d1174dd	0.03551184
215	0x3d862dbd	0.06551693
216	0x3da1f0e2	0.07907273
217	0x3dc515ea	0.096233204
218	0xbd747c33	-0.059688758
219	0x3cb06fb7	0.021537645
220	0xbc04ae6d	-0.008098227
221	0xbd40b2d7	-0.047045555
222	0x3ce51013	0.027961766
223	0xbd808d7e	-0.062769875
224	0x3d6680fa	0.056275345
225	0x3d9e1d57	0.0772044
226	0x3d6f522a	0.058427967
227	0x3dbe6bb7	0.09297889
228	0xbcd9e7b1	-0.026599737
229	0x3d6133b9	0.054980967
230	0x3d9631b5	0.073336996
231	0x3c0a58be	0.008444009
232	0xbd6f0ec8	-0.058363706
233	0x3da37917	0.079820804
234	0xbb903826	-0.0044012247
235	0xbcbf5e11	-0.023360284
236	0xbbbd0055	-0.005767862
237	0xbc4dacae	-0.012553377
238	0xbd43d582	-0.04781104
239	0xbd358bae	-0.044322662
240	0x3da570c8	0.08078152
241	0xbb68b621	-0.0035508948
242	0x3d572f66	0.052535437
243	0x3c349698	0.0110222325
244	0x3d25079b	0.040290456
245	0xbcb12d86	-0.021628153
246	0xbc87fa88	-0.016598955
247	0x3d93dc7e	0.0721979
248	0xbca70815	-0.020389596
249	0xbd54e515	-0.051976282
250	0x3d15b56b	0.036549967
251	0x3daa1093	0.083039425
252	0x3c8779cd	0.016537571
253	0x3d066eac	0.03282039
254	0x3d01eed9	0.031721924
255	0xbcc881f2	-0.024476025

lstm.bias_hh_l0 f4 [512]
0	0x3d716955	0.058938343
1	0xbd36db66	-0.04464283
2	0x3ddc8b39	0.10768742
3	0x3d0884e9	0.033329878
4	0x3db9d5eb	0.09074005
5	0x3d8f4067	0.06994706
6	0xbc3ab5d1	-0.0113958875
7	0x3de90e1e	0.11379646
8	0x3be7a554	0.007069269
9	0xbc392c69	-0.011302092
10	0x3d642749	0.055701528
11	0x3d501328	0.05079952
12	0xbc3fb0ab	-0.011699836
13	0x3bcae62c	0.0061919894
14	0x3d652415	0.055942614
15	0x3cd9679e	0.026538666
16	0x3b279c4d	0.002557534
17	0x3dc1b667	0.094586186
18	0x3db7ba2f	0.089710586
19	0x3de7b74b	0.11314257
20	0xbc4ce5ac	-0.01250593
21	0x3c6a3425	0.014294659
22	0xbc879768	-0.016551688
23	0x3d5eb0fc	0.054368004
24	0x3d9c9681	0.07645894
25	0xbd1984ee	-0.037480287
26	0xbd4f0292	-0.05053956
27	0x3cb93ef4	0.022613026
28	0x3c0ecda2	0.008716019
29	0x3dc5fe9d	0.09667704
30	0xbd7ef460	-0.062244773
31	0x3d320d4f	0.043469723
32	0x3a6aee57	0.0008961907
33	0x3dbc22a2	0.09186293
34	0x3dcbdbfc	0.09954068
35	0xbd687ab2	-0.056757636
36	0xbb7052d9	-0.0036670475
37	0x3dbb48e5	0.09144763
38	0x3d5c3980	0.053765774
39	0x3db5d506	0.088785216
40	0xbb7ccb09	-0.0038573167
41	0xbd3c42e7	-0.04596224
42	0xbd0df111	-0.034653727
43	0x3c71c54c	0.014756512
44	0xbd421cd7	-0.047390785
45	0x3b152087	0.0022754984
46	0xbdc77244	-0.09738591
47	0x3d6beb68	0.057597548
48	0xbc86c181	-0.016449692
49	0x3dd10a46	0.10207038
50	0x3dab8c5c	0.08376381
51	0x3d80fe51	0.06298507
52	0xbd155093	-0.036453795
53	0x3d92c6c0	0.07166815
54	0x3d7a37fe	0.061088555
55	0xbc4b3125	-0.012401854
56	0xbbe42425	-0.0069623166
57	0x3c70770f	0.014676823
58	0x3dddce95	0.10830418
59	0xbd654a1b	-0.055978876
60	0x3cc9942e	0.02460679
61	0xbc3e6a43	-0.011622014
62	0x3d1abfb9	0.037780497
63	0x3dbfa5e2	0.093578115
64	0x3d995acf	0.074880235
65	0x3d643628	0.05571571
66	0x3d8d29c2	0.0689273
67	0xbd2e77ed	-0.04259484
68	0x3d8d8cdf	0.06911635
69	0xbb9d339b	-0.0047974116
70	0xbc364623	-0.01112512
71	0x3dd3ac4d	0.10335598
72	0x3d21c4e4	0.03949441
73	0xbd71eb60	-0.05906236
74	0x3d4f4b3f	0.05060887
75	0x3dc161df	0.094424956
76	0x3dd16e03	0.10226061
77	0xbd5acbf8	-0.053417176
78	0xbc2cc31e	-0.010544566
79	0x3d4cff59	0.050048206
80	0xbc958e42	-0.01825631
81	0x3d3fe4ea	0.04684917
82	0xbd8b4fda	-0.0680234
83	0xbd83566c	-0.06412968
84	0xbd0c5418	-0.034259886
85	0xbd671540	-0.05641675
86	0x3d6995a0	0.05702746
87	0x3d863bcc	0.06554374
88	0x3c2226cd	0.009896946
89	0x3d6f44f4	0.05841537
90	0x3ccd0669	0.02502747
91	0xbd87af30	-0.06625211
92	0x3d70c6d6	0.058783375
93	0x3d8f580c	0.069992155
94	0x3ce9f6fa	0.02856015
95	0xbbbe6a91	-0.0058110435
96	0xbccc5384	-0.024942167
97	0xbbaa1817	-0.00519086
98	0x3dd2d152	0.10293831
99	0x3c747478	0.014920346
100	0x3dd25f31	0.102720626
101	0x3c0b40e8	0.008499362
102	0xbd371aa9	-0.04470316
103	0x3cdc44ec	0.026888333
104	0x3d9c97ea	0.07646163
105	0x3c3f4c3b	0.01167589
106	0xbd452480	-0.048130512
107	0xbcd1fc6c	-0.02563306
108	0xbd28ec3d	-0.04124092
109	0x3cf2b582	0.029627565
110	0x3d35a92f	0.0443508
111	0x3d4316ac	0.047629043
112	0xbd02991f	-0.03188431
113	0xbb345e3a	-0.0027521984
114	0x3d537fb8	0.051635474
115	0x3c8228c7	0.015888585
116	0x3d722aae	0.059122734
117	0xbd2dbe67	-0.04241791
118	0x3dd712d5	0.10501639
119	0xbcecced1	-0.028907211
120	0xbd30c6bc	-0.043158278
121	0xba8f8929	-0.0010950911
122	0x3d8dec87	0.0692988
123	0x3db917ca	0.090377405
124	0x3d0cb0c0	0.03434825
125	0x3d8dfa40	0.06932497
126	0x3daacaf8	0.083394945
127	0x3d8e938e	0.069617376
128	0x3c9e3e31	0.019316765
129	0x3d1e8322	0.038699277
130	0x3d9b53ac	0.075843185
131	0x3ddc0715	0.10743538
132	0x3dae5e94	0.08514133
133	0xbcdf09eb	-0.027226409
134	0xbc5ef27b	-0.013607617
135	0xbc597449	-0.013272353
136	0x3cd5f3b8	0.02611719
137	0xbbbc163e	-0.005739956
138	0xbcbdbae3	-0.023160404
139	0x3d5d121c	0.05397235
140	0x3ccf5d87	0.025313152
141	0xbc9865f6	-0.018603306
142	0x3c8987a4	0.016788311
143	0x39d0a8e4	0.00039798685
144	0x3d4b02a1	0.049563054
145	0x3d511bed	0.051052023
146	0x3dbc60cd	0.09198151
147	0x3cdcf12e	0.026970472
148	0x3dbd52f3	0.09244337
149	0x3dd11c31	0.10210455
150	0x3d557cc1	0.052120928
151	0x3d6c5a93	0.057703566
152	0x3c8e2f91	0.017356666
153	0xbd90b12c	-0.07065043
154	0xbd6f1e25	-0.058378357
155	0x3de31287	0.11087518
156	0xbc5e93c4	-0.013585035
157	0x3d42bfce	0.0475462
158	0x3d8e1a31	0.06938589
159	0xbd6fa214	-0.05850418
160	0x3ce0bcc5	0.027433762
161	0x3dc27734	0.094953924
162	0x3d0443ac	0.0322911
163	0x3dd49606	0.10380177
164	0xbd486529	-0.0489246
165	0x3d8ace5f	0.067776434
166	0xbd1fc68a	-0.0390077
167	0x3d37c2ac	0.044863388
168	0x3dd7adb9	0.10531182
169	0x3d19d203	0.0375538
170	0x3d868ce9	0.06569845
171	0xbd678207	-0.056520488
172	0x3d8ebe38	0.06969875
173	0x3c5a8a90	0.0133387
174	0xbda1454b	-0.07874545
175	0xbc97c087	-0.018524421
176	0xba4d85e6	-0.0007840082
177	0x3c8048ad	0.015659655
178	0x3de4feb2	0.11181392
179	0xbcf8f46f	-0.030389993
180	0x3c97c11f	0.018524705
181	0x3d397abd	0.045283068
182	0x3dd8233f	0.10553598
183	0x3cf36d14	0.029715098
184	0x3c8eea46	0.017445695
185	0x3cc9fc56	0.024656456
186	0x3da4794b	0.08030947
187	0x3d5bed3e	0.05369305
188	0x3d1803c5	0.03711297
189	0x3cd3a4cf	0.025835423
190	0x3bdfb6c2	0.0068272064
191	0x3d0ca4b7	0.03433677
192	0x3b0a3a82	0.0021092002
193	0xbd0834e4	-0.033253565
194	0x3dc16898	0.09443778
195	0xbca19002	-0.019721989
196	0x3da8ed94	0.082484394
197	0x3dd04c4d	0.10170803
198	0x3d3722f4	0.04471107
199	0xbb726441	-0.0036986026
200	0x3a1be170	0.00059463736
201	0x3b943be5	0.0045237415
202	0x3ca2e62f	0.01988515
203	0x3c9db927	0.019253327
204	0x3c8f5042	0.017494325
205	0x3cec9aa0	0.028882325
206	0x3c9faecf	0.019492535
207	0x3c688edf	0.014194219
208	0xbcba5958	-0.02274768
209	0xbc6594db	-0.014012541
210	0xbd2d63fa	-0.042331673
211	0x3d94cb9f	0.072654
212	0xbd636d54	-0.055524185
213	0x3c0e09e7	0.008669353
214	0x3d875397	0.0660774
215	0x3cef7457	0.02923028
216	0x3d03569b	0.032065015
217	0xbd6bdeb2	-0.057585426
218	0x3d2ef0b8	0.042710036
219	0x3d327921	0.04357255
220	0x3da5e0b3	0.080994986
221	0xbcb944f9	-0.022615897
222	0x3d16c652	0.036810227
223	0xbd5accc4	-0.053417936
224	0xbd166dc3	-0.03672577
225	0xbd6ed4ae	-0.058308296
226	0x3db214e8	0.08695394
227	0x3d9cf152	0.07663216
228	0xbcd97a05	-0.026547441
229	0xbd25f63d	-0.040518034
230	0x3c8c0475	0.017091969
231	0xbd8084d6	-0.062753364
232	0x3b9f9a7b	0.0048707104
233	0x3d9439b3	0.07237568
234	0xbd42a9b7	-0.047525134
235	0x3cd18c12	0.025579486
236	0x3d45ec7d	0.048321236
237	0x3d2b5ec3	0.04183842
238	0x3cb406ee	0.02197596
239	0x3cd763f7	0.026292784
240	0xbc7e7f0e	-0.015533222
241	0xbcfe9403	-0.031076437
242	0x3d3fc6e5	0.04682054
243	0x3d030095	0.031982977
244	0x3d227069	0.039657984
245	0x3d32ca92	0.043650217
246	0x3d8d2213	0.06891265
247	0x3d9cb2cc	0.0765129
248	0xbd3c8d97	-0.046033468
249	0x3cccf8f1	0.025021048
250	0x3c88207c	0.016617052
251	0x3d6ee6bc	0.058325514
252	0xbcc8d72d	-0.024516666
253	0xb9489da8	-0.00019132218
254	0xbcf3be68	-0.029753879
255	0x3cc70c4c	0.024297856

lstm.weight_ih_l1 f4 [512, 128]
0	0xbca9c5f5	-0.020724276
1	0x3d812fb3	0.06307926
2	0xbd02a318	-0.03189382
3	0xbd9acfaf	-0.07559144
4	0xbcf17ef8	-0.029479489
5	0xbd1ae9a4	-0.037820473
6	0x3d29fe72	0.041502424
7	0xbd042309	-0.032259975
8	0x3d8d74e1	0.069070585
9	0x3b4f941c	0.0031673973
10	0x3d9d5a63	0.076832555
11	0x3d0e5f28	0.034758717
12	0x3d820764	0.06349066
13	0xbd73b3eb	-0.059497755
14	0xbda29e82	-0.07940389
15	0xbd8e9063	-0.06961133
16	0x3cfa60d4	0.03056375
17	0x3d18fa99	0.037348364
18	0xbda3cbd6	-0.07997863
19	0xbd762a3a	-0.060098864
20	0x3d9b82a7	0.07593279
21	0xbdaf1226	-0.085483834
22	0x3c9da789	0.019244926
23	0x3d8f025c	0.06982872
24	0x3d993299	0.07480354
25	0xbc400427	-0.01171974
26	0xbcb72339	-0.022355663
27	0x3d264bab	0.040599506
28	0x3d764abf	0.060129877
29	0xbdc3ca72	-0.09560098
30	0xbd9026fa	-0.07038684
31	0xbd7fe6c0	-0.06247592
32	0x3d449b8d	0.047999907
33	0xbcb091e3	-0.02155394
34	0xbd932b02	-0.071859375
35	0xbd4dca3b	-0.05024169
36	0x3aacbe0d	0.0013179198
37	0x3d02baef	0.031916555
38	0xbc9a3c9d	-0.01882773
39	0x3c4545b1	0.0120405415
40	0xbccd0641	-0.025027396
41	0x3d9a3913	0.07530417
42	0xbd3f6828	-0.04673019
43	0x3db50a24	0.08839825
44	0xbd97a628	-0.07404739
45	0xbd5d6d1a	-0.054059125
46	0xbd847c05	-0.06468967
47	0xbd970ae7	-0.07375126
48	0x3d88a9be	0.06673001
49	0x3d32ed1d	0.04368316
50	0xbcf6965f	-0.030101
51	0xbc6e9bcc	-0.014563512
52	0xbca1613d	-0.019699687
53	0x3dd5952a	0.104288414
54	0xbca2758e	-0.019831445
55	0x3dc64cac	0.09682593
56	0xbd8c2f14	-0.06844917
57	0xbd40b56b	-0.047048014
58	0xbd27d76b	-0.040976923
59	0xbc8b557c	-0.017008536
60	0xbbe4c26b	-0.0069811842
61	0xbb4a5256	-0.003087183
62	0xbda1d6fc	-0.07902333
63	0xbdd63f0a	-0.104612425
64	0x3d008e56	0.031385742
65	0x3b465265	0.0030261513
66	0xbc0b9804	-0.00852013
67	0x3bb404f7	0.005493756
68	0x3dd4c0c2	0.10388328
69	0xbcdfc3ee	-0.027315106
70	0xbd0dd381	-0.034625534
71	0x3ceb8114	0.028748073
72	0x3cd8bc87	0.026457084
73	0x3d8fce2b	0.07021745
74	0xbc0ad151	-0.0084727565
75	0x3ccd30cc	0.025047682
76	0x3d11a5b9	0.035558436
77	0xbd9227e7	-0.07136517
78	0x3d333816	0.04375466
79	0xbd7ed43f	-0.062214132
80	0x3da6b398	0.081397235
81	0xbd69fcbd	-0.057125796
82	0x3d1a7965	0.037713427
83	0x3d5ac3dd	0.053409446
84	0x3d8ef229	0.06979782
85	0x3d2b8a98	0.04188022
86	0x3b27df55	0.0025615294
87	0x3d4ce21a	0.050020315
88	0x3d595884	0.05306293
89	0x3d139987	0.036035087
90	0xbcfe5c59	-0.031049894
91	0xbddd9c13	-0.108207844
92	0xbc8deaa8	-0.017323807
93	0xbd48bf28	-0.049010426
94	0x3cfe23f8	0.03102301
95	0x3c6a5233	0.014301824
96	0x3d236cf6	0.039898835
97	0xbcffce57	-0.03122632
98	0x3da4db0f	0.080495946
99	0x3d8715fd	0.06595991
100	0x3d0f83a2	0.035037644
101	0x3d4c5f24	0.04989542
102	0xbd7cd2a5	-0.061724324
103	0xbb9d9d10	-0.004809983
104	0x3d798234	0.060915187
105	0x3b9a8c9b	0.0047164685
106	0x3b58f9ae	0.0033107805
107	0xbd8c43b5	-0.068488516
108	0xbd8a4f40	-0.06753397
109	0xbd5d19ad	-0.053979564
110	0xbd06f5ac	-0.032949135
111	0xbcb33452	-0.021875534
112	0xbd051ff1	-0.032501165
113	0xbd290453	-0.04126389
114	0xbcca136f	-0.02466747
115	0xbd34616a	-0.044038214
116	0x3dc394ec	0.09549889
117	0x3d291c88	0.041286975
118	0xbc887b77	-0.016660435
119	0xbdb280ef	-0.087159984
120	0xbcd297d6	-0.025707167
121	0xbda833c8	-0.082130015
122	0x3daffe0d	0.08593378
123	0xbd04da56	-0.032434784
124	0xbd3c18b7	-0.045922007
125	0x3d74d108	0.05976966
126	0xbd669ae0	-0.056300044
127	0x3bec1a50	0.007205285
128	0x3dabba0d	0.08385096
129	0x3c82a94e	0.015949871
130	0xbc4163d9	-0.011803591
131	0xbd1153a1	-0.035480145
132	0x3db3212d	0.08746562
133	0xbd89948c	-0.06717786
134	0xbdd16794	-0.10224834
135	0xbdd189da	-0.10231371
136	0xbc7c4395	-0.015396972
137	0x3d98da26	0.074634835
138	0xbd072365	-0.03299274
139	0x3cd4cede	0.025977548
140	0x3cc88e68	0.024481967
141	0x3d29ebee	0.041484766
142	0xbd8968bf	-0.06709432
143	0x3d6ccf5c	0.05781494
144	0x3d2b35c4	0.04179932
145	0xbda3f1b1	-0.08005083
146	0xbd98b531	-0.074564345
147	0xbdaa0746	-0.083021685
148	0xbc8faf99	-0.017539786
149	0xbdb4d8c5	-0.08830408
150	0x3cff76b8	0.03118454
151	0xbdc06d3a	-0.09395833
152	0x3ce99a01	0.028515818
153	0xbd8f6978	-0.070025384
154	0x3d7a4e44	0.061109796
155	0xbd4b1e4b	-0.049589437
156	0xbd35170c	-0.044211432
157	0xbb9a1241	-0.004701883
158	0x3b794b69	0.0038039333
159	0xbbaebb9b	-0.005332423
160	0xbd725ef7	-0.059172597
161	0x3d40cf52	0.047072716
162	0xbdc61c33	-0.09673347
163	0x3d12dff1	0.0358581
164	0xbd1bf08e	-0.038071208
165	0x3d5ee9a6	0.054422043
166	0xbdb7357a	-0.08945747
167	0xbd9b5051	-0.075836785
168	0xbd768660	-0.060186744
169	0xbbf01478	-0.007326659
170	0xbdc4b2fe	-0.096044526
171	0x3d85e860	0.06538463
172	0x3d8008d3	0.06251683
173	0x3d427c1b	0.047481637
174	0x3cd387f6	0.025821667
175	0x3d467dbd	0.048459757
176	0xbcc8249f	-0.024431525
177	0xbd85faff	-0.06542014
178	0xbd6285c0	-0.055303335
179	0x3cc2402b	0.023712238
180	0xbcd3b894	-0.02584485
181	0xbd514cbe	-0.051098578
182	0x3d3d29fa	0.04618261
183	0xbd0ff6b3	-0.03514738
184	0x3c3cbd4f	0.011519744
185	0x3d3d6265	0.046236414
186	0x3c244082	0.0100251455
187	0x3d55f27e	0.05223321
188	0xbb779906	-0.0037780418
189	0xbcdc8208	-0.026917472
190	0xbd0fa7bb	-0.03507207
191	0xbccca90a	-0.024982948
192	0xbd47d569	-0.04878751
193	0xbd51708a	-0.051132716
194	0x3cfa4845	0.030552039
195	0x3ddb1363	0.10697057
196	0x3db92a5c	0.090412825
197	0x3d199bd3	0.03750212
198	0x3d4974ba	0.049183585
199	0x3ca6ef55	0.020377794
200	0x3b4f50a8	0.0031633768
201	0xbd50ac32	-0.05094547
202	0xbdd620c7	-0.104554705
203	0xbba7be9c	-0.005119158
204	0x3da743d9	0.08167238
205	0x3bb62d82	0.005559624
206	0x3c9a9ca1	0.018873515
207	0xbcf6e994	-0.030140676
208	0xbccc10ee	-0.024910416
209	0xbda15176	-0.078768656
210	0xbca0f708	-0.019649044
211	0x3cbc8982	0.023014788
212	0x3cf09f7b	0.029372921
213	0x3d986e80	0.07442951
214	0x3af2c6f9	0.0018522433
215	0xbcb17855	-0.021663824
216	0x3d83676e	0.06416212
217	0xbcbe1c08	-0.023206726
218	0x3d36a84f	0.044594105
219	0xbdc12067	-0.094300084
220	0x3d2c0155	0.041993458
221	0xbd432ba4	-0.04764904
222	0xbcaa72e8	-0.020806745
223	0x3c4b36f7	0.012403241
224	0xbc8ee9c1	-0.017445447
225	0xbd891940	-0.06694269
226	0x3bf9eb7a	0.007626948
227	0xbcc581ef	-0.024109809
228	0x3d2cdb76	0.04220148
229	0xbd9025fe	-0.070384964
230	0xbd539ad3	-0.051661324
231	0xbcd7583e	-0.026287194
232	0x3c87a74a	0.016559262
233	0x3c126d60	0.00893721
234	0x3d9ae885	0.07563881
235	0xbc28dedc	-0.01030704
236	0xbc306487	-0.010766155
237	0x3cfdfd49	0.031004565
238	0x3d448708	0.04798034
239	0x3d260ba0	0.04053843
240	0xbc70ef55	-0.014705499
241	0xbd530555	-0.051518757
242	0xbcf40745	-0.029788623
243	0x3d41626f	0.047213014
244	0xbd7dd17f	-0.06196737
245	0x3cb9cefe	0.02268171
246	0x3dae5dca	0.085139826
247	0x3c6b758a	0.014371285
248	0xbd608281	-0.05481196
249	0xbcae96f4	-0.021312214
250	0x3c2050a6	0.009784853
251	0xbcc5f853	-0.024166262
252	0xbc133d5c	-0.008986797
253	0x3d3e226f	0.046419557
254	0x3da7c43d	0.08191726
255	0x3b835a73	0.004008585

lstm.weight_hh_l1 f4 [512, 128]
0	0xbc16a39c	-0.009194281
1	0xbc989948	-0.018627778
2	0x3d818f34	0.06326142
3	0xbd5c0ab1	-0.053721134
4	0xbd98f245	-0.07468084
5	0xbc42b047	-0.011882848
6	0x3dad100d	0.08450327
7	0x3cf7a221	0.030228676
8	0xbd506dd0	-0.050885975
9	0x3bdaeeb0	0.006681286
10	0xbd588428	-0.05286041
11	0xbdaf6861	-0.085648306
12	0x3d6b67a5	0.05747189
13	0x3cebc4bb	0.028780332
14	0x3a4d7413	0.0007837426
15	0xbae761f6	-0.0017653096
16	0x3d4c3917	0.049859133
17	0x3d9bbaa6	0.0760396
18	0xbd8d8b38	-0.069113195
19	0xbbe9ebf9	-0.007138726
20	0x3d894781	0.067030914
21	0xbce10b3c	-0.027471177
22	0xbb84ec86	-0.004056516
23	0xbc3f264b	-0.011666845
24	0x3d0201cd	0.03174
25	0xbda4bb48	-0.080435336
26	0x3d3289f4	0.043588594
27	0x3cd687a5	0.026187727
28	0xbd150b56	-0.036387764
29	0xbd09e04f	-0.033661183
30	0xbcf5c3a5	-0.030000517
31	0xbd0f9e3e	-0.03506302
32	0xbdbda67a	-0.092602685
33	0x3c12f6a2	0.008969935
34	0x3da4cb90	0.08046639
35	0xbc1d9cee	-0.0096199345
36	0x3c4167de	0.011804549
37	0xbc899a5d	-0.016797239
38	0xbdaaa23a	-0.083317235
39	0x3d82e769	0.06391794
40	0xbd5013bb	-0.050800066
41	0x3dc60130	0.09668195
42	0x3c8f5e27	0.01750095
43	0x3ca6fb3c	0.02038347
44	0xbd4c4849	-0.049873624
45	0xbb2abfa1	-0.002605416
46	0xbdc003c0	-0.09375715
47	0x3c43e6e9	0.011956909
48	0xbd0c96ae	-0.034323387
49	0x3d739254	0.05946572
50	0x3dbcd264	0.09219816
51	0x3d63303a	0.055465914
52	0x3d044e80	0.032301426
53	0x3d6e12ce	0.058123402
54	0x3d10fa52	0.035394974
55	0xbd701cdc	-0.058621272
56	0x3cd3c669	0.025851445
57	0x3dc7fea6	0.09765367
58	0xbce59aff	-0.02802801
59	0x3dafcd82	0.085841194
60	0xbd9a2123	-0.075258516
61	0x3b741f11	0.0037249962
62	0xbce46202	-0.027878765
63	0xbc75cbd2	-0.015002208
64	0xbb276312	-0.0025541228
65	0x3dc2da45	0.09514288
66	0x3bd7aee2	0.006582127
67	0x3dcdaae0	0.100423574
68	0xbc1284c9	-0.008942791
69	0xbdcd34da	-0.10019846
70	0x3d48d102	0.04902745
71	0xbc3b6eb8	-0.011439972
72	0xbc46cd95	-0.0121339755
73	0x3d69ccfb	0.05708025
74	0x3cbd246b	0.023088655
75	0x3d830552	0.06397499
76	0x3c8b25ca	0.016985793
77	0x3d04f743	0.03246237
78	0xbd552843	-0.05204035
79	0xbcd141b8	-0.025544032
80	0x3c039358	0.008030735
81	0x3d432de9	0.047651205
82	0xbdb9296c	-0.09041104
83	0x3d034c72	0.032055326
84	0xbd517380	-0.05113554
85	0x3d3f3027	0.04667678
86	0xbdd4eee3	-0.103971265
87	0xbdc9c00f	-0.098510854
88	0xbce925f6	-0.028460484
89	0xbd13d1d0	-0.036088765
90	0x3d35d6b9	0.04439423
91	0xbd314e1e	-0.04328739
92	0xbc82909c	-0.015938096
93	0xbd585152	-0.052811928
94	0xbdbbe1b3	-0.09173908
95	0xbaacad25	-0.001317416
96	0x3c96526b	0.018349847
97	0x3cbb392b	0.022854408
98	0xbc8c3c61	-0.017118635
99	0xbdbd8c3f	-0.092552654
100	0xbd17baa1	-0.037043218
101	0x3d7e4f7d	0.062087525
102	0xbd85ec34	-0.06539193
103	0x3cec3a10	0.02883628
104	0xbd058e4c	-0.032606408
105	0x3c98f581	0.018671753
106	0xbd98072f	-0.07423245
107	0xbdb4d8e6	-0.088304326
108	0xbd381570	-0.04494232
109	0x3d0e83e6	0.034793757
110	0x3cd0d4f9	0.025492178
111	0xbc883146	-0.016625058
112	0x3daaf5a5	0.08347634
113	0xbc6a1d54	-0.014289219
114	0x3d607979	0.054803345
115	0x3cab9142	0.020943288
116	0x3c8791a4	0.016548939
117	0xbb12b42c	-0.0022385223
118	0x3dbf149e	0.09330104
119	0xbc63d2bf	-0.013905226
120	0x3d0e1ef5	0.03469749
121	0x3d2015c5	0.03908326
122	0x3d059c44	0.03261973
123	0xbd1aca61	-0.03779066
124	0xbd957772	-0.07298173
125	0x3d7d8e21	0.061903123
126	0x3d8ab23b	0.06772276
127	0xbc2693de	-0.01016709
128	0x3d3e5204	0.046464935
129	0x3b51e6ba	0.0032028393
130	0x3d59d957	0.053185787
131	0x3d19e90f	0.037575778
132	0x3d6a3b90	0.05718571
133	0xbd76410c	-0.060120627
134	0xbd680a63	-0.05665053
135	0xbd48cfe2	-0.049026377
136	0x3ba3c0f4	0.004997367
137	0x3cb6f7ee	0.022335019
138	0x3bd6026b	0.00653105
139	0xbd9d24e4	-0.07673052
140	0xbc045196	-0.008076092
141	0xbd951d82	-0.07281019
142	0x3d1dfc46	0.038570665
143	0x3cc6d663	0.02427215
144	0x3d198dfb	0.03748892
145	0x3d84709c	0.06466791
146	0x3b5b16a0	0.0033430234
147	0xbd08d8b3	-0.033409785
148	0xbc0f70ee	-0.008754952
149	0x3cc89848	0.024486676
150	0xbd85156b	-0.06498226
151	0x3d109147	0.035294797
152	0x3cfe5d47	0.031050337
153	0xbc77bbe1	-0.015120477
154	0xb9277719	-0.00015970728
155	0x3d537425	0.051624436
156	0x3d495072	0.049148984
157	0x3d6759a2	0.056481965
158	0x3d4c000a	0.049804725
159	0x3d09b3e4	0.033618823
160	0x3cd26827	0.02568443
161	0x3db0a29e	0.08624767
162	0x3d17ab91	0.037028853
163	0xbd4e136c	-0.05031149
164	0xbcf40d48	-0.02979149
165	0x3c94adbd	0.018149251
166	0x3d0471b7	0.03233501
167	0xbd3a6c35	-0.04551335
168	0x3d2252ba	0.039629675
169	0xbccbf1bd	-0.024895543
170	0x3a6e74e8	0.00090964
171	0xbc166807	-0.0091800755
172	0xbd30f10a	-0.043198623
173	0x3c847f3d	0.016173953
174	0xbdb10215	-0.08642975
175	0x3d94dec0	0.07269049
176	0x3c8d66a0	0.01726085
177	0xbd9671f6	-0.07345955
178	0xbc88b302	-0.01668692
179	0x3cebd4a5	0.02878792
180	0x3c8970b7	0.01677738
181	0xbdd1367d	-0.10215471
182	0x3c4de868	0.012567617
183	0x3d9faa32	0.07796134
184	0x3dcce460	0.100044966
185	0xbc564c76	-0.013079753
186	0xbdcfd512	-0.10148062
187	0x3c97e993	0.018543994
188	0xbd61b8d7	-0.055107918
189	0x3db9df52	0.09075798
190	0x3d41e756	0.04733976
191	0xbd611c04	-0.05495836
192	0xbdc96b85	-0.09834961
193	0x3cae8a48	0.021306172
194	0xbdba2e41	-0.090908535
195	0x3d7df6b5	0.062002856
196	0xbd904409	-0.07044227
197	0x3c3a5c58	0.0113745555
198	0x3d233db7	0.039853778
199	0xbc5612c4	-0.0130659975
200	0x3ca6bda7	0.020354105
201	0x3c862816	0.016376536
202	0xbcc0d651	-0.023539694
203	0x3c38241e	0.01123908
204	0xbd09c72d	-0.033637214
205	0x3cf30595	0.029665748
206	0xbd903d41	-0.07042933
207	0xbcda7cb4	-0.026670791
208	0x3d8e3774	0.069441706
209	0xbd53ba3d	-0.051691283
210	0xbd890aba	-0.06691499
211	0xbc9b10de	-0.018928941
212	0xbdc75aab	-0.097340904
213	0x3d2b1304	0.04176618
214	0xbc5dea99	-0.013544702
215	0xbca91d14	-0.020643748
216	0xbd813589	-0.06309039
217	0xbcec5ac3	-0.028851872
218	0xbd455c71	-0.048183862
219	0x3d0ea51e	0.034825437
220	0x3ca77a92	0.020444188
221	0x3d8a2342	0.06745006
222	0xbda56bc5	-0.08077196
223	0x3dd32f8c	0.10311803
224	0x3d666eef	0.05625814
225	0xbd4c034d	-0.049807835
226	0xbdcbe938	-0.09956592
227	0xbd92dc58	-0.071709335
228	0xbd1ec362	-0.03876055
229	0xbd53e6e8	-0.05173388
230	0xbd355c25	-0.04427733
231	0x3dce3bf6	0.100700304
232	0x3d2dd3c9	0.042438302
233	0xbd985c16	-0.07439439
234	0xbd4013c9	-0.04689387
235	0x3d5f6996	0.054544054
236	0x3d9b2f1d	0.075773455
237	0x3cc42ec0	0.023948073
238	0x3d11b3e5	0.03557195
239	0xbc111f6f	-0.008857592
240	0x3cf18d27	0.029486252
241	0xbd92b435	-0.07163278
242	0xbd168335	-0.036746223
243	0x3ad33a38	0.0016115373
244	0x3ce67279	0.028130757
245	0x3b860ae1	0.0040906523
246	0x3db69000	0.089141846
247	0xbda7bf0f	-0.081907384
248	0xbcbe943e	-0.023264047
249	0x3ccdad89	0.025107162
250	0xbd955d67	-0.07293206
251	0xbd1ffc2d	-0.039058853
252	0x3d79d307	0.060992267
253	0x3b029634	0.0019925954
254	0xbda96d77	-0.08272832
255	0xbdcb9eca	-0.09942396

lstm.bias_ih_l1 f4 [512]
0	0x3b4f7146	0.003165321
1	0xbcd085bc	-0.025454395
2	0xbce3e8fe	-0.02782106
3	0x3d65a3f6	0.05606457
4	0xbb3d63bb	-0.0028898555
5	0x3db9b639	0.09067959
6	0x3d89c00a	0.06726082
7	0x3ddbf24c	0.10739574
8	0x3dad9873	0.08476343
9	0x3d81a87a	0.063309625
10	0x3d07fa87	0.033197906
11	0x3d9f2096	0.07769887
12	0xbd5ee70e	-0.05441957
13	0xbd8c68fe	-0.06855963
14	0x3cab628c	0.020921014
15	0xbdc7e3cc	-0.09760246
16	0x3b7450b2	0.0037279543
17	0x3c37e42f	0.011223837
18	0xbd42c54a	-0.04755143
19	0x3bc2401c	0.0059280526
20	0xbd679a83	-0.05654384
21	0x3d552f65	0.052047152
22	0xbc0f74f5	-0.008755912
23	0x3d2fdd0e	0.042935424
24	0x3d6aed72	0.05735535
25	0x3d550d3d	0.052014578
26	0x3d269b3f	0.040675398
27	0xbd568447	-0.052372243
28	0x3d67cabb	0.056589823
29	0x3dc298e0	0.09501815
30	0x3c3d5abd	0.011557278
31	0x3dd914ee	0.10599695
32	0xbd5d4b47	-0.05402687
33	0x3d920a32	0.07130851
34	0x3cd58276	0.026063185
35	0xbcb6e786	-0.022327196
36	0x3d888b45	0.066671886
37	0xbad0cf6f	-0.0015930961
38	0xbd55891c	-0.05213271
39	0x3d4ef31a	0.05052481
40	0x3d90ae76	0.07064526
41	0x3c9283f9	0.017885195
42	0xbd124528	-0.035710484
43	0x3cb104b7	0.021608694
44	0x3dbbb298	0.091649234
45	0xbd6e82c1	-0.058230165
46	0xbd816201	-0.06317521
47	0xbd5e1264	-0.054216757
48	0xbc56ad2d	-0.013102812
49	0xbd600250	-0.054689705
50	0xbcc7247f	-0.024309395
51	0x3d3b92c1	0.045794252
52	0x3dd2767b	0.102765046
53	0x3d7ba1c4	0.06143357
54	0xbd43f85f	-0.047844287
55	0xbd346531	-0.044041816
56	0x3cb7b0a7	0.022423102
57	0xbd26fa6b	-0.04076616
58	0xbc88f2d4	-0.016717352
59	0xbb61c52b	-0.0034449797
60	0x3d371f8f	0.04470783
61	0xbcef1813	-0.029186284
62	0xba83f58c	-0.0010067686
63	0xbcc8ae8b	-0.024497291
64	0xbc4cb6b2	-0.01249473
65	0xbc878083	-0.016540771
66	0xbc77d892	-0.015127318
67	0x3d943577	0.0723676
68	0x3ceb0311	0.028687986
69	0x3d224c2e	0.03962343
70	0xbd3f4c07	-0.046703365
71	0x3d9b3249	0.075779505
72	0x3d87bc42	0.06627704
73	0xbc4a15ef	-0.012334331
74	0x3b06eb7a	0.0020587132
75	0x3cf63133	0.030052757
76	0x3a42e7be	0.0007435045
77	0xbc118f84	-0.008884314
78	0xbc64f7cc	-0.013975095
79	0x3db732d4	0.089452416
80	0xbd17a161	-0.037019137
81	0xbd031880	-0.032005787
82	0xbd0e8e2d	-0.03480356
83	0x3daeee65	0.08541564
84	0xbd75d854	-0.06002076
85	0x3cd21e3a	0.025649179
86	0x3dc4de2a	0.09612687
87	0xbd8ec277	-0.06970685
88	0xbc49df6e	-0.012321336
89	0xbd4796a8	-0.04872766
90	0x3d195126	0.037430905
91	0x3dafd74b	0.08585986
92	0x3dc30a1e	0.09523414
93	0xbdb0b845	-0.086288966
94	0x3b00a1cf	0.0019627695
95	0x3da24f47	0.07925277
96	0x3d921300	0.0713253
97	0xbd6689c6	-0.056283735
98	0xbc77a1e7	-0.015114284
99	0xbcb84838	-0.022495374
100	0x3d615a2b	0.05501763
101	0x3d368cc3	0.044567835
102	0xbd30faba	-0.04320786
103	0x3b83ddce	0.004024244
104	0x3dbc0686	0.09180932
105	0x3da2d8d4	0.07951513
106	0x3c9f2a8e	0.019429471
107	0xbcab98d6	-0.020946901
108	0xbd0e0c12	-0.03467948
109	0xbd8bdce4	-0.06829241
110	0xbb6fdfbe	-0.0036601867
111	0x3d676db8	0.05650112
112	0x3ccfaaf1	0.025350066
113	0x3aac7d2a	0.001315986
114	0x3dd3382d	0.10313449
115	0x3dbf0e21	0.09328867
116	0xbcd5f5f8	-0.026118264
117	0x3db878c9	0.09007413
118	0x3d15437c	0.03644131
119	0x3d3f5fde	0.046722285
120	0x3dc37986	0.09544663
121	0x3d04f064	0.032455817
122	0xbd3c5e36	-0.045988284
123	0x3d6d102f	0.057876762
124	0xbcb00375	-0.021486023
125	0xbd80b096	-0.06283681
126	0x3d54f4ba	0.051991202
127	0x3c69b4c4	0.014264289
128	0xbd0a9656	-0.033834778
129	0x3d2fdec9	0.042937074
130	0xbd77d412	-0.06050498
131	0xbd553aa2	-0.05205787
132	0xbd29871d	-0.04138862
133	0x3d332bd3	0.043742966
134	0x3c2990a5	0.010349427
135	0x3d62ac8e	0.055340342
136	0xbd651952	-0.05593235
137	0x3bac6177	0.005260642
138	0xbd584bca	-0.052806653
139	0x3d2412df	0.04005706
140	0xbc789aec	-0.015173655
141	0x3cbb78c2	0.02288473
142	0x3dd5db09	0.10442168
143	0xbc7e80f5	-0.015533675
144	0x3da61568	0.08109552
145	0x3dc3fa73	0.09569254
146	0x3da5ea61	0.08101345
147	0x3d4a7734	0.049430087
148	0x3dbe9246	0.09305243
149	0x3dd59b3a	0.10429998
150	0xbcfac014	-0.030609168
151	0xbd52d740	-0.05147481
152	0x3d5df2bd	0.05418657
153	0x3d7a8e0b	0.06117062
154	0x3d24da62	0.04024733
155	0x3ce36568	0.027758315
156	0xbd039f58	-0.032134384
157	0x3dad7b01	0.08470727
158	0x3dbe7603	0.09299853
159	0x3d758c76	0.059948407
160	0x3dbd2b2a	0.092367485
161	0x3d697207	0.05699351
162	0xbcc923ba	-0.024553169
163	0x3d574a9f	0.0525614
164	0x3d958e0e	0.073024854
165	0x3d8bf23f	0.06833314
166	0x3dde94ff	0.108682625
167	0x3d8ba456	0.06818454
168	0x3dc60aab	0.096700035
169	0x3dcf0b12	0.10109533
170	0xbd89e237	-0.067326
171	0xbb1d7880	-0.0024028122
172	0xbd155d21	-0.036465768
173	0xbabd0309	-0.001442046
174	0xbc9614fd	-0.018320555
175	0x3d8cd304	0.068761855
176	0xbc54fa0f	-0.012999072
177	0x3c0fa3e0	0.008767098
178	0x3cc9e89d	0.024647051
179	0x3dce3c39	0.1007008
180	0xbce0ac63	-0.02742595
181	0xbd462cc1	-0.048382524
182	0x3d9c77a3	0.076400064
183	0xbbd39436	-0.006456877
184	0xbc86230f	-0.01637414
185	0xbbdc14e3	-0.006716357
186	0xbc82e1af	-0.015976755
187	0xbd1b4544	-0.037907854
188	0xbd46e6ac	-0.04855983
189	0x3dce2997	0.100665264
190	0xbd05c560	-0.032658935
191	0x3dbd1dbb	0.09234186
192	0x3d899e0c	0.06719598
193	0xbd27588f	-0.04085594
194	0x3c726be7	0.014796234
195	0x3dcb074d	0.09913502
196	0xbbb3b3ef	-0.0054840962
197	0x3c20f2cd	0.009823513
198	0xbd6cf9f4	-0.05785556
199	0x3a99cc3f	0.0011733844
200	0x3db64320	0.08899522
201	0xbd834422	-0.0640948
202	0x3d0a8a96	0.033823572
203	0x3db3d3a4	0.087806016
204	0x3dc5a245	0.09650091
205	0x3d1190da	0.03553853
206	0x3d93915c	0.072054595
207	0x3cdc6792	0.026904855
208	0xbd8e1170	-0.0693692
209	0xbd001173	-0.03126664
210	0x3d9dbba5	0.07701806
211	0xbd166352	-0.036715813
212	0xbd13a16a	-0.03604261
213	0x3dc2b511	0.09507192
214	0x3c8e6e69	0.017386632
215	0xbd824807	-0.063613944
216	0x3d7a4be1	0.06110752
217	0x3d04463c	0.032293543
218	0xbd0acae2	-0.03388489
219	0xbcffe01c	-0.031234793
220	0x3de35bb9	0.11101479
221	0xbd3a50ce	-0.045487218
222	0x3d4c29b9	0.049844477
223	0x3aa9423e	0.0012913418
224	0x3d3d02e2	0.046145327
225	0x3db918e5	0.090379514
226	0x3a96565d	0.001146983
227	0xbc07d4d3	-0.008290487
228	0x3ceccf6f	0.028907506
229	0xbb685f98	-0.003545737
230	0xbd2b6dc6	-0.041852735
231	0x3d29689a	0.04135952
232	0x3daf4d09	0.08559615
233	0xbc162b15	-0.009165545
234	0x3b2b368f	0.0026125049
235	0x3bd3fb6c	0.006469181
236	0x3ce523b7	0.027971132
237	0x3d994b85	0.07485107
238	0x3c2163e1	0.009850473
239	0xbbc7c5b4	-0.006096566
240	0xbd3d242f	-0.046177085
241	0xbd8b851e	-0.068124995
242	0xbc82dd57	-0.015974684
243	0xbca9e682	-0.020739798
244	0xbb80810e	-0.0039216345
245	0x3dc7ed8f	0.097621076
246	0x3da85dc1	0.08221007
247	0xbc709b9f	-0.01468554
248	0x3dbe91fd	0.09305189
249	0x3d64cefe	0.055861466
250	0x3caa9993	0.020825183
251	0xbc1eaa8d	-0.009684217
252	0x3b6597a3	0.003503301
253	0xbcd25107	-0.025673402
254	0xbd0d7b11	-0.034541193
255	0x3d1c573b	0.038169127
