backend/models/WH001_SKU-007.pth (torch, 830897 bytes, 13 tensors)

lstm.weight_ih_l0 f4 [512, 6]
00000000: 27a4 40bc 89d0 153c a2eb 743c 432a 303d
00000010: a725 2a3b 7594 71bd e49c c93d cc6e fc3c
00000020: c355 893d ca3b 383d 7e31 85bd 7a71 71bd
00000030: a79e 3c3d ee6f 3cbc d469 7c3d 1249 ee3c
00000040: 005b b83d 5672 eabc 877e fabb 3b83 d73d
00000050: 3827 d1b9 679b ce3d d2d6 6a3d 4fac 903d
00000060: 2442 ad3c 0d36 513d abfa 053c 100d c73d
00000070: 1099 5abd 3005 79bd fc28 5dbd c0b6 93bd
00000080: 91bd 2bbc 09a4 8f3c 78e8 013d 0b52 6c3d
00000090: 1f89 833c 0c49 d33d c917 22bd a811 b03d
000000a0: eff7 14bc aee9 f7bc 23bb 963c cdaf d03d
000000b0: 0b0b 8d3c f6e2 5dbd 2735 63bd 0166 ef3c
000000c0: 3745 18bd 63a9 993d 4a83 05bd edab c63b
000000d0: 4332 7bbc 00aa c63d c672 6f3d 0a7e e73c
000000e0: 4614 cc3d 67fc fc3c 70e7 be3d dd53 b13d
000000f0: 6528 8d3d 07e5 333d 477c 4f3d e24c 0f3d
00000100: d2ef d63c f0c2 3a3c 0aae ae3d 88a2 1d3d
00000110: eaf5 cf3d fd96 85bd d67c bbbc b4fb 413d
00000120: 8455 ddbc f0de 46bd 647f 643d b8d1 12bd
00000130: 5b38 8c3c 805e 95bd f22f 7bbd 4783 76bd
00000140: 75be 4dbd e9e4 163d 4a3e 74bd f1c3 e0bc
00000150: b82f 34bc a410 d8bb 1248 69bd 6af4 983d
00000160: 865a 9e3d aaba ba3a c1a1 3cbd da5c 6ebc
00000170: 3a99 963d 7998 dc3c b75d c6b9 61ec c43d
00000180: b8c5 8f3d 6070 1438 3415 e43a e519 553d
00000190: 6d8d dabc ec9d 543c 746f 96bc 111e cc3c
000001a0: 9d84 5f3b 1204 17bd 158b 403d 4513 403d
000001b0: 7236 bd3d fb04 bb3d 0a54 963d 1f97 29bc
000001c0: a6fc ce3d 277b 8d3d 43c4 583d 80d2 863d
000001d0: e856 fa3c c8c5 9e3d d306 203c 1a11 1ebd
000001e0: 0ca9 ad3d 0442 8e3d d038 d6bb 6fc6 3c3d
000001f0: b57d 0b3d c6af 923d df6f 57bc d54d 943d
00000200: 9883 593d 3424 50bd f25d fdbc 3697 8e3d
00000210: 04d5 64b9 1eb3 16bd 1903 8a3c 40bf 10bd
00000220: 8f86 da3d ccdb 55bc 92a4 eebc 6661 1c3d
00000230: 71a5 2ebd 22c7 17bd d6db 3cbd 1594 9d3d
00000240: fe3f 99bc 80f5 833d 34bd 993d 8560 953d
00000250: 8500 b4ba 1802 cf3d eabe 4a3d 11c0 9e3d
00000260: 63c9 81bd 3ea8 75bd 5f83 25bc bc54 863d
00000270: 23ea a03d e340 3bbd aa64 853d bd9c 70bd
00000280: 3f2b 87bd 84f8 6c3d 4bad 1cbd 47d3 d23d
00000290: 7406 053a 366b e33c b4d4 5bbd 1ea1 ad3d
000002a0: 1c29 6d3d ed80 563d c639 c43d ce72 c13d
000002b0: cf70 823d 6804 ad3c f6b9 7fbc 41b9 62bc
000002c0: b670 703d b7ce 2ebd ae38 f3bc 1e51 bd3d
000002d0: 2ece f1bb 820b 8b3d 5bc2 7cbd ecb9 36bd
000002e0: 300e a13d e702 b23d 602d 54bc a475 803d
000002f0: 18c8 cb3d 474d 09bc c493 b3bc 2a82 9e3d
00000300: 94b6 6ebc 7ef1 fdbc e4f6 a0bc 0779 2a3d
00000310: 62bb 263b 542f 8a3d 8fd3 bc3d 3454 ecbb
00000320: 3075 68bd 9cc8 163d 63d8 113d 9892 80bd
00000330: 6c2b bc3d e991 0dbc 4098 42bd f481 3b3c
00000340: 7666 c03d c713 debc 96ae 5abb ba06 a93d
00000350: bb45 87bd 4f14 4b3d 1c0f b1bc 2305 c83d
00000360: 9560 c03d e27d 893d 4882 053d 41c1 08bd
00000370: 0bb2 cf3d 3400 353d 1a96 3d3d df11 143c
00000380: 6f0a 46bb c1a3 7bbc 46c5 1abd d164 92bd
00000390: 13f5 28bd a457 583d 2a93 46bd d203 ff3c
000003a0: 92be 1aba 6d01 9f3d c3c5 65bd 7192 a1bc
000003b0: 0ebf 0ebd 4cce e03d 7693 83bd a794 b53d
000003c0: 5631 b33d 56c0 503d 96ea 523d aa39 7a3b
000003d0: 1f94 d13b 80ae 9a3d 7e6e 7fbc 0e71 98bc
000003e0: 30c3 0dbd a72d a8bb 7bdf 7cbd 3c6a 463d
000003f0: c987 a93d 8a66 4b3d e325 0a3c e9a6 02bc
-0.011757887 0.009143957 0.014948757 0.043009054 0.0025962384 -0.05897947 0.09844378 0.03081455
0.06705811 0.044978894 -0.065035805 -0.05894611 0.04604974 -0.0115012955 0.061624363 0.029087577
0.09001732 -0.028618973 -0.0076444778 0.10523077 -0.00039892807 0.100882344 0.057333775 0.07064115
0.021149702 0.051076937 0.00817744 0.09719288 -0.053368628 -0.060795963 -0.053994164 -0.07212591
-0.010482208 0.017534273 0.03171584 0.05769543 0.016056595 0.10316667 -0.039573465 0.08597118
-0.009092315 -0.030262794 0.01839978 0.10189781 0.01721718 -0.054171525 -0.055470612 0.029223444
-0.037175383 0.07503011 -0.03259591 0.0060629756 -0.015331808 0.09700394 0.058459066 0.028258342
0.09964804 0.030882074 0.09321487 0.08658574 0.0689247 0.04391959 0.05065563 0.03498543
0.026237402 0.011399016 0.08529289 0.03848508 0.10154326 -0.06522939 -0.022886675 0.047359183
-0.027018316 -0.048552454 0.05578555 -0.035844535 0.017116716 -0.07293415 -0.06132502 -0.06018379
-0.050230462 0.0368394 -0.059629716 -0.027437182 -0.010997705 -0.0065937806 -0.056953497 0.07468493
0.0773211 0.0014246304 -0.046052698 -0.014548505 0.073534444 0.026928173 -0.00037835326 0.09615398
0.07020134 3.5390607e-05 0.0017401339 0.052026648 -0.026678765 0.012977105 -0.018363692 0.02491668
0.0034106143 -0.036869116 0.04700764 0.046893377 0.092389 0.09131809 0.07340248 -0.0103509715
0.101067826 0.06908255 0.052921545 0.065831184 0.030559018 0.077525675 0.009767252 -0.038590528
0.08479509 0.06946185 -0.0065375343 0.04608768 0.03405543 0.071624324 -0.013149231 0.07241408
0.053104013 -0.050815776 -0.030928586 0.06962435 -0.00021823129 -0.036791913 0.01684718 -0.03533864
0.10670196 -0.013052892 -0.029131208 0.038178824 -0.042638246 -0.037055142 -0.04610809 0.0769426
-0.018707272 0.0644331 0.07506791 0.072938 -0.0013733065 0.10107821 0.049498476 0.077514775
-0.063372396 -0.0599749 -0.010102122 0.065591305 0.07857158 -0.045716178 0.06513341 -0.058743227
-0.066000454 0.05785419 -0.038251203 0.10294204 0.0005074509 0.027761083 -0.053669646 0.08477996
0.057900533 0.052369047 0.09581332 0.094457254 0.06369173 0.021120265 -0.015608301 -0.013838113
0.05870124 -0.042677607 -0.029690113 0.092439875 -0.007379315 0.06789304 -0.06170879 -0.044610903
0.07864034 0.0869196 -0.012950271 0.06272438 0.09950274 -0.008380241 -0.021921046 0.077396706
-0.014569897 -0.030998942 -0.019648977 0.041619327 0.0025441279 0.067473084 0.09220039 -0.007212186
-0.056752384 0.03681241 0.035606753 -0.062779605 0.091879696 -0.008640745 -0.04750848 0.011444557
0.09394543 -0.02710904 -0.0033368221 0.08253236 -0.06605097 0.049579915 -0.02161365 0.09766605
0.093934216 0.06713463 0.03259495 -0.033387426 0.10141381 0.044189647 0.046285726 0.009037464
-0.0030218621 -0.015358866 -0.03778579 -0.071481355 -0.041249346 0.052817956 -0.04848019 0.031129751
-0.0005903031 0.07763944 -0.056096803 -0.019723149 -0.034850173 0.10976848 -0.0642461 0.08866244
0.087496445 0.050964676 0.05149325 0.0038181343 0.0063958312 0.075528145 -0.015590308 -0.018608596
-0.034609973 -0.0051323953 -0.061736565 0.048441157 0.08277852 0.049658336 0.008431884 -0.007974365

lstm.weight_hh_l0 f4 [512, 128]
00000000: a22b efbb 647d 47bd 5223 44bd 2e45 babb
00000010: 6da1 ca3d 5f5e 9fbd 6e35 5f3c caa5 813d
00000020: 4c51 d13d e85b 62bd 6a3f 123c 433b e23d
00000030: 2d0e 64bd 8ef3 90bd 5555 423c d758 ff3c
00000040: 51a4 65bb c865 fe3b be91 40bd 0a8d 6bbd
00000050: 2fa5 c9bd 127b 533b 16ea 53bc b509 8eba
00000060: 2995 953d 86bf 7b3d 9af1 cc3d 7bab 213d
00000070: f02e d43c b998 263c 4336 a3bc ab92 183d
00000080: f7f4 973d 1a8c 80bc 4fe8 dfbd 8046 013d
00000090: f41b e43d 0c79 d53c 6308 b7bd ba0e 783d
000000a0: 9ba7 1c3d 46b1 853c 35bd a8bd 4ebd 403d
000000b0: 8750 e0bc 9729 dfbd c21e 4a3d dbca e93c
000000c0: 8997 54bd 3f95 f93c 7c3e 633d c842 173d
000000d0: 845d 5abd cc7a 77bd 41d9 0d3d 8381 d43d
000000e0: ef4a 9b3c 4207 b7bd a9cd b9bc 3bf3 943c
000000f0: 0027 6e3d c04b 2b3d 1822 1abd 921a b53c
00000100: d5d5 6c3d df94 35bd 22f0 dcbc 0227 bbbd
00000110: 97dc 8fbc 4a6a cdbd 57e5 dcbd 4147 253c
00000120: 939e 0ebd 3d2b 5dbc 3b96 573d 873a 33bc
00000130: ca2a 843d aa91 6e3d b66d d8bd 1dc9 133d
00000140: 03a9 bbbc 16b7 7abd b228 d93d 07cb 933d
00000150: 3821 63ba 32fd cd3c 779e 753c 17bf 553c
00000160: 1b65 33bd d053 113d 019b d3bd 589d 4e3d
00000170: f447 35bc 5116 3abd 154c 5e3d 78f4 72bd
00000180: dd59 40bd e067 80bd 0cfd b93c 2f81 8c3c
00000190: 191f a0bc 2a97 1e3d b910 fe3b 67d4 01bc
000001a0: ea1d 87bd ee20 04bd 5eb2 94bd acc1 9a3d
000001b0: 34e1 533c 6b67 1cbd 8602 a9bc c77d 423d
000001c0: 75e0 d8bd d897 dd3d f435 3f3d 368d d83d
000001d0: 3f45 82ba ee15 5e3d 771e 96bd 4bc4 d53c
000001e0: f169 58bb db3a 1fbc 70c3 a23d 94b8 45bd
000001f0: 247c e23d a1c8 fcbc 161f 04bd 85e0 fd3c
00000200: a324 55bd 402d a73d 18d0 84bc 1503 6dbd
00000210: 5873 babc edf9 2ebd 5811 54bd bf15 c4bd
00000220: a142 563d 6a8e 023d 9665 8f3d d043 3d3d
00000230: 50ac 9e3c 80ca 4c3c 5120 e8bc cf16 6b3b
00000240: 82c1 a338 791b 48bd 9bf5 d6bc 4f4a fc3b
00000250: 5f6f 7e3d b5e4 bcbd 80e9 5c3d 9792 64bd
00000260: d469 d7bb 3d67 89bd 5f01 39bd 8a23 583d
00000270: 24ea 89bd b9a3 43bd e89c ae3c 3de2 f3bc
00000280: 510d 71bd 1d00 80bb 0b58 053d c018 183c
00000290: 9c68 53bd 2179 a73d 7093 493d 6994 743d
000002a0: ce6d 5cbd 3daf 0dbd ad27 25bd afea d93d
000002b0: 1d5d f3ba 48c5 573d 464d cebc 307b 45bd
000002c0: 13d8 5c3c ae27 553d 9e57 263d e0eb 953d
000002d0: 568a da3c f719 53bd 460c a93c 985b 843d
000002e0: 5223 a43c 051d 8f3c b3bd 6abc db54 d33c
000002f0: f8e1 d63d 2d3c 13bd 0199 94bc cd2b ae3d
00000300: 1b9f 56bc 58d0 c03b 0249 df3a 7098 99bd
00000310: c6ce fe3c 9a9e a2bd 1a25 d4bd 5ae9 d7bd
00000320: aaea c03d b68f b13d a685 6b3b 70d7 723c
00000330: f1c8 34bc 7d26 853d 9d8a 5bbd 5682 993d
00000340: 6d35 bfbd 632d 8ebd 7277 98bc 7221 163c
00000350: d1dd 533d 013b 263d 1bd6 7bbd 8f0a c03d
00000360: 3f1b 003d 73b9 dfbb 7137 b1bd bfe6 773d
00000370: e886 0f3d a6df fdbc 8970 5fbd 0d63 a9bd
00000380: 10a6 f8bc 05d6 dbbc b73b 833d 392d 85bd
00000390: 2fe7 8c3d ea02 8cbd f2b5 fb3c e415 7d3d
000003a0: 4153 273d 2d9a b53c f35f 8dbd 938c 8ebc
000003b0: 7085 b53d 4e39 cc3c 8d50 8d3d 2445 d13d
000003c0: de86 c33c 22c5 a83d 2b8c 93bd 4347 933d
000003d0: 9674 c4bd 6d74 b3bd 0b81 50bd 4357 31bc
000003e0: 918f 72bd c10e 0cbc 3c77 82bd af5c 37bd
000003f0: 368c f1bc 7785 87bd 5cd4 983b 01ac 6f3d
-0.0072989026 -0.048703566 -0.047885247 -0.0056845164 0.09894071 -0.07781672 0.0136235785 0.0633045
0.10220584 -0.05526343 0.008926252 0.110464595 -0.05567758 -0.07077704 0.011861165 0.031170292
-0.0035040567 0.007763598 -0.04701399 -0.057507552 -0.098459594 0.00322694 -0.012934228 -0.0010836633
0.07303841 0.061461948 0.10007019 0.039470177 0.025901288 0.010168248 -0.019923335 0.03724925
0.0741977 -0.015691806 -0.10932981 0.031561375 0.11138144 0.026058696 -0.089371465 0.06056092
0.03824578 0.016319882 -0.082392134 0.047055535 -0.027382148 -0.108966045 0.04934574 0.028539112
-0.051902328 0.030466674 0.05547951 0.036928922 -0.05331184 -0.060419843 0.034631018 0.10376265
0.01895663 -0.08936931 -0.022681074 0.018182388 0.058142662 0.041820288 -0.03763017 0.022107396
0.057821114 -0.044331428 -0.026969973 -0.091382995 -0.01756124 -0.10030039 -0.107859306 0.010087789
-0.034819197 -0.013499078 0.052633505 -0.010939247 0.06453474 0.058244385 -0.10567801 0.03608047
-0.02290774 -0.06120976 0.10603465 0.07216459 -0.0008664313 0.025145147 0.014991394 0.013046048
-0.043797594 0.03548032 -0.10332299 0.050443023 -0.011064518 -0.04543144 0.054271776 -0.059315175
-0.0469607 -0.062698126 0.02270367 0.017151443 -0.019546079 0.03871838 0.0077534583 -0.007924176
-0.065975025 -0.032257967 -0.07260583 0.07556471 0.012932111 -0.038184565 -0.020631086 0.047483232
-0.10589687 0.108199775 0.046682313 0.10573809 -0.000993885 0.054220133 -0.073300295 0.026094576
-0.003302213 -0.009718622 0.07947433 -0.04827173 0.11058834 -0.030857386 -0.03225621 0.030990848
-0.052036893 0.08162928 -0.016212508 -0.057864267 -0.022760078 -0.042718817 -0.051774353 -0.0957446
0.052309636 0.031874098 0.07001798 0.04620725 0.019369274 0.012499452 -0.028335722 0.003587175
7.808489e-05 -0.048854325 -0.02624016 0.007699288 0.06211793 -0.0922331 0.05393362 -0.05580386
-0.006573895 -0.06709144 -0.045167323 0.052768268 -0.06734112 -0.04776356 0.021315053 -0.029770965
-0.05885059 -0.0039062635 0.032554667 0.009283245 -0.051613435 0.081774004 0.049212873 0.059711847
-0.053815655 -0.03459095 -0.04032104 0.106404655 -0.0018567179 0.052678376 -0.025183331 -0.048213184
0.0134792505 0.052039795 0.040610902 0.0732038 0.026677292 -0.051538434 0.020635735 0.064627826
0.020036373 0.017469892 -0.014327454 0.025797298 0.10492319 -0.03594606 -0.018139364 0.08504448
-0.013099457 0.0058842115 0.0017035308 -0.07499778 0.031104457 -0.07940407 -0.10358639 -0.10542555
0.094197586 0.08669989 0.0035937815 0.014821872 -0.011034236 0.06501482 -0.05359899 0.07495563
-0.09336362 -0.069422506 -0.018611643 0.009163247 0.051725212 0.040583614 -0.061483484 0.09377014
0.031275984 -0.006827527 -0.08653153 0.06052279 0.035040766 -0.030990433 -0.05455068 -0.082708456
-0.030352622 -0.02683545 0.06407874 -0.06502766 0.06880032 -0.06836493 0.030726407 0.061788455
0.04085088 0.022168243 -0.069030665 -0.017401015 0.08863342 0.024929669 0.069001295 0.10218266
0.02386802 0.08240725 -0.07204469 0.071913265 -0.095925495 -0.08762441 -0.050904315 -0.0108240275
-0.059218947 -0.0085484395 -0.063703984 -0.044766124 -0.029485803 -0.06617253 0.004663987 0.058513645

lstm.bias_ih_l0 f4 [512]
00000000: 3e00 d43c b950 f7bb 58a7 413d 1c59 87bd
00000010: 7627 753d 9889 0b3d a799 073d e3aa b33d
00000020: 3af7 853d d528 a3bc 8b33 e4bc ff72 08bd
00000030: 8a66 703d ca55 96bb 562a 473d 780d c4bc
00000040: 50eb 2e3c eb12 b13d b951 8f3d a974 863b
00000050: 6307 5e3d dfa8 db3d b15b 583d bbb4 cf3d
00000060: 8b08 413c d1b5 73bd f8e1 e73b 4014 193d
00000070: 6760 683d 8f0a b93d d847 0f3d a3de 53bd
00000080: 2dd2 f43c 3da7 953d 12ff b23b dc90 873b
00000090: 0adb 913d cdc9 22bd df0b 683a cb89 ae3d
000000a0: 3add 09bd abb2 933d 82c0 cc3d cdc2 4a3d
000000b0: 60b4 1dbd cfe7 8d3b 82d5 0d3c 716d 203d
000000c0: f82d 953c 684d 82bc a1c6 e2bd 2932 5d3c
000000d0: 134f a1bc 4905 9f3c 2913 f6b9 5722 223d
000000e0: 0cc1 283d c0bd 16bd a0cc d3bb bcac 123c
000000f0: d501 b23d a3fd 3b3d 2ff1 38bd b33b a9bc
00000100: 8992 52bd e128 65bd 4d2f 81bd c547 843a
00000110: e595 283d 7a23 8a3c f32e 93bc a039 4fbd
00000120: 5aa8 a13d ae3b 1d3d 7c41 15bd b10d 393c
00000130: e44c 31bc 6170 a13d 5b12 d43c 6a7f d33c
00000140: 1945 4bbd 19a6 78bd 57b5 4739 fd4a 333c
00000150: 5708 4fbd 8a51 6ebb c8c7 af3d 748f 41bd
00000160: ba97 bb3d 4787 ac3d 37ca 1a3c 38e9 993d
00000170: 4eb2 af3d 826c 7fbd 2bb1 6cbc a8af a33d
00000180: 2ebf 933d 6e8f e7bc 983a 663c 59c2 0d3d
00000190: 57a5 4fbc 664a 4d3d 21b3 b23c 196c 91bd
000001a0: 8500 573d 8b88 b53d dffc 64bd 3962 db3d
000001b0: 605f 64bc 0e85 ac3d 0cea b63d 5b2d 48bd
000001c0: af50 3d3d a72f 49bd 8137 0bbc cc37 01bd
000001d0: 9d80 cf3c aaa8 38bc 3068 afbd 210d af3d
000001e0: 1eec 6f3d 52dc c93d 333a db3c 7ed0 163d
000001f0: ca05 d43d 7528 833d 55e8 09bd ded8 1ebd
00000200: 3988 f4bc e163 85bb 6277 ac3d 2b70 2b3d
00000210: 4500 513d de79 913b a6e1 883d 0fdd 5dbd
00000220: 946a 9e3d 39aa 933d 0a21 b73c dc13 c33d
00000230: ebc1 ac3d 894d 9abb 2eff 703d c7bb 163c
00000240: b56e fc3c c214 413d 9091 76bd 7c8f ce3d
00000250: 3d82 483d 1d34 d1bc e1c2 e43d 468d ca3d
00000260: 5022 6e3c 6c31 8f3c 386b 943c 8331 28bd
00000270: 37de 4f3d 95b6 633b b0e3 b93d 21e1 b8bb
00000280: b9dd 10bd ae0a 613d 627b d3bc c9f1 fc3a
00000290: b3b7 343d a915 65bd b777 583d 16b0 a73d
000002a0: c49e 2cbd 800c 3fbd d8c4 403b b35d c73d
000002b0: 6eef 233d a982 4ebd 3bee c33d 4f9a 9d3d
000002c0: 7b11 97b9 db07 c13d 8779 803d 2bf1 abbb
000002d0: a23f e03d 5a86 5d3a a3be d6bb 8320 01bd
000002e0: 2da0 e43a 7078 86bb 7fac 28bd 243b d6bb
000002f0: fc0f e33c 09d7 813d 5be8 623d ed07 f6ba
00000300: 31b0 70bd d5bd c73d 4913 953d be24 9ebc
00000310: b5c1 bd3d 0f76 933d 1f52 d63d ae1a 853d
00000320: 1134 ba3d 6a97 acbc 8757 b1bd e96a 9a3c
00000330: df0d c33d 9c24 0bbd 9cdf 86bd 982e 9b3d
00000340: 6875 cc3d 768a 433d 72af 7abd 8cb8 883a
00000350: 001c 8b3c 41f9 e43d 2295 403c 0292 693d
00000360: f28e e13a 80ed 2e3d 4960 9c3d d7cb 853d
00000370: 694c 80bd 268f d23c 9feb 963d e44a a3bc
00000380: a471 0a3d e410 973d 86da 5b3d b4ee 49bd
00000390: 379e c63d 77ca a7bc b8bf 50bb d678 bb3c
000003a0: e1e4 46bd 61eb 26bd adc2 733d 7b0d d43d
000003b0: 4bd6 3abd 151f c63d 63ad 6cbd 8366 cc3d
000003c0: 9be6 00bd 9d5e 0bbd ae73 7ebd 61cb 673a
000003d0: 7165 0b3d 375b d73c 6a83 06bc 9de1 203b
000003e0: aa41 113d f05d 5dbd 4577 2cbd 3485 66bd
000003f0: eb17 8d3d eebd 4d3c 6f4f 533d fc97 ac3c
0.025879022 -0.0075474647 0.047278732 -0.06608793 0.059852086 0.034066767 0.03310552 0.087728284
0.06541295 -0.019916931 -0.027856609 -0.033312794 0.05869154 -0.0045878636 0.04862436 -0.023932204
0.01067622 0.086461864 0.06998009 0.0041032624 0.054206263 0.10725569 0.05282182 0.101418935
0.011781822 -0.059499566 0.007076498 0.037372828 0.05673256 0.09035217 0.034980625 -0.051725995
0.029885376 0.07307289 0.0054625357 0.0041371416 0.071218565 -0.039743233 0.00088518666 0.08522376
-0.033658244 0.072118126 0.099976555 0.049502183 -0.038502097 0.0043306123 0.008656861 0.03916687
0.018210396 -0.01590605 -0.11073042 0.013500729 -0.019691026 0.0194117 -0.00046935052 0.03958353
0.04119973 -0.036802053 -0.006463602 0.008952316 0.08691756 0.045896184 -0.045151886 -0.02065835
-0.051409278 -0.05594719 -0.0630785 0.001009219 0.041158576 0.01686262 -0.017966723 -0.050592065
0.07893439 0.038386993 -0.036439404 0.011294768 -0.010821555 0.07882763 0.025887659 0.025817592
-0.049626444 -0.060705278 0.00019045673 0.010943172 -0.050545063 -0.003636452 0.08583027 -0.04725595
0.09159799 0.084242396 0.009447626 0.07515186 0.08578931 -0.06235934 -0.014446537 0.07992488
0.07214199 -0.028266635 0.014052056 0.034609172 -0.012673697 0.05011978 0.021813931 -0.07100696
0.05249073 0.08863934 -0.05590522 0.10712094 -0.013938755 0.08423816 0.0893136 -0.04887138
0.046219524 -0.04911771 -0.00849712 -0.031547353 0.025329882 -0.011270681 -0.08564794 0.08547426
0.05857479 0.09856476 0.02676115 0.036819927 0.10352667 0.06404201 -0.033668835 -0.03878104
-0.029850112 -0.0040707444 0.08421208 0.04185502 0.051025648 0.0044395765 0.06683664 -0.054165896
0.07735172 0.07210202 0.022354621 0.09525272 0.084354244 -0.00470895 0.05883711 0.009200043
0.030814508 0.047138937 -0.060197413 0.10085961 0.04895233 -0.025537545 0.11169983 0.09890227
0.014534548 0.01747962 0.018117532 -0.041062843 0.05074903 0.0034746279 0.09076631 -0.005642072
-0.0353677 0.054941826 -0.02581567 0.0019298132 0.0441205 -0.05592886 0.052848544 0.081878826
-0.0421436 -0.04664278 0.0029414203 0.097346686 0.04002326 -0.050417576 0.09566923 0.07695448
-0.00028813988 0.094253264 0.062731795 -0.0052472553 0.10949637 0.0008450501 -0.0065534874 -0.031525146
0.0017442756 -0.0041037127 -0.04118013 -0.006537812 0.027717583 0.06339843 0.055397373 -0.0018770673
-0.05876178 0.097530045 0.07279069 -0.01930463 0.09265462 0.07200252 0.10464882 0.06499229
0.09091962 -0.021068294 -0.08659273 0.018849807 0.0952413 -0.03397046 -0.06585619 0.075772464
0.09983331 0.04773947 -0.061202474 0.0010430976 0.016981125 0.11180354 0.011754306 0.05702401
0.0017208739 0.042706966 0.076355524 0.0653302 -0.06264574 0.025703024 0.0736916 -0.019933172
0.033799782 0.073762685 0.053675197 -0.04929991 0.09698146 -0.020482285 -0.0031852555 0.022884768
-0.04855812 -0.04075182 0.05951183 0.10354134 -0.045614522 0.09673897 -0.057782542 0.0998049
-0.031469923 -0.034025777 -0.06212204 0.00088422565 0.03403229 0.026288612 -0.0082100425 0.0024548538
0.035463013 -0.054044664 -0.04210593 -0.056279376 0.068893276 0.01255749 0.051589426 0.021068566

lstm.bias_hh_l0 f4 [512]
00000000: 7552 b33d 796a 303c e876 2a3a 9431 103c
00000010: 28e7 f7bc 0ab6 12bc d1d3 35bc 5fa5 75bd
00000020: 9567 04bd 253b 943d e261 2a3d ffb5 af3d
00000030: 86e0 52bc 49ad 603d 3c57 803d ac04 c83c
00000040: 0801 c23c 25af e03d 8b3c d03d 7786 f03b
00000050: d591 30bd 4a56 67bd aaa7 6b3b 0b67 423d
00000060: 8ce0 773d d9a0 063c 9950 063d 822c 793d
00000070: 7f43 053d 0edc 3ebd 6fda 553d 4a72 61bc
00000080: 62b0 883d dc3c c3bc e973 aebc ecaa 793d
00000090: edbf 3dbd 1e27 293d e74d e13d 3330 a63d
000000a0: 8f5d e23d 55de b93d 401f 5abc 4894 40bc
000000b0: d830 59bb 1565 823d 33ac b53c db29 d53d
000000c0: 27ea 8c3c 1347 4dbd f73a 79bd caf6 a33d
000000d0: 4a09 3a3d be90 07bd 4314 b9bc 03c9 09bd
000000e0: 1871 28bd 4742 6d3c 0144 c73d 1eab 45bc
000000f0: f625 8e3c 6e63 a63d 6cea 873d 4204 173d
00000100: b1d6 9b3c 0e61 88bd 4ffa c33d d3a9 84bc
00000110: e381 8c3d 2bf0 81bb dfbe dd3d b396 cb3d
00000120: 0912 f1bb e59a b23d 6b28 783c 539a 18bd
00000130: d917 983d 1eb6 813b 9e65 89bd 6945 97bd
00000140: 2ec7 b93d 0ecb b13d a019 7d3d 7b3e e7ba
00000150: 90bc 94bb 4fb7 853a 975a 83bc 1b60 77bc
00000160: 6d78 5c3d d00e eb3c cc1c 1e3d 22b4 82bd
00000170: 7752 063d a41d f33c 78c1 c73d ec1f 103d
00000180: 6711 e03c f612 ab3d ee9f 753d 3f9e a53d
00000190: 63d1 55bd 4174 05bd b0e0 53bd 6fa0 1aba
000001a0: 6132 2b3d fefc 3bbd f9a4 c53c 7b29 60bd
000001b0: 4436 223d 8536 ad3c f172 71bd 83be 22bd
000001c0: eb42 933d 82e2 1ebd b8b3 953d e37d 8cbd
000001d0: 513c a13c dd34 293d 6156 8ebd e86e 313d
000001e0: e853 9dbc 04cb ad3d f2cb 33bb b8bb 9a3d
000001f0: 8774 5cbd 67b5 a9bc 3839 203d f6fe bc3c
00000200: 715b a73d 3aa7 853c bddb a53d 41c1 853d
00000210: db75 7abd 4a94 e8bc 3edb 2dbd 1523 d43d
00000220: 2761 7abc ed18 90bd 4ad0 953d 0d88 a73d
00000230: 17ab 6bbd be5a 373d 6dcc 28bd 7e81 62bd
00000240: bed1 9b3d 529c 33bd a240 dd3d 760d bf3d
00000250: ef99 77bd d5e6 903c a08c 4bbc afa7 66bd
00000260: aa9e 16bb 7bfb 68bb fc3a efbc 6488 74bd
00000270: 6c4c d23d 6458 923d 447f a33c f9c0 863b
00000280: 5356 a3bd 2cd0 44bd 9d00 bf3d dfbf 15bc
00000290: 8b92 c33d 0e5a 913d 2337 c03d af5f 89bc
000002a0: 3fcf 323d a551 8abd 110a 9b3c bd65 fabc
000002b0: 7b63 83bd dba2 aa3d 257b 873c 1d53 7fbd
000002c0: bea6 c33d 9608 08bd 7cd5 5f3d fa99 ac3d
000002d0: e809 983c 330c 6bbd 39fa d23d bfa3 83bc
000002e0: 7aae 6b3d 2a34 0a3d c6da 313d 43a1 b53b
000002f0: 73ad 27bd 9464 b93b 03dd 76bd a1b4 babc
00000300: 5d75 6f3b 3398 633b a482 6f3d 4d00 623d
00000310: 9bbf 31bd 9147 ba3d dc90 f43c 43b2 af3c
00000320: d74e 1f3c 82eb 213d 778a 293c 23f2 60bd
00000330: f1e1 4a3d 767f 34bd c20e 3e3d 435a bfbb
00000340: d935 efbc 41a2 903d 5942 d63d 1528 d33c
00000350: bded 1d3d e370 c23d 4027 e43d 4f05 f9bc
00000360: 0ab0 45bd 2d42 d53c 4170 9bbc a479 6e3c
00000370: 935b 54bc b2e2 8bbc 5c14 ad3c e84e d43c
00000380: 68d1 c1bc 0169 d53d bee8 c33d fee6 bc3b
00000390: ce53 393d 1d92 a53d e5a9 06bd 6896 21bc
000003a0: 99ff 143c bbbf 12bd 0fe0 1d3d 67a6 ee3c
000003b0: 7578 b73d 234f f7bb 6d62 853d bf7a c13d
000003c0: 29f0 183d 63a0 73bd 3f3d 18ba edb9 f6bb
000003d0: 0794 613d a8ef cc3d 2b0e bbbd 5aa8 88bc
000003e0: dfbe 4bbd aa51 dd3d 334b e03c 70c0 c33d
000003f0: 4e01 6c3c 0828 d93b 023f 0f3c 53e6 21bd
0.08755962 0.010767573 0.0006502704 0.008800883 -0.030261591 -0.008954534 -0.011097864 -0.059972163
-0.032325346 0.072378434 0.041597255 0.08579635 -0.012870913 0.054852758 0.06266639 0.02441629
0.023682132 0.10970906 0.10167798 0.007340248 -0.043107826 -0.056478776 0.003595809 0.04746155
0.06051688 0.00821706 0.032791708 0.06083346 0.032535072 -0.04659658 0.052210268 -0.013760159
0.06674267 -0.023832731 -0.021295505 0.06095402 -0.046325613 0.04129707 0.11001187 0.08114662
0.11053001 0.090756096 -0.013313115 -0.011754103 -0.0033140685 0.06366936 0.022176838 0.10408374
0.017201496 -0.05011661 -0.06084725 0.08006056 0.045419015 -0.03309702 -0.02259267 -0.033638965
-0.04112348 0.014481134 0.097297676 -0.012064723 0.017352086 0.081244335 0.06636509 0.036869295
0.019023271 -0.06659137 0.09569227 -0.01619426 0.068607114 -0.003965398 0.108274214 0.09940853
-0.0073568863 0.0872095 0.015146355 -0.03725655 0.074264236 0.0039584776 -0.06708835 -0.07386286
0.09071194 0.08681308 0.061792016 -0.0017642522 -0.00453908 0.0010201725 -0.016034408 -0.015098597
0.053825784 0.028693587 0.03860168 -0.06382014 0.03279349 0.02967722 0.09753698 0.035186693
0.027352048 0.08353226 0.059966974 0.08086824 -0.05220164 -0.03258157 -0.05172795 -0.000589854
0.041796092 -0.04589557 0.024126517 -0.05472706 0.039602533 0.021144161 -0.058947507 -0.039732467
0.07190498 -0.038790233 0.07309669 -0.068599485 0.019682081 0.04131018 -0.06950069 0.04331866
-0.019205049 0.08485988 -0.0027434793 0.07555336 -0.053822067 -0.020716382 0.039117068 0.023070794
0.08171738 0.016315091 0.080985524 0.06531001 -0.061147552 -0.028391022 -0.042445414 0.10358254
-0.015281952 -0.07036004 0.073151186 0.081802465 -0.05753621 0.044764273 -0.04121058 -0.055299275
0.076083645 -0.04385025 0.10803343 0.09328739 -0.060449537 0.017688194 -0.012423664 -0.05631226
-0.0022982755 -0.0035550285 -0.02920293 -0.059700385 0.102684826 0.071457654 0.019958146 0.0041123596
-0.079754494 -0.04805009 0.09326289 -0.009139984 0.09549435 0.07097255 0.093855165 -0.016769258
0.043654677 -0.06753854 0.018925698 -0.03056609 -0.06415459 0.083318435 0.016538212 -0.062335122
0.09553288 -0.033211313 0.054646954 0.08427806 0.018559411 -0.05738468 0.103016324 -0.016069291
0.05753944 0.033741154 0.04342153 0.0055429055 -0.0409369 0.005657742 -0.060269367 -0.022791209
0.003653846 0.003472817 0.058474198 0.055176068 -0.04339562 0.090956815 0.02985423 0.021447306
0.009723387 0.03953124 0.010347954 -0.05491842 0.04953188 -0.04406687 0.046400793 -0.0058396175
-0.029200481 0.070621975 0.104618736 0.025775949 0.038556803 0.09494188 0.11140299 -0.03039804
-0.048263587 0.026032532 -0.018974425 0.014555369 -0.012961286 -0.01707587 0.021127872 0.025916532
-0.023659423 0.104204185 0.095658764 0.005764841 0.045245938 0.080845095 -0.032876868 -0.00986252
0.009094142 -0.03582738 0.038543757 0.029132081 0.08958522 -0.0075472756 0.06512914 0.0944724
0.03733841 -0.05947913 -0.0005807466 -0.0075294883 0.05507281 0.10006648 -0.09133562 -0.016681839
-0.049742576 0.10806592 0.027379608 0.09558189 0.014404608 0.0066270865 0.00874305 -0.039526295

lstm.weight_ih_l1 f4 [512, 128]
00000000: a08c e23d 8d7c 7f3d 0775 b23c 7f23 cfbd
00000010: dd83 21bd e7a8 3d3d 3523 643d 695d 78bc
00000020: 5edd b03d 108e e7bb e1bd d43d 7f8c 85bd
00000030: dc42 1dbb 5ddf 78bb 0927 7cbc b95d bd3c
00000040: 877e 713d f981 78bd e294 893d ff65 e43c
00000050: d10f 123d b377 253d a8f7 4dbc de22 95bd
00000060: 2700 c83d d7df b43c b3d8 613c 1fe6 99bb
00000070: 9128 233d 0563 8bbd 6d71 bd3d 6b6b 9b3d
00000080: c8fb 9abd 7cac 8e3d 3551 dcbc 774d 20bd
00000090: 9659 903c bb40 40bd b457 133d 53c1 fabc
000000a0: a0e2 29bb b7b8 0ebd 23a2 4e3c e25b 343d
000000b0: a7e4 9f3d b519 b2bd 2212 a9bc 2ae2 b8bd
000000c0: 91dd 4b3d 03aa 543d bcca 83bd ec9f e43d
000000d0: 615e 95ba 46b4 83bd b014 943c b462 ad3d
000000e0: 4192 75bc 858c cabb 941d 94bc c704 debd
000000f0: a384 e43d 883d aabd 9aeb 70bd eac5 143a
00000100: a3a0 d0bd 2b9d 4a3d 72d9 0fbd 0cf6 7bbd
00000110: 0af8 a9bd 1559 353d 1ff1 0f3d 3ec7 15bd
00000120: 4234 e4bc 7b82 80bd ace2 78bd 1206 823b
00000130: 0a6d 023d 9907 cb3d 6130 ad3c 3581 91bc
00000140: d196 89bd cabf a43d 9d27 ce3d 4340 f1bc
00000150: 062f 203b bb8c 0fbd eb62 473d a481 883d
00000160: 7e8f 0d3d f3ba ca3d 458f 0c3d 6365 e8bc
00000170: ffb3 0bbc ee2a c93b d0f5 91bc f53e 98bd
00000180: e042 ad3d 1871 763d 7561 50bc dd5d e7bc
00000190: 3548 e4bb 12a9 a33c b0bb a1bc c499 4abd
000001a0: f421 8a3d 86ab a5bc 6afa 83bd fb46 9f3d
000001b0: 1778 613d 9e52 9a3c 8af1 5f3d d04a b43d
000001c0: edab c4bc 8611 1bbc 106c 9b3c afbf c13c
000001d0: 11f8 8abd 115f 863c 9ccd c2bd 4c64 86bd
000001e0: e6d9 333d 5806 96bc 7d27 57bd 0054 323d
000001f0: 73ca d23d 897b 32bd 397c 923c d82e 14bd
00000200: f6dc dd3c 7b27 85bd f742 733d 91ee 423d
00000210: 9b5a 153c ce38 b7bc cb20 b43c 4417 99bd
00000220: 512d f4bc 05c8 0a3d 069f f1bc 283c 7abd
00000230: ace0 b9bb 4f87 96bc 2bb4 ba3d 64bd c13d
00000240: 3948 003d 8b7c 32bd f91e 903d 79c9 8c3c
00000250: 731e e5b9 5302 87bd f44f 6ebd 2d59 24bd
00000260: 6584 263c 75db 173c f1da 7c3c 0096 3c3d
00000270: fee4 163d 43e8 b2bd 0b7f da3d a20a 2f3d
00000280: 2a15 6bbd 7c8a ea3c 2740 94bd 2a0e 01bd
00000290: df17 793d 607f ac3d f40e c4bc 2b8c d53d
000002a0: 9d0f 91bc a4e2 3ebd 093a 123d cedf 6c3d
000002b0: 79d2 ec3c ce13 9ebd efac eb3c 2cd4 b03a
000002c0: 7a45 353d 8ccf 593d 268c 8cbd f0cb 893c
000002d0: 3ae5 c7bd 1d9f a4bc ac84 2cbd c701 a33d
000002e0: ea5c ad3c 00fa 11bd f8a2 863d bfac aabd
000002f0: 7169 953d 683b e7bd ced7 bcba f8e8 ce3d
00000300: da3e cb3c a8ac 99bc f8cf cebc dc1d 8fbd
00000310: 9e21 b53c adb9 74bd 3e4e 003d 7ed8 5e3d
00000320: 3ce2 77bd e50d 913d 9774 4bbd 88e7 3abd
00000330: ff5f e3bd 1fe9 ba3d 5c06 a6bc ffc2 d13c
00000340: 00c7 db3c 09d6 6a3d 418b 2d3d f715 843c
00000350: 3156 61bd 64e5 8fbc 7389 5abd a2f5 82bd
00000360: b27c 85bd 0601 61bb 81f9 36bb 6387 bebd
00000370: a1bc 1fbd 5dde d9bd 6c61 78bd 880c acbc
00000380: 73bc 2abd d2e4 2b3d 4ea4 80bd 3f9c cc3b
00000390: e645 9bbd 15ea 69bc 555b 96bc a0fa 113d
000003a0: f442 1b3d d786 a1bd 4c4c c5bd 2417 ec3c
000003b0: e55d 15bd db5d 20bb ab75 433c 2154 74bd
000003c0: 531c e6bb 2097 c03d 8478 973c 9bd4 08bd
000003d0: ed16 5a3c 4041 11bc b9cd 853c fbec 733d
000003e0: a2ae a7bd a46e 2fbd d827 883d 86d0 b2bd
000003f0: 5151 0b3c 4a65 75bd e5d8 c73d ae5d 31bd
0.11061978 0.06237464 0.021784319 -0.10114192 -0.039432395 0.046303656 0.05569764 -0.0151589895
0.086359724 -0.0070664957 0.10387779 -0.06520938 -0.002399615 -0.0037974932 -0.015390166 0.02311598
0.058958557 -0.060670827 0.0671785 0.027880667 0.035659615 0.040397357 -0.012571253 -0.07282041
0.09765654 0.022079391 0.013784575 -0.004696622 0.03983361 -0.06805996 0.0925015 0.07588848
-0.07567555 0.069664925 -0.026894191 -0.039136376 0.017620843 -0.04693673 0.035972312 -0.030609762
-0.0025922433 -0.034844127 0.012611899 0.04403294 0.07807284 -0.086963095 -0.02063853 -0.09027512
0.04977185 0.05191995 -0.06435153 0.11163315 -0.0011395925 -0.06430869 0.01807627 0.08466092
-0.014988483 -0.006181302 -0.01808051 -0.10840755 0.11158111 -0.083125174 -0.058818437 0.00056752434
-0.10186889 0.049466293 -0.03511948 -0.061513945 -0.08299263 0.04427441 0.03514206 -0.036566965
-0.02785695 -0.06274887 -0.060763046 0.003968009 0.03184227 0.099135585 0.021141233 -0.017761806
-0.06718219 0.08044393 0.100661494 -0.029449588 0.002444209 -0.03504632 0.04867832 0.06665352
0.034560673 0.09898939 0.03431632 -0.028368657 -0.008526801 0.006139151 -0.017817408 -0.07433883
0.08460021 0.06016645 -0.012718548 -0.028243 -0.0069666156 0.01997808 -0.019742817 -0.04946305
0.06744757 -0.02022339 -0.06444247 0.0777721 0.055046167 0.018838223 0.05467371 0.08803332
-0.024007762 -0.009464627 0.018972427 0.023650972 -0.06785596 0.016402753 -0.09511873 -0.06562099
0.043908976 -0.018313572 -0.052527893 0.04353714 0.102925204 -0.043574844 0.0178815 -0.036177486
0.027082901 -0.06501671 0.059390035 0.047590796 0.00911584 -0.022365954 0.021988293 -0.07475141
-0.029806765 0.03388216 -0.029494774 -0.061092526 -0.005672535 -0.018375067 0.091163956 0.094599515
0.031318877 -0.043575805 0.070371576 0.017185913 -0.0004370097 -0.0659224 -0.058181718 -0.040124107
0.010163401 0.009268631 0.015433059 0.04604149 0.036839478 -0.08735707 0.10668763 0.04273475
-0.05739323 0.028630488 -0.072387986 -0.03150765 0.06081378 0.08422732 -0.023932911 0.104271255
-0.01770764 -0.04660286 0.035699878 0.057830624 0.028908955 -0.07718621 0.028768985 0.0013490967
0.04425571 0.053176448 -0.06862669 0.016820878 -0.09760518 -0.020095402 -0.042118713 0.079593234
0.021162469 -0.03563881 0.065740526 -0.0833373 0.07295502 -0.11290628 -0.0014407577 0.10103029
0.024810243 -0.018759087 -0.025245652 -0.06988117 0.022110756 -0.059747387 0.031324618 0.05440568
-0.06051849 0.07082728 -0.049671736 -0.04563096 -0.11102294 0.091264956 -0.020266704 0.025605677
0.026828289 0.057333026 0.04236913 0.016123755 -0.05501384 -0.017565437 -0.053353738 -0.06394507
-0.06517924 -0.0034332885 -0.0027919712 -0.09303167 -0.03899825 -0.106381156 -0.060639784 -0.02100207
-0.041683625 0.041966267 -0.06281339 0.006244212 -0.075816914 -0.014277001 -0.018354097 0.035639405
0.03790565 -0.07887047 -0.09633693 0.028819628 -0.036466498 -0.0024470005 0.01192991 -0.059650544
-0.0070224195 0.09403825 0.018490084 -0.03340588 0.01331113 -0.0088656545 0.016333448 0.059552174
-0.081876054 -0.042830124 0.066482246 -0.08731179 0.008503274 -0.05991105 0.09758166 -0.04330223

lstm.weight_hh_l1 f4 [512, 128]
00000000: 6176 873d 86e9 573c a13c 1cbc 7c2c 6fbd
00000010: f9f8 07bc bb68 743d 7ddc 413d 2f66 21bd
00000020: 8c48 62bd 21c9 51bb 9f12 a23d 9031 aa3d
00000030: 9918 2c3b c67a febc 8056 3dbd fade 813d
00000040: e378 a63c e525 46bd e68d 1ebd b0b3 73bd
00000050: 5e80 923d 9a6c 103d 47cd 86bd 02f9 3fbd
00000060: 2696 d5bd e2b8 283d 8770 dfbd dc1a 9d3d
00000070: f429 09bd 04bd 663d 9335 9f3d a1ea c03b
00000080: ddc2 31bd 1356 b23d df2a a73b 4599 7bbb
00000090: 05fa d63c 17d7 ec3b b539 923d d400 a33d
000000a0: f2c3 97bd 1b88 d3bd 906a 173d dc60 94bb
000000b0: 326c 0e3d 0ee2 7dbd a21e e63b 1914 27bd
000000c0: 7c7b 73bd 974d 6abd 5a1f 7b3d 0c3f 973d
000000d0: 7c88 613c 6145 933c 2f08 d8bd 95a2 e8bb
000000e0: d20a d53d b389 be3c 1fca 8b3d adb0 29bd
000000f0: 587c d33c 458b 7dbc 7ec4 17bd 32e4 d3bd
00000100: 21e6 6dbd c78d 8a3d 8724 e53c 3252 283a
00000110: ddf5 833d 6171 c93c ad5a a0bd 3a29 10bd
00000120: 8dc6 c0bc ce79 263d 788f 9c3c 8e71 323b
00000130: e666 89bd f8b0 e9bc d77b 0cbb fa7a 1cbd
00000140: e96c 9b3d e280 d53d aef3 abbd 03ed c7bc
00000150: b8e8 563d 70e8 c63c 3c9a cebd e23d 953d
00000160: 6db9 aebb 031b 483d fcce 30bc dfa9 163d
00000170: bcfb 6bbd a67b 113d c629 08bc d979 4b3c
00000180: 8a04 09bd 7c7d 563d 6bcb f23c e182 193d
00000190: 2822 e7bd 89ac e33c 377d a83d d090 843c
000001a0: bebd a23d bd18 e4bd 317a 1abb b6f1 d43c
000001b0: 6419 c63d 460c b5bc 390c 7fbd a8a3 f3bb
000001c0: b9d1 f8bc 8383 d33c 405d babd a089 173c
000001d0: bb99 163d c71c d2bc 24f7 cbbd a128 423d
000001e0: aa24 4f3d fdbf cc3c 00a8 443d 66f8 aa3a
000001f0: a0cc 43bd 7390 c93d dcea cdbd a06f 113d
00000200: 4108 483d cc64 ae3d 5a3d 0cbd 2b5e 24bd
00000210: c2c6 e73c 134d 9ebd 9c35 0ebd 3bdb b13c
00000220: 0656 87bc adca 76bd 10f0 4abd a58c c73d
00000230: dc27 4ebd d60c b2bc c7dc 003d 9361 67bc
00000240: 345b 803d c028 acbd aa3b 463b 84db a93d
00000250: 6c60 243d e651 aebd c10f 85bc 423c 0dbd
00000260: f4a2 a93c 87a0 dbbd 81da 71bd 4b75 0ebd
00000270: f27b dfbd 1914 3ebd ab72 bd3d 8950 d23c
00000280: 0a18 c13d b873 af3c bd62 d7bd 628d c13d
00000290: 56b6 df3b a0b4 473c 5142 b83c 543d 253d
000002a0: fd75 e9bb 6bd8 81bd a012 7f3d d133 d2bc
000002b0: 92f0 56ba 0b9d 9c3c 93d3 803d f605 c13d
000002c0: ee8b 8bbd dc11 bdbd 56f0 a33c fdc4 28bb
000002d0: bea8 0e3c b6b9 733d 4b7f bebd 1e2e 383c
000002e0: 21aa 863c 947a a2bd 1fb3 3d3d 14c5 6d3d
000002f0: 742c bc3d ca2b b9bd 33df b5bd 24e0 293d
00000300: 05e3 683d f088 6ebc 8d3a 15bd d604 913d
00000310: 42ea a2bd 72a3 3d3d 940a 693d 55b2 c83d
00000320: e7d2 af3d 0e0e b9bd 3d69 b93c 7534 a43a
00000330: cb59 99bc 3528 bcbc 569d 14bd e46a b2bd
00000340: cc8b 39bc 12e8 90bd d321 adbc ddd1 bb3d
00000350: 3358 f4bc 151f 07bd d867 4a3d 776e 803c
00000360: 0856 a43d 2549 b83c 697b 29bd c58a 183d
00000370: da40 543c 522e 6a3c 7ea8 f6bb 099b d93d
00000380: a6c0 e83b 317b c43d 1226 4abd 4c3c a2bb
00000390: a908 63bd aeff 35bd eea3 5dbd 58fe de3d
000003a0: dbe7 283d 8bd1 38bd ee32 773d d5de 86bd
000003b0: 0048 aebc b9ba 633d 4960 273d 1a8f 44bd
000003c0: dd87 dbbd 507f 5abd 1be0 9fbd 3335 7ebd
000003d0: 14c0 173d 2ef6 dd3b c1fe 853d f707 4ebd
000003e0: 28ae 91bd b9c8 273d cec9 10bd 79bb b53d
000003f0: 7c43 713d 5036 5dbd cb90 563d 28fe 703d
0.06614376 0.013178235 -0.009535939 -0.058392033 -0.008299106 0.05967019 0.047329415 -0.03940409
-0.055244967 -0.0032010751 0.07913708 0.083102345 0.0026259779 -0.031064402 -0.04622507 0.063413575
0.020321315 -0.048375983 -0.038709544 -0.059497535 0.0715339 0.03525982 -0.06582122 -0.04686833
-0.10429029 0.041191943 -0.10910135 0.07671139 -0.033487275 0.056332603 0.0777389 0.005887345
-0.043398727 0.087078236 0.005101546 -0.0038390916 0.026242265 0.007227789 0.07139913 0.07959142
-0.074104205 -0.103286944 0.03696686 -0.004528148 0.03477115 -0.06198316 0.0070226947 -0.04079065
-0.059443936 -0.0572029 0.061309196 0.07385072 0.013765451 0.017977418 -0.10548436 -0.0070994594
0.104024544 0.02325902 0.06825661 -0.041428257 0.025816128 -0.015475099 -0.037052624 -0.10346259
-0.058080796 0.06765323 0.02797152 0.00064209395 0.06443379 0.024590196 -0.07829795 -0.035195567
-0.023532176 0.040643506 0.01911138 0.0027228328 -0.067090794 -0.028526768 -0.002143612 -0.038203217
0.07589132 0.10424973 -0.083960876 -0.024405008 0.05246803 0.024280757 -0.100880116 0.07287194
-0.005332163 0.048853885 -0.010791536 0.036783095 -0.05761312 0.03551831 -0.008310741 0.012419187
-0.033451594 0.052365765 0.029638013 0.03747833 -0.11285812 0.027792232 0.08227008 0.016182333
0.07946347 -0.11137531 -0.0023571367 0.025994163 0.096728116 -0.022100579 -0.062267516 -0.007435281
-0.030373441 0.025819546 -0.09099817 0.009249121 0.036767703 -0.025648488 -0.09959248 0.047402028
0.050572075 0.02499389 0.04801178 0.0013043999 -0.047802567 0.098420046 -0.100545615 0.035506845
0.048835997 0.08515319 -0.034238197 -0.040128868 0.028293017 -0.077295445 -0.034719095 0.021710983
-0.016520511 -0.06025188 -0.049545348 0.09743623 -0.05033098 -0.021734636 0.03146055 -0.014122385
0.062673956 -0.0840621 0.0030247965 0.082938224 0.040131018 -0.08511715 -0.016242864 -0.034481294
0.020707585 -0.107239775 -0.059046272 -0.034779828 -0.109123126 -0.046405885 0.09250387 0.025673168
0.09428413 0.021417484 -0.1051688 0.09450795 0.006827156 0.01218906 0.02249256 0.04034169
-0.007124661 -0.063401066 0.06227362 -0.025659474 -0.00081993 0.019117853 0.062903546 0.09424965
-0.06813799 -0.09231922 0.020012062 -0.002575218 0.008707223 0.05950328 -0.09301623 0.011241464
0.016438546 -0.07933536 0.0463134 0.058049276 0.09188166 -0.09041555 -0.088804625 0.041473523
0.056857128 -0.014559016 -0.03643279 0.070810005 -0.079548374 0.04629845 0.056894854 0.09799639
0.08585148 -0.09035884 0.02263319 0.001252784 -0.018719574 -0.022968391 -0.03628286 -0.08711794
-0.011324834 -0.07075514 -0.021134293 0.091708876 -0.029827213 -0.032988627 0.04941544 0.015677674
0.08024222 0.022495816 -0.04137746 0.037241716 0.012954915 0.01429327 -0.00752741 0.10625274
0.0071030436 0.095938094 -0.049352713 -0.0049510356 -0.05542818 -0.04443329 -0.054111414 0.10888356
0.04123674 -0.04512171 0.060351305 -0.065854706 -0.021274567 0.055597994 0.04086331 -0.047988035
-0.10719273 -0.05334407 -0.078064166 -0.062062453 0.037048414 0.0067737317 0.06542731 -0.050300565
-0.07113296 0.04096291 -0.035348706 0.08873648 0.05890225 -0.054006875 0.05238418 0.058836132

lstm.bias_ih_l1 f4 [512]
00000000: 5c90 9a3c 1830 a73d 9f8b da3d 80e4 023d
00000010: 1f8b 23bc 4254 6a3d b890 1bbd 4c88 3ebd
00000020: 7fd4 cbbb cdd5 02bd 57da 43bb 9307 6eba
00000030: 6f32 1f3c 650e b83d 6093 b83c 1c6f 19bd
00000040: b6a4 463c 990d 923d 837a 2b3b e073 3abd
00000050: 3579 5e3c 0a92 d03d 8c8e 943d d905 30bc
00000060: 0b4e 263d 6124 49bd fe6e f9bc b3b2 863d
00000070: aed4 71bd bd78 b93c b209 6fbd c2cd 8cbc
00000080: a9ea fd3c acc3 33bd 10f0 50bd c034 82bd
00000090: 8064 75bd 4d23 883d 632e ac3c a693 a43b
000000a0: 6cf9 e03c 4651 e0bc 49be 803c 976a 143d
000000b0: 56fc bd3d 3888 f63c 6e52 53bd 9ec5 d53d
000000c0: 6949 193d ed41 c03d 8702 4e3d 2fa1 a93d
000000d0: 74fe 87bb c530 5cbd 3c55 63bc bd4f 1fbd
000000e0: 7dce 963c fb50 7e3d a88c 453c 295f 22bd
000000f0: f38d 823d c946 83bd c3f9 c3bc 6abe 1abd
00000100: 061e 8f3c 2321 b13d 484b d53d cb34 793d
00000110: 52c5 50bd 984b e33a 0b4a 463c 6040 d53d
00000120: f5fa c23d babc 1dbc 4f06 093d 4227 c93a
00000130: 475f 39bd 58b5 26bd 899e a8bc 2404 ce3d
00000140: 56ea 4a3d 9aa0 b33d b511 c53d 3c0a d83d
00000150: 194b 34bc e845 64bd 51e4 1b3d b456 3a3d
00000160: 1e2b a03c 8d35 08bd bb03 293b f2c6 9e3d
00000170: fab3 79bd b750 853c 3994 9a3d 39f4 113d
00000180: 2b13 40bc 3b4e efbb f2e7 363d fb40 c23d
00000190: b03b af3d 48e4 2ebd 2bb0 b1ba d6c5 9f3b
000001a0: 2401 a03d cc02 86bd ea6b 16bd bfcf 8ebd
000001b0: af99 5d3d b121 b43c 26df 173d 94aa d1bc
000001c0: 1adb 9d3b f400 2e3d 8355 54bc 6002 da3d
000001d0: 98a3 b53d 4add 85bb 3323 27bd e0b6 8abb
000001e0: 15c2 cb3c c427 be3b 2546 373a b4f4 cd3d
000001f0: 0572 66bd ec83 743b f027 363d dc5f bf3d
00000200: 7975 7b3d b86e 04bd 5b70 3c3c bfe4 113c
00000210: 8321 c43c 218f 753d bcad 9a3d 4705 783a
00000220: 9e42 33bd 4956 9abb 475b 923d a531 c93d
00000230: 8cf4 6abd 1ae9 febc 866a 0bbd 7bd6 8fbd
00000240: ab3d d33d 68fa 7a3c 56f9 b73d d7a8 d43d
00000250: a389 d93d e219 41bd f5ea 07bd 37fd e73c
00000260: 9b92 903d 4033 363d 501a a5bc 70f3 e13c
00000270: 58e0 d63c cfe0 84bd 0181 193d 3c8b 673d
00000280: 3582 e63c e4bb c73d 116e 60ba 1ab3 493d
00000290: 2139 95bc b26c c53d 5476 a73c a32c 7abd
000002a0: 7317 503d c8e8 4d3d 4774 ae3d 4fca 033d
000002b0: 2813 573d 8531 393b a879 9dbc ab4f 3bbd
000002c0: 03f9 82bc b26d de3d a5f6 843d 5f44 a83d
000002d0: 464b 623c a8d6 d43d e300 a03d 6a1f 223d
000002e0: b8e5 843d 3206 20bd ca75 b93a ffe7 443b
000002f0: 793b fb3c 3764 29bc 4800 6b3c b434 53bd
00000300: 0024 993c 9216 9ebd 1c74 983c 93cd 023c
00000310: e7d3 16bb 86cc cd3c 1b58 2bbd 357b 0cbd
00000320: 3a0e 9fbc d78c 15bd f616 c43d 9657 913d
00000330: f3f1 e939 c1f5 ea3b f2cb a83d 3f7a 9b3d
00000340: f43e 40bd e58f 86bd f612 6ebd 00d2 a43d
00000350: 1c90 953d acc4 c9bd 7874 72bd f57f 84bd
00000360: e2db 1ebd 24f0 a4bc fc32 8b3c 060d 5fbd
00000370: 5d8e a33d 9748 c3bc 035d 58bd 4797 3c3d
00000380: 6582 1bbd 9d3c b13c c364 c83d 605a 763c
00000390: dea4 1b3d 2370 c83d 3ab8 9e3d e5ae 15bd
000003a0: bdbd d2bc 8146 30bd 42c6 8c3d de25 ef3c
000003b0: 9bce 9f3b 8a79 db3d ef6a 8a3d 067b 29bd
000003c0: 7918 c93d d600 de3d b598 523d 3ecc 1f3d
000003d0: 6723 84bd 2ee3 633d 73ab da3b 9e22 cc3c
000003e0: a798 79bc ae92 5e3d 1006 e9bb 610c 713c
000003f0: e05a 41bd bc8e 9a3d e48e 90bd 2fa9 213d
0.018867664 0.0816347 0.10671162 0.031956196 -0.0099818995 0.05720926 -0.03797981 -0.0465167
-0.0062204 -0.031942178 -0.002988478 -0.0009080108 0.009716614 0.089871205 0.022531211 -0.037459478
0.012124231 0.071315 0.0026165552 -0.045520663 0.013578703 0.10184105 0.07253751 -0.010743582
0.04060177 -0.04910696 -0.030448433 0.06577053 -0.059040718 0.02264058 -0.058358856 -0.017187957
0.030995684 -0.04388778 -0.05101019 -0.063577175 -0.059910297 0.06647358 0.021018213 0.005022484
0.027462684 -0.027382504 0.015715735 0.036234464 0.09276645 0.030094251 -0.051592283 0.10438083
0.037423525 0.09387574 0.05029538 0.082826965 -0.004150206 -0.053757448 -0.013875302 -0.038894404
0.018409008 0.062088948 0.012057461 -0.039641533 0.06374731 -0.064099856 -0.023922807 -0.03777925
0.017470371 0.086488985 0.104147494 0.060841363 -0.05096943 0.0017341254 0.012102614 0.10412669
0.095205225 -0.009627515 0.033453282 0.0015346783 -0.04525688 -0.040700287 -0.020583408 0.100593835
0.049539886 0.08770867 0.09622518 0.10548827 -0.011004233 -0.05573073 0.038059536 0.045492843
0.01955181 -0.033254195 0.0025789577 0.077527896 -0.060962655 0.01627384 0.075478025 0.0356333
-0.01172332 -0.007303027 0.044654794 0.0948505 0.08556306 -0.042698175 -0.001355653 0.004875879
0.078127176 -0.06543502 -0.03672401 -0.06973218 0.054101642 0.021988722 0.037078045 -0.025594033
0.0048173787 0.042481378 -0.012959841 0.10644984 0.08869094 -0.0040852176 -0.040805053 -0.004233226
0.024872819 0.0058030803 0.00069913483 0.10056439 -0.05626108 0.0037310077 0.04447168 0.093444556
0.061391328 -0.032332152 0.011501397 0.008904635 0.02394176 0.05995095 0.075526685 0.00094612356
-0.043764703 -0.004709993 0.07146316 0.09823922 -0.057362124 -0.03111701 -0.034037136 -0.07023331
0.103144966 0.015318491 0.08983104 0.10383766 0.10621955 -0.047143824 -0.033183057 0.028318984
0.07059213 0.04448247 -0.020154148 0.0275819 0.026230022 -0.06488191 0.037476543 0.05652927
0.02813826 0.09752634 -0.0008561323 0.04924307 -0.018215718 0.096398726 0.020442165 -0.061077725
0.050803613 0.050270826 0.08518272 0.03217536 0.052508503 0.0028258276 -0.01922305 -0.045730274
-0.015987879 0.108607665 0.06492356 0.08216166 0.013811892 0.10392505 0.07812669 0.03958074
0.06489128 -0.03906841 0.0014149484 0.0030045507 0.030668007 -0.0103388345 0.014343329 -0.051563933
0.018693924 -0.07719149 0.018610053 0.007983583 -0.0023014487 0.025121938 -0.04183207 -0.034297187
-0.019415963 -0.03651127 0.09574692 0.07096784 0.0004462149 0.0071704094 0.082420245 0.07591676
-0.046935037 -0.065704145 -0.05812355 0.08047867 0.07302877 -0.09851965 -0.059193105 -0.06469718
-0.038783915 -0.02013404 0.016992085 -0.05445578 0.07986138 -0.023838324 -0.052823078 0.046042707
-0.03796615 0.021635348 0.09784844 0.0150361955 0.037999026 0.097870134 0.07749982 -0.036543746
-0.02572524 -0.043035988 0.06873752 0.029192861 0.004876924 0.10716541 0.06758677 -0.04137709
0.09819121 0.10840003 0.051415164 0.03901314 -0.06452065 0.055636577 0.0066732704 0.02491885
-0.015234149 0.054339103 -0.0071113184 0.014712424 -0.047205806 0.07546756 -0.07058504 0.039467987
