backend/models/WH004_SKU-007.pth (torch, 830897 bytes, 13 tensors)

lstm.weight_ih_l0 f4 [512, 6]
-0.021863952 -0.013714941 0.04695864 0.016666194 -0.03606934 -0.024124583 -0.047859207 -0.023832424
0.099247865 0.042542923 0.06572526 0.012394488 0.062890805 0.023300512 0.023317013 0.032297734
-0.029108541 -0.0014287545 -0.042644348 0.000444828 0.09590888 0.018693937 -0.005995707 0.02530758
0.030415962 0.03952829 0.07919131 0.06458603 0.01715145 0.016616818 0.052188676 0.109671794
0.069255255 0.083680816 0.09878842 0.061442472 0.071669795 0.034785468 0.09026316 0.056270283
0.09599473 0.048259627 0.10601356 0.09110411 0.03835306 0.058088012 -0.031474628 0.079430826
-0.042201873 -0.05790749 0.0087440545 -0.010760937 0.10332485 0.102828205 0.09609508 0.019459784
-0.01536026 -0.01267744 0.0396571 0.010213059 0.018189752 0.08717091 0.04871816 -0.0010252836
0.051317014 0.08477765 -0.011766996 0.07091042 -0.036777236 -0.012935403 -0.03923667 0.08266495
0.06512143 -0.02020361 0.038118493 -0.013405855 0.030660903 0.0645076 0.029230086 0.07821439
-0.010192195 0.09395861 0.07854456 -0.02192907 0.04072274 0.10957121 -0.024770865 0.101019606
-0.015628789 0.061310347 0.109252475 0.04142486 -0.050038245 0.055406198 0.10430562 0.021262202
-0.020703837 -0.0033180993 -0.023540944 0.068687156 0.09308056 -0.058270384 0.010906115 0.03500191
-0.046107676 -0.03943637 0.07605749 0.04642212 0.044231016 -0.04654527 0.054930497 0.054302707
-0.02659864 -0.0021044547 0.10337422 0.08830172 -0.005881767 0.08797277 0.028286234 0.056167576
-0.014480044 0.085229315 0.060666654 0.033493552 -0.016101474 -0.019877259 0.04089812 -0.057269055
0.045413397 -0.033312332 0.06645798 0.031222977 -0.030480469 0.04317111 -0.03042655 0.061134808
-0.021839112 0.088956945 -0.00033802332 -0.051977478 -0.05259582 -0.04836587 0.080548085 0.03513401
-0.024457369 -0.017824838 -0.01784352 -0.060612097 0.08284482 0.06461853 0.056358874 -0.032427553
-0.050181847 0.07040634 -0.036678873 0.08184252 -0.0029198052 0.048479863 0.062000353 -0.031592596
-0.055809516 0.06800954 0.005860784 -0.036151182 0.066950664 0.0444645 0.07383948 -0.02080286
0.024942564 -0.06466829 0.029045265 -0.00603635 0.019864568 -0.046873286 -0.026589835 -0.058312587
-0.05299317 0.041999176 -0.05567276 -0.053602684 0.02821859 -0.053724963 0.095610194 0.102723
0.07686798 -0.014927622 -0.00809487 0.083805904 0.056061327 0.08702326 -0.010024219 0.06044508
-0.040998276 0.06845849 0.08538966 0.006396809 0.096370004 0.03228583 0.002661386 0.0618093
0.021660244 -0.04133674 0.09841993 -0.05328692 -0.06091195 -0.057606462 0.09775396 0.057669263
0.025614122 -0.05395397 0.017285556 -0.03780169 0.047213055 -0.005586109 0.0145500805 -0.05666298
0.0067801317 0.06270761 0.0065473504 -0.05153621 0.06639871 0.032181796 0.07015933 0.062598765
-0.04831242 0.0013524132 -0.06760646 -0.012511197 0.051816527 -0.015138619 -0.011659858 0.083770365
-0.05293415 -0.0065085813 0.012051076 -0.046978116 -0.019246005 -0.05526154 -0.035492063 0.09048119
0.097499885 0.017887313 0.08843385 0.087914616 0.090013295 0.030038565 0.058006104 -0.008885093
0.029163664 0.04043529 0.0724223 0.008443831 -0.05589254 -0.0069521847 0.07423535 0.07467088
00000000: 081c b3bc a2b4 60bc b457 403d 8b87 883c
00000010: 72bd 13bd eba0 c5bc 0408 44bd 373c c3bc
00000020: 7742 cb3d 7d41 2e3d f79a 863d 4012 4b3c
00000030: e5cc 803d b7e0 be3c 5203 bf3c a14a 043d
00000040: 0975 eebc 0c45 bbba d7ab 2ebd ce37 e939
00000050: e06b c43d 0724 993c a377 c4bb d851 cf3c
00000060: e52a f93c 6be8 213d 0e2f a23d ae45 843d
00000070: 3381 8c3c fe1f 883c cbc3 553d 9b9b e03d
00000080: b3d5 8d3d d960 ab3d 9551 ca3d 1aab 7b3d
00000090: 9dc7 923d 357b 0e3d e4db b83d ab7b 663d
000000a0: e398 c43d e3ab 453d a31d d93d cb94 ba3d
000000b0: 1918 1d3d b2ed 6d3d 8aeb 00bd a1ac a23d
000000c0: dfdb 2cbd 6730 6dbd 3943 0f3c a44e 30bc
000000d0: fb9b d33d 9897 d23d 7fcd c43d 206a 9f3c
000000e0: 9aa9 7bbc 0ab5 4fbc 7c6f 223d ad54 273c
000000f0: ad02 953c a986 b23d b18c 473d cf62 86ba
00000100: ca31 523d e89f ad3d 5cca 40bc 7b39 913d
00000110: baa3 16bd 03ef 53bc a1b6 20bd 3e4c a93d
00000120: 625e 853d 0b82 a5bc 2322 1c3d 3ba4 5bbc
00000130: 932c fb3c 901c 843d ef73 ef3c de2e a03d
00000140: 2afd 26bc 5f6d c03d f8db a03d 98a4 b3bc
00000150: e3cc 263d df66 e03d 45ec cabc 5ee3 ce3d
00000160: f207 80bc 8f20 7b3d c3bf df3d 1dad 293d
00000170: e7f4 4cbd 9cf1 623d 2f9e d53d 122e ae3c
00000180: 189b a9bc 7874 59bb f0d8 c0bc daab 8c3d
00000190: 05a1 be3d edac 6ebd 90af 323c 2a5e 0f3d
000001a0: 67db 3cbd 0888 21bd 08c4 9b3d 1f25 3e3d
000001b0: 952b 353d 41a6 3ebd cdfe 603d 846c 5e3d
000001c0: 64e5 d9bc e4ea 09bb ddb5 d33d 88d7 b43d
000001d0: d6bb c0bb 112b b43d 88b8 e73c f90f 663d
000001e0: b53d 6dbc b58c ae3d 997d 783d 8930 093d
000001f0: 3de7 83bc a2d5 a2bc c984 273d f592 6abd
00000200: 6603 3a3d 8372 08bd 1f1b 883d 54c7 ff3c
00000210: 2db2 f9bc 31d4 303d 1a41 f9bc 7e68 7a3d
00000220: f0e7 b2bc 0f2f b63d b938 b1b9 56e6 54bd
00000230: b76e 57bd 4a1b 46bd 65f6 a43d aee8 0f3d
00000240: d25a c8bc 6505 92bc 932c 92bc 6444 78bd
00000250: 8caa a93d b856 843d 90d8 663d c1d2 04bd
00000260: 7b8b 4dbd 3331 903d 963c 16bd 0d9d a73d
00000270: 345a 3fbb d292 463d 15f4 7d3d 3d67 01bd
00000280: 8598 64bd 9648 8b3d d20b c03b 4313 14bd
00000290: 6e1d 893d 6820 363d 2739 973d c26a aabc
000002a0: 5954 cc3c cf70 84bd 56f0 ed3c 93cc c5bb
000002b0: 05bb a23c 34fe 3fbd edd2 d9bc 2ed9 6ebd
000002c0: 5e0f 59bd 5407 2c3d 1f09 64bd 7d8e 5bbd
000002d0: ac2a e73c b50e 5cbd 47cf c33d 7060 d23d
000002e0: f66c 9d3d fc92 74bc 58a0 04bc 6ea2 ab3d
000002f0: 90a0 653d 4039 b23d 9f3c 24bc 4395 773d
00000300: cfed 27bd f733 8c3d c6e0 ae3d 539c d13b
00000310: a35d c53d 253e 043d a66a 2e3b c02b 7d3d
00000320: d370 b13c b750 29bd 6390 c93d 6343 5abd
00000330: cf7e 79bd c1f4 6bbd 3a33 c83d 9b36 6c3d
00000340: b5d4 d13c d7fe 5cbd 709a 8d3c f2d5 1abd
00000350: 7a62 413d ae0b b7bb 7663 6e3c 7117 68bd
00000360: de2b de3b d96c 803d 288b d63b a217 53bd
00000370: 0cfc 873d 0fd1 033d b2af 8f3d c833 803d
00000380: 3ee3 45bd 7543 b13a 4175 8abd c3fb 4cbc
00000390: 913d 543d f807 78bc fd08 3fbc cc8f ab3d
000003a0: 7bd1 58bd f045 d5bb e071 453c 206c 40bd
000003b0: cca9 9dbc ed59 62bd 2060 11bd 344e b93d
000003c0: 05ae c73d 6a88 923c ce1c b53d 940c b43d
000003d0: e458 b83d 7013 f63c cf97 6d3d c892 11bc
000003e0: a3e8 ee3c 7a9f 253d 2552 943d fe57 0a3c
000003f0: 93ef 64bd 27cf e3bb b408 983d 0ced 983d

lstm.weight_hh_l0 f4 [512, 128]
0.0065621887 -0.113295875 -0.0554297 0.025995221 -0.027592119 0.049304392 0.05935409 0.01585398
-0.06368763 0.03200924 0.039111625 -0.028185355 0.09744031 0.04649343 -0.00081977306 0.046511825
-0.023248749 -0.00030280478 0.063697375 -0.028740102 -0.019754158 0.073919706 -0.09051463 -0.053695705
-0.106582135 -0.052997153 -0.0558372 0.06572772 -0.030857101 0.06438236 -0.019990144 0.075245604
-0.024591196 0.108441986 -0.036312893 0.034202635 -0.056597658 0.034207437 -0.011984715 -0.05666962
-0.057858676 0.013531143 -0.03968163 -0.019319182 0.057274148 -0.04308045 -0.056095257 -0.032320004
0.107157454 -0.0055042077 0.0020656025 -0.03644446 -0.0026992825 0.038627766 -0.08466245 0.041683298
0.050091993 0.10562417 -0.040687054 0.027117454 -0.03503797 -0.016164871 -0.056063507 0.005804628
-0.10728113 -0.06613486 0.023942718 -0.059039973 0.060366917 0.039818406 0.021717124 -0.016973913
-0.04041801 -0.04395008 0.052421615 -0.021427518 0.023906656 -0.050390776 -0.056306995 0.027951682
-0.013480643 -0.019353716 -0.037037782 0.06931808 0.003026969 -0.004463753 0.04387382 -0.049565073
0.11157252 0.0718099 -0.05042748 0.05154792 -0.04812963 -0.07950984 0.093465105 0.0020491378
0.09784446 0.07369153 -0.028983468 0.017269254 -0.112916365 -0.007942084 -0.07954644 -0.039030313
0.038931005 -0.0058742035 -0.022556214 -0.02808055 -0.012506069 0.11398249 -0.029546205 -0.09732692
0.040916584 0.051761467 0.10469078 0.05300353 -0.0001742112 -0.07978631 -0.039317846 -0.089861915
0.050136764 -0.05287219 -0.063778445 -0.036320362 -0.0008273525 0.009014856 0.05465669 -0.06454109
0.09874971 -0.09383367 0.09501965 0.05279049 -0.094659686 -0.057801783 -0.049151964 -0.089557536
0.039195556 0.017501403 0.029667165 0.04208668 0.055713147 0.013068727 -0.04294825 -0.008778434
0.05375682 0.01586184 -0.05792679 -0.03464125 0.03584047 0.046928372 -0.08358956 -0.029145427
-0.042170625 0.046802487 -0.046777654 -0.09653198 -0.007535406 -0.050112955 -0.07574807 0.0471159
0.070008606 0.012491613 0.06620774 -0.039796162 0.064251155 -0.09328855 0.08159071 0.052318946
-0.09440767 -0.05251266 -0.055150952 -0.08560166 -0.09015124 0.020051727 -0.05155255 -0.055662036
0.04370321 -0.060901735 -0.06378853 0.037163552 0.0548142 -0.028210936 -0.061061155 -0.04053854
0.035593905 0.01135364 0.08520782 -0.040409267 -0.02553146 -0.055882107 0.006996103 0.06809366
-0.10755879 0.019788485 0.045843728 -0.044851787 0.055415194 0.0006003922 0.037575155 0.06488091
0.006260897 0.114028506 -0.060416803 0.03477134 -0.01196179 -0.08050554 0.032078397 -0.046062753
-0.0026554654 0.06409068 0.044269413 0.062225904 -0.038980477 -0.027281137 0.048846286 0.01942943
-0.0047902274 0.047272917 -0.06345864 0.026616901 0.081789315 0.0040872274 -0.027313633 -0.035655234
0.02395402 -0.04164581 -0.035350833 -0.030848317 -0.028008433 0.0979162 -0.03535678 0.07456031
-0.036323275 0.09367095 0.06712261 0.114691615 -0.03088642 0.03650093 -0.024912987 0.030543398
0.062273465 -0.053837035 -0.024475848 -0.018516704 -0.092317216 0.048770957 -0.0040273326 -0.10391897
-0.017987097 -0.08487268 0.030960513 -0.063019045 -0.00045403425 0.028673984 0.06808354 0.04314439
00000000: a107 d73b ab07 e8bd 410a 63bd eef3 d43c
00000010: de08 e2bc 67f3 493d 461d 733d 35e0 813c
00000020: a96e 82bd 1f1c 033d 8333 203d f9e4 e6bc
00000030: c98e c73d e56f 3e3d 0ae6 56ba 2f83 3e3d
00000040: 2974 bebc c5c1 9eb9 c573 823d 5d70 ebbc
00000050: 79d3 a1bc 3763 973d bc5f b9bd 07f0 5bbd
00000060: bc47 dabd 8b13 59bd 8cb5 64bd 419c 863d
00000070: 08c8 fcbc e6da 833d 5fc2 a3bc 5e1a 9a3d
00000080: 7a73 c9bc d516 de3d d4bc 14bd 1018 0c3d
00000090: f2d2 67bd 191d 0c3d 8a5b 44bc 671e 68bd
000000a0: 38fd 6cbd bab1 5d3c 3489 22bd 4343 9ebc
000000b0: 4c98 6a3d 2075 30bd 24c4 65bd fb61 04bd
000000c0: 5e75 db3d a45c b4bb 0f5f 073b c946 15bd
000000d0: 72e6 30bb 2638 1e3d 8263 adbd 1bbc 2a3d
000000e0: 432d 4d3d 7c51 d83d 78a7 26bd 6c25 de3c
000000f0: f983 0fbd 316c 84bc d9a2 65bd c034 be3b
00000100: 36b6 dbbd b771 87bd 8523 c43c e6d3 71bd
00000110: 4d43 773d a018 233d 1ce8 b13c e00c 8bbc
00000120: 5b8d 25bd 0005 34bd 0cb8 563d c388 afbc
00000130: e4d7 c33c 8f66 4ebd 2aa2 66bd edfa e43c
00000140: eadd 5cbc af8b 9ebc eeb4 17bd a3f6 8d3d
00000150: 1d60 463b ad44 92bb 09b5 333d bf04 4bbd
00000160: 2280 e43d 1211 933d 0c8d 4ebd e923 533d
00000170: 9323 45bd 0ed6 a2bd a26a bf3d d44a 063b
00000180: ad62 c83d 96eb 963d bd6e edbc 4078 8d3c
00000190: b240 e7bd 841f 02bc 3ee9 a2bd 40de 1fbd
000001a0: 1e76 1f3d 647c c0bb cfc7 b8bc 2e09 e6bc
000001b0: 41e6 4cbc a76f e93d e20a f2bc 5653 c7bd
000001c0: 2698 273d d503 543d 1f68 d63d 3b1a 593d
000001d0: 77ac 36b9 0167 a3bd c00b 21bd 8609 b8bd
000001e0: 355c 4d3d 8290 58bd 469e 82bd a9c4 14bd
000001f0: b0e2 58ba 0cb3 133c b2df 5f3d 1e2e 84bd
00000200: 4a3d ca3d de2b c0bd aa99 c23d d73a 583d
00000210: f0dc c1bd 90c1 6cbd 9253 49bd f169 b7bd
00000220: 858b 203d 1a5f 8f3c 8e08 f33c 1563 2c3d
00000230: 7833 643d 371e 563c 81ea 2fbd 6cd3 0fbc
00000240: 1c30 5c3d b1f0 813c a444 6dbd fce3 0dbd
00000250: 75cd 123d f737 403d 0131 abbd 64c2 eebc
00000260: 1bbb 2cbd f7b3 3f3d ed99 3fbd 8fb2 c5bd
00000270: 91eb f6bb 3e43 4dbd ce21 9bbd 9afc 403d
00000280: ac60 8f3d 9fa9 4c3c ec97 873d 4d01 23bd
00000290: 1c96 833d 110e bfbd 0819 a73d 644c 563d
000002a0: cf58 c1bd 8417 57bd f7e5 61bd ec4f afbd
000002b0: 37a1 b8bd 8543 a43c c428 53bd e0fd 63bd
000002c0: 2302 333d 1974 79bd 90a3 82bd cf38 183d
000002d0: db84 603d 9f1a e7bc 431b 7abd bd0b 26bd
000002e0: eaca 113d 9e04 3a3c 7081 ae3d 3084 25bd
000002f0: 5a27 d1bc a3e4 64bd 913f e53b b074 8b3d
00000300: c847 dcbd 761b a23c a2c6 3b3d 82b6 37bd
00000310: 0bfb 623d a363 1d3a 68e8 193d 48e0 843d
00000320: 3628 cd3b c787 e93d 9c77 77bd 656c 0e3d
00000330: 62fb 43bc 17e0 a4bd a364 033d 4cac 3cbd
00000340: 5107 2ebb f941 833d d853 353d 97e0 7e3d
00000350: fea9 1fbd b17c dfbc 0b13 483d 782a 9f3c
00000360: 57f7 9cbb 3fa1 413d 9af6 81bd b00b da3c
00000370: 2881 a73d 26ee 853b d7c0 dfbc 390b 12bd
00000380: 393b c43c cc94 2abd 09cc 10bd 9cb5 fcbc
00000390: f171 e5bc 4a88 c83d 45d2 10bd 13b3 983d
000003a0: b7c7 14bd 8ed6 bf3d 9477 893d 70e3 ea3d
000003b0: 8405 fdbc 0082 153d 5216 ccbc 2636 fa3c
000003c0: 7612 7f3d 3984 5cbd 9381 c8bc 58b0 97bc
000003d0: cf10 bdbd 0ec4 473d b7f7 83bb 78d3 d4bd
000003e0: ad59 93bc bad1 adbd e7a0 fd3c 2110 81bd
000003f0: 720b eeb9 b4e5 ea3c 626f 8b3d 2cb8 303d

lstm.bias_ih_l0 f4 [512]
0.09781586 0.0072480273 0.106005535 -0.01792228 0.044993628 -0.022913236 -0.0030889064 -0.026031703
0.06716122 0.016201992 0.073691405 -0.04441016 0.048696816 -0.04525535 0.07210233 -0.037057724
0.09795351 0.074870616 0.023584357 0.07873821 -0.023515774 0.061597202 0.0749355 0.09125295
0.014088865 0.0066906204 0.05615739 -0.017831476 0.006841249 0.004115957 -0.0009559643 0.0014341226
-0.045659114 0.016127238 -0.042037692 -0.060446452 0.01115433 0.103173606 -0.061326124 -0.051926736
-0.019186562 -0.0049429415 0.010891486 0.021233782 -0.020799281 0.018686736 -0.0043164543 -0.043620143
-0.053747565 -0.02096103 -0.047984075 -0.05388769 -0.03850018 -0.03207859 -0.043701697 -0.039841145
0.09327329 0.010055526 0.05820572 0.1052324 -0.04327704 0.065581344 0.0030235297 0.032504875
0.08815545 0.08064609 -0.019212762 -0.05177791 0.050890908 -0.024603684 -0.0060587367 -0.03172489
0.07573403 0.03925167 0.1052135 0.05105502 -0.02797047 -0.044545855 0.07366423 -0.04609223
0.07265184 -0.04794932 0.012389351 -0.05126295 -0.03728223 0.046437107 0.03141703 -0.026840774
-0.017821552 0.055329014 -0.025883313 0.020339478 0.061252862 -0.0608685 0.07278188 0.011746858
-0.060384586 0.06325102 0.069611564 0.005733383 -0.05930627 -0.03727437 -0.031932045 0.025596295
0.044832867 0.08513991 0.005524158 0.092941344 -0.0052152257 0.02055426 -0.03318845 -0.011651659
0.034722663 -0.04180301 0.011962684 -0.044325948 0.04805241 0.037835587 -0.056362495 0.023553068
0.08423755 0.060570013 0.077251464 0.05333958 0.014212165 0.036493808 -0.002316855 0.07940994
0.07287802 0.090414554 0.025032362 0.019688163 0.05071638 0.09323197 -0.014722803 -0.023407692
0.03198251 0.10535505 0.072634354 0.009728871 0.06813112 -0.009717636 0.024193253 -0.012265019
0.097202204 -0.0012032364 0.06566706 -0.037494674 -0.056607842 0.043580934 0.080912925 0.0020331978
-0.016904492 0.10779576 0.030577902 -0.036174066 0.01056835 0.11044659 0.07460001 0.023804216
0.043155074 0.09274102 0.002204133 0.09414817 0.10229646 0.068266824 -0.04253649 0.024830338
0.025270894 -0.036020063 -0.05111746 0.042797346 0.10900637 0.054308455 -0.015248039 0.10189364
0.102617085 0.041715715 -0.023205694 0.0025218495 0.017937282 0.037501004 -0.041706946 -0.005852354
-0.038155455 0.010555712 -0.023994168 0.104063325 -0.06216299 0.06827366 -0.04682199 -0.054242242
0.10189435 -0.0064949607 -0.009364621 0.048265662 0.007311775 -0.040548846 -0.003164909 0.055076785
0.08683137 0.081545435 0.08201076 0.09608265 -0.052655723 0.091986775 0.07857746 -0.054222178
0.04850599 -0.041734215 -0.06476561 0.0023543993 0.075839154 0.078384295 0.021561597 -0.021721035
-0.062449362 0.10914114 0.0014191561 0.088012 0.051512636 0.09956131 -0.018790897 -0.05289547
-0.030143933 -0.026057307 -0.026207687 -0.015015789 0.061017483 0.100507885 -0.028665956 0.059024848
-0.04318629 -0.026385136 0.047113065 -0.032332666 0.073666945 0.055878628 0.014439633 -0.057248715
0.0863339 0.102551006 -0.02382646 -0.028979387 -0.0341939 -0.019400718 0.09189704 -0.057701904
0.04867045 0.050089005 0.089255035 0.10460298 -0.052565575 0.00646791 -0.075394265 -0.002257036
00000000: ae53 c83d dc80 ed3b 6e19 d93d bfd1 92bc
00000010: 3d4b 383d 8ab4 bbbc 406f 4abb 7040 d5bc
00000020: d28b 893d 0aba 843c 85eb 963d 6ee7 35bd
00000030: 5076 473d ad5d 39bd 63aa 933d d7c9 17bd
00000040: da9b c83d c455 993d fb33 c13c 8041 a13d
00000050: 27a4 c0bc 594d 7c3d c977 993d d4e2 ba3d
00000060: fcd4 663c fe3c db3b 4b05 663d 5113 92bc
00000070: 8e2c e03b 26df 863b ae99 7aba 2bf9 bb3a
00000080: 0d05 3bbd 451d 843c b72f 2cbd b396 77bd
00000090: a7c0 363c af4c d33d 1a31 7bbd 21b1 54bd
000000a0: 232d 9dbc 66f8 a1bb 3472 323c 78f2 ad3c
000000b0: 4163 aabc ed14 993c 0b71 8dbb 09ab 32bd
000000c0: 6826 5cbd 77b6 abbc f38a 44bd 57b9 5cbd
000000d0: 5db2 1dbd d764 03bd 8d00 33bd 7830 23bd
000000e0: 1106 bf3d efbf 243c 1f69 6e3d 1684 d73d
000000f0: 4443 31bd 834f 863d 6926 463b d523 053d
00000100: d88a b43d c729 a53d 1564 9dbc 1315 54bd
00000110: fc72 503d aa8d c9bc 5e88 c6bb f5f1 01bd
00000120: 711a 9b3d 5cc6 203d 2d7a d73d 121f 513d
00000130: 5422 e5bc b775 36bd 46dd 963d 35cb 3cbd
00000140: 7dca 943d 8266 44bd b4fc 4a3c 19f9 51bd
00000150: 40b5 18bd d634 3e3d 25af 003d 2fe1 dbbc
00000160: 81fe 91bc ada0 623d 3e09 d4bc fa9e a63c
00000170: 48e4 7a3d 4051 79bd ab0e 953d e575 403c
00000180: d455 77bd c089 813d 8290 8e3d 1adf bb3b
00000190: 22eb 72bd 03ad 18bd 2dcb 02bd 52af d13c
000001a0: aba2 373d d55d ae3d ff03 b53b 0858 be3d
000001b0: 7ce4 aabb 6861 a83c 9df0 07bd 9ae6 3ebc
000001c0: 5a39 0e3d a239 2bbd 22ff 433c 208f 35bd
000001d0: 9bd2 443d 7df9 1a3d 5cdc 66bd 5df2 c03c
000001e0: bd84 ac3d 4318 783d 0436 9e3d 9a7a 5a3d
000001f0: 24da 683c 887a 153d 60d6 17bb aea1 a23d
00000200: 1241 953d 442b b93d ab10 cd3c 1249 a13c
00000210: fbbb 4f3d 67f0 be3d e937 71bc 7dc1 bfbc
00000220: 1800 033d 63c4 d73d 52c1 943d d865 1f3c
00000230: 5488 8b3d b836 1fbc ee30 c63c 38f3 48bc
00000240: f311 c73d eab5 9dba 747c 863d 0494 19bd
00000250: a0dd 67bd ec81 323d adb5 a53d 663f 053b
00000260: 4a7b 8abc 06c4 dc3d 827e fa3c 422b 14bd
00000270: df26 2d3c d231 e23d e4c7 983d 0f01 c33c
00000280: 60c3 303d 01ef bd3d 3773 103b c1d0 c03d
00000290: ce80 d13d 7acf 8b3d be3a 2ebd fe68 cb3c
000002a0: e804 cf3c c689 13bd 8b60 51bd 454c 2f3d
000002b0: bb3e df3d 8b72 5e3d e9d2 79bc 9dad d03d
000002c0: e828 d23d 19de 2a3d de19 bebc 9d45 253b
000002d0: 35f1 923c a79a 193d e7d4 2abd 1bc5 bfbb
000002e0: e548 1cbd ddf1 2c3c 6b8f c4bc 271f d53d
000002f0: 9f9e 7ebd 10d3 8b3d 6ac8 3fbd 1d2d 5ebd
00000300: fcad d03d aed3 d4bb 116e 19bc 37b2 453d
00000310: 9d97 ef3b 8c16 26bd 5d6a 4fbb 3298 613d
00000320: a5d4 b13d 4b01 a73d 42f5 a73d fbc6 c43d
00000330: 87ad 57bd 9063 bc3d 38ed a03d 1318 5ebd
00000340: 38ae 463d 7ff1 2abd d5a3 84bd 444c 1a3b
00000350: 8f51 9b3d f287 a03d f2a1 b03c 50f0 b1bc
00000360: e7ca 7fbd 6485 df3d fa02 ba3a a33f b43d
00000370: eafe 523d cde6 cb3d 5eef 99bc eca8 58bd
00000380: 69f0 f6bc 2276 d5bc 81b1 d6bc c904 76bc
00000390: 78ed 793d 14d7 cd3d ded4 eabc 0ac4 713d
000003a0: 1be4 30bd a425 d8bc a1f9 403d 426f 04bd
000003b0: b2de 963d fde0 643d 3694 6c3c a17d 6abd
000003c0: d4cf b03d 4306 d23d b52f c3bc 2e66 edbc
000003d0: e70e 0cbd 41ee 9ebc 8434 bc3d d558 6cbd
000003e0: aa5a 473d 212a 4d3d 58cb b63d 163a d63d
000003f0: 004f 57bd c3f0 d33b 4f68 9abd c8ea 13bb

lstm.bias_hh_l0 f4 [512]
-0.028151246 -0.059979357 0.009686926 -0.023033533 -0.026944274 0.11327688 -0.020370916 0.047310192
-0.02785173 -0.04916195 -0.03184327 0.045110296 0.058887273 -0.020078257 0.022020454 0.027554307
-0.0057742195 0.07602333 0.0014042975 0.053182054 -0.06329767 -0.06403814 -0.06525149 0.09040071
0.0676434 0.081314676 0.010069786 0.08300836 0.10361776 0.04788529 0.06512147 0.009364568
-0.057107646 0.07621394 0.05954225 0.0494573 0.0028405008 0.0025630821 -0.011911412 -0.0191879
-0.06255547 -0.06956469 -0.047637053 0.07845001 0.039657544 -0.009782626 0.04005652 0.030523239
0.074280605 0.079385154 -0.03867336 -0.04306135 0.09388694 -0.011483711 0.094756834 -0.045323186
-0.009689054 -0.03152634 0.09183216 0.056289922 0.06509394 0.010524965 0.0014714696 0.052855514
-0.060812533 0.021624481 0.10535079 -0.0040586265 0.08333878 0.0026059046 -0.0069940314 0.064935625
0.06441739 0.074925445 0.10285983 0.036435526 0.0048740194 0.08403036 0.058336355 0.045724753
-0.01490486 0.06320432 0.06905531 -0.011012501 -0.04148333 0.013664528 0.08726035 0.03547145
0.0028054656 0.004380922 -0.0015170417 -0.0075572543 -0.054267153 0.07858633 0.0601416 -0.040956657
-0.03324027 0.09796477 -0.049803067 -0.015522006 -0.029077968 -0.057023793 0.0014768321 -0.07737482
0.0829087 0.08836166 0.010374504 0.040538646 -0.060491342 -0.05771081 0.018158711 -0.013298003
-0.030007523 -0.06873464 -0.06568305 0.011250296 -0.044428322 -0.0267235 0.091369554 0.096742444
0.07331361 0.094057485 0.07021357 0.005964614 -0.024629986 -0.036022007 -0.045817394 0.10637739
0.041969087 0.0023080094 0.06358948 -0.05183044 -0.039334293 0.06918951 -0.04978699 0.111054726
0.11102072 0.08474047 0.006930623 -0.018723566 0.026102232 0.062808335 0.01582328 0.08766201
0.09732119 -0.006540789 0.03850165 -0.030224383 0.0076141357 -0.025271874 0.095952995 0.0741048
0.03795906 -0.055933714 0.03181829 0.048543874 -0.0007589604 -0.038977005 0.108171135 0.063214794
0.035846513 0.070296474 -0.042943254 0.07006629 0.017228764 -0.0019591942 -0.010251149 -0.05803163
0.004315244 -0.025084408 0.014732778 0.1055349 0.039612465 0.07651118 0.01762887 0.08563182
0.0047190497 -0.008425087 0.075155556 -0.012114897 0.09402578 0.03638274 -0.035916887 -0.014459445
0.009279042 0.067851506 -0.040928897 -0.0051494525 -0.04766766 0.103289336 0.073563166 0.05393127
0.08110075 0.07097257 -0.013668339 -0.046897613 0.055710766 -0.0035109485 0.08063759 0.0509953
0.1041586 0.040961567 0.08709428 0.001464132 0.07808019 0.012460902 -0.055645224 0.08369875
0.0007059077 -0.04451004 0.028175741 -0.066434346 0.010145036 -0.04091674 -0.011086738 0.029781017
0.09470901 0.0013527493 -0.024070906 0.1017689 0.09321313 0.087611325 0.093644835 -0.043908577
-0.07241092 -0.048998248 0.055756845 0.07975173 0.07318383 0.02652246 0.06077999 0.0485571
0.04883338 -0.044957902 -0.020722738 0.04002401 0.0051290155 -0.0075163655 3.4809822e-05 0.01218672
-0.073658116 -0.0023429675 -0.008151928 0.07804436 0.0012759219 0.09234198 0.03768812 -0.00723948
0.07871739 -0.050770234 -0.06685577 0.0901487 -0.021156874 -0.05201145 -0.066429034 0.07505002
00000000: 719d e6bc eaac 75bd eab5 1e3c d2b0 bcbc
00000010: 3dba dcbc b5fd e73d e8e0 a6bc 55c8 413d
00000020: 5029 e4bc 0a5e 49bd 176e 02bd 93c5 383d
00000030: c833 713d 287b a4bc 3d64 b43c 92b9 e13c
00000040: aa35 bdbb 1fb2 9b3d 6810 b83a 6dd5 593d
00000050: 35a2 81bd 6e26 83bd 93a2 85bd 0224 b93d
00000060: 9f88 8a3d 4f88 a63d befb 243c 4900 aa3d
00000070: 8c35 d43d 5e23 443d 685e 853d d86d 193c
00000080: b5e9 69bd 0e16 9c3d 93e2 733d bd93 4a3d
00000090: b227 3a3b 62f9 273b 1528 43bc f12f 9dbc
000000a0: 151d 80bd ef77 8ebd 121f 43bd 66aa a03d
000000b0: f36f 223d 4f47 20bc 4e12 243d df0b fa3c
000000c0: 6e20 983d af94 a23d f567 1ebd 1961 30bd
000000d0: cc47 c03d 2d26 3cbc df0f c23d cea4 39bd
000000e0: d7be 1ebc c321 01bd 8012 bc3d 4390 663d
000000f0: f94f 853d e770 2c3c 54de c03a 067f 583d
00000100: 9016 79bd d325 b13c 28c2 d73d 3afe 84bb
00000110: 86ad aa3d d3c7 2a3b 302e e5bb f8fc 843d
00000120: 44ed 833d 8372 993d 2da8 d23d 6b3d 153d
00000130: 3db6 9f3b 1c18 ac3d 1af2 6e3d e149 3b3d
00000140: 8433 74bc 4471 813d df6c 8d3d c76d 34bc
00000150: 6dea 29bd 2fe1 5f3c 8eb5 b23d 834a 113d
00000160: e7db 373b d68d 8f3b 79d7 c6ba d8a2 f7bb
00000170: 3c47 5ebd dff1 a03d 0a57 763d 2bc2 27bd
00000180: f326 08bd c1a1 c83d 4dfe 4bbd 0350 7ebc
00000190: eb34 eebc c891 69bd 4392 c13a b176 9ebd
000001a0: 09cc a93d f5f6 b43d d3f9 293c da0b 263d
000001b0: c5c5 77bd 2c62 6cbd 94c1 943c dedf 59bc
000001c0: 56d2 f5bc bfc4 8cbd d684 86bd 2953 383c
000001d0: 79fa 35bd 3eeb dabc f61f bb3d e720 c63d
000001e0: 7225 963d 36a1 c03d 22cc 8f3d cf72 c33b
000001f0: d3c4 c9bc d08b 13bd 05ab 3bbd 64dc d93d
00000200: c7e7 2b3d f941 173b 343b 823d 284c 54bd
00000210: ff1c 21bd 3bb3 8d3d 71ed 4bbd a970 e33d
00000220: d55e e33d 698c ad3d 481a e33b 2a62 99bc
00000230: 59d4 d53c a8a1 803d d39f 813c 2488 b33d
00000240: 5550 c73d 1d54 d6bb e8b3 1d3d 2099 f7bc
00000250: 0080 f93b f606 cfbc 0183 c43d 42c4 973d
00000260: f67a 1b3d c01a 65bd e553 023d f1d5 463d
00000270: f8f4 46ba 5aa6 1fbd d488 dd3d c276 813d
00000280: cbd3 123d 99f7 8f3d 44e5 2fbd ea7e 8f3d
00000290: 5623 8d3c d365 00bb 6ff4 27bc 93b2 6dbd
000002a0: e466 8d3b d17d cdbc c061 713c af22 d83d
000002b0: ae40 223d e5b1 9c3d 6c6a 903c bc5f af3d
000002c0: 42a2 9a3b 6009 0abc 28eb 993d 907d 46bc
000002d0: 9790 c03d 1106 153d 961d 13bd 4fe7 6cbc
000002e0: 1f07 183c bbf5 8a3d 0fa5 27bd bdbc a8bb
000002f0: 2a3f 43bd 5c89 d33d 49a8 963d 09e7 5c3d
00000300: 2618 a63d 115a 913d 2bf1 5fbc b617 40bd
00000310: f930 643d f117 66bb 5225 a53d 73e0 503d
00000320: 1b51 d53d 51c7 273d 7c5e b23d 1ee8 bf3a
00000330: 82e8 9f3d d028 4c3c 3fec 63bd 406a ab3d
00000340: aa0c 393a 2950 36bd d0d0 e63c bb0e 88bd
00000350: 5d37 263c 5098 27bd 26a5 35bc 52f7 f33c
00000360: ccf6 c13d bc4e b13a 5930 c5bc 376c d03d
00000370: 87e6 be3d 916d b33d ddc8 bf3d 7bd9 33bd
00000380: 2d4c 94bd 63b2 48bd 4a61 643d e054 a33d
00000390: 67e1 953d a145 d93c 70f4 783d cfe3 463d
000003a0: 8305 483d c725 38bd bbc2 a9bc 37f0 233d
000003b0: 4d11 a83b d84b f6bb c300 1238 cfaa 473c
000003c0: 11da 96bd 798c 19bb aa8f 05bc b9d5 9f3d
000003d0: d63c a73a cb1d bd3d dc5e 1a3d 2939 edbb
000003e0: 9536 a13d 73f4 4fbd aeeb 88bd e29f b83d
000003f0: 2e51 adbc f509 55bd f20b 88bd d3b3 993d

lstm.weight_ih_l1 f4 [512, 128]
0.047432512 -0.02046657 -0.023862515 0.05010967 0.055688336 0.024970252 -0.04442461 -0.018163744
-0.06831002 -0.0030817785 0.043538306 0.011039758 -0.0008491255 0.014017987 0.006728347 -0.033719853
-0.106297284 -0.08544977 0.0029459936 -0.06399728 -0.0947192 -0.06625728 -0.06685431 0.10462116
0.043174785 -0.036682844 -0.086369626 -0.03733516 0.049131572 0.08806023 -0.004610334 -0.040523905
0.02862958 0.10143963 0.08303352 0.022552565 -0.0058243484 -0.061593954 0.033830017 0.04270882
-0.008358192 0.04773606 -0.059237488 -0.07912004 0.014779025 0.048081618 -0.07429722 -0.034449972
0.037309393 0.01667779 -0.0022609397 -0.07526305 -0.079478085 -0.093378305 0.030283138 -0.08930788
0.07344603 0.0972266 -0.079330266 -0.060177673 -0.022739364 0.037289515 0.09592322 0.0043801875
-0.084502056 -0.041534882 -0.07047596 0.021617316 0.025211798 0.016448876 -0.015374631 -0.062856115
-0.015918674 0.024249937 0.003500704 -0.06607511 -0.08835343 -0.07482186 -0.044191737 -0.02541664
-0.055812754 0.047073986 -0.07181758 -0.020591348 0.034721177 -0.023966065 -0.0040919967 0.07746383
0.09246824 0.025653502 -0.011882063 -0.0344756 0.053111523 -0.063903116 0.066622645 -0.0445878
-0.058760505 0.0044918098 0.042020004 -0.0047366517 0.057801828 0.01161879 0.006686393 -0.061308686
-0.05344065 0.042387262 -0.006368442 -0.0010647367 -0.007367582 -0.056294434 -0.0035311638 0.018306231
0.044552885 -0.0016141583 -0.054831844 -0.029505359 0.02426237 -0.0991514 -0.0074239606 0.04434151
0.053358614 -0.013816577 -0.08591136 0.062335335 0.085436374 -0.044448324 0.06756386 -0.054054573
0.08792082 -0.10795777 -0.021436675 0.030568048 -0.04810269 0.056213833 0.03614347 0.022390662
0.04923183 -0.021944756 0.0140700005 -0.08402723 -0.03935622 -0.051228307 0.022583852 0.0015358845
-0.06654694 -0.077428184 0.037890516 8.649811e-06 -0.042678885 0.014086977 0.010196685 0.056752153
0.052916937 -0.015530666 -0.037624363 -0.006884604 -0.103549205 -0.021415928 0.04464634 0.03886012
0.04273031 0.029124452 -0.01590695 -0.028804397 -0.023251938 0.023001695 0.037940513 -0.007925532
-0.031122299 0.04356735 0.063376226 -0.07110071 0.05688282 -0.039148252 0.051740002 -0.0121522425
-0.040432245 -0.025607733 -0.05837567 0.058947347 0.009614982 -0.043649994 -0.09101534 -0.05442039
0.027953712 0.0052267015 0.06816011 0.054873195 0.0302826 -0.009497615 0.028796665 -0.08246612
-0.054181173 0.0046331286 0.0013949361 0.04605849 -0.053460266 -0.09246971 0.07299343 0.06324866
0.01631926 0.053866025 0.038536977 -0.015023803 -0.10670132 0.06004418 -0.043145083 0.017792523
-0.03752555 -0.03789992 -0.019218788 -0.015309728 -0.046019215 -0.08290607 -0.020029882 0.076365694
-0.018466676 0.06407613 0.066283144 -0.018028365 -0.0042624157 0.052286312 -0.0012092629 0.042167984
-0.05716209 0.03274736 -0.10485908 -0.016009025 -0.096488334 0.0002471238 -0.051825583 0.010027155
0.06318136 -0.007940096 0.024993425 -0.032506958 -0.06023276 -0.013595186 0.054999635 -0.10345764
-0.031284384 -0.03661477 -0.031559426 -0.014661227 0.025064677 -0.067647815 -0.011853929 -0.022564372
0.060969505 -0.046686716 -0.101759315 -0.10706553 0.01320931 -0.08129825 0.042282555 0.024872756
00000000: 9848 423d 82a9 a7bc 527b c3bc cc3f 4d3d
00000010: 7419 643d 6a8e cc3c 94f6 35bd 22cc 94bc
00000020: 20e6 8bbd aaf7 49bb 3955 323d 1ae0 343c
00000030: d997 5eba b3ab 653c 7779 dc3b d41d 0abd
00000040: 64b2 d9bd 4a00 afbd 9211 413b 0211 83bd
00000050: 24fc c1bd e6b1 87bd eaea 88bd 9e43 d63d
00000060: 0bd8 303d c040 16bd 8fe2 b0bd c1ec 18bd
00000070: 303e 493d ec58 b43d 4912 97bb 65fc 25bd
00000080: 9588 ea3c 95bf cf3d 7a0d aa3d 28c0 b83c
00000090: 2dda bebb f149 7cbd 5891 0a3d 72ef 2e3d
000000a0: ccf0 08bc e386 433d 02a3 72bd b009 a2bd
000000b0: b923 723c 3bf1 443d 2429 98bd 6a1b 0dbd
000000c0: bcd1 183d dc9f 883c 462c 14bb 8423 9abd
000000d0: 68c5 a2bd 203d bfbd 5814 f83c 0de7 b6bd
000000e0: df6a 963d bd1e c73d e877 a2bd dd7c 76bd
000000f0: e747 babc e4bc 183d 6573 c43d ad87 8f3b
00000100: 6a0f adbd 7b20 2abd b355 90bd cc16 b13c
00000110: f988 ce3c cbbf 863c e0e5 7bbc b5ba 80bd
00000120: e167 82bc cea7 c63c 116c 653b 6352 87bd
00000130: a5f2 b4bd 343c 99bd 6502 35bd 8f36 d0bc
00000140: ea9b 64bd a7d0 403d 1815 93bd 30af a8bc
00000150: cb37 0e3d 7b54 c4bc 2816 86bb 5ba5 9e3d
00000160: fd5f bd3d 4b27 d23c fcac 42bc 4936 0dbd
00000170: 788b 593d a3df 82bd 7471 883d b2a1 36bd
00000180: dbae 70bd 0830 933b 2b1d 2c3d ea35 9bbb
00000190: 9cc1 6c3d bd5c 3e3c 8819 db3b d11e 7bbd
000001a0: 95e4 5abd 449e 2d3d 5dae d0bb a38e 8bba
000001b0: c26b f1bb fe94 66bd 196b 67bb f3f6 953c
000001c0: 167d 363d 2a92 d3ba 5b97 60bd 39b5 f1bc
000001d0: e1c1 c63c e40f cbbd b244 f3bb 719f 353d
000001e0: 908e 5a3d ed5e 62bc 4cf2 afbd 5653 7f3d
000001f0: 44f9 ae3d 720f 36bd ec5e 8a3d 5468 5dbd
00000200: d50f b43d f718 ddbd f79b afbc d869 fa3c
00000210: 5407 45bd 7a40 663d 2d0b 143d 9f6c b73c
00000220: 51a7 493d 7dc5 b3bc dc85 663c 7816 acbd
00000230: fd33 21bd c6d4 51bd c501 b93c bb4f c93a
00000240: c349 88bd ab92 9ebd 1633 1b3d a81e 1137
00000250: 0ed0 2ebd 10cd 663c ff0f 273c f274 683d
00000260: 6ebf 583d 5674 7ebc 011c 1abd 3f98 e1bb
00000270: 9b11 d4bd 7570 afbc 15df 363d ca2b 1f3d
00000280: fa05 2f3d 6796 ee3c 4b4f 82bc 33f7 ebbc
00000290: d97a bebc 0d6e bc3c 8367 1b3d 17da 01bc
000002a0: 31f4 febc ad73 323d 65cb 813d 409d 91bd
000002b0: f6fd 683d eb59 20bd 53ed 533d 331a 47bc
000002c0: 489c 25bd 4fc7 d1bc 541b 6fbd c672 713d
000002d0: 2888 1d3c 56ca 32bd 4066 babd eae7 5ebd
000002e0: 2fff e43c c044 ab3b 8797 8b3d b7c2 603d
000002f0: 3713 f83c e29b 1bbc fce6 eb3c ffe3 a8bd
00000300: 14ed 5dbd 80d1 973b 4ad6 b63a d4a7 3c3d
00000310: 27f9 5abd c260 bdbd 947d 953d 8388 813d
00000320: f8af 853c 9fa2 5c3d f3d8 1d3d 6626 76bc
00000330: 3986 dabd e3f0 753d e6b8 30bd a0c1 913c
00000340: 64b4 19bd f23c 1bbd b870 9dbc a7d5 7abc
00000350: a57e 3cbd a8ca a9bd b515 a4bc 9e65 9c3d
00000360: 6d47 97bc 593a 833d 75bf 873d 39b0 93bc
00000370: bcab 8bbb 2c2a 563d 2180 9eba 56b8 2c3d
00000380: cc22 6abd 1922 063d 5bc0 d6bd 5c25 83bc
00000390: ad9b c5bd 6590 8139 1047 54bd f048 243c
000003a0: 3b65 813d 2d17 02bc 03bf cc3c 0426 05bd
000003b0: a0b6 76bd 58be 5ebc 4c47 613d 99e1 d3bd
000003c0: 0e24 00bd 5ef9 15bd 7544 01bd a535 70bc
000003d0: 7054 cd3c f08a 8abd fb36 42bc ebd8 b8bc
000003e0: 29bb 793d 923a 3fbd 3067 d0bd 2c45 dbbd
000003f0: dd6b 583c b27f a6bd 7930 2d3d f3c1 cb3c

lstm.weight_hh_l1 f4 [512, 128]
-0.07152853 -0.012590565 -0.011992957 0.058195405 -0.10801782 -0.07029794 0.08408451 0.004104996
0.030421002 -0.06093662 0.035498407 0.029142357 0.044891614 -0.04174319 0.06525707 -0.02983638
-0.018717943 -0.085349746 0.0450116 0.0039443313 0.008573583 -0.013005457 0.0038716972 -0.020681407
0.03558375 0.054088917 -0.019305808 0.039276637 0.069934845 -0.012255312 -0.023723789 0.01900964
0.034787476 0.053603314 -0.0062706387 -0.03957362 0.018632572 0.0130829215 -0.047256384 -0.008325877
-0.052758396 0.049204264 -0.04507181 0.024271965 0.08598909 -0.047979046 0.0939817 -0.08824908
-0.048956923 -0.08915594 -0.049151666 -0.101125084 0.061812244 0.012597764 0.011583842 0.00088992127
0.05864068 0.0625579 -0.0978273 0.026929019 -0.075705945 -0.02613741 -0.10704735 0.046265703
-0.014675972 -0.06253046 0.09477161 -0.07897265 -0.0021345287 0.00054112554 0.025092587 -0.0672338
0.090331286 -0.05132672 0.026762635 0.009029904 0.0377228 0.06735141 0.029058024 0.08470438
-0.04423841 0.071275674 0.08831002 0.067188375 -0.023512384 0.0057194815 0.05604398 -0.06410591
0.037032127 0.002102052 -0.07198618 -0.081277624 0.068703674 0.08973789 -0.007842911 -0.09267906
-0.04072685 -0.015732668 -0.04242133 0.012238136 -0.055539474 0.04939562 -0.021140292 0.07001492
0.055831686 0.05272943 -0.009773877 -0.0025206003 -0.038517326 -0.016366957 0.024499593 -0.04451682
-0.012910031 -0.02514495 0.0066370205 -0.056452833 0.025606176 -0.021740364 0.056233782 0.0559841
0.039926477 -0.098654106 0.062958345 0.048451647 0.012855125 -0.00958674 -0.08952496 0.0086802
-0.03477059 -0.09856469 0.026696494 0.060353763 0.014859753 0.05325046 0.013785086 0.023589928
0.031696897 -0.034058437 0.09159549 0.10478756 -0.061065223 -0.00823128 0.049578823 0.018003978
-0.0074628815 -0.0662518 -0.0025867852 0.009876894 0.06940887 -0.052911885 -0.07016712 0.097340025
-0.017213395 0.05198332 -0.015815124 -0.055439185 0.082118966 -0.017282387 0.015638608 -0.02644829
-0.10453279 0.0035970476 0.0107780965 0.027879383 -0.020210158 0.0359468 0.021345576 0.030620318
0.028150508 0.07908939 0.04502885 -0.021299083 -0.05018298 -0.10008852 0.07820213 -0.015112049
0.03498892 0.058813594 0.009869855 0.055872742 -0.03867164 -0.015645394 -0.0021101416 0.055293415
-0.048566904 0.0015749868 0.04353167 -0.06600856 -0.030083178 0.0247623 -0.02065472 0.049828976
0.018174525 -0.023950145 0.030221105 -0.05124709 -0.07863991 0.088998675 -0.06419267 -0.020674555
-0.05107649 -0.045336246 0.0034379046 -0.04614653 0.0025427088 0.062296513 0.03851188 -0.053680547
0.08960216 0.04587509 -0.0035606006 -0.03884818 0.04569389 0.07134777 0.07578235 -0.029362164
0.035768263 0.05629579 -0.0016382067 -0.04543111 -0.022188364 0.04572587 0.052305214 -0.018689968
0.06410319 -0.068158135 -0.09556638 -0.04310036 0.010617802 0.0064760614 0.015379822 0.07809205
0.044905726 -0.009165899 -0.072145954 0.02323879 -0.055022396 -0.025811842 0.009009294 -0.00391875
-0.045939866 -0.054585453 -0.0148853725 -0.0129123395 0.0509581 -0.05514874 -0.04484132 -0.038586132
0.0592474 -0.016627692 -0.061138492 0.049424347 -0.0077215866 -0.083052285 0.043290813 0.052844964
00000000: 8d7d 92bd a848 4ebc 1c7e 44bc 4e5e 6e3d
00000010: 7238 ddbd 5ef8 8fbd 8034 ac3d 3483 863b
00000020: 7735 f93c ad98 79bd c766 113d f4bb ee3c
00000030: 45e0 373d e8fa 2abd 80a5 853d 6d6b f4bc
00000040: 5f56 99bc d9cb aebd 155e 383d 733f 813b
00000050: 3778 0c3c d714 55bc 4dbc 7d3b 0e6c a9bc
00000060: 44c0 113d 578c 5d3d 3727 9ebc 8ae0 203d
00000070: 003a 8f3d 81ca 48bc 6458 c2bc 1bba 9b3c
00000080: 507d 0e3d 268f 5b3d ee79 cdbb f317 22bd
00000090: 56a3 983c c059 563c e98f 41bd 4269 08bc
000000a0: 3019 58bd 698a 493d 389d 38bd 00d6 c63c
000000b0: 0c1b b03d ad85 44bd 7a79 c03d efbb b4bd
000000c0: 0e87 48bd 6497 b6bd 4253 49bd ab1a cfbd
000000d0: d62e 7d3d da66 4e3c 28ca 3d3c 9b49 693a
000000e0: 3631 703d 5b1e 803d ae59 c8bd 3f9a dc3c
000000f0: b80b 9bbd 1f1e d6bc a43b dbbd 1b81 3d3d
00000100: 7d73 70bc f80f 80bd 9e17 c23d 6abc a1bd
00000110: 73e3 0bbb 52da 0d3a f88e cd3c e0b1 89bd
00000120: 9cff b83d f73b 52bd 503d db3c 2af2 133c
00000130: 3983 1a3d 89ef 893d 180b ee3c 7d79 ad3d
00000140: 5633 35bd fbf8 913d e2db b43d 0f9a 893d
00000150: 0b9d c0bc 7d6a bb3b 5f8e 653d f649 83bd
00000160: 00af 173d 95c2 093b 7e6d 93bd e274 a6bd
00000170: 83b4 8c3d 80c8 b73d 8e7f 00bc 85ce bdbd
00000180: 33d1 26bd cce1 80bc fdc1 2dbd 7682 483c
00000190: 5c7d 63bd 1053 4a3d 682e adbc fb63 8f3d
000001a0: c4af 643d d1fa 573d 9d22 20bc a830 25bb
000001b0: 58c4 1dbd ff13 86bc 5fb3 c83c 4557 36bd
000001c0: 9884 53bc c8fc cdbc 5d7b d93b 163b 67bd
000001d0: 0bc4 d13c d918 b2bc 6555 663d 954f 653d
000001e0: f289 233d 2a0b cabd 4ef0 803d 3c75 463d
000001f0: 4d9e 523c b411 1dbc dd58 b7bd 6637 0e3c
00000200: 9b6b 0ebd 49dc c9bd 9bb2 da3c 8235 773d
00000210: 5276 733c 281d 5a3d d7da 613c aa3f c13c
00000220: 9bd4 013d dc80 0bbd 6b96 bb3d dc9a d63d
00000230: 871f 7abd 7edc 06bc 2a13 4b3d 147d 933c
00000240: 308b f4bb 06af 87bd 0e87 29bb b2d2 213c
00000250: 3d26 8e3d 22ba 58bd c7b3 8fbd 355a c73d
00000260: 1b03 8dbc 76ec 543d b88e 81bc 3314 63bd
00000270: fd2d a83d cb93 8dbc 8a1c 803c 16aa d8bc
00000280: 4a15 d6bd 72bc 6b3b 9d96 303c 4e63 e43c
00000290: c68f a5bc f43c 133d ebdc ae3c 76d7 fa3c
000002a0: e59b e63c 9ef9 a13d 2c70 383d 6a7b aebc
000002b0: ab8c 4dbd 36fb ccbd 7028 a03d 8798 77bc
000002c0: 8b50 0f3d 86e6 703d 2cb5 213c d1da 643d
000002d0: 2766 1ebd c52a 80bc 4d4a 0abb 597b 623d
000002e0: 17ee 46bd ca6f ce3a 444e 323d 7f2f 87bd
000002f0: ff70 f6bc 4fda ca3c 1634 a9bc 7819 4c3d
00000300: bee2 943c 1833 c4bc 4092 f73c 78e8 51bd
00000310: f60d a1bd f044 b63d 7277 83bd af5d a9bc
00000320: 9535 51bd 80b2 39bd 784e 613b 2504 3dbd
00000330: 93a3 263b a12a 7f3d a2be 1d3d 22e0 5bbd
00000340: 5681 b73d 85e7 3b3d f758 69bb 451f 1fbd
00000350: 8429 3b3d c81e 923d c733 9b3d ec88 f0bc
00000360: be81 123d 6a96 663d 18b9 d6ba f915 3abd
00000370: 5fc4 b5bc 0d4b 3b3d fe3d 563d b41b 99bc
00000380: 8948 833d 7e96 8bbd 4eb8 c3bd 018a 30bd
00000390: 4af6 2d3c 2435 d43b a6fb 7b3c baee 9f3d
000003a0: 11ef 373d 912c 16bc 42c1 93bd 465f be3c
000003b0: 2a5f 61bd 5b73 d3bc b89b 133c dc68 80bb
000003c0: 712b 3cbd ff94 5fbd c7e1 73bc 478e 53bc
000003d0: 71b9 503d a5e3 61bd 88ab 37bd 7e0c 1ebd
000003e0: 67ad 723d cc36 88bc 5b6c 7abd 2f71 4a3d
000003f0: 5d05 fdbb 5117 aabd b551 313d f673 583d

lstm.bias_ih_l1 f4 [512]
0.03779181 0.011554882 -0.062021226 -0.067525744 -0.022517504 0.09598782 0.08678456 -0.053389195
0.03614104 0.013540308 0.09271138 -0.019531162 -0.00012238717 -0.023175554 0.019667294 0.035456378
-0.035612572 0.006859717 -0.0034945386 0.026517192 0.0012604449 0.080756634 0.03984052 0.101579085
0.07738904 0.093150556 0.077556975 0.037778758 0.026226854 0.035471827 0.020174406 -0.031862933
0.10175049 0.10325351 -0.06079322 0.047305092 0.042710472 -0.01687984 0.048421398 -0.032427408
0.07538103 0.08759025 -0.054606944 0.0057573263 0.04491073 -0.0039076144 -0.06548576 0.06346272
0.0043155868 -0.052182283 -0.06512278 -0.008477037 -0.023022382 -0.054678656 -0.022334756 0.06688705
0.04015734 0.103187375 0.088921405 0.09440352 0.08347905 -0.021531211 -0.042092502 -0.007278716
-0.06548228 -0.0066484655 -0.036137816 0.05365045 0.009034437 0.00825936 0.043152962 0.10322681
0.03882301 -0.07378095 0.04257105 0.027907347 0.05610814 -0.022405684 -0.01255401 -0.035833824
-0.05875737 0.033713207 -0.0026325465 0.09659494 -0.059786253 -0.032232776 0.009840232 -0.03641509
0.004761573 0.01885945 -0.064368434 0.09437303 -0.017893672 0.055330448 0.059880584 0.07786865
-0.0078050084 0.105066694 0.082537346 -0.002347685 0.09634396 0.050930027 0.00978166 -0.00045939343
-0.001810522 -0.067582935 0.04270984 0.04447197 -0.022270896 0.07553808 0.038999997 0.004080539
-0.01446998 0.04227896 0.012910109 0.09286631 0.08023911 0.076105855 0.08347043 0.019355599
0.089309685 0.046550512 0.018354416 -0.009334659 0.025217358 0.075873 0.022549056 0.0067109917
0.021943286 0.03525561 0.010331032 0.0819499 0.07272963 -0.03814514 0.012964548 0.08202742
0.10111773 -0.01899353 0.010519591 -0.030507868 0.10381186 0.016769871 0.03442645 0.07049073
0.00863277 -0.0049527227 0.0066017364 0.08985649 0.048443764 0.055004667 0.032779254 0.053456504
0.07574074 0.02277192 0.027789539 0.08926772 0.07343165 0.08142187 0.09582192 -0.016895354
0.044422332 -0.02679578 0.070278466 0.016407788 0.015254898 0.10050228 0.08957069 0.10522589
-0.065660864 0.09507839 0.02109037 0.006095992 -0.013625047 -0.04650154 -0.05995769 -0.014792146
-0.01056798 0.050010517 -0.04720468 0.04732385 -0.034987044 0.08736384 0.0069651078 -0.049560573
0.03214643 -0.025562963 -0.06272043 0.076031014 0.007118045 0.047085777 -0.05448578 -0.011764352
-0.04477222 -0.022746911 -0.031345896 0.037171528 0.007919261 0.04014631 -0.038246192 0.111788474
0.009767106 0.09215719 -0.039728586 0.07646418 0.060757853 -0.032407578 -0.046814837 0.05300517
0.03512589 0.03681359 -0.062293567 0.0912729 0.046861682 0.037910365 0.074281774 0.07429674
-0.054766428 0.016754197 -0.06803855 0.08932383 0.026123399 0.09321699 -0.05222548 -0.033401806
0.08836941 -0.04341053 0.007082528 -0.009905246 0.030267013 0.046397302 -0.05075145 -0.026414713
0.031866495 0.08946405 -0.021168893 0.016226634 -0.06511292 0.09557139 0.06537467 -0.02041145
-0.058694795 0.099338725 0.07097511 0.057102006 0.035995185 0.015382372 -0.030313762 0.015858974
-0.04241372 -0.032098588 -0.0510857 0.066273026 -0.039776593 0.018211914 -0.0035723154 0.099433154
00000000: 96cb 1a3d b050 3d3c f809 7ebd f04a 8abd
00000010: a176 b8bc 4395 c43d 1abc b13d a1ae 5abd
00000020: a108 143d 2bd8 5d3c 77df bd3d d1ff 9fbc
00000030: 0e55 00b9 a9da bdbc 4e1d a13c b53a 113d
00000040: 7dde 11bd 7ac7 e03b a104 65bb 953a d93c
00000050: 8335 a53a bc63 a53d d02f 233d b208 d03d
00000060: 257e 9e3d b8c5 be3d 31d6 9e3d e6bd 1a3d
00000070: b3d9 d63c e84a 113d cc44 a53c b582 02bd
00000080: 9062 d03d 9476 d33d 5002 79bd fcc2 413d
00000090: 2df1 2e3d 9747 8abc 8455 463d 9ad2 04bd
000000a0: 5f61 9a3d 8462 b33d 88ab 5fbd f4a7 bc3b
000000b0: 50f4 373d 720b 80bb 661d 86bd bef8 813d
000000c0: c469 8d3b 17bd 55bd 185f 85bd 45e3 0abc
000000d0: 6f99 bcbc baf6 5fbd 61f7 b6bc 14fc 883d
000000e0: 067c 243d e753 d33d 6d1c b63d a256 c13d
000000f0: 10f7 aa3d 3962 b0bc 3069 2cbd 4c82 eebb
00000100: 931b 86bd 5fdb d9bb 3f05 14bd 93c0 5b3d
00000110: 2d05 143c 4452 073c 29c1 303d 9468 d33d
00000120: e004 1f3d 771a 97bd fb5e 2e3d f39d e43c
00000130: a6d1 653d 208c b7bc 56af 4dbc 7dc6 12bd
00000140: 91ab 70bd dc16 0a3d cd86 2cbb 91d3 c53d
00000150: 6ee2 74bd 8406 04bd ed38 213c fd27 15bd
00000160: f806 9c3b 227f 9a3c 99d3 83bd a646 c13d
00000170: c095 92bc 2ea2 623d 5845 753d 9979 9f3d
00000180: 28c1 ffbb 352d d73d 5709 a93d 9edb 19bb
00000190: fb4f c53d 019c 503d 4143 203c beda f0b9
000001a0: 0a4f edba ec68 8abd 83f0 2e3d 3e28 363d
000001b0: 7471 b6bc b5b3 9a3d 76be 1f3d 0bb6 853b
000001c0: 7f13 6dbc b42c 2d3d ec84 533c b130 be3d
000001d0: 6754 a43d 63dd 9b3d 8bf2 aa3d a28f 9e3c
000001e0: ffe7 b63d c0ab 3e3d 005c 963c 66f0 18bc
000001f0: a294 ce3c 4e63 9b3d ccb8 b83c e1e7 db3b
00000200: 68c2 b33c 3068 103d 7d43 293c 59d5 a73d
00000210: 46f3 943d 143e 1cbd 4169 543c fefd a73d
00000220: d016 cf3d 5298 9bbc 5d5a 2c3c a3eb f9bc
00000230: 509b d43d f860 893c c002 0d3d 725d 903d
00000240: 7670 0d3c 734a a2bb 6153 d83b ae06 b83d
00000250: f86c 463d 934c 613d 8a43 063d 35f5 5a3d
00000260: f61d 9b3d 2d8c ba3c e3a6 e33c ffd1 b63d
00000270: 5563 963d 82c0 a63d 483e c43d 2068 8abc
00000280: 31f4 353d d382 dbbc 28ee 8f3d a069 863c
00000290: aeef 793c 24d4 cd3d d770 b73d ac80 d73d
000002a0: 3479 86bd 75b8 c23d b6c5 ac3c e3c0 c73b
000002b0: 973b 5fbc 6678 3ebd 3296 75bd c25a 72bc
000002c0: 5225 2dbc d4d7 4c3d b259 41bd a7d6 413d
000002d0: 934e 0fbd d0eb b23d 8f3b e43b 0700 4bbd
000002e0: faab 033d 6b69 d1bc 9273 80bd 26b6 9b3d
000002f0: 7d3e e93b 04dd 403d 7b2c 5fbd 45bf 40bc
00000300: 1363 37bd bb57 babc 8e64 00bd 2c41 183d
00000310: cabf 013c 7570 243d 0aa8 1cbd 5bf1 e43d
00000320: 3606 203c e9bc bc3d 71ba 22bd 4199 9c3d
00000330: 3add 783d cfbd 04bd eac0 3fbd f31b 593d
00000340: 2ae0 0f3d d9c9 163d 8a27 7fbd 49ed ba3d
00000350: 09f2 3f3d e647 1b3d 0b21 983d e428 983d
00000360: c352 60bd 1940 893c cc57 8bbd 6aef b63d
00000370: bd00 d63c 8de8 be3d 63ea 55bd 55d0 08bd
00000380: 05fb b43d 3dcf 31bd 8d14 e83b 9d49 22bc
00000390: 87f2 f73c 190b 3e3d c1e0 4fbd ab63 d8bc
000003a0: 7186 023d ee38 b73d 636a adbc b8ed 843c
000003b0: ec59 85bd efba c33d 28e3 853d ea35 a7bc
000003c0: f469 70bd 1a72 cb3d 665b 913d cbe3 693d
000003d0: b06f 133d 5806 7c3c 9154 f8bc aeea 813c
000003e0: 02ba 2dbd cf79 03bd 3d3f 51bd 27ba 873d
000003f0: c8ec 22bd 2731 953c 821d 6abb 9ca3 cb3d
