backend/anomaly_models/WH004_SKU-018.pth (torch, 242563 bytes, 20 tensors)

encoder_lstm1.weight_ih_l0 f4 [256, 6]
0	0x3da2dc40	0.079521656
1	0xbde8142f	-0.11331975
2	0x3d814319	0.06311626
3	0xbdf42424	-0.11920956
4	0xbe0d9c01	-0.13829042
5	0x3e0fab80	0.14030266
6	0xbdcf461f	-0.101207964
7	0xbd8803d0	-0.06641352
8	0x3d04ebc2	0.0324514
9	0xbd2e99e2	-0.042627223
10	0xbc6ed442	-0.014576973
11	0xbdddef9d	-0.10836718
12	0x3de63a87	0.11241632
13	0x3dd71196	0.10501401
14	0x3d649ccc	0.055813596
15	0x3cdacb77	0.026708348
16	0xbd1dd4cf	-0.03853303
17	0x3dfabc9c	0.12243006
18	0xbd22c9cc	-0.03974323
19	0xbdfc80ac	-0.1232923
20	0xbc373896	-0.011182925
21	0xbd6c1d20	-0.057644963
22	0xbda8bdc8	-0.08239323
23	0xbd01352b	-0.031544846
24	0xbd32d8b9	-0.043663714
25	0xbd97c78e	-0.07411109
26	0x3e26c90b	0.1628763
27	0xbd366b19	-0.04453573
28	0x3dcf181c	0.101120204
29	0xbc903690	-0.017604142
30	0xbd9f25e4	-0.07770899
31	0xbdaa95ba	-0.08329339
32	0xbe21b47d	-0.15791507
33	0xbdb709d3	-0.08937421
34	0x3dcd77bc	0.10032603
35	0xbc2cd4df	-0.010548799
36	0x3cf97587	0.03045155
37	0x3d818b68	0.06325418
38	0xbc483087	-0.012218601
39	0x3cf0a896	0.029377263
40	0xbd5111bb	-0.0510423
41	0x3c9b14f3	0.018930888
42	0xbca764a3	-0.02043373
43	0x3d3c72f1	0.046008054
44	0x3e37ed91	0.17961718
45	0xbce1dc21	-0.027570786
46	0x3d30ed07	0.043194797
47	0x3d1dad92	0.038495608
48	0x3de820c9	0.11334378
49	0x3dd68316	0.104742214
50	0x3dd26b9a	0.102744296
51	0x3e1183ee	0.14210483
52	0xbc4e7448	-0.012600966
53	0x3dd905dd	0.105968215
54	0xbd8bfafe	-0.06834982
55	0x3c662d83	0.014048937
56	0xbca2188e	-0.0197871
57	0x3dbc5377	0.09195607
58	0xbd9fbf21	-0.07800127
59	0x3bdc3c57	0.0067210603
60	0x3b162e59	0.002291581
61	0x3da6055c	0.08106491
62	0x3d964f0e	0.07339297
63	0x3d7ef708	0.062247306
64	0x3e28d8bb	0.16488926
65	0x3dffce44	0.12490514
66	0xbddd7aac	-0.108144134
67	0x3dbf24ef	0.093332164
68	0x3d9544d4	0.072885185
69	0x3d34b47b	0.044117432
70	0x3da49656	0.08036487
71	0x3db1d0f1	0.086824305
72	0x3c047051	0.008083419
73	0x3de96bdb	0.11397525
74	0x3d37e124	0.044892445
75	0xbd7d3404	-0.061817184
76	0x3db18f60	0.08669925
77	0x3df29396	0.11844556
78	0xbd8e6353	-0.06952538
79	0xbdbfcf55	-0.09365717
80	0x3e0cab79	0.13737287
81	0x3de9de5b	0.11419364
82	0xbd89d9bd	-0.067309834
83	0xbdb61849	-0.08891351
84	0x3d9de050	0.077088
85	0x3caefc32	0.02136049
86	0xbd444e2f	-0.047926124
87	0x3e1a33ab	0.15058772
88	0x3dd5bfdd	0.10436986
89	0x3e061236	0.13092884
90	0x3d80f3db	0.06296512
91	0xbc5e3e3a	-0.013564641
92	0x3bf57f04	0.007491948
93	0x3d79b1da	0.060960628
94	0x3d3c0a99	0.045908544
95	0x3e2112f6	0.1572989
96	0xbd97e103	-0.074159645
97	0x3dda9906	0.10673718
98	0x3e2ac6bd	0.16677375
99	0x3c94b6a6	0.0181535
100	0x3e04c79e	0.12966773
101	0xbc9cf70f	-0.019160775
102	0x3b96d447	0.004602942
103	0xbcfc6230	-0.030808538
104	0x3d717b9b	0.05895577
105	0xbd2c942c	-0.042133495
106	0x3d637f58	0.055541366
107	0x3d92553c	0.071451634
108	0xbb0e1d9c	-0.002168513
109	0xbc538747	-0.012910671
110	0x3d06fd67	0.032956507
111	0x3dfd77be	0.12376355
112	0x3e05c19d	0.13062139
113	0x3e266169	0.16248097
114	0xbd70bece	-0.058775716
115	0x3d151f0b	0.036406558
116	0xbd53b828	-0.051689297
117	0x3cd0b22e	0.025475588
118	0xbca88edb	-0.020575931
119	0x3dd51d50	0.104059815
120	0x3d96bc89	0.07360179
121	0xbd7d4e2a	-0.06184212
122	0x3da9a016	0.08282487
123	0x3d91e1ad	0.07123122
124	0x3cf4577f	0.029826878
125	0x3c975a0c	0.018475555
126	0xbc2fe978	-0.010736816
127	0x3dfa7bda	0.12230654
128	0xbddafa26	-0.10692243
129	0x3d3fc7eb	0.046821516
130	0x3c7b2a0a	0.015329847
131	0x3d363350	0.04448253
132	0x3daeb3d6	0.08530395
133	0xbdc01ab3	-0.093800925
134	0x3c90a5fb	0.01765727
135	0xbc8222a5	-0.01588566
136	0x3e0bcb3e	0.1365175
137	0xbde68a9e	-0.11256908
138	0xbdcb2836	-0.09919779
139	0x3d342f12	0.043990202
140	0xbd52378c	-0.051322505
141	0xbda3fbc9	-0.080070086
142	0xbc8d41ff	-0.017243383
143	0x3c07f166	0.0082973
144	0x3db6079f	0.08888172
145	0x3dc0ef09	0.09420592
146	0xbb2b88b9	-0.0026174022
147	0x3dc5dd45	0.096613444
148	0x3db43478	0.0879907
149	0xbdbafb68	-0.09129983
150	0x3d855538	0.06510395
151	0x3dab1bb3	0.083548926
152	0x3c40500a	0.011737833
153	0xbc8289d6	-0.015934866
154	0xbc8d4aa5	-0.017247507
155	0x3cf389c2	0.029728774
156	0x3dba1e5a	0.0908782
157	0xbbe7ec0c	-0.0070776995
158	0xbd9967da	-0.07490511
159	0xbe04c3a5	-0.12965257
160	0xbb936f26	-0.004499334
161	0x3da1d19f	0.0790131
162	0xbd5d45df	-0.054021712
163	0x3e11f26e	0.14252636
164	0x3d2ef493	0.042713713
165	0x3cd6374c	0.026149414
166	0x3d759931	0.059960548
167	0x3e11d0ca	0.14239803
168	0xbde05d1f	-0.109552614
169	0x3d165807	0.036705043
170	0xbb3c244e	-0.0028708163
171	0x3c869e2b	0.016432842
172	0x3ccfab72	0.025350306
173	0xbd31dae9	-0.04342166
174	0xbb774ef0	-0.003773626
175	0xbd5a0aa0	-0.05323279
176	0xbcd1a130	-0.025589556
177	0x3d764783	0.060126793
178	0x3df09434	0.117470175
179	0x3c7a9b85	0.015295868
180	0x3cd46c76	0.025930624
181	0x3dd38c9b	0.10329553
182	0x3e2fe5c5	0.17177494
183	0x3db4ef1c	0.08834669
184	0x3ca2a854	0.019855656
185	0x3dbd2dd5	0.092372574
186	0xbd99f28f	-0.075169675
187	0x3d101583	0.035176765
188	0xbddc7826	-0.10765104
189	0xbdfecc75	-0.12441341
190	0x3c88cd96	0.016699594
191	0x3c1694b9	0.009190732
192	0xbbdc2f1b	-0.0067194826
193	0xbdc9cac7	-0.0985313
194	0x3e0f67b0	0.14004397
195	0x3d0fc3a8	0.0350987
196	0x3def0a07	0.116718344
197	0x3d0bcf54	0.03413327
198	0x3de9c970	0.11415374
199	0x3d96b6f0	0.07359111
200	0x3d45cb13	0.04828937
201	0x3d513033	0.051071357
202	0x3db75822	0.08952357
203	0xbcecc2ee	-0.028901543
204	0xbd95cc9b	-0.07314416
205	0x3d6b3b8b	0.05742983
206	0xbd4459fe	-0.047937386
207	0x3e08c5af	0.1335666
208	0xbd3185d1	-0.043340508
209	0x3b9d2c1a	0.004796517
210	0x3da11893	0.07866015
211	0xbdc69df6	-0.096980974
212	0x3d13c277	0.036074128
213	0xbd534f03	-0.051589023
214	0x3d69dbf2	0.05709452
215	0xbd92842d	-0.07154117
216	0x3d1d6053	0.03842194
217	0x3dcdb41c	0.10044119
218	0xbc17786f	-0.009245022
219	0xbce1b447	-0.027551783
220	0x3d522408	0.051303893
221	0xbd6cf83e	-0.05785393
222	0xbdcd6680	-0.10029316
223	0x3dfb5e45	0.1227384
224	0x3b9cd0f7	0.0047856527
225	0x3dc84901	0.097795494
226	0x3dce8e4e	0.10085736
227	0xbb990b53	-0.0046705394
228	0x3c9bd1ed	0.019020999
229	0x3d0a8476	0.03381773
230	0xbdbbb20a	-0.09164818
231	0x3da94d8f	0.08266746
232	0xbda11043	-0.0786443
233	0x3c89ee14	0.016837157
234	0xbdfe732a	-0.124243096
235	0xbdd7c9d6	-0.10536544
236	0x3d95366b	0.0728577
237	0xbd36e9cc	-0.04465656
238	0x3cc3da51	0.023907812
239	0x3d79e90b	0.061013263
240	0x3d8e271a	0.06941052
241	0x3c156453	0.009118157
242	0x3dbb0fa5	0.09133843
243	0xbcd03513	-0.025415933
244	0xbc9a4b2a	-0.01883467
245	0x3cdcbceb	0.026945552
246	0x3d87991e	0.06621002
247	0xbdd17579	-0.10227484
248	0x3daba3df	0.08380865
249	0xbb1fe87c	-0.0024400046
250	0x3d8b835a	0.06812163
251	0x3cabe895	0.020984927
252	0x3db0846e	0.08619009
253	0xbd900c06	-0.07033543
254	0x3cae0798	0.021243855
255	0x3d4d030c	0.050051734

encoder_lstm1.weight_hh_l0 f4 [256, 64]
0	0x3dba956c	0.09110531
1	0xbd81261d	-0.06306098
2	0x3df70690	0.120617986
3	0xbd908cec	-0.07058129
4	0xbdbcfadd	-0.09227536
5	0xbb871686	-0.004122558
6	0xbdc89e17	-0.09795778
7	0x3d0eecfd	0.03489398
8	0x3dc8dc66	0.09807663
9	0xbd955062	-0.072907224
10	0xbd171a6a	-0.036890425
11	0xbbd32a0d	-0.006444222
12	0x3d20eab2	0.039286323
13	0x3d321fc2	0.043487318
14	0x3dca1c35	0.09868661
15	0x3c1fc69b	0.009751941
16	0x3d2b72a4	0.041857377
17	0x3ca3c472	0.019991133
18	0xbcba167b	-0.022715798
19	0xbdca3652	-0.09873642
20	0xbdbd7230	-0.09250295
21	0xbd8da4b3	-0.069161795
22	0x3dda9646	0.10673194
23	0xbc9d699e	-0.019215401
24	0x3d94a445	0.072578944
25	0xbd402024	-0.04690565
26	0x3d62c8ba	0.05536721
27	0xbd709f77	-0.058745828
28	0x3da633e8	0.08115369
29	0x3c961d9c	0.018324666
30	0x3d525b83	0.051356804
31	0xbca340cd	-0.01992836
32	0x3d73f603	0.059560787
33	0x3debd791	0.115157254
34	0xbcfe794a	-0.031063695
35	0xbddf153d	-0.10892723
36	0xbd3f566b	-0.046713274
37	0x3da3875b	0.079848014
38	0xbd9b93be	-0.07596539
39	0x3bf42f53	0.0074519305
40	0xbc8b2f2a	-0.016990263
41	0x3da63dc5	0.0811725
42	0xbc8e639a	-0.017381478
43	0x3d14659c	0.036229715
44	0xbdbb4a00	-0.09144974
45	0x3d78fead	0.060789753
46	0x3dd50702	0.10401727
47	0xbd78a0bd	-0.060700167
48	0x3d62c502	0.055363663
49	0x3dceb0d4	0.10092321
50	0xbcd5afcd	-0.026084805
51	0xbe0207b3	-0.1269825
52	0xbd9dddc6	-0.077083156
53	0xbde101b0	-0.1098665
54	0xbc0e4164	-0.0086825825
55	0x3d2759a8	0.040856987
56	0x3defb5be	0.117045864
57	0xbdf4e70f	-0.119581334
58	0x3d50f851	0.051018063
59	0xbd3f5d59	-0.046719883
60	0xbd257259	-0.040392254
61	0xbc386368	-0.011254169
62	0xbdf11b28	-0.11772758
63	0xbaf83c01	-0.0018938781
64	0x3ced3ee7	0.028960658
65	0xbd0257ce	-0.03182202
66	0xbd449167	-0.04799023
67	0x3da76474	0.08173457
68	0x3d7c0a89	0.061533485
69	0x3caeb10e	0.02132466
70	0xbd6267b0	-0.055274665
71	0x3c0800a5	0.008300935
72	0x3db8f246	0.09030585
73	0x3d2ee174	0.042695478
74	0xbc89928f	-0.016793517
75	0x3ce5c88d	0.028049732
76	0xbdaedf1d	-0.08538649
77	0x3e14687e	0.14492986
78	0xbe0cea9f	-0.13761376
79	0xbda6bd5c	-0.08141586
80	0x3e18d21d	0.14923902
81	0x3d84b4c9	0.064797945
82	0xbdff7f0a	-0.12475403
83	0x3c98a10c	0.01863148
84	0xbdf8f4e3	-0.121560834
85	0x3dfd7960	0.12376666
86	0x3d33d265	0.04390182
87	0x3cb81d5a	0.022474933
88	0x3c3a4c40	0.0113707185
89	0x3c0ef447	0.008725232
90	0xbd3719a3	-0.044702183
91	0xbdcca095	-0.09991566
92	0x3c9f30fa	0.019432534
93	0xbdc8f1c7	-0.0981174
94	0xb959e4fd	-0.00020780037
95	0xbcb0f2a8	-0.021600083
96	0x3da4063d	0.08009002
97	0x3d962662	0.0733154
98	0x3db48d2f	0.08815991
99	0x3d613e42	0.054991014
100	0xbce6b595	-0.028162757
101	0xbde45b10	-0.11150181
102	0x3d96282f	0.07331883
103	0x3daa75f6	0.083232805
104	0x3d026919	0.03183851
105	0x3c9e8eb4	0.019355156
106	0xbdf8a43a	-0.12140699
107	0x3cef6c3d	0.029226417
108	0xbdae5384	-0.08512023
109	0xbe07b5c0	-0.13252926
110	0xbdb11089	-0.08645732
111	0x3d8c480d	0.0684968
112	0x3cc395fe	0.023875233
113	0x3defabb8	0.117026746
114	0x3c9b875f	0.018985448
115	0x3bb35cd0	0.0054737106
116	0xbd1f6550	-0.03891498
117	0xbcb8b0bb	-0.02254521
118	0xbd330f33	-0.043715667
119	0x3dc07d83	0.093989395
120	0xbdf29cc2	-0.118463054
121	0x3c4a3733	0.012342262
122	0x3d554e53	0.05207665
123	0xbd60f1be	-0.054918043
124	0x3ddd269e	0.10798381
125	0x3d101352	0.035174675
126	0xbdca2bf2	-0.09871663
127	0x3d9faad1	0.077962525
128	0x3dea61bf	0.11444425
129	0x3dbd73a3	0.092505716
130	0x3d7b0849	0.0612872
131	0xbd059d2e	-0.0326206
132	0x3d270640	0.040777445
133	0x3b9aa65e	0.0047195395
134	0xbd23dce3	-0.040005576
135	0xbde1959c	-0.11014864
136	0xbd71b912	-0.059014387
137	0x3e0b8b15	0.13627274
138	0xbb9a0845	-0.004700693
139	0xbd4e11b2	-0.050309844
140	0x3d4b69fa	0.049661614
141	0xbe021275	-0.12702353
142	0x3d5ac7e0	0.053413272
143	0xbaeee5ca	-0.0018226441
144	0x3d07b384	0.033130184
145	0x3d3917c0	0.045188665
146	0x3dc46d89	0.09591205
147	0xbdc78b8f	-0.097434156
148	0xbd7b1bba	-0.06130574
149	0xbe0a4e03	-0.13506322
150	0xbe1cf4f5	-0.15327819
151	0xbcd5c7cc	-0.026096247
152	0xbdc4f7ac	-0.09617552
153	0x3da6447d	0.08118532
154	0x3db49322	0.08817126
155	0x3c3d4dfe	0.011554239
156	0xbe006708	-0.12539303
157	0xbddd2717	-0.107984714
158	0x3d8b8637	0.06812709
159	0x3cf38c32	0.029729936
160	0x3bc6ee7d	0.0060709105
161	0x3d1a44ff	0.037663456
162	0xbcfc02d6	-0.030763071
163	0x3e0445f1	0.12917306
164	0xbbe343a7	-0.006935555
165	0x3cbe1300	0.02320242
166	0x3d4a764d	0.049429227
167	0xbdd65960	-0.10466266
168	0xbd46aa63	-0.048502337
169	0xbd676593	-0.056493353
170	0xbdaf4877	-0.085587434
171	0x3d5f6359	0.054538105
172	0x3d96c9b9	0.07362694
173	0x3dae7d0f	0.08519947
174	0xbd175692	-0.036947794
175	0xbe0594b8	-0.13045013
176	0xbdf4a392	-0.11945261
177	0xbdf8c9df	-0.12147879
178	0x3d83d823	0.06437709
179	0xbd786eee	-0.060652666
180	0x3e031ba7	0.12803517
181	0xbdd8703c	-0.10568282
182	0xbb9e4d40	-0.0048309863
183	0xbdd26d61	-0.102747686
184	0x3cb37507	0.021906389
185	0x3da5b52e	0.08091198
186	0xbd0a04d6	-0.03369602
187	0xbd26f799	-0.04076347
188	0xbe1c2167	-0.15247117
189	0xbd87e656	-0.0663573
190	0xbd15a704	-0.03653623
191	0x3dd8d802	0.10588075
192	0xbe1d166c	-0.15340585
193	0x3d5d1874	0.0539784
194	0x3d46a7b5	0.04849978
195	0xbe16fd3a	-0.14745036
196	0x3e018336	0.12647709
197	0xbce109a3	-0.027470415
198	0x3b8b6ab5	0.004254664
199	0xbd913c1a	-0.070915416
200	0xbd9f745c	-0.07785866
201	0xbbebb721	-0.0071934615
202	0xbd9c547f	-0.07633304
203	0xbd1039c7	-0.03521135
204	0xbd0f12db	-0.03493009
205	0xbc2959d9	-0.010336363
206	0x3cf83d14	0.030302562
207	0xbcf8c9f9	-0.030369746
208	0xbdd94c2f	-0.10610234
209	0x3c79d731	0.01524906
210	0x3d3c98a1	0.046043996
211	0xbd58d3b7	-0.052936282
212	0x3d5c6ebb	0.05381654
213	0xbdce0f24	-0.100614816
214	0xbca3b27f	-0.019982575
215	0x3e054c15	0.13017304
216	0x3c0e31fc	0.008678909
217	0xbd9475ff	-0.072490685
218	0xba114aea	-0.0005542474
219	0xbe031fe9	-0.12805142
220	0x3c801560	0.015635192
221	0xbd995648	-0.0748716
222	0xbdffc3f3	-0.12488546
223	0x3df7bf5e	0.12097047
224	0xbcf4f2b1	-0.02990088
225	0xbc8b3367	-0.016992284
226	0xbda09412	-0.07840742
227	0x3b737078	0.0037145894
228	0x3da30ff8	0.0796203
229	0x3cdafd20	0.026732028
230	0x3d803a98	0.06261176
231	0x3cc77646	0.02434839
232	0xbd94a791	-0.07258523
233	0xbd561923	-0.052270066
234	0xbd3b66ed	-0.045752455
235	0xbcd94513	-0.026522195
236	0x3d6a6cef	0.057232793
237	0x3d1bcb26	0.038035534
238	0xbd10f133	-0.035386276
239	0x3b91de1e	0.0044515273
240	0x3dfaf6af	0.122540824
241	0x3d0c6ac4	0.034281507
242	0xbdda600b	-0.1066285
243	0xbca66187	-0.020310177
244	0x3c0782df	0.008270948
245	0xbda6728b	-0.08127316
246	0x3d25ca03	0.040475857
247	0xbde8585d	-0.11344979
248	0x3ddfec9c	0.109338015
249	0xbd17749b	-0.036976438
250	0xbd432dc6	-0.047651075
251	0x3dde13e7	0.1084364
252	0xbda56517	-0.08075922
253	0xbcd3d5c7	-0.025858773
254	0x3c2a7625	0.010404144
255	0xbdece93f	-0.11567926

encoder_lstm1.bias_ih_l0 f4 [256]
0	0x3d8e7b92	0.06957163
1	0x3d1a02fc	0.037600502
2	0xbdbe8e8c	-0.093045324
3	0xbd72a0ab	-0.059235256
4	0x3db6ebdd	0.08931706
5	0xbd166493	-0.03671701
6	0x3da3986c	0.079880565
7	0x3cc131af	0.023583261
8	0xbd326150	-0.043549836
9	0x3de92325	0.113836564
10	0x3cb6d5b9	0.022318708
11	0xbe082f5a	-0.13299313
12	0x3d51799f	0.051141378
13	0xbce8d5af	-0.028422205
14	0xbd55cd70	-0.052197874
15	0xbdc853a5	-0.09781579
16	0x3db29a93	0.08720889
17	0x3d81c16d	0.06335721
18	0x3b8147e0	0.0039453357
19	0x3d1c57aa	0.03816954
20	0x3b25735d	0.0025245764
21	0xbd1d94d6	-0.03847202
22	0x3c85bb5d	0.016324693
23	0x3d17db0c	0.037074134
24	0xbe0ab963	-0.13547282
25	0x3baf3df3	0.005347961
26	0xbdbf51fd	-0.0934181
27	0x3e090ca6	0.13383731
28	0xbd54df17	-0.051970568
29	0x3d578f79	0.05262706
30	0xbd7593c1	-0.059955362
31	0xbdffa840	-0.12483263
32	0x3dd63106	0.10458569
33	0xbd911158	-0.07083386
34	0x3db82511	0.08991445
35	0x3c6b41dd	0.014358965
36	0xbde8443d	-0.113411404
37	0x3de9e815	0.11421219
38	0x3bb737a0	0.005591348
39	0x3e067585	0.13130768
40	0x3da3706b	0.079804264
41	0x3dd7cf25	0.105375566
42	0x3d093c01	0.03350449
43	0xbcd1761e	-0.025569018
44	0xbd60e4df	-0.05490577
45	0x3de9ea1a	0.114216045
46	0x3d74488c	0.0596395
47	0x3ce0ecb7	0.027456624
48	0xbde6185c	-0.11235115
49	0xbcbbf551	-0.022944124
50	0x3d440ceb	0.047863882
51	0x3d5b414a	0.05352906
52	0x3e0708bb	0.13186924
53	0xbdbf6f76	-0.09347431
54	0x3d48c6a6	0.04901757
55	0xbde9a84e	-0.11409055
56	0xbd6f134b	-0.05836801
57	0xbdbf880a	-0.09352119
58	0xbd857289	-0.065159865
59	0xbc47722e	-0.012173219
60	0xbd3c8266	-0.046022795
61	0xbca78acf	-0.020451931
62	0xbd722e89	-0.05912641
63	0xbc9958d2	-0.01871911
64	0x3c8020a8	0.015640572
65	0xbdff67e4	-0.124709874
66	0x3dbfb1ec	0.09360108
67	0x3d73ac2a	0.05949036
68	0x3c4264f8	0.011864893
69	0xbd8fa53d	-0.070139386
70	0x3d7ee016	0.062225424
71	0x3e156e05	0.1459275
72	0x3e017efe	0.126461
73	0xbcb465d7	-0.022021217
74	0xbca0daba	-0.019635547
75	0xbcdf6cd7	-0.027273579
76	0xbde0d413	-0.1097795
77	0x3cd2d94d	0.025738383
78	0x3d872285	0.06598381
79	0xbdb662f3	-0.08905592
80	0xbd8c2a91	-0.068440564
81	0x3d89f6e2	0.06736542
82	0xbdbea0b8	-0.093079984
83	0x3d963200	0.073337555
84	0x3d0508af	0.032478984
85	0xbda639f8	-0.081165254
86	0x3dbf4f66	0.09341316
87	0x3d201128	0.03907886
88	0x3d8ffbd5	0.07030455
89	0xbdbc91b7	-0.092074804
90	0x3dc74963	0.09730794
91	0xbd57d746	-0.052695535
92	0x3d49bcc8	0.0492523
93	0xbc559d20	-0.01303795
94	0x3df7b1c3	0.12094452
95	0xbda5a2a2	-0.0808766
96	0xbd4b3ff8	-0.049621552
97	0xbdac6175	-0.08417026
98	0x3da8504e	0.08218442
99	0xbdbf338b	-0.09336003
100	0xbda81369	-0.08206827
101	0x3dbf5d0f	0.093439214
102	0x3d4f73ca	0.050647534
103	0x3d98de47	0.07464271
104	0x3d808dce	0.06277047
105	0xbdc4895b	-0.09596511
106	0xbdc008e7	-0.09376698
107	0x3c7c14f3	0.015385854
108	0xbc5c7809	-0.013456353
109	0x3dcc621b	0.0997965
110	0xbd8fff88	-0.070311606
111	0x3d29d179	0.041459534
112	0xbafb7402	-0.0019184353
113	0xbdef792b	-0.11693033
114	0xbe01b680	-0.12667274
115	0x3aa0ca80	0.0012267381
116	0xbd58c28e	-0.052919917
117	0x3d9d9581	0.07694531
118	0xbdd2f72a	-0.10301049
119	0x3d39e8dd	0.04538809
120	0x3e1249fe	0.14286038
121	0xbcc46675	-0.023974637
122	0xbd7d0f4a	-0.06178216
123	0xbce334d1	-0.027735146
124	0x3e0f4596	0.13991389
125	0xbdcef96b	-0.101061665
126	0x3defd557	0.11710613
127	0xbc90aabf	-0.017659543
128	0x3dcfbfe5	0.10144023
129	0x3cff9e4d	0.031203413
130	0xbc91bec7	-0.017791165
131	0x3d9b7fa3	0.07592704
132	0x39f00530	0.00045780232
133	0xbcbb2a5d	-0.022847349
134	0xbda47869	-0.08030779
135	0x3dc4cc26	0.09609251
136	0xbc53c8a3	-0.0129262535
137	0xbc9a4c83	-0.018835312
138	0x3d0f51a5	0.03498997
139	0x3d5378d3	0.0516289
140	0x3d90fd65	0.07079581
141	0xbe09d809	-0.13461317
142	0xbd94f321	-0.07272936
143	0xbda7df72	-0.08196916
144	0xbdf622c6	-0.12018351
145	0x3e06c100	0.13159561
146	0x3dbcafb6	0.09213202
147	0xbcb3c1e1	-0.021943035
148	0xbd4145ff	-0.047185894
149	0x3d9a98e9	0.075486965
150	0x3cfaec86	0.030630361
151	0xbd55ccb6	-0.05219718
152	0x3d827cf4	0.06371489
153	0xbde8812b	-0.11352762
154	0xbd49ef7f	-0.049300667
155	0x3d8f0a3c	0.06984374
156	0x3c6209c7	0.013796276
157	0x3e00c3ee	0.12574741
158	0x3c0cf177	0.008602492
159	0xbd579cab	-0.052639645
160	0xbc6bfb19	-0.014403128
161	0xbe0a18b9	-0.13485993
162	0x3cbf9d2e	0.023390379
163	0x3d83373e	0.06407021
164	0xbd630319	-0.055422876
165	0xbc3f3153	-0.011669475
166	0x3bcae370	0.0061916634
167	0x3d922540	0.07136011
168	0x3d9f1f8d	0.0776969
169	0xbd1bb3ab	-0.03801314
170	0x3dfc9bba	0.1233439
171	0xbbb100e3	-0.005401717
172	0xbdcad897	-0.099045925
173	0x3e06c20d	0.13159962
174	0x3d9d7a5f	0.07689356
175	0xbc6800c7	-0.014160342
176	0x3d1b2df2	0.037885614
177	0xbcf2e836	-0.029651742
178	0xbc7d4146	-0.015457457
179	0x3df7e5bf	0.121043675
180	0xbd3e0a98	-0.04639682
181	0x3cd54563	0.026034063
182	0xbdcae3bd	-0.09906719
183	0x3d1d5566	0.03841152
184	0x3db09fbd	0.08624218
185	0xbdc2b3dc	-0.09506962
186	0x3da56dca	0.08077581
187	0xbc746844	-0.014917437
188	0xbbfabf23	-0.00765218
189	0xbd91043b	-0.07080885
190	0x3d9f1bee	0.07768999
191	0x3cd3240e	0.025774028
192	0x3b9e05c0	0.004822463
193	0xbc69f6f8	-0.014280073
194	0xbd9b5c4d	-0.07585964
195	0xbad6ce13	-0.0016388319
196	0x3d334eaa	0.04377619
197	0x3dc76c4a	0.097374514
198	0xbb798290	-0.0038072206
199	0x3e279aa5	0.16367586
200	0xbd6a2845	-0.05716731
201	0xbd06c403	-0.032901775
202	0x3d489451	0.04896957
203	0x3d5c3692	0.05376298
204	0x3c765fe3	0.01503751
205	0xbdd6512f	-0.10464703
206	0x3e39206d	0.18078776
207	0xbdef1ed9	-0.116758056
208	0x3dc82a78	0.09773725
209	0x3dbec183	0.09314253
210	0x3dbf1a2c	0.09331164
211	0xbdd143fa	-0.102180436
212	0x3d12850c	0.035771415
213	0x3df0b92d	0.117540695
214	0xbd291e5a	-0.04128871
215	0x3ccb664c	0.024829052
216	0x3d1fe475	0.039036233
217	0xbc95a65d	-0.018267805
218	0x3d3ff45a	0.04686389
219	0x3dd2f5f2	0.103008166
220	0x3cb09e83	0.02155996
221	0xbd6ceaf7	-0.057841267
222	0x3dcda1ab	0.10040601
223	0xbe0f36d4	-0.13985759
224	0x3d0a4cdc	0.033764705
225	0xbc1c10c2	-0.00952548
226	0xbd8feb65	-0.0702732
227	0xbd12bd62	-0.03582514
228	0xbd283007	-0.041061427
229	0x3a5f90de	0.0008528362
230	0x3bade462	0.0053067664
231	0x3df49809	0.11943061
232	0xbd4072c6	-0.046984456
233	0xbd8a42b7	-0.06751006
234	0x3e088b8e	0.13334486
235	0xbce216d1	-0.02759877
236	0xbd5cb8a4	-0.053887025
237	0x3e04575c	0.1292395
238	0x3d8c100a	0.06838997
239	0x3d23f93b	0.040032607
240	0xbd657df6	-0.05602833
241	0x3d9a513e	0.07535027
242	0x3dd7e5de	0.105418906
243	0x3dfc5b48	0.12322098
244	0xbda876e2	-0.082258
245	0x3d9c4121	0.0762961
246	0x3d763fe3	0.06011952
247	0xbd78c796	-0.060737215
248	0xbcaf35c0	-0.021387935
249	0x3cc94116	0.024567168
250	0x3db32d8d	0.087489225
251	0x3e0fb6e5	0.14034612
252	0x3df9e551	0.12201942
253	0xbe00fe88	-0.12597096
254	0x3ce5499f	0.027989207
255	0xbd5ab16d	-0.053391863

encoder_lstm1.bias_hh_l0 f4 [256]
0	0xbc570e94	-0.013126034
1	0xbcdb686b	-0.026783189
2	0xbd8dcfd7	-0.06924408
3	0xbdc6247d	-0.09674928
4	0xbbd57a16	-0.006514798
5	0x3ce75081	0.02823663
6	0x3d37de5f	0.044889804
7	0x3dcde065	0.100525655
8	0xbd72ef0b	-0.05931
9	0xbd7378dc	-0.059441432
10	0x3c747bef	0.014922126
11	0xbd319eb0	-0.043364227
12	0xbd06229c	-0.03274785
13	0xbddf653b	-0.1090798
14	0xbc2390a8	-0.009983219
15	0xbdc20da1	-0.09475256
16	0x3da2bd47	0.07946258
17	0xbac0ff1a	-0.0014724464
18	0xbdce934d	-0.10086689
19	0xbd3e3a52	-0.046442337
20	0xbdaa02a1	-0.08301283
21	0xbd50cc46	-0.05097606
22	0xbd85633c	-0.06513068
23	0x3d8da17b	0.069155656
24	0xbe1d53ca	-0.15363994
25	0xbcf7ed13	-0.030264413
26	0xbcf175a7	-0.029475046
27	0x3e0715b2	0.1319187
28	0xbdb184a7	-0.086678796
29	0xbbc076aa	-0.005873521
30	0x3d4a31e8	0.049364
31	0xbdc888a1	-0.09791685
32	0x3dfbab18	0.12288493
33	0x3d54fcd2	0.05199892
34	0xbdb29a67	-0.08720856
35	0x3c50362c	0.012708228
36	0xbd0c34cc	-0.03423004
37	0x3d1845ed	0.03717606
38	0xbd0ecd92	-0.034864016
39	0xbd520645	-0.05127551
40	0x3d7b098a	0.061288394
41	0xbe01e925	-0.12686594
42	0x3d29b156	0.041428886
43	0x3dda194f	0.106493585
44	0xbd94bc5b	-0.072624885
45	0xbd30ac3e	-0.043133013
46	0x3d9ae7bc	0.07563731
47	0x3dfba798	0.12287825
48	0xbe0068b4	-0.12539941
49	0x3dac7a3d	0.084217526
50	0xbdf21b8b	-0.1182166
51	0x3dcd6d61	0.10030628
52	0x3e111415	0.14167817
53	0xbd0b8505	-0.034062404
54	0x3d3dda0e	0.04635053
55	0x3d59e7d8	0.05319962
56	0x3db531aa	0.08847363
57	0xbda081ca	-0.07837255
58	0xbd928c35	-0.071556486
59	0x3bdc3961	0.0067207073
60	0xbd77bbeb	-0.060481947
61	0x3d3e6255	0.046480495
62	0xbd4edbab	-0.05050246
63	0x3d4a8756	0.049445473
64	0x3d984c17	0.07436388
65	0xbe03e025	-0.12878473
66	0xbd77064a	-0.060308732
67	0xbd6ae567	-0.05734768
68	0xbcde00ad	-0.027099932
69	0xbcc40ad3	-0.023930943
70	0x3d6a8c9a	0.057262994
71	0x3d23bb1e	0.03997337
72	0x3db7f08c	0.089814276
73	0x3cc12903	0.023579126
74	0xbd184df9	-0.037183736
75	0x3c8b5ab3	0.017011022
76	0x3d93a387	0.07208925
77	0x3de2f20b	0.11081322
78	0x3d1730e5	0.036911864
79	0xbdaad603	-0.08341601
80	0xbcf3ead9	-0.02977507
81	0x3da52337	0.08063357
82	0xbda3a1de	-0.07989858
83	0xbc33f69b	-0.010984088
84	0x3bfec8cf	0.007775403
85	0x3d705551	0.058675114
86	0x3d91055e	0.07081102
87	0x3d6d988d	0.058006812
88	0xbd969314	-0.07352272
89	0x3dcd9989	0.1003905
90	0xbcc30789	-0.023807304
91	0xbd922062	-0.07135083
92	0x3d9b8a6e	0.07594763
93	0xbdd1146d	-0.10208974
94	0xbd758991	-0.059945647
95	0xbc48cc86	-0.012255793
96	0x3d3d8447	0.046268728
97	0x3d0120e1	0.031525496
98	0x3d680a8a	0.056650676
99	0xbba956e0	-0.005167827
100	0x3dffba15	0.12486664
101	0xbdae15e3	-0.08500268
102	0x3db1b50e	0.086771116
103	0xbb754e3b	-0.0037430662
104	0x3dfc78a0	0.12327695
105	0xbc2b7f36	-0.010467341
106	0xbd8f40c3	-0.06994774
107	0x3c097673	0.008390057
108	0x3de80846	0.11329703
109	0xbd31351f	-0.04326355
110	0x3e098c87	0.13432513
111	0x3d709b39	0.05874178
112	0xbdca2394	-0.09870067
113	0xbc2b32e2	-0.010449143
114	0xbd97bfcc	-0.07409629
115	0xbd441c26	-0.047878407
116	0xbce0e4e1	-0.027452888
117	0xbd90338c	-0.07041082
118	0x3d2f1083	0.042740356
119	0xbd307679	-0.043081734
120	0xbd9c2054	-0.076233536
121	0x3d2815d3	0.04103644
122	0xbddcf2dc	-0.10788509
123	0x3d188e17	0.037244882
124	0xbd5e62d5	-0.054293472
125	0x3caf8c5a	0.02142923
126	0x3dad94ad	0.08475623
127	0x3dcd53b1	0.100257285
128	0x3d9905b7	0.07471793
129	0x3d0e95a5	0.03481068
130	0xbd3afb16	-0.04564961
131	0x3dcb591b	0.09929105
132	0xbdc4646c	-0.095894665
133	0x3d4583ef	0.048221525
134	0x3d93fd75	0.072260775
135	0x3da241a6	0.07922678
136	0xbd856f35	-0.06515352
137	0x3cc5b414	0.02413372
138	0xbdebdef1	-0.11517132
139	0x3d2b0db3	0.04176111
140	0x3dce79c3	0.10081818
141	0xbe0e9faf	-0.13928102
142	0x3c76340b	0.015027056
143	0xbd5294c0	-0.05141139
144	0xbc3ea604	-0.011636261
145	0x3cd9f4c1	0.026605966
146	0xbbc9a9b5	-0.006154264
147	0x3d2abe94	0.041685656
148	0x3d6f2a4d	0.05838995
149	0xbda0d820	-0.078537226
150	0xbd643200	-0.055711746
151	0xbd37df18	-0.044890493
152	0x3cc2bf2b	0.023772797
153	0xbdd85c75	-0.1056451
154	0xbdce6550	-0.100779176
155	0xbd156836	-0.036476336
156	0xbddbf836	-0.10740702
157	0x3de8b05f	0.11361765
158	0x3dd1bbe7	0.10240918
159	0xbd18a5d0	-0.037267506
160	0xbd15206e	-0.03640788
161	0x3d78b80d	0.0607224
162	0x3c143569	0.009045937
163	0x3d1312c8	0.035906583
164	0x3d2d1188	0.042253047
165	0x3dc569de	0.09639333
166	0x3e01618e	0.1263487
167	0xbd3ef5f6	-0.046621285
168	0xbd944b65	-0.07240943
169	0xbd266caf	-0.040630993
170	0x3d23acc2	0.039959677
171	0xbc884e74	-0.016638972
172	0xbe047241	-0.1293421
173	0x3ce25de4	0.027632661
174	0xbbafd1a6	-0.005365568
175	0x3bfc9cb3	0.0077091097
176	0xbd60c70e	-0.054877333
177	0xbdfee001	-0.12445069
178	0x3dc95eaf	0.098325126
179	0xbdaad200	-0.083408356
180	0x3d110a15	0.035410006
181	0x3c968b62	0.01837701
182	0xbd9a7e4f	-0.07543623
183	0xbd344ac8	-0.04401663
184	0xbd9c46d7	-0.07630699
185	0xbdad1cce	-0.0845276
186	0x3e10582e	0.14096138
187	0xbbf4ff70	-0.0074767396
188	0xbc3071a1	-0.010769279
189	0xbdcf53a3	-0.10123374
190	0x3d54edc7	0.051984575
191	0xbd79599c	-0.060876474
192	0x3df17094	0.11789051
193	0xbbedd678	-0.0072582327
194	0x3d15f1b3	0.036607455
195	0xbe09a200	-0.13440704
196	0xbd99f33d	-0.07517097
197	0xbd685df1	-0.056730215
198	0xbd78a8c8	-0.060707837
199	0xbd8b5188	-0.0680266
200	0x3c89b359	0.016809152
201	0xbdafa496	-0.08576314
202	0x3e133910	0.14377236
203	0xbb27828e	-0.0025559994
204	0xbdd617d8	-0.104537666
205	0xbb16163e	-0.002290144
206	0x3d77aae0	0.060465693
207	0xbdc6e1e7	-0.09711056
208	0xbdc57a10	-0.09642422
209	0xbd2bf1fe	-0.04197883
210	0x3d806d9f	0.062709086
211	0x3d574c96	0.052563272
212	0xbdac519f	-0.084140055
213	0x3dd97f93	0.10620036
214	0x3d4ced74	0.05003114
215	0xbd07d76c	-0.033164427
216	0xbd8c7c16	-0.06859605
217	0x3de2aa79	0.11067671
218	0x3d2490c8	0.040177137
219	0xbbd952f9	-0.0066322056
220	0x3d1bfc0d	0.03808217
221	0x3df7364f	0.120709054
222	0x3da327a0	0.07966542
223	0xbd618748	-0.055060655
224	0x3db07834	0.08616677
225	0x3d0d44fa	0.03448961
226	0xbd80e15f	-0.06292986
227	0xbd8be563	-0.068308614
228	0x3d75eb75	0.060039002
229	0x3e052a58	0.13004434
230	0x3e074097	0.13208233
231	0x3db78b47	0.08962112
232	0x3e00bad9	0.12571277
233	0xbd9d172a	-0.07670434
234	0xbd97ff67	-0.07421761
235	0xbe051831	-0.1299751
236	0x3dc6d4e7	0.09708577
237	0xbbcabde3	-0.006187187
238	0x3bab1580	0.005221069
239	0xbd613311	-0.05498034
240	0xbde0abc5	-0.109702624
241	0xbc50b5b6	-0.012738636
242	0xbdc89662	-0.09794308
243	0xbd1245f5	-0.035711247
244	0x3d0bcd55	0.034131367
245	0xbd7e1a79	-0.062036965
246	0x3d618933	0.055062484
247	0x3d535658	0.051596016
248	0x3dfb7d37	0.12279742
249	0x3c86a03a	0.016433824
250	0xbd62e896	-0.055397592
251	0x3da7f175	0.08200351
252	0xbc0559a7	-0.008139051
253	0xbca7f23d	-0.02050125
254	0x3c0a25a9	0.00843183
255	0x3e0f7d4e	0.14012644

encoder_lstm2.weight_ih_l0 f4 [128, 64]
0	0xbde32217	-0.110904865
1	0x3da514bc	0.080605954
2	0xbdaca488	-0.08429819
3	0x3db56a79	0.08858199
4	0xbcde21be	-0.027115699
5	0xbda12c74	-0.07869807
6	0x3d88ed5a	0.06685896
7	0x3da3edea	0.08004363
8	0xbdae2336	-0.0850281
9	0x3e35e9f8	0.17765033
10	0xbd56ad5f	-0.052411433
11	0xbe17bbb7	-0.14817701
12	0xbe03d8fa	-0.12875739
13	0xbdf41e52	-0.11919846
14	0xbdaa89a9	-0.08327038
15	0xbd9dbb49	-0.077017374
16	0x3e0074ec	0.12544602
17	0x3d83d96a	0.06437953
18	0xbe0d61d0	-0.13806844
19	0x3e0036cd	0.12520905
20	0xbd8a03ec	-0.06739029
21	0xbe29e879	-0.16592588
22	0x3dae6b15	0.08516518
23	0xbe0afca2	-0.13572934
24	0xbe223df9	-0.15843953
25	0x3e11bb54	0.14231616
26	0x3d61a449	0.055088315
27	0x3d5cfd8e	0.053952746
28	0x3e11d0d4	0.14239818
29	0x3e058bd8	0.13041627
30	0x3dd3378b	0.10313328
31	0x3c388e38	0.011264376
32	0xbe42b623	-0.19014792
33	0xbdf5ad6c	-0.11995968
34	0xbe1449f5	-0.14481337
35	0x3c13efc3	0.009029332
36	0x3e006e29	0.12542023
37	0x3d3223e0	0.043491244
38	0x3d975829	0.07389862
39	0xbd29d915	-0.04146679
40	0xbd20e795	-0.039283354
41	0xbd55cb25	-0.052195687
42	0xbd90aa18	-0.07063693
43	0x3d8ec6bf	0.069715016
44	0xbdcaf05d	-0.09909127
45	0x3e5060a4	0.20349365
46	0x3d9a2b62	0.07527806
47	0x3dd90737	0.10597079
48	0x3d832685	0.064038314
49	0x3e0610af	0.13092302
50	0xbdf89f6a	-0.12139781
51	0x3d54e595	0.05197676
52	0x3e2fe114	0.17175704
53	0xbddb40ea	-0.10705741
54	0x3ddcf5be	0.10789059
55	0xbdd2f936	-0.103014395
56	0x3e4daeba	0.20086184
57	0x3db857c1	0.09001113
58	0x3d697ff1	0.05700678
59	0x3d2a3450	0.041553795
60	0xbd0f28e6	-0.034951113
61	0xbdb8b7a6	-0.09019403
62	0xbd511a9b	-0.051050764
63	0x3e04a078	0.12951839
64	0xbdba6f55	-0.09103266
65	0xbce21bfe	-0.027601238
66	0x3bc831e4	0.006109463
67	0x3db8d234	0.09024468
68	0xbe3d6322	-0.18494847
69	0x3ca46245	0.02006639
70	0x3b48abfe	0.0030620093
71	0xbdb25ee7	-0.087095074
72	0x3bacddf4	0.0052754823
73	0x3def203c	0.1167607
74	0xbe5803ad	-0.21095152
75	0x3de99ef2	0.114072695
76	0xbdd3d5f0	-0.1034354
77	0x3da9fdb1	0.08300341
78	0xbd2506e5	-0.04028978
79	0x3d3a9a95	0.045557577
80	0xbd1b5f43	-0.037932646
81	0x3dd5083e	0.10401963
82	0xbdeebf22	-0.116575494
83	0xbdb7b26f	-0.089695804
84	0xbdede90c	-0.11616716
85	0xbe092e6c	-0.13396615
86	0x3dca6b75	0.09883777
87	0xbccd3b06	-0.025052559
88	0x3ce27bfa	0.027647007
89	0xbdb56bad	-0.08858428
90	0x3e0f70e7	0.14007913
91	0xbc8d5d54	-0.017256416
92	0xbdf27250	-0.1183821
93	0x3dfedd5e	0.12444566
94	0xbb8c4a48	-0.004281316
95	0x3d974424	0.07386044
96	0xbda9f00c	-0.082977384
97	0x3ce9b5ee	0.028529134
98	0x3d52b68d	0.051443625
99	0xbd805de6	-0.0626791
100	0x3d5e30c6	0.054245733
101	0xbdfdaa21	-0.12385965
102	0x3e0b6762	0.13613656
103	0x3d9cab94	0.076499134
104	0xbd3bc4fa	-0.04584215
105	0xbd7aa091	-0.061188284
106	0xbe480630	-0.1953361
107	0x3e013561	0.12618019
108	0x3dd634c3	0.10459282
109	0x3d8b5b87	0.06804567
110	0xbd173d3e	-0.03692364
111	0x3d97b4a4	0.07407501
112	0x3e42e334	0.19031984
113	0xbdea001c	-0.11425802
114	0x3e69c9eb	0.22830932
115	0x3e520f40	0.2051363
116	0xbe2066f4	-0.15664274
117	0x3e39bde0	0.18138838
118	0xbd3b17bc	-0.04567693
119	0xbb8c60a6	-0.0042839823
120	0xbd304fa2	-0.043044694
121	0xbe185c4b	-0.14878957
122	0x3bc54ec0	0.0060213506
123	0xbdec9f83	-0.11553862
124	0x3e6c8be7	0.23100244
125	0x3e2149f1	0.15750863
126	0xbc81514c	-0.015785836
127	0x3e1943c5	0.14967258
128	0xbd4d58ba	-0.050133444
129	0x3dda8c72	0.10671319
130	0xbd965193	-0.07339778
131	0x3e1d086e	0.15335247
132	0x3d4f75c8	0.050649434
133	0xbe0f8b39	-0.14017953
134	0x3e2a93b5	0.16657908
135	0x3ddabdfe	0.106807694
136	0xbd0056db	-0.03133283
137	0x3cd354cd	0.025797272
138	0x3d5c2c5f	0.053753253
139	0x3e01dc04	0.12681586
140	0xbe106bfa	-0.1410369
141	0x3d8dee9a	0.06930275
142	0xbde640a6	-0.112427995
143	0xbe176211	-0.14783503
144	0x3c3a24fb	0.011361356
145	0xbd67ac58	-0.056560844
146	0xbe01b861	-0.12667991
147	0xbdc1eb35	-0.0946869
148	0x3d980c6b	0.074242435
149	0xbd50ac1c	-0.050945386
150	0x3e365a11	0.17807795
151	0xbe125ee3	-0.14294009
152	0xbdda705c	-0.10665962
153	0xbdff3e21	-0.12463022
154	0xbd6d8895	-0.057991583
155	0x3dcce8d3	0.10005345
156	0x3d3d7784	0.046256557
157	0xbe019563	-0.12654643
158	0xbdfa5c94	-0.12224689
159	0xbda834fc	-0.08213231
160	0x3dcd351b	0.10019895
161	0x3e121532	0.14265898
162	0x3e5fc84f	0.21853755
163	0x3c021bd2	0.007941203
164	0xbbe3384a	-0.0069342004
165	0xbdde088b	-0.10841473
166	0xbe1233f8	-0.14277637
167	0xbdb21176	-0.08694737
168	0x3e2c97e1	0.16854812
169	0x3dad823a	0.08472104
170	0x3c4e3200	0.012585163
171	0xbd4b5a47	-0.049646642
172	0x3e1d512c	0.15362996
173	0x3e455069	0.19268955
174	0xbd5773e4	-0.052600756
175	0x3d39e372	0.045382924
176	0xbdd7c82a	-0.10536225
177	0x3dc8b18c	0.097994894
178	0xbd806370	-0.06268966
179	0x3dcfb65f	0.101422064
180	0x3d8f4162	0.06994893
181	0xbd1f1640	-0.03883958
182	0x3c8a25ca	0.016863722
183	0x3d35204a	0.044220246
184	0x3e306536	0.17226109
185	0x3dc0c317	0.094122104
186	0x3dcc56a8	0.09977466
187	0x3ccf1764	0.025279708
188	0xbe242df2	-0.16033152
189	0xbe072d12	-0.13200787
190	0xbe1a2226	-0.15052089
191	0xbdae4175	-0.08508579
192	0x3e0e2d99	0.13884582
193	0xbcfc6446	-0.030809533
194	0x3e09e707	0.13467036
195	0xbd7b49c2	-0.061349638
196	0x3d7858a4	0.06063141
197	0xbd97ac76	-0.07405941
198	0x3cf875d8	0.03032963
199	0xbe33fc2d	-0.17576666
200	0xbcba9f53	-0.02278105
201	0xbd96b667	-0.07359009
202	0x3d92e69f	0.07172894
203	0x3d984b44	0.07436231
204	0x3c3d1600	0.01154089
205	0xbe3a8dd7	-0.1821817
206	0x3dff4522	0.12464358
207	0x3d25a425	0.040439744
208	0xbd3c21a8	-0.045930535
209	0x3d4556de	0.048178546
210	0x3e09ecd4	0.13469249
211	0xbb1d2970	-0.0023980998
212	0xbd48c485	-0.04901554
213	0x3d6aff36	0.057372294
214	0xbdb462ba	-0.08807893
215	0x3d407491	0.046986166
216	0x3d8f2f06	0.06991391
217	0xbd724372	-0.059146352
218	0x3d15c74b	0.036567014
219	0xbcf61a2b	-0.030041775
220	0xbe0cdbab	-0.13755672
221	0xbd98ed6e	-0.07467161
222	0xbe47d0cd	-0.19513245
223	0xbdd2e89e	-0.102982745
224	0x3cb33491	0.021875652
225	0x3d144faf	0.036208805
226	0x3d62c888	0.055367023
227	0x3dbc5a18	0.091968715
228	0xbd727535	-0.05919381
229	0xbc724dcd	-0.014789057
230	0xbe29dd06	-0.1658822
231	0x3d996bda	0.07491274
232	0x3e2e8ff5	0.17047103
233	0xbdd9c71d	-0.10633681
234	0xbdc53a32	-0.096302405
235	0x3b5eb67a	0.0033983276
236	0xbd7971ae	-0.06089943
237	0x3e0e7d50	0.1391499
238	0xbe1a54aa	-0.1507136
239	0xbe2fff7d	-0.17187305
240	0xbd51b28d	-0.05119567
241	0x3e0da3db	0.13832037
242	0xbdc3ef7b	-0.09567162
243	0x3c50c38f	0.012741937
244	0xbd6dfa5a	-0.058100082
245	0xbd03a9b4	-0.032144263
246	0xbe2bba6d	-0.16770335
247	0xbded97ee	-0.11601244
248	0x3d5b4ed2	0.053541966
249	0xbe0bc9d1	-0.13651206
250	0x3d243030	0.040085018
251	0x3b925704	0.0044659395
252	0xbdf5d568	-0.12003595
253	0x3ca9a497	0.020708365
254	0xbe2c01fb	-0.1679763
255	0xbe13a39d	-0.14417882

encoder_lstm2.weight_hh_l0 f4 [128, 32]
0	0xbdf42fd0	-0.11923182
1	0x3dcf0b70	0.101096034
2	0xbdddd1b2	-0.10831012
3	0xbdb256e4	-0.08707979
4	0x3e1d245b	0.153459
5	0xbcd376e3	-0.025813526
6	0xbe34b779	-0.17648114
7	0xbd044c69	-0.032299433
8	0x3db31bf3	0.08745565
9	0x3d9d656c	0.0768536
10	0x3e0e4d1e	0.13896605
11	0x3bc0204f	0.0058632265
12	0xbdb0c122	-0.08630587
13	0xbe06f861	-0.13180687
14	0x3dd18174	0.10229769
15	0xbdd9e17f	-0.10638713
16	0x3d1f6518	0.03891477
17	0x3dd70734	0.10499421
18	0x3c895628	0.016764715
19	0x3e262e25	0.1622854
20	0x3d8c2782	0.06843473
21	0xbd517c10	-0.051143706
22	0x3d37d2f6	0.044878922
23	0x3e2263e1	0.15858413
24	0x3d80f915	0.062975086
25	0xbac56454	-0.0015059807
26	0xbce18466	-0.027528953
27	0x3d6bdbe6	0.05758276
28	0x3e47a5bf	0.19496821
29	0x3e35ad19	0.17741813
30	0xbd526745	-0.051368017
31	0xbdc1a1f3	-0.094547175
32	0xbde1d674	-0.11027232
33	0x3e4ff72b	0.20309131
34	0x3d809b08	0.0627957
35	0x3caed168	0.021340087
36	0xbded664d	-0.11591778
37	0xbc6eb384	-0.014569167
38	0xbe5b4ee3	-0.21416812
39	0xbdca210a	-0.09869583
40	0xbdb74c30	-0.089500785
41	0x3de2252d	0.11042247
42	0x3e23f8c3	0.16012864
43	0xbdf0208d	-0.117249586
44	0x3e1365c5	0.14394291
45	0xbe0f8a87	-0.14017688
46	0xbc35cec3	-0.011096659
47	0x3e292a3c	0.16520017
48	0xbe0cf299	-0.13764419
49	0xbdefda46	-0.11711554
50	0x3c47e4ce	0.012200547
51	0x3dd1aec8	0.10238415
52	0xbdb2dce5	-0.087335385
53	0x3cda7d70	0.026671141
54	0xbd125569	-0.035725985
55	0x3d45e484	0.048313633
56	0x3d8b36b2	0.06797542
57	0xbdbcd056	-0.092194244
58	0xba62debc	-0.0008654406
59	0x3e0dcc2a	0.13847414
60	0x3c4a82b2	0.012360262
61	0x3daddd41	0.084894665
62	0x3e160504	0.14650351
63	0xbbd21c04	-0.006412031
64	0xbdbfc30a	-0.093633726
65	0x3e12c0a3	0.14331298
66	0xbe069e27	-0.13146268
67	0xbc204667	-0.00978241
68	0x3daa1ea8	0.083066285
69	0xbd863066	-0.065522
70	0x3e1ab0a5	0.15106447
71	0xbdb5798c	-0.08861074
72	0x3dd53fc9	0.10412557
73	0xbdbaedda	-0.09127398
74	0xbe1cc26f	-0.15308546
75	0xbe10dc39	-0.14146508
76	0xbd24cf1c	-0.040236577
77	0x3df4bacd	0.11949692
78	0x3e3aed20	0.18254519
79	0x3d89dd17	0.06731623
80	0xbd500808	-0.05078891
81	0x3b123254	0.002230783
82	0xbd6dc062	-0.0580448
83	0xbc51ebd6	-0.012812575
84	0x3d7df853	0.0620044
85	0x3e11a173	0.14221744
86	0xbc0c9d96	-0.008582493
87	0x3e1c989b	0.1529259
88	0x3ddf5cce	0.10906373
89	0xbde5fec9	-0.11230237
90	0xbd809841	-0.0627904
91	0xbe117cd0	-0.14207768
92	0x3dcd84e2	0.10035111
93	0xbc5b174e	-0.0133722555
94	0xbe0ba7c0	-0.1363821
95	0xbe2d668e	-0.16933653
96	0x3c917699	0.017756747
97	0xbe0cb3a3	-0.13740401
98	0xbe28024a	-0.16407123
99	0x3bb8de68	0.0056417473
100	0x3d3507d3	0.044196915
101	0xbd4ad075	-0.049515206
102	0x3de0e251	0.109806664
103	0x3de1be68	0.11022645
104	0x3dfc95e4	0.12333277
105	0x3de564ca	0.112008646
106	0xbca31d5b	-0.019911459
107	0xbd967a66	-0.073475644
108	0x3d927f4f	0.071531884
109	0xbe004291	-0.12525393
110	0xbd9a63be	-0.075385556
111	0x3e04122c	0.12897557
112	0x3dad314a	0.08456667
113	0xbd03769b	-0.032095533
114	0xbb2f8a58	-0.002678534
115	0xbd12b899	-0.035820577
116	0xbcb5314e	-0.022118237
117	0xbd76df73	-0.06027169
118	0xbda92cf2	-0.08260526
119	0x3df1b4a0	0.118020296
120	0xbd51afdc	-0.051193103
121	0xbd96eee1	-0.07369781
122	0x3e268135	0.16260226
123	0xbe129479	-0.1431445
124	0xbddbe5ef	-0.10737216
125	0xbbb6b48e	-0.005575723
126	0xbe05931d	-0.130444
127	0x3de33119	0.11093349
128	0x3de6f6ee	0.11277567
129	0x3e28f798	0.165007
130	0xbd960599	-0.073252864
131	0x3e04aff2	0.12957743
132	0x3cbd8d8d	0.023138786
133	0x3c8252a3	0.015908545
134	0x3d2279a3	0.039666783
135	0x3d9fad98	0.07796782
136	0x3dabd27a	0.083897546
137	0xbe5a6ddb	-0.21330969
138	0x3df51bb5	0.11968175
139	0xbdb5a5ea	-0.08869536
140	0x3df195db	0.11796161
141	0x3d9e1f11	0.07720769
142	0xbdd54879	-0.10414214
143	0x3d81643a	0.06317945
144	0x3dd6a69e	0.104809985
145	0xbdc100ba	-0.09423967
146	0x3e3f4258	0.18677652
147	0xba93c06e	-0.0011272558
148	0x3db76a36	0.08955805
149	0x3def0ece	0.11672746
150	0xbdbb605d	-0.09149239
151	0xbd5e0e0e	-0.054212622
152	0x3dbe8aff	0.09303855
153	0xbdc8b878	-0.098008096
154	0xbdd32cfe	-0.10311316
155	0x3b4e7d48	0.003150778
156	0xbe4484d3	-0.19191293
157	0xbd83c3c6	-0.06433825
158	0x3def9cc9	0.11699826
159	0x3dd3b8fd	0.10338018
160	0xbced8cc4	-0.028997786
161	0x3dbb16bf	0.09135198
162	0x3b6e4691	0.0036357979
163	0x3db704c5	0.089364566
164	0x3c8c5508	0.01713039
165	0xbb3515be	-0.0027631368
166	0xbd8859cf	-0.06657755
167	0x3ded02d3	0.11572804
168	0xbc99c84f	-0.018772272
169	0x3d435536	0.047688685
170	0x3d92a692	0.07160677
171	0x3e0a181b	0.13485758
172	0xbdc52cc7	-0.09627681
173	0x3daffd72	0.08593263
174	0x3d3ac9e6	0.0456027
175	0x3d1a7557	0.03770956
176	0x3e1f1cb2	0.1553829
177	0x3db32f98	0.08749312
178	0xbd4bf02b	-0.04978959
179	0x3dd78e70	0.10525215
180	0x3c103454	0.0088015385
181	0xbe03d502	-0.12874225
182	0x3ce7c75a	0.0282933
183	0xbcc1ad4b	-0.023642203
184	0x3e477451	0.19477965
185	0xbdd5ec0f	-0.10445415
186	0x3df15ec1	0.11785651
187	0x3dda4989	0.10658557
188	0xbd64b37e	-0.05583524
189	0x3c1b2ef1	0.009471641
190	0x3dad3529	0.08457405
191	0xbde71ff0	-0.112853885
192	0xbe1426c9	-0.1446792
193	0xbe2b1cda	-0.16710225
194	0xbe37acce	-0.17937014
195	0x3d445706	0.047934555
196	0xbe0c603b	-0.13708584
197	0xbc11cd99	-0.008899116
198	0x3cef5088	0.029213205
199	0xbc81b1ba	-0.015831817
200	0xbd0f141c	-0.034931287
201	0xbdf1557e	-0.117838845
202	0xbd81a468	-0.06330186
203	0xbd8f40aa	-0.069947556
204	0x3e0df694	0.13863593
205	0xbd5301e6	-0.051515482
206	0xbd838ee0	-0.064237356
207	0x3d1447f1	0.03620142
208	0x3c64ca80	0.013964295
209	0x3e00298e	0.12515852
210	0x3dcad955	0.09904734
211	0xbdaa1fbf	-0.08306836
212	0xbdbd78b1	-0.09251536
213	0x3df8ffbe	0.12158154
214	0xbb8489f0	-0.0040447637
215	0x3e0d3cc4	0.13792711
216	0xbda221c8	-0.079165995
217	0xbe28825e	-0.16455981
218	0xbda19902	-0.07890512
219	0x3d837f01	0.064207084
220	0x3db3992a	0.08769448
221	0x3d73920e	0.05946546
222	0xbdccd854	-0.10002199
223	0xbde09044	-0.109650165
224	0xbdc7ae86	-0.097500846
225	0xbe50e20e	-0.20398733
226	0x3e1eeef2	0.15520838
227	0xbde5021d	-0.11182044
228	0x3d6bd771	0.057578508
229	0xbd800fd4	-0.06253019
230	0xbe3b79f5	-0.18308242
231	0xbc8562fa	-0.016282547
232	0xbe0e97ee	-0.13925144
233	0xbd7c4b3d	-0.06159519
234	0x3e130f14	0.1436122
235	0xbe2b621d	-0.16736646
236	0xbd6275f3	-0.055288266
237	0x3e27a8f6	0.16373047
238	0x3da722d6	0.08160941
239	0xbe17a4ea	-0.14809003
240	0xbe07d2f1	-0.13264062
241	0xbdb2441f	-0.08704399
242	0x3de85e3d	0.113460995
243	0x3d7fccde	0.062451236
244	0xbe074574	-0.13210088
245	0xbdf1a932	-0.117998496
246	0x3e242e7d	0.16033359
247	0xbd759899	-0.05995998
248	0x3c8fd5fd	0.017558092
249	0x3cdefaed	0.02721926
250	0x3da4d833	0.08049049
251	0x3c88e341	0.016709926
252	0xbe1d0b91	-0.15336443
253	0x3d76a88a	0.060219325
254	0x3dea0ebc	0.114285916
255	0x3df9605d	0.12176583

encoder_lstm2.bias_ih_l0 f4 [128]
0	0xbd921189	-0.07132251
1	0x3e4dcd22	0.20097783
2	0xbcb73be6	-0.022367429
3	0x3dcaa4c9	0.098947115
4	0xbe29705c	-0.16546768
5	0x3c11b952	0.008894281
6	0xbe16615f	-0.14685582
7	0xbd91d720	-0.0712111
8	0x3cd2b79e	0.025722321
9	0x3e231a26	0.15927944
10	0x3e0a1fca	0.13488689
11	0xbcd8886d	-0.02643224
12	0x3e448bd1	0.1919396
13	0x3c8bd715	0.017070333
14	0x3e052c4e	0.13005182
15	0x3dd34255	0.10315386
16	0x3db5e27c	0.08881089
17	0x3d35381d	0.044242967
18	0xbd968cf8	-0.073511064
19	0x3daee458	0.08539647
20	0xbd9ab6f5	-0.075544275
21	0xbe0ba69c	-0.13637775
22	0xbdbf04f0	-0.09327114
23	0x3d20b968	0.039239317
24	0x3e0fe115	0.14050706
25	0xbdf1364d	-0.11777935
26	0xbdb1e639	-0.086864896
27	0xbdbb7b61	-0.09154392
28	0x3dfd1190	0.123568654
29	0xbd5fdc53	-0.054653477
30	0xbe0ed9fb	-0.1395034
31	0x3be2c719	0.006920707
32	0x3da68264	0.08130339
33	0x3df7ab4f	0.120932214
34	0xbdf67daa	-0.12035687
35	0xbe2d2c12	-0.16911343
36	0xbcb4b399	-0.022058295
37	0xbe0e1073	-0.13873462
38	0xbd5b83de	-0.053592555
39	0xbdda7aab	-0.10667928
40	0x3d9c9420	0.0764544
41	0x3db467dc	0.08808872
42	0xbe023289	-0.1271459
43	0x3e37c658	0.17946756
44	0x3e3b965c	0.18319076
45	0xbdb3df33	-0.08782806
46	0x3e05896d	0.13040705
47	0x3da81e41	0.082088955
48	0x3e18dd68	0.1492821
49	0xbcd94c00	-0.026525497
50	0x3dcaffac	0.09912047
51	0x3dd7ac64	0.10530928
52	0xbdbf546e	-0.093422756
53	0xba35fa32	-0.0006941884
54	0x3de3399c	0.110949725
55	0x3deb89d2	0.115008965
56	0xbe3677fa	-0.17819205
57	0x3cc3bdb1	0.023894163
58	0xbe002f19	-0.12517966
59	0x3db059a9	0.08610851
60	0xbd48dd16	-0.04903897
61	0x3dd79490	0.10526383
62	0x3d3da232	0.04629726
63	0xbe03aaa3	-0.12858061
64	0x3d5dce90	0.05415207
65	0x3da5be1d	0.08092902
66	0xbd1df213	-0.038560938
67	0x3e34a85e	0.17642352
68	0x3cd5a492	0.02607945
69	0x3d1eab78	0.038737744
70	0xbcf9a79b	-0.030475428
71	0x3dd5f2a0	0.10446668
72	0x3e149eb6	0.14513668
73	0xbab48b49	-0.001377442
74	0xbd9fa549	-0.077951975
75	0x3c186f68	0.009303905
76	0xbda62228	-0.081119835
77	0xbd8d207a	-0.0689096
78	0xbc32d088	-0.010913976
79	0xbde5c48b	-0.11219128
80	0x3d096438	0.03354284
81	0xbdd96a1a	-0.106159404
82	0x3e478db7	0.19487654
83	0xbe0ee05c	-0.13952774
84	0xbd41515d	-0.047196735
85	0xbe37da55	-0.17954381
86	0x3e2f527a	0.17121306
87	0x3cbef4d2	0.023310099
88	0x3d280f39	0.041030142
89	0x3e2fbd2d	0.17162009
90	0x3dbf97f5	0.093551554
91	0x3d491696	0.049093805
92	0x3cd7eae4	0.026357122
93	0x3db76cf8	0.08956331
94	0xbd4dd117	-0.05024823
95	0xbd92a317	-0.07160013
96	0x3c945870	0.018108577
97	0x3e2e428c	0.17017573
98	0xbd60b8af	-0.054863628
99	0xbdca9b62	-0.09892918
100	0x3ddef0b0	0.10885751
101	0x3e03b721	0.12862827
102	0x3da8b7e6	0.08238201
103	0x3d7390b6	0.05946418
104	0x3de2e187	0.11078172
105	0xbc482c26	-0.012217557
106	0xbc4c6f84	-0.012477759
107	0xbd991ff6	-0.07476799
108	0x3e19f8c4	0.15036303
109	0x3d44f221	0.048082475
110	0xbcab4ab4	-0.020909645
111	0x3df6ab4f	0.12044393
112	0x3e1156be	0.14193246
113	0xbd8a4189	-0.06750781
114	0x3d901fb3	0.07037296
115	0x3e31a109	0.17346586
116	0x3e16b08b	0.14715783
117	0x3e0ee7fb	0.13955681
118	0x3d149870	0.03627819
119	0x3da710ec	0.081575245
120	0x3d6c042f	0.057621177
121	0xbc83cfe0	-0.016090333
122	0x3dc2ae8a	0.09505947
123	0xbd937041	-0.07199145
124	0x3d6ace95	0.05732592
125	0x3ce31d9e	0.027724084
126	0x3e0465ac	0.1292941
127	0x3db19395	0.08670727

encoder_lstm2.bias_hh_l0 f4 [128]
0	0xbe0d2bfd	-0.13786311
1	0x3e05187b	0.1299762
2	0xbbaef7dc	-0.0053396057
3	0x3c336713	0.010949868
4	0x3d458c81	0.048229698
5	0xbdf3c5a5	-0.11902932
6	0x3d2de328	0.04245296
7	0xbe081add	-0.13291498
8	0xbc97cc5c	-0.018530063
9	0x3dcf3298	0.10117072
10	0xbe019985	-0.1265622
11	0xbe1d8717	-0.15383564
12	0x3e1e1577	0.15437876
13	0x3d08d3db	0.033405166
14	0x3d6f5ecf	0.058440026
15	0x3d3147df	0.043281432
16	0xbe1fc112	-0.15600994
17	0x3de1fcd2	0.1103455
18	0x3e049dc4	0.12950808
19	0xbde1d418	-0.11026782
20	0x3df1eb50	0.118124604
21	0x3dd023b3	0.10163059
22	0x3da9d961	0.08293415
23	0x3e0a73b3	0.13520698
24	0x3b6507c7	0.0034947263
25	0x3dbb61c4	0.09149507
26	0xbc5ad909	-0.013357409
27	0xbcf59bfe	-0.02998161
28	0x3cb8aa2b	0.02254208
29	0x3e054c8b	0.1301748
30	0xbd53dd74	-0.051724866
31	0x3d938006	0.07202153
32	0xbc05ebab	-0.008173863
33	0xbcc8ad92	-0.024496827
34	0xbcd6d49e	-0.02622443
35	0x3dd19eec	0.1023539
36	0xbdedc91e	-0.11610626
37	0xbbe97957	-0.0071250605
38	0xbd8bc406	-0.06824498
39	0x3e38bd3e	0.1804094
40	0xbd496468	-0.04916802
41	0x3d52cb88	0.051463634
42	0x3e1a39e9	0.15061153
43	0xbd93e3c1	-0.07221175
44	0xbdf1f8fe	-0.118150696
45	0x3af4b688	0.0018670121
46	0x3d35105b	0.04420505
47	0xbd1f4f9d	-0.038894285
48	0x3bf585c5	0.007492753
49	0x3dce1c5b	0.10064002
50	0x3e212103	0.15735249
51	0xbd6e7391	-0.05821568
52	0x3ddf494a	0.10902651
53	0xbe181025	-0.14849909
54	0xbe2ddc0d	-0.16978474
55	0xbd8161b4	-0.063174635
56	0x3e148d44	0.14507014
57	0x3dbd8291	0.09253419
58	0x3db8370c	0.08994874
59	0xbc77c922	-0.015123637
60	0x3d18e96a	0.037331976
61	0x3da26d22	0.07930972
62	0xbd59ffae	-0.05322235
63	0xbe0893bb	-0.13337605
64	0x3e2a9ab7	0.16660582
65	0x3c7744a3	0.015092048
66	0x3d7b4c03	0.061351787
67	0xbd19d54a	-0.037556924
68	0x3cdf3022	0.027244631
69	0xbde6c7f1	-0.112686045
70	0xbdc090a4	-0.09402588
71	0x3db3e41c	0.08783743
72	0x3e15f37c	0.14643663
73	0x3cb99e7c	0.022658579
74	0xbccaaf46	-0.02474178
75	0xbe1b48fa	-0.15164557
76	0x3d919107	0.0710774
77	0xbda9443f	-0.0826497
78	0x3e0df5d4	0.13863307
79	0xbb6d86b5	-0.0036243622
80	0xbe2aa1e1	-0.16663314
81	0x3e1e68b7	0.15469633
82	0x3e0ae5fa	0.13564292
83	0x3ce00172	0.02734444
84	0xbd7e4e32	-0.06208629
85	0xbe421dc0	-0.18956661
86	0xbbea9e0d	-0.0071599544
87	0xbde23a57	-0.11046284
88	0x3dec8148	0.11548096
89	0x3c9d72c6	0.019219767
90	0xbe0fc67d	-0.14040561
91	0xbe367010	-0.17816186
92	0x3dcd6d2b	0.10030588
93	0x3cb5f565	0.02221174
94	0x3e0e82bd	0.1391706
95	0xbd0cd662	-0.03438414
96	0xbd92ed0f	-0.071741216
97	0xbda26822	-0.07930018
98	0xbd04fa68	-0.03246537
99	0x3a643f78	0.00087069673
100	0x3d90348c	0.070412725
101	0x3e279d74	0.16368657
102	0xbdc243ae	-0.09485565
103	0x3e35d15c	0.17755646
104	0x3e4468aa	0.19180551
105	0x3d0a5d28	0.033780247
106	0x3c2f476b	0.01069818
107	0xbd711dad	-0.05886619
108	0xbd19e44d	-0.03757124
109	0xbd243b5b	-0.04009567
110	0x3e047f41	0.12939169
111	0x3d872eb8	0.06600708
112	0x3df18c09	0.11794288
113	0x3d8e0eff	0.06936454
114	0x3d650e05	0.055921573
115	0x3e33e3e9	0.1756741
116	0x3e3dc447	0.18531905
117	0x3d21749f	0.03941786
118	0xb94acc90	-0.00019340427
119	0xbdacef9c	-0.08444139
120	0x3df18a68	0.11793977
121	0x3d4b9710	0.04970461
122	0x3bca710c	0.006178027
123	0x3c3bde5d	0.01146659
124	0xbb18aa1d	-0.0023294755
125	0xbda83822	-0.082138315
126	0xbcf9a767	-0.030475331
127	0xbdabca49	-0.08388192
