backend/anomaly_models/WH003_SKU-012.pth (torch, 242563 bytes, 20 tensors)

encoder_lstm1.weight_ih_l0 f4 [256, 6]
000000 50 78 16 3d 1b 09 ba 3d 49 fb a3 3d fe c5 4b bd
       0.036735833 0.09083768 0.08006913 -0.049749367
000010 a4 1a 40 3c f6 f0 dc bd 7c cd 4a bd 57 af 40 bd
       0.011725102 -0.10788147 -0.04951237 -0.047042217
000020 5f 69 be 3d e6 93 03 3e 23 2a 05 3e b8 8c b2 bd
       0.09297442 0.12849388 0.13004355 -0.08718246
000030 b7 c2 d8 bc 85 ec 37 bd a2 88 09 3e 7c 71 5b bd
       -0.026460035 -0.044903297 0.13431028 -0.053575024
000040 bf cc 5a 3d 98 b1 f8 3d cd 45 a4 3d ce c1 a5 3c
       0.053417917 0.12143248 0.08021126 0.020234015
000050 bf f8 d8 3d 30 3b f7 3d b6 1e 5e 3d f5 09 85 bb
       0.105943196 0.12071836 0.054228507 -0.004060025
000060 b7 69 07 3e be 6e e6 bc 9c d0 1c 3e cb 51 d6 3d
       0.13223921 -0.028128978 0.15313953 0.104648195
000070 f7 30 b0 bd 17 c4 ca 3d 1d 68 2e 39 41 3b f6 bc
       -0.08603089 0.099006824 0.00016632718 -0.030057551
000080 4d 44 b8 3d 78 43 62 bc 47 09 72 3d ee 15 9d 3d
       0.08997402 -0.013810031 0.05909088 0.076701984
000090 0e 7b ab bd a0 7e 2f bd c6 f1 94 3d e5 67 41 3b
       -0.0837308 -0.04284537 0.07272677 0.002951139
0000a0 1d c1 ae bd dc ff 24 bc ad 3d 28 bd 77 f1 7c 3d
       -0.08532927 -0.010070767 -0.041074444 0.061753716
0000b0 2e 59 ba 3d 8c 65 4b bd 46 45 5e 3d 29 53 d8 bd
       0.09099041 -0.04965739 0.054265283 -0.105627365
0000c0 48 50 af bd 20 bc 22 bd 6d 2d 94 3d cf 65 93 bd
       -0.08560234 -0.03973019 0.07235227 -0.07197153
0000d0 33 92 c0 3d 52 1e a4 bd 57 65 df bd 40 64 ba bd
       0.09402885 -0.08013596 -0.10908001 -0.091011524
0000e0 ef 36 a9 3d 48 5d 28 bd 65 41 b0 3d fc 7b 9c 3c
       0.08262431 -0.041104585 0.08606223 0.01910209
0000f0 e2 74 67 bc 48 6d d2 bd 63 01 7d bd d5 98 f2 bb
       -0.014126988 -0.1027475 -0.0617689 -0.007403473
000100 7d 13 99 bd 4a b6 67 bc 09 7c 5c bc 91 7e 46 bd
       -0.0747442 -0.014142582 -0.013457307 -0.048460547
000110 c0 cf eb 3b 0a 0c 81 3d c7 03 b7 3c ce f8 0f 3d
       0.0071963966 0.063011244 0.022340668 0.035149388
000120 b4 92 cf bc 75 ed 07 3e 08 90 f2 3d 39 24 f0 3c
       -0.025338508 0.13274176 0.11843878 0.029314147
000130 83 b5 72 bd 17 83 66 bd 4d e3 88 bd 64 f4 b8 bc
       -0.059255134 -0.05627736 -0.06683979 -0.022577472
000140 de 1e ef bc bb f3 81 bd 78 99 76 3c 2d a0 25 bd
       -0.029189523 -0.06345316 0.015051238 -0.04043596
000150 fd 26 44 3c 3f 8e 1a bd a9 6b 70 3d 3e e1 a3 3d
       0.011972186 -0.037733313 0.058696423 0.08001946
000160 27 a7 17 bd f9 12 63 bc 02 d9 44 3d a4 0f c8 3c
       -0.037024643 -0.013859504 0.048058517 0.02442152
000170 e2 cb f6 3d 22 f0 f6 bd 20 90 04 3e 69 5f 25 bd
       0.12050606 -0.120575204 0.12945604 -0.040374193
000180 f6 0d 10 3c b5 a7 a3 3d 4b e9 88 bc 92 ab 45 3d
       0.008792391 0.07990972 -0.016712805 0.048259325
000190 72 6c 06 bb 86 25 c8 bd a8 1e f0 bc c2 8e 7c 3d
       -0.0020511416 -0.09772782 -0.029311493 0.061659582
0001a0 3d 8f 42 bd 42 08 81 3c e1 ec 08 3e 6c 72 ac 3d
       -0.047499884 0.015751008 0.13371612 0.08420262
0001b0 64 e9 9f 3d 36 55 b1 3d 75 72 51 bc 58 fd 9e bd
       0.078081876 0.08658831 -0.012783636 -0.07763165
0001c0 f7 56 a2 bd c7 2f de 3d 95 32 3c bd de da 90 bd
       -0.079267435 0.108489566 -0.045946676 -0.070729956
0001d0 11 ea ab bd b0 b2 95 3c ba 70 a3 bc b7 3e 1b 3e
       -0.08394254 0.018273681 -0.019951213 0.15160643
0001e0 70 8b 1d bb 4f 16 c9 3d 1e 5c b0 bd d9 34 18 bd
       -0.002403941 0.09818708 -0.0861132 -0.037159774
0001f0 25 c2 36 bd e8 46 21 3e 71 53 b5 bd 25 80 90 3d
       -0.044618744 0.15749705 -0.08853806 0.07055692
000200 5e df aa bd 21 99 04 3e 12 1b 26 bd 25 28 72 3d
       -0.08343385 0.12949039 -0.04055316 0.059120316
000210 53 6c e9 3c 23 9e 2e 3d be 21 bc 3d ef 18 b4 3d
       0.028494036 0.04263128 0.09186123 0.08793818
000220 0e 7f 8b bc 08 b5 33 bd 61 9a 84 bd b7 8a db 3b
       -0.017028358 -0.043873817 -0.06474758 0.0066998857
000230 4f ed 25 3e 7f ac 06 3e 5a de 90 bc 0a 9f 03 3d
       0.16203807 0.1315174 -0.01768415 0.032134093
000240 71 ff f4 3d 9a c2 29 bd 14 cc 1c 3b 52 c6 08 bd
       0.11962784 -0.041445352 0.002392535 -0.033392258
000250 c6 17 98 bd 14 29 f6 3d b0 2a d1 3d 0c 98 fb bc
       -0.074264094 0.12019554 0.1021322 -0.03071215
000260 c6 05 ec 3c a8 06 45 bd 0b d7 04 3e 19 2c 9d 3d
       0.028811347 -0.04810205 0.12972657 0.076744266
000270 46 67 b7 3d f8 c7 55 3d 7d 0a 00 3e 4c 99 d6 3d
       0.08955245 0.05219266 0.12504001 0.10478458
000280 cb b8 aa 3d 1d 8f 93 bd 13 ef e7 3d 9e 69 d0 3c
       0.08336028 -0.07205031 0.11324897 0.025440987
000290 01 49 0f bd 9e 3a 17 bd 8f 17 de bd b5 95 28 bd
       -0.03498173 -0.036921136 -0.10844337 -0.041158397
0002a0 dd 6f 5d 3d 05 8f ed bb bc 4a bd bc 4a a8 13 3d
       0.05406176 -0.0072497153 -0.023106925 0.036049165
0002b0 87 8f 06 bd 95 b8 e6 3d d6 07 86 3d d8 71 f6 3d
       -0.032851722 0.11265675 0.06544463 0.12033433
0002c0 8b dd 86 3d 77 fa 24 bd 2a 7e c2 bd 3a d2 a1 bd
       0.06585225 -0.040277924 -0.0949672 -0.07901426
0002d0 05 00 62 bd 97 05 9a bc 90 a3 c5 3d 75 ed af bc
       -0.0551758 -0.018801494 0.09650338 -0.021475533
0002e0 57 40 90 bd a8 15 79 bd 59 43 dc 3b 49 b5 89 3d
       -0.07043522 -0.06081167 0.0067218957 0.067240305
0002f0 f9 02 c7 3d 5c 0d 21 3e fc 4c 4c 3c 13 b2 1c 3e
       0.09717364 0.15727752 0.012469526 0.15302305
000300 8e 3f bb 3b 7a 4a 1b 3e 4c 87 8a bd 99 b2 16 bd
       0.0057143634 0.1516513 -0.06764087 -0.036791418
000310 aa 14 dd 3d 50 7d 0e 3e e9 cf e1 bd c0 01 e9 3d
       0.10794957 0.1391499 -0.11025984 0.11377287
000320 f3 f1 0f bd cd c0 00 bd b7 39 55 bd 2b 09 21 3d
       -0.03514285 -0.03143387 -0.052056994 0.039315384
000330 7c 7b 1c 3d c7 ce c2 3d 72 ce e4 3d bd 98 0e 3e
       0.0382037 0.09512096 0.11172189 0.13925453
000340 a7 ca 91 3d a8 2d b2 bd 1b 17 35 3d a9 6c c8 3c
       0.07118731 -0.087001145 0.04421149 0.024465876
000350 47 92 d2 3c 62 3b 7b bb 68 21 05 bd 58 a7 26 bd
       0.025704516 -0.0038334955 -0.03250256 -0.040686935
000360 d3 da 26 bd 35 e5 81 3d 83 11 ce 3d eb 52 ce 3d
       -0.04073603 0.06342546 0.10061934 0.10074409
000370 c7 bf 7c 3d 58 3d 54 3d 6b 50 04 3d 3e 28 e5 bc
       0.06170633 0.051816314 0.032303255 -0.02797329
000380 40 0d 0e be 27 3a b2 bd 30 61 b5 3d e1 0e c1 bc
       -0.13872242 -0.08702498 0.08856428 -0.023566665
000390 2c a3 b4 b9 54 7c f1 3d cd 4b 1f 3e ca b6 20 bd
       -0.00034453848 0.11791292 0.1555626 -0.03923682
0003a0 87 ec d3 bd 24 16 bb 3d c8 ed d6 bd 91 00 c1 3d
       -0.103478484 0.09135082 -0.10494572 0.09423936
0003b0 c3 d2 86 3d 13 82 6d bd 1f 9c 80 3d a0 14 9f 3d
       0.06583168 -0.057985377 0.06279778 0.07767606
0003c0 ea 71 94 bd 48 39 04 be 84 ba d0 bc 0b af d5 bd
       -0.0724829 -0.12912476 -0.025479563 -0.104337774
0003d0 d3 a1 00 be c1 bb 8d 3d ce 9a 60 bc c6 a3 9e bc
       -0.12561731 0.06920577 -0.013708783 -0.019365203
0003e0 9e c8 fa 3c c0 e3 51 bc 02 82 a8 bd 47 91 8c bc
       0.03061324 -0.0128106475 -0.08227922 -0.017159117
0003f0 f5 10 83 3c 60 65 a2 3c fa 67 36 3e a1 63 f6 ba
       0.015999297 0.01982373 0.17813101 -0.0018798002

encoder_lstm1.weight_hh_l0 f4 [256, 64]
000000 69 35 b1 bd d9 18 c5 3d f6 db 24 3e a4 95 39 3d
       -0.08652765 0.0962388 0.16099533 0.045308724
000010 7f 38 ee bd 62 85 32 bc a3 d2 c3 bd 06 75 9a bc
       -0.116318695 -0.010896059 -0.0956166 -0.01885463
000020 59 a4 3a 3e 20 48 3c 3e 9d 4c a8 bb b6 4d 1e be
       0.18226756 0.18386889 -0.005136086 -0.15459332
000030 14 70 8b bc ab c8 ad 3d d9 8a 46 3e 95 6a c6 3c
       -0.017021216 0.0848554 0.19388904 0.024220744
000040 6a 0b 3d be c7 e4 9c b9 56 8c 05 bd 28 94 0d 3e
       -0.18461385 -0.0002992509 -0.032604538 0.13826048
000050 da c2 eb bd 9e e9 a5 3d 3d 45 74 bd 34 01 1e be
       -0.11511774 0.081011996 -0.059636343 -0.15430146
000060 ef 29 5b bd ca 4d a3 3d 0e 1e eb bd b4 36 33 3e
       -0.053506788 0.079738215 -0.11480342 0.17501336
000070 0b 2f d5 3c db d1 4a bd 9e 18 45 bc 8e 95 9f bc
       0.026023408 -0.04951654 -0.012029795 -0.019480493
000080 4f c0 00 bd 10 42 78 bd c5 3d 2d 3e e8 26 38 3e
       -0.0314334 -0.060609877 0.16918094 0.17983592
000090 73 e2 30 be 35 b4 dd 3c 58 0b db 3c e3 e1 34 be
       -0.17273884 0.027063468 0.026738808 -0.17664294
0000a0 50 e4 ca 3d 9c b8 ff bd 3a d5 b3 bd be 55 aa 3d
       0.099068284 -0.12486383 -0.08780904 0.08317135
0000b0 03 3a c1 bd a4 ce 82 3c e3 4d b3 bc 7c a0 30 3c
       -0.09434893 0.015967675 -0.021887725 0.01078045
0000c0 7e 07 a0 3c db 40 1b be dd 7c ba 3b 8d ba 27 3e
       0.019534823 -0.15161459 0.0056911544 0.16379757
0000d0 d4 c1 94 3d 0a 2b 0e bd 00 04 5e 3d 6f 48 8d 3c
       0.07263532 -0.034709014 0.054203033 0.017246453
0000e0 17 22 21 3e 76 f8 10 be 0b 01 71 bd 46 20 38 bd
       0.1573566 -0.1415728 -0.058838885 -0.044952653
0000f0 85 78 79 bd b6 15 fd 3d b6 fc 1a 3e 04 5f fe 3d
       -0.060905952 0.12357657 0.15135464 0.124204665
000100 1e ef 51 be 3b a4 eb 3d bf 9c 3a 3e 73 9a 0a 3d
       -0.20501372 0.11505934 0.18223856 0.0338387
000110 3b d3 0a be e7 22 f3 bd 56 9e 16 be c8 88 99 bc
       -0.1355714 -0.118718915 -0.14708838 -0.01874198
000120 ee 50 03 bd c8 f6 aa 3d f6 3f 8b bd 0f 6c 15 3d
       -0.032059602 0.08347851 -0.06799309 0.036480006
000130 5f f7 49 3d 79 9d df bc 49 6d 2e 3e e6 28 47 3a
       0.049308177 -0.027296769 0.17033876 0.0007597342
000140 d8 46 07 be 82 76 d9 3d d1 a1 2b 3c fc e9 d4 bb
       -0.13210618 0.10618307 0.010475592 -0.0064976197
000150 1b 39 18 bd 3f 5d a4 3c 85 dc 91 bb 6f d6 22 be
       -0.037163835 0.020063994 -0.004451337 -0.15902112
000160 d3 61 97 bd 73 b9 b0 3d ff ee 8a 3d 0a f4 82 3d
       -0.07391705 0.08629122 0.06783866 0.06394203
000170 b9 b4 0e 3e 0d 60 77 3d 0a cd 05 3e 64 d8 13 be
       0.13936128 0.060394336 0.13066497 -0.14438015
000180 53 ea 48 bd e6 99 46 3d 13 a8 20 3e 2c 32 b5 3d
       -0.049051594 0.048486613 0.15689115 0.0884746
000190 19 cd 6e bb 2a 4e d2 bd 2d 77 86 bd 7c 64 2e be
       -0.0036438166 -0.10268815 -0.065657 -0.17030519
0001a0 b7 c0 b3 3d 1a 9f d2 bd 8b 17 7c 3c b4 1c 4c bd
       0.08776992 -0.102842525 0.015386472 -0.04983206
0001b0 cc cb 67 bc 79 c5 58 bc 29 62 4d bd 06 fb e7 3d
       -0.01414771 -0.013230675 -0.05014244 0.11327176
0001c0 43 59 5e 3d 9c 45 da bd a8 a3 b7 3d 3c 8c 84 3d
       0.054284345 -0.10657808 0.08966762 0.0647206
0001d0 a4 2b 25 3e 11 95 2d be fe e3 ab 3d d5 ca 80 bd
       0.16129929 -0.16951396 0.083930954 -0.06288687
0001e0 12 ce d8 3d 2f 48 d3 bd b8 03 0c 3d 81 28 0c be
       0.1058618 -0.10316502 0.034183234 -0.13687326
0001f0 0e 82 1a bd 70 d1 aa 3d 28 f2 c8 3d 0a cd 36 bd
       -0.037721686 0.08340728 0.09811813 -0.044629134
000200 e8 2a cf bd 2d 43 d5 bc c5 0a 90 3d 20 b3 76 bd
       -0.101156056 -0.026033008 0.07033304 -0.06022942
000210 cd 60 76 bd 97 eb a3 bd 3c 4e ee 3d d7 4f f7 bc
       -0.06015091 -0.080039196 0.11636016 -0.030189438
000220 91 57 67 3d 1f 3a 5f 3d 03 26 a5 bd ab f9 ab 3d
       0.056479994 0.054498788 -0.08063891 0.0839723
000230 27 62 af 3d 1e 09 1d be f4 63 bc 3d 56 62 b5 3d
       0.08563643 -0.15335509 0.09198752 0.08856647
000240 8e df 50 bc bb 8e e3 3d 9b b0 9d bd 26 20 07 3c
       -0.012748612 0.11111208 -0.076997004 0.008247411
000250 35 b0 b8 3d 84 8e af 3d a2 e0 5a 3d 23 f1 0d be
       0.09017984 0.085721046 0.053436883 -0.13861518
000260 aa 40 8d bd fc bb 87 bb be 6c 01 be 67 43 b6 3d
       -0.06897099 -0.0041422825 -0.12639138 0.08899575
000270 3a 26 84 bd 8d df f3 bd 8f 99 61 3c 95 7f c3 bd
       -0.06452604 -0.11907873 0.013769521 -0.09545819
000280 c2 63 a6 bd cb 39 b1 3c d9 a5 69 3b ed 8c 82 bd
       -0.08124496 0.021634003 0.0035651831 -0.06374536
000290 7d 6d a1 bc c1 9c 16 3e 2d 45 79 bd 17 83 3e 3d
       -0.019705528 0.14708234 -0.060856987 0.046511736
0002a0 8b 9b 07 be 19 79 de 3c f0 ff 0d be 0d 57 63 bd
       -0.13242929 0.027157353 -0.13867164 -0.05550294
0002b0 47 1a 47 bd 57 1e be 3d 39 d7 26 3d f3 41 94 3c
       -0.048609044 0.092831306 0.040732596 0.018097853
0002c0 2b f2 2d bd 38 38 b7 3d dc 1e dc 3d 28 2a c2 3d
       -0.042467277 0.0894627 0.107480735 0.09480697
0002d0 91 ea a3 3d 77 72 4b bd e4 4b 51 bd d7 a7 46 bd
       0.08003724 -0.04966971 -0.051097766 -0.04849991
0002e0 2d 0e 49 bd 85 39 b2 bd dd c2 a6 bd 98 1a cf bd
       -0.049085785 -0.08702377 -0.08142636 -0.10112494
0002f0 f7 1b 03 be 26 ad e3 3d 83 20 bf 3d ed a6 02 3e
       -0.12803636 0.1111701 0.09332373 0.1275899
000300 6a 40 35 be 0a 7a 24 bd a2 a6 95 bd 56 27 e2 bc
       -0.17700353 -0.040155448 -0.07307173 -0.027606647
000310 bd 13 5f 3c a9 2d fd bd f4 91 08 be 89 b0 a4 3d
       0.013615546 -0.123622246 -0.13336927 0.08041484
000320 52 06 f2 3d 9a d2 60 3c 94 0c 29 3d 96 69 42 3d
       0.11817612 0.013722086 0.04127176 0.047463976
000330 07 10 bd bd 53 88 00 bd 31 68 8b 3d e7 2a d6 bd
       -0.092315726 -0.03138001 0.06806982 -0.10457402
000340 fc 17 d1 3d d8 13 d3 3d fb da 0a bd 9e ad 82 bb
       0.10209653 0.10306519 -0.033900242 -0.003987982
000350 e2 bb 5c bd e0 e6 50 bd 8e b1 07 3d 4e fc f2 bd
       -0.053890117 -0.05100143 0.033128314 -0.118645296
000360 e4 c1 96 bd 4c e0 db bc 53 f3 b6 bc fc d8 f2 3d
       -0.073612005 -0.026840352 -0.022332823 0.11857793
000370 7d 6e bf bb 05 6c 9f 3c 0c 64 15 3e ac e6 ca bd
       -0.0058420287 0.019460687 0.14588946 -0.099072784
000380 99 ff 24 3e 97 a3 06 be 02 06 8c bd d3 f1 4d 3d
       0.16113128 -0.13148342 -0.068370834 0.05027945
000390 e2 13 fa 3c 24 0c e3 bd 3b e5 5a bd f8 bf c9 3d
       0.030527059 -0.110863 -0.053441267 0.09851068
0003a0 68 72 09 3d 53 ab 9f bd 8c 48 29 bd fb 3c a5 3c
       0.033556372 -0.077963494 -0.04132895 0.02017068
0003b0 81 8f 3b 3b 88 48 79 bd 1f 37 c4 bd c9 88 ae bd
       0.002861947 -0.060860187 -0.09580826 -0.085221834
0003c0 aa 5f 3d 3e c8 7e 50 bd fb 2b 8d bd 96 04 9f 3c
       0.18493524 -0.050902158 -0.06893154 0.019411366
0003d0 96 46 c8 3c 14 67 05 be 75 87 e2 3d de e7 cf 3d
       0.02444772 -0.13027602 0.11060993 0.10151647
0003e0 e2 36 40 3d c2 05 c9 3d e9 70 8a bd 59 10 76 3d
       0.04692734 0.09815551 -0.06759817 0.060074184
0003f0 1f 67 ec 3c d1 ba 61 3d 4a ab 0d bd 97 a9 dd 3d
       0.028857766 0.055109803 -0.034587182 0.10823362

encoder_lstm1.bias_ih_l0 f4 [256]
000000 82 b2 be 3d 73 24 16 bb b7 82 68 bc 03 25 b4 bd
       0.093113914 -0.002290991 -0.014191321 -0.08796122
000010 3b dc 52 bd 0d 53 dd bb c0 8a 23 3d ea 4d 5e 3d
       -0.05147956 -0.006754285 0.039927244 0.054273523
000020 18 cf b4 bd 06 96 e3 3b eb 2f f3 bd b6 bb 1c bd
       -0.088285625 0.0069453744 -0.11874374 -0.038264953
000030 bd 42 92 3d 47 99 4d 3d d3 20 22 3e 3e ac b2 3d
       0.071416356 0.050195005 0.15832834 0.08724259
000040 3c aa f0 bd 0d 75 fe bc 70 4f ef bc 7d a9 ee 3d
       -0.1175122 -0.031061674 -0.029212683 0.11653421
000050 18 c8 45 bc 04 ed b9 3d eb 6e fe 3c 02 96 ee bd
       -0.012071632 0.0907841 0.03105875 -0.116497055
000060 e5 c9 76 3d 33 e9 e9 3d 47 c3 bf 3d 6a a0 a8 bd
       0.060251135 0.11421432 0.09363418 -0.082337216
000070 bf a5 0b bd 95 49 cc bd cc 70 94 bd 52 ec 26 bd
       -0.034093615 -0.09974972 -0.07248077 -0.040752716
000080 22 c3 49 bd cc 8b 51 3c 72 2e 4f 3d 57 35 e1 ba
       -0.04925836 0.012789678 0.050581403 -0.0017182034
000090 b3 ae 1e 3c 8e ec b1 bb d8 ea 23 3d e3 de e5 3c
       0.009685206 -0.005429811 0.040018886 0.028060382
0000a0 5a 25 14 3d e3 f6 ea 3d 7a 21 0e 3e 4b d4 7c bd
       0.036168434 0.11472871 0.13879958 -0.061725896
0000b0 93 d8 f3 3c 4b f7 6d bd 17 b7 e0 3d e1 4a ca 3d
       0.029766357 -0.058097165 0.109724216 0.09877563
0000c0 63 ec b9 bc e9 74 dc 3d 37 17 a1 3d 0c 93 1c bd
       -0.022695726 0.10764486 0.07865756 -0.038226172
0000d0 93 e3 9b bb c5 e0 16 3e 01 d1 6b 3d f9 35 bc 3d
       -0.0047573536 0.1473418 0.05757237 0.09189982
0000e0 9f 00 07 3d 2c b3 00 bc a0 46 c4 bb 60 c2 57 bc
       0.032959577 -0.007855218 -0.0059898645 -0.013168901
0000f0 c0 a9 f7 3d 83 22 a8 bc 4d 2f 11 3d 99 ec c4 bd
       0.12092924 -0.020524269 0.0354455 -0.0961544
000100 0a 9d 7a 3d 59 6f 25 3c da 03 ba bd cf 86 38 3b
       0.06118492 0.010097348 -0.09082766 0.0028156524
000110 57 23 36 3c 28 8b e7 bc 03 b7 d3 3d 9e 0c 37 bc
       0.011116824 -0.028264597 0.10337641 -0.011172442
000120 71 64 10 bd bb ca 86 3d 3c b2 3a bd ac 33 f7 3c
       -0.03525204 0.065816365 -0.045580134 0.030176006
000130 e0 41 93 3d b6 0a 7f 3d 4b c0 c7 3d 9d fd 52 bd
       0.07190299 0.062266074 0.09753474 -0.051511396
000140 54 13 a8 bd 91 c3 ea 3d 28 9c 8e bc 7e aa 8f 3d
       -0.082068115 0.114630826 -0.017408445 0.07014941
000150 07 78 b7 bd 11 16 e6 3d af a3 bd 3d 77 72 8d bb
       -0.0895844 0.112346776 0.09259736 -0.004316624
000160 14 d8 57 bd 33 9f 17 3b 97 02 74 bd 4f 4c eb 3b
       -0.052696303 0.0023135662 -0.059572782 0.0071807276
000170 b0 ff d4 bc a1 12 90 3d ee 9b b2 3c 53 c4 ed bc
       -0.026000828 0.07034803 0.021802869 -0.029024279
000180 cf ab ab 3d 14 a5 d5 bd 98 9c 07 3e 58 c7 9a 3d
       0.08382379 -0.10431877 0.1324333 0.07557553
000190 c9 c0 56 3d b4 56 16 3e c7 dd aa bd a9 cd d8 3b
       0.052429948 0.14681512 -0.08343082 0.0066163135
0001a0 f6 9d 29 3d 04 d5 43 bd 07 8e d6 bc 3a 3d 10 3e
       0.04141041 -0.04781057 -0.02619077 0.14085856
0001b0 76 9c b1 3c 7e bb 06 3e ea fe 42 bd 57 e3 e8 bd
       0.021681052 0.1315746 -0.047606386 -0.11371487
0001c0 84 e4 c4 3d 48 7c 10 3e 6a 9e 8e 3d 11 19 11 3e
       0.096138984 0.1410991 0.06963809 0.14169718
0001d0 2f 61 d2 3d 01 98 b8 bd ca 50 ed 3c 4f e9 0b 3d
       0.102724425 -0.090133674 0.028969187 0.034158047
0001e0 6c ab 0e 3e 37 9f c9 bc 17 2a 12 3e 23 64 95 3d
       0.1393258 -0.024612052 0.14273869 0.0729449
0001f0 c9 b7 50 bd e4 9b 04 3d a9 18 c4 3d 7d 29 7b bc
       -0.05095652 0.03237523 0.09575016 -0.015329716
000200 25 4f ac bd 3f 95 0c 3e 02 e2 67 3b bb 24 aa 3d
       -0.08413533 0.13728808 0.0035382514 0.08307787
000210 6c da 52 3d e0 f0 69 bc f5 70 0c be f8 d5 3c 3d
       0.051477835 -0.0142786205 -0.13714965 0.046102494
000220 69 d6 f0 3d 12 b6 b5 3d e1 27 42 3d 4e 23 03 be
       0.117596455 0.08872618 0.047401313 -0.12806436
000230 72 c4 0a 3e 2a 9e b2 bd 4e 6c a3 ba db b8 0a be
       0.135515 -0.08721574 -0.001246819 -0.1354708
000240 d1 16 cb bc 14 f7 77 bc 97 de c4 bb dd 00 be 3d
       -0.024791153 -0.015134592 -0.00600798 0.092775084
000250 13 75 aa bd 89 90 b3 3d 45 c9 fa bd 5a 9e 82 bd
       -0.083231114 0.08767802 -0.1224542 -0.063778594
000260 d7 86 07 3e e5 49 67 bd 6e f3 de bd 3e 63 e8 bd
       0.13235031 -0.056466956 -0.10886274 -0.11347054
000270 fa 60 10 3e 9d 0a e2 3d fd 6c 4a 3d f4 a6 cd bd
       0.14099494 0.110371806 0.049420346 -0.100416094
000280 d9 e1 9b 3c b7 eb 8a 3a 48 5c 09 3e 8c 05 9d 3d
       0.019028591 0.0010598813 0.13414109 0.076670736
000290 e8 75 e5 bc ac 0d 23 be 15 9c 85 3d 08 f6 f8 bd
       -0.028010324 -0.15923184 0.06523911 -0.12156302
0002a0 35 cd 4b bd 24 8c 03 bc 92 7d 0e bc 98 f7 02 3e
       -0.049756248 -0.008029018 -0.0086969305 0.12789762
0002b0 8e 43 c4 3d fc 96 90 3d bf e5 af 3d 3b 1d e5 3d
       0.095831975 0.07060048 0.085887425 0.11187216
0002c0 7a d3 ac 3c 75 67 8e 3d 52 54 76 bc 4d f6 05 3e
       0.021096934 0.069533266 -0.015034752 0.13082238
0002d0 b6 ee 2f 3c 47 0b 51 3b 7e 5e 2d bd d4 c4 62 3d
       0.0107380655 0.003189759 -0.042326443 0.05536349
0002e0 f4 df 04 3e 31 a0 a2 bd ed 72 01 3e 88 4e cd bd
       0.12976056 -0.0794071 0.12641497 -0.10024744
0002f0 f6 a5 d2 bd 9d 9a a4 3c 99 bb a7 bd 4e 4d ad bd
       -0.10285561 0.020093257 -0.08190078 -0.0846201
000300 ab e4 ba 3d ee 22 c6 3c 61 41 f3 3d 09 68 fd b9
       0.09125646 0.024186578 0.118777044 -0.00048333433
000310 a2 1d aa bc 8f cd e6 3d ed dc 63 bc 3b 1d 86 3d
       -0.020766083 0.11269676 -0.013907653 0.06548544
000320 6a 53 8e bb 97 19 6c 3c 45 fe d5 3d a0 6d 17 3c
       -0.00434344 0.014410398 0.10448889 0.009242445
000330 49 91 74 bd 46 a0 19 bd 5d fc ce 3d 0a d9 94 3d
       -0.059708867 -0.037506364 0.10106728 0.072679594
000340 0f e2 c3 bd 72 e9 a2 3c 6f f8 b1 bd 48 79 88 bc
       -0.09564602 0.019886706 -0.08689963 -0.016659394
000350 79 b6 41 3d d5 16 69 bd 6d fd c1 3c 0d f5 13 bc
       0.04729316 -0.05690654 0.023680413 -0.009030593
000360 19 cd 22 3d 34 04 c6 3d 14 23 ef 3d 4d 58 74 bd
       0.039746378 0.096687704 0.116766125 -0.059654523
000370 85 80 91 bd 9c 4d 73 3d d8 53 9a bd e0 d7 fd 3d
       -0.07104591 0.059400186 -0.07535523 0.123946905
000380 d9 47 43 3d c9 d7 7c 3d 2b 71 5a 3d 62 10 b0 bc
       0.04767594 0.061729226 0.05333058 -0.021492187
000390 29 3a 5b 3d 76 35 7b bd 94 d2 c5 bc 25 f1 8f 3d
       0.053522263 -0.06133028 -0.024148263 0.070284165
0003a0 d1 8b 89 3c f2 af dc 39 86 1f d7 3d ea e4 7b bc
       0.016790302 0.0004209276 0.105040595 -0.015374402
0003b0 9f 97 89 3d 0c b9 90 bd 5e 8e 87 bd 6f d8 47 3c
       0.067183726 -0.07066545 -0.06618951 0.012197598
0003c0 0f 8e ee 3d c8 c4 53 3d 3e 3b db bc b2 8d c5 3d
       0.11648189 0.051701337 -0.026761647 0.09646167
0003d0 ef f8 d1 bc e4 e1 d6 bc 55 b4 d5 bc 4e 00 f3 bc
       -0.025631396 -0.02623076 -0.026086966 -0.029663231
0003e0 ea cf 41 bd 49 63 a4 3d 4e 6a 6e 3d da 80 c0 3d
       -0.047317423 0.0802675 0.05820685 0.093995765
0003f0 34 2f 28 bc fd 28 ab 3d 84 0e 9c 3d 65 ee 46 bd
       -0.01026516 0.08357427 0.07619956 -0.048567194

encoder_lstm1.bias_hh_l0 f4 [256]
000000 30 ba f3 3d b9 af a6 bd 54 3e 89 bc c7 25 0f 3d
       0.11900747 -0.08138985 -0.016753353 0.034948137
000010 d9 7e fa 3d 2c cb 3f bc a6 a1 3b bc c8 4b d9 bc
       0.122312255 -0.011706155 -0.011452114 -0.026525393
000020 e8 d9 c1 bd 76 e9 68 3d 79 06 b2 3d f1 71 03 3e
       -0.094653904 0.05686327 0.08692641 0.12836434
000030 b4 b9 dc 3d 46 5a e5 3d dd e2 50 3d 5d ad f0 3d
       0.107776076 0.11198859 0.050997604 0.117518164
000040 d1 c7 11 3d 32 5c 88 bd 3c c8 a3 bd f5 39 05 3e
       0.03559095 -0.0665821 -0.07997176 0.1301039
000050 11 47 78 3d 32 ab e1 3d 88 2a 04 bd 6e 69 e9 3c
       0.06061465 0.11018981 -0.032267123 0.028492656
000060 6e 9e e7 bb 59 bd ae bd 87 29 63 bd b3 f8 06 bd
       -0.007068447 -0.08532209 -0.055459525 -0.03295202
000070 b2 46 0b 3b 00 61 d1 bc 54 b9 93 bd 73 3f a2 3d
       0.0021251854 -0.025558949 -0.07213083 0.07922258
000080 e4 e5 b7 bd 7b 72 db 3d 1f df 2d 3d 48 e7 d2 bd
       -0.08979395 0.10715195 0.042449113 -0.1029802
000090 b1 e5 af 3d 5c 82 27 3e 20 5c 0c 3e 97 a2 ad 3d
       0.08588732 0.16358322 0.13707018 0.08478277
0000a0 79 f5 08 be 7d 67 99 3d cd dc d8 bd 4b 5f d5 3d
       -0.1337489 0.07490442 -0.105889894 0.10418566
0000b0 4c 64 6d 3d f4 06 81 3d 05 72 d4 3d e1 79 6c 3d
       0.05795698 0.06300154 0.1037331 0.05773342
0000c0 82 34 0c 3e e4 5d 8b 3d b3 12 ba bd 91 0d 8b 3d
       0.13691905 0.068050176 -0.09085598 0.06789697
0000d0 7a de b3 3d 88 4d ed 3d 9b b9 89 bd 93 16 4b 3d
       0.087826684 0.115870535 -0.067248546 0.049582075
0000e0 09 ac 9e 3d aa 5a 7a bd 52 48 c9 bd b1 1f 02 3e
       0.07747657 -0.06112162 -0.09828247 0.12707402
0000f0 5b 0a 91 bc f2 60 e4 bd af 2e b8 bd 0f ba e4 bc
       -0.017705133 -0.11151303 -0.08993279 -0.02792075
000100 a3 47 aa ba 79 25 2b 3c c6 81 ee 3d e8 a2 2c 3d
       -0.001299132 0.010445946 0.11645846 0.042147547
000110 94 92 da bd 1d 8b 5b 3d 2d 49 df 3d f8 8f ab 3c
       -0.10672489 0.053599466 0.10902629 0.020942673
000120 75 e6 88 3d 38 b3 96 3c 3d 2c e6 3c a2 1c ac 3c
       0.06684581 0.018396005 0.028097266 0.021009747
000130 95 c6 61 bd 41 e8 1b 3e e2 0c 1f 3e f9 43 db bd
       -0.055121023 0.15225317 0.15532258 -0.10706324
000140 56 40 9b 3d 16 5c 2b bd b5 96 bb 3c 77 db 90 3d
       0.075806305 -0.041835867 0.022899011 0.070731096
000150 13 ef a7 3d 56 8c da bd 22 ca 08 bd 62 3a c1 3d
       0.08199897 -0.10671298 -0.033395894 0.09434964
000160 2f d6 df 3d 1f ba 98 3d 01 43 d1 bc a2 fb a8 3d
       0.10929524 0.07457375 -0.025544645 0.0825112
000170 cc 74 9c bc 4b 5c 1c 3d 3b 55 1b bd 4f d9 ff 3d
       -0.019098662 0.038173955 -0.03792308 0.1249262
000180 39 3f cb 3c b0 a5 d2 3d e3 f4 8f 3a 3c dd f4 bc
       0.02481042 0.10285509 0.0010983016 -0.029890649
000190 60 e0 d5 3d 8c 06 8e bd da df 4a 3c 30 20 2b 3c
       0.10443187 -0.069348425 0.012382472 0.010444686
0001a0 37 17 15 bd 44 42 e5 bc 0e 21 72 bd ae 74 b9 3d
       -0.036399093 -0.0279857 -0.059113555 0.09055458
0001b0 b2 70 c8 3d e5 26 01 3e 67 f8 08 3e f2 28 34 3d
       0.0978712 0.12612493 0.13376008 0.04398436
0001c0 e6 99 76 bd f6 ae 07 3e fb e9 09 3e a0 f0 1b 3c
       -0.060205363 0.13250336 0.13468163 0.009517819
0001d0 89 9d f1 bc e3 1e 14 3d 86 36 41 bd d0 6b 95 bd
       -0.029494064 0.03616227 -0.04717114 -0.07295954
0001e0 4a 80 f0 3b bb 88 7a 3d fa 8e 46 bd 68 b0 77 bd
       0.007339512 0.061165553 -0.048476197 -0.06047097
0001f0 c6 f1 29 3c c7 55 71 bd 4c 0a 0f 3d 53 35 39 bd
       0.010372585 -0.058919694 0.03492193 -0.04521687
000200 4f 5e de 3d 33 58 8e bd 6f 68 f3 3c 80 7f a5 3d
       0.10857832 -0.069504164 0.029712884 0.08080959
000210 d7 d5 9a bd 6e 3c 7c 3d dd 8f c7 bd 48 b3 13 bd
       -0.07560318 0.061581068 -0.097442366 -0.036059648
000220 08 a4 99 3d 73 73 29 3d cb 09 9a bd ba 12 78 3c
       0.075019896 0.041369867 -0.07521399 0.0151411835
000230 d7 d0 ca bd 49 c8 d8 bc fc 0d 40 bd ab bc f7 3c
       -0.09903114 -0.02646269 -0.046888337 0.030241331
000240 5c b7 41 bc 5b 07 d5 3d 46 79 b1 3d 3d f2 1b bd
       -0.011823501 0.104017936 0.08665709 -0.038072813
000250 d9 e1 01 be e1 38 a6 3d 6d d6 8a bc 78 08 52 3d
       -0.1268381 0.081163175 -0.01694795 0.051277608
000260 22 e4 02 3e af 59 34 bd 2c a4 8d bd cb 9d 7a 3d
       0.12782338 -0.04403084 -0.06916079 0.06118564
000270 43 0e 9d 3d 3f d8 c4 3d 55 17 16 3c be 9f 81 bd
       0.07668736 0.09611558 0.009160836 -0.063292965
000280 ab ec 4d bd 55 45 74 bc b0 f8 64 3d 36 ab da 3d
       -0.050274532 -0.014909108 0.05590123 0.10677187
000290 e2 dd 32 3c 52 60 78 bd bf 8f d3 3d f4 65 ab bd
       0.010917159 -0.060638733 0.10330152 -0.083690554
0002a0 6b 0c a0 bd 9c 1f 93 3d cc 6a 00 3d 0a 04 e7 3d
       -0.078148685 0.071837634 0.03135185 0.11280067
0002b0 e8 0f 04 be 83 65 ce 3c 30 72 45 bd b3 4b 9c bd
       -0.12896693 0.025194889 -0.0482046 -0.07631626
0002c0 c3 dc 1e 3d e8 c9 ae bc 28 f1 5d 3d 6e fc b8 3d
       0.038784754 -0.02133651 0.054185063 0.09032522
0002d0 91 94 81 bd 8e da c7 bd a6 ad f0 3d 5b b4 15 3d
       -0.06327165 -0.09758483 0.11751871 0.036548954
0002e0 b4 76 7e bd 69 bd 60 bc 60 5b bc 3d 94 ad da bd
       -0.062124923 -0.013717034 0.09197116 -0.10677639
0002f0 ca 92 05 3e 67 22 77 3b 6f b9 b3 3d ca fe ab 3d
       0.13044277 0.0037709714 0.08775603 0.083982065
000300 db 73 ee 3c 2d d3 91 bd 49 7a 6a 3c 3b 9c 12 3d
       0.029107979 -0.07120357 0.014311382 0.035793524
000310 c6 fe 50 bc 1f ee fa 3d fe b1 88 3d d8 6a f2 bd
       -0.012756055 0.12252449 0.06674574 -0.11836785
000320 3f 57 b3 3c ba 95 9e 3c f7 8a c3 3d 8f 61 28 3d
       0.021892188 0.019358505 0.0954799 0.041108664
000330 ea f4 09 3e b1 e5 ca 3d dc 21 81 3d ca 3a e5 bd
       0.13472334 0.099070914 0.06305286 -0.11192854
000340 8b 9a d3 bd 49 d9 11 3e e3 b1 93 3d e6 30 ad bd
       -0.10332211 0.14243044 0.072116636 -0.08456592
000350 f1 8b 8b bd e5 d1 81 bc 3f e2 2a 3d bb 16 0a 3e
       -0.06813801 -0.015847156 0.04171967 0.13485233
000360 53 76 e0 bd 8f fd 18 3e df f6 94 bb 47 a9 08 3e
       -0.109600686 0.14940475 -0.004546031 0.13345824
000370 de eb 77 bd 04 af c4 bd 10 55 04 bc cf 20 a0 3d
       -0.060527675 -0.09603694 -0.008076921 0.07818758
000380 b6 65 ad 3d 3d 64 c0 3d 28 92 ae 3d 93 0d b5 3d
       0.084666654 0.09394119 0.08523971 0.0884048
000390 0a 39 d1 3d aa d9 a6 3d e8 13 94 3a ae 4b 7f 3d
       0.102159575 0.08146985 0.0011297436 0.062328033
0003a0 c4 a7 78 bd 85 31 fe 3d 8c 44 9a 3c 33 25 85 bd
       -0.06070687 0.12411789 0.018831514 -0.06501236
0003b0 72 8e d2 3c cc 8c 40 bc e7 1b 9f 3d 0a 5b 8a 3c
       0.025702689 -0.011752319 0.07768994 0.016889114
0003c0 2e 85 60 bb e5 f0 dc 3d d2 18 9b bd 62 8f b8 bd
       -0.0034259069 0.107881345 -0.075730935 -0.09011723
0003d0 d6 fc 3d 3e 9a f0 98 bd a0 a0 d1 3d 6d cc d7 bd
       0.1855348 -0.07467766 0.10235715 -0.10537038
0003e0 66 61 b0 3d b2 df ec 3d 86 55 83 bc 6a d7 c7 3d
       0.08612327 0.11566104 -0.016031992 0.09757884
0003f0 7d ce 38 3d 0f ef 3a 3d 22 49 1d 3e 8a 2e 0f 3e
       0.045118798 0.04563814 0.15359929 0.13982597

encoder_lstm2.weight_ih_l0 f4 [128, 64]
000000 c2 f3 a5 bd 12 ba cf bd b9 0e 34 3e cc 33 2c be
       -0.08103134 -0.10142912 0.17583741 -0.16816634
000010 9a e2 07 3e 03 58 63 bd a4 b3 26 be cc 0b 0a 3d
       0.13270035 -0.055503856 -0.16279465 0.033702657
000020 a9 b0 36 3e cf 1c 04 3e 0f 8e 0b 3e 2e 14 8e 3d
       0.17840828 0.12901615 0.1362841 0.06937443
000030 b6 12 a5 bd 9c fd 9f 3d 74 15 fc bd 07 80 08 3e
       -0.080602095 0.07812044 -0.12308779 0.13330089
000040 2b b6 66 3d 22 04 55 bd 39 92 bf bd ab 0f 0d 3c
       0.056326073 -0.052005894 -0.09354062 0.008609693
000050 74 7b 06 3d 03 86 e1 bd 52 94 d9 bd ac b3 89 3d
       0.032832578 -0.11011889 -0.10623993 0.06723723
000060 47 20 24 3c 4e c8 57 bd db 40 de bd 20 e7 94 3d
       0.010017461 -0.05268126 -0.10852214 0.07270646
000070 70 fb 23 3e e4 20 01 be 79 de 33 3e 09 39 98 bd
       0.16013885 -0.12610203 0.17565335 -0.074327536
000080 26 c6 32 3e de ef f0 3d 38 20 d7 bd 13 3a fe 3d
       0.174584 0.11764501 -0.10504192 0.124134205
000090 48 d2 ca 3d aa 4c 8f 3d e9 60 07 3e 52 db a4 bd
       0.09903389 0.069970444 0.13220562 -0.080496445
0000a0 85 ae d8 3d 69 9f 0c bd b3 33 37 3c b8 ab f2 3d
       0.10580162 -0.034331713 0.01118176 0.11849159
0000b0 db e7 e5 bd 98 d3 65 3d 06 ba 96 3d 7b 74 da bd
       -0.112258635 0.056109995 0.073597 -0.10666748
0000c0 14 e0 6f 3e 75 64 17 be 4f 55 ba 3c 1e 4a ea bd
       0.23425323 -0.14784415 0.022745756 -0.11439918
0000d0 49 79 52 3e e8 4f 31 bd fb 34 0f be 6b d4 3f 3e
       0.20554079 -0.043289095 -0.13985054 0.18733375
0000e0 4f 95 c3 3c c8 6a a2 3c e8 04 78 bc 21 84 2d be
       0.023874907 0.019826308 -0.0151378885 -0.16944934
0000f0 9f 19 96 bc ee a8 0a bd 2a 1d 01 3e 17 97 b0 bd
       -0.018322764 -0.03385251 0.12608781 -0.08622568
000100 d3 df b2 3d e6 59 84 3d 3d 5e b3 bd 8c 6f f7 bb
       0.08734097 0.06462459 -0.08758209 -0.007551139
000110 ee d4 24 3e cb 5b a6 3d 23 0c 16 bd f0 9c 30 3e
       0.16096851 0.08122977 -0.03663267 0.17247367
000120 73 98 c2 3d bf 3d cf 3c 13 99 45 bd 59 b6 d8 bd
       0.09501734 0.025297998 -0.048241686 -0.10581655
000130 ff 6b 19 3e c2 fd 76 3d 3d 44 86 bd 73 d9 a6 3d
       0.14982603 0.060300596 -0.06555984 0.08146944
000140 51 72 b3 3c 4d 86 24 bc e3 6e a4 bd af 35 10 be
       0.021905096 -0.010041785 -0.080289625 -0.14082979
000150 be af 4a 3d be d0 1b 3d 00 3a 48 3d ff 7b ad bd
       0.049484007 0.03804087 0.048883438 -0.08470916
000160 82 5d 62 3d e2 55 18 3e 03 37 eb bd 3d 6a ba 3c
       0.055264957 0.14876512 -0.11485102 0.022755736
000170 7e 3c 7d bd 24 4f cc 3d b2 54 e5 bd 65 45 90 bd
       -0.061825268 0.099760324 -0.11197795 -0.07044486
000180 11 93 0f 3e a8 e3 36 bc 31 06 a9 3b 17 eb 9f 3c
       0.14020945 -0.011162676 0.005158209 0.01952128
000190 73 f8 79 3d fc cd 53 be cb fb f4 bd cf 60 6c bd
       0.061027955 -0.20684046 -0.11962088 -0.05770951
0001a0 1e 19 07 3e d1 87 87 3d 23 8f 43 3d dd 0e 67 3d
       0.13193175 0.06617702 0.047743928 0.05641066
0001b0 aa 91 1f 3e 21 d9 ec 3d 5f 03 24 3e af e1 9d bd
       0.1558291 0.115648516 0.16016911 -0.07709061
0001c0 02 a1 b6 3d 67 48 33 be ea 57 aa bd e3 69 8a bd
       0.089174286 -0.17508088 -0.083175495 -0.067584775
0001d0 f5 7b 90 3d 0f b6 e5 bd f4 55 5a 3d 26 7e 1e 3e
       0.07054893 -0.112163655 0.053304628 0.1547781
0001e0 69 a3 d2 bd 42 cf 93 bd 00 2c 96 3d 6f be 75 3c
       -0.10285074 -0.07217266 0.07332611 0.014999016
0001f0 43 96 90 bc ad b4 11 be d7 ac 8f 3d c9 39 a7 bd
       -0.017649775 -0.14229079 0.070153885 -0.081653185
000200 44 fb ca 3d 2f 61 b5 3b c7 f9 0d 3e a6 9d 99 3d
       0.09911206 0.005535267 0.13864814 0.07500772
000210 e4 5f 53 3c 45 a5 f3 bd 26 28 b3 3c b1 9c b8 3c
       0.01290128 -0.11896757 0.02186973 0.022535654
000220 ac 66 23 3e 16 fd ce 3d dd 96 01 be c1 27 3a 3d
       0.15957135 0.10106866 -0.12655206 0.04544807
000230 ee 9a 9e 3d 64 73 85 3d 69 af 9f bd df 14 ff 3d
       0.07744394 0.0651615 -0.07797129 0.12455153
000240 76 0f f6 bd 6a 8c 30 3c 03 76 08 3d 0b b8 f8 3d
       -0.12014668 0.010775665 0.03331567 0.121444784
000250 70 99 01 3e d9 5d ea 3d 29 1d d3 bd d1 dc 99 bd
       0.12656188 0.11443681 -0.10308296 -0.075128205
000260 40 2c 42 3e 2f 1c 14 be c0 80 bc 3d db b7 da 3d
       0.18962193 -0.14463876 0.092042446 0.10679599
000270 47 05 00 be 56 2e ab bb c9 d7 e4 3c 03 89 68 bc
       -0.12502013 -0.0052240295 0.027934926 -0.014192822
000280 d1 e6 1b 3e 24 fc 9e bd bf 86 a0 3c 00 db 64 3d
       0.15224768 -0.07762936 0.019595502 0.055872917
000290 4e ee 98 bd a3 30 fa 3c e8 52 10 3e bc 9f 9f bd
       -0.07467328 0.03054077 0.14094126 -0.07794139
0002a0 8f da b4 bc ad f6 e9 bd fc 1b 95 bd 27 19 1b 3e
       -0.022076873 -0.11424003 -0.07280728 0.15146314
0002b0 fb 6b f2 bc 76 cb e7 3d eb fc 2d 3d 26 f6 25 be
       -0.029592505 0.11318104 0.04247753 -0.1620718
0002c0 c6 c9 ae bd 69 ae aa bc 35 a4 99 3c af e5 94 bd
       -0.08534579 -0.020835118 0.018755058 -0.07270371
0002d0 5a 50 66 bd 96 61 ce 3b f4 d2 ea bc 5d fd 29 bc
       -0.056228973 0.0062982542 -0.028665043 -0.010375348
0002e0 53 1f 75 3d ec aa 54 bd 6c 97 1d 3e f1 fd fe bd
       0.059844326 -0.051920816 0.15389794 -0.12450779
0002f0 d4 a9 35 3e de e4 4b 3d fa ba ea 3a 3c 47 14 be
       0.17740566 0.04977881 0.0017908507 -0.14480299
000300 11 df 70 bc 52 f6 09 be 0f 84 dd 3d 31 ff 14 3d
       -0.014701621 -0.1347287 0.10816204 0.036376182
000310 4e 2b 44 be bf c7 26 3e 44 f4 cb bd cb a1 c9 bd
       -0.19157144 0.16287135 -0.09958699 -0.09845313
000320 f1 5a 41 3d f5 b7 8f 3d 2b 9e 5a 3c d4 2b 16 3e
       0.04720587 0.07017509 0.013343374 0.14665157
000330 00 3e 8c bb cc d4 01 be 2f 85 05 be ad 9b c7 bc
       -0.004279852 -0.12678832 -0.13039087 -0.024366224
000340 9b ab b0 3b ea ef c8 bd 3e bf ed bc 8b ac 01 bd
       0.0053915507 -0.09811385 -0.029021855 -0.03165869
000350 cb 8e b9 bd 95 be 83 3d 68 f1 7c bc 8f 97 2d be
       -0.09060439 0.06432835 -0.015438415 -0.16952346
000360 0a d4 23 3e 18 c7 17 be 60 b1 41 be d2 ff fa 3c
       0.15998855 -0.14822042 -0.1891532 0.030639563
000370 8a 73 a8 3d 17 cd 21 3d fb 9d 58 bd 59 2e 0d be
       0.08225162 0.03950223 -0.052885037 -0.13787211
000380 24 90 b8 bd 54 65 0e 3e 18 0d 41 3e a0 a5 e0 3d
       -0.09011868 0.13905841 0.18852651 0.109690905
000390 60 f7 89 3d ab a1 25 bd d1 71 29 3e 9f 11 26 3e
       0.06736636 -0.04043738 0.16547324 0.1621766
0003a0 c5 39 93 bd 85 6c b3 3d b3 eb 31 be 6c 90 00 3c
       -0.07188753 0.08760933 -0.17375068 0.007846933
0003b0 8c 61 fb 3d 51 95 21 3e 34 94 db 3d e3 c6 05 be
       0.12274465 0.15779616 0.10721627 -0.1306415
0003c0 5c 27 9a bd 99 2a a9 3c 09 3e 8d 3d 15 97 1e 3e
       -0.075270385 0.020650195 0.06896598 0.1548732
0003d0 64 69 33 3e 6d f0 14 be 54 72 3b 3b 2b 21 77 3d
       0.17520672 -0.1454484 0.002860208 0.060334366
0003e0 99 c8 36 3e c7 8d 38 be 8a 92 a3 3d e7 fd ad bc
       0.1784996 -0.18022834 0.079869345 -0.021239234
0003f0 e1 38 47 3d 0d d0 e2 bd d1 67 25 3e fb 58 e3 3d
       0.04863823 -0.11074839 0.16152884 0.11100956

encoder_lstm2.weight_hh_l0 f4 [128, 32]
000000 35 af a3 bd e9 55 e8 3d 92 88 51 bd a4 a2 30 3d
       -0.079924025 0.11344511 -0.051155634 0.043123856
000010 79 92 2e be a4 a0 ba bd 19 4e bb bd 1d 84 69 bc
       -0.17048062 -0.09112671 -0.09145755 -0.01425269
000020 00 1e 94 3d 05 32 04 bd 0f 84 b0 3c dd 63 d4 3c
       0.072322845 -0.032274265 0.021547345 0.025926525
000030 a9 f7 2c bd 8d 2e a4 3d a0 e2 cc bd 79 c9 e0 bc
       -0.042228375 0.08016691 -0.10004163 -0.02743982
000040 56 42 3e 3e fe 44 c5 bc cf b2 39 3e d4 a9 fd 3d
       0.18579993 -0.02408075 0.18134616 0.12385908
000050 f2 15 39 bd 51 57 09 bc f3 8e 33 3e 8e 8e d6 bd
       -0.045186944 -0.008382634 0.17535 -0.10476409
000060 c6 59 c0 3c 0d b0 df bc 82 4b 3e be 58 d0 7b bd
       0.023480307 -0.027305627 -0.18583491 -0.06147799
000070 96 9b 98 bc 9d f4 dc bd 94 39 10 3e 63 b0 ce bd
       -0.018628877 -0.10788844 0.14084464 -0.10092237
000080 fb 83 25 3c fc 5c 4e bd 95 3c 18 bd 09 85 28 be
       0.010102267 -0.050381646 -0.03716715 -0.16456999
000090 e6 9f 08 be f7 ce bf bd 17 d1 e7 3d 52 cd cd bb
       -0.13342246 -0.09365647 0.113191776 -0.0062805796
0000a0 6d 42 51 bd c7 ae e9 bd 51 d0 d7 bd 02 29 3c be
       -0.05108874 -0.11410289 -0.1053778 -0.18375018
0000b0 0d 3d 0e bd 81 a5 40 3d 69 4f a0 bd c9 0f ce bc
       -0.03472619 0.047032837 -0.07827646 -0.025154011
0000c0 c6 a2 e0 bd e2 f0 49 3e 59 35 f3 bd 8d 22 88 3d
       -0.109685466 0.19720796 -0.1187541 0.06647215
0000d0 6b 40 c0 3d c2 a4 3b be 69 bf 13 bd 34 64 07 3e
       0.09387287 -0.18324569 -0.036071215 0.13221818
0000e0 18 7b fd bd b1 3e 06 bc b1 8e be bd 4e 46 83 bc
       -0.12376994 -0.008193658 -0.0930456 -0.016024735
0000f0 3b 4a 6c 3d d5 d8 d1 3d 6e f3 29 3e 49 6a c4 3d
       0.05768798 0.102464356 0.16596767 0.09590585
000100 0f 96 d6 3d ef 46 2c bd 58 e7 43 bd 43 dd 46 3e
       0.1047784 -0.042059835 -0.04782805 0.19420342
000110 d3 8b 87 3d c0 7f a4 3d c6 e6 06 3e a7 87 57 3d
       0.06618466 0.08032179 0.1317397 0.052619603
000120 68 13 1e 3d c7 b5 12 3e 3c 27 16 3e 1c 58 03 bd
       0.038592726 0.14327155 0.14663404 -0.03206645
000130 9b 38 15 3d e3 c3 dd 3d 23 93 e9 bd 59 32 0e be
       0.036430936 0.10828378 -0.11405017 -0.13886394
000140 b6 90 2d be 1c 5e f8 3d 7d 53 f4 bc f1 60 40 3e
       -0.16949734 0.12127325 -0.029824967 0.1878698
000150 3f 1b fb 3b 97 01 04 3d 3b 88 20 3e a6 28 2b 3e
       0.00766316 0.03222808 0.15676968 0.16714725
000160 82 c6 ed bd e7 65 2c 3e 53 fa c2 bd a3 64 46 3e
       -0.11610128 0.16835748 -0.09520402 0.19374327
000170 81 53 03 be 58 26 5c bd 62 7d 43 bd 05 5b cc 3d
       -0.12824823 -0.053747505 -0.047726996 0.09978298
000180 78 d3 10 3e 1a 38 f7 3c aa 17 90 bd be 3b 16 bd
       0.14143169 0.030178118 -0.070357636 -0.03667807
000190 b0 49 30 bd ee 69 93 bd c3 07 51 3c 1d e3 a3 bd
       -0.043039024 -0.07197939 0.012758198 -0.08002303
0001a0 21 a9 77 bc e7 3a fa bb 37 25 0f be 46 cf 2a 3e
       -0.015116007 -0.0076364162 -0.1397904 0.16680631
0001b0 ac 26 20 be 37 73 cf 3d 67 4a ed 3d b0 03 22 3e
       -0.15639752 0.10129397 0.11586457 0.15821719
0001c0 8a 32 c9 bd 08 0f 13 3e ca e6 21 3e 74 a7 99 3d
       -0.09824093 0.14361203 0.15810695 0.07502642
0001d0 e1 1f d4 3b 64 4b 03 be 16 ea 21 be 97 ac 17 be
       0.006473527 -0.12821728 -0.15811953 -0.14811932
0001e0 63 0f 06 3e ff cb 1a 3e 52 af 57 bd ab ca 79 bd
       0.13091807 0.15116881 -0.052657433 -0.060984295
0001f0 b1 70 89 3d 56 ec 44 bb eb 86 9f bc e2 ca d2 3d
       0.06710947 -0.0030048094 -0.019473514 0.10292603
000200 98 92 96 bd 32 b1 94 3d 32 42 32 be d4 e3 12 be
       -0.07352179 0.0726036 -0.17408064 -0.14344722
000210 33 92 50 be fa b0 33 be 55 83 de 3b f2 13 0d be
       -0.2036827 -0.1754798 0.0067905583 -0.1377714
000220 e6 87 8a 3d 4c 79 06 bd 49 42 ab 3d a1 d8 9c 3d
       0.06764202 -0.03283052 0.08362252 0.07658506
000230 3d 56 9f bd d4 30 14 be 51 b5 f9 3d 82 df 02 be
       -0.077801205 -0.14471751 0.121927865 -0.12780574
000240 d1 0a af 3c b9 4d 46 bd 94 9b ef 3c 1d c2 8a bd
       0.021367462 -0.048413966 0.02924899 -0.067753054
000250 69 44 e8 bd 5f 32 b5 bd 5d 92 ee bd e9 38 b5 3c
       -0.11341173 -0.08847498 -0.1164901 0.022121863
000260 45 09 09 bd 00 0d e9 3d 30 31 b8 bd fa 02 fb bd
       -0.033456106 0.11379433 -0.08993757 -0.12256427
000270 4c 1d bb bd ea 97 6a 3d 5e cf a0 3c 7f 5d 8f bd
       -0.09136447 0.057273783 0.01963013 -0.07000255
000280 2f db 0b 3d d5 44 4d 3e c9 e5 41 bd a5 35 80 bd
       0.034144577 0.20045789 -0.04733828 -0.06260232
000290 4c 2b 3b be c2 27 b5 bd 46 7e 14 3e 32 da d5 3d
       -0.18278235 -0.08845474 0.14501294 0.10442008
0002a0 01 c3 3b bb 3e 1f 16 be 4f 0f b2 3a 98 1c e2 3d
       -0.0028650167 -0.14660355 0.0013584885 0.1104061
0002b0 25 96 bc 3d 44 94 91 bd fe 05 39 be e1 89 ec 3d
       0.09208325 -0.071083575 -0.18068692 0.11549736
0002c0 3f 39 e2 bd ba bd e4 bd 3e 10 a8 bd aa 60 8e 3c
       -0.11046075 -0.11169 -0.08206223 0.017380077
0002d0 dc a0 29 be 1c 77 2b 3d 8a 82 1a 3e ef 40 11 be
       -0.16565269 0.04186164 0.15088859 -0.14184926
0002e0 bb 7d be 3d 5a b2 d1 3c 76 28 0e 3e 66 1a d0 bd
       0.09301325 0.02559774 0.13882622 -0.10161285
0002f0 7d 28 fe 3c 2b 8c 53 3c d7 57 97 bb e2 4f c5 3d
       0.031025166 0.012911837 -0.0046186256 0.09634377
000300 ed 96 cc bd bf 34 10 3e ed 06 99 bd c8 55 b7 bc
       -0.09989724 0.14082621 -0.07472024 -0.02237977
000310 27 c2 bd bd f3 eb 0a 3d 52 98 29 be a2 13 8b 3d
       -0.09265547 0.033916425 -0.16562012 0.06790854
000320 4d a8 e7 3c 8f d1 b9 bd 13 13 6f bd 57 93 d4 bd
       0.028278494 -0.09073173 -0.0583678 -0.10379665
000330 b7 c8 0e 3e ae 02 9e bd fd a1 09 3e 9f 7b 9b bd
       0.13943754 -0.07715355 0.134407 -0.07591938
000340 d0 88 8b 3d 3b 6c b9 3d d4 e2 7d bd ae e2 3b 3d
       0.06813204 0.090538464 -0.0619839 0.045870475
000350 27 8e e0 bd 37 51 e9 3d 6d 0e 7a 3d 4a da ca bc
       -0.109646134 0.113924436 0.061048914 -0.024762291
000360 4d 9e ec 3d 10 7b da 3c 0f e6 c7 bc 2e 00 91 bd
       0.11553631 0.026670009 -0.024401693 -0.070801124
000370 62 e6 f9 bd e5 46 1b be 06 27 d6 bc e3 0c 60 bd
       -0.12202145 -0.15163763 -0.026141655 -0.05469979
000380 5e bf c2 3d 79 d8 d8 3d e8 a6 2a 3c d3 54 80 bd
       0.09509157 0.10588164 0.01041577 -0.06266179
000390 4c ee 92 bc 3c a0 11 3e b0 50 bd 3d 38 10 2c 3e
       -0.017935894 0.14221281 0.092439055 0.16803062
0003a0 26 71 3f 3c fb 37 ca 3c da cf 27 be 1e e5 b2 3d
       0.0116846915 0.024684897 -0.16387883 0.08735107
0003b0 48 b3 f4 bd e3 8a 85 bc 9b 6d 24 3e 92 6a 17 3e
       -0.11948258 -0.016301578 0.16057436 0.14786747
0003c0 c2 f2 a0 bd ee 13 29 be 5a c9 10 3e 09 dd aa bd
       -0.078588024 -0.16511509 0.1413931 -0.0834294
0003d0 d7 4a 2c be 0e 62 02 3e f3 06 2c be 44 4b c2 3d
       -0.16825424 0.12732717 -0.16799526 0.09487012
0003e0 e0 77 cf 3d 4c eb 86 bd e1 b8 3a bd 30 00 fa bc
       0.10130286 -0.06587848 -0.04558647 -0.030517668
0003f0 d4 46 97 bc 9d b3 8e 3d 91 6b a6 bc db 44 00 3d
       -0.01846639 0.06967852 -0.020314964 0.031315666

encoder_lstm2.bias_ih_l0 f4 [128]
000000 09 7b a2 bc 9d a7 a3 bc 85 ad 90 bd 5c c1 9c 3d
       -0.019834058 -0.019977385 -0.07064346 0.07654068
000010 a3 4d d6 bd d9 4f 0b bb e7 68 ea bd f4 20 aa 3d
       -0.10464027 -0.002125731 -0.1144579 0.083070666
000020 df c7 4e bd cf 30 17 3e fa a6 ac bd f2 aa df 3d
       -0.05048358 0.14764713 -0.08430286 0.10921277
000030 64 4b b3 3d 8b ca 16 3e 09 06 e7 3d 8e e1 dc bd
       0.08754614 0.14725702 0.11280448 -0.10785209
000040 24 37 31 be 49 58 47 3d fc 2e 27 bd 24 21 c2 bd
       -0.1730619 0.04866818 -0.040816292 -0.09478977
000050 12 9c 80 bd 92 f7 58 3d 72 4a ad 3d c9 87 d9 3d
       -0.06279768 0.052970476 0.08461465 0.10621602
000060 27 94 d4 3c 81 74 a7 3d 83 c4 04 3e 4d 28 08 be
       0.02594955 0.08176518 0.12965588 -0.13296624
000070 ae 15 d9 bd 86 af 7f 3d b2 01 03 3e 96 02 33 be
       -0.10599838 0.06242325 0.12793615 -0.17481455
000080 48 cb 90 3d 82 47 9f 3d 76 b2 e4 bd 08 3b ed 3c
       0.07070023 0.07777311 -0.11166851 0.028958812
000090 e4 94 1f 3d a2 9e d1 3d 21 7b 4d 3d a3 7d 1e 3e
       0.038960353 0.10235335 0.050166253 0.15477614
0000a0 ac a0 42 3d 98 35 5a bd ba 32 29 3e b2 d9 de bd
       0.04751651 -0.053273767 0.16523257 -0.10881366
0000b0 33 60 ba bd e7 09 5b bd 89 f9 0b 3c b5 0e 79 bd
       -0.0910038 -0.05347624 0.008543381 -0.06080504
0000c0 46 80 e3 bd f0 5d b2 3b ac eb 04 3e a0 e0 5e 3c
       -0.111084506 0.005443327 0.12980527 0.013603359
0000d0 0f 0d c9 3d 2a 7e b9 3d ae cd 86 3d b5 e2 fa bd
       0.09816944 0.09057267 0.06582199 -0.12250272
0000e0 c8 cd 31 bc ca 8b 2a 3d ff 66 3b 3d 74 e4 27 bd
       -0.010852285 0.04163722 0.04575252 -0.040989354
0000f0 ea af 93 bd ec 12 d8 bd 9b c4 f9 3d ef 1b b3 3d
       -0.07211287 -0.10550484 0.12195703 0.08745562
000100 78 0a b8 3d 47 d7 01 3e 39 99 9e 3d bd 10 96 3d
       0.08986372 0.12679778 0.07744069 0.07327411
000110 5c 4a 3b be 09 6f f5 bd 78 de 19 3d 7f 48 83 bd
       -0.18290085 -0.11984069 0.03756568 -0.06410312
000120 d2 5e cb bd 5e a9 26 be 73 4c c8 3d 2a 67 f2 3a
       -0.09930195 -0.16275546 0.097802065 0.001849388
000130 08 c2 85 bc 8e a5 19 bd 02 8c a1 bd 2a 9f fa bd
       -0.016327873 -0.0375114 -0.078880325 -0.122373894
000140 1e 19 80 3b 62 0c 02 be 98 71 53 bd fc ce 1d 3d
       0.003909244 -0.12700036 -0.051622003 0.038527474
000150 24 97 5e 3c 85 df d8 bd 77 32 44 3e ec 8c 52 3d
       0.013585839 -0.10589508 0.19159876 0.051403925
000160 bc b6 eb 3d 29 77 83 bd 3d 36 e7 bd 56 14 7c bd
       0.11509463 -0.06419212 -0.11289642 -0.06154283
000170 d2 39 27 3d d4 07 68 bd 35 14 10 be ab c2 34 3d
       0.040826626 -0.05664809 -0.14070208 0.044130962
000180 7d bf 72 3d f5 84 ca bd 41 e3 d8 bb f2 98 bd 3c
       0.05926465 -0.09888641 -0.0066188877 0.02314422
000190 53 9c 1d 3c c1 f9 ae 3d 07 43 0c 3d 2d b3 8c 3d
       0.00961979 0.085437305 0.03424361 0.068701126
0001a0 d2 c0 09 be 29 e1 26 3e 61 c3 a4 bd aa 49 a7 3b
       -0.13452461 0.1629683 -0.08045078 0.005105217
0001b0 1c 0b a1 3d 14 47 a7 3d ac 38 1c be 40 57 94 3d
       0.07863447 0.08167854 -0.15255994 0.07243204
0001c0 6a 59 36 3e 0d 55 c4 3d da 87 ec 3c 7b 82 01 3e
       0.17807546 0.09586535 0.028873373 0.1264743
0001d0 45 cc 96 bd 50 ab d5 bb f7 64 20 3d 9b 2a 7c bd
       -0.0736318 -0.006520666 0.039158788 -0.06156407
0001e0 02 1f 7d bc 4a 6d 2a 3e ab c6 5a bd 62 fb 9a 3d
       -0.015449287 0.16643253 -0.05341212 0.07567479
0001f0 68 4a fa 3c f5 60 13 3e 6a 51 f5 3d e4 2a 27 bd
       0.030553058 0.14392455 0.11978419 -0.040812388

encoder_lstm2.bias_hh_l0 f4 [128]
000000 69 0d 1f 3e ab 63 16 3e b2 88 74 3d a1 56 a9 bd
       0.1553246 0.14686458 0.059700675 -0.08268476
000010 e5 63 2a 3e f7 4e a2 3d 72 95 70 bd d4 88 31 be
       0.16639669 0.079252176 -0.058736272 -0.17337352
000020 91 0c 23 3d 81 65 fb bd 57 a9 69 3c 3b 49 0c 3c
       0.039806906 -0.1227522 0.014261565 0.008562381
000030 8a 2d 77 bd d7 c7 6c bd 2f e4 9f 3d f3 cf 01 3e
       -0.060346164 -0.05780777 0.078071944 0.12676983
000040 d4 1f aa bd 58 d5 26 be 06 cc c5 bd bb fa d6 3a
       -0.08306852 -0.16292322 -0.09658055 0.0016401628
000050 b9 c5 30 3d c4 4f 33 3c 21 a9 14 bd 07 be 99 3d
       0.043157313 0.010944311 -0.036294106 0.07506948
000060 79 58 27 be b8 61 32 3e d9 00 98 3c 5b 4f 01 be
       -0.16342343 0.17420089 0.018555092 -0.12627928
000070 05 17 e4 3d f3 94 2c 3d 64 56 da 3d 60 8d 34 be
       0.11137203 0.042134237 0.10661009 -0.17632055
000080 77 0d 07 bd 0e af ea bd 50 23 0e 3e 34 80 6f 3b
       -0.032971825 -0.1145917 0.13880658 0.003654492
000090 d4 a3 1a 3d 88 50 bd bd 90 80 b9 bd e2 d6 18 be
       0.037753895 -0.09243876 -0.090577245 -0.14925721
0000a0 ee f8 cb 3c 3f b6 31 3e 5c 45 b2 bd 5f e6 3b bd
       0.024898972 0.17354678 -0.087046355 -0.045873996
0000b0 09 73 3d 3d 73 35 ea 3d e3 90 f1 3d 69 d3 f8 3d
       0.046252284 0.11435976 0.11795213 0.12149698
0000c0 43 e7 4a 3d de 76 d2 3d ff ad 56 3d f3 1d b3 3d
       0.049536955 0.10276578 0.05241203 0.08745947
0000d0 4c c1 7a bd 09 81 92 3c 66 90 09 be a3 43 06 be
       -0.0612195 0.017883794 -0.1343399 -0.13111739
0000e0 89 4a 7b bd 2b 6c b3 3d 3b 50 f5 3c 42 26 fc 3d
       -0.06135038 0.08760866 0.029945483 0.123119846
0000f0 f6 2c 10 3e 4c bb b2 bd ef f0 b6 3d 10 45 1b 3d
       0.14079651 -0.0872713 0.08932673 0.03790766
000100 61 c8 55 3d db 66 28 be b9 11 15 be 0f 95 9d 3d
       0.05219305 -0.16445486 -0.14557542 0.07694446
000110 5f a2 1d 3e 25 f0 93 bd 58 7f a2 3c 62 1a 07 3d
       0.15393971 -0.07223538 0.019836113 0.032984145
000120 44 80 4d bd a1 f8 95 bd 99 3f 4b 3e da f9 02 3e
       -0.05017115 -0.07322813 0.1984848 0.12790623
000130 a1 f1 4f bd 54 4e b4 3c b0 9c 07 3e a1 33 d3 bc
       -0.050767545 0.022010006 0.13243365 -0.025781455
000140 4b 06 7a bd 72 3b a2 bd f8 3c 08 3e d0 c4 34 3d
       -0.061041158 -0.079214945 0.13304508 0.044133008
000150 a4 08 b3 3c a1 fc ff ba b5 24 46 bc 2e 7d 29 3e
       0.021854706 -0.0019530245 -0.012093713 0.16551659
000160 9a d8 1d bd bc e9 d2 bd 0a 04 7c 3c d8 ff fc 3d
       -0.038536645 -0.102984875 0.015381822 0.12353486
000170 57 05 b5 bd c4 b7 22 bd a4 b3 ae bd 47 e0 6b bd
       -0.08838909 -0.039726034 -0.085303575 -0.057586934
000180 5a 28 bb 3d 16 6c a4 bc 9b 34 f7 3d 59 e8 28 bc
       0.09138556 -0.02007107 0.120705806 -0.010309302
000190 dd ab 02 bd 53 09 f3 bd bd f8 ca bc 00 14 da 3d
       -0.031902183 -0.11867013 -0.02477681 0.10648346
0001a0 f3 9f 9b bd 6b 12 ff bd ab 73 06 3d 95 43 f0 bc
       -0.07598867 -0.12454685 0.032825153 -0.0293291
0001b0 46 5f 2b 3d 96 03 44 3e fa f4 9e 3d cd c0 23 3d
       0.041838907 0.19141993 0.07761569 0.03997879
0001c0 63 8d 01 3e 3f 7c 9c bd a8 a1 8f 3c 49 88 80 bb
       0.12651591 -0.076408856 0.017533138 -0.0039224965
0001d0 55 42 b3 bd ad 78 90 3d 8e e4 2f 3e fb 98 b3 3d
       -0.08752886 0.07054267 0.1717703 0.08769413
0001e0 31 38 85 bc f4 9f 66 3c b4 5e c6 bd 83 5e c6 3c
       -0.016262146 0.014076222 -0.09686032 0.024214989
0001f0 1b be 22 3e e1 a1 1e 3d e9 ab 03 3e 4d 93 b1 bc
       0.15892832 0.0387286 0.12858547 -0.021676684
