backend/anomaly_models/WH005_SKU-002.pth (torch, 242563 bytes, 20 tensors)

encoder_lstm1.weight_ih_l0 f4 [256, 6]
0.113567635 -0.011087435 0.10962028 -0.04690442 -0.027007267 0.06672317 -0.0860037 0.05751224
0.104070105 0.015007101 -0.07302452 -0.0626792 0.023318453 -0.062247213 0.13559093 0.0612649
-0.028006913 0.11345421 0.09100776 -0.10737042 0.024919707 0.17424598 -0.0301004 -0.005277076
0.025225097 -0.12548196 -0.011766538 0.08136957 -0.05504693 0.03538603 0.07311487 0.06349068
-0.10649525 0.008140956 0.11140055 0.039255396 0.076776035 0.020498104 0.08223518 -0.03065477
0.035114836 -0.047376473 0.11148968 -0.075533666 0.041285723 0.046917386 0.03422046 0.09628725
-0.032629285 -0.085734956 -0.06933526 0.13229199 -0.057619117 0.01425261 0.025319755 -0.057597563
-0.08820519 0.013380725 0.0077436245 -0.00013433493 0.067825064 0.06080042 -0.009851939 0.06583933
0.09573365 0.094304286 -0.042852264 0.10612542 0.0069290837 -0.011550101 0.13526218 0.097286634
0.03983802 -0.006996594 -0.067597575 0.094011985 -0.04389115 -0.08493989 0.067918666 0.04614847
-0.008647354 0.08428173 -0.036491398 0.06888291 0.14645386 0.089665346 -0.033799965 0.09580692
0.070387796 -0.0032214057 -0.08868637 -0.102950074 0.067487046 0.009859522 0.12163916 -0.049836125
-0.038229104 0.07753098 0.165444 0.055488296 0.06431294 0.08880476 0.096944846 0.03496794
-0.023094878 0.049231343 0.10205456 0.0034381486 0.009899904 0.09451055 0.103386454 -0.04339795
-0.04662817 0.12379498 0.07868132 0.09336063 0.07039342 0.020715896 0.07798322 0.021101307
0.035715465 0.06974649 0.13286656 -0.007590496 -0.09966318 -0.0707217 0.024999313 -0.05794138
-0.009254476 -0.05089722 -0.040194828 -0.046412468 0.057720367 -0.08746922 0.07776281 0.0125893075
0.14265242 0.1217045 0.11621707 0.017405223 -0.05070429 0.078027874 0.13182613 0.070257
-0.130442 0.09356767 -0.051817622 0.07738484 -0.107428625 0.11837603 -0.00904363 -0.059926387
-0.056479868 0.14803776 0.06623608 -0.028521594 0.0032943129 0.112334065 0.072007306 0.10897092
0.044662252 -0.053521417 0.007085989 0.07447563 0.017397713 0.035797995 -0.11023624 -0.009367228
0.056208152 -0.11306566 0.08387051 0.10220766 -0.049295098 -0.098577596 -0.010624221 0.11393161
0.10742435 -0.0070741633 -0.06137001 -0.06536306 0.057071935 -0.04889381 0.1032908 0.15482002
0.007827806 0.11166179 0.08602102 0.055224814 -0.0072068926 0.008216159 0.11031513 -0.09515284
0.025253309 0.0200158 0.05400156 0.047464773 0.12631737 0.038217776 0.05577052 -0.08691028
0.047489535 0.028721806 0.10811774 0.017602595 -0.033413317 -0.1283727 0.13204959 -0.045657042
0.069695316 0.13027184 0.10548856 -0.040886767 0.06166294 -0.06091537 -0.072094955 0.049511533
-0.06612624 -0.00681883 -0.0426627 -0.07531121 0.10861701 -0.003356914 -0.05011117 0.10598315
0.07352858 0.0657049 -0.09336819 0.050066646 0.04782534 -0.04993604 -0.009276975 0.03674137
-0.074231535 -0.06260555 0.061324053 -0.009962119 -0.0617743 -0.044451874 0.0005270542 0.09925148
0.034361675 0.06740495 0.1885409 0.032456826 0.09832451 0.093666166 -0.059002813 0.07900902
0.17062548 0.023959521 0.0009650439 0.1141793 -0.046844795 0.10081568 0.08526621 -0.06405138
00000000: 2696 e83d 13a8 35bc 9980 e03d d91e 40bd
00000010: 583e ddbc 28a6 883d b522 b0bd f491 6b3d
00000020: b522 d53d 58e0 753c e18d 95bd f45d 80bd
00000030: 5706 bf3c eff6 7ebd 59d8 0a3e e7f0 7a3d
00000040: c16e e5bc ae5a e83d 4762 ba3d 06e5 dbbd
00000050: 6a24 cc3c 8a6d 323e 1d95 f6bc 52eb acbb
00000060: dda4 ce3c 587e 00be 70c8 40bc 17a5 a63d
00000070: e478 61bd f1f0 103d 40bd 953d 6707 823d
00000080: 2e1a dabd a561 053c f925 e43d 44ca 203d
00000090: c13c 9d3d a4eb a73c eb6a a83d b61f fbbc
000000a0: 93d4 0f3d d50d 42bd b454 e43d 65b1 9abd
000000b0: 381b 293d 722c 403d c12a 0c3d 4032 c53d
000000c0: 49a6 05bd cf95 afbd a5ff 8dbd 8d77 073e
000000d0: 0602 6cbd c783 693c 606b cf3c 6ceb 6bbd
000000e0: eca4 b4bd d43a 5b3c 3bbe fd3b 42dc 0cb9
000000f0: dee7 8a3d dc09 793d 076a 21bc c5d6 863d
00000100: 0110 c43d 9b22 c13d db85 2fbd 4958 d93d
00000110: 5e0d e33b a33c 3dbc 2b82 0a3e 373e c73d
00000120: 312d 233d af43 e5bb 9970 8abd 5b89 c03d
00000130: 35c7 33bd f7f4 adbd f118 8b3d 2e06 3d3d
00000140: a2ad 0dbc e69b ac3d 0178 15bd 7c12 8d3d
00000150: 00f8 153e 77a2 b73d d571 0abd 6b36 c43d
00000160: 7a27 903d 381e 53bb 33a1 b5bd 7dd7 d2bd
00000170: a636 8a3d d589 213c f41d f93d f720 4cbd
00000180: 1f96 1cbd 90c8 9e3d 276a 293e b247 633d
00000190: 81b6 833d 45df b53d 058b c63d 8b3a 0f3d
000001a0: 7831 bdbc cea6 493d fb01 d13d 9052 613b
000001b0: 3533 223c bf8e c13d 47bc d33d 0cc2 31bd
000001c0: 2efd 3ebd 3988 fd3d ac23 a13d dc33 bf3d
000001d0: 6d2a 903d 62b4 a93c abb5 9f3d a6dc ac3c
000001e0: 614a 123d 3fd7 8e3d 2c0e 083e b2b9 f8bb
000001f0: 361c ccbd 8ad6 90bd 5ccb cc3c f153 6dbd
00000200: 16a0 17bc 9a79 50bd 55a3 24bd 001b 3ebd
00000210: 316c 6c3d 1023 b3bd 1c42 9f3d 6243 4e3c
00000220: 7a13 123e 3540 f93d 3703 ee3d 6695 8e3c
00000230: 4daf 4fbd 14cd 9f3d 6efd 063e e7e2 8f3d
00000240: 9692 05be 68a0 bf3d b73e 54bd f17b 9e3d
00000250: 8a03 dcbd 226f f23d bc2b 14bc 5f75 75bd
00000260: 6f57 67bd 3697 173e c8a6 873d 1ea6 e9bc
00000270: 66e5 573b 670f e63d 9178 933d 252c df3d
00000280: c4ef 363d 4639 5bbd 9631 e83b ae86 983d
00000290: a685 8e3c eba0 123d 8ac3 e1bd 0079 19bc
000002a0: 853a 663d f88e e7bd 4dc4 ab3d 4052 d13d
000002b0: a8e9 49bd 0de3 c9bd 3611 2ebc fa54 e93d
000002c0: 4c01 dc3d 62ce e7bb 1f5f 7bbd 11dd 85bd
000002d0: 43c4 693d e044 48bd 208a d33d 2489 1e3e
000002e0: 3340 003c f0ae e43d ca2b b03d 6a33 623d
000002f0: cc27 ecbb 129d 063c e6ec e13d 7edf c2bd
00000300: 07e0 ce3c 2df8 a33c bd30 5d3d 6c6a 423d
00000310: 5759 013e 3e8a 1c3d a16f 643d 04fe b1bd
00000320: 6384 423d fe49 eb3c d56c dd3d 5133 903c
00000330: 67dc 08bd 2274 03be 0238 073e e102 3bbd
00000340: 6bbc 8e3d fb65 053e 630a d83d e278 27bd
00000350: 4792 7c3d 6582 79bd 85a6 93bd 9bcc 4a3d
00000360: 326d 87bd 7e70 dfbb 15bf 2ebd c33c 9abd
00000370: 9872 de3d acff 5bbb 5f41 4dbd b20d d93d
00000380: 2796 963d 4a90 863d d237 bfbd af12 4d3d
00000390: 81e4 433d bc89 4cbd 74fe 17bc 1e7e 163d
000003a0: b406 98bd 5737 80bd ee2e 7b3d 2838 23bc
000003b0: 0c07 7dbd 2b13 36bd 022a 0a3a 5c44 cb3d
000003c0: d4be 0c3d 9b0b 8a3d de10 413e 73f1 043d
000003d0: 5c5e c93d 0cd4 bf3d efac 71bd 7bcf a13d
000003e0: 72b8 2e3e c246 c43c 00fb 7c3a d6d6 e93d
000003f0: 54e0 3fbd 7478 ce3d 0da0 ae3d 5f2d 83bd

encoder_lstm1.weight_hh_l0 f4 [256, 64]
0.08400308 -0.005970187 0.029700484 -0.08794129 -0.102805875 -0.110952936 -0.129125 -0.027631199
0.05921296 -0.015390703 0.029202666 0.012645176 -0.020839784 0.0027557027 0.043079443 0.10410127
-0.11798722 -0.0377679 0.027010323 0.074978426 -0.0038328348 0.07624334 -0.04226926 0.07688983
0.05276602 -0.0040567406 -0.0880172 0.09613509 0.045127034 0.012333674 -0.09153607 0.0023113703
0.09875349 0.0733078 -0.0064355317 0.08935861 -0.12871568 0.010835738 0.08312156 -0.09151239
0.05856174 0.057678737 0.009721603 -0.13657556 -0.10016752 0.13711165 0.11207542 -0.09867846
-0.1224622 0.062594965 0.08905291 0.0047994475 0.09860093 -0.031729843 0.012764304 -0.04659241
0.10929899 0.02013255 -0.015042621 0.0326775 -0.03509565 0.04467505 -0.15744299 -0.10947445
-0.07360947 0.085721076 -0.0078006187 -0.100879885 -0.11101634 0.005645774 0.07028822 0.06971111
0.044124518 -0.0518066 -0.043634836 -0.14161953 0.08989586 -0.08243586 0.0007620048 0.08927419
0.04678862 0.076933175 0.06796499 -0.044557225 0.0102318395 0.10194181 -0.032895442 0.08870277
-0.12482601 0.0119484095 -0.018364554 -0.04731563 0.063281596 0.047386646 0.0009177245 -0.07548658
0.04360711 -0.11746376 0.099730656 0.0077531403 -0.12728189 -0.112127304 -0.1364198 0.032767087
0.15146941 -0.16902111 0.012768941 -0.058919933 -0.12856577 0.03765259 0.03188476 0.08968099
0.0361106 0.060065363 -0.12319002 -0.057756137 -0.010194184 -0.10045648 -0.100548305 -0.029481215
-0.039771788 0.08297289 -0.037996154 0.056820255 -0.0826322 0.0780497 -0.007899799 -0.15960799
0.098990425 0.014134393 0.08699006 -0.16299103 -0.02410495 -0.038310345 -0.009658666 0.13242981
-0.11498901 -0.053889856 0.095338315 -0.024970338 0.1318128 0.019241884 -0.08069386 0.14219515
-0.12069679 0.03779085 0.0547007 -0.1412096 -0.04141774 -0.035748806 0.058274884 0.044289984
0.018161891 0.02531413 -0.09029622 -0.08780498 0.058863368 -0.024483126 -0.025073927 0.11915622
0.10510512 -0.05094154 0.02975919 -0.07531629 -0.087208554 -0.06600544 -0.022742016 -0.11362336
0.07481466 0.007273416 -0.048249707 -0.13743928 -0.14027922 0.04065094 0.0383955 0.07821259
-0.016016915 -0.15476851 -0.024882201 0.02994112 -0.0584881 0.043396506 -0.0625274 0.0038037172
0.15782519 -0.020056186 -0.08959456 0.03588848 0.041719977 0.036963023 -0.14925805 -0.057739012
-0.12513244 0.016997103 0.022629414 -0.11198892 -0.049136583 0.068240836 0.024086995 0.053936314
-0.11240856 -0.05018292 0.122943595 -0.061746307 0.11685207 0.00074226956 -0.15918176 -0.0930732
0.08676291 0.0047618593 -0.13260663 -0.13722785 -0.04831146 0.09927626 0.10040467 -0.059137244
0.108961694 0.034348067 -0.034982387 -0.02772779 -0.022090534 -0.1054817 -0.13326418 0.055906247
-0.013111972 0.00352982 0.13500734 0.040421728 0.09533392 -0.10450336 -0.053986467 0.109017216
0.054488316 -0.054575574 0.10768329 -0.10500168 -0.009790595 -0.011771276 0.03174341 -0.049795017
0.010512473 -0.058265653 -0.09940915 0.11831118 0.016317055 0.00070572755 -0.03844473 -0.048877154
-0.041089687 -0.11036057 -0.028517459 0.094925955 0.09906648 0.03121242 -0.06429064 0.08617536
00000000: cf09 ac3d 8fa1 c3bb 6e4e f33c 901a b4bd
00000010: e38b d2bd 4b3b e3bd 5839 04be d35a e2bc
00000020: 4a89 723d 4a29 7cbc 6e3a ef3c b62d 4f3c
00000030: 32b8 aabc 0599 343b 1274 303d 0c33 d53d
00000040: 49a3 f1bd 83b2 1abd c144 dd3c 4a8e 993d
00000050: 4c30 7bbb 7825 9c3d 8822 2dbd 6a78 9d3d
00000060: 2f21 583d 68ee 84bb 5d42 b4bd 79e2 c43d
00000070: 20d7 383d 2e13 4a3c 4377 bbbd 5c7a 173b
00000080: 453f ca3d 6622 963d 27e1 d2bb a601 b73d
00000090: 0bce 03be 6188 313c a33b aa3d d96a bbbd
000000a0: 6fde 6f3d 8a40 6c3d 5c47 1f3c 77da 0bbe
000000b0: a124 cdbd ff66 0c3e cc87 e53d ef17 cabd
000000c0: 76cd fabd ca31 803d 5f61 b63d af44 9d3b
000000d0: 49ef c93d 27f7 01bd 5f21 513c afd7 3ebd
000000e0: 26d8 df3d 04ed a43c 5375 76bc d8d8 053d
000000f0: 75c0 0fbd 2ffd 363d bc38 21be 2434 e0bd
00000100: 90c0 96bd 888e af3d 559c ffbb 1d9a cebd
00000110: 895c e3bd 2f00 b93b 45f3 8f3d b3c4 8e3d
00000120: e9bb 343d 2833 54bd 71ba 32bd b604 11be
00000130: 521b b83d 22d4 a8bd 47c1 473a 63d5 b63d
00000140: 6da5 3f3d 248f 9d3d 3b31 8b3d a381 36bd
00000150: 72a3 273c dec6 d03d 5fbd 06bd cca9 b53d
00000160: c7a4 ffbd 43c3 433c 4371 96bc 09ce 41bd
00000170: c899 813d 8018 423d 7393 703a b598 9abd
00000180: 5e9d 323d d790 f0bd 963f cc3d 0e0e fe3b
00000190: 2f56 02be 00a3 e5bd a2b1 0bbe c836 063d
000001a0: cc1a 1b3e df13 2dbe d234 513c 0756 71bd
000001b0: bfa6 03be 9a39 1a3d 9899 023d abaa b73d
000001c0: b5e8 133d 1907 763d 0d4b fcbd b391 6cbd
000001d0: 8205 27bc 21bc cdbd 45ec cdbd 9782 f1bc
000001e0: bee7 22bd b1ed a93d dba1 1bbd 5bbc 683d
000001f0: 123b a9bd 85d8 9f3d 296e 01bc 4770 23be
00000200: 7ebb ca3d f193 673c d827 b23d 1fe7 26be
00000210: be77 c5bc 4feb 1cbd 623f 1ebc ae9b 073e
00000220: 5c7f ebbd 9cbb 5cbd bc40 c33d 988e ccbc
00000230: eff9 063e 28a1 9d3c d342 a5bd 9b9b 113e
00000240: e12f f7bd 94ca 1a3d d70d 603d 4099 10be
00000250: a6a5 29bd 576d 12bd a5b1 6e3d 6a69 353d
00000260: 3fc8 943c 945f cf3c 39ed b8bd 19d3 b3bd
00000270: b71a 713d d690 c8bc d667 cdbc 2d08 f43d
00000280: 5a41 d73d 14a8 50bd 8bc9 f33c 6d3f 9abd
00000290: 669a b2bd dc2d 87bd 774d babc 5db3 e8bd
000002a0: 6e38 993d d655 ee3b 7ca1 45bd e2bc 0cbe
000002b0: 5ba5 0fbe 9a81 263d 9a44 1d3d ec2d a03d
000002c0: e835 83bc a37b 1ebe c2d5 cbbc 1447 f53c
000002d0: 3891 6fbd 89c0 313d 5e0e 80bd c947 793b
000002e0: ed9c 213e df4c a4bc 5a7d b7bd ccff 123d
000002f0: 91e2 2a3d 8a66 173d 1ad7 18be be7f 6cbd
00000300: b822 00be 823d 8b3c 5261 b93c 725a e5bd
00000310: 7143 49bd dac1 8b3d 1752 c53c 53ec 5c3d
00000320: 7636 e6bd 9b8c 4dbd dac9 fb3d b2e9 7cbd
00000330: 2350 ef3d de94 423a 8b00 23be 299d bebd
00000340: c1b0 b13d 5f09 9c3b 08ca 07be 7585 0cbe
00000350: 3de2 45bd 5a51 cb3d f7a0 cd3d e539 72bd
00000360: 4f27 df3d 8fb0 0c3d b149 0fbd 6425 e3bc
00000370: 35f7 b4bc ca06 d8bd 6876 08be f3fd 643d
00000380: 99d3 56bc 8d54 673b 5d3f 0a3e 4191 253d
00000390: 6e3e c33d dc05 d6bd ea20 5dbd 6b44 df3d
000003a0: 242f 5f3d a38a 5fbd 0f89 dc3d 1f0b d7bd
000003b0: bb68 20bc 4fdc 40bc 6105 023d dcf5 4bbd
000003c0: 823c 2c3c f7a7 6ebd 0697 cbbd 224d f23d
000003d0: 58ab 853c 9300 393a 3978 1dbd 6933 48bd
000003e0: a94d 28bd b904 e2bd 729d e9bc 8a68 c23d
000003f0: 5ee3 ca3d 30b1 ff3c d0aa 83bd b57c b03d

encoder_lstm1.bias_ih_l0 f4 [256]
0.082892664 0.06646858 0.08526322 0.03874071 -0.049623042 -0.017801946 0.07428243 -0.117216244
0.057693224 0.014693409 0.09757172 0.014014182 -0.059954986 0.074262165 -0.06360433 0.072844826
0.0017916717 0.0995288 -0.049761392 0.061282262 -0.06551548 0.08042172 0.008907267 0.0328413
-0.082546644 0.10619116 -0.05423923 -0.10026077 -0.044869836 -0.08206518 0.1039852 -0.011948029
-0.018831551 -0.020041993 -0.10652754 0.0684015 -0.07885381 -0.10012108 0.12758799 -0.050639734
0.0033050615 0.093821816 0.033916365 -0.12043324 0.100734785 -0.017381184 0.027665185 0.099043325
0.02708336 0.09340213 0.0672065 -0.0426658 0.017773096 0.1348828 -0.051020633 0.10588724
-0.06216757 -0.023717398 -0.07680451 0.07251804 0.07884491 -0.039785698 0.011226054 0.07466772
-0.018089531 0.061338674 -0.008314848 -0.07872008 -0.12454684 -0.058663044 0.07846018 0.10587866
0.10955869 0.05072322 -0.0057384595 0.015744068 0.10876579 0.083594576 0.013288015 -0.059881948
-0.089078024 0.11792545 0.02939261 0.104034886 0.07815768 -0.054765698 -0.023514498 -0.016327132
0.07780386 -0.10259311 0.044465426 0.033441417 -0.0026850707 0.11993157 0.036874857 0.084905446
0.091558024 -0.029400615 -0.08318843 0.11776367 -0.0034453592 0.091936715 0.13927917 -0.11334524
0.1276462 -0.04728657 -0.052796323 0.1229121 0.097507864 -0.032214247 0.0032878704 0.11500119
-0.13043387 0.13670069 -0.09266919 0.011616473 0.019967627 -0.04417015 0.03523768 -0.030371785
-0.044946525 0.06673641 0.06202798 -0.04744194 0.055186592 0.029146148 0.114277035 -0.014740728
-0.11129504 -0.0853399 0.065485515 0.1213728 -0.057350717 0.06178582 0.08283497 0.03472471
-0.047592413 -0.06464093 -0.10043907 0.043406036 -0.052916173 0.021823155 -0.04156164 0.12356107
0.07098068 -0.10654635 0.12159529 0.060280506 0.06667708 -0.071798965 0.030694578 -0.0206807
0.020382496 0.048765738 0.057029344 0.0793314 -0.1154087 -0.07816682 -0.063131794 0.07823873
-0.065657 -0.10607917 0.10493601 0.114786 -0.0062860027 0.060598426 0.119518735 -0.07269991
0.02324633 0.022686832 -0.10205112 -0.060175017 0.0062892344 0.03613593 -0.10051193 -0.09783854
-0.065476194 -0.04386169 -0.103214 0.03136354 0.016264202 0.105937496 0.06968844 -0.13346286
0.023022816 -0.012082223 -0.06394958 -0.13391885 0.042770043 -0.02979622 -0.11888378 -0.039801527
0.10957336 0.09698804 -0.010199302 0.037537772 0.025323756 -0.09193407 0.10390818 0.07114022
0.05507516 -0.058287013 -0.020473942 -0.06517471 0.058238555 0.01537889 0.12530671 0.026057431
-0.044728763 -0.05116379 0.05046671 -0.017516334 -0.0058551324 0.114427984 -0.085966945 -0.011676609
-0.03175556 0.067247346 -0.069423735 -0.059874434 -0.1105608 0.0978411 -0.02647876 -0.07193076
-0.09955154 0.029069634 0.08435576 -0.026386512 -0.12198194 -0.063501485 -0.025486577 0.034136232
-0.024029305 0.15506446 0.027761089 0.07878077 -0.056836125 -0.051267058 0.09972636 0.050646495
-0.10530735 0.06885172 -0.019422628 0.16182067 0.08282427 0.005153639 0.0017627215 0.010451103
0.14230484 0.059252504 0.091714844 0.07582569 -0.09896882 -0.06609496 -0.016841857 -0.012610181
00000000: a1c3 a93d ae20 883d 7c9e ae3d 94ae 1e3d
00000010: 8841 4bbd 63d5 91bc 6321 983d 120f f0bd
00000020: bb4f 6c3d a0bc 703c afd3 c73d bd9b 653c
00000030: 5c93 75bd c316 983d fd42 82bd ab2f 953d
00000040: 87d6 ea3a c1d5 cb3d 9ad2 4bbd 1c03 7b3d
00000050: fb2c 86bd 25b4 a43d c9ef 113c 9984 063d
00000060: 370e a9bd c07a d93d f429 5ebd 8555 cdbd
00000070: 6fc9 37bd ca11 a8bd 31f6 d43d aac1 43bc
00000080: a044 9abc 1b2f a4bc 1c2b dabd 1616 8c3d
00000090: 1b7e a1bd 480c cdbd 6da6 023e 9c6b 4fbd
000000a0: bb99 583b a725 c03d e3eb 0a3d b4a5 f6bd
000000b0: 0a4e ce3d fc62 8ebc 19a2 e23c 3ad7 ca3d
000000c0: ecdd dd3c 9e49 bf3d 90a3 893d 55c2 2ebd
000000d0: e298 913c b71e 0a3e 03fb 50bd 69db d83d
000000e0: 6ca3 7ebd fd4a c2bc af4b 9dbd 5784 943d
000000f0: 7179 a13d 54f6 22bd 7ced 373c 64eb 983d
00000100: 7f30 94bc 433e 7b3d 003b 08bc fe37 a1bd
00000110: 6a12 ffbd a948 70bd bbaf a03d e9d6 d83d
00000120: 4e60 e03d 27c3 4f3d b009 bcbb b4f9 803c
00000130: 99c0 de3d a233 ab3d f9b5 593c c646 75bd
00000140: 8a6e b6bd e682 f13d c5c8 f03c 3e10 d53d
00000150: 2211 a03d ff51 60bd 7aa1 c0bc 7ac0 85bc
00000160: a157 9f3d 561c d2bd 6121 363d def9 083d
00000170: 03f8 2fbb af9e f53d 170a 173d e8e2 ad3d
00000180: c682 bb3d 8fd9 f0bc b25e aabd 142e f13d
00000190: 89cb 61bb 5149 bc3d 339f 0e3e 8d21 e8bd
000001a0: afb5 023e 90af 41bd f540 58bd 57b9 fb3d
000001b0: 34b2 c73d 16f3 03bd 5079 573b be85 eb3d
000001c0: 7590 05be 44fb 0b3e 58c9 bdbd 0553 3e3c
000001d0: 2693 a33c c2eb 34bd 6355 103d 40ce f8bc
000001e0: d919 38bd 19ad 883d 0d11 7e3d 7b52 42bd
000001f0: 560b 623d e7c3 ee3c 140a ea3d 1883 71bc
00000200: a7ee e3bd afc6 aebd 451d 863d 4d92 f83d
00000210: 96e8 6abd 2113 7d3d 61a5 a93d 7f3b 0e3d
00000220: 43f0 42bd 7762 84bd 00b3 cdbd 87ca 313d
00000230: a1be 58bd 79c6 b23c 8a3c 2abd 960d fd3d
00000240: 525e 913d f934 dabd f406 f93d b1e8 763d
00000250: fe8d 883d 560b 93bd 3273 fb3c 926a a9bc
00000260: 31f9 a63c 95be 473d 9a97 693d 8078 a23d
00000270: 665b ecbd ed15 a0bd 3e4b 81bd a13b a03d
00000280: 2d77 86bd 0940 d9bd b1e8 d63d ec14 eb3d
00000290: d0fa cdbb 0e36 783d 3dc6 f43d b1e3 94bd
000002a0: 166f be3c bcd9 b93c 2d00 d1bd 147a 76bd
000002b0: ec15 ce3b 4503 143d 33d9 cdbd 935f c8bd
000002c0: 6218 86bd 51a8 33bd dd61 d3bd 0e77 003d
000002d0: 813c 853c c2f5 d83d d0b8 8e3d 7daa 08be
000002e0: 589a bc3c 84f4 45bc fff7 82bd 0622 09be
000002f0: a42f 2f3d 3417 f4bc 5779 f3bd ed06 23bd
00000300: ff67 e03d aaa1 c63d f91a 27bc 35c1 193d
00000310: c473 cf3c ee47 bcbd d0cd d43d f7b1 913d
00000320: 7e96 613d 5dbe 6ebd f8b8 a7bc 517a 85bd
00000330: 8d8b 6e3d bdf7 7b3c 6750 003e 6576 d53c
00000340: 8235 37bd 1f91 51bd 2eb6 4e3d 6a7e 8fbc
00000350: 69dc bfbb 3859 ea3d 700f b0bd 3f4f 3fbc
00000360: 1e12 02bd fab8 893d 082e 8ebd e53e 75bd
00000370: b36d e2bd ea60 c83d fce9 d8bc 6f50 93bd
00000380: aee1 cbbd 7123 ee3c b6c2 ac3d 8728 d8bc
00000390: abd1 f9bd 110d 82bd 3ac9 d0bc 6fd2 0b3d
000003a0: 1bd9 c4bc 38c9 1e3e 396b e33c d057 a13d
000003b0: ffcc 68bd 68fd 51bd 553d cc3d b372 4f3d
000003c0: 61ab d7bd 2102 8d3d 341c 9fbc 51b4 253e
000003d0: c59f a93d dbdf a83b 1e0b e73a 1a3b 2b3c
000003e0: 5cb8 113e c1b2 723d fed4 bb3d 804a 9b3d
000003f0: 2ab0 cabd cb5c 87bd eff7 89bc ef9a 4ebc

encoder_lstm1.bias_hh_l0 f4 [256]
0.0338469 -0.13260208 0.019807152 -0.053323463 0.06019838 0.0115864035 -0.057665758 0.09267302
-0.12404977 -0.085653365 -0.12539531 -0.045376923 0.13365823 -0.009323147 0.07057407 -0.089255534
0.046147842 -0.06248626 -0.045130186 0.024367249 -0.018847829 -0.037701983 -0.053098533 -0.0064560506
0.08926024 -0.051386125 0.08822741 -0.053524066 0.083779864 -0.07563907 0.13637497 0.09195248
0.11512458 0.0026246463 0.058295492 -0.07995256 -0.07644711 0.10752136 0.1250306 0.022971723
0.0073754466 0.17027737 0.072772205 0.0039786696 0.03583393 0.13152917 0.091359004 0.08698356
-0.01569784 -0.00556019 0.0020108903 -0.01603182 -0.11751404 0.06555066 -0.03446196 -0.05266564
0.14322284 -0.04647072 0.017110595 0.03511183 0.05446874 -0.07230492 -0.04466695 0.12154243
0.009307119 -0.09280233 0.040904507 -0.10562523 -0.12030473 -0.11229598 -0.016063789 -0.031005615
0.003575534 -0.10261916 -0.081257455 -0.045313917 0.03490159 -0.1098602 0.121328525 0.13239715
-0.076905 0.10663473 0.108613715 -0.0443974 0.114215896 -0.01750856 -0.022718746 -0.05364722
-0.07981346 -0.06924017 -0.07038741 0.062533446 -0.049876537 -0.018343942 0.032818925 -0.042776626
-0.011806269 0.08240214 0.116312414 -0.07929862 -0.015430126 0.05856686 -0.03717153 0.10119557
-0.015419242 0.021228885 0.099983476 -0.07715538 0.07356693 0.0056375884 0.035834827 -0.015189018
0.06932883 0.13324802 0.09546454 0.05639536 -0.12660646 -0.041550364 -0.05595214 -0.079023466
0.13977878 0.020050514 -0.102535516 -0.06706325 0.06914669 -0.038628347 0.076840214 0.07881243
-0.018074416 -0.030350132 0.1062268 -0.08260345 -0.07237644 -0.0069386754 -0.049133297 0.110363975
-0.032686744 -0.03674495 0.06052465 -0.016529698 0.0026897208 0.059203483 0.10441589 0.019471636
-0.013726334 0.113256045 0.0034411654 -0.053698707 -0.06592143 -0.046008196 0.0015068257 0.06640005
0.11625475 0.067240514 -0.04823658 0.040758282 0.036807287 0.11897231 0.12606962 -0.10346974
0.10885064 -0.10389474 -0.036118913 0.07031676 0.07920679 -0.006180423 -0.04869104 0.02991004
-0.045103025 0.030864377 0.10576043 -0.06594167 -0.10843381 -0.12144978 0.11438779 0.044041153
-0.016755609 0.092544906 -0.028517213 -0.11939717 -0.017287157 -0.11070879 -0.0733907 -0.11192974
-0.043820467 0.026840419 0.026371093 -0.13641499 0.015429117 -0.052335367 -0.0067356667 0.05746464
0.08093765 -0.094304115 -0.03900658 0.054562118 0.030517485 0.09686048 -0.09651865 -0.020791039
-0.0946809 0.103909604 -0.12070846 0.04633927 -0.09274327 -0.020866305 -0.00039671693 -0.043276828
0.027944855 0.017599242 -0.010357928 0.16355437 -0.04892613 -0.0037879888 -0.04243526 -0.03794646
0.016134417 -0.111833975 -0.0793009 0.016529892 0.020657478 0.11357871 0.117431976 0.12457309
-0.024556024 -0.018983848 0.103804275 -0.09241448 0.0910921 0.14744046 -0.022600675 0.01172138
-0.072859436 0.11837024 0.07762332 0.020300105 0.044637825 0.07703388 -0.09993941 -0.008204345
-0.15609246 0.113699 0.07815287 0.035667703 -0.011597388 0.04571855 0.075758256 0.0144978445
0.17411143 -0.07634701 -0.04389741 0.100795016 0.0128784785 0.12303159 0.01320044 0.019428283
00000000: 0ca3 0a3d d7c8 07be 9c42 a23c b469 5abd
00000010: 9492 763d e6d4 3d3c ee32 6cbd 5acb bd3d
00000020: ce0d febd 086b afbd a167 00be 27dd 39bd
00000030: b4dd 083e 1dc0 18bc 2389 903d 9bcb b6bd
00000040: 8505 3d3d 98f1 7fbd 6eda 38bd d39d c73c
00000050: c366 9abc 656d 1abd d97d 59bd 478d d3bb
00000060: 13ce b63d 427a 52bd 93b0 b43d 0d3c 5bbd
00000070: c794 ab3d a8e8 9abd e1a5 0b3e 9551 bc3d
00000080: 70c6 eb3d 4202 2c3b 41c7 6e3d 2bbe a3bd
00000090: 4d90 9cbd 2934 dc3d 0608 003e 322f bc3c
000000a0: bbad f13b 315d 2e3e 9809 953d 805f 823b
000000b0: 99c6 123d 95af 063e 6e1a bb3d 7024 b23d
000000c0: c298 80bc 4132 b6bb 24c9 033b 2a55 83bc
000000d0: 33ab f0bd 6d3f 863d fc27 0dbd edb7 57bd
000000e0: 02a9 123e 1558 3ebd 852b 8c3c 6cd1 0f3d
000000f0: 9d1a 5f3d 9a14 94bd b1f4 36bd 3deb f83d
00000100: e37c 183c 260f bebd 7c8b 273d 0a52 d8bd
00000110: 5462 f6bd 6ffb e5bd 3598 83bc 7dff fdbc
00000120: 8253 6a3b ff29 d2bd 4f6a a6bd 169b 39bd
00000130: f8f4 0e3d 62fe e0bd 177b f83d 1e93 073e
00000140: 5e80 9dbd 4f63 da3d de70 de3d 0cda 35bd
00000150: 06ea e93d 1d6e 8fbc aa1c babc 30bd 5bbd
00000160: 3d75 a3bd cacd 8dbd 4627 90bd 8911 803d
00000170: 574b 4cbd 0946 96bc 236d 063d 8b36 2fbd
00000180: 156f 41bc 74c2 a83d 3435 ee3d 5167 a2bd
00000190: a4ce 7cbc cee3 6f3d 2d41 18bd 9f3f cf3d
000001a0: fda0 7cbc 33e8 ad3c 23c4 cc3d a403 9ebd
000001b0: 42aa 963d 85bb b83b 8ac7 123d 5cdb 78bc
000001c0: 46fc 8d3d 2b72 083e ea82 c33d d2fe 663d
000001d0: 20a5 01be b730 2abd 122e 65bd 0ed7 a1bd
000001e0: 2b22 0f3e fa40 a43c 24fe d1bd 7558 89bd
000001f0: c89c 8d3d c238 1ebd 675e 9d3d 6968 a13d
00000200: cc10 94bc d7a0 f8bc 708d d93d ff2b a9bd
00000210: 193a 94bd d45d e3bb ff3f 49bd 8206 e23d
00000220: 89e2 05bd df81 16bd b2e8 773d 4a69 87bc
00000230: 0746 303b 5a7f 723d 00d8 d53d fb82 9f3c
00000240: 6be4 60bc c9f2 e73d 2d85 613b 2df3 5bbd
00000250: d101 87bd 1773 3cbd ae80 c53a c0fc 873d
00000260: f816 ee3d 65b5 893d b893 45bd 28f2 263d
00000270: 3dc3 163d c1a7 f33d 6518 013e f1e7 d3bd
00000280: 16ed de3d c4c6 d4bd 6df1 13bd 3c02 903d
00000290: 2b37 a23d 2585 cabb 4270 47bd e605 f53c
000002a0: f3bd 38bd 4ad7 fc3c ed98 d83d 6d0c 87bd
000002b0: 8c12 debd aaba f8bd 2544 ea3d 7f64 343d
000002c0: 0f43 89bc 2f88 bd3d ee9c e9bc 8186 f4bd
000002d0: cc9d 8dbc 4abb e2bd dd4d 96bd 6b3b e5bd
000002e0: 177d 33bd 70e0 db3c 3108 d83c 5fb0 0bbe
000002f0: 68ca 7c3c 9c5d 56bd deb6 dcbb 0b60 6b3d
00000300: a3c2 a53d 8422 c1bd 5dc5 1fbd 877c 5f3d
00000310: ceff f93c ca5e c63d 92ab c5bd f851 aabc
00000320: 0fe8 c1bd 8fce d43d ff35 f7bd 3fce 3d3d
00000330: 2ff0 bdbd d0ef aabc 72fe cfb9 0b43 31bd
00000340: 9cec e43c 492c 903c 4db4 29bc cc7a 273e
00000350: c466 48bd e83f 78bb 98d0 2dbd bf6d 1bbd
00000360: 532c 843c 3609 e5bd 8368 a2bd b269 873c
00000370: df39 a93c f49b e83d 2d80 f03d 2d20 ff3d
00000380: b729 c9bc 0484 9bbc 5697 d43d ce43 bdbd
00000390: 7f8e ba3d a2fa 163e 0d25 b9bc 080b 403c
000003a0: 5437 95bd 196c f23d faf8 9e3d 684c a63c
000003b0: 27d6 363d f0c3 9d3d 09ad ccbd 846b 06bc
000003c0: b4d6 1fbe 05db e83d 9d0e a03d 4c18 123d
000003d0: f902 3ebc 6043 3b3d 2527 9b3d 5e88 6d3c
000003e0: 444a 323e d25b 9cbd c5cd 33bd 9e6d ce3d
000003f0: 4100 533c fcf7 fb3d a946 583c 1028 9f3c

encoder_lstm2.weight_ih_l0 f4 [128, 64]
0.09808858 0.10453894 0.15196562 0.013918129 -0.09512981 0.05072835 -0.052681014 -0.05472729
0.019184493 -0.062052667 0.086864546 0.113181606 0.10059131 0.044558294 -0.14221598 -0.011562608
-0.07858266 0.013647504 -0.01370902 -0.01833906 0.02502753 -0.09030815 0.12150347 0.03622944
0.14839548 0.15499763 -0.014965491 -0.067639954 0.04942088 -0.0059200944 -0.13423908 -0.16704541
0.04791443 0.035551727 0.12056811 -0.11521487 0.1124768 0.034123357 -0.15974726 -0.11479744
-0.09634336 -0.109391205 -0.1646773 0.0064921523 -0.14879571 0.06570641 0.0021344263 0.11202136
0.10585431 -0.15851831 -0.11448108 -0.065379396 0.04191317 0.08597621 0.16107239 -0.088770986
-0.13237882 0.09890659 0.15996806 0.17412974 -0.16503732 -0.00844329 -0.18199322 -0.15230414
-0.06944234 0.05677316 -0.13831376 -0.21051493 0.015373823 -0.07954716 -0.035419725 0.14285459
0.09891386 0.103919275 -0.0143687045 0.0011930193 0.21502899 -0.14044453 0.08178317 0.15399344
0.117582574 -0.045375768 -0.050593823 -0.10592344 0.16213728 -0.19003028 0.21802473 -0.017830208
0.16517167 -0.043802187 0.047107045 -0.070946746 -0.04964992 -0.0685442 0.03251082 -0.09682674
0.08389084 0.047871932 -0.026534906 0.05419829 -0.06404436 -0.15126202 0.025251625 0.014045161
-0.121012084 0.02669715 -0.15076274 -0.0036713374 -0.012875456 0.1790002 -0.083309375 -0.03261754
-0.13310246 0.026040066 0.009944136 0.11284872 0.08446729 -0.09499492 0.11417544 0.15278299
0.10917964 0.06625769 0.10974717 -0.040922657 -0.108550705 0.08598415 -0.013852286 0.05693795
-0.108444035 -0.15097374 -0.058000986 -0.184885 -0.016369062 -0.057185985 -0.17734857 0.042421408
-0.18275632 0.12551591 0.04504038 -0.12662397 -0.14066994 -0.01287424 -0.04311137 0.016570706
-0.04967134 -0.10441649 -0.021856882 0.11402194 0.0056003956 0.08942024 0.106840655 -0.11190375
0.16470283 0.009020189 -0.09188649 0.00198478 0.09654531 -0.12659064 -0.13929904 0.07001662
-0.08471596 -0.17591691 -0.04012883 -0.16064751 0.0022913655 -0.12004413 0.08671492 0.08693103
0.030560596 -0.20847419 -0.07778073 0.01993687 0.11697912 0.072075225 -0.14325552 0.16356705
0.051292613 -0.046770036 -0.16529141 -0.081986055 -0.092127524 -0.06317516 -0.15063247 -0.057363067
0.18793926 -0.08702129 -0.03741662 -0.16046092 -0.039904077 -0.07970833 -0.1105733 0.076753564
0.101978384 0.12229436 0.17402375 -0.05087187 0.015170638 0.040739097 -0.084432 0.1798329
0.0055554607 0.117683746 0.16366933 0.09579859 -0.010933158 0.2212479 0.12062879 0.06378213
-0.18659866 0.02340389 0.01824623 0.03779234 -0.016456075 -0.15353486 0.04695283 -0.10156742
0.12722638 0.120240055 -0.077553645 -0.112071335 0.06190992 0.18953721 -0.045757886 0.055424985
0.0107937 0.08946632 0.020346193 0.09031978 -0.035138663 -0.10128609 -0.065579675 0.1270009
0.06655337 -0.2291495 0.01616352 0.01445865 0.015024652 0.013519876 -0.12427744 0.13466495
-0.08911277 0.04952591 0.081840955 0.091354795 -0.15485401 -0.02787722 0.19133912 -0.0082178805
-0.019559033 -0.2043619 -0.09734651 -0.07971895 -0.09543267 -0.04377739 -0.07177656 -0.1610521
00000000: aae2 c83d 8318 d63d e09c 1b3e dd08 643c
00000010: 6bd3 c2bd 88c8 4f3d 0cc8 57bd b929 60bd
00000020: cc28 9d3c f02a 7ebd 0ae6 b13d c2cb e73d
00000030: d102 ce3d c282 363d 11a1 11be 1871 3dbc
00000040: f2ef a0bd c899 5f3c cc9b 60bc cc3b 96bc
00000050: 8906 cd3c 7bf3 b8bd d0d6 f83d 5265 143d
00000060: fcf4 173e b3b7 1e3e d231 75bc d186 8abd
00000070: 8c6d 4a3d 5afd c1bb f875 09be f40d 2bbe
00000080: ec41 443d b09e 113d 6aec f63d c6f5 ebbd
00000090: 3d5a e63d efc4 0b3d c994 23be ec1a ebbd
000000a0: ab4f c5bd 7f08 e0bd 2ba1 28be 1fbc d43b
000000b0: e75d 18be 1591 863d bbe1 0b3b 746b e53d
000000c0: 25ca d83d a052 22be 0e75 eabd a2e5 85bd
000000d0: 25ad 2b3d 4c14 b03d 29f0 243e 90cd b5bd
000000e0: 508e 07be 8a8f ca3d abce 233e 114f 323e
000000f0: 8bff 28be ba55 0abc 6e5c 3abe 9ef5 1bbe
00000100: c937 8ebd f98a 683d 1fa2 0dbe 3a91 57be
00000110: 7de2 7b3c 9fe9 a2bd 4614 11bd 7948 123e
00000120: 5a93 ca3d a1d3 d43d b76a 6bbc 165f 9c3a
00000130: 8f30 5c3e b1d0 0fbe ef7d a73d 75b0 1d3e
00000140: 22cf f03d f1db 39bd 783b 4fbd 63ee d8bd
00000150: 5107 263e 4c97 42be e041 5f3e a810 92bc
00000160: c322 293e ec69 33bd 51f3 403d 874c 91bd
00000170: b75d 4bbd e760 8cbd 112a 053d 194d c6bd
00000180: f6ce ab3d 5c15 443d bb5f d9bc 07ff 5d3d
00000190: b029 83bd 6ee4 1abe 7fdc ce3c ad1d 663c
000001a0: 2fd5 f7bd fbb3 da3c 8c61 1abe d29a 70bb
000001b0: 94f3 52bc d44b 373e 1b9e aabd f899 05bd
000001c0: 034c 08be fa51 d53c bbec 223c 3b1d e73d
000001d0: 30fd ac3d b28c c2bd d0d4 e93d 2573 1c3e
000001e0: 9399 df3d 1db2 873d 20c3 e03d 849e 27bd
000001f0: d54f debd 7518 b03d b3f4 62bc c537 693d
00000200: e817 debd dc98 1abe 7192 6dbd 7e52 3dbe
00000210: 6918 86bc da3b 6abd dd9a 35be 12c2 2d3d
00000220: 7924 3bbe 3e87 003e 437c 383d b7a9 01be
00000230: c80b 10be 7aee 52bc 8c95 30bd 4abf 873c
00000240: 2d74 4bbd 50d8 d5bd 340d b3bc 5684 e93d
00000250: 8683 b73b f521 b73d 46cf da3d cb2d e5bd
00000260: dca7 283e 6ac9 133c fc2e bcbd 1513 023b
00000270: 8cb9 c53d faa0 01be 68a4 0ebe e064 8f3d
00000280: 907f adbd 9023 34be 215e 24bd c880 24be
00000290: bc2a 163b b2d9 f5bd 9897 b13d e508 b23d
000002a0: 375a fa3c 427a 55be 814b 9fbd a652 a33c
000002b0: c092 ef3d 2d9c 933d 93b1 12be 1f7e 273e
000002c0: 3418 523d f091 3fbd 2742 29be 4ee8 a7bd
000002d0: 5bad bcbd fa61 81bd 663f 1abe 89f5 6abd
000002e0: 2673 403e 3838 b2bd 2b42 19bd de4f 24be
000002f0: 7572 23bd 1f3e a3bd 4174 e2bd f930 9d3d
00000300: 0bda d03d 7775 fa3d 4833 323e 065f 50bd
00000310: 458e 783c 0ade 263d afea acbd 1e26 383e
00000320: 950a b63b 2d04 f13d ef98 273e 0d32 c43d
00000330: fd20 33bc cf8e 623e 3a0c f73d 35a0 823d
00000340: b813 3fbe 84b9 bf3c 1e79 953c 24cc 1a3d
00000350: e4ce 86bc 3e38 1dbe 9c51 403d 9402 d0bd
00000360: a247 023e 6b40 f63d 72d4 9ebd a885 e5bd
00000370: 4295 7d3d 0b16 423e 9f6c 3bbd 4f05 633d
00000380: 0fd8 303c 1e3a b73d 0fad a63c 94f9 b83d
00000390: 8fed 0fbd 156f cfbd a34e 86bd 860c 023e
000003a0: 224d 883d 2ba6 6abe 5c69 843c f9e3 6c3c
000003b0: f529 763c 7882 5d3c 2c85 febd 9ce5 093e
000003c0: c280 b6bd aedb 4a3d 3b9c a73d 3918 bb3d
000003d0: 0d92 1ebe c55e e4bc 67ee 433e 4aa4 06bc
000003e0: 443a a0bc 3f44 51be 9b5d c7bd b043 a3bd
000003f0: 3472 c3bd ec4f 33bd 97ff 92bd d7ea 24be

encoder_lstm2.weight_hh_l0 f4 [128, 32]
0.0107064545 -0.055230666 -0.1332037 0.10345366 0.10737209 -0.058185503 0.103871815 0.12712212
0.039138038 -0.01565044 0.0071223164 0.020826505 -0.050128907 0.12744977 -0.17201789 0.02565214
-0.015900025 -0.01138373 -0.114692144 0.11198812 0.19987734 0.09072228 -0.021484155 0.057074666
0.05403147 0.08694628 -0.021835716 -0.017750023 -0.14881162 0.118242875 0.07682421 -0.11333642
-0.0699893 0.037596352 -0.06238903 0.02182887 0.013470638 0.026975812 -0.01204693 -0.052384518
0.03007426 -0.07416687 0.094112076 0.03662448 -0.026800415 0.1265488 0.10116982 0.037616774
-0.0655666 0.05219718 -0.15742093 0.07597264 0.14866784 0.17384717 -0.069420926 -0.13283238
0.09809569 0.10153187 0.049764477 0.20132737 -0.10977788 -0.08553682 -0.0032041746 0.030661954
-0.021916617 -0.034854367 -0.021604003 -0.07266027 0.09761631 -0.18062729 0.12436739 0.1440349
-0.11117574 0.115355745 -0.18563902 0.16691351 -0.15424052 -0.015251712 -0.08178799 -0.08109861
-0.14708358 0.16893728 0.022493761 0.122515686 0.18457092 0.008125004 0.028741114 0.16234432
0.04910095 0.14307097 0.046399467 0.004732049 -0.073798895 -0.10107012 -0.12841438 -0.102894515
0.018582042 -0.050199006 0.036802102 0.1700446 0.0006410618 -0.121476546 -0.027570631 0.025165286
-0.09565028 0.13815352 -0.1996638 0.038257133 -0.17709935 0.14740986 -0.039679475 -0.13711587
0.16921248 -0.038489822 0.16864718 0.05985143 0.20191327 -0.039733287 -0.12341947 -0.13444248
-0.09727616 -0.061238285 -0.10055346 -0.023617806 -0.016880168 0.101585165 0.052733596 -0.12745295
-0.08814066 0.03617298 0.11596831 0.09934343 -0.04597827 -0.14309013 0.17160851 0.14137541
0.12647203 0.059889 -0.096877806 0.022916494 -0.046367694 -0.08424315 -0.056653515 0.008477935
0.14056033 -0.15086253 -0.069216415 -0.016024325 0.07198065 -0.007242417 -0.09187145 -0.0819583
-0.07144218 -0.06757734 0.15985116 -0.16380961 0.124004506 -0.053038873 0.034011245 -0.08726196
-0.0651339 -0.058577616 -0.051113155 0.004272683 -0.12879676 -0.0301477 -0.070770666 -0.0553909
0.03302135 0.06413661 0.046456534 0.03568062 -0.11020018 0.1982586 -0.110526495 0.089978315
0.20802227 -0.10274814 0.015244917 -0.058909502 0.093792 -0.07434766 -0.12743123 -0.17559914
-0.19151296 -0.12388236 -0.13669074 0.10945727 0.21874014 0.051819384 -0.011051816 -0.14390369
0.07307841 -0.009789736 -0.03384326 0.058859985 0.023400936 0.052566357 -0.1367934 0.058819424
-0.09309275 -0.015365398 -0.0688624 0.13645494 0.1563079 0.118702546 -0.18363579 0.10384926
0.15438333 0.09979592 -0.15031622 0.16007721 -0.0120942965 0.008679766 0.06580809 -0.17269745
-0.092603266 0.11825134 -0.008150484 -0.11112996 0.10037271 0.039222658 0.032018412 -0.079960585
-0.03187205 -0.09885378 -0.1503724 0.15196274 0.008697705 0.026502768 0.07027322 -0.16607574
0.12217856 0.14602259 0.104637 -0.11219013 -0.08706743 -0.039391093 0.08497745 -0.070902035
-0.067715354 -0.022326881 0.1531437 -0.0036008242 0.07356846 0.05238941 -0.18184467 0.09038245
-0.17913689 -0.084008254 -0.124982715 0.14715682 0.12124545 -0.00011121035 0.007932021 -0.07455843
00000000: 206a 2f3c 8d39 62bd 8d66 08be 83df d33d
00000010: e6e5 db3d ec53 6ebd bfba d43d 4d2c 023e
00000020: 354f 203d 5a35 80bc 5262 e93b 599c aa3c
00000030: f853 4dbd 3182 023e 7525 30be 7024 d23c
00000040: c540 82bc d382 3abc b7e3 eabd 075a e53d
00000050: a5ac 4c3e 9acc b93d 8aff afbc 20c7 693d
00000060: 1a50 5d3d e410 b23d d1e0 b2bc 7f68 91bc
00000070: 1362 18be 5229 f23d 0356 9d3d ed1c e8bd
00000080: 8d56 8fbd a2fe 193d a48b 7fbd 75d2 b23c
00000090: f3b3 5c3c 61fc dc3c 7d60 45bc 2691 56bd
000000a0: 4b5e f63c cde4 97bd d5bd c03d 8d03 163d
000000b0: 8b8c dbbc 0296 013e 1f32 cf3d 0c14 1a3d
000000c0: c847 86bd b6cc 553d f432 21be 8b97 9b3d
000000d0: 623c 183e fe04 323e 8f2c 8ebd 3605 08be
000000e0: 65e6 c83d f1ef cf3d d6d5 4b3d c328 4e3e
000000f0: 3ad3 e0bd ee2d afbd 21fd 51bb c72e fb3c
00000100: 7a8a b3bc 74c3 0ebd e1fa b0bc e8ce 94bd
00000110: 0feb c73d 5cf6 38be 55b4 fe3d e37d 133e
00000120: 1bb0 e3bd a23f ec3d 2818 3ebe 60eb 2a3e
00000130: 3af1 1dbe 51e2 79bc 7680 a7bd 0717 a6bd
00000140: 149d 16be e5fd 2c3e d644 b83c 81e9 fa3d
00000150: 2900 3d3e bd1e 053c 7c72 eb3c 973d 263e
00000160: 141e 493d 3281 123e 5e0d 3e3d 4e0f 9b3b
00000170: e023 97bd dafd cebd 0f7f 03be 5cba d2bd
00000180: 5e39 983c 799d 4dbd cdbd 163d 2c20 2e3e
00000190: ee0c 283a b2c8 f8bd cedb e1bc 6e27 ce3c
000001a0: 4be4 c3bd 1e78 0d3e ab74 4cbe 83b3 1c3d
000001b0: 8859 35be 9cf2 163e f286 22bd 1a68 0cbe
000001c0: 0946 2d3e 81a7 1dbd d9b1 2c3e c626 753d
000001d0: 5ac2 4e3e 5fbf 22bd 59c3 fcbd 4aab 09be
000001e0: b938 c7bd ffd4 7abd f9ee cdbd 217a c1bc
000001f0: 4748 8abc e20b d03d 2fff 573d 0783 02be
00000200: 1783 b4bd 1e2a 143d cb80 ed3d 9174 cb3d
00000210: b653 3cbd 3886 12be 24ba 2f3e b7c4 103e
00000220: e281 013e 2b4e 753d df67 c6bd 5fbb bb3c
00000230: 0dec 3dbd ac87 acbd 840d 68bd 09e7 0a3c
00000240: 0cef 0f3e b57b 1abe 56c1 8dbd 7245 83bc
00000250: 976a 933d cc51 edbb 1927 bcbd c1d9 a7bd
00000260: 4750 92bd fd65 8abd 06b0 233e b5bd 27be
00000270: 13f6 fd3d 4a3f 59bd 604f 0b3d 66b6 b2bd
00000280: ec64 85bd 15ef 6fbd 075c 51bd dd01 8c3b
00000290: 4ce3 03be 4ff8 f6bc 36f0 90bd 91e1 62bd
000002a0: 6541 073d 0e5a 833d 3549 3e3d d825 123d
000002b0: a2b0 e1bd 4d04 4b3e b75b e2bd 8d46 b83d
000002c0: ca03 553e 9e6d d2bd d1c5 793c 174b 71bd
000002d0: 0516 c03d 9643 98bd 557d 02be 43d0 33be
000002e0: f91b 44be 09b6 fdbd a8f8 0bbe 222b e03d
000002f0: 6afd 5f3e 9040 543d ad12 35bc 7d5b 13be
00000300: 22aa 953d 2165 20bc 3b9f 0abd 2b17 713d
00000310: 52b3 bf3c d24f 573d 9213 0cbe a3ec 703d
00000320: 69a7 bebd 26bf 7bbc bb07 8dbd d8ba 0b3e
00000330: 2e0f 203e 521a f33d 050b 3cbe ecae d43d
00000340: aa16 1e3e ce61 cc3d 7fec 19be 48eb 233e
00000350: 2827 46bc 9435 0e3c 64c6 863d 9ad7 30be
00000360: c8a6 bdbd c22d f23d 9c89 05bc 1b98 e3bd
00000370: 3590 cd3d f0a7 203d bd25 033d 60c2 a3bd
00000380: 448c 02bd da73 cabd 39fb 19be 1f9c 1b3e
00000390: d280 0e3c 551c d93c 68eb 8f3d c20f 2abe
000003a0: c138 fa3d f286 153e ec4b d63d f0c3 e5bd
000003b0: 6950 b2bd 8e58 21bd a808 ae3d 1635 91bd
000003c0: 59ae 8abd dde6 b6bc b4d1 1c3e cefb 6bbb
000003d0: 10ab 963d 4796 563d 7d35 3abe 6f1a b93d
000003e0: a96f 37be 850c acbd f0f6 ffbd 47b0 163e
000003f0: 894f f83d 9a39 e9b8 4ff5 013c 17b2 98bd

encoder_lstm2.bias_ih_l0 f4 [128]
-0.079040796 0.10864841 -0.10989595 0.13953964 -0.14102484 0.080312945 -0.06085352 0.07672472
0.13251731 0.08045511 -0.15757598 0.1846837 -0.1462921 0.031471014 0.12546088 -0.05888285
0.18941605 0.16199344 0.15076777 0.16116494 0.1032251 -0.0892246 0.15027432 0.020580953
0.116938 -0.025881512 -0.17353481 0.1393152 0.13273968 0.15783311 0.033686284 0.09517948
0.13757087 0.12666433 0.10284538 -0.06316662 -0.071674965 -0.027506098 0.14991723 0.11349683
-0.12020464 0.08086798 0.16041042 0.15745927 0.11826844 -0.025839586 -0.14656368 -0.07097849
0.10395421 -0.07926767 0.084395684 0.059989102 0.12656239 0.07750321 0.07284473 0.020297356
0.051076017 -0.03250513 0.16148226 -0.1001386 -0.058498427 0.1029576 -0.108330995 0.11456096
-0.006580015 0.08826779 -0.13119003 -0.02259439 0.06112293 0.15478101 0.018448928 0.15618971
-0.038103018 -0.123211734 -0.053022187 -0.03205474 -0.12954931 -0.13054772 -0.0951807 0.09577316
-0.15558238 -0.10898298 0.12712583 -0.12255542 -0.000987768 -0.15917177 0.001459583 0.05484572
0.02869503 0.12558593 0.12482016 0.09852365 -0.062340327 0.09605224 0.17241676 -0.09348391
-0.15475419 0.07319969 0.123092376 -0.0010929442 -0.07188164 0.043863498 0.101852566 -0.06014374
-0.05501635 -0.121659376 -0.07085363 0.17146371 0.08595041 0.083263986 0.09928768 -0.1579737
0.09332864 -0.050869495 -0.08899393 -0.04457431 0.067981474 0.052320942 0.030311482 0.053983726
0.19851471 -0.063312955 -0.151443 0.045327026 0.19804963 0.041704208 -0.057963274 0.06498272
00000000: 24e0 a1bd 0f83 de3d 2111 e1bd 7be3 0e3e
00000010: d168 10be 1d7b a43d 8a41 79bd da21 9d3d
00000020: 9eb2 073e a6c5 a43d 995b 21be b91d 3d3e
00000030: 99cd 15be c0e7 003d d178 003e 252f 71bd
00000040: 48f6 413e 9ce1 253e de62 1a3e 6c08 253e
00000050: ae67 d33d 63bb b6bd 83e1 193e 6399 a83c
00000060: 317d ef3d 7705 d4bc 1cb3 31be a5a8 0e3e
00000070: e9ec 073e 019f 213e a1fa 093d 76ed c23d
00000080: 61df 0c3e 4bb4 013e 99a0 d23d 805d 81bd
00000090: 53ca 92bd 7854 e1bc e783 193e 0771 e83d
000000a0: da2d f6bd 1d9e a53d a142 243e 013d 213e
000000b0: b936 f23d 8aad d3bc ca14 16be 2c5d 91bd
000000c0: f2e5 d43d 1757 a2bd a5d7 ac3d 22b7 753d
000000d0: 9299 013e 01ba 9e3d 9e2f 953d a446 a63c
000000e0: 1635 513d 1924 05bd 9b5b 253e 7715 cdbd
000000f0: 0c9c 6fbd 6fdb d23d a4dc ddbd f09e ea3d
00000100: 2b9d d7bb bec5 b43d ae56 06be df17 b9bc
00000110: 0a5c 7a3d ea7e 1e3e 3522 973c 32f0 1f3e
00000120: e911 1cbd 6f56 fcbd cb2d 59bd d54b 03bd
00000130: 93a8 04be 4dae 05be 19ee c2bd b824 c43d
00000140: fd50 1fbe 7832 dfbd 462d 023e 56fe fabd
00000150: ff77 81ba edfd 22be 7b4f bf3a e8a5 603d
00000160: d711 eb3c 9999 003e b6a1 ff3d c4c6 c93d
00000170: 9258 7fbd 09b7 c43d 058e 303e 7e74 bfbd
00000180: e277 1ebe b8e9 953d db17 fc3d 1f41 8fba
00000190: ae36 93bd 36aa 333d 1498 d03d 4859 76bd
000001a0: d358 61bd 8d28 f9bd b51b 91bd 2f94 2f3e
000001b0: c506 b03d 4f86 aa3d 5757 cb3d dcc3 21be
000001c0: 1623 bf3d 885c 50bd 7342 b6bd 8d93 36bd
000001d0: df39 8b3d 7c4e 563d c94f f83c 0a1e 5d3d
000001e0: 7147 4b3e 39aa 81bd e013 1bbe d5a8 393d
000001f0: 86cd 4a3e 08d2 2a3d e66a 6dbd a915 853d

encoder_lstm2.bias_hh_l0 f4 [128]
-0.17536703 -0.07961051 -0.14703628 0.02238904 -0.07040064 -0.1766853 -0.14637153 -0.031003848
-0.1812771 -0.05779201 0.021479134 0.1400731 -0.13126288 0.03417865 0.13646168 0.019212207
-0.109829456 -0.06261248 -0.019773252 -0.13428058 -0.028112954 -0.12853913 -0.12601942 -0.12575157
0.06550735 -0.07772207 -0.011532894 0.0052440716 0.004604277 -0.0326201 -0.11357223 0.035208896
-0.1259852 0.084046826 -0.05819279 -0.15147908 0.11117623 -0.19610155 0.14160691 -0.1214949
0.09027307 -0.06937488 -0.06751464 -0.008739338 -0.15563051 0.109876566 0.13001113 0.061566908
0.057709783 -0.059446532 0.12346881 -0.106734805 0.09352746 -0.013180997 0.15264086 -0.07288335
0.14801754 -0.048688214 0.06969166 -0.12107379 -0.11130593 0.16408844 -0.17615983 0.11427826
0.0062873247 0.013553455 0.03320987 0.020842694 -0.08246865 0.11195177 -0.031662986 0.029864112
-0.1267173 0.04921557 -0.106476694 0.16901013 -0.09101304 -0.10937622 0.02608951 0.003057914
-0.16867593 -0.06626963 -0.01341716 -0.07889955 -0.09355061 0.16092704 0.0683419 0.114842385
-0.05479688 0.035240363 0.10187797 0.01858694 0.008497126 0.13894275 -0.17826833 0.10109705
-0.114415996 -0.023940278 -0.11664805 -0.13260765 -0.13525997 -0.08258276 -0.104360804 -0.06703562
-0.0020989391 0.1261308 0.054566443 0.09620613 -0.08499437 -0.11193072 0.043630466 -0.1549237
-0.102334455 0.011590509 -0.029969178 -0.1552493 0.051904924 0.17783834 -0.09145129 -0.021382883
0.007159038 0.15578076 -0.06751862 0.0020371755 0.14202332 0.14832772 0.1166715 0.06053514
00000000: 6a93 33be d60a a3bd ae90 16be 3869 b73c
00000010: 362e 90bd feec 34be 6be2 15be c8fb fdbc
00000020: b4a0 39be 51b7 6cbd 02f5 af3c 536f 0f3e
00000030: c769 06be e9fe 0b3d 9cbc 0b3e eb62 9d3c
00000040: 44ee e0bd f93a 80bd 84fb a1bc d980 09be
00000050: 234d e6bc c39f 03be 3c0b 01be 05c5 00be
00000060: b828 863d c02c 9fbd 77f4 3cbc 76d6 ab3b
00000070: 7adf 963b a79c 05bd 8f98 e8bd 3437 103d
00000080: 4402 01be be20 ac3d 905b 6ebd 551d 1bbe
00000090: 5db0 e33d d8ce 48be 6701 113e 51d2 f8bd
000000a0: 16e1 b83d 6b14 8ebd 1e45 8abd 712f 0fbc
000000b0: 9b5d 1fbe f706 e13d a321 053e 952d 7c3d
000000c0: 1861 6c3d 357e 73bd 37dd fc3d c797 dabd
000000d0: 538b bf3d 1cf5 57bc e34d 1c3e de43 95bd
000000e0: e991 173e 4b6d 47bd 80ba 8e3d 89f5 f7bd
000000f0: 5df4 e3bd cd06 283e 3e63 34be b80a ea3d
00000100: e705 ce3b 4f0f 5e3c 1307 083d 4cbe aa3c
00000110: 53e5 a8bd f846 e53d 0cb1 01bd 95a5 f43c
00000120: 2ec2 01be 4496 493d 7410 dabd fe10 2d3e
00000130: 0b65 babd a400 e0bd abb9 d53c 4967 483b
00000140: 62b9 2cbe 5fb8 87bd a6d3 5bbc 1696 a1bd
00000150: 7697 bfbd 0fca 243e d7f6 8b3d 7c32 eb3d
00000160: b172 60bd 3358 103d 66a5 d03d a343 983c
00000170: 8837 0b3c 0247 0e3e f98b 36be f80b cf3d
00000180: ef52 eabd 671e c4bc 2ce5 eebd 4dca 07be
00000190: 9781 0abe 2621 a9bd 1ebb d5bd f949 89bd
000001a0: 5b8e 09bb 6f28 013e 1081 5f3d b807 c53d
000001b0: 8711 aebd ef3b e5bd dcb5 323d 52a4 1ebe
000001c0: ba94 d1bd 1ee6 3d3c ec81 f5bc acf9 1ebe
000001d0: 429a 543d 411b 363e d04a bbbd 282b afbc
000001e0: 5d96 ea3b fe84 1f3e 3447 8abd 2282 053b
000001f0: 906e 113e 39e3 173e 78f1 ee3d b2f3 773d

encoder_fc.weight f4 [16, 32]
0.022030205 0.21243958 -0.0014659648 -0.13395238 0.061757803 0.09580487 -0.10074816 0.2073038
-0.115799874 -0.17235848 -0.017827468 -0.084324546 -0.111128114 0.08150173 -0.1280314 -0.021465141
0.23170385 0.23308979 -0.20648424 0.14626323 -0.07637883 0.20006631 0.06414663 -0.1263797
-0.097936586 0.17260066 -0.095619544 -0.12197183 0.036637574 0.053160906 0.21033241 0.0971314
0.09953252 0.056996014 0.05687018 0.06972822 0.09101101 0.08634665 -0.051002845 -0.16690432
0.028787788 0.115736455 -0.0053391443 -0.051963422 0.0931676 0.013494422 -0.09212556 -0.081995495
0.09006392 -0.011175715 -0.025199205 -0.042064615 -0.17430064 0.040977318 -0.11539821 0.06822251
0.060425285 0.008447801 0.07360926 -0.16708258 0.07963651 -0.113381036 -0.082995586 0.078838974
-0.054635562 -0.0037476588 -0.06739895 -0.024383178 -0.13477595 0.09797693 -0.0044259727 -0.17066552
0.101064175 -0.05525613 -0.085838705 0.029643625 -0.19211133 -0.037484396 0.13846774 -0.037341423
0.13884692 0.066617794 0.08951432 -0.034377757 -0.019076323 0.084114395 0.011454255 0.057880428
-0.080629796 0.01759531 -0.0409404 0.00021238418 -0.17502944 0.11255035 -0.022112416 -0.12608823
-0.14123462 0.1710377 -0.13937318 0.11530119 0.10222601 -0.057832174 -0.108730726 -0.026471706
-0.0018589321 0.030234616 0.050383635 -0.13074848 -0.046057336 0.12050173 0.0064671845 -0.046931826
0.13853131 -0.06655642 0.11115919 -0.13922217 0.104249306 0.04290442 0.02888565 0.011478407
0.07312476 -0.06549216 -0.070307925 -0.023875548 -0.10382662 0.11519477 0.049067255 0.093916394
0.1087609 0.14132279 -0.058091715 0.08433507 0.16600652 -0.08602437 -0.11345414 -0.042948704
-0.040177986 -0.09059755 -0.062240742 -0.17311095 0.18183587 -0.05877681 0.122226395 -0.088734575
0.08582966 -0.065554604 -0.14611864 0.0060071275 -0.09232842 0.05597864 0.03917246 0.17472218
-0.15954645 0.040149756 0.0077131814 0.09792087 -0.13865262 -0.10444175 -0.17174709 -0.024329068
0.03750053 -0.034134436 -0.14852872 0.046112627 -0.24761404 -0.05809258 0.030762557 0.13457106
-0.1475827 0.05913878 -0.08301811 -0.11089251 0.06667182 0.12291484 0.064640425 0.13463466
0.16892317 0.08273762 0.10327754 0.070288 -0.045156773 0.122197285 -0.062202185 -0.20311598
-0.027279193 0.23367764 -0.05731824 0.13925084 0.11252014 -0.068497546 0.1325647 0.031750467
-0.060747914 0.1135436 -0.012381813 0.082175896 0.17700277 0.09190132 0.11927941 -0.0037744287
-0.03090311 0.14772253 0.006628707 -0.108384654 -0.0736316 -0.00097488175 0.027340362 0.023326986
0.16329154 -0.00023198614 0.050112236 -0.055639688 -0.12055418 -0.06436267 0.15643243 0.070592076
-0.04097941 -0.12563674 0.016676085 0.09280367 -0.14871015 0.00048451993 0.017539656 0.003450555
-0.1086922 0.10798573 -0.006147264 -0.04796597 0.094005264 0.09618149 -0.089222714 -0.10825734
-0.08528399 -0.01377784 -0.21061476 0.013630548 -0.030021427 0.15080678 -0.08772671 -0.12260753
0.17373069 0.063389935 -0.062199134 -0.089399844 -0.16341284 0.04274129 0.1702681 0.0387932
-0.13873097 0.025137056 -0.117498875 0.12796289 -0.09056799 -0.072887376 0.058169432 0.035567522
00000000: b078 b43c c389 593e 9e25 c0ba d02a 09be
00000010: c0f5 7c3d 5835 c43d 0d55 cebd 7347 543e
00000020: 7c28 edbd be7e 30be e90a 92bc 59b2 acbd
00000030: 2397 e3bd 61ea a63d aa1a 03be aad7 afbc
00000040: c643 6d3e 17af 6e3e 9b70 53be 07c6 153e
00000050: 816c 9cbd 2fde 4c3e 4f5f 833d ae69 01be
00000060: fa92 c8bd 3abe 303e 2ed4 c3bd 5ecc f9bd
00000070: 4811 163d 40bf 593d 6161 573e d4ec c63d
00000080: b5d7 cb3d a774 693d b5f0 683d abcd 8e3d
00000090: fb63 ba3d 83d6 b03d 5ce8 50bd f7e8 2abe
000000a0: 5ed4 eb3c 3c07 ed3d fdf3 aebb 99d7 54bd
000000b0: a8ce be3d b517 5d3c 53ac bcbd 41ed a7bd
000000c0: 6f73 b83d 591a 37bc 906e cebc f24b 2cbd
000000d0: de7b 32be d5d7 273d e655 ecbd 3eb8 8b3d
000000e0: 8180 773d a568 0a3c 74c0 963d b217 2bbe
000000f0: 7718 a33d 5134 e8bd 97f9 a9bd 5476 a13d
00000100: 8ac9 5fbd 489b 75bb 7608 8abd 3bbf c7bc
00000110: b502 0abe 21a8 c83d c007 91bb f1c2 2ebe
00000120: bcfa ce3d 4054 62bd 34cc afbd 30d7 f23c
00000130: d5b8 44be 3d89 19bd 7dca 0d3e 52f3 18bd
00000140: e32d 0e3e e96e 883d 4953 b73d b1cf 0cbd
00000150: f345 9cbc 2b44 ac3d a1aa 3b3c 0714 6d3d
00000160: 3c21 a5bd 0a24 903c 1fb1 27bd 72b3 5e39
00000170: eb3a 33be cc80 e63d 1925 b5bc 461d 01be
00000180: cf9f 10be 8224 2f3e d8b7 0ebe 0823 ec3d
00000190: df5b d13d 6ee1 6cbd 37ae debd 31db d8bc
000001a0: 69a7 f3ba 96ae f73c 125f 4e3d eee2 05be
000001b0: 9ea6 3cbd 9cc9 f63d adea d33b 963b 40bd
000001c0: 27db 0d3e bb4e 88bd 6ea7 e33d 4290 0ebe
000001d0: a980 d53d 8cbc 2f3d 99a1 ec3c ee0f 3c3c
000001e0: 6fc2 953d c120 86bd 9afd 8fbd a796 c3bc
000001f0: 0da3 d4bd 3ceb eb3d bffa 483d 3d57 c03d
00000200: 09be de3d ecb6 103e 94f1 6dbd ddb7 ac3d
00000210: 9dfd 293e 8b2d b0bd a55a e8bd fbea 2fbd
00000220: ac91 24bd 358b b9bd 26f0 7ebd ff43 31be
00000230: 2f33 3a3e f4bf 70bd d551 fa3d 79ba b5bd
00000240: 76c7 af3d 7e41 86bd 20a0 15be 70d7 c43b
00000250: af16 bdbd dc49 653d 4d73 203d 5fea 323e
00000260: 2560 23be 1274 243d dbbe fc3b bd8a c83d
00000270: f4fa 0dbe 8ee5 d5bd 78de 2fbe c14d c7bc
00000280: 289a 193d 8dd0 0bbd ea17 18be 98e0 3c3d
00000290: 898e 7dbe 7cf2 6dbd c201 fc3c ffcc 093e
000002a0: eb1f 17be 813b 723d 6605 aabd 9d1b e3bd
000002b0: 3c8b 883d c7ba fb3d 3362 843d abdd 093e
000002c0: 32fa 2c3e 5772 a93d 2d83 d33d 28f3 8f3d
000002d0: 4ff6 38bd 9242 fa3d b8c7 7ebd a3fd 4fbe
000002e0: 9d78 dfbc 3149 6f3e 88c6 6abd c697 0e3e
000002f0: f670 e63d 7148 8cbd 0abf 073e c70c 023d
00000300: ced2 78bd 8c89 e83d 16dd 4abc d64b a83d
00000310: 3740 353e c236 bc3d c348 f43d 685c 77bb
00000320: 8528 fdbc 9344 173e a035 d93b c6f8 ddbd
00000330: 2acc 96bd 358f 7fba e5f8 df3c 3c18 bf3c
00000340: e635 273e 4e41 73b9 7d42 4d3d 71e6 63bd
00000350: 1ce5 f6bd 93d0 83bd d32f 203e 9492 903d
00000360: 07da 27bd eba6 00be 499c 883c da0f be3d
00000370: 7947 18be 2a07 fe39 53af 8f3c b522 623b
00000380: 049a debd 9f27 dd3d fd6e c9bb f777 44bd
00000390: d585 c03d cdfa c43d 66ba b6bd 06b6 ddbd
000003a0: 5fa9 aebd 73bc 61bc 65ab 57be a952 5f3c
000003b0: 7fef f5bc 186d 1a3e 10aa b3bd a819 fbbd
000003c0: 75e6 313e 95d2 813d 85c4 7ebd 4417 b7bd
000003d0: b255 27be 7e11 2f3d c35a 2e3e 9ee5 1e3d
000003e0: 7e0f 0ebe 3aec cd3c 40a3 f0bd b408 033e
000003f0: b67b b9bd fa45 95bd 1243 6e3d 40af 113d
