backend/anomaly_models/WH003_SKU-007.pth (torch, 242563 bytes, 20 tensors)

encoder_lstm1.weight_ih_l0 f4 [256, 6]
0	0xbd9ebc51	-0.07750762
1	0xbd92dd23	-0.07171085
2	0x3db582ba	0.08862825
3	0xbd9f1d7b	-0.07769295
4	0x3df8ade4	0.12142542
5	0xbce495bf	-0.027903436
6	0x3d2fc11b	0.04290877
7	0xbdce05c8	-0.100596964
8	0xbcaf02ac	-0.021363579
9	0x3dcf33d6	0.10117309
10	0xbd81c8ed	-0.06337152
11	0x3d3f94b5	0.046772677
12	0x3cbe7446	0.023248803
13	0x3d8eef63	0.06979253
14	0x3d639a1a	0.055566885
15	0x3e12d31c	0.14338344
16	0xbd2b3e6c	-0.041807577
17	0xbd1a3c4d	-0.037655164
18	0x3cf72a18	0.030171439
19	0x3b51010f	0.00318915
20	0x3d7f7616	0.062368475
21	0x3e19d83d	0.15023895
22	0xbcdaeb10	-0.026723415
23	0x3d82d563	0.063883565
24	0xbcb02b94	-0.021505155
25	0x3dd6d59d	0.10489962
26	0x3d66c2be	0.056338064
27	0x3ceefe16	0.029173892
28	0xbd067bcf	-0.032832917
29	0xbd1cf1f9	-0.0383167
30	0x3de68b47	0.11257034
31	0xbd886f05	-0.066618
32	0x3d8af250	0.06784499
33	0x3d838f70	0.06423843
34	0xbddd7b18	-0.10814494
35	0xbc89db9f	-0.016828356
36	0x3d8e0f4b	0.06936511
37	0x3db54503	0.088510536
38	0x3c0a0a5d	0.008425322
39	0xbdf3430f	-0.11878025
40	0xbda31b3f	-0.07964181
41	0xbda70d14	-0.08156791
42	0x3cff9a90	0.03120163
43	0x3da0077e	0.07813929
44	0x3e000a9e	0.1250405
45	0x3d7fbb50	0.062434494
46	0x3ced858e	0.028994348
47	0xbc621080	-0.013797879
48	0xbce0f4d7	-0.027460499
49	0x3d19bf69	0.03753606
50	0xbd9e0d29	-0.07717354
51	0x3e26f103	0.16302876
52	0x3dcdde7d	0.10052202
53	0x3d39dc52	0.04537613
54	0xbd8b61cd	-0.068057634
55	0xbcb01a0b	-0.021496793
56	0x3da96775	0.08271686
57	0xbd8bddd0	-0.06829417
58	0x3ca69127	0.020332886
59	0x3da1c25e	0.07898401
60	0xbd167aea	-0.036738314
61	0x3ce18125	0.027527401
62	0x3dd8ad64	0.10579947
63	0x3df95f06	0.121763274
64	0xbcdea233	-0.027176952
65	0x3d3e7285	0.046495933
66	0xbc5e9a66	-0.013586616
67	0xbb8b980f	-0.00426007
68	0xbd7f0533	-0.062260818
69	0x3e2e4f39	0.17022409
70	0x3ce891da	0.02838986
71	0x3d4b911c	0.049698934
72	0xbd478509	-0.048710857
73	0xbdae9f8e	-0.085265264
74	0xbd7589fe	-0.059946053
75	0x3df2c3df	0.11853766
76	0xbe02edef	-0.12786077
77	0xbcfb2fc6	-0.030662429
78	0xbb3803a0	-0.0028078333
79	0xba2e44b1	-0.0006647809
80	0x3cc20fd5	0.02368919
81	0x3e234c2f	0.1594703
82	0x3daab037	0.083343916
83	0x3dbd51bf	0.092441075
84	0x3d4df018	0.0502778
85	0x3dbc1370	0.09183395
86	0x3daa4806	0.08314519
87	0x3de0dd18	0.1097967
88	0x3cf728c7	0.030170811
89	0xbcb1eeb7	-0.021720273
90	0x3dc0d78b	0.094161116
91	0x3de54a73	0.11195841
92	0xbd417133	-0.047227096
93	0x3d9ab451	0.07553924
94	0xbdd9e08d	-0.10638533
95	0xbd6ce102	-0.05783177
96	0xbb988282	-0.0046542296
97	0xbd78e868	-0.060768515
98	0x3d4958fc	0.049157128
99	0x3d93709a	0.071992114
100	0x3d238d1d	0.039929498
101	0x3ce24ed8	0.027625486
102	0x3da76861	0.081742056
103	0x3d933fba	0.07189889
104	0xba809de2	-0.0009812678
105	0x3dee1e48	0.116268694
106	0xbd4858b8	-0.048912734
107	0x3dd6e84a	0.104935244
108	0x3ddf20be	0.10894917
109	0x3dce2b75	0.100668825
110	0x3e0555ea	0.13021055
111	0x3e0ed80f	0.13949607
112	0xbd5cfe5b	-0.05395351
113	0x3df2eede	0.118619666
114	0x3d31d5da	0.043416835
115	0x3dea0bdd	0.11428044
116	0xbc91f2f8	-0.017816052
117	0x3d41409e	0.047180764
118	0x3b85e3a2	0.004085974
119	0xbd74ca47	-0.05976322
120	0x3dd82a2f	0.10554921
121	0xba831711	-0.0010001381
122	0x3e183d58	0.14867151
123	0x3d4c5ebd	0.049895037
124	0x3e0700eb	0.13183944
125	0x3e046b8e	0.12931654
126	0x3d55980f	0.052146968
127	0x3b2e09ef	0.0026556214
128	0xbe06d48b	-0.13167016
129	0x3d57b3b6	0.05266162
130	0xbda42b04	-0.08016017
131	0xbca9fa0d	-0.020749116
132	0xbc2663e5	-0.010155653
133	0x3dbad970	0.09123504
134	0xbdb92f65	-0.09042243
135	0x3c12d169	0.00896106
136	0xbdd10ba3	-0.10207298
137	0xbd9d7a3b	-0.07689329
138	0x3c0e141b	0.008671786
139	0x3d96a317	0.07355326
140	0xbd754f86	-0.059890293
141	0xbd546ae5	-0.051859755
142	0x3d392c49	0.04520825
143	0xbe18bfa2	-0.14916852
144	0x3ded2588	0.11579424
145	0x3dad3243	0.08456852
146	0xbd778d03	-0.060437214
147	0xbd73cad9	-0.059519622
148	0xbe00c9e1	-0.1257701
149	0xbb36cf51	-0.0027894566
150	0xbd94f104	-0.072725326
151	0x3dc01025	0.09378079
152	0x3dbc9429	0.09207947
153	0xbd214c68	-0.039379507
154	0xba21effe	-0.0006177424
155	0x3e04d012	0.12969998
156	0x3e120756	0.14260611
157	0xbd9c0f8b	-0.07620152
158	0xbdab9090	-0.083771825
159	0x3c2605f7	0.010133258
160	0x3d64cf15	0.05586155
161	0xbd654b68	-0.055980116
162	0xbd9aa40a	-0.07550819
163	0x3d198b74	0.03748651
164	0x3ce4a92f	0.027912704
165	0xbd4e8482	-0.050419338
166	0x3cce8ac3	0.025212651
167	0x3e124f16	0.14287981
168	0xbd22e438	-0.039768428
169	0xbc7a8fc2	-0.015293064
170	0xbd9b9bda	-0.07598086
171	0x3e094114	0.13403732
172	0xbc35b7cd	-0.011091185
173	0xbdb18023	-0.08667018
174	0x3d585843	0.052818548
175	0xbd9ec6d5	-0.07752768
176	0xbc5b9f78	-0.0134047195
177	0xbdea5d67	-0.11443596
178	0xbd78335a	-0.060595848
179	0x3dde0ac4	0.10841897
180	0x3ca494ec	0.020090543
181	0x3d0bf569	0.03416959
182	0xbd152d12	-0.036419936
183	0x3e013aed	0.12620135
184	0x3d588a56	0.052866302
185	0xbd1f81fe	-0.03894233
186	0xbd2e8750	-0.042609513
187	0xbd464fa7	-0.048415806
188	0xbcd18b05	-0.025578985
189	0x3b51dc67	0.003202224
190	0xbd9dcc16	-0.07704942
191	0x3df260e1	0.118348844
192	0x3c6874da	0.014188016
193	0xbd36c498	-0.04462108
194	0xbd832690	-0.064038396
195	0x3d28e64e	0.04123526
196	0x3d84a388	0.064765036
197	0x3d293a49	0.04131535
198	0xbe03ca12	-0.12870052
199	0x3dab9ecc	0.083798975
200	0xbde69049	-0.11257989
201	0xbe2f2767	-0.17104875
202	0xbcd5235a	-0.026017834
203	0xbd1675db	-0.03673349
204	0x3c12cebb	0.008960421
205	0xbdb9fc4d	-0.09081326
206	0xbe116883	-0.14200024
207	0xbb9ada5c	-0.0047257375
208	0xba8141e2	-0.0009861554
209	0x3dc33dac	0.09533247
210	0x3d20ceab	0.039259594
211	0x3d61ed53	0.05515797
212	0x3ceac16e	0.028656688
213	0x3d5feb2a	0.05466763
214	0x3dbe9ed0	0.09307635
215	0xbda8f916	-0.08250634
216	0x3b50766a	0.0031808862
217	0xbc882276	-0.016617995
218	0x3bc18d8b	0.005906766
219	0x3d5e5601	0.05428124
220	0xbcf0b38d	-0.029382491
221	0x3c862142	0.01637328
222	0xbcbe7d9a	-0.02325325
223	0xbe0320fc	-0.12805551
224	0xbda25450	-0.079262376
225	0x3d949114	0.07254234
226	0x3b3c4186	0.0028725578
227	0x3cdfd6ed	0.027324164
228	0x3d3741a7	0.044740345
229	0x3d5e1c8c	0.054226443
230	0x3e033fee	0.12817356
231	0xbaf5bb22	-0.0018747787
232	0xbdb6e857	-0.08931034
233	0xbcf862cd	-0.03032055
234	0xbcfdae2f	-0.030966846
235	0x3d6493ce	0.05580502
236	0xbd68e1eb	-0.056856077
237	0x3da4e4ee	0.080514774
238	0x3ddbb709	0.107282706
239	0x3de8a4c8	0.113595545
240	0x3e1151b9	0.14191331
241	0x3e04c496	0.12965617
242	0x3d917221	0.071018465
243	0x3df7d77d	0.12101648
244	0xbde71e34	-0.11285058
245	0x3d613450	0.05498153
246	0xb990994b	-0.00027580032
247	0x3de2b7b8	0.11070198
248	0xbd30f55e	-0.04320275
249	0x3d870991	0.065936215
250	0xbdea42ed	-0.11438546
251	0x3c1c6a06	0.009546762
252	0xbddabba2	-0.10680319
253	0xbc98e29c	-0.018662743
254	0x3d1bc7d6	0.038032375
255	0x3dbf177f	0.093306534

encoder_lstm1.weight_hh_l0 f4 [256, 64]
0	0xbca3c356	-0.019990604
1	0xbda96482	-0.082711235
2	0xbd3a85e1	-0.045537833
3	0xbe191e26	-0.14952907
4	0xbd9fd90f	-0.078050725
5	0xbdad9198	-0.084750354
6	0xbe048c6b	-0.1294419
7	0xbd929eba	-0.07159181
8	0x3bf1d406	0.0073800115
9	0x3bd133c6	0.0063843457
10	0x3c1f4fad	0.009723586
11	0x3e2bb0fc	0.16766733
12	0xbd4f9cb5	-0.050686557
13	0x3d9dda4e	0.07707654
14	0xbc639f8c	-0.013893019
15	0xbd75cbbd	-0.060008753
16	0xbe04d6e7	-0.12972604
17	0xbda01842	-0.07817127
18	0xbd655eb4	-0.05599852
19	0x3e19f917	0.15036426
20	0xbd71bc6c	-0.059017584
21	0xbdd24901	-0.10267831
22	0xbdda7e45	-0.10668615
23	0x3dbff798	0.09373397
24	0xbd7da48c	-0.061924502
25	0x3d9f2988	0.07771593
26	0x3db1f5f7	0.08689492
27	0x3d94b559	0.07261152
28	0xbd10c6c6	-0.035345815
29	0x3d024bf2	0.03181071
30	0xbe06f88c	-0.1318075
31	0xbcfaadeb	-0.030600509
32	0x3c7cb7c1	0.01542467
33	0xbd4d285c	-0.050087318
34	0x3dd26d37	0.10274737
35	0x3dc221f7	0.094791345
36	0xbd47e77d	-0.04880475
37	0x3da60236	0.081058905
38	0x3d08b75f	0.033378
39	0x3cfb9a4b	0.030713221
40	0x3dfaf207	0.12253194
41	0x3dbdf242	0.09274723
42	0x3d86e107	0.06585889
43	0x3e272c21	0.16325428
44	0x3de6ccc1	0.112695225
45	0xbdcf0f75	-0.1011037
46	0x3df8b396	0.12143628
47	0x3e102863	0.14077906
48	0x3dc22c94	0.09481159
49	0x3dc62350	0.09674704
50	0x3e07b1de	0.13251445
51	0xbd9cd86f	-0.07658469
52	0xbd08efcc	-0.033431813
53	0xbdbbd233	-0.09170952
54	0xbe1ca17d	-0.15295978
55	0x3dfbaa42	0.122883335
56	0x3d7a965d	0.061178554
57	0xbe28b0de	-0.1647372
58	0x3df85e7b	0.12127396
59	0x3d2a318d	0.04155116
60	0x3d8e03ed	0.069343425
61	0xbda649ff	-0.081195824
62	0x3e1ddc7f	0.15416144
63	0x3dfe939d	0.12430499
64	0xbdf6a4a1	-0.12043119
65	0x3defa2fc	0.11701009
66	0x3d111dd6	0.035428844
67	0xbc93a120	-0.018021166
68	0x3d2d7dfd	0.04235648
69	0xbdff42cd	-0.12463913
70	0xbe11ec91	-0.14250399
71	0xbda2ccae	-0.07949196
72	0x3ca2b50c	0.01986172
73	0xbc87821b	-0.016541531
74	0x3d9744f8	0.073862016
75	0xbd8b0f9a	-0.06790085
76	0x3de8dba0	0.11370015
77	0x3cb47272	0.022027228
78	0xbcfac93a	-0.03061353
79	0x3db2aa27	0.0872386
80	0xbe24488b	-0.16043298
81	0x3ca39469	0.019968228
82	0x3d906849	0.07051141
83	0x3d8bea06	0.06831746
84	0x3de0dd17	0.109796695
85	0x3dce625d	0.10077355
86	0x3df7f3d4	0.121070534
87	0xbd4a6d6f	-0.04942077
88	0xbd17a772	-0.037024923
89	0x3d1084c8	0.03528288
90	0xbde972df	-0.11398863
91	0xbd48c4b2	-0.04901571
92	0x3c5115f2	0.01276158
93	0x3dd1657c	0.10224435
94	0xbdeeb7e5	-0.11656169
95	0x3dd0b43b	0.10190626
96	0x3d020879	0.03174636
97	0xbe017649	-0.12642778
98	0x3da9a669	0.08283693
99	0x3dbfb8ae	0.09361397
100	0xbdc19a6d	-0.094532825
101	0x3df379f1	0.11888493
102	0xbdc24273	-0.094853304
103	0x3d6e9628	0.05824867
104	0x3e158d55	0.14604695
105	0x3cbb5806	0.022869121
106	0x3d54fa00	0.05199623
107	0xbdab6ee1	-0.08370758
108	0x3d167a9d	0.036738027
109	0xbc353277	-0.011059395
110	0xbbe5f8ef	-0.0070182006
111	0xbc4319ba	-0.011907989
112	0xbd2182ee	-0.039431505
113	0x3d9efa59	0.07762594
114	0x3deb7520	0.11496949
115	0xbd9704bf	-0.07373952
116	0xbe060438	-0.13087547
117	0xbd995bb5	-0.07488195
118	0x3d856217	0.0651285
119	0x3ccb9faa	0.024856407
120	0xbcc9b39c	-0.024621777
121	0xbe019193	-0.12653188
122	0xbdad201a	-0.084533885
123	0x3e039e22	0.12853292
124	0x3d651133	0.055924606
125	0x3be714fc	0.007052062
126	0x3d1366e0	0.03598678
127	0x3e1934c5	0.14961536
128	0x3d8b2584	0.06794265
129	0xbced36e3	-0.028956836
130	0x3d802cdc	0.06258556
131	0xbe3262b4	-0.17420465
132	0x3c5f5cc2	0.013632955
133	0xbe186242	-0.14881232
134	0x3d216c66	0.039410017
135	0xbdd74585	-0.10511307
136	0xbc9b21a3	-0.018936938
137	0xbda900a7	-0.082520775
138	0x3dbf6198	0.093447864
139	0x3d44e52f	0.04807013
140	0xbdb60bb1	-0.08888949
141	0xbe0cc134	-0.13745576
142	0x3d4bd9c0	0.04976821
143	0xbd9fbf9a	-0.07800217
144	0x3d15a885	0.036537666
145	0xbd166b27	-0.036723282
146	0xbd3291a4	-0.043595925
147	0x3b8a6904	0.0042239446
148	0xbd07007c	-0.032959446
149	0x3cf8ba90	0.030362397
150	0x3d57cca0	0.05268538
151	0xbde5cc95	-0.112206616
152	0xbcd803de	-0.026369032
153	0x3db5cad9	0.08876581
154	0xbdcd9ce7	-0.10039692
155	0x3dd7348a	0.10508068
156	0x3e08a182	0.1334286
157	0xbde08686	-0.10963158
158	0xbd4fc931	-0.05072898
159	0xbdc22c28	-0.094810784
160	0x3da6b8f0	0.08140743
161	0x3c678f86	0.01413334
162	0xbcd6685b	-0.026172807
163	0x3dfe5f94	0.12420574
164	0xbd8482bc	-0.06470248
165	0xbcd18513	-0.02557615
166	0x3d2dc436	0.04242345
167	0x3d391487	0.045185592
168	0x3d965bba	0.07341714
169	0xbd9858ff	-0.0743885
170	0x3da1b7df	0.07896399
171	0x3e2f5489	0.17122091
172	0x3d14bd01	0.03631306
173	0xbdb7ddef	-0.08977877
174	0x3dcc28b0	0.09968698
175	0xbd8a08d5	-0.06739966
176	0x3e173c77	0.1476916
177	0xbd8bdab5	-0.068288244
178	0x3e20ee14	0.1571582
179	0xbc615b77	-0.013754717
180	0x3d3b016e	0.04565566
181	0x3c92d0d0	0.017921835
182	0x3cd080fc	0.02545213
183	0x3c7f6e59	0.015590274
184	0xbdf00d27	-0.117212586
185	0x3cf963cb	0.030443093
186	0x3d9f2b68	0.07771951
187	0x3c475a5e	0.012167541
188	0x3e0ff349	0.1405765
189	0xbdc3fcb0	-0.09569681
190	0x3dcd2f3d	0.100187756
191	0xbd8c8721	-0.06861711
192	0xbcc02214	-0.02345375
193	0xbd80eb0b	-0.06294831
194	0xbe325ad2	-0.17417458
195	0xbdf76526	-0.120798394
196	0x3d89b9cd	0.06724892
197	0xbcbe347a	-0.023218382
198	0x3deb08a2	0.11476256
199	0xbdf72ac8	-0.12068707
200	0xbcca6bcf	-0.02470961
201	0x3d800ae7	0.062520795
202	0x3dead4a4	0.11466339
203	0x3df9801c	0.12182638
204	0xbddcf7ef	-0.10789477
205	0xbd957d4b	-0.07299288
206	0x3db9473a	0.090467885
207	0xba4d8250	-0.00078395475
208	0xbe23ae38	-0.15984428
209	0xbd885ed5	-0.06658713
210	0xbd896c31	-0.06710089
211	0x3e1689bf	0.14700983
212	0x3d584417	0.05279931
213	0xbcf60041	-0.030029418
214	0xbdc8da79	-0.09807295
215	0x3dd8ea99	0.10591621
216	0xbd371cd0	-0.044705212
217	0xbd1d9d21	-0.038479928
218	0xbdc14aa6	-0.09438066
219	0xbd297fec	-0.04138176
220	0xbaab9e5a	-0.0013093457
221	0x3db83536	0.08994524
222	0x3d8fe035	0.07025186
223	0x3d18e90d	0.03733163
224	0xbe089795	-0.13339074
225	0x3dbf4c92	0.093407765
226	0xbd3fd7da	-0.04683671
227	0x3c4a47c6	0.012346214
228	0xbde798b1	-0.113084204
229	0x3dd2b3ae	0.102881774
230	0xbd4f6dce	-0.050641827
231	0x3c255b6d	0.010092598
232	0x3dcfcb76	0.10146229
233	0x3de7046f	0.112801425
234	0xbd28daf0	-0.04122442
235	0x3dcc7789	0.09983737
236	0xbda7d4eb	-0.08194908
237	0xbe1e459a	-0.15456238
238	0x3e0d0021	0.1376958
239	0x3d8c369c	0.068463534
240	0x3dfc6def	0.12325656
241	0x3df52418	0.11969775
242	0xbc848975	-0.016178826
243	0x3e0306da	0.12795582
244	0x3cbeb418	0.023279235
245	0x3b2cc159	0.0026360361
246	0xbda2359e	-0.07920383
247	0x3cb5864e	0.022158768
248	0x3d90dc98	0.07073325
249	0xbd9a4469	-0.075325795
250	0xbddeede6	-0.10885219
251	0xbcb4200e	-0.021987941
252	0x3da2dc7e	0.07952212
253	0x3cad1a5e	0.021130737
254	0x3debc7fa	0.11512752
255	0x3e03a57c	0.12856096

encoder_lstm1.bias_ih_l0 f4 [256]
0	0x3cc770a0	0.024345696
1	0xbda4e21b	-0.08050939
2	0x3deee662	0.11665036
3	0x3c49c459	0.012314879
4	0xbcb2e16e	-0.021836009
5	0xbda472cf	-0.080297105
6	0xbcbcb96a	-0.023037631
7	0xbdf04002	-0.117309585
8	0xbd8ff41f	-0.07028984
9	0x3db29edc	0.08721706
10	0xbc75956b	-0.014989237
11	0xbd86497a	-0.06556983
12	0x3a0f875a	0.0005475186
13	0x3d2c4d98	0.042066187
14	0x3d275323	0.04085077
15	0x3d4b48ad	0.049629856
16	0xbd8f81ba	-0.07007165
17	0xbd50ded5	-0.05099376
18	0xbac6d02c	-0.0015168241
19	0x3d05ca99	0.032663915
20	0x3dd02569	0.101633854
21	0x3ca6f4c7	0.02038039
22	0xbdc2b77f	-0.09507655
23	0x3c0cbdbb	0.008590157
24	0xbd122774	-0.035682157
25	0x3d855cb0	0.06511819
26	0x3dc148ce	0.094377145
27	0x3d77a5d1	0.06046087
28	0x3dbe2f28	0.09286338
29	0xbd37e977	-0.044900384
30	0x3dd80ec2	0.1054969
31	0xbe01ab61	-0.12663032
32	0x3ce24d56	0.027624767
33	0xbddd9c29	-0.10820801
34	0xbda92e7f	-0.082608216
35	0xbc686c2b	-0.0141859455
36	0x3dd11ef8	0.10210985
37	0xbd87f55a	-0.06638594
38	0xbd9e4730	-0.07728422
39	0x3d2c4bea	0.042064585
40	0x3de8b301	0.11362267
41	0xbc713bb3	-0.014723706
42	0xbdec52b7	-0.11539214
43	0x3deab124	0.11459568
44	0xbd99dd4c	-0.07512912
45	0x3c19fd0b	0.009398709
46	0xbda02a47	-0.07820564
47	0x3cffc0fd	0.031219954
48	0xbc20c4fa	-0.009812588
49	0x3dcccd59	0.100001045
50	0x3e1d0786	0.15334901
51	0x3de4eceb	0.11178001
52	0xbd8dd763	-0.069258474
53	0x3cc0b9f6	0.023526173
54	0xbcf7abc6	-0.030233275
55	0xbdbc3c27	-0.09191161
56	0x3db99fb7	0.09063666
57	0x3d892527	0.06696539
58	0xbc7ff4f7	-0.015622369
59	0xbd4553b6	-0.048175536
60	0x3cc9472a	0.024570066
61	0xbc1a33e5	-0.009411787
62	0x3d3c2022	0.04592908
63	0x3d663f1c	0.05621253
64	0x3c18b6c2	0.009320917
65	0x3dd8afba	0.10580392
66	0x3c0d3ba7	0.008620179
67	0xbd1139bc	-0.03545545
68	0x3db9af0e	0.09066592
69	0xbdbe54c1	-0.09293509
70	0x3de79020	0.113067865
71	0xbd57cbf4	-0.05268474
72	0xbd20f0e8	-0.039292246
73	0x3db59afe	0.08867453
74	0x3dc47409	0.095924444
75	0x3d8ee401	0.06977082
76	0x3d93a15b	0.072085105
77	0xbd98ad4a	-0.07454927
78	0xbc41d110	-0.01182963
79	0xbdad8f4f	-0.084745996
80	0x3d36426d	0.044496942
81	0x3d0b2042	0.03396631
82	0xbdefa262	-0.11700894
83	0xbaef6944	-0.0018265625
84	0xbd4e93ac	-0.0504338
85	0xbc539ba8	-0.012915529
86	0xbda779f0	-0.081775546
87	0xbdc9ca54	-0.09853044
88	0x3df44411	0.11927045
89	0xbd938f9a	-0.07205124
90	0xbdd5ecab	-0.104455315
91	0xbda6727c	-0.08127305
92	0xbc04a7d5	-0.008096655
93	0xbcbe59ad	-0.02323612
94	0x3b78051d	0.0037844845
95	0xbc1a95bd	-0.009435114
96	0x3b6c5262	0.0036059846
97	0xbd38e7b5	-0.045142848
98	0xbddfb656	-0.1092345
99	0x3d074610	0.0330258
100	0xbdbd5181	-0.09244061
101	0xbd75ff8a	-0.060058154
102	0x3e093ceb	0.13402145
103	0x3de424fc	0.11139867
104	0x3d3f96a6	0.04677453
105	0x3d16d22a	0.03682152
106	0x3dbfc9da	0.09364672
107	0xbd2d652f	-0.042332824
108	0xbd90900e	-0.07058726
109	0x3dc2a855	0.09504763
110	0x3e0e631e	0.13904998
111	0x3e112005	0.1417237
112	0x3d0b960a	0.034078635
113	0xbac851e4	-0.0015283194
114	0x3de1fbc5	0.11034349
115	0x3dc599ef	0.09648501
116	0x3e05dee3	0.13073306
117	0xbce1bf29	-0.027556973
118	0x3e01c6a6	0.12673435
119	0x3cad0010	0.021118194
120	0xbcbf7492	-0.023371015
121	0x3e21b293	0.15790777
122	0x3dce93e2	0.100868
123	0x3db37201	0.08761979
124	0x3d89d405	0.06729893
125	0x3d21f691	0.039541785
126	0x3e135720	0.14388704
127	0x3cd24170	0.025665969
128	0xbb6debeb	-0.0036303948
129	0xbd9cc0a1	-0.076539285
130	0xbd65eb1f	-0.056132432
131	0xbcaca893	-0.021076476
132	0x3d8b8936	0.0681328
133	0xbd5c980f	-0.053855952
134	0x3e053127	0.13007031
135	0xbd2eb584	-0.042653576
136	0xbd581289	-0.05275205
137	0xbd58f533	-0.052968215
138	0xbc98a5e8	-0.018633798
139	0x3c76f7c5	0.015073721
140	0xbdbdb92b	-0.092638336
141	0xbdd13266	-0.10214691
142	0x3dbef316	0.09323709
143	0xbbf6bd41	-0.007529885
144	0x3da1b948	0.07896668
145	0xbcb48127	-0.02203424
146	0xbd37a9d8	-0.04483971
147	0xbdf9a6bc	-0.12190005
148	0x3bf41e7e	0.007449924
149	0x3d04d300	0.032427788
150	0x3c0e8ad2	0.0087000895
151	0x3db469eb	0.08809265
152	0xbc7e57ad	-0.015523833
153	0xbdfa5d06	-0.12224774
154	0x3d9e0d6c	0.07717404
155	0xbb79b570	-0.003810253
156	0x3da0b965	0.07847861
157	0xbd8dc4c3	-0.06922295
158	0x3d92e1e6	0.07171993
159	0xbd081e3c	-0.03323196
160	0xbd9a1cba	-0.075250104
161	0xbbc9f597	-0.00616331
162	0xbda24bb1	-0.07924593
163	0xbdb0ae03	-0.0862694
164	0xbdc547d8	-0.09632844
165	0x3da6f8ea	0.08152945
166	0x3d7f3334	0.06230469
167	0x3d799141	0.06092954
168	0x3d8da379	0.069159456
169	0x3e01b23b	0.12665646
170	0x3d638e5c	0.055555686
171	0xbc26dda2	-0.010184677
172	0x3c92d0f4	0.017921902
173	0x3daa0b00	0.08302879
174	0x3dd24a51	0.10268081
175	0x3c238eb8	0.009982757
176	0x3d4ba9b6	0.049722396
177	0x3bdbad70	0.006704025
178	0x3d00b570	0.031423032
179	0x3d995570	0.07486999
180	0x3d468fb5	0.048476893
181	0x3c3bb59a	0.011456871
182	0xbd0d9515	-0.034566004
183	0x3d8e934d	0.06961689
184	0xbb85199a	-0.00406189
185	0xbde154f1	-0.110025294
186	0xbd5567a0	-0.052100778
187	0x3dd7f522	0.10544802
188	0x3d13f33d	0.036120642
189	0xbc75ad44	-0.014994923
190	0xbd95c875	-0.07313625
191	0x3cf24388	0.029573217
192	0xbca583b5	-0.020204404
193	0x3ddfe15e	0.10931657
194	0x3d48d46f	0.049030717
195	0x3e12e3a8	0.14344656
196	0xbda6f652	-0.081524506
197	0x3dbc2e31	0.09188498
198	0xbd6203a0	-0.05517924
199	0x3d9e6321	0.07733751
200	0x3de3a18f	0.11114799
201	0xbd2a233e	-0.041537516
202	0x3d670597	0.056401815
203	0xbd6da4a9	-0.05801836
204	0xbdb4f10a	-0.08835037
205	0x3d9d7416	0.07688157
206	0x3ddbba46	0.10728888
207	0x3d809837	0.06279033
208	0x3d6e81bd	0.058229197
209	0x3d83d97d	0.06437967
210	0x3d6c89e6	0.057748698
211	0xbdcc4ead	-0.09975944
212	0xbd93bc1d	-0.07213614
213	0x3d064916	0.032784544
214	0x3cf21b19	0.029553937
215	0xbe2209e6	-0.15824088
216	0x3da5bf85	0.0809317
217	0x3d9c165a	0.07621451
218	0xbd066471	-0.032810632
219	0xbcf3b239	-0.02974807
220	0xbe03381b	-0.12814371
221	0x3d61e50e	0.055150084
222	0x3def2829	0.11677582
223	0x3d821d81	0.06353284
224	0x3d9dabf2	0.076988116
225	0xbe0b2705	-0.13589104
226	0xbd58f93b	-0.05297206
227	0x3d8cad81	0.06869031
228	0x39aa6291	0.00032498364
229	0xbcc2466b	-0.023715219
230	0xbd3bc51b	-0.04584227
231	0x3da4e774	0.08051959
232	0x3d8f72d5	0.07004324
233	0xbde49a6a	-0.11162265
234	0x3dc85725	0.097822465
235	0xbd00ac0b	-0.031414073
236	0x3c9435d5	0.018092075
237	0x3d9ad2c1	0.07559729
238	0xbd29b89f	-0.041435834
239	0x3d47c49c	0.048771486
240	0xbcf7cca6	-0.030248951
241	0xbd40adec	-0.047040865
242	0x3b505188	0.0031786878
243	0x3d2c3c5f	0.04204976
244	0x3c2b7e20	0.010467082
245	0xbdceb6a1	-0.100934274
246	0x3d93452b	0.07190927
247	0xbde7ff72	-0.11328019
248	0x3dc64453	0.096810006
249	0x3d8893fb	0.0666885
250	0x3da0302f	0.0782169
251	0xbd111484	-0.035419956
252	0x3dfe6526	0.12421636
253	0xbbb095ad	-0.0053889365
254	0xbd5d02ee	-0.053957872
255	0x3d1cb9b1	0.038263027

encoder_lstm1.bias_hh_l0 f4 [256]
0	0xbc8080f6	-0.015686493
1	0x3db07517	0.08616083
2	0xbb2f7f56	-0.002677878
3	0x3df95af1	0.12175549
4	0x3e0bf6ff	0.1366844
5	0xbd904d1d	-0.07045958
6	0x3dcacec8	0.09902722
7	0x3da98048	0.08276421
8	0x3c90aed8	0.017661497
9	0x3d8c7bca	0.068595484
10	0x3e03fc8a	0.12889305
11	0xbd4832fa	-0.04887674
12	0x3dbe7b7b	0.09300896
13	0xbdd03a02	-0.10167314
14	0xbc821cf4	-0.015882947
15	0x3d8e4b55	0.06947962
16	0x3dcb78da	0.0993516
17	0xbdc8dbe6	-0.09807567
18	0xbdb63f00	-0.08898735
19	0xbda9f27d	-0.08298204
20	0xbc4d7e5d	-0.012542334
21	0x3da02f7e	0.078215584
22	0xbde5a766	-0.11213569
23	0x3ca37594	0.019953527
24	0xbd8e5565	-0.069498815
25	0x3d377ac9	0.04479483
26	0xbd6d2b8d	-0.05790286
27	0xbd5f92ad	-0.05458324
28	0xbcf2fc03	-0.029661184
29	0x3da86f22	0.08224322
30	0x3d071bdf	0.032985564
31	0xbe0013bc	-0.12507528
32	0x3d2c7cb1	0.042111102
33	0xbd58eb42	-0.052958734
34	0xbdf8468f	-0.12122833
35	0xbdec81b8	-0.115481794
36	0xbd4b445a	-0.049625732
37	0xbdda1baa	-0.10649808
38	0xbdd2a2a4	-0.102849275
39	0x3c3f3786	0.011670953
40	0xbbe5f128	-0.0070172735
41	0x3d6faf86	0.058517
42	0xbca7f171	-0.02050087
43	0x3e082afb	0.13297646
44	0x3db6f5e3	0.08933618
45	0x3d7b178c	0.061301753
46	0x3d55cbc0	0.052196264
47	0xbcc153c5	-0.023599515
48	0xbdacab90	-0.084311604
49	0xbd10c136	-0.03534051
50	0x3dd83b74	0.10558215
51	0x3ca0aeda	0.019614626
52	0x3debc4b3	0.11512127
53	0x3ceff9af	0.029293863
54	0xbd8309b4	-0.06398335
55	0xbe022b14	-0.12711746
56	0x3d711267	0.05885544
57	0xbdbc44e2	-0.09192826
58	0x3c7aa24b	0.015297483
59	0xbdd45924	-0.10368565
60	0xbdd6204b	-0.10455378
61	0x3d7e13af	0.06203049
62	0x3d861138	0.06546253
63	0x3dd76d55	0.105189
64	0xbd820ead	-0.063504554
65	0xbd8eaca1	-0.0696652
66	0x3cedaf7d	0.029014343
67	0xbd902702	-0.0703869
68	0x3d7173cd	0.058948327
69	0x3d912674	0.070874125
70	0x3b2c628f	0.0026303863
71	0xbc955a1b	-0.018231442
72	0xbccacdd0	-0.024756342
73	0xbd4976e1	-0.049185637
74	0xbdb6d229	-0.089268036
75	0x3a0571de	0.0005090515
76	0x3cedddd2	0.029036436
77	0xbc535ac5	-0.012900059
78	0xbdb2c3cc	-0.087287515
79	0xbdd0a1d7	-0.101871185
80	0xbde0c9eb	-0.10976013
81	0x3d5f73d3	0.054553818
82	0xbdd57944	-0.1042352
83	0x3dbb58f6	0.09147827
84	0x3e0a6aa7	0.13517247
85	0xbdb35c0e	-0.087577924
86	0x3c54cda7	0.012988484
87	0xbcb12035	-0.021621803
88	0xbcd86a3e	-0.026417848
89	0x3d08a010	0.033355772
90	0xbd2ae9a7	-0.041726734
91	0xbc469f95	-0.012123008
92	0xbdbd08da	-0.09230204
93	0xbc6b2dfd	-0.014354226
94	0x3dc1a05c	0.09454414
95	0xbd1175f1	-0.03551287
96	0x3cc47305	0.023980627
97	0xbc6c9b91	-0.014441387
98	0xbd3c497e	-0.045968525
99	0x3db81bc5	0.089896716
100	0x3d7505c0	0.059819937
101	0x3c4df47d	0.012570498
102	0xbd53692c	-0.05161397
103	0xbc0d659d	-0.0086301835
104	0xbd14f4cb	-0.036366265
105	0xbdcda8a1	-0.10041929
106	0x3d8f2470	0.06989372
107	0x3e0ecd59	0.13945521
108	0x3e012bd8	0.12614381
109	0xbdae2df7	-0.08504861
110	0xbd4d7b2d	-0.050166298
111	0x3e0254bb	0.12727635
112	0x3b889e7c	0.0041692834
113	0xbd66ee43	-0.056379568
114	0x3e231c24	0.15928704
115	0xbded998d	-0.11601553
116	0x3d8a8877	0.0676431
117	0x3dd66325	0.10468129
118	0x3e08856d	0.13332148
119	0x3d82d5e1	0.063884504
120	0x3dd032af	0.10165917
121	0xbd6d669f	-0.057959195
122	0x3ddfded5	0.10931174
123	0x3ca3ef4e	0.02001157
124	0x3ddd0c67	0.10793381
125	0x3e11c069	0.14233555
126	0xbcf40139	-0.02978574
127	0x3df1733e	0.11789559
128	0xbdbeb97c	-0.09312722
129	0x3df24779	0.118300386
130	0xbd38d3c5	-0.045123834
131	0xbda86dd8	-0.08224076
132	0x3d908923	0.07057407
133	0x3e027baf	0.12742494
134	0xbd81d8ee	-0.06340204
135	0xbcea91be	-0.028633948
136	0x3dc3f2a5	0.09567765
137	0xbd7194de	-0.05897986
138	0x3de2c030	0.11071813
139	0x3d5a9d4b	0.053372663
140	0x3cbb56b6	0.022868495
141	0xbdd135a8	-0.10215312
142	0x3daaebc2	0.083457485
143	0xbdbb9f2c	-0.09161219
144	0x3e0e99c9	0.13925852
145	0xbdb111af	-0.08645951
146	0xbd21df63	-0.03951968
147	0x3cf52857	0.029926462
148	0x3d8a688a	0.067582205
149	0xbd80b58c	-0.06284627
150	0x3daca648	0.08430153
151	0xbdb9b3eb	-0.0906752
152	0x3d915e7a	0.07098098
153	0x3d03aeef	0.03214925
154	0x3b22799a	0.0024791718
155	0xbdbe78d4	-0.0930039
156	0x3d8d745b	0.06906959
157	0xbd442e6b	-0.04789583
158	0x3aa50156	0.0012588899
159	0x3cb7cebc	0.022437446
160	0xbc4cb23c	-0.012493666
161	0xbd784c92	-0.0606199
162	0xbdab509d	-0.08364985
163	0x3da0b346	0.07846694
164	0xbdd2d644	-0.10294774
165	0x3cf78931	0.030216785
166	0xbd26ef2d	-0.04075544
167	0xbdbe19bf	-0.092822544
168	0xbd461aaa	-0.048365273
169	0x3cc249b6	0.023716789
170	0x3d128737	0.035773482
171	0xbc49cba7	-0.012316621
172	0xbc1652fc	-0.009175058
173	0x3d74325c	0.05961834
174	0xbde00441	-0.10938311
175	0xbdc7f167	-0.09762841
176	0x3d78582e	0.06063097
177	0xbe13d289	-0.14435782
178	0x3cb2da23	0.021832531
179	0x3d06358c	0.03276591
180	0xbd88ca9c	-0.0667927
181	0x3c2a9ea8	0.010413803
182	0xbbdbf7f5	-0.0067129084
183	0xbdc6c9c1	-0.0970645
184	0xbd825661	-0.06364132
185	0x3db4e8a1	0.08833433
186	0xbd36f6a8	-0.044668823
187	0x3dc94a08	0.098285735
188	0x3db8950f	0.09012806
189	0x3d36f9c7	0.0446718
190	0x3d0cce3a	0.03437636
191	0xbce90a48	-0.028447285
192	0x3d9bb44a	0.07602747
193	0x3d26ac4e	0.040691666
194	0x3d8b2246	0.067936465
195	0xbd0bf71f	-0.03417122
196	0xbd9bfd3a	-0.076166585
197	0xbc943816	-0.01809315
198	0x3d839c27	0.06426268
199	0xbda90a01	-0.08253861
200	0x3aff82e4	0.0019493965
201	0xbd4bf332	-0.049792476
202	0xbd7167fb	-0.058937054
203	0x3bb2be7b	0.005454836
204	0xbcd91e83	-0.026503807
205	0x3df7f8f3	0.1210803
206	0x3e17af35	0.1481293
207	0xbdfaa46a	-0.12238391
208	0xbd019c05	-0.031642932
209	0xbd49118c	-0.049089
210	0x3dd0f9b0	0.10203874
211	0xbd2c1fcc	-0.04202251
212	0x3c11acc7	0.008891291
213	0xbe05bb1d	-0.1305966
214	0x3dbf0a79	0.093281694
215	0xbd650976	-0.055917226
216	0x3cd675b8	0.02617918
217	0x3de25f16	0.110532925
218	0xbddb4ba3	-0.10707786
219	0xbd392029	-0.045196686
220	0x3c85d712	0.016337905
221	0xbd92a999	-0.071612544
222	0x3cedc7bd	0.029025907
223	0x3cc91112	0.024544273
224	0xbddcbeb6	-0.10778563
225	0xbc8e7640	-0.01739037
226	0x3cd5f659	0.026118444
227	0x3dab7c53	0.08373322
228	0xbcc2cd69	-0.023779588
229	0x3dc698df	0.096971266
230	0xbcf22f47	-0.02956356
231	0xbd1432b2	-0.03618116
232	0x3dcc0a1a	0.09962864
233	0xbc2aaf9b	-0.010417844
234	0xbd7ca571	-0.061681215
235	0xbc1b6dcd	-0.009486628
236	0x3e0c568e	0.13704893
237	0xbd82b75a	-0.06382628
238	0x3dd5a143	0.10431149
239	0x3d9b1ed1	0.07574237
240	0xbcace951	-0.021107348
241	0xbb16c43b	-0.0023005146
242	0xbc6cc875	-0.01445209
243	0x3d6209a5	0.05518498
244	0x3c95c1d0	0.018280894
245	0x3d8b0bc9	0.06789357
246	0x3a6d881f	0.0009061116
247	0x3db00bf8	0.08596033
248	0x3dd72db3	0.10506763
249	0x3d1d5104	0.03840734
250	0xbdc47d95	-0.09594265
251	0x3dbfef77	0.09371846
252	0xbddaa68f	-0.106763
253	0x3d7c0e66	0.06153717
254	0x3c7ddbc0	0.015494287
255	0x3d8c9d09	0.068658896

encoder_lstm2.weight_ih_l0 f4 [128, 64]
0	0xbe33f0ed	-0.17572375
1	0xbbe8183d	-0.0070829676
2	0xbe2d99de	-0.16953227
3	0x3daee1ca	0.085391596
4	0x3d7fc9d0	0.062448323
5	0xbca82097	-0.020523353
6	0xbdfa4c62	-0.122216
7	0x3cbfc8a1	0.023411097
8	0xbe417efb	-0.18896095
9	0x3c3e6b56	0.011622271
10	0x3dee56e0	0.11637664
11	0x3d84db51	0.06487144
12	0xbd988863	-0.07447889
13	0x3dbbb4b2	0.09165324
14	0xbdab40b4	-0.083619505
15	0x3d9c9645	0.07645849
16	0xbe1e69c5	-0.15470035
17	0xbd954e5e	-0.07290338
18	0x3c40032a	0.011719504
19	0x3e2df1f3	0.16986828
20	0x3e412656	0.1886228
21	0xbda503c0	-0.08057356
22	0x3e29bb77	0.16575418
23	0xbd2cca98	-0.042185396
24	0x3e1c4b3b	0.15263073
25	0xbe100a61	-0.14066459
26	0x3e0b07fa	0.13577262
27	0xbd6982b0	-0.0570094
28	0x3e328f01	0.17437364
29	0x3e04aac1	0.12955762
30	0xbd094cc0	-0.03352046
31	0x3dd60094	0.10449329
32	0x3de2587d	0.11052034
33	0xbe5636c6	-0.20919332
34	0xbda799a6	-0.08183603
35	0xbcb31d45	-0.021864543
36	0xbd3a6223	-0.045503747
37	0xbcd587b1	-0.02606568
38	0xbd4352c1	-0.047686342
39	0x3df801f4	0.121097475
40	0x3e196c28	0.14982665
41	0xbe138f35	-0.14410098
42	0x3e0f3fba	0.13989154
43	0xbe0b0d3a	-0.13579264
44	0x3d73a47b	0.059483033
45	0xbe3cea87	-0.1844884
46	0xbdab8f44	-0.08376935
47	0x3db9266b	0.09040531
48	0x3c68e8a8	0.014215626
49	0x3dcf387a	0.10118194
50	0x3df5902d	0.1199039
51	0x3a331189	0.0006830921
52	0xbda9ea19	-0.08296604
53	0x3c9a4c3f	0.018835185
54	0x3d8e7532	0.06955947
55	0xbd3ecea0	-0.04658377
56	0xbc4feb81	-0.012690426
57	0xbe37d764	-0.17953259
58	0x3e0fb737	0.14034735
59	0x3da51287	0.080601744
60	0x3e327a68	0.17429507
61	0xbc723631	-0.014783428
62	0x3d7b8344	0.06140448
63	0x3e1ab65f	0.15108632
64	0xbdafe286	-0.08588128
65	0xbd039508	-0.03212455
66	0xbd8d54d7	-0.069009475
67	0xbaa8e765	-0.0012886344
68	0x3d9bafb0	0.07601869
69	0xbd6e9093	-0.058243345
70	0xbdc3ce97	-0.09560888
71	0x3dea89d1	0.11452068
72	0xbe4b8424	-0.19874626
73	0x3e07dc22	0.13267568
74	0xbdb7f005	-0.08981327
75	0xbdb49614	-0.08817688
76	0xbb68176e	-0.0035414356
77	0x3ceb62b5	0.02873359
78	0xbde3352a	-0.110941246
79	0x3e2cbc67	0.16868745
80	0x3d564271	0.052309457
81	0x3e48cf06	0.19610223
82	0x3e0c6156	0.13709006
83	0xbd7da0b4	-0.061920837
84	0x3e321c44	0.17393595
85	0x3e35dbe0	0.17759657
86	0x3df34dd8	0.11880082
87	0xbe027a6e	-0.12742016
88	0xbe2c5c77	-0.16832148
89	0x3d7f275e	0.062293403
90	0xbde5f14f	-0.112276666
91	0x3df2ad97	0.11849516
92	0x3dd76813	0.105178975
93	0x3dffdc79	0.12493224
94	0x3cc84249	0.02444567
95	0x3e30ad2a	0.17253557
96	0xbe08133c	-0.13288587
97	0x3c73e189	0.014885315
98	0xbd5e28e4	-0.054238215
99	0x3db23a7c	0.08702561
100	0xbd11637b	-0.035495263
101	0x3d35ca81	0.044382576
102	0x3df12ea3	0.117764734
103	0x3e36bf16	0.17846331
104	0xbc88ca8b	-0.016698143
105	0xbd9d5409	-0.07682044
106	0xbd1d70b7	-0.03843757
107	0x3e3e8520	0.1860547
108	0x3d883c40	0.06652117
109	0xbdfb1adf	-0.12260985
110	0x3d7891bd	0.06068586
111	0x3dd9bda8	0.10631877
112	0x3bee010f	0.00726331
113	0xbd4ac0da	-0.049500324
114	0xbda172d3	-0.07883229
115	0xbde17db3	-0.11010303
116	0xbe566296	-0.20936045
117	0x3d8ea158	0.06964368
118	0x3bd3e53c	0.006466536
119	0xbdbd97d7	-0.09257477
120	0xba47b34d	-0.00076179655
121	0xbd700b1f	-0.058604356
122	0x3e178e07	0.14800273
123	0x3db8806c	0.090088695
124	0xbd0dda1f	-0.034631845
125	0x3de39e3e	0.11114167
126	0xbde3634d	-0.111029245
127	0x3e076ec4	0.13225847
128	0x3c4bac04	0.012431148
129	0x3e0f5644	0.13997751
130	0xbdd75eab	-0.10516103
131	0xbe32c551	-0.17458083
132	0xbbc1b3d0	-0.005911328
133	0x3d3e836e	0.04651206
134	0x3e0b3cba	0.13597384
135	0xbdcd1ff8	-0.10015863
136	0x3d6f41c2	0.05841232
137	0xbe05a259	-0.13050212
138	0x3dd569a1	0.10420538
139	0x3e320dda	0.17388096
140	0x3da3f126	0.0800498
141	0x3e18ecc1	0.14934064
142	0x3c8f7d1f	0.017515717
143	0x3e1c1a57	0.15244423
144	0xbb90a891	-0.004414626
145	0xbdad4967	-0.08461266
146	0xbd6b6778	-0.057471722
147	0xbd646f3d	-0.055770148
148	0x3e09fced	0.1347539
149	0xbd127dc8	-0.035764486
150	0x3ca0604b	0.019577166
151	0xbe02f47b	-0.12788574
152	0x3e067c57	0.1313337
153	0x3e1649a8	0.14676535
154	0x3de5a51f	0.11213135
155	0x3dd7d004	0.10537723
156	0xbdf734f9	-0.120706506
157	0x3e0eb512	0.1393626
158	0x3da7883b	0.08180281
159	0xbdc6d575	-0.097086824
160	0x3e1e6e5f	0.1547179
161	0x3df080dc	0.11743328
162	0x3cffd16f	0.031227795
163	0xbe0454bb	-0.12922947
164	0xbd48f8f7	-0.049065556
165	0xbb8c5a48	-0.0042832233
166	0x3db9475c	0.09046814
167	0x3e149264	0.14508969
168	0x3d2a60d6	0.041596256
169	0x3cc52e4d	0.02406993
170	0xbdcbea86	-0.09956841
171	0xbd4c7c85	-0.04992344
172	0x3e44064c	0.19143027
173	0xbe118be7	-0.14213525
174	0x3e3de108	0.18542874
175	0x3e4ed6ec	0.20199174
176	0xbd50147e	-0.050800793
177	0x3e163bde	0.14671275
178	0x3e42ab49	0.19010653
179	0x3d85bb20	0.06529832
180	0x3dd0a846	0.101883456
181	0xbdc4588d	-0.09587202
182	0xbc50e3a9	-0.012749591
183	0xbbe6ccbd	-0.0070434497
184	0xbd1f9383	-0.038959038
185	0x3db1d443	0.08683064
186	0x3d8f2aca	0.06990583
187	0x3e32ceed	0.17461748
188	0x3e0ebb86	0.13938722
189	0x3a5c0166	0.00083925424
190	0x3e13db3a	0.14439097
191	0x3ddd603e	0.10809372
192	0xbe0eac17	-0.13932835
193	0x3d3b1c49	0.04568127
194	0xbd8754d1	-0.06607974
195	0xbc468e9e	-0.0121189635
196	0xbc8110d3	-0.015755093
197	0x3d971ccf	0.07378542
198	0x3daf2655	0.08552233
199	0xbdb68902	-0.08912851
200	0xbd9e9069	-0.07742388
201	0x3be6a3ba	0.0070385607
202	0xbde20ec3	-0.11037972
203	0x3d387047	0.04502895
204	0x3ce0ace3	0.027426189
205	0xbd8bdb1c	-0.06828901
206	0x3d2f4582	0.042790897
207	0xbda9db4c	-0.08293781
208	0xbe2fe74a	-0.17178074
209	0xbc0bb22f	-0.008526369
210	0x3d99b345	0.07504896
211	0xbdbdbdda	-0.09264727
212	0x3e3445a6	0.17604694
213	0xbe272786	-0.1632367
214	0xbc9cd9f8	-0.019146904
215	0xbe4c71f6	-0.19965348
216	0xbd92f5f7	-0.0717582
217	0xbd91d706	-0.071210906
218	0x3e0601a6	0.13086566
219	0xbc04d93a	-0.0081084315
220	0x3dc67b8d	0.09691534
221	0x3dce3769	0.100691624
222	0xbe166cbd	-0.14689918
223	0x3de68375	0.11255542
224	0xbe2797d6	-0.16366515
225	0xbdcbd649	-0.09952981
226	0xbc86016b	-0.016358098
227	0x3e2ab4e2	0.16670564
228	0x3d14434c	0.03619699
229	0xbdf1f43a	-0.11814161
230	0x3d92acb3	0.07161846
231	0xbde8b2c9	-0.113622256
232	0xbd407a4a	-0.046991624
233	0x3d735e20	0.059415936
234	0x3d7a106a	0.06105081
235	0x3e3d8cb4	0.18510705
236	0xbd86e66a	-0.06586917
237	0x3e184202	0.1486893
238	0x3e50cb57	0.20390068
239	0x3db1b432	0.08676948
240	0x3da49c28	0.08037597
241	0x3c431ae3	0.011908266
242	0xbddf104d	-0.10891781
243	0x3dad5607	0.08463674
244	0xbdb36048	-0.087585986
245	0x3da8d62e	0.082439765
246	0x3cf4aff6	0.029869061
247	0x3d925af3	0.071462534
248	0x3dd8960e	0.10575496
249	0xbd176fc9	-0.03697184
250	0xbd90b9b5	-0.07066671
251	0x3a76a4bd	0.0009408703
252	0xbde40635	-0.111339964
253	0xbdbbde08	-0.091732085
254	0x3cb8896f	0.022526471
255	0xbe068ad1	-0.13138892

encoder_lstm2.weight_hh_l0 f4 [128, 32]
0	0x3e28f5a1	0.1649995
1	0xbe19fd83	-0.15038113
2	0x3d69420c	0.056947753
3	0x3cc3522d	0.023842895
4	0x3e372a7c	0.178873
5	0xbc8aa3ec	-0.016923867
6	0x3d3d7a73	0.046259355
7	0x3dced2c7	0.10098796
8	0x3e3efe96	0.18651804
9	0xbdeb676f	-0.11494338
10	0x3d3452d2	0.044024296
11	0xbd45788c	-0.048210666
12	0xbdeeda3a	-0.11662717
13	0x3d6373eb	0.05553047
14	0x3d9770d0	0.07394564
15	0x3c3167dd	0.010827986
16	0x3dabf8bf	0.08397054
17	0x3d632f9d	0.05546533
18	0xbdadc91a	-0.08485623
19	0x3e3352fa	0.17512122
20	0x3dd2be1d	0.102901675
21	0xbccfb029	-0.025352554
22	0xbd5566be	-0.052099936
23	0xbcbe0ee0	-0.023200452
24	0xbcdc9b8d	-0.026929641
25	0xbe1294b7	-0.14314543
26	0x3db97e25	0.09057263
27	0x3e249d2e	0.16075584
28	0xbcca6ada	-0.024709154
29	0xbe0d36ea	-0.1379048
30	0x3e29a560	0.16566992
31	0x3da6fe99	0.081540294
32	0x3e1f3c95	0.15550454
33	0x3c976382	0.018480066
34	0xbdfa5095	-0.12222401
35	0xbd9a031c	-0.07520124
36	0xbdc883c0	-0.09790754
37	0xbe1fc55d	-0.15602632
38	0xbc3837f6	-0.011243811
39	0xbd00b92c	-0.031426594
40	0x3b46093c	0.0030217906
41	0x3dbb495f	0.09144854
42	0xbe13e1f1	-0.14441659
43	0x3e31c4c0	0.1736021
44	0xbe1e188c	-0.15439051
45	0xbdbfb7a5	-0.09361199
46	0xbddee502	-0.108835235
47	0xbdb3c75a	-0.08778258
48	0x3e1b6e83	0.15178876
49	0x3e2d0cb1	0.16899373
50	0x3df79cfa	0.12090488
51	0x3c56e474	0.013115991
52	0x3e31eb2c	0.17374867
53	0x3dec54e0	0.11539626
54	0x3d119a87	0.03554776
55	0x3e4a938d	0.19782849
56	0x3dbe12f2	0.09280957
57	0x3d504e86	0.050856136
58	0x3da1d6d9	0.07902307
59	0xbdc0ee49	-0.09420449
60	0x3dac9e9f	0.08428692
61	0xbde87d82	-0.11352064
62	0xbdeeef7a	-0.1166677
63	0xbd114815	-0.035469133
64	0x3e1fab0c	0.15592593
65	0xbcaae0a9	-0.02085908
66	0xbe19d4f1	-0.15022637
67	0xbdc5d160	-0.09659076
68	0x3e0312e3	0.12800173
69	0x3dd25ad9	0.10271234
70	0x3e0ce840	0.13760471
71	0xbe2c6f2a	-0.1683928
72	0xbc950f3d	-0.018195743
73	0x3c6fa75a	0.014627302
74	0x3dac4ff9	0.08413691
75	0x3dfffa3d	0.12498901
76	0x3c954946	0.018223416
77	0x3d26093c	0.04053615
78	0xbb0b4ca7	-0.0021255405
79	0xbe06f939	-0.13181008
80	0x3d7d7bc3	0.061885606
81	0xbd52ec89	-0.05149511
82	0xbdde85e7	-0.108653836
83	0x3d94c9cc	0.07265052
84	0x3dc2d8d4	0.09514013
85	0x3e243aab	0.16038005
86	0xbe4f6908	-0.2025491
87	0xbda15684	-0.0787783
88	0xbc20a94b	-0.009805988
89	0xbd6a31e5	-0.05717649
90	0xbe27f65e	-0.16402575
91	0x3d9df4a6	0.077126786
92	0x3cacc236	0.0210887
93	0xbcb961dc	-0.02262967
94	0x3b8f555f	0.0043741907
95	0x3deeac99	0.11654014
96	0x3e2162a9	0.15760292
97	0xbdecff46	-0.11572127
98	0xbd49206f	-0.049103197
99	0xbe3ef8b2	-0.18649557
100	0xbd22d729	-0.039755974
101	0xbe215258	-0.15754068
102	0x3e26d254	0.16291171
103	0xbd94a159	-0.07257337
104	0xbdd742c0	-0.105107784
105	0xbe09766b	-0.13424079
106	0xbe1aeff1	-0.15130593
107	0x3b788386	0.003792019
108	0x3de8452f	0.11341321
109	0x3de90515	0.113779224
110	0xbe2fb7c7	-0.17159949
111	0x3e15d07a	0.14630309
112	0x3df3bfbc	0.11901805
113	0x3e29c561	0.165792
114	0xbe12593e	-0.14291856
115	0x3e3192f9	0.17341222
116	0xbe0e3e89	-0.13891043
117	0xbd9bfad7	-0.07616203
118	0xbd9d4e6c	-0.076809734
119	0x3dec047e	0.11524294
120	0x3cd55d26	0.026045393
121	0x3dadf1a8	0.08493358
122	0xbd266c6c	-0.040630743
123	0x3cde8e12	0.027167354
124	0x3c80ed2c	0.015738092
125	0xbdc1045d	-0.0942466
126	0x3cbcab57	0.02303092
127	0x3de52bd1	0.11189998
128	0x3da93d07	0.08263593
129	0x3e1e5229	0.15461029
130	0x3dae4a9b	0.085103236
131	0x3ccdc157	0.025116606
132	0xbdbae62e	-0.091259345
133	0xbc882f7c	-0.016624205
134	0x3e323f2a	0.17406908
135	0x3e01516b	0.12628715
136	0xbe1912cc	-0.14948577
137	0x3d9a2324	0.07526234
138	0xbd7d9080	-0.061905384
139	0x3e16489c	0.14676136
140	0x3dce83a5	0.10083703
141	0xbd88bdd1	-0.066768296
142	0xb9b2be3e	-0.00034092547
143	0x3e211995	0.15732415
144	0x3c8c5365	0.01712961
145	0xbdca9625	-0.09891919
146	0x3e16e759	0.1473669
147	0xbd34ba06	-0.04412272
148	0x3e47e65c	0.19521469
149	0x3db6ed7a	0.08932014
150	0x3e1912da	0.14948598
151	0xbe1e4a72	-0.15458086
152	0x3c88495f	0.016636549
153	0xbde1191e	-0.10991119
154	0x3d85cefa	0.06533618
155	0xbd725cf0	-0.059170663
156	0xbe168fb4	-0.14703256
157	0x3e1a2077	0.15051447
158	0xbdceda3e	-0.1010022
159	0xbe2f3e4f	-0.17113613
160	0xbdb7f3bb	-0.08982035
161	0x3d6844c3	0.0567062
162	0xbbbaf443	-0.005705388
163	0x3c474286	0.0121618565
164	0xbe04d71a	-0.1297268
165	0xbc8c9b4c	-0.017163895
166	0x3b9a3e30	0.0047071204
167	0xbdd52384	-0.10407165
168	0xbc48fa1f	-0.012266665
169	0xbda2d923	-0.07951572
170	0x3d5ef986	0.054437183
171	0xbdf1448e	-0.11780654
172	0xbe0dacba	-0.13835421
173	0x3e2df534	0.16988069
174	0x3cf4d305	0.029885778
175	0x3dd854ee	0.10563074
176	0xbd1966a2	-0.037451394
177	0x3e1ad966	0.15121993
178	0x3ce9ed06	0.028555404
179	0x3e3866f8	0.1800803
180	0x3e11d8d1	0.14242865
181	0x3db86e41	0.09005404
182	0x3bcf99cc	0.0063354727
183	0x3e11f0e8	0.14252055
184	0xbdcecf80	-0.10098171
185	0xbdd871c2	-0.105685726
186	0x3de6439a	0.11243363
187	0x3e3450e9	0.1760899
188	0x3d996b2b	0.07491144
189	0xbdd3050a	-0.103036955
190	0x3e20ac9c	0.15690845
191	0x3e18a6d0	0.14907384
192	0xbc2f4e65	-0.010699843
193	0x3d8c93a3	0.06864097
194	0x3d3d9e8c	0.04629378
195	0x3d9efd8f	0.07763206
196	0xbdba8ebe	-0.09109257
197	0xbc891ec5	-0.016738305
198	0x3d3f428a	0.046694316
199	0xbd0f01c0	-0.03491378
200	0x3d55a093	0.05215509
201	0x3db3264f	0.08747541
202	0x3ddc867a	0.10767837
203	0xbd191ea7	-0.037382748
204	0xbce7df85	-0.028304825
205	0x3d3f88fc	0.046761498
206	0xbc2f25e5	-0.010690187
207	0x3e2c5a47	0.16831313
208	0xbdd65ddb	-0.1046712
209	0x3e2d9e22	0.16954854
210	0xbd0b86cb	-0.034064095
211	0x3cb92bcc	0.022603892
212	0xbd393e37	-0.04522535
213	0xbe180228	-0.14844573
214	0xbd9b131b	-0.075720035
215	0xbdc25b78	-0.094901025
216	0xbe283942	-0.16428092
217	0x3bd8073b	0.006592659
218	0xbddc329e	-0.10751842
219	0x3d5f5940	0.054528475
220	0xbdd026e5	-0.101636685
221	0xbc21140d	-0.009831441
222	0xbcd55edf	-0.026046215
223	0xbd3b0577	-0.04565951
224	0xbe0d2308	-0.13782895
225	0xbd573c3a	-0.05254767
226	0xbd218549	-0.03943375
227	0x3c28837e	0.010285256
228	0x3cec5de9	0.028853374
229	0x3d22c973	0.0397429
230	0xbd44f444	-0.048084512
231	0x3e127503	0.14302449
232	0xbc9913f5	-0.018686274
233	0x3d60124a	0.05470494
234	0x3d648aad	0.055796314
235	0xbca90ea8	-0.020636871
236	0xbcfc6d6b	-0.030813893
237	0xbd798125	-0.060914177
238	0xbc4a7c39	-0.012358719
239	0xbdf9aa6e	-0.1219071
240	0xbe071aa3	-0.13193755
241	0xbc5ebfc4	-0.013595525
242	0x3da50bbf	0.08058881
243	0x3d59819a	0.053102113
244	0x3d574369	0.05255452
245	0x3d51cd0b	0.051220935
246	0x3c8d6db4	0.017264225
247	0xbdb677bc	-0.08909556
248	0x3d9a266d	0.075268604
249	0x3d4fc2f5	0.050723035
250	0x3dc3594b	0.09538516
251	0x3dbdc044	0.092651874
252	0x3d717b20	0.05895531
253	0x3da4167b	0.080121
254	0xbdc7673d	-0.09736488
255	0xbe1aea33	-0.15128402

encoder_lstm2.bias_ih_l0 f4 [128]
0	0x3e395ceb	0.18101852
1	0x3aa75e41	0.0012769179
2	0xbdf108d0	-0.11769259
3	0x3e2fd784	0.17172056
4	0xbdddbb63	-0.10826757
5	0x3d71e34d	0.05905466
6	0x3e150eec	0.14556473
7	0x3d2bbc14	0.041927412
8	0x3dadbd1a	0.08483334
9	0xbdb464be	-0.088082775
10	0x3c9c2bf7	0.019063933
11	0xbe238022	-0.15966848
12	0xbe17b47a	-0.1481494
13	0xbe459714	-0.19295913
14	0xbe427629	-0.18990387
15	0xbe046572	-0.12929323
16	0x3df6a68d	0.12043486
17	0x3dcd03aa	0.100104645
18	0x3e1ec804	0.15505987
19	0x3d34496c	0.044015333
20	0x3d621928	0.055199772
21	0xbe1be85e	-0.1522536
22	0xbd66caa4	-0.056345597
23	0xbe316dbe	-0.1732702
24	0x3dfdcc00	0.123924255
25	0x3e135381	0.14387323
26	0x3e06d843	0.13168435
27	0xbb9f58a2	-0.004862861
28	0x3e35ca61	0.17752983
29	0xbde6c6d8	-0.11268395
30	0x3e208b4b	0.15678136
31	0x3d0c3605	0.034231205
32	0x3d2f68b8	0.042824477
33	0xbe33142a	-0.1748816
34	0xbd4fa2fe	-0.05069255
35	0xbc74833f	-0.01492387
36	0xbd99183c	-0.074753255
37	0x3e0b7f8c	0.13622874
38	0xbd7f8aa4	-0.062388077
39	0xbd9ec4b9	-0.077523656
40	0xbe0c32e4	-0.13691288
41	0x3e33037f	0.17481802
42	0xbcdb9c08	-0.0268078
43	0xbdff116d	-0.124544956
44	0xbd24fe84	-0.040281788
45	0xbe44de39	-0.19225396
46	0x399d0ed6	0.00029956427
47	0xbde9fac3	-0.11424782
48	0x3d202d7b	0.039105874
49	0x3bfcf7a8	0.0077199526
50	0x3dbe79c9	0.093005724
51	0xbc451f8c	-0.012031447
52	0x3e09e6a5	0.1346689
53	0xbdb48a0e	-0.08815394
54	0xbda2e3e4	-0.07953623
55	0xbc9052f4	-0.01761768
56	0xbb10ea81	-0.0022112431
57	0xbd86124d	-0.06546459
58	0x3da1f77f	0.07908534
59	0x3db3bcfb	0.087762795
60	0x3e09effe	0.13470456
61	0x3da20f17	0.079130344
62	0x3ddcfb72	0.10790147
63	0x3e09cb40	0.1345644
64	0xbd83c666	-0.06434326
65	0x3d752c8f	0.059856948
66	0x3e257807	0.16159068
67	0xbd6b9818	-0.057518095
68	0xbd889b4d	-0.06670246
69	0x3e07b957	0.13254295
70	0x3e0affa2	0.13574079
71	0xbbe2d413	-0.006922254
72	0xbd67a39e	-0.056552522
73	0xbd83cf42	-0.06436016
74	0x3ceac2b1	0.02865729
75	0xbdaa3853	-0.08311524
76	0xbdd13b8f	-0.10216438
77	0xbdc47500	-0.095926285
78	0x3d79923f	0.060930487
79	0x3db0f3d8	0.086402595
80	0x3c64176a	0.013921598
81	0xbde5ffca	-0.112304285
82	0x3dc61077	0.09671109
83	0xbd82a4cf	-0.06379091
84	0xbde623e3	-0.112373136
85	0x3d9540d3	0.07287755
86	0x3d7d65ce	0.061864667
87	0x3dfccf2d	0.12344203
88	0xbda3cc49	-0.07997949
89	0xbcac033a	-0.020997632
90	0xbda1b7e7	-0.07896405
91	0x3d44b181	0.048020843
92	0x3e3103ad	0.17286558
93	0x3d9e6d8f	0.077357404
94	0x3e35304e	0.17694208
95	0xbcc54208	-0.024079338
96	0x3e017949	0.12643923
97	0x3dc20c3f	0.09474992
98	0x3d0abf7b	0.033874016
99	0xbbbac64e	-0.0056999093
100	0x3ce60496	0.028078359
101	0xbdef4d9b	-0.11684724
102	0x3dca0aee	0.09865366
103	0x3d4f4fc4	0.05061318
104	0x3bfbb7f7	0.0076818424
105	0xbdbc6cd8	-0.09200448
106	0x3e34ea46	0.17667493
107	0xbdff2cb8	-0.12459701
108	0x3d6ca641	0.05777574
109	0x3de57d29	0.11205513
110	0x3c8b9390	0.017038137
111	0xbcb97925	-0.022640774
112	0x3cbb9bb5	0.022901395
113	0xbd031398	-0.032001108
114	0xbd9cb196	-0.07651059
115	0xbe21ca9c	-0.15799946
116	0x3e0aad59	0.1354269
117	0x3e175cae	0.14781448
118	0xbc4786df	-0.012178152
119	0xbdc20e23	-0.094753526
120	0xbd96d363	-0.073645376
121	0x3d669364	0.056292906
122	0x3d3ced6a	0.046124853
123	0xbe01b9dd	-0.12668557
124	0x3e052e09	0.13005842
125	0xbc9907db	-0.018680504
126	0xbe1d4663	-0.15358882
127	0x3df418c7	0.119187884

encoder_lstm2.bias_hh_l0 f4 [128]
0	0xbe102327	-0.1407591
1	0x3ddf54e9	0.10904867
2	0x3c7fa932	0.015604304
3	0x3e31e846	0.17373762
4	0xbd3a43d4	-0.045474842
5	0x3cd871ea	0.026421506
6	0xbe0e7344	-0.13911158
7	0x3d047ffa	0.03234861
8	0xbe1b5382	-0.15168574
9	0xbcf15f6e	-0.02946445
10	0x3d94c63b	0.07264372
11	0xbe2314c7	-0.15925895
12	0xbdf79761	-0.1208942
13	0x3d46e50f	0.04855829
14	0xbde3f569	-0.11130793
15	0xbc33acbc	-0.010966476
16	0x390a8318	0.00013209542
17	0xbdb382cc	-0.08765182
18	0xbdde0065	-0.10839919
19	0xbde90796	-0.113784
20	0x3b9340ed	0.0044938237
21	0x3d83643f	0.06415605
22	0x3d48e173	0.04904313
23	0xbcb29d67	-0.02180357
24	0x3d77e41a	0.06052027
25	0xbe25ec25	-0.16203363
26	0x3cd6f0a4	0.026237793
27	0x3c692fb1	0.014232562
28	0xbd4aecd4	-0.049542263
29	0xbd82668a	-0.06367214
30	0xbd86ab8e	-0.0657569
31	0xbcbbec4e	-0.022939827
32	0xbd201f39	-0.039092276
33	0x3e1a1a6b	0.1504914
34	0x3d1645f6	0.036687814
35	0x3dfbd666	0.12296753
36	0xbe2ac798	-0.16677701
37	0x3e0edf80	0.13952446
38	0x3c1aea61	0.009455294
39	0xbd565f4a	-0.05233697
40	0xbe29d79e	-0.16586158
41	0xbdc2d344	-0.09512952
42	0xbe0090dd	-0.12555261
43	0x3d45bc54	0.048275307
44	0x3daf09eb	0.085468136
45	0xbde114e2	-0.10990311
46	0x3d7707e5	0.060310263
47	0x3d431fb9	0.047637675
48	0xbe0a6ccb	-0.13518064
49	0x3d324098	0.043518633
50	0xbdcf4e61	-0.101223715
51	0x3de6a8b1	0.11262644
52	0xbe14c804	-0.14529425
53	0x3e05b481	0.13057138
54	0x3de9eab6	0.11421721
55	0x3d922f79	0.07137961
56	0x3da389c5	0.07985262
57	0x3b3687f4	0.002785203
58	0xbda0abf8	-0.078453004
59	0xbd224b5f	-0.03962266
60	0x3d727720	0.059195638
61	0xbcca2858	-0.02467744
62	0x3dd36766	0.10322456
63	0xb9f1fc83	-0.00046155238
64	0x3e204741	0.15652181
65	0x3d16d8b5	0.03682776
66	0x3d87d142	0.0663171
67	0xbe22aae4	-0.15885502
68	0x3e391b91	0.18076922
69	0x3e048b75	0.12943824
70	0xbcbd3407	-0.023096098
71	0xbc45229a	-0.012032175
72	0x3d1661f6	0.036714517
73	0x3e080a9e	0.132853
74	0x3e18242e	0.14857551
75	0xbd98d6db	-0.074628554
76	0x3deac142	0.11462642
77	0xbe075710	-0.13216805
78	0x3de5be24	0.11217907
79	0x3d873826	0.06602506
80	0xbc96c8d8	-0.018406317
81	0xbe11578a	-0.1419355
82	0x3d8b57ba	0.06803842
83	0x3d8a7c22	0.06761958
84	0x3ce7776a	0.028255183
85	0x3e3ee537	0.18642126
86	0xbd85edce	-0.06539498
87	0xbdf23129	-0.11825783
88	0x3df27b54	0.11839929
89	0x3cac1efc	0.021010868
90	0xbd7cf318	-0.06175527
91	0xbcad0612	-0.021121059
92	0xbd529e25	-0.05142035
93	0xbe376c5b	-0.17912428
94	0x3d85d0b5	0.06533948
95	0x3d3a9c22	0.045559056
96	0xbd78aa01	-0.060709003
97	0x3dc2095b	0.09474441
98	0x3d4eb831	0.050468627
99	0xbd534621	-0.051580552
100	0x3df733d6	0.12070434
101	0xbceddbb2	-0.029035423
102	0x3d6eda02	0.058313377
103	0x3e3147ad	0.17312498
104	0x3d3c2019	0.04592905
105	0x3d851477	0.06498044
106	0xbd582913	-0.052773546
107	0xbdada5d8	-0.08478898
108	0xbdbe72d9	-0.09299249
109	0xbd2ef403	-0.042713176
110	0x3e0899d2	0.13339928
111	0x3be087db	0.0068521327
112	0xbc568ab7	-0.013094596
113	0x3cb02b41	0.021505
114	0x3de960be	0.11395405
115	0x3e14ac44	0.14518839
116	0x3e11779c	0.14205784
117	0x3e4215c4	0.18953615
118	0xbdfdddcf	-0.12395822
119	0x3d3a6238	0.045503825
120	0x3e331d25	0.17491587
121	0xbe0f2e3b	-0.1398248
122	0xbd851c0c	-0.0649949
123	0xbde5bd41	-0.11217738
124	0x3e2bf49c	0.1679253
125	0xbd854a87	-0.065083556
126	0x3dc3b15c	0.09555313
127	0x3d0e028b	0.034670394
