backend/anomaly_models/WH003_SKU-009.pth (torch, 242563 bytes, 20 tensors)

encoder_lstm1.weight_ih_l0 f4 [256, 6]
0	0x3d869b80	0.06572628
1	0x3de3a319	0.11115093
2	0x3d0467de	0.032325618
3	0x3d749461	0.059711818
4	0xbda9ee9e	-0.08297466
5	0xbcd6f33b	-0.026239028
6	0x3d5b5b5d	0.053553928
7	0x3dd35cbd	0.10320423
8	0x3c8a0ca8	0.016851738
9	0x3e15f223	0.14643149
10	0xbde71fd1	-0.112853654
11	0x3de2fffb	0.11083981
12	0x3deaba79	0.11461348
13	0xbdb0f54a	-0.08640535
14	0x3d3b76c8	0.045767576
15	0xbb5a4b0b	-0.003330889
16	0x3da27f79	0.0793447
17	0xbd8e538e	-0.069495305
18	0x3d75bc0f	0.0599938
19	0x3dbe5170	0.09292877
20	0x3d0cdd5f	0.034390803
21	0x3dc67a37	0.096912794
22	0x3da9a017	0.08282488
23	0x3c1b429a	0.009476328
24	0xbd02846f	-0.03186458
25	0x3cc9ccc9	0.024633782
26	0xbd2280bd	-0.039673556
27	0xbbe05a0e	-0.006846673
28	0xbdce8c6e	-0.100853786
29	0xbd56b798	-0.052421182
30	0x3ccec578	0.025240645
31	0xbc4a8cb4	-0.012362648
32	0xbc242406	-0.010018354
33	0x3cfbf7f7	0.030757887
34	0xbd4654a8	-0.04842058
35	0x3dd67e9d	0.10473368
36	0x3dfeec30	0.12447393
37	0x3dc9d69e	0.09855388
38	0xbcb4e0d4	-0.022079863
39	0xbd9eb99e	-0.077502474
40	0xbda7c6b1	-0.08192194
41	0xbbf3955a	-0.0074335756
42	0x3c8fad4b	0.017538687
43	0x3d83fa24	0.06444195
44	0xbdecdb17	-0.115652256
45	0xbdb1d41a	-0.08683033
46	0xbdc68a34	-0.09694329
47	0x3cb750d4	0.022377409
48	0xbdb93aca	-0.09044416
49	0xbd5c12b3	-0.05372877
50	0x3da57647	0.080792
51	0xbd0ac0d7	-0.033875313
52	0x3dc4af31	0.096037276
53	0x3cb2722e	0.02178296
54	0x3c86443d	0.01638996
55	0x3bd3acb3	0.0064597963
56	0x3dd4d5cf	0.10392343
57	0x3da12879	0.07869048
58	0x3c6c8c2a	0.014437715
59	0xbd9731f5	-0.073825754
60	0xbd3904ba	-0.045170523
61	0xbe00f1cf	-0.12592243
62	0x3d8533c3	0.065040134
63	0x3ddb66c6	0.10712962
64	0xbde65043	-0.112457775
65	0x3d829d06	0.06377606
66	0xbd7828d1	-0.0605858
67	0xbbd32f70	-0.006444864
68	0xbd89221b	-0.06695958
69	0x3db29f7d	0.08721826
70	0xbda1fa2f	-0.07909047
71	0x3d82de8b	0.06390103
72	0xbdad2ebf	-0.08456182
73	0xbd4e782e	-0.05040758
74	0xbcfa145c	-0.030527286
75	0xbccd0129	-0.025024967
76	0x3cfe652f	0.031054107
77	0x3cb76e56	0.02239148
78	0x3e0c2ebe	0.13689706
79	0x3d96b726	0.073591515
80	0x3d9f3a37	0.077747755
81	0xbc36c642	-0.011155667
82	0x3b0062d0	0.0019590147
83	0x3e182394	0.14857322
84	0xbda82ec8	-0.08212048
85	0xbd5e1acf	-0.054224785
86	0x3d8bb43d	0.06821487
87	0x3d8c2e02	0.06844713
88	0x3d4fab78	0.050700635
89	0xbd8ee4ec	-0.06977257
90	0xbc6ffbe9	-0.014647462
91	0x3d39775d	0.04527985
92	0xbce2b379	-0.02767347
93	0x3e13d393	0.14436178
94	0x3d6cb0bc	0.057785735
95	0x3e042966	0.12906417
96	0xbd14e6bb	-0.036352854
97	0xbdba9a6c	-0.09111485
98	0xbc368a08	-0.011141308
99	0x3c9f0054	0.019409336
100	0x3df2e6b8	0.11860412
101	0xbdb0cbeb	-0.08632644
102	0x3e17bde3	0.1481853
103	0x3be86dd8	0.0070931725
104	0x3d668759	0.05628142
105	0xbd401ff5	-0.046905477
106	0xbd5e58e5	-0.054283995
107	0x3d9ef7c1	0.07762099
108	0xbc2a8f64	-0.010410164
109	0x3da0b0ff	0.07846259
110	0x3de38083	0.11108496
111	0x3d8d57fc	0.06901547
112	0xbde72880	-0.11287022
113	0x3dd5f3ab	0.104468666
114	0x3de9bda5	0.11413125
115	0x3dbfba2f	0.093616836
116	0x3e05ec49	0.13078417
117	0x3cf16ed4	0.029471792
118	0xbdc11387	-0.09427553
119	0xbcbb21d0	-0.022843271
120	0xbc199f10	-0.009376302
121	0x3e00c392	0.12574604
122	0x3d72fe16	0.059324346
123	0x3d91b857	0.07115238
124	0xbdae19d0	-0.08501017
125	0xbd8ff66d	-0.07029424
126	0xbdb39850	-0.08769286
127	0x3cb9b037	0.022667034
128	0xbca7c30d	-0.02047875
129	0x3cd42461	0.025896253
130	0xbb8100d5	-0.0039368668
131	0xbd714a06	-0.058908485
132	0xba3dd264	-0.00072411285
133	0x3d316a68	0.043314368
134	0x3c83c601	0.016085627
135	0x3bacd340	0.0052742064
136	0xbd2b7d72	-0.04186768
137	0x3dd012bb	0.101598226
138	0x3c91d84c	0.017803334
139	0x3d4a17f5	0.049339253
140	0xbdc4f340	-0.09616709
141	0x3db63d7f	0.08898448
142	0x3d8f89a5	0.070086755
143	0xbd1a9a40	-0.03774476
144	0xbd018c34	-0.03162785
145	0xbd181f9e	-0.037139527
146	0x3e19628c	0.14978999
147	0xbc94b103	-0.018150812
148	0x3d6e9899	0.058250997
149	0xbc6aaf82	-0.014324071
150	0x3d119e02	0.03555108
151	0xbe143120	-0.14471865
152	0xbd150c7b	-0.036388855
153	0x3dc222a0	0.094792604
154	0xbc124aed	-0.0089289965
155	0x3cc71d62	0.024306003
156	0x3d67893c	0.05652736
157	0xbd4b32c6	-0.04960897
158	0x3e108046	0.14111432
159	0x3d73de22	0.059538014
160	0xbd95f0d4	-0.07321325
161	0xbcfd5075	-0.030922154
162	0x3c42e594	0.011895556
163	0xbd284a89	-0.041086707
164	0x3d8a4a9c	0.06752512
165	0x3e2daf84	0.16961485
166	0x3c02d412	0.007985132
167	0x3d9b9422	0.075966135
168	0x3de80ef4	0.11330977
169	0xbd90aaa5	-0.07063798
170	0x3dab895d	0.08375809
171	0x3e13e908	0.14444363
172	0xbd8f9b02	-0.07011987
173	0xbd8a1d3b	-0.067438565
174	0x3de0f22f	0.10983693
175	0x3d0e1098	0.034683794
176	0x3df23588	0.118266165
177	0x3c824d46	0.015905987
178	0xbc853cd7	-0.016264362
179	0xbc7f38fb	-0.01557755
180	0xbd77e5bc	-0.060521826
181	0x3d3335fa	0.043752648
182	0xbc8c8734	-0.017154314
183	0x3e1e6bd2	0.15470818
184	0xbd53b912	-0.05169017
185	0x3ca889c8	0.020573512
186	0xbdc22317	-0.09479349
187	0x3ded402a	0.11584504
188	0xbc46e24c	-0.012138914
189	0xbb01b2fb	-0.0019790519
190	0xbdb57ed1	-0.08862079
191	0x3e104f53	0.1409276
192	0x3e0d18e0	0.1377902
193	0x3d8a982c	0.06767306
194	0xbcd8c8c4	-0.02646292
195	0x3dd929a3	0.10603645
196	0xbd65d483	-0.05611087
197	0xbd1c641c	-0.03818141
198	0xbd46efdc	-0.04856859
199	0xbdb34034	-0.0875248
200	0xbd7868b9	-0.060646746
201	0xbcba9479	-0.022775875
202	0x3d09b5bd	0.033620585
203	0x3dc27274	0.094944865
204	0xbc9eaf26	-0.019370627
205	0x3d24824d	0.040163327
206	0xbd97cb71	-0.0741185
207	0x3d80f835	0.06297342
208	0x3df05009	0.117340155
209	0xbd12b214	-0.03581436
210	0x3e06589a	0.13119736
211	0xbdc3c169	-0.095583744
212	0xbd259b71	-0.040431444
213	0xbceea12c	-0.029129587
214	0x3c4a9600	0.012364864
215	0x3de05502	0.10953714
216	0xbda5c079	-0.08093352
217	0x3dc7aa2c	0.097492546
218	0xbd36592a	-0.044518627
219	0xbc0586fc	-0.008149859
220	0x3c195f63	0.009361121
221	0x3d04c9dd	0.032419074
222	0x3d59d481	0.053181175
223	0xbddcaed9	-0.10775537
224	0x3d9b77e7	0.07591229
225	0xbc8df61c	-0.017329268
226	0xbcfc37c3	-0.030788308
227	0x3d10c63f	0.035345312
228	0x3d2715c3	0.040792238
229	0xbd95dca9	-0.07317478
230	0x3e19473f	0.14968584
231	0x3d713592	0.05888898
232	0xbc58bd7f	-0.013228773
233	0x3d4d8907	0.050179508
234	0xbde13728	-0.10996848
235	0xbd8d0fef	-0.06887805
236	0xbe072cf3	-0.1320074
237	0xbdfc60cc	-0.1232315
238	0x3d523870	0.051323354
239	0xbcaffac0	-0.021481872
240	0x3cce1666	0.025157165
241	0xbd28d51a	-0.041218854
242	0xbce4bdbd	-0.027922506
243	0x3c0ab709	0.008466491
244	0x3d991283	0.07474234
245	0x3c9412d3	0.018075382
246	0x3e001a76	0.12510094
247	0x3e065a92	0.13120487
248	0xbc2e54dc	-0.010640349
249	0x3db457a1	0.088057764
250	0xbbfaf34a	-0.007658397
251	0xbca7506b	-0.020424088
252	0x3e158a5a	0.14603558
253	0x3db4fa4e	0.08836804
254	0xbda60e60	-0.081082106
255	0x3c5e6731	0.013574407

encoder_lstm1.weight_hh_l0 f4 [256, 64]
0	0xbcc71400	-0.024301529
1	0x3d5bbc1a	0.053646185
2	0xbcf8a739	-0.030353175
3	0xbe144fa3	-0.14483504
4	0xbe06fbca	-0.13181987
5	0x3d814b13	0.063131474
6	0x3d198e18	0.037489027
7	0x3e20b961	0.15695716
8	0xbd0ee056	-0.034881912
9	0xbe041cc9	-0.12901606
10	0x3dc0a5dc	0.09406635
11	0x3ae14eba	0.00171896
12	0xbde74e04	-0.11294177
13	0x3dff6fcb	0.12472495
14	0x3ceea08d	0.029129291
15	0x3ccbd673	0.02488253
16	0x3b259d0a	0.0025270605
17	0x3df77194	0.1208221
18	0x3ca51ca8	0.020155266
19	0xbe05a624	-0.13051659
20	0xbce2c5b8	-0.02768217
21	0x3dde1d34	0.10845414
22	0x3c84ceed	0.016211951
23	0x3cc00f59	0.023444818
24	0xbe15bd00	-0.14622879
25	0x3dcf9142	0.101351276
26	0xbd476f68	-0.04869023
27	0x3de18c07	0.11013036
28	0xbdcc990a	-0.099901274
29	0x3de1e66d	0.11030278
30	0x3d9930c7	0.07480007
31	0x3d195f3a	0.03744433
32	0x3a79b5d8	0.0009525693
33	0x3e0a3c35	0.1349953
34	0x3dfab080	0.12240696
35	0x3d765533	0.060139846
36	0xbd2785db	-0.04089914
37	0x3b7573e4	0.003745311
38	0xbd540f73	-0.051772546
39	0x3e0e1a8d	0.13877316
40	0xbca358ca	-0.019939799
41	0x3dacda67	0.084400944
42	0xbd04ab48	-0.03238991
43	0x3e0e3cf3	0.13890438
44	0xbdafd3bc	-0.08585307
45	0x3ddb06b3	0.10694637
46	0x3c95c569	0.018282609
47	0xbd34c965	-0.044137377
48	0xbc28a5bd	-0.010293421
49	0x3d6698f0	0.056298196
50	0x3daccb45	0.08437208
51	0xbca6b56a	-0.020350177
52	0xbd641105	-0.055680294
53	0xbdb92901	-0.09041024
54	0xbd4489dd	-0.04798304
55	0x3d804813	0.06263747
56	0xbdaa65f7	-0.083202295
57	0xbcebeb67	-0.028798772
58	0xba5a2680	-0.0008321777
59	0x3cb4cf1d	0.022071416
60	0x3dc8cbec	0.0980452
61	0xbd619c1b	-0.055080514
62	0x3d57910e	0.05262857
63	0x3c2e05a7	0.010621465
64	0x3cadcb47	0.021215094
65	0xbcf45278	-0.02982448
66	0x3dba294c	0.09089908
67	0x3d9c3ace	0.076284036
68	0xbb3346f2	-0.002735552
69	0x3d2ed945	0.042687673
70	0xbda8f649	-0.082501
71	0xbd2adb24	-0.041712895
72	0xbdaff9f4	-0.08592597
73	0xbd208be4	-0.03919591
74	0xbc5cea42	-0.013483586
75	0x3d9eac60	0.07747722
76	0x3d2773a0	0.040881753
77	0x3da7a5da	0.081859306
78	0xbe149776	-0.14510903
79	0xbcf377da	-0.029720236
80	0x3c5fdfee	0.013664229
81	0x3e07433f	0.13209246
82	0x3d9b9669	0.07597048
83	0x3d8b4b3d	0.0680146
84	0xbd9b4927	-0.07582312
85	0x3db60327	0.0888732
86	0x3de517ea	0.11186202
87	0xbda7ffaf	-0.08203065
88	0x3d578c7e	0.05262422
89	0xbdc7ed80	-0.097620964
90	0xbdc0ed4c	-0.09420261
91	0x3e02e957	0.12784325
92	0xbd135228	-0.035967022
93	0x3d5d8e17	0.054090586
94	0xbc428b69	-0.011874058
95	0xbd17a201	-0.037019733
96	0xbdd02cd2	-0.10164799
97	0x3e0a48b7	0.13504301
98	0x3cc6c24e	0.024262574
99	0xbca24b1b	-0.019811204
100	0x3cc23c28	0.023710325
101	0x3d1e36b2	0.03862638
102	0x3cd0d73b	0.025493255
103	0x3d5baf7f	0.053634163
104	0x3d51c44f	0.051212605
105	0xbe1c8510	-0.15285134
106	0xbcb955f8	-0.022624
107	0x3e1bfde3	0.15233569
108	0xbdc4032b	-0.09570917
109	0x3ddb40ed	0.10705743
110	0xbdbaea82	-0.0912676
111	0xbd906431	-0.0705036
112	0x3d6d1096	0.057877146
113	0xbd890581	-0.06690503
114	0xbd87ec94	-0.066369206
115	0xbccf0d8c	-0.025275014
116	0xbd2d6947	-0.04233673
117	0x3cc6ad26	0.024252485
118	0x3db9edf5	0.0907859
119	0xbdab5dee	-0.08367525
120	0xbe26b7ab	-0.16281001
121	0x3ca3946a	0.01996823
122	0x3cb6b38f	0.022302417
123	0x3cb8fc6f	0.022581307
124	0xbd6da666	-0.058020018
125	0xbd96054c	-0.07325229
126	0xbcef4fce	-0.029212859
127	0xbd90a81e	-0.07063316
128	0xbd84167e	-0.064496025
129	0x3df7257c	0.120676965
130	0x3dc20fa2	0.09475638
131	0x3d759c9c	0.059963807
132	0xbdd7ef83	-0.1054373
133	0x3dc2fd92	0.09521021
134	0xbd462c03	-0.048381817
135	0x3d16abb8	0.036784858
136	0x3d9f8434	0.077888876
137	0x3d510bb6	0.05103656
138	0xbd108d78	-0.035291165
139	0x3da9aa73	0.08284464
140	0x3da7ab3f	0.081869595
141	0x3b933b58	0.0044931583
142	0xbd83b598	-0.06431121
143	0xbd2d23b1	-0.042270366
144	0x3d53ae7e	0.05168008
145	0x3de4f943	0.111803554
146	0xbd1c1e17	-0.038114633
147	0xbd4301b2	-0.04760904
148	0x3d3dc2e7	0.04632845
149	0xbcd89b28	-0.026441172
150	0xbde3c7cc	-0.111220926
151	0x3d40ee84	0.047102466
152	0xbdb4b11e	-0.08822845
153	0x3ddad666	0.106854245
154	0x3de049d8	0.109515846
155	0x3dc76b55	0.09737269
156	0x3df4651e	0.11933349
157	0xbdd3aeb8	-0.10336059
158	0xbd3b7ac5	-0.04577138
159	0xbe00fe42	-0.12596992
160	0x3cfd2376	0.030900698
161	0xbdc4b47e	-0.09604739
162	0x3db7cc92	0.089745656
163	0xbdb40a68	-0.08791047
164	0x3dbc2c48	0.091881335
165	0xbcc74ca9	-0.024328547
166	0xbd3a58be	-0.045494787
167	0x3caf52bf	0.021401761
168	0x3dc5b830	0.096542716
169	0x3c3d0e45	0.011539047
170	0x3c13a4e4	0.009011481
171	0x3d8539b9	0.0650515
172	0xbd643ceb	-0.05572216
173	0x3db9c092	0.09069933
174	0xbcc05152	-0.023476277
175	0x3da52091	0.08062852
176	0xbcc0ca0c	-0.023533843
177	0x3dbb8dc1	0.09157897
178	0x3e017d04	0.12645346
179	0x3d5cb6da	0.05388532
180	0xbd422dd6	-0.047406994
181	0xbd974b99	-0.07387466
182	0x3dfb18b6	0.122605726
183	0x3d321344	0.043475404
184	0xbd8f42af	-0.06995141
185	0xbda8c45a	-0.08240576
186	0xbda2d7bf	-0.079513066
187	0x3d04c7ea	0.032417215
188	0xbc989b75	-0.018628815
189	0x3d6fda4f	0.058557805
190	0x3dbda026	0.092590615
191	0x3dd1260e	0.102123365
192	0x3d0c52d8	0.034258693
193	0x3c3fc18b	0.011703859
194	0x3d861f82	0.065489784
195	0x3d37ff48	0.04492119
196	0xbcc09eb4	-0.023513176
197	0x3d37d0a2	0.044876702
198	0x3c5f15b3	0.013616013
199	0x3dad55b5	0.08463613
200	0xbdb7b6a1	-0.089703806
201	0x3d7a0429	0.061039124
202	0xbc938f04	-0.018012531
203	0x3ddf655c	0.10908005
204	0xbe1fbd0d	-0.15599461
205	0xbdb88b25	-0.09010915
206	0x3d04b530	0.032399356
207	0xbcc4b12e	-0.024010267
208	0x3cb8485f	0.022495447
209	0x3dd1b7b2	0.10240115
210	0x3d9fe2a6	0.07806902
211	0x3d946af2	0.07246961
212	0x3e1e9862	0.15487817
213	0x3d14496a	0.036202826
214	0x3d4386cd	0.047735978
215	0x3b778a6f	0.0037771722
216	0xbc8c2a45	-0.01711
217	0x3dfdbf8f	0.123900525
218	0xbcdce5eb	-0.026965102
219	0x3c46884e	0.0121174585
220	0x3d1efbdf	0.03881442
221	0x3e094c60	0.13408041
222	0xbdaacfc4	-0.083404094
223	0xbdfff9e2	-0.12498833
224	0xbd1abd30	-0.03777808
225	0x3dde1169	0.108431645
226	0xbd888bea	-0.066673115
227	0xbdfa9945	-0.12236265
228	0xbe143df4	-0.14476758
229	0x3de4665b	0.11152335
230	0xbb9c2dc9	-0.0047662
231	0xbd0e363f	-0.0347197
232	0xbc8f43df	-0.017488418
233	0x3cc395fc	0.023875229
234	0x3d775f72	0.060393758
235	0x3e1ae6d1	0.15127112
236	0xbdc32aa6	-0.09529619
237	0xbcf13630	-0.029444784
238	0xbd845412	-0.06461348
239	0x3d2bd47c	0.041950688
240	0x3e10a412	0.14125088
241	0xbcff427a	-0.031159628
242	0x3de07b4d	0.10961018
243	0x3dfe18ba	0.1240706
244	0xbd8361ff	-0.06415176
245	0xbd9b7181	-0.075900085
246	0x3db4a71c	0.08820936
247	0xbd842c5d	-0.06453774
248	0xbd084aa3	-0.033274304
249	0xbe02ad6a	-0.12761465
250	0xbd9ba116	-0.07599084
251	0xbbf16159	-0.007366341
252	0xbc8180e9	-0.01580854
253	0xbcd02cc8	-0.025411978
254	0xbe057513	-0.13032942
255	0x3d9b87bf	0.07594251

encoder_lstm1.bias_ih_l0 f4 [256]
0	0x3d5226aa	0.051306404
1	0xbdd30489	-0.103035994
2	0x3d71aba3	0.059001576
3	0xbd3cf3f4	-0.04613109
4	0xbdbbd27b	-0.09171005
5	0x3d62bec7	0.05535772
6	0x3cf04074	0.029327609
7	0xbc3c3d35	-0.011489202
8	0xbdba602b	-0.09100374
9	0xbc8e02ea	-0.017335374
10	0x3dbecd80	0.0931654
11	0xbdbb3eac	-0.09142813
12	0x3d6f4b77	0.05842158
13	0xbdc61e3d	-0.09673736
14	0x3db9ba8d	0.09068785
15	0x3cbb4d51	0.022864016
16	0x3de93226	0.11386518
17	0x3c3a53fa	0.011372561
18	0x3e0f8172	0.14014223
19	0x3dda190b	0.10649308
20	0x3ded365d	0.115826346
21	0x3dd22d3e	0.102625355
22	0x3d3d1683	0.046164047
23	0x3cc517e5	0.024059245
24	0x3df45d7e	0.11931895
25	0x3c847585	0.016169319
26	0xbd6f0431	-0.058353607
27	0x3de04ea0	0.109524965
28	0x3d5e01eb	0.054201048
29	0xbc851ed4	-0.016250052
30	0x3d3007f8	0.04297635
31	0xbd9da6c7	-0.07697826
32	0xbd16262d	-0.0366575
33	0xbdb89f6c	-0.09014782
34	0xbd2a9475	-0.041645486
35	0x3c9373ff	0.017999647
36	0xbd450497	-0.04810008
37	0xba8d4432	-0.001077777
38	0xbde6768f	-0.11253082
39	0xbd85b57b	-0.06528755
40	0x3cacaaac	0.021077476
41	0x3de9d77e	0.11418055
42	0x3e0c2fa8	0.13690054
43	0x3e118a8e	0.1421301
44	0xbd74d2ec	-0.059771463
45	0xbdcd2f83	-0.10018828
46	0x3dd3a981	0.10335065
47	0xbcc08b08	-0.023503795
48	0xbbf21363	-0.007387565
49	0xbb6feb75	-0.003660885
50	0x3d22d2a7	0.039751675
51	0xbcc4b94e	-0.024014141
52	0xbde594e7	-0.112100415
53	0x3d8618e8	0.06547719
54	0x3d006672	0.0313477
55	0xbc43d3cb	-0.011952351
56	0xbc82cbdd	-0.01596635
57	0x3d928dba	0.071559384
58	0x3cc58ba9	0.024114447
59	0xbccda9f3	-0.025105452
60	0x3d053713	0.032523226
61	0xbd07e169	-0.033173952
62	0x3deb55a3	0.11490943
63	0xbc5721cb	-0.013130615
64	0x3d488200	0.048952103
65	0x3dc3c0f9	0.09558291
66	0x3dd0d94c	0.10197696
67	0xbda58f1e	-0.08083938
68	0xbd7a092b	-0.0610439
69	0xbd434cab	-0.04768054
70	0x3d0d58ec	0.03450863
71	0xbd754ef2	-0.05988974
72	0xbc3cb0d5	-0.011516769
73	0x3cba3225	0.022728989
74	0x3d2673fb	0.04063795
75	0xbd2b29a2	-0.04178775
76	0x3dfc4555	0.123179115
77	0x3d1746bb	0.03693269
78	0xbcfb01f3	-0.030640578
79	0xbd541695	-0.05177935
80	0x3dda6a63	0.10664823
81	0xb8d6112a	-0.00010207512
82	0x3b9c7147	0.004774246
83	0xbdc3e2e9	-0.09564764
84	0xbdc05597	-0.09391325
85	0x39ef3a19	0.00045628918
86	0x3cf7c191	0.030243667
87	0xbd3ed2b0	-0.046587646
88	0xbca4b615	-0.020106355
89	0x3dc89692	0.09794344
90	0xba56918a	-0.0008185139
91	0x3dc3c09a	0.0955822
92	0xbd6fe322	-0.05856622
93	0x3dc3fe80	0.095700264
94	0xbde608ff	-0.112321846
95	0xbb5f1056	-0.0034036837
96	0x3e1625f5	0.14662917
97	0x3dc9ad9e	0.09847568
98	0x3e3215f9	0.17391194
99	0x3deaba77	0.114613466
100	0xbde84f11	-0.11343206
101	0xbd01bbc2	-0.0316732
102	0x3cc07731	0.023494335
103	0xbda2d9bd	-0.079516865
104	0x3d994c6a	0.07485278
105	0xbbb3a501	-0.0054823165
106	0x3de40325	0.11133412
107	0xbd83fb69	-0.06444437
108	0xbca6dfe6	-0.020370435
109	0xbd83ea3c	-0.06441161
110	0x3c782328	0.015145101
111	0x3dd5ac24	0.10433224
112	0x3df26fdb	0.11837741
113	0xbd9f1ba1	-0.07768942
114	0xbccf9b33	-0.02534256
115	0xbd880802	-0.06642152
116	0x3c0c6503	0.008569005
117	0xbb9f3dba	-0.0048596533
118	0x3e13c9cf	0.14432453
119	0xbd87efaa	-0.06637509
120	0x3d7385c3	0.059453737
121	0xbc1e6c5f	-0.009669392
122	0xbd88192a	-0.06645425
123	0xbda318c5	-0.07963709
124	0x3bfee368	0.007778574
125	0x3d0fda97	0.035120573
126	0x3d016146	0.031586908
127	0x3d8df46b	0.06931385
128	0x3d8bcf50	0.06826651
129	0x3de98e17	0.114040546
130	0xbdee2462	-0.11628033
131	0x3d14a76d	0.036292482
132	0x3dc910d6	0.09817664
133	0x3df55b50	0.11980307
134	0xbd5d4557	-0.054021206
135	0xbd97f313	-0.074194096
136	0xbc8516b9	-0.016246187
137	0xbd552b88	-0.052043468
138	0xbca78239	-0.020447837
139	0x3ce542c0	0.02798593
140	0x3cb15d3b	0.021650901
141	0xbd39b677	-0.045340028
142	0xbdd7423f	-0.10510682
143	0xbda797b7	-0.08183234
144	0xbda596a8	-0.08085376
145	0x3df80ecb	0.121121965
146	0xbd840903	-0.06447031
147	0x3da202a7	0.07910662
148	0xbcd16511	-0.025560888
149	0x3d353118	0.044236273
150	0xbe096df5	-0.13420852
151	0xbd766370	-0.060153425
152	0xbdfda295	-0.12384526
153	0xbdcb2106	-0.09918408
154	0x3cf100b2	0.029419277
155	0xba4e8b5e	-0.00078790437
156	0xbcdbe1bb	-0.026841035
157	0x3d5e03dc	0.0542029
158	0x3dacaaa0	0.08430982
159	0xbd8485b4	-0.06470814
160	0xbd268192	-0.04065091
161	0x3cf84b7c	0.030309431
162	0xbde18324	-0.11011341
163	0x3d997a4c	0.074940294
164	0xbd92007d	-0.071289994
165	0x3d93cedf	0.07217192
166	0xbd2dd04d	-0.04243498
167	0x3cddbd3e	0.027067777
168	0xbd101757	-0.03517851
169	0x3de66884	0.112504035
170	0xbcf10331	-0.029420467
171	0xbdb535e0	-0.088481665
172	0xbce66325	-0.028123448
173	0x3dd6678a	0.10468967
174	0x3df581a4	0.119876176
175	0x3be60e54	0.007020751
176	0x3deb54be	0.11490773
177	0x3d8504f3	0.064950846
178	0xbc451982	-0.012030007
179	0x3d494c35	0.049144942
180	0x3be7fab4	0.0070794467
181	0xbdafd4a6	-0.08585481
182	0xbdaa5e85	-0.083188094
183	0x3985e2ea	0.000255368
184	0xbd71fcec	-0.059079096
185	0xbdf8bde1	-0.121455915
186	0xbd04a8f6	-0.032387696
187	0x3df947b7	0.12171882
188	0xbcbfb380	-0.023401022
189	0x3d489a94	0.048975542
190	0xbdd91207	-0.105991416
191	0xbc5bf3a9	-0.013424792
192	0xbc4ade74	-0.0123821385
193	0x3c2a29a6	0.010385906
194	0x3e0a7495	0.13521035
195	0x3df77114	0.12082115
196	0xbcb076e7	-0.021541072
197	0x3db8cfb1	0.09023989
198	0x3db1fd4b	0.0869089
199	0x3d070d95	0.032971937
200	0x3d85615d	0.06512711
201	0x3dbc3313	0.09189429
202	0xbd2f92c9	-0.042864595
203	0x3deb91e7	0.11502438
204	0xbc5100eb	-0.0127565665
205	0x3d6a1e30	0.057157695
206	0xbc498b62	-0.012301298
207	0x3df64015	0.120239414
208	0x3e05dbec	0.13072175
209	0x3e009697	0.12557445
210	0x3d406135	0.046967704
211	0xbcdfcac5	-0.027318368
212	0xbdd2b48d	-0.102883436
213	0x3d904ccc	0.07045898
214	0x3dea1530	0.114298224
215	0x3c16f1c0	0.009212911
216	0xbdc81479	-0.0976953
217	0xbdb3789f	-0.08763241
218	0xbddd7ddc	-0.108150214
219	0x3c3ad3c1	0.011403025
220	0x3d25b452	0.04045517
221	0x3cc1b037	0.023643596
222	0x3cdb6367	0.026780797
223	0xbdbd1d66	-0.09234123
224	0x3df87ff6	0.121337816
225	0x3de19d19	0.11016292
226	0x3dd4a76d	0.103834964
227	0x3e1a9dff	0.15099333
228	0xbdde8831	-0.1086582
229	0x3c3ac257	0.011398873
230	0xbc4d6f7e	-0.012538789
231	0xbd22cdb3	-0.03974695
232	0xbcc64f8f	-0.024207858
233	0x3b9e2a75	0.0048268386
234	0xbd55eff1	-0.05223078
235	0x3dc462ca	0.09589155
236	0xbda05cd9	-0.07830209
237	0xbd39201e	-0.045196645
238	0xbd6fd193	-0.058549475
239	0xbca78dc3	-0.02045334
240	0xbdd64f1b	-0.10464307
241	0x3e0f011c	0.13965267
242	0x3d8f0f8b	0.069853865
243	0x3dea7567	0.11448174
244	0x3d8b758a	0.06809528
245	0xbbd1b351	-0.00639955
246	0x3d9c630d	0.0763608
247	0x3ddf0a01	0.1089058
248	0xbde22c74	-0.11043635
249	0xbd604425	-0.054752488
250	0xbd281fc3	-0.041045915
251	0xbd9af4d5	-0.07566229
252	0xbd3e23a5	-0.046420712
253	0xbd526e64	-0.051374808
254	0xbbfaa761	-0.0076493477
255	0x3e1148bc	0.14187902

encoder_lstm1.bias_hh_l0 f4 [256]
0	0x3daa6a6e	0.08321081
1	0x3e0112f7	0.12604891
2	0x3bc01bb5	0.005862678
3	0x390c35fd	0.00013371553
4	0xbdf9b090	-0.1219188
5	0x3dc3f008	0.09567267
6	0x3dee3cec	0.11632714
7	0xbd5b7706	-0.053580306
8	0xbdc9de81	-0.098568924
9	0xbdb425bb	-0.08796259
10	0xbcd929b7	-0.026509149
11	0xbd35b99b	-0.04436646
12	0x3da9becb	0.08288344
13	0x3c5dd6ec	0.013540011
14	0xbda60d65	-0.081080236
15	0xbd06ac86	-0.032879375
16	0x3c44d88c	0.012014519
17	0x3de44355	0.11145655
18	0xbd74d909	-0.059777293
19	0x3ce05187	0.027382625
20	0xbcf19892	-0.029491697
21	0xbe022960	-0.12711096
22	0x3d059f51	0.03262264
23	0x3b6f7580	0.0036538541
24	0xbd9c0608	-0.07618338
25	0xbd355a28	-0.044275433
26	0x3dff12b7	0.124547414
27	0xbc6208c3	-0.013796034
28	0x3dda7429	0.10666687
29	0x3da292e1	0.07938171
30	0x3dbc92f2	0.09207715
31	0x3dd355b7	0.10319083
32	0x3d35cc5c	0.044384345
33	0x3dfd92fc	0.12381551
34	0x3d889ab1	0.0667013
35	0x3d725a02	0.05916787
36	0x3d092241	0.033479933
37	0x3d8e2492	0.06940569
38	0xbdc2322f	-0.09482228
39	0xbdc8b3bc	-0.097999066
40	0x3df63c22	0.12023188
41	0xbdf09bd0	-0.11748469
42	0x3c9a5b92	0.018842492
43	0x3df9c7f8	0.12196344
44	0x3cb8ef79	0.022575127
45	0xbdefe7ff	-0.117141716
46	0x3d3e3ce8	0.046444803
47	0xbc87bc01	-0.01656914
48	0x3de373b0	0.1110605
49	0x3dddcb04	0.10829738
50	0xbdea94ae	-0.1145414
51	0x3d8bcf74	0.06826678
52	0x3dd09cad	0.101861335
53	0xbcfcd825	-0.030864784
54	0xbd85df1b	-0.065366946
55	0x3dadae68	0.08480531
56	0x3dccc359	0.09998197
57	0xbcb2fb34	-0.021848299
58	0x3d98f476	0.07468502
59	0xbd800657	-0.06251209
60	0x3be019fa	0.006839034
61	0xb9484c13	-0.00019101826
62	0x3e03bc39	0.1286477
63	0x3df588af	0.11988961
64	0x3dbc9972	0.09208955
65	0xbd848107	-0.064699225
66	0xbda72320	-0.081609964
67	0xbd8655d6	-0.06559341
68	0xbcde41ec	-0.027131043
69	0x3d578821	0.052620057
70	0x3dbd2b55	0.092367806
71	0xbd9ade42	-0.075619236
72	0x3c4b63d7	0.01241394
73	0x3ce4d783	0.027934795
74	0xbb9c830d	-0.0047763647
75	0x3d33336f	0.043750223
76	0xbdc18ced	-0.094507076
77	0x3df34013	0.118774556
78	0x3d7144b0	0.058903396
79	0xbbb91ee3	-0.005649434
80	0x3e067cc5	0.13133533
81	0x3dc6c5a8	0.09705669
82	0xbd68924c	-0.056780145
83	0x3db0a77d	0.08625696
84	0x3d3a697b	0.04551075
85	0xbd4dda16	-0.05025681
86	0xbd7a93bb	-0.061176043
87	0xbc96d149	-0.018410342
88	0x3dc836a6	0.09776048
89	0xbdf080a6	-0.11743288
90	0x3db16e14	0.08663574
91	0x3dacb298	0.084325016
92	0xbd58f6c9	-0.052969728
93	0xbdcab29a	-0.09897347
94	0xbcc82bee	-0.02443501
95	0x3dc6ce0e	0.097072706
96	0xbcfe2e86	-0.031028043
97	0xbd929448	-0.07157189
98	0xbcd5c670	-0.026095599
99	0x3c8242b2	0.015900943
100	0x3ccee615	0.025256196
101	0x3db0629c	0.08612558
102	0x3cd8cc8f	0.026464729
103	0x3d2ea759	0.042640064
104	0xbd73635f	-0.05942094
105	0x3dcd0bfb	0.10012051
106	0xbab21e1e	-0.0013589298
107	0x3dd47d95	0.10375515
108	0x3dac1b17	0.084036045
109	0xbb21854b	-0.00246461
110	0xbd9a9aa5	-0.07549027
111	0xbdac3844	-0.08409169
112	0xbd48474f	-0.04889613
113	0x3cfae079	0.030624615
114	0x3d8dc3a8	0.06922084
115	0xbdced89c	-0.10099909
116	0xbd63388d	-0.055473853
117	0x3c41c351	0.011826352
118	0xbdca5c11	-0.098808415
119	0x3d4218fd	0.047387112
120	0xbcb5d98d	-0.022198463
121	0x3dd7f4cd	0.10544739
122	0xbcec256e	-0.028826442
123	0xbd2db6fa	-0.04241083
124	0xbc6ff95f	-0.014646857
125	0x3dd458dd	0.10368512
126	0x3e00e702	0.12588122
127	0xbcc0e276	-0.023545485
128	0x3d866832	0.065628424
129	0x3de58c9e	0.11208461
130	0x3c4fd5c5	0.012685244
131	0x3de44875	0.111466326
132	0xbd1d939b	-0.038470846
133	0x3dbfda1e	0.093677744
134	0x3d9a1000	0.07522583
135	0x3d1cc780	0.038276196
136	0xbd8b7d55	-0.068110146
137	0xbddfc793	-0.10926738
138	0x3d98544b	0.074379526
139	0x3dde8ffd	0.10867307
140	0xbc52e91c	-0.01287296
141	0xbc00b932	-0.007856654
142	0x3cfffdc2	0.03124893
143	0x3d4b3958	0.049615234
144	0x3ceb81a3	0.028748339
145	0xbd2649d7	-0.040597763
146	0x3d8ea637	0.06965297
147	0xbdef548c	-0.11686048
148	0x3d867a4e	0.065662965
149	0xbc4cac25	-0.012492214
150	0xbd43029b	-0.047609907
151	0x3b4e7e74	0.0031508477
152	0x3d669be2	0.056301005
153	0xbd016277	-0.031588044
154	0x3d9e85a0	0.07740331
155	0x3c51ea23	0.01281217
156	0x3daf893c	0.08571097
157	0xbb60c823	-0.0034298978
158	0x3ca834bb	0.020532956
159	0x3ddc8638	0.10767788
160	0x3dbc935b	0.09207793
161	0x3dc9f704	0.098615676
162	0x3d14052c	0.036137745
163	0xbd95a5d3	-0.07307019
164	0x3babfb28	0.005248446
165	0x3df5e799	0.12007064
166	0xbb8ec128	-0.004356522
167	0xbd8f3177	-0.069918565
168	0x3da16cca	0.07882078
169	0x3de8dda4	0.113703996
170	0xbd86fcf3	-0.06591215
171	0x3a595560	0.0008290615
172	0xbd685707	-0.05672362
173	0x3d9d97ce	0.0769497
174	0xbda88a18	-0.08229464
175	0xbd9788f8	-0.073991716
176	0x3d157a03	0.036493313
177	0xbcea3268	-0.028588489
178	0x3cf50dfe	0.029913899
179	0x3c34b2d4	0.011028964
180	0x3d1e6765	0.038672823
181	0xbc8f9bb1	-0.017530294
182	0xbdd83f4b	-0.10558947
183	0x3cfd7205	0.030938158
184	0xb9d4f04e	-0.00040614832
185	0xbdb534b9	-0.08847947
186	0xbc72a583	-0.014809969
187	0x3df68601	0.12037278
188	0x3d8123c4	0.0630565
189	0x3e0cb466	0.13740692
190	0x3dfa205c	0.12213203
191	0xbc0ec73b	-0.008714492
192	0x3debfe30	0.11523092
193	0x3ca7279f	0.020404635
194	0x3d93f779	0.07224936
195	0x3e08fd66	0.13377914
196	0xbd0d9042	-0.034561403
197	0x3d50b2dd	0.050951827
198	0x3d8b6f9e	0.06808399
199	0x3db1a92c	0.08674845
200	0x3c3b3d94	0.011428256
201	0x3a303e1c	0.0006723122
202	0xbdecb5d2	-0.11558117
203	0xbd2f1553	-0.042744946
204	0xbcf67691	-0.030085834
205	0xbd8b3fae	-0.06799255
206	0x3d909502	0.07059671
207	0x3cd7f6d6	0.026362818
208	0x3dae176c	0.08500561
209	0x3e140e11	0.14458491
210	0x3c3d3ae3	0.011549684
211	0x3cad6b43	0.02116931
212	0xbde6f498	-0.11277121
213	0x3dc8fcc7	0.098138385
214	0xbcb90a3e	-0.022587892
215	0x3d7a7286	0.061144374
216	0xbdcccf21	-0.10000444
217	0x3dc0b6cf	0.09409868
218	0x3ce51821	0.027965607
219	0xbd43173e	-0.047629587
220	0x3ca9810a	0.020691413
221	0x3d0482c9	0.03235129
222	0xbdb219c4	-0.08696321
223	0x3c934c00	0.017980576
224	0x3d9c7dc5	0.07641176
225	0x3dad496b	0.08461269
226	0x3ddc0dc5	0.10744814
227	0xbd90ab6a	-0.07063945
228	0x3d9b630f	0.07587253
229	0x3d7bf38e	0.06151157
230	0x3da6459c	0.08118746
231	0x3d9dd082	0.07705785
232	0xbdb5d81d	-0.08879111
233	0x3d89900b	0.06716927
234	0x3d702a36	0.058634005
235	0xbd3f5b9c	-0.046718225
236	0xbd468865	-0.04846992
237	0xbdee83af	-0.116462104
238	0xbdc213f8	-0.09476465
239	0x3c58977d	0.013219711
240	0x3db924f1	0.09040249
241	0xbdb2c56e	-0.08729063
242	0x3d7dc56f	0.061955865
243	0xbd4e4c5d	-0.050365794
244	0x3c959f75	0.018264512
245	0x3de47bed	0.111564495
246	0x3d8d694c	0.069048494
247	0xbcf4dc64	-0.029890247
248	0x3db20ffc	0.08694455
249	0xbd52b21c	-0.05143939
250	0xbc96552f	-0.018351166
251	0xbca7f261	-0.020501317
252	0xbd6c1cdb	-0.057644706
253	0x3d097e47	0.033567693
254	0xbdc475c0	-0.095927715
255	0xbdb66d27	-0.08907538

encoder_lstm2.weight_ih_l0 f4 [128, 64]
0	0xbe362f90	-0.17791581
1	0xbdfe20b9	-0.12408585
2	0x3c023a69	0.007948496
3	0x3c9025df	0.017596183
4	0xbe0da233	-0.13831405
5	0xbdd9216d	-0.106020786
6	0xbc034562	-0.008012148
7	0xbe109077	-0.14117609
8	0x3e14e617	0.14540897
9	0x3da7c02c	0.08190951
10	0x3d8413f9	0.06449122
11	0x3e3c1959	0.18369044
12	0x3c3e3de8	0.011611439
13	0x3d90e967	0.07075768
14	0xbdabb7e3	-0.08384683
15	0x3d0e4f5a	0.034743644
16	0x3ddf320b	0.10898217
17	0x3be4cffc	0.0069828015
18	0x3e0131d3	0.12616663
19	0x3e192376	0.14954934
20	0x3ddfabb8	0.109214246
21	0x3e0b41a8	0.13599265
22	0x3beb93a4	0.007189231
23	0x3dba7168	0.09103662
24	0x3da69003	0.08132937
25	0xbe00fe3e	-0.12596986
26	0xbdb14ea4	-0.08657578
27	0x3d48d5a4	0.04903187
28	0xbdc2db6c	-0.09514508
29	0xbdf242c8	-0.11829144
30	0x3dac0976	0.08400242
31	0xbe02ffd6	-0.12792906
32	0xbd69e97c	-0.057107434
33	0xbcab5bb3	-0.020917749
34	0xbdcf17b8	-0.10111946
35	0x3dd0f8ba	0.10203691
36	0x3dfde2eb	0.12396797
37	0x3e31a7b6	0.17349133
38	0xbdd87c97	-0.105706386
39	0x3dfb0e91	0.12258638
40	0xbc4c741c	-0.0124788545
41	0xbd448640	-0.047979593
42	0x3e2b1269	0.16706242
43	0x3d0d853d	0.034550894
44	0x3d53e11a	0.051728345
45	0x3e19f302	0.15034106
46	0xbdf6fd65	-0.1206005
47	0xbd2c23b3	-0.042026233
48	0x3ddcdedd	0.10784695
49	0x3b2dd682	0.0026525562
50	0x3df59c65	0.119927205
51	0xbdc76285	-0.09735588
52	0x3dca544e	0.09879361
53	0xbd84ded6	-0.06487815
54	0x3cfa9f7f	0.030593632
55	0x3c9d0808	0.019168869
56	0x3dcd7e9c	0.100339144
57	0xbe073dc6	-0.13207158
58	0x3bed8d82	0.007249535
59	0xbd2fd212	-0.042924948
60	0x3e05622c	0.13025731
61	0xbe123cc5	-0.14280994
62	0xbd371405	-0.044696826
63	0xbdca8847	-0.09889274
64	0xbda76bd4	-0.081748635
65	0x3e174dd9	0.1477579
66	0xbd16c170	-0.03680557
67	0x3dfeeaa3	0.12447097
68	0xbdc6a7ce	-0.09699975
69	0xbe2de510	-0.16981912
70	0x3e0eea72	0.13956621
71	0xbe2b0b6f	-0.1670358
72	0xbcf5e5f6	-0.03001688
73	0xbe36339d	-0.17793126
74	0xbcd9e8cc	-0.026600264
75	0xbdb4e978	-0.08833593
76	0xbc381498	-0.011235379
77	0x3e176bd2	0.14787224
78	0x3d8458f3	0.06462278
79	0xbe0a3095	-0.13495095
80	0xbd81297b	-0.0630674
81	0xbce3d1b5	-0.027809957
82	0xbd43ba25	-0.047784943
83	0x3ddaae61	0.106777914
84	0x3d69b3ff	0.057056423
85	0x3dd33b0e	0.10313998
86	0xbe26b90d	-0.16281529
87	0xbe12f1ef	-0.14350103
88	0xbdfcdc92	-0.12346758
89	0xbe15a804	-0.14614874
90	0x3ddf7a4d	0.10911999
91	0x3e151936	0.14560398
92	0x3cb53bde	0.022123273
93	0x3dbbf46c	0.09177479
94	0x3d283505	0.04106619
95	0xbdc5a173	-0.096499346
96	0xbbe335f3	-0.0069339215
97	0x3e143b17	0.14475666
98	0x3ce8b9d5	0.028408924
99	0xbe2e39c1	-0.17014219
100	0xbd4dda8b	-0.050257247
101	0x3e3a57d5	0.18197568
102	0x3dcd16fc	0.100141495
103	0xbcd7d8bf	-0.02634847
104	0x3e283dfa	0.16429892
105	0x3a32fa62	0.0006827471
106	0x3d8bed17	0.06832331
107	0x3de49426	0.111610696
108	0x3cef7683	0.029231315
109	0xbd515319	-0.05110464
110	0x3cac4553	0.02102915
111	0x3e00c145	0.12573726
112	0xbdf1103f	-0.11770677
113	0x3e1bd627	0.15218411
114	0x3e0d2e6e	0.13787243
115	0xbde07374	-0.10959521
116	0x3e29aa45	0.16568859
117	0x3db21c7a	0.08696838
118	0xbdfc87e2	-0.12330605
119	0xbcb16213	-0.02165321
120	0x3d62d40f	0.055378016
121	0xbe46803a	-0.19384852
122	0xbdddbeff	-0.10827445
123	0x3d10247b	0.03519104
124	0x3e22daf1	0.15903832
125	0xbe333d37	-0.1750382
126	0xbdf1e0dd	-0.118104674
127	0x3e1c90f6	0.15289673
128	0x3beb835b	0.0071872897
129	0x3dbf7624	0.093487054
130	0xbe22426c	-0.1584565
131	0xbc85944d	-0.016306067
132	0xbc614ca9	-0.013751187
133	0x3e218ee2	0.15777162
134	0xbe0db362	-0.1383796
135	0x3cd7c53a	0.026339162
136	0x3d2e332e	0.042529278
137	0xbe148606	-0.14504251
138	0xbd98844a	-0.07447107
139	0xbddb4d43	-0.10708096
140	0xbe272192	-0.163214
141	0xbd1516f0	-0.036398828
142	0xbe1437f2	-0.14474466
143	0x3d80dfa0	0.06292653
144	0x3dafbb8f	0.08580696
145	0xbdb2030d	-0.08691988
146	0x3e40cf79	0.18829145
147	0xbd69abde	-0.05704867
148	0x3dfc0213	0.12305083
149	0xbce9b36a	-0.028527934
150	0x3e2a2ccc	0.16618651
151	0x3dd83a14	0.105579525
152	0x3df3b4fc	0.118997544
153	0x3dcaf1cc	0.099094
154	0x3c9ceaec	0.019154988
155	0x3e0a5f33	0.13512878
156	0xbd606067	-0.054779436
157	0xbbcbf2c5	-0.0062240087
158	0xbbe5658c	-0.0070006307
159	0x3d0b4994	0.034005716
160	0xbd003734	-0.031302646
161	0x3df01653	0.11723008
162	0xbdfdd07e	-0.12393282
163	0x3d8ec250	0.06970656
164	0xbe24af2a	-0.16082445
165	0x3d3c6506	0.04599478
166	0x3e2b04d3	0.16701059
167	0x3c313b6b	0.010817389
168	0x3db27a4a	0.08714731
169	0x3dab713b	0.083712064
170	0xbc6ce77e	-0.014459489
171	0x3d6f6622	0.05844701
172	0x3e34c1e9	0.17652096
173	0x3e1c6af1	0.1527517
174	0x3c7f5be1	0.0155858705
175	0xbd727744	-0.05919577
176	0xbcb51d46	-0.022108685
177	0x3e33dd58	0.17564905
178	0x3e1f0dbe	0.15532586
179	0x3e3a664a	0.18203083
180	0x3de8cbe6	0.113670155
181	0x3d5b4e97	0.053541746
182	0xbcca051f	-0.024660645
183	0x3e3f95d2	0.18709496
184	0xbd51caba	-0.051218726
185	0xbd2a2e55	-0.041548092
186	0xbd974dd8	-0.073878944
187	0xbe0b728a	-0.13617912
188	0xbdea6bfe	-0.11446379
189	0x3da39077	0.07986539
190	0x3c26188a	0.0101376865
191	0x3e0856d2	0.1331437
192	0xbe544ed2	-0.20733193
193	0x3e101138	0.14069068
194	0xbc739bdd	-0.014868704
195	0x3dbd23c5	0.09235338
196	0x3d9a33c7	0.07529407
197	0x3dd3665c	0.10322258
198	0x3d81588d	0.06315718
199	0xbd89e6ee	-0.067334995
200	0xbd874197	-0.06604307
201	0xbcbceaf4	-0.023061253
202	0x3da9e429	0.08295471
203	0x3ccd1c57	0.025037928
204	0x3ddb2e14	0.10702148
205	0xbd4490df	-0.047989722
206	0x3d92fc17	0.071769886
207	0xbc5fd972	-0.013662683
208	0xbe49d45d	-0.19709916
209	0xbdadd928	-0.08488685
210	0xbcb2ad2b	-0.021811089
211	0x3d8f1195	0.069857754
212	0x3d473f98	0.048644632
213	0x3e176eb3	0.14788322
214	0xbe0f1098	-0.13971174
215	0x3e106591	0.14101245
216	0x3e087dd2	0.13329247
217	0x3c0ea4cd	0.008706284
218	0x3e521697	0.2051643
219	0xbce64d86	-0.028113138
220	0x3e30f179	0.17279615
221	0x3e1bdcf8	0.15221012
222	0x3e3cf7a2	0.1845384
223	0x3e0fcf7b	0.14043991
224	0x3d634fbc	0.055495963
225	0xbd723083	-0.059128296
226	0x3e513ec9	0.20434107
227	0xbdfbff86	-0.123045966
228	0xbe03bb80	-0.12864494
229	0xbd944987	-0.07240587
230	0x3e52a0d6	0.20569167
231	0x3e1b8a70	0.15189528
232	0xbdaa4ed1	-0.08315814
233	0xbdf0be42	-0.11755039
234	0xbdb197e9	-0.08671553
235	0xbd2b69df	-0.041849013
236	0xbdd60544	-0.10450223
237	0x3d4e5d94	0.05038221
238	0x3dd90a25	0.10597638
239	0xbd3672d2	-0.044543095
240	0xbe10e97c	-0.14151567
241	0xbdc1b6de	-0.09458707
242	0x3dafba06	0.08580403
243	0x3dbb9b1c	0.09160444
244	0x3db792d5	0.08963553
245	0x3ce1646a	0.027513701
246	0x3c30f4db	0.010800566
247	0xbe23aab3	-0.15983085
248	0x3dfe8b21	0.124288805
249	0x3dfa2ce5	0.12215594
250	0xbda5b845	-0.08091787
251	0x3d97d3d3	0.07413449
252	0xbcc8dfef	-0.024520842
253	0xbd6704b2	-0.056400962
254	0x3c9bc1d9	0.019013332
255	0x3cfb13f7	0.030649168

encoder_lstm2.weight_hh_l0 f4 [128, 32]
0	0x3d43edfc	0.04783438
1	0x3a81aa14	0.0009892606
2	0x3d2e5d67	0.042569544
3	0x3dc1e0a3	0.09466674
4	0x3ddc063d	0.10743377
5	0xbe30f3f0	-0.17280555
6	0xbe1eff38	-0.15527046
7	0x3b897746	0.0041951267
8	0x3e0519e6	0.1299816
9	0xbe448583	-0.19191556
10	0xbe1dc700	-0.15407944
11	0xbda066bf	-0.07832097
12	0x3d907692	0.070538655
13	0xbd4c77ad	-0.04991882
14	0x3c8390ce	0.01606026
15	0xbe18e4a3	-0.14930968
16	0xbd90717a	-0.07052894
17	0xbdaed8ce	-0.08537446
18	0xbc4bd27f	-0.012440323
19	0x3cc8f065	0.024528692
20	0x3e18b372	0.14912203
21	0xbd401292	-0.04689271
22	0x3da4616f	0.080263965
23	0xbd77fa4b	-0.060541432
24	0x3c46ed1c	0.012141492
25	0x3dc7bf6b	0.09753307
26	0x3e096186	0.13416108
27	0xbd2e5ad1	-0.042567078
28	0xbcad30f7	-0.021141512
29	0x3d5ef6a3	0.05443443
30	0x3df8318b	0.121188246
31	0x3def1f5c	0.11675903
32	0xbd2c9407	-0.042133357
33	0xbcd830f0	-0.026390523
34	0x3e3eb9f8	0.18625629
35	0x3e1c9518	0.1529125
36	0x3de6ec68	0.1127556
37	0x3da99e6b	0.08282169
38	0x3e1b817e	0.15186116
39	0xbc6f6218	-0.01461079
40	0xbc1a06d4	-0.009401042
41	0x3d8a54b6	0.067544386
42	0xbd781725	-0.060568947
43	0x3c1ee657	0.009698472
44	0x3ddadd94	0.10686794
45	0x3e1586fe	0.14602277
46	0xbde705da	-0.11280413
47	0xbe2597f2	-0.16171244
48	0xbd20bc3f	-0.039242025
49	0x3e52c3a0	0.20582438
50	0xbdfcd913	-0.12346091
51	0x3d862896	0.0655071
52	0xbdc5bd34	-0.09655228
53	0xbb44ba87	-0.0030018406
54	0xbcee489b	-0.029087355
55	0xbe246750	-0.16055036
56	0x3e14850f	0.14503883
57	0xbcd71f3d	-0.026260013
58	0xbe23ae92	-0.15984562
59	0xbe1c9127	-0.15289746
60	0x3cc23e07	0.023711218
61	0xbdff3e5e	-0.124630675
62	0xbcdcd802	-0.02695847
63	0x3c5514ae	0.013005419
64	0x3e366337	0.17811285
65	0x3d028bf0	0.031871736
66	0x3cd25c77	0.025678856
67	0x3d8b0f7f	0.06790065
68	0x3e077d52	0.132314
69	0x3de7a234	0.11310235
70	0xbe2706d7	-0.16311203
71	0x3dafa095	0.085755505
72	0x3e22ccfd	0.1589851
73	0x3e1ef5e3	0.15523486
74	0x3c9b57c7	0.018962754
75	0xbdf3d835	-0.119064726
76	0xbe0ed6f2	-0.13949183
77	0xbdfdab22	-0.123861566
78	0xbd368c1a	-0.044567205
79	0xbe0fc855	-0.14041264
80	0xbd4c0be0	-0.049816012
81	0x3e5aef7e	0.21380422
82	0x3dc95732	0.09831084
83	0xbe090a34	-0.13382798
84	0xbdd00c2d	-0.10158572
85	0xbd140890	-0.03614098
86	0x3c0c9295	0.00857987
87	0x3d7fcc8f	0.06245094
88	0xbe05c1a8	-0.13062155
89	0xbcfeb6d6	-0.031093042
90	0xbd951f80	-0.07281399
91	0xbdd82990	-0.105548024
92	0xbc588333	-0.013214874
93	0xbd8ee812	-0.06977858
94	0x3dbf2802	0.09333803
95	0xbe23778f	-0.15963577
96	0x3dc1e70c	0.09467897
97	0x3d5daa3e	0.054117434
98	0x3e641c77	0.22276483
99	0x3e5251c8	0.2053901
100	0x3ddc5267	0.107579045
101	0x3dbb7170	0.09152496
102	0x3db094ba	0.08622117
103	0x3dfddda8	0.12395793
104	0xbe49da6c	-0.19712228
105	0xbda2b797	-0.07945173
106	0xbe2e86f5	-0.1704367
107	0xbd664987	-0.056222465
108	0xbd1c5928	-0.038170964
109	0x3da66832	0.081253424
110	0x3b1c7f2b	0.002387951
111	0x3d52e7ef	0.05149072
112	0xbc646165	-0.013939236
113	0xbd052482	-0.03250552
114	0x3d28ca93	0.041208815
115	0x3e1470a9	0.14496101
116	0xbcd47a33	-0.025937175
117	0xbe679d58	-0.22618616
118	0xbd899a31	-0.06718863
119	0x3dd63c96	0.104607746
120	0xbe528247	-0.2055751
121	0xbdf7b70d	-0.12095461
122	0x3df459c4	0.11931184
123	0x3e383bff	0.17991637
124	0x3a9ec2f0	0.0012112539
125	0x3e1ce724	0.15322548
126	0x3dc5f45a	0.09665747
127	0x3d4102b0	0.047121704
128	0x3db6723d	0.08908508
129	0xbdb85dde	-0.09002279
130	0x3e172316	0.14759478
131	0x3ce67203	0.028130537
132	0xbe0bb450	-0.13643003
133	0xbe15528f	-0.14582275
134	0x3e5ccad5	0.2156175
135	0xbd8606a4	-0.06544235
136	0xbe2e8b94	-0.17045432
137	0x3dc56324	0.0963805
138	0x3dc2ff95	0.09521405
139	0x3dd56ecc	0.104215235
140	0xba9857e9	-0.0011622879
141	0x3b0150ae	0.0019731927
142	0xbd62feeb	-0.05541889
143	0xbd8b0f84	-0.06790069
144	0x3da7f417	0.08200853
145	0xbd04386f	-0.03228038
146	0xbdd2bad8	-0.10289544
147	0x3e24f410	0.16108727
148	0x3d9def08	0.07711607
149	0xbe073912	-0.13205364
150	0x3d6c6004	0.057708755
151	0x3e37f91a	0.17966118
152	0x3cb9c5eb	0.022677382
153	0x3e12f6f1	0.14352013
154	0xbbe50424	-0.006989019
155	0xbc793a11	-0.015211598
156	0xbcf00eb1	-0.02930388
157	0x3c651830	0.0139828175
158	0x3df53329	0.11972649
159	0x3dadc14a	0.084841326
160	0xbda33ddc	-0.07970783
161	0xbaf813d6	-0.001892681
162	0x3df9e817	0.12202471
163	0xbd914025	-0.07092313
164	0xb9a39904	-0.00031203788
165	0xbe35ab48	-0.1774112
166	0x3cbd8b06	0.02313758
167	0x3dfa383e	0.122177586
168	0x3d45b46d	0.04826777
169	0x3bd41fd0	0.006473519
170	0x3af0da8c	0.0018375679
171	0xbe0e059e	-0.1386933
172	0xbe5488dd	-0.20755334
173	0xbe21b033	-0.15789871
174	0x3d9d8b89	0.0769263
175	0x3e1fcdbb	0.15605824
176	0xbd0a1b70	-0.033717573
177	0xbc303842	-0.0107556
178	0xbe23b2ac	-0.15986127
179	0x3c7b722a	0.015347043
180	0xbbb266c4	-0.0054443795
181	0x3e1e1331	0.15437008
182	0x3e4166ca	0.18886867
183	0xbddbd3eb	-0.107337795
184	0x3c14267d	0.009042379
185	0x3db6ac97	0.08919638
186	0xbd6d4bcd	-0.057933617
187	0x3d989bcb	0.0745159
188	0x3d63f300	0.055651665
189	0x3e021ffd	0.12707515
190	0xbc0be1d3	-0.008537727
191	0xbe3eddba	-0.1863927
192	0x3e256a80	0.16153908
193	0xbde99ecb	-0.114072405
194	0x3ca03950	0.019558579
195	0xbe4e9eb7	-0.20177732
196	0xbbf69f58	-0.0075263195
197	0x3e00b28a	0.12568107
198	0xbda5957c	-0.080851525
199	0xbba4cff5	-0.005029673
200	0x3e11dc29	0.1424414
201	0x3d544054	0.05181916
202	0x3c31475b	0.010820235
203	0x3e23cf83	0.15997128
204	0x3cf47a1d	0.029843384
205	0x3cc01cad	0.023451174
206	0x3dd34d46	0.10317473
207	0xbd4a3b46	-0.049372934
208	0x3e19fdf7	0.15038286
209	0xbb6d8b6d	-0.0036246434
210	0x3db36ab4	0.087605864
211	0x3c36d552	0.011159258
212	0xbe0df8d2	-0.13864449
213	0x3e095bf5	0.13413985
214	0xbdf1669b	-0.117871486
215	0xbdecbcc8	-0.11559445
216	0x3df1b0d6	0.11801307
217	0xbd58eb6e	-0.0529589
218	0xbe56b1a8	-0.20966208
219	0xbc590f66	-0.0132483
220	0xbde85b8f	-0.113455884
221	0x3cc469be	0.023976203
222	0xbcb07785	-0.021541366
223	0xbd3a15cc	-0.045430943
224	0xbdd5f3ce	-0.10446893
225	0xbe14d513	-0.14534406
226	0x3e0f8273	0.14014606
227	0xbcdec288	-0.02719237
228	0x3e4cfd30	0.20018458
229	0xbd957448	-0.072975695
230	0xbdad41c3	-0.08459809
231	0xbdeb4fb6	-0.11489813
232	0x3e0ba920	0.13638735
233	0x3e1a460a	0.1506578
234	0x3dff3518	0.12461299
235	0x3c671abd	0.014105496
236	0x3e09c2cb	0.13453214
237	0x3e503429	0.20332398
238	0x3d0342c4	0.032046095
239	0x3df6824d	0.12036572
240	0xbe1bb054	-0.15203983
241	0xbe4d2711	-0.20034434
242	0x3de2ceb5	0.110745825
243	0xbd3891f3	-0.045061063
244	0x3e24311e	0.16034362
245	0x3d5d58a7	0.054039624
246	0xbe251264	-0.16120297
247	0x3d6147fe	0.055000298
248	0xbce55746	-0.027995717
249	0xbe109d07	-0.14122401
250	0xbd97a5f4	-0.074047
251	0xbde3c371	-0.11121262
252	0x3df5bba1	0.11998678
253	0xbdc3a0c4	-0.09552148
254	0x3df32f3a	0.11874242
255	0x3da63ca4	0.08117035

encoder_lstm2.bias_ih_l0 f4 [128]
0	0x3dda662c	0.10664019
1	0xbda89916	-0.08232324
2	0xbd289f46	-0.04116752
3	0xbd11ac51	-0.035564724
4	0x3e225e9b	0.15856402
5	0xbb60400c	-0.0034217862
6	0xbe30e1da	-0.17273656
7	0x3d2d33d2	0.042285748
8	0x3e0c7587	0.13716708
9	0x3c56f2ac	0.013119381
10	0xbc354f66	-0.011066293
11	0xbd6d1535	-0.057881553
12	0xbd94dd69	-0.07268793
13	0xbdb5200c	-0.08844003
14	0xbd6413bc	-0.055682883
15	0x3e06f9d3	0.13181238
16	0x3cbd96e0	0.023143232
17	0xbde25b75	-0.110526
18	0x3d089a5a	0.033350326
19	0xbca96a8f	-0.020680694
20	0xbe2e4cd7	-0.170215
21	0x3d120ec0	0.035658598
22	0x3e1077be	0.14108178
23	0xbd889393	-0.066687725
24	0x3cfad250	0.030617863
25	0xbe01d4b8	-0.12678802
26	0xbe21501d	-0.15753217
27	0x3e1e3392	0.1544936
28	0x3e35faa5	0.17771395
29	0x3e34904a	0.17633167
30	0x3d194e2b	0.037428062
31	0xbd9e5f88	-0.07733065
32	0xbae58b8e	-0.0017512904
33	0xbc5f1013	-0.013614672
34	0xbd986f6d	-0.07443128
35	0xbd486e37	-0.048933234
36	0xbc80599a	-0.015667725
37	0xbdc5ebd7	-0.096641235
38	0xbdb33cf2	-0.08751859
39	0xbe129a25	-0.14316614
40	0x3d968536	0.07349627
41	0x3e310fea	0.17291227
42	0x3dad083f	0.084488384
43	0x3c818e0c	0.015814804
44	0x3d865959	0.065600105
45	0x3d90d64b	0.07072123
46	0x3cdea677	0.027178986
47	0x3d5e629a	0.054293253
48	0xbc5aecbb	-0.013362105
49	0x3dcf47f4	0.10121146
50	0xbccc8630	-0.02496633
51	0x3d8606ef	0.06544291
52	0xbd1b5829	-0.037925873
53	0xbde30391	-0.110846646
54	0xbcea9118	-0.02863364
55	0x3dd76500	0.10517311
56	0x3d06e789	0.032935653
57	0xbdc4bd80	-0.09606457
58	0xbdef8dd7	-0.11696976
59	0xbe1a8a3b	-0.15091793
60	0x3d08d08a	0.033402003
61	0xbd315bd4	-0.043300465
62	0xbcb7a33f	-0.022416709
63	0xbdd6f4de	-0.104959235
64	0x3e144524	0.144795
65	0x3e127b32	0.14304808
66	0x3df3c350	0.11902487
67	0x3df162f7	0.11786454
68	0x3dca4b43	0.09877636
69	0x3dd5a664	0.10432127
70	0xbdcbe9db	-0.09956714
71	0x3def9bcf	0.1169964
72	0xbe06c286	-0.13160142
73	0x3d4c03af	0.0498082
74	0xbd9372db	-0.07199641
75	0xbc81295a	-0.015766788
76	0xbbe77387	-0.0070633325
77	0xbe02122b	-0.12702243
78	0xbe1ae524	-0.15126473
79	0xbe0e54da	-0.13899556
80	0xbdbfe739	-0.09370274
81	0xbddb001a	-0.10693379
82	0xbe1f4a87	-0.15555774
83	0x3e35a557	0.17738853
84	0x3d60fd7d	0.054929245
85	0x3dc5c888	0.09657389
86	0xbdaaf54a	-0.083475664
87	0xbe189a2c	-0.14902562
88	0x3d054027	0.032531884
89	0xbd79876f	-0.060920175
90	0xbd95e239	-0.07318539
91	0xbd0430e0	-0.032273173
92	0x3d9dca82	0.07704641
93	0xbdaf6609	-0.085643835
94	0x3cae2b13	0.021260774
95	0x3e1a5fc6	0.15075597
96	0xbd5c8d78	-0.053845853
97	0xbd728c56	-0.059215866
98	0x3cffcff1	0.031227084
99	0xbe0fde74	-0.14049703
100	0x3d197068	0.037460715
101	0xbc20c055	-0.0098114805
102	0x3d8f6ab3	0.07002773
103	0x3e07f162	0.13275674
104	0x3e254e8f	0.16143249
105	0x3e22e512	0.15907696
106	0xbdd78f3a	-0.10525365
107	0xbe055cca	-0.13023677
108	0xbd98dd86	-0.07464127
109	0x3cdbd7c0	0.026836276
110	0xbd192410	-0.037387908
111	0xbe12d93e	-0.14340684
112	0xbd348787	-0.04407456
113	0xbd0ac771	-0.03388161
114	0x3e48490b	0.19559114
115	0x3d6b2004	0.05740358
116	0x3e1d3d3a	0.15355387
117	0xbd84285e	-0.06453012
118	0xbe0d8776	-0.13821205
119	0x3e2bbd1e	0.16771361
120	0x3d7ef295	0.062243063
121	0x3e11c461	0.14235069
122	0xbdbb9438	-0.0915913
123	0x3d90939a	0.07059403
124	0xbdf86f07	-0.12130552
125	0x3dde8293	0.10864749
126	0x3e3ad135	0.18243869
127	0xbe04f9eb	-0.12985961

encoder_lstm2.bias_hh_l0 f4 [128]
0	0xbc1df591	-0.009641067
1	0x3da92cba	0.08260484
2	0xbe1e5b83	-0.15464596
3	0x3dce08f7	0.10060304
4	0x3db571d2	0.088596
5	0xbb8f9ee8	-0.004382957
6	0xbe216b0f	-0.15763496
7	0xbe16d588	-0.14729893
8	0xbdfdac4f	-0.12386381
9	0x3de5a868	0.112137616
10	0xbdfdda2f	-0.12395131
11	0xbd11f8fc	-0.03563784
12	0xbe0d5a30	-0.13803935
13	0x3de5d0b2	0.11221446
14	0x3da2f830	0.07957494
15	0x3e09ad41	0.13444997
16	0xbd5b4385	-0.05353119
17	0xbd9ae4ac	-0.07563147
18	0x3e1e7d7f	0.1547756
19	0x3df260d7	0.11834877
20	0xbdd6d6b4	-0.1049017
21	0x3d718e51	0.058973614
22	0xbd0a67cd	-0.0337904
23	0x3e18a4a1	0.14906551
24	0xbc976040	-0.018478513
25	0xbe11576a	-0.14193502
26	0xbde7809e	-0.11303829
27	0xbdcd7f54	-0.100340515
28	0x3d729a3f	0.05922913
29	0xbdb705cc	-0.089366525
30	0xbd61de40	-0.055143595
31	0x3e01d98b	0.12680642
32	0x3d402772	0.046912618
33	0xbdea76f2	-0.11448468
34	0xbdc5c116	-0.09655969
35	0xbdc92e5e	-0.09823297
36	0xbd7db649	-0.06194142
37	0xbb5e1edc	-0.0033892905
38	0xbdfb8422	-0.12281062
39	0x3ce13101	0.027489187
40	0xbdd950f1	-0.106111415
41	0x3e4e1d82	0.20128444
42	0x3e1afec5	0.1513625
43	0x3b71db44	0.0036904374
44	0x3ddc31e7	0.107517056
45	0x3c099405	0.008397107
46	0xbe0dd45b	-0.13850538
47	0x3b3c6ab6	0.0028750128
48	0x3e12f764	0.14352185
49	0x3d839589	0.06425006
50	0xbd464cb3	-0.04841299
51	0xbdfcbbad	-0.12340484
52	0x3d41db87	0.0473285
53	0x3d940b77	0.07228749
54	0x3d4b84c5	0.049687166
55	0xbe1901bb	-0.14942066
56	0x3bd595d0	0.006518103
57	0x3e20eea4	0.15716034
58	0x3e002696	0.1251472
59	0x3e1d2713	0.15346937
60	0xbe28c0b8	-0.16479766
61	0x3d4765cf	0.048681077
62	0x3d5f2a64	0.054483786
63	0x3e108a83	0.14115338
64	0xbd867a0d	-0.06566248
65	0x3e0eb164	0.13934857
66	0x3b683f15	0.003543799
67	0xbbd00810	-0.0063486174
68	0x3dbc1183	0.091830276
69	0x3d247583	0.04015113
70	0x3e108653	0.1411374
71	0x3c935c7a	0.017988432
72	0x3d324b4a	0.043528832
73	0x3db9cb5f	0.09071993
74	0xbdf6cd45	-0.12050871
75	0x3d9fb9b1	0.0779909
76	0x3d8e5f12	0.06951727
77	0x3e0a6e52	0.13518646
78	0x3e2fba06	0.17160806
79	0xbbb13828	-0.0054083057
80	0x3df805d9	0.1211049
81	0xbc11ad26	-0.008891379
82	0x3dc93bfe	0.09825896
83	0x3e25e801	0.16201784
84	0x3e01598f	0.1263182
85	0xbd7171fa	-0.058946587
86	0xbdc5ddae	-0.09661423
87	0x3d5f8bf2	0.05457682
88	0xbe23c3b4	-0.15992624
89	0xbd89b066	-0.067230985
90	0x3b97c63b	0.004631785
91	0x3de55a7c	0.11198899
92	0x3e00ae75	0.1256655
93	0xbb6c99be	-0.003610238
94	0x3cc01474	0.023447253
95	0x3d0e92ba	0.034807898
96	0xbd28447c	-0.041080937
97	0x3c862188	0.01637341
98	0x3d08e64e	0.03342276
99	0xbb12e083	-0.0022411651
100	0x3dd5b671	0.104351886
101	0xbd62b967	-0.055352595
102	0xbdbabdc7	-0.091182284
103	0x3dd26440	0.102730274
104	0xbd7d1da4	-0.061795846
105	0x3e33e70d	0.17568608
106	0xbd6b56b5	-0.057455737
107	0x3c4faa9c	0.012674954
108	0xbdf36629	-0.1188472
109	0x3c96d097	0.01841001
110	0x3d285376	0.04109522
111	0xbd15a19e	-0.036531083
112	0x3cbe81ba	0.023255218
113	0x3e3f2d72	0.1866968
114	0x3e13fbe5	0.14451559
115	0x3d69b68c	0.057058856
116	0x3c2ce8a3	0.010553512
117	0x3d2837fe	0.041069023
118	0xbe1e5832	-0.15463331
119	0xbdec1145	-0.115267314
120	0xbdbe9561	-0.093058355
121	0xbddd3be6	-0.1080244
122	0x3e4a5845	0.19760235
123	0x3d22d64b	0.039755147
124	0xbe0bb54b	-0.13643377
125	0x3e03ea87	0.12882434
126	0xbba7ec01	-0.0051245694
127	0xbe4558bf	-0.19272135
