backend/anomaly_models/WH002_SKU-005.pth (torch, 242563 bytes, 20 tensors)

encoder_lstm1.weight_ih_l0 f4 [256, 6]
00000000: 64fe 743c fff9 943d 5c37 7f3c 0f80 fd3c
00000010: bf51 b43c b6ec f83c bee8 da3d ea91 d83d
00000020: d59e 69bd 251d 05bb 794b cabc e418 c1bd
00000030: 7474 683b b6b7 80bd 7774 0e3e 92b0 c23d
00000040: d049 063d 3435 cdbc cd56 0b3d 8fbf 7fbd
00000050: 3475 dcbd f9e4 b13d c8f8 423d 481f 32bd
00000060: 2cce a83c 2bb7 c1bd b3ab 08bd 2fa3 96ba
00000070: 0e5e 5ebb 5b22 d53d 3a58 4a3d 7c03 0c3e
00000080: 57f6 db3d 808e 2b3d c376 153e 4e6e 40bd
00000090: 23fe c43d 3662 013e 12e1 a43d 3406 46bd
000000a0: 7c2a e43d 1aac 383d a34a abbc 2497 d23d
000000b0: dd9f 08be 387e 773d b86b ba3d 2a8f d03c
000000c0: 12b1 e53d 40b2 683c 9cc8 933d 154f d93d
000000d0: 1609 9abd 1dca 533d 29ff 7fbd 7305 06be
000000e0: 914d c1bd 7e59 0ebd 03b8 cdbd 7e69 09bd
000000f0: 08df 003e 6273 a93d 4344 9dbd e623 813d
00000100: 9197 a0bd 207a 5f3b 06e5 af3d 82f8 623d
00000110: 9ab7 ab3d 9f8b f63d 4189 263c 0bb1 7a3b
00000120: 59dd 193e 2c20 073e e053 9ebd 8461 a63d
00000130: 6086 eb3d 7951 eebd 71ca f53b f896 40bd
00000140: 150c d83d c76e a7bc e57f 933c 11fc 123e
00000150: 371c 3c3d 4ab9 5d3d 0aac 4bbd 02fd aebc
00000160: f61c fb3c a37a db3d f99f b23d 10f2 513d
00000170: 0901 d73c c7d5 033d f5f0 1f3d b771 153e
00000180: 7be7 11bd 9d7a eb3d 520f 1abd e78e 8abd
00000190: 8b67 0d3d 0e69 96bb f022 b4bd e4ae afbd
000001a0: e52d b0bd 92c7 0b3c 78a8 673c 96be a43d
000001b0: 9baf c2bd a959 bf3d 7f5d b83d 90ad f93d
000001c0: 3739 0dbd 32ba 97bd 3935 80bd 7b5e 0e3d
000001d0: b982 283d aa60 60bd 0315 39bd 24a5 cf3d
000001e0: 2a30 a5bd b281 babd 50c0 543d 93a8 73bd
000001f0: 7d00 0cbb 14e8 4d3d 478a f338 eeff 743c
00000200: d94b 123e 3d6b 773b 81c5 9a3d fa2a d83d
00000210: b683 b43d a3f7 643d fc1f 2bbd 34a1 38bd
00000220: 3064 0d3b b183 df3d 1207 b6bd f1e0 363d
00000230: 60d0 8fbd 3b73 0e3e 0731 183d 1e18 3f3d
00000240: 129a ff3d 9b78 aa3d adb6 dd3d 50c6 7e3d
00000250: 9a6b e9bc 8e8d bf3d 0099 dcbc 4293 d13d
00000260: 6640 b53d bf1a ff3d 2d95 ff3c b7b3 943d
00000270: 6a9f e93b 721d d1bc 5d65 be3d f92e 373d
00000280: 5eef 673d 005c f9bd 67af 043e 11d6 173d
00000290: 72fb 8fbc 7e8f b33d 85ff e6bb c713 b2bd
000002a0: 4df8 153d d00d 33bd be15 093d 6aba 9d3c
000002b0: d3c5 603d eb05 d4bc ee7c 39bd bce3 4dbd
000002c0: 0d1f 53bb ae61 f3bd 8047 53bd 6526 07be
000002d0: b066 2d3c 47e8 e93c 6bf0 a33d b332 153e
000002e0: 921c 5ebd 07af fbbc 4faa 57bd cc9f 8dbd
000002f0: aaab f73d 9fcf c0bd 4e55 aeba 7ac6 933b
00000300: 49c7 b13c e393 d73d ba5e 06bd 935d b0bd
00000310: 5a43 febc 94c3 e73c 451b 9dbd a491 34bd
00000320: abb8 d9bc 5200 8abc 7fd8 fe3d 5608 e43c
00000330: 641b 243d 4c03 d8bb c670 053e 1db0 69bd
00000340: 8dac 983d c742 983d 2575 093e 2177 8e3d
00000350: 583e 8f3d da32 033e 08cd 70bd e30e 1dbd
00000360: ad7f 6e3b b202 8c3d 0458 ee3d 352e 1ebd
00000370: d200 81bd 1501 d3bd 8f36 1d3e 35ff a0bd
00000380: 89ad f73d c797 d73c 1caa 9dbc b5ce a13d
00000390: 482b 083e 3f96 193e 3604 9c3d c138 acbc
000003a0: 344a 0c3d a7b9 053e 7957 73bd d818 f13c
000003b0: cf1f 963d daa2 ae3d 50d2 c83c 7113 913d
000003c0: 4785 183d a4f3 a63c dc36 d73d 22bd fd3d
000003d0: 1092 c5bd 4b32 48bd b650 c93c 2409 a6bd
000003e0: f1ad 23bd bd40 f93d 220b 67bd 5d50 e3bc
000003f0: d4e4 b4bd a195 1a3e c811 92bc 8a0d 91bd
0.01495323 0.072742455 0.015577164 0.030944852 0.022011636 0.03038631 0.10688923 0.10574706
-0.05703624 -0.002031156 -0.024694191 -0.09428576 0.0035469802 -0.0628504 0.13911615 0.09506334
0.032785237 -0.025049783 0.034018327 -0.062438544 -0.10764542 0.08686251 0.047600538 -0.043486863
0.020606123 -0.09458765 -0.03336687 -0.0011492724 -0.0033930573 0.104069434 0.049400546 0.13673204
0.10740345 0.041883945 0.14596085 -0.046980195 0.09618785 0.12635121 0.08050741 -0.04834576
0.11140916 0.045086004 -0.020909613 0.10282734 -0.13342233 0.060423106 0.09102577 0.025458891
0.11215414 0.014202654 0.072159976 0.10610787 -0.07521264 0.051706422 -0.0624992 -0.13088016
-0.09438623 -0.034753315 -0.10044863 -0.03354787 0.1258508 0.08273961 -0.076790355 0.06305675
-0.07841409 0.0034099892 0.08588605 0.055412777 0.083846286 0.12038349 0.01016456 0.0038252498
0.15025844 0.13195866 -0.07730842 0.081240684 0.11500239 -0.116366334 0.0075009395 -0.047018975
0.105491795 -0.020438565 0.01800532 0.14353968 0.045925345 0.054131784 -0.049724616 -0.021360878
0.030653458 0.107167505 0.087219186 0.05125624 0.02624561 0.032186296 0.039048154 0.1459416
-0.035621148 0.11497996 -0.037612267 -0.06765538 0.034522574 -0.00459016 -0.08795726 -0.085782796
-0.08602504 0.008531468 0.014139287 0.08044164 -0.0950615 0.09343273 0.09002208 0.121913075
-0.034478392 -0.07408561 -0.062601514 0.034758072 0.04114029 -0.054779686 -0.045186054 0.1013892
-0.08065827 -0.09106769 0.051941216 -0.059486937 -0.0021362596 0.050270155 0.00011612899 0.0149535965
0.14286746 0.0037753128 0.07557202 0.10555072 0.08814184 0.055900227 -0.04177855 -0.04507561
0.002157461 0.1091379 -0.08888067 0.044648115 -0.07022166 0.13911144 0.03715613 0.04665386
0.124805585 0.08323785 0.10825858 0.062200844 -0.028493691 0.09353171 -0.026928425 0.10233165
0.08850174 0.12456273 0.031199062 0.072608404 0.0071295993 -0.025526736 0.09296677 0.04472253
0.056624763 -0.12175751 0.12957536 0.037069384 -0.017575953 0.08767603 -0.0070495033 -0.086951785
0.03661375 -0.043714345 0.033468 0.019253928 0.05487616 -0.025881728 -0.045285158 -0.050266013
-0.0032214553 -0.11883865 -0.05158186 -0.1319824 0.010583565 0.028553141 0.080048405 0.14570121
-0.054226466 -0.030723108 -0.052652653 -0.069152445 0.12093289 -0.094146006 -0.0013300569 0.0045097442
0.021701472 0.10526254 -0.032805182 -0.08611598 -0.031037975 0.028291501 -0.07671217 -0.044084206
-0.026577314 -0.016845856 0.12443637 0.027836006 0.040065184 -0.00659219 0.13031301 -0.05705272
0.074547864 0.07434612 0.13423593 0.06956316 0.06994313 0.12812367 -0.058789283 -0.038344275
0.0036392019 0.068364516 0.116378814 -0.038618285 -0.062989846 -0.10302941 0.15352844 -0.07861177
0.12093646 0.02631749 -0.019246154 0.07900754 0.1329776 0.1499872 0.07617991 -0.021023156
0.034250453 0.13059102 -0.059409592 0.029430792 0.07330286 0.08527155 0.024514347 0.07083786
0.03723648 0.020379849 0.105085105 0.1238959 -0.09647 -0.048876088 0.024574619 -0.08107212
-0.039960805 0.12170551 -0.0564071 -0.027748281 -0.08832708 0.15096141 -0.017830744 -0.070826605

encoder_lstm1.weight_hh_l0 f4 [256, 64]
00000000: 7341 bcbd 7deb 5f3d 0dac f13c 63b4 c3bd
00000010: 69cf cebd 2f63 5fbc e8dd 093e b12b 95bd
00000020: dc25 78bd c7d4 c1bd 2279 d03d b211 d3bd
00000030: febe 21bd 9b24 abbd b168 a23d 049f c8bd
00000040: b2a5 30bc bc8c 8e3d f83a b8bd affb a23d
00000050: 5325 903d 8960 ed3d 1702 d43d 9365 8cbc
00000060: 0320 fbbb 3899 5ebc 0d8f 053d a67a abbd
00000070: 132b 00be 3395 333d 7925 f93d 9785 04bc
00000080: ac07 353d ce17 9c3c 45b0 a23c 1521 aebc
00000090: 6782 98bc 17ca bcbd bfcc 08be 8e3f dd3d
000000a0: 820c 8e3d 148c 7bbd 9c68 9cbb 73a8 86bd
000000b0: 2436 0d3e ad10 d3bd 6a52 e53a a52a 30bd
000000c0: 812c d5bd 867b 6f3c f5e2 a1bc 3e43 93bd
000000d0: 4c60 083e f208 d2bd 39a9 e0bc ebd7 18be
000000e0: ce21 d7bc 1ff4 c83c 8e2a 48bd c54f 0b3c
000000f0: 2870 fdbb 1325 ebbc 2cec d33d ad61 a6bd
00000100: fdf9 6abd 5f5a c9bd 0229 11bd 9976 48bd
00000110: 6110 a53d 3d22 e13d 0b94 093d e7d8 efbd
00000120: 2d08 f8bd d007 f03d ca1e 043e c760 10be
00000130: 9b5b a73d 6f7b 4d3d 7b98 d73d 8913 3dbc
00000140: 359e 943d 0ccf 1c3e 1630 9dba fcb9 b63d
00000150: ca46 ccbd 451e 92bd c333 a93d 5a01 ea3d
00000160: 5882 cb3d b13b 1e3c 0106 1ebd f382 f73d
00000170: aa61 44bb fe56 45bb bc25 d5bd 46e6 b7bc
00000180: d055 1fbc 272d bebd c7a0 a33d be46 92bd
00000190: 2b7d c8bd c63c 7e3d c08e 623d aab4 dd3d
000001a0: 1517 173d d986 623c 59ee b5bb 2373 05bd
000001b0: 66ac 6a3d af21 a4bc 9ddb 933d 8de1 c13d
000001c0: 99ae 1fbe bc59 073e 7790 47bd 5fd0 e63b
000001d0: 8733 7cbd ea88 a73d ead0 1d3d 3c60 11bd
000001e0: 218d 0d3d a82a 443c a5ab 42bc de28 b4bd
000001f0: e367 b7bd ab84 7c3d 18e7 473c 8330 94bd
00000200: ad8c 833d 7b14 16be 813b 8f3d 52c6 c7bc
00000210: dad7 df3d f61f 82bd 1560 253d 0e55 353c
00000220: ef28 82bd 9454 faba 80be b53d cb57 f6bd
00000230: 2c62 1b3e 8db4 333c 84ca a1bd ad48 4e3d
00000240: 319e 5e3d e22c d53c d365 523c 1ba5 a53d
00000250: ac7b a3bd 9402 113e 00ad d83b 6969 f5bc
00000260: 06f2 823d ff28 f7bd 28ce f53d bbb3 693d
00000270: ecf8 653d dea7 fc3d bf14 823c d0fd 673d
00000280: cd14 b2bd 02a6 223d 4a15 cf3d 3e77 91bd
00000290: 799b 42bd 93ed 273d 6e9c e93c f770 90bd
000002a0: efd2 813d 5894 283d 17c6 bf3c bf5c 8cbd
000002b0: 8338 1c3e 62a5 c8bd 980f 663d 3b9f 51bd
000002c0: 9d7a 7d3d 10d6 713d 61e6 92bd f137 1ebd
000002d0: cae3 943d 77a9 9f3c a1ae 13be 9ea5 503d
000002e0: 9e40 a83c 3c0f 993d 0a09 00be a6a9 e7bd
000002f0: 773d 763d 78d2 713d c792 953d f48b 8b3d
00000300: 43ee c63d 4481 1e3e b841 17bd 0afa bfbd
00000310: 6e84 113d 1f62 03bd de01 4a3d 2689 65bd
00000320: df48 68bc 97a4 aa3c aa76 a4bd f2e2 793c
00000330: 8fb3 9cbd 06db e0bb 5a89 bbbd 0898 f63d
00000340: 8257 203e 5a6f ad3d cecf 1e3d ae59 0bbe
00000350: e17b 84bb af9b 16be 41b8 7e3c c930 70bd
00000360: e871 2c3d b55b bc3a c603 e5bd c892 873d
00000370: d573 abbd 4c72 93bc 01ee 853d bd47 4bbd
00000380: c15b 09bc 04bb df3a 9492 0abe 5329 be3d
00000390: 66c1 c13d 649d 5a3d f5c0 f53c 7840 6b3d
000003a0: 598d e0bd 6c71 593d cbf1 fa3d d647 653c
000003b0: a922 72bc ad2b 61bd a35c a43d b0b1 acbd
000003c0: 9655 853b 658b f0bd 00c9 ba3d 10cd 223e
000003d0: 8972 b1bd 538e 92bd ce9d 8c3d b6c7 e83d
000003e0: a6fb 70bd 7f43 b93d 8ce4 2c3d 9639 a33b
000003f0: 33a4 713d 8f71 ac3c e4d1 913d 2052 963c
-0.09192171 0.05466794 0.029500986 -0.095558904 -0.10098154 -0.013634487 0.13463557 -0.07283724
-0.06058298 -0.09464412 0.10179354 -0.103061095 -0.039488785 -0.08356591 0.079301246 -0.09795955
-0.010781692 0.06960437 -0.089956224 0.07958161 0.07038369 0.11590678 0.10351961 -0.017138278
-0.007663728 -0.013586335 0.032607127 -0.08373003 -0.12516432 0.04384346 0.121653505 -0.008088491
0.04419677 0.01905432 0.019859442 -0.02125601 -0.018616868 -0.09218233 -0.13359354 0.10803138
0.069359794 -0.061412886 -0.0047732126 -0.06575098 0.13790184 -0.10305915 0.0017495875 -0.04300942
-0.10408879 0.014616853 -0.019761542 -0.0719056 0.13317984 -0.102556124 -0.027424442 -0.14926116
-0.026261237 0.024530469 -0.04886871 0.008502905 -0.0077343173 -0.028704202 0.103477806 -0.08124099
-0.057367314 -0.0983169 -0.0354395 -0.04894123 0.08059765 0.109928586 0.03358845 -0.11711293
-0.121109344 0.1172024 0.1290237 -0.14099418 0.08171769 0.050166544 0.1052713 -0.011540302
0.07256738 0.15313357 -0.001199248 0.089221925 -0.099744394 -0.0713468 0.08261826 0.11426039
0.099369705 0.009657786 -0.038579945 0.120855235 -0.002996544 -0.0030111666 -0.10407588 -0.02244867
-0.009725049 -0.09285956 0.0798965 -0.07142399 -0.09789499 0.062069677 0.05531192 0.108254746
0.036887247 0.0138260955 -0.005552095 -0.032580506 0.05729332 -0.020035593 0.07219622 0.094668485
-0.15593947 0.13217825 -0.048721757 0.0070438827 -0.061572578 0.08180411 0.038529314 -0.035492167
0.03455842 0.011973061 -0.011881744 -0.08796857 -0.08955362 0.06164996 0.012201093 -0.072358154
0.06423316 -0.1465625 0.06993771 -0.024386559 0.10929842 -0.06353752 0.040374834 0.011067642
-0.06355464 -0.0019098693 0.088742256 -0.12028464 0.15174168 0.01096834 -0.07899955 0.050362278
0.05435008 0.026022378 0.01284166 0.08088132 -0.07982573 0.1416114 0.00661242 -0.02995749
0.063938186 -0.12068366 0.12002212 0.05705617 0.056145594 0.123367056 0.015879033 0.05663854
-0.08695374 0.0397091 0.101114824 -0.07102822 -0.04751155 0.040998053 0.028516974 -0.07052796
0.063390605 0.041157097 0.023409886 -0.068536274 0.15255933 -0.09797169 0.056167215 -0.051177245
0.06188451 0.059042037 -0.071728475 -0.03862757 0.0727001 0.019489987 -0.14422084 0.050939195
0.020538624 0.07473609 -0.12503448 -0.11311655 0.06011721 0.05903861 0.07303386 0.06813803
0.097134136 0.15478998 -0.03692791 -0.09373863 0.035526685 -0.032075997 0.049318187 -0.056038998
-0.01417753 0.020830436 -0.08030446 0.015251862 -0.076514356 -0.006862047 -0.09157057 0.120407164
0.15658382 0.08468504 0.038772397 -0.13608429 -0.004043088 -0.14707826 0.015546859 -0.058640275
0.042100817 0.0014370593 -0.1118236 0.06619793 -0.083717026 -0.017998837 0.06539536 -0.04962896
-0.008383692 0.0017069285 -0.13532478 0.09285226 0.09460716 0.053372756 0.029999236 0.05743453
-0.1096446 0.053086683 0.122531496 0.013994178 -0.014778771 -0.054973293 0.080254816 -0.08432329
0.0040690405 -0.117453374 0.09120369 0.15898538 -0.08664424 -0.071560524 0.06866036 0.11366217
-0.05883374 0.09046077 0.042210147 0.00498123 0.058994483 0.021050243 0.071201116 0.018349707

encoder_lstm1.bias_ih_l0 f4 [256]
00000000: 8db7 0abe 2e12 92bd 5e24 cebd d4c9 6a3d
00000010: d929 bfbd 6d0b a4bd 0257 113d 5f66 e63c
00000020: 1bb6 093d e3f3 283d 1789 7fbd 1deb c63d
00000030: a1b8 953c 9ba9 10bd c2b3 9f3d c0b2 8abc
00000040: 7124 263d b0a4 193e 4daf 1c3d 78ac 97bd
00000050: 0ac7 053e 14e4 073d 7fed 853d e8b4 8e3d
00000060: eafa 6d3c 5dea fe3d 01e1 e0bd d386 a0bd
00000070: 6ff8 4d3d 5362 7dbd c30d 0f3e 631b f13d
00000080: 3a6f 9c3d 3bd0 a1bd a848 cf3d 83b9 82bd
00000090: 3291 333c 8580 32bd c33f f53d 2acd 37bc
000000a0: d576 803c b01f 0d3d aef8 ac3c ab3b 293d
000000b0: 38fd 6dbc 429d a1bd fe50 273d 761a 56bd
000000c0: fc60 acbc 51ad 783d a6af fc3d 689f 893d
000000d0: fe8b 033e c42f b4bd 9fcb 743d 5423 87bd
000000e0: 19df 303d 349a 33bd 23ff 90bd e2e8 3b3d
000000f0: 83f0 a93d b4f3 04bd cbd5 a63c 830e 303d
00000100: c79a c6bd c33a 0e3e 4d09 f83d 02d6 703b
00000110: 3356 c83d 5c6c 2abd edd9 d83d d1aa b83d
00000120: 4341 dcbc 53e0 2dbd 1537 303d af24 70bd
00000130: 2f74 93bd c8fe 77bd 3525 743d 6cf7 b1bd
00000140: 6baf 98bd 44c1 07bd 663c fe3c 1cd4 1c3d
00000150: 55b5 bebc 32a0 cdbc b048 0c3e a431 743b
00000160: c6bf 423b 16b0 c63d 5df0 673d 0768 ba3b
00000170: 82ac c73d 02bb 243d b511 9b3d 7759 a43d
00000180: ac21 a6bd 55f0 8bbd 4cfe 173e 4d47 b3bd
00000190: ee13 6ebb 1807 78bd bdb1 c43d a1b0 80bd
000001a0: dc14 efbb 29e7 d13d 451f babd 91fc aabd
000001b0: f8e5 c4bd 1fa4 d33d 4024 4cbb 6463 523d
000001c0: 81d9 65bc af75 d33d 7f5e 7f3d 4397 29bc
000001d0: a57b 5fbc 9718 aebb f78b ef3d 7ecc de3d
000001e0: fcbb dd3d 479e 6bbb 858a a43d d498 bb3d
000001f0: a627 01be b4ca 7a3c 9496 4cbd 2e60 a13c
00000200: 0924 d1bd eaa5 13be 983f d0bc c4f6 8bbd
00000210: 9e97 513d bc02 84bd 8e8d ba3c 8070 96bd
00000220: 3b53 38bd f8cf 42bd 93a0 ac3c 7a4e 233d
00000230: 7075 113d 29a5 3e3d 510b c23d b528 06be
00000240: f5a3 94bd 4318 1dbc 7533 183e fecc b03c
00000250: 8eac 11be 371c 6d3c ba19 803c a543 a93d
00000260: f9a8 113e 01e5 ccbd 2238 ffbb 299f 873c
00000270: 4961 91bd f934 9bbd 0f22 223d ef61 12be
00000280: 047b 553d 7f53 c2bc b881 1c3e 26a2 bcbc
00000290: 1002 13be ad10 eabd 3845 f93c a10f 3ebb
000002a0: bd95 de3d 3f96 f0bd 9dc0 ac3d 5598 cd3d
000002b0: 2766 b83c 3939 e9bd 9eb2 883d 82c0 55bd
000002c0: 8975 0cbe 9b53 7cbc 8a69 0c3c d723 57bd
000002d0: f4eb 9d3c 4066 03be 12b4 20bc 243d 163d
000002e0: 4e11 8a3d 81a4 1f3b 4e95 b7bc aabb cabb
000002f0: b3d3 d1bd 7b6e f03d 6059 ff3d c00b 10be
00000300: d9c6 23bc cc54 583d 568e ce3d a79d 49bc
00000310: 4448 d23b 2b1b 393d 3262 073d c310 983b
00000320: dfba a5ba 13a8 1abd 913d 83bd faf3 093e
00000330: 524e 43bd 11aa 7b3d c4a0 c2bc b24f 8abc
00000340: f315 de3c f70d 0c3c 2336 163d 4c68 6abc
00000350: 8e17 e7bb 0bbd f03d f698 963b 6084 0e3e
00000360: 5483 96bd 8f6a 96bd dda2 01be 8292 883c
00000370: 52ef 413d 2a91 edbd 35b0 a2bd b435 6f3d
00000380: a010 57bd 8db0 babd 9c2d 44bd f3fd bc3b
00000390: d0f4 16bd 82ff 22bd af04 e73d 918f 98bd
000003a0: edc4 63bd 2576 0f3e 2d35 903d 322f 033d
000003b0: 5a3e cbbc 120e fa3c 6dbd bfbd 4e81 953c
000003c0: 0418 8dbd 1bfb 85bd 70d4 233e 9dd1 c4bd
000003d0: a552 253c f55e 3ebd e5ee e03d b2a8 c83d
000003e0: f9cc 2abd 377a 1c3e 70af 81bc 4114 89bc
000003f0: 2a27 b63d f531 72bd 366e f2bd 40af 0a3e
-0.13546582 -0.07132374 -0.1006553 0.057321385 -0.09334154 -0.08009992 0.035483368 0.028124986
0.033620935 0.041248213 -0.0623866 0.09712813 0.018276514 -0.035318 0.07797958 -0.016930938
0.040562097 0.1500423 0.038253117 -0.07405943 0.13064209 0.033176497 0.065394394 0.06968099
0.014525155 0.12447045 -0.10980416 -0.07838216 0.050285753 -0.061861347 0.13970093 0.11772802
0.07638402 -0.07901045 0.1012128 -0.0638304 0.01095991 -0.043579597 0.11975052 -0.0112183485
0.015681664 0.034454048 0.021114673 0.04131667 -0.014525704 -0.07891323 0.040848725 -0.05227133
-0.02104234 0.060712162 0.1233819 0.067198575 0.12846372 -0.08798173 0.0597645 -0.06598535
0.043181513 -0.04384823 -0.070799135 0.04587639 0.08297827 -0.032458976 0.020365616 0.04298259
-0.0969749 0.13889603 0.12111149 0.0036748652 0.09782066 -0.041607246 0.10588441 0.09016956
-0.026886588 -0.04245026 0.04302128 -0.058628734 -0.07199895 -0.060545713 0.059605796 -0.0868977
-0.07455333 -0.033143297 0.03103466 0.03828822 -0.023279825 -0.025100801 0.13699603 0.0037261033
0.0029716357 0.097015545 0.056625713 0.0056886706 0.097497 0.040217407 0.07571737 0.080248766
-0.08111891 -0.06832949 0.148431 -0.08753834 -0.0036327797 -0.06055364 0.096042134 -0.06283689
-0.007296188 0.102491684 -0.090879954 -0.083489545 -0.096141756 0.10334038 -0.0031149536 0.051364318
-0.014028908 0.10325181 0.062345978 -0.010351005 -0.013640319 -0.00531299 0.11696618 0.108788475
0.10826871 -0.0035952495 0.08034233 0.09160009 -0.12612781 0.015307117 -0.04994829 0.019699182
-0.10211951 -0.1441876 -0.025420949 -0.06834176 0.051169984 -0.06445834 0.022772577 -0.073456764
-0.04500125 -0.047561616 0.021072662 0.039869763 0.035512388 0.046544228 0.09474815 -0.13101466
-0.07257835 -0.009588304 0.1486338 0.021582123 -0.1422598 0.014472059 0.015637267 0.08264855
0.14224614 -0.100046165 -0.007788674 0.016555386 -0.07098634 -0.07578463 0.039583262 -0.14295171
0.05211927 -0.023721455 0.15283859 -0.023026537 -0.14356256 -0.11428962 0.030428514 -0.0029001015
0.10868404 -0.11747407 0.084351756 0.10038821 0.022509648 -0.113878675 0.066746935 -0.052185543
-0.13716711 -0.0154007925 0.008570084 -0.052524414 0.01927755 -0.12831974 -0.009808557 0.036679402
0.06741582 0.0024359527 -0.022410061 -0.006186922 -0.102454565 0.117398225 0.12468219 -0.14066982
-0.009996139 0.052815244 0.10085742 -0.012305654 0.006417306 0.045191925 0.03305263 0.00464067
-0.0012644193 -0.037757944 -0.06408227 0.13471976 -0.047682114 0.061441485 -0.0237583 -0.016883705
0.027110076 0.008548251 0.036672723 -0.014307093 -0.0070523685 0.11754807 0.004595871 0.13917685
-0.073492676 -0.07344543 -0.12659784 0.016671423 0.047347374 -0.115999535 -0.07943765 0.058400825
-0.05250609 -0.09115706 -0.04789506 0.005767578 -0.036854565 -0.039794452 0.1128019 -0.07449258
-0.055607725 0.14009912 0.070413925 0.03202743 -0.024810005 0.030524287 -0.09362302 0.018250134
-0.06889346 -0.06542035 0.15999007 -0.09610293 0.010090505 -0.046477277 0.109830655 0.09797801
-0.041699383 0.15280996 -0.015830725 -0.01673329 0.08894189 -0.059129674 -0.11837427 0.13543415

encoder_lstm1.bias_hh_l0 f4 [256]
00000000: 490e ce3d e2bb 103d 73ae 13bc 733b a4bd
00000010: 73b7 45bd 11c2 193e 5779 9a3d 217b f5bd
00000020: aaed 88bd 50d6 083c defd b6bd 56fb 3e3d
00000030: ea3c 9bbd df1c a63d 5550 ee3d 721c e53c
00000040: 7647 213d 6f37 adbd 1681 bd3d 62d4 debc
00000050: 2c36 ef3d d4b7 3cbd b197 94bd e7f8 4d3d
00000060: 5a3b 1ebd 8ad4 a9bc 85af 0dbd 31a9 023e
00000070: 13be b4bd af11 833d 37f6 0e3e f1d5 0c3e
00000080: 2eca bdbd 6119 e53d 23d6 b3bc 162b 1f3d
00000090: 49cb e83d ebe6 553d 564d 023c 0ea0 a43d
000000a0: 8b41 8fbd 8824 bbbd 8f35 d33d 035c 20bd
000000b0: 47b3 d2bd 919b 953b 0fc8 ed3c 75d5 92bd
000000c0: 5b50 9a3d 6075 a73b 52f0 0c3d 32db 06bd
000000d0: 587a c1bc 44dc 6fbd 57ac 5f3d 83e5 c2bc
000000e0: ed99 1a3d 5aea b1bd afa2 b53d 8d82 4f3c
000000f0: e7b6 12bd a90d aabd d622 513d 956b 85bd
00000100: 13d2 ac3d 32ea 1c3e b634 103e 2909 f1bd
00000110: b3d3 b93b a2f5 993d 3726 e33d 2205 743d
00000120: ccad 953d a5ff f0bd 1df7 f13d acfb 89bd
00000130: ebf9 b3bb 66f6 a8bd 8365 f9bc 6414 e13d
00000140: 37c0 fc3b 4788 67bd 8d0b 1a3e 3a29 9a3d
00000150: c235 873d 610e 043e 9ce7 b0bd af9a 32bd
00000160: c3ca 25bd 32c1 c43c 46bb 98bd 5a7c fd3d
00000170: 013b 04bd b76a bebd 114f 23bc 5142 99bd
00000180: 68a3 d0bd 3ca1 9c3d da54 ff3c b189 38bc
00000190: 4cbf 8bbd 76e3 b63c b75f 9bbd caa1 0c3e
000001a0: bab3 873d 0b13 033e 8a98 423d 778d 103e
000001b0: ea85 143e e0b2 053d 7db9 bbbc 3e42 a2bd
000001c0: d96c 183e 2740 f0bb 7a15 35bb 3b9e 7c3c
000001d0: fbff d93d 930c 66bd cd9f 873d 9a60 b93d
000001e0: 1beb 9c3d 420f 55bd 61ec 683d e36a 6d3d
000001f0: 79f0 2b3c a6bc b13c 510d 023d 1495 51bd
00000200: 914d adbd 5582 a13d df5c fabd b675 9fbd
00000210: 1da7 fa3d 0b4d 193e b8db 533b ae0d 7f3d
00000220: 5c83 03be 2cb2 29bd 4342 cc3d 9e2f 3bbd
00000230: 6799 393c b8e3 0ebc b0be 043e e92a 123c
00000240: 9134 863d 91e6 073e f3cf 003e 110a 7e3d
00000250: c8cb 9abd 1ed4 0b3e 78e9 b1bc b9de 8a3c
00000260: a959 82bd d20d 5c3c ba0e 343c 04a2 7d3d
00000270: 9fbf 91bd 41e4 dabd e2c4 a0bb 1cfc 623c
00000280: 879e d5bd d554 8bbd 901d a63d 5431 16be
00000290: 456a 41bd e17c 6f3c d15f 09be faa0 f63d
000002a0: 4aff a33c 8a08 b2bd 7958 f1bd 7bbc b1ba
000002b0: 085c 0c3e e8d6 8fbd fded 0e3e bf06 813d
000002c0: c93b 7ebc d19e b63d 3c54 79bd 7831 5e3d
000002d0: 4c80 0c3e afea 04be 95d4 a0bd 9517 4c3d
000002e0: 6d1d 6dbc 916d 54bd 1d22 93bd 0404 22bd
000002f0: c94f 493d af73 993d 2c14 94bd bb0e 9a3d
00000300: c063 edbc 1f46 01bd 48e5 dc3d ad2c 2d3c
00000310: 4bfe fbbd 43c8 44bd f8f8 a53d dae8 c43d
00000320: 6ad8 dc3d 687e ddbd ffdc bfbd 6f01 90bc
00000330: ba7d 03bc ba76 713d 1cd7 973d a88b b13d
00000340: a05c 083e 6a8d 4d3d b1f4 163e 5004 0d3e
00000350: c492 cf3d b489 e73c 6bd7 a4bc 053b 21bd
00000360: dad8 39bd 8e44 c43d 82ca 51bd a4b4 57bd
00000370: 4b01 8c3d b07a bc3d f052 123e 967e 87bd
00000380: 9b87 05bd 0287 993d 56d4 b23d 8ec9 11bd
00000390: 3404 033e 2248 2d3c df6c 54bd ae01 62bd
000003a0: 25f5 043e 818c a03d 9bb8 133e 8f84 f0bc
000003b0: c51b cb3d 79ca a93d cd2e 373d e244 8c3d
000003c0: e968 10bc 17d2 433d 58e0 c73b 3f16 093e
000003d0: 4d61 a63d 507b 8f3d 2dcb a33d 590d febc
000003e0: f15e 653d 589a 213d 6a8d 9b3d a2ac b4bb
000003f0: 76d0 cc3d e1bf 023e c515 473a 78c3 0e3e
0.100613184 0.03533543 -0.00901376 -0.080191515 -0.048270654 0.15015437 0.07542675 -0.119863756
-0.06685956 0.008351877 -0.0893514 0.04662641 -0.07579978 0.081109755 0.11636416 0.027967665
0.03937479 -0.08457839 0.09253137 -0.027200881 0.11680254 -0.04607375 -0.07255495 0.0502862
-0.03863082 -0.02073123 -0.034591217 0.12759854 -0.08825316 0.06399857 0.13961111 0.13753487
-0.09267078 0.11186481 -0.021952694 0.03885945 0.113668986 0.052222174 0.007953009 0.080383405
-0.06994923 -0.09137827 0.1031295 -0.03915025 -0.10288101 0.004565664 0.02902606 -0.0716962
0.07534858 0.0051104277 0.034408875 -0.032923885 -0.023617908 -0.05855967 0.054607715 -0.02379108
0.03774445 -0.08687277 0.0886892 0.012665403 -0.03581896 -0.08303387 0.051058613 -0.0651466
0.08438506 0.15323713 0.14082608 -0.11769325 0.0056709885 0.07517554 0.11091273 0.059575208
0.0730854 -0.1176751 0.11814711 -0.06737456 -0.005492439 -0.08250122 -0.030443912 0.10990217
0.0077133435 -0.05652645 0.15043469 0.075273946 0.0660205 0.1289611 -0.08637926 -0.04360455
-0.04047657 0.024017904 -0.074575946 0.12377234 -0.032282833 -0.09297698 -0.009967581 -0.07483352
-0.10187417 0.076479405 0.03116839 -0.011263297 -0.06823596 0.022325259 -0.075866155 0.13733593
0.06626077 0.12800233 0.047508754 0.14116465 0.14504209 0.03264129 -0.022915596 -0.07922791
0.14885272 -0.0073318663 -0.002763121 0.015418584 0.106445275 -0.056164335 0.066222765 0.090516284
0.0766203 -0.052016504 0.056866053 0.057963263 0.010494345 0.0216964 0.03175098 -0.051167563
-0.0846206 0.07886187 -0.12224745 -0.077861235 0.122389056 0.14970796 0.0032327008 0.062268905
-0.12843078 -0.041429684 0.09973576 -0.04569971 0.011328078 -0.008721285 0.12963367 0.008921363
0.06552995 0.13271548 0.12579326 0.06202132 -0.075583994 0.13655135 -0.021717772 0.016951906
-0.063647576 0.013431029 0.010989839 0.06192209 -0.07116627 -0.10688067 -0.0049062828 0.013854053
-0.10430627 -0.0680329 0.08111107 -0.14667255 -0.047220487 0.014617176 -0.13415457 0.120424226
0.020019192 -0.08693035 -0.11784453 -0.00135602 0.13706982 -0.07023412 0.13957973 0.06300115
-0.015517184 0.089170106 -0.060871348 0.054246396 0.13720816 -0.1298015 -0.07853047 0.049827177
-0.014472348 -0.051862303 -0.07184241 -0.03955461 0.049148355 0.07492768 -0.0723041 0.07522341
-0.028978229 -0.031561013 0.107859194 0.010569734 -0.12304362 -0.048042547 0.08104128 0.096147254
0.10783465 -0.10815126 -0.093683235 -0.017578809 -0.008025581 0.058951117 0.07414076 0.086692154
0.13316584 0.05018369 0.1474178 0.13771176 0.10135415 0.028263904 -0.02012225 -0.039362926
-0.04537282 0.09583388 -0.051218517 -0.052662507 0.06836184 0.09203088 0.1428945 -0.06615941
-0.032600027 0.07496454 0.08731906 -0.03559261 0.12794572 0.01057628 -0.05186164 -0.055177383
0.1298414 0.07839299 0.1442589 -0.029360084 0.09917406 0.08290572 0.044722367 0.06849076
-0.008814075 0.04780778 0.006099742 0.13387392 0.081240274 0.07005942 0.07997737 -0.031012224
0.055998746 0.039453834 0.07595332 -0.0055137435 0.10000698 0.12768508 0.00075944915 0.13941753

encoder_lstm2.weight_ih_l0 f4 [128, 64]
00000000: 7435 17bd a841 52bc a934 2dbe 08df 103e
00000010: 7978 213e 1bfd f03d 3058 abbd 9ddb 963d
00000020: c1fb 4bbe e5a9 8a3d 44e5 653d c7a5 b1bd
00000030: e43d cc3d 84b4 24bd 9a76 0b3e 81cb be3c
00000040: 68d6 3ebe 2fad b53b e39f 9fbd 39e8 373e
00000050: 60e9 01bd b383 8b3d 145a 8dbd a9b1 823d
00000060: 93a7 853c 3e3d 76bd 70d6 9e3d bfbd de3d
00000070: e582 143d da80 053e 4b8c b5bd 6bfc 1cbd
00000080: 54ca 623a 44d8 8b3d 3864 c03c 54f1 86bd
00000090: 0227 f83d fa2f f43d beef 8c3d df95 8fbb
000000a0: d0e0 8abd 394a f5bd 07b2 43bd c4f1 65bd
000000b0: 88b0 233e 9cd7 43be 07f8 1cbe 04c4 4e39
000000c0: 1cb6 46be a7b8 ff3d 704a 19be e39e b33d
000000d0: 4021 0e3e b302 d93c f714 54be ba6d 38be
000000e0: af68 d3bd c8af b13d 95d7 d5bd d159 383d
000000f0: 70f7 0abe e124 2b3e 9739 9ebd 2d07 cabd
00000100: 84a8 b13d ab9b 8fbd 742b 3bbe 9c85 003e
00000110: 462f b6bd aa65 32bd b69a 9e3d 7a4c 2a3e
00000120: aeee e3bd 1a20 393d ba19 6a3c 6f56 8cbd
00000130: d1a6 183e f207 7bbd 6bab 573e 9f9d 1dbd
00000140: 76bf 29bd ca64 ffbd 6bad 04bd 3e94 663d
00000150: 5084 93bd 2f0f 2f3e 6b0a 673d 2ae9 05be
00000160: 8ac6 fd3a 991a 15be 4825 e4bd 3547 0b3e
00000170: 3ba6 973d 3c0f d7bd c4d2 53bd 8faf 3ebe
00000180: 932f fcbd d819 9d3d 6ced 3a3e ea22 69bd
00000190: 6f6e 3ebb 3fd1 1dbe c3fa dcbd 6902 583e
000001a0: 6a5d 373e 5637 af3d e521 0dbe 4f8a fb3c
000001b0: 6907 533e cc66 513d 7700 143e 9cd3 c8bd
000001c0: 13cf 42be 848b 85bd 4564 2f3d 7e0b 19be
000001d0: 05aa 523e 814d d23d 275f fabd 4f0d 2bbd
000001e0: 87f9 453d d5b3 16be 48d8 e63c 4730 bcbd
000001f0: d02b f23d 7e6b 663b 24a5 84bc 3505 4ebe
00000200: 7f9f 1fbe bd88 acbd 3025 80bd ab0d 853d
00000210: cd7a 53bc 04eb e23d 979f cb3c 45c2 6cbd
00000220: 48ad 0d3e 5fdd dabd fdb9 febd 7aa3 04be
00000230: fa6b 483d 9af2 a53d c272 15be 0c66 fe3d
00000240: feac 38be 758a 993d d2a5 fd3d 948f 4cbd
00000250: 2069 3fbe 3554 c03d 2814 57bd abfe 693d
00000260: 9618 40bc 42de b7bd d270 1cbd 5441 2b3e
00000270: b41b 123e 40be af3c 7ff1 233d b38f 583d
00000280: 1c50 35be fed1 183d c4ea 7fbd 9a1c cabd
00000290: fb27 22bd 77e3 1e3e c2af 4a3b 8e29 bdbd
000002a0: f0ee 25bc 2425 1c3e bd6b c8bd b649 21be
000002b0: 76a9 0fbe 2366 c6bd d994 f4bd d2b3 043e
000002c0: 5b30 09bd 6ca6 a0bd acd3 0e3e da5f 673d
000002d0: cc51 423e 370d c33c 638f 3fbe 95a5 2ebe
000002e0: a601 97bc bbec bcbd 44cb 0fbe 7b35 d2bc
000002f0: 3522 ee3c b0f0 aebc 706f f13c 3a8f 15be
00000300: 0d3b f9bd dfef 41be efdc b63b bcbf adbd
00000310: 5261 eb3d b25b 5fbd 847d 8bbd 34d9 4c3e
00000320: ae87 bd3d 6cc7 e2bd d874 b63d 3d9f e43c
00000330: f96b 32be 35e3 b83a 9923 6c3a 654a 12bc
00000340: 312f bbbb a349 df3c 909d a3bd e8fd 183d
00000350: 51c2 dbbd 1fde 323e 34ea 94bd 365c 3abd
00000360: 0995 293e 9fe4 47be 0514 34be 3885 02be
00000370: 3130 97bd e7db 2c3e 346a cc3d 569b 13be
00000380: 3c14 8c3d 7ad5 39be 9190 b53d eca5 143e
00000390: 5f45 1cbd 69cb 0d3e d196 b33d 456d ee3c
000003a0: 2a14 24bd 82e5 1d3c 6c44 e0bc b055 2cb9
000003b0: ffe9 ffbd 4527 18be b8b3 d7bd c69b 01bd
000003c0: fac4 1d3d 3156 c9bd 0e06 b33c f0de 0dbd
000003d0: f3d2 733d 2b36 c4bd 71c9 35be f0c7 dcbd
000003e0: a540 9bbd 03f7 0b3e 3d44 633d 7cec b13c
000003f0: ad57 813d 5c82 383e 5b8c 02bd e667 32be
-0.03691621 -0.0128330365 -0.1691462 0.1414758 0.15768613 0.11767026 -0.0836643 0.07366107
-0.19920255 0.06770686 0.056126848 -0.08674198 0.09972742 -0.040211216 0.13619462 0.023290398
-0.18636477 0.0055443267 -0.07794168 0.1795968 -0.031716704 0.06812229 -0.06901947 0.06381542
0.016315257 -0.060117 0.077557445 0.10876035 0.036257643 0.13037434 -0.088646494 -0.038326662
0.0008651365 0.06828359 0.023485288 -0.065889984 0.12116815 0.11923213 0.06881665 -0.0043818797
-0.06781161 -0.119770475 -0.047777202 -0.05613877 0.1598531 -0.19125217 -0.1532899 0.00019718712
-0.19405407 0.124863915 -0.14969802 0.087705396 0.13879871 0.026490545 -0.20711122 -0.18010607
-0.10322701 0.08676106 -0.1044151 0.04500753 -0.13570952 0.16713287 -0.07725828 -0.0986465
0.0867472 -0.07012113 -0.18278295 0.12550968 -0.088957354 -0.043553986 0.077443525 0.16630736
-0.11129509 0.04519663 0.01428836 -0.068524234 0.14907385 -0.061286874 0.21061485 -0.038480397
-0.041442357 -0.12470396 -0.032391947 0.05629372 -0.07202971 0.17095636 0.05640642 -0.13077226
0.0019361537 -0.14560927 -0.11139923 0.13601382 0.07404753 -0.105009526 -0.051714674 -0.18621658
-0.123137616 0.07670945 0.18254632 -0.056918062 -0.0029057523 -0.15411852 -0.107900165 0.2109467
0.17906728 0.08555476 -0.13782461 0.0307056 0.20608296 0.051123425 0.14453302 -0.09805986
-0.19024305 -0.06520751 0.042820234 -0.1494579 0.2057267 0.10268689 -0.1222518 -0.04176074
0.04833367 -0.14717038 0.028179303 -0.09188896 0.11824763 0.0035159285 -0.016192026 -0.20119174
-0.15588187 -0.08424518 -0.06257093 0.064967476 -0.012907696 0.11079982 0.024856372 -0.057802457
0.13835633 -0.106867544 -0.12437818 -0.12952986 0.0489311 0.08102913 -0.14594558 0.12421808
-0.18034741 0.07497112 0.12385143 -0.049941614 -0.18692446 0.09391061 -0.052509457 0.057127636
-0.011724612 -0.08977939 -0.03819353 0.1672414 0.1426838 0.021453023 0.04002523 0.052871417
-0.1770634 0.03730964 -0.06247975 -0.098687366 -0.03958891 0.15516458 0.0030927514 -0.092364416
-0.010127768 0.15248543 -0.097861744 -0.15750775 -0.14029488 -0.0968745 -0.11942453 0.12959221
-0.03349338 -0.078442425 0.13947934 0.056487896 0.18976516 0.023810012 -0.18707041 -0.17055352
-0.018433403 -0.0922484 -0.14042383 -0.025660267 0.029069046 -0.021355003 0.029472083 -0.14605418
-0.12169466 -0.1893916 0.0055805366 -0.08483836 0.11493172 -0.054530807 -0.068110496 0.20004731
0.092543945 -0.11073193 0.08909005 0.027907962 -0.17424001 0.0014105799 0.000900799 -0.00892887
-0.0057124128 0.027256792 -0.07989037 0.03735152 -0.10730422 0.17467545 -0.07271233 -0.045498095
0.16560759 -0.19520806 -0.17585762 -0.12746131 -0.07382239 0.16880761 0.09981194 -0.14414725
0.06839797 -0.18147841 0.088654645 0.14516419 -0.038152095 0.13847126 0.08769 0.029104838
-0.040058292 0.009637238 -0.027376376 -0.0001643512 -0.12495803 -0.1485873 -0.105323255 -0.031642698
0.03851793 -0.09830893 0.021853473 -0.034636438 0.05952735 -0.09580644 -0.17752625 -0.107803226
-0.07580689 0.13668446 0.055485 0.02171921 0.06315551 0.18018478 -0.031872135 -0.17422447

encoder_lstm2.weight_hh_l0 f4 [128, 32]
00000000: 9632 03be ca08 19be c3be cd3c ae31 443d
00000010: a362 54be 113b a8bd b906 23be 632e 2e3b
00000020: a2ec 18be d760 8d3d 6f1c e2bd ff7d 993d
00000030: 6724 863d 56aa 51bd b043 5a3d 71a1 55be
00000040: e012 3fbe dc03 36bd 6958 70bc abf6 30be
00000050: 247a 1abe 1485 ecbd cafa 04bd 7cb2 08bc
00000060: d327 d7bd e3ab 6ebd 1c97 7e3c cabf 0d3e
00000070: 1813 12be 0e24 52be df52 833d f1cb 02be
00000080: fc6e ee3d 5bdb 2abe b983 303e bd17 ae3c
00000090: 02ad f0bd 8a32 553e b963 983a 885f f7bd
000000a0: cafc 463d 040b 2a3d 4757 b13d 5547 c0bc
000000b0: 2317 3ebe 1c14 0fbe 6c1c 2f3e 076f 3cbd
000000c0: 1359 00be 1e7a 8d3d 876e dcbd 2abe af3d
000000d0: 702d be3d bbec 62bd ce2e e0bc 58a6 d1bd
000000e0: 3d26 babc 38fc b4bd b287 f7bc 435e e43d
000000f0: dd2e 523e f784 a6bd 9356 d63d 6cd6 c93d
00000100: 56d3 6b3d acbc 9cbd aafd 0b3e ee16 243e
00000110: fbaa 80bd 4c49 063e 41e4 a13d 8aae 043e
00000120: b126 62bb c0ee 0cbd 154d 183e 7569 c5bd
00000130: 731b babd 26a8 3a3d 1cc8 88bd 6847 2f3d
00000140: 8835 75bd 3c2d 20be b27a eb3d dc7d 333d
00000150: 38a2 cebc b39a ce3d fdd8 2cbd f090 ab3d
00000160: 4b10 b2bd 2345 213e d1f9 d93b cbba 0abe
00000170: 699e 08be 6d88 c4bd 232a 8c3c c842 4fbd
00000180: 8999 d43d eb4d dd3d 6e50 383e 5bdc 43bd
00000190: fd6a c63d e30e 90bd 965b eebd 6675 c03d
000001a0: 18c5 043e 7130 023e b496 86bd 559b 8fbd
000001b0: 48dc 0a3e 3b15 d33d 648b b9bd 7f77 c93d
000001c0: c046 d1bd 214e e13d 5993 22bd 7a05 5bbd
000001d0: 866b c13c 2995 d6bd 262d f3bc cd4a 223c
000001e0: d74f 0dbd b1b8 8a3c 8a60 be3d a41d 093e
000001f0: b3c9 89bd 41bb 1abe dbcb 973d 0b63 58bd
00000200: ca80 763d 0c75 ba3d 9f82 d53d 7b66 abbd
00000210: c2fb 883d 6a8e 163e 5815 00bd 1855 0b3d
00000220: c345 07be 51ab 18bd adde f53b 5e45 dd3d
00000230: b1e0 e5bc 115c 18bd d0ca 9bbd 7f4a 253d
00000240: c034 57bd 265c 95bd 0ec0 d63d d42f 1fbe
00000250: 9aa0 5e3d 8dea 1e3e db2f 16be 9610 05be
00000260: c0d9 d23d af5d a13d efcc 30be f385 ddbc
00000270: 0676 15be c8bd a8bd 4577 12be 7f34 e73b
00000280: 6020 85bc a194 9abb 2e19 ac3d a058 413b
00000290: 7816 8d3d c905 0cbe 36f0 8d3d 1ebb 17bc
000002a0: 1278 1bbd 0b07 8dbc 894a 27bc 65f3 053e
000002b0: 7d30 2dbe 3bc7 a43c 5b7c 69bd 702a 45be
000002c0: 1dba 9fbd 7b8c 173e ef16 e7bd dfd4 363e
000002d0: 7ddf 14be 1d5e 81bd f001 113e dc4b 3b3e
000002e0: 661a d53d 3d8e edbd feb5 17be c34e 26be
000002f0: 841f 05bc 319d 06be df90 b53c c84e d33d
00000300: 0bdc 1dbd fb73 8bbd b18c 883d ee33 143e
00000310: 6ee9 41bb 6b92 3cbd ca7e a03d d649 90bd
00000320: bfc9 a53d 50d2 9d3d ddb6 0c3e 3603 473e
00000330: 8cce 47bd a226 273e 3188 593d e68b e1bd
00000340: 34ab 2cbe 0839 40bd 6de7 533e 53da 043d
00000350: 2963 9fbc 0818 2fbd 4f4b 4b3c 5893 a13d
00000360: a696 1e3e d07b 31be cc2f ac3d 4acf d73d
00000370: cc83 b6bd ab57 30bd edf2 bbbc 18fd f73a
00000380: b22f 2dbe 5ed2 48ba 2584 14bd 3c12 243c
00000390: d716 37be 9d00 5ebc ffa5 153e ebf6 593d
000003a0: 0dbc b4bd 28df 583e ee1f 6e3d 0072 fb3c
000003b0: dd2f 35be 6cce 143d 143b 8f3d 228f 3e3d
000003c0: 0c75 24bd c72e 04be 34fe 2d3d 001a b4bd
000003d0: 578e 3c3d eb72 f2ba f082 f9bd 1992 903d
000003e0: fcb0 9a3b fac4 31bb d94e b4bd b1f3 2fbe
000003f0: 90a6 2b3e 6177 093e 5ced 703d 44a0 e23d
-0.12812266 -0.14944759 0.025115376 0.04789894 -0.20740752 -0.08214391 -0.15920533 0.0026577942
-0.14934018 0.06903236 -0.110405795 0.07494735 0.06549912 -0.051187836 0.053287208 -0.20862366
-0.18659544 -0.044437274 -0.014669516 -0.17281596 -0.15085655 -0.1154882 -0.032465734 -0.008343335
-0.10505643 -0.058269393 0.015538957 0.13842693 -0.14265096 -0.20521566 0.06412291 -0.1277311
0.11642262 -0.1668524 0.17237748 0.021251554 -0.117517486 0.2082006 0.0011626399 -0.12078768
0.048580922 0.04151441 0.08659225 -0.023471514 -0.18563513 -0.13972515 0.17100686 -0.04600432
-0.12533979 0.06908058 -0.10763269 0.08581193 0.0928601 -0.055401545 -0.027366068 -0.10236806
-0.022723312 -0.088371694 -0.030216072 0.111507915 0.2052569 -0.0813083 0.104657315 0.09855351
0.057574593 -0.07653174 0.13670984 0.16024372 -0.06282612 0.13113898 0.07904864 0.12957206
-0.0034507925 -0.034407377 0.14873154 -0.09639255 -0.09087267 0.045570515 -0.06678793 0.042792708
-0.059865505 -0.15642256 0.11498012 0.0438212 -0.025223836 0.100881 -0.042199124 0.08377254
-0.08694514 0.1574903 0.006652095 -0.13547818 -0.13341679 -0.09596334 0.017109936 -0.050600797
0.10380847 0.10805877 0.17999431 -0.04781757 0.09688375 -0.070340894 -0.116385624 0.09397392
0.1296581 0.12713791 -0.06571713 -0.07012049 0.13560593 0.10306784 -0.0905979 0.09837245
-0.102185726 0.1100123 -0.039691303 -0.05347202 0.023610841 -0.10477669 -0.029684614 0.009905529
-0.03449997 0.01693377 0.09295757 0.13390213 -0.06727924 -0.15110494 0.07411929 -0.05282883
0.060181417 0.09104356 0.104253046 -0.08369156 0.06688644 0.14702764 -0.031270355 0.0340167
-0.13210206 -0.037272755 0.0075033517 0.10804246 -0.028061243 -0.037197176 -0.07607043 0.040354248
-0.05254054 -0.072929665 0.1048585 -0.15545589 0.05435238 0.15519162 -0.14666693 -0.12994608
0.10295439 0.07879197 -0.17265676 -0.027041411 -0.14595804 -0.08239323 -0.1430331 0.0070558186
-0.01625079 -0.004717425 0.0840324 0.0029502288 0.06889051 -0.13674082 0.06930582 -0.009260921
-0.037956305 -0.017215272 -0.010210642 0.13081129 -0.16913028 0.020114532 -0.05700336 -0.1925447
-0.0779917 0.14799683 -0.11283671 0.17854641 -0.14538379 -0.06316779 0.14160895 0.18290657
0.10405426 -0.115993954 -0.14815518 -0.16240983 -0.00812519 -0.13145901 0.022163806 0.10317761
-0.038539927 -0.06809231 0.0666746 0.14472935 -0.0029588598 -0.046038073 0.07836683 -0.07045333
0.08095121 0.077061296 0.13741632 0.19434819 -0.048780963 0.16323331 0.053108398 -0.11013012
-0.16862184 -0.04692939 0.2069375 0.032434773 -0.019456463 -0.042747527 0.012408092 0.07889432
0.15487155 -0.17332387 0.08407554 0.10537584 -0.08911857 -0.043052357 -0.022942984 0.0018920032
-0.16912726 -0.00076607417 -0.036258835 0.010014113 -0.17879806 -0.013549951 0.14614104 0.053213995
-0.0882493 0.21178877 0.05813592 0.030694008 -0.1769404 0.03632967 0.0699369 0.04652322
-0.040150687 -0.12908469 0.042478755 -0.087940216 0.046034183 -0.0018497383 -0.121831775 0.07059116
0.004720805 -0.0027125464 -0.088041015 -0.17182805 0.16762757 0.13424446 0.058820114 0.110657245

encoder_lstm2.bias_ih_l0 f4 [128]
00000000: 6a27 acbd a453 f13d 022f e13c 026f 2abd
00000010: 1184 cabc ef94 a8bd 1510 1dbe 561b 1e3d
00000020: 9e53 a73d e658 f23d c83a 5d3c 1723 85bd
00000030: 475f d9bd 41a8 1b3d c5d5 b7bd dacc 4d3e
00000040: 58a6 cd3d 3907 273d 3a1c 743b c2c7 3e3e
00000050: 5d48 d6bd 2315 243d e15f 2cbe a603 d93d
00000060: b1c7 373e 37db d33d 8f4d a6bd 82ef 7e39
00000070: 6252 413d b832 333e efca 223d d8f9 d9bd
00000080: d989 f53d ebeb d73d ed7a 3cbd f247 1a3d
00000090: b4cd 223e 6fbe a4bd b88d a33d cde4 343e
000000a0: 51b9 9ebd db12 41bd f069 02be ba78 403e
000000b0: 8fef 3bbd 0244 393e 96e4 043e 41bc e9bd
000000c0: 6f40 d13d 610e 58bb 30c3 b93d 4413 e33d
000000d0: def0 50bd 3c2e c3bd 9430 003e f463 c2bd
000000e0: 5de3 613d 5453 3ebd 390a e93d 54c0 bbbd
000000f0: 0c30 a7bd de7d 12be 4817 013d b8c9 03be
00000100: 6e81 3fbd 7a47 cebd df22 81bd d53f 13be
00000110: 6699 113e 5954 6b3d fbe3 eb3d cdec 103e
00000120: 8519 f23d 5835 7f3d b741 09be 59c1 093e
00000130: f32e b5bd c57a 553d 8a80 d83d 1bff 3bbd
00000140: 4209 3abe 14ef 573d a726 333e 4a0b 3abd
00000150: 7e82 ddb9 7f2e ff3d 3f38 093e 6202 343e
00000160: a156 dc3d da37 32be c81c cfbd 82de cd3d
00000170: 18fb 283e 3be5 1b3d 56ef a03d 75df 193d
00000180: c4af 663d bf78 85bd db0f 603c 8f56 2a3e
00000190: facb 12be 79e9 b93d 75e2 f9bd adff 233e
000001a0: 0584 1ebd 11ca f8bc b5f3 513e 03a8 87bc
000001b0: eb33 0bbd 2026 903d afca 083e f682 1cbd
000001c0: b783 0bbe 02dc 273e 63e0 f1bd c948 7fbd
000001d0: 3443 113e 7a6e 8dbd dbcf d83d 3a06 83ba
000001e0: f502 e1bc 17db 113e 203f 193e 11b3 64bd
000001f0: 264e ea3d 38a0 293e 75e8 6bbd 0a56 b8bd
-0.08405955 0.11783531 0.027488235 -0.04160977 -0.024721177 -0.08231532 -0.15338166 0.03860029
0.081702456 0.11833362 0.013502784 -0.065008335 -0.10613876 0.038002256 -0.0897632 0.20097676
0.10041493 0.040778372 0.003724827 0.18630889 -0.10463021 0.04005922 -0.1683345 0.10596399
0.1794727 0.10344546 -0.08120262 0.00024312551 0.047197707 0.17499816 0.039744314 -0.10643357
0.11989183 0.10543045 -0.04601567 0.03766627 0.15898782 -0.08044135 0.07986015 0.17665406
-0.0775019 -0.047137123 -0.12735724 0.18796054 -0.045882758 0.18092349 0.12977824 -0.1141286
0.10217368 -0.0032967555 0.09070432 0.11087659 -0.05101096 -0.09530303 0.12518531 -0.09491721
0.05514847 -0.046466187 0.11378903 -0.09167543 -0.08163461 -0.14305827 0.031516343 -0.12869918
-0.046754293 -0.10072227 -0.06305479 -0.14379819 0.14218673 0.057453487 0.11518093 0.14152832
0.11821274 0.062306732 -0.13403974 0.13452663 -0.088468455 0.052119035 0.10571392 -0.045897584
-0.18167594 0.052718237 0.17495213 -0.045420922 -0.0004224963 0.1246004 0.13400362 0.17579034
0.10758711 -0.17404118 -0.101129115 0.100522056 0.16502035 0.038060408 0.0785815 0.03756662
0.056319967 -0.06517171 0.013675655 0.16634582 -0.14335623 0.090777345 -0.122013964 0.16015501
-0.038700122 -0.03036979 0.20503123 -0.016559606 -0.03398506 0.07038522 0.13358568 -0.03821083
-0.13624464 0.1639252 -0.118103765 -0.062325273 0.14185792 -0.06905837 0.1058652 -0.0009996362
-0.02746723 0.14243732 0.14965487 -0.055834834 0.11440687 0.16565025 -0.057594735 -0.09000786

encoder_lstm2.bias_hh_l0 f4 [128]
00000000: 934c 8b3c 8024 003e 507f 82bd 3be7 b4bd
00000010: 63a5 c3bb f42c 03be 13ed 373e 62a2 483e
00000020: 368a 083d 3c37 febd dc05 393e 7bb9 ef3d
00000030: 54b0 063e 574b b63d efdd c33d 452f 91bc
00000040: 20f3 bc3c 59b6 bdbc 6801 4b3e 77a0 19bd
00000050: 4628 70bc 9dcb 0c3e 398c 253e 8395 293e
00000060: 9594 10be 2f4a c23d adae d8bd e922 1f3e
00000070: 5f68 50bd 8d1f 6ebd eb18 2d3e 4bf3 febd
00000080: 9065 623d 07a2 05be bde8 003e 880a a5bd
00000090: df76 833d a209 10bd 3ad1 133e 2e7b 313c
000000a0: 990a bf3d e00d 5cbd faf8 96bd 63d2 05be
000000b0: 73f8 293e 22ee f43d acda 403e 2361 8fbd
000000c0: daf3 9e3c 2268 fe3d 1fc3 c8bd 7f4b 263e
000000d0: c3fd 193e 5c55 773c 6c23 8e3d a003 a7bc
000000e0: 4836 15be d19a dcbc ab87 d33d cec1 26be
000000f0: 4405 9cbc ae6c 6a3d b6da 0abe 6032 c0bd
00000100: 2c9f ef3d ae0f 11be c7fa 17be ef04 3e3c
00000110: db27 24be 96ec 983c 51c3 adbb 81b1 ffbd
00000120: 6019 f0bb 45d4 063e d6cc 31be 8e9d 223e
00000130: 08b6 71bd 65d3 483d d519 b43c c8c5 6abd
00000140: 57b6 163c cc13 0bbe ce79 113e 3e3a 6bbd
00000150: 3274 3cbe 7138 b83d 1069 ccbd 7199 9ebd
00000160: 71be 3c3d eac5 9abc 5d60 36be 5e4e 1b3e
00000170: e502 463c c0b0 db3d d77e 293e 95ed b1bc
00000180: fac9 103e 0209 b43d 502a fdbd 3afc 32bb
00000190: d680 a03c 2a24 e2bd 210f 4e3d 73e1 3a3c
000001a0: ddde 293e 9ebe 0bbe 65e0 273e 1189 febc
000001b0: 3c30 9c3d 4f10 c13d c60a 9fbc 7ec7 cebb
000001c0: 92b7 503d f7f6 cc3d cfdc 0cbe 7a76 0ebd
000001d0: c237 ad3d d6e1 b0bb f9cd e4bc 52d4 31bd
000001e0: 6153 b13d 12a4 91bb da79 c93d 70c8 18be
000001f0: 67e0 863c 697d b33d a3c4 9d3a 00db b43c
0.017004287 0.12513924 -0.06371939 -0.08833166 -0.0059706434 -0.12810117 0.1796153 0.19593194
0.033334933 -0.12412879 0.18068641 0.117052995 0.13153201 0.08901089 0.09563815 -0.017722735
0.02306515 -0.02315824 0.19824755 -0.037506547 -0.014658039 0.13749547 0.16166772 0.1656094
-0.1411918 0.09486806 -0.10580192 0.15540661 -0.050880786 -0.058135558 0.16904037 -0.12448748
0.05527264 -0.1305009 0.12588783 -0.08058649 0.06419157 -0.035165437 0.14435282 0.010832591
0.09328193 -0.05372417 -0.07371707 -0.13068537 0.16598682 0.11959483 0.18833417 -0.07000949
0.019403387 0.124222055 -0.098028414 0.16239737 0.15038209 0.015096035 0.0694035 -0.02038747
-0.14571488 -0.026929291 0.10328611 -0.16284868 -0.01904548 0.05723255 -0.13559994 -0.09384608
0.117002815 -0.14166138 -0.14841758 0.011597856 -0.16030829 0.0186675 -0.0053028245 -0.12485028
-0.0073272437 0.13166912 -0.17363295 0.15880415 -0.05901149 0.049029727 0.021984974 -0.057317525
0.009198747 -0.1358177 0.14206621 -0.05742859 -0.184037 0.0899514 -0.099809766 -0.077441104
0.046080057 -0.0188932 -0.17810197 0.15166613 0.012085651 0.10727072 0.16552292 -0.021719733
0.14139548 0.087907806 -0.12361586 -0.0027310983 0.019592684 -0.11042054 0.050307397 0.01140629
0.16588922 -0.13646933 0.16394193 -0.031071218 0.076263875 0.09426939 -0.019414317 -0.0063104024
0.050956316 0.10008042 -0.13756107 -0.034780957 0.084579006 -0.0053980155 -0.027930247 -0.043415375
0.086584814 -0.0044446075 0.098376945 -0.14920211 0.016464425 0.087641545 0.0012036752 0.022077084

encoder_fc.weight f4 [16, 32]
00000000: 06b5 10be 021d 0ebe 4d83 a03d f5be 713d
00000010: f5ba b9bd 38cf 113e 463a 10be 3ab8 9ebd
00000020: 0af2 e3bc 808f 403d 578e c1bc 0b33 f23d
00000030: 3db5 0abe 0198 8cbd a6ff 0cbe 657b ce3c
00000040: 3ef6 8b3d a300 ccbd a0f0 b93d f309 503d
00000050: 1082 b5bc 5a11 133e 1531 f83d 09fb 03be
00000060: 94b4 ab3d ceba fc3b 1189 4dbe befe 9ebd
00000070: 3861 2e3d e633 4bbe d50d 183d ada9 3ebd
00000080: 859c a13c 4bdc 1d3e 8e43 2fbe c677 e3bd
00000090: a436 e3bc 482b f3bd 8f98 383e 50a0 bf3d
000000a0: ee69 113e 33e2 ed3c 0ce7 fdbb c935 133e
000000b0: 9135 a13d 89a9 34bd df7f d5bc e5c5 57bc
000000c0: b442 dd3d b099 2c3e 2742 d53d 847b 173e
000000d0: 0be7 bcbc d9ab dd3d 2672 243e 4ee0 aebd
000000e0: c957 e03d 3147 2e3e 0f51 f7bd fbbc 9dbd
000000f0: efce 543d de18 093d d364 033e 159e 0a3e
00000100: 8aaa 093e 993f a5bd cbfa 5c3d 96a2 39be
00000110: a31d f2bc 0524 d73d 54be 58bd b8f5 493e
00000120: 767d cd3d a5b6 643d c073 30bd 263a e4bd
00000130: ca90 a13d 0288 703e c121 253e 3c4e 183d
00000140: 2cc3 07bd 73ee cebd 512b babb 2fdc 513c
00000150: b3d2 c5bd 3a7c dc3d 2375 49be 80f9 523e
00000160: 955e 95bb 3ece 35be 90a5 1dbe 5013 ed3c
00000170: 2f3e 653e 8a52 6fbd 6c54 303c caa2 6ebc
00000180: f779 24be 650b edbd d3d3 12bc d6c7 5b3d
00000190: 8f36 793d 8eef e6bd 28e7 6fbe cade 353e
000001a0: fd39 efbd cc3e b6bd 80e4 4fbe 58c9 633e
000001b0: 0340 4fbe 8b2f b63d becf 1f3e 63b6 44be
000001c0: 2801 4abe 4c93 af3d 7b1e 233d 7586 72be
000001d0: 491e 7cbd b6c8 793d 6056 6bbd 32d3 69bd
000001e0: f44c 4a3a 673c 1cbe 81a2 a93c f06d a9bd
000001f0: d30a f63d 6e77 e43d 5767 333e 4a8c 2cbd
00000200: 3d23 a1bd d85e f4bc 9c36 133d 7099 4bbc
00000210: 0043 38bb 3d77 84bd 1886 23bd bd54 213e
00000220: 71f0 083e 2524 2b3e fa31 af3d 8058 48bb
00000230: fb46 033e fe6d 0bbe 994f 09be 7962 15be
00000240: 1c8b 16bd 1108 103e 403a 743d 25e2 273e
00000250: e0db fdbd 97f8 e8bd 8dd6 193e 588d cf3c
00000260: 9af5 9f3d 28f4 243d 529f e5bd c06d 0dbb
00000270: eeac c53d 652f 233e d9c5 323e 6882 593d
00000280: af15 8d3c b415 43be bcb6 5f3e b623 87bd
00000290: 2be5 a2bd eb15 763e 3968 0c3e d0de 9c3b
000002a0: 742c 13be ae5e 823d 3377 5e3d 3f37 1bbd
000002b0: 0996 71bd 1611 923c ca37 e13d 3416 78be
000002c0: 2bd6 f7bd 17ff 80be d750 b33d cc3d f8bd
000002d0: 78fa edbd c07a 7c3d e597 903d 7ba9 1b3e
000002e0: eb7d 7d3e cea4 51bd c1d6 d0bd b536 cf3d
000002f0: 22f7 d0bd 98a6 ac3c 1d45 443e 44b6 663d
00000300: 96f8 e93d 9b78 a0bd 44e8 06be badc f63d
00000310: 33c3 313e cf42 2b3e 9622 983d f5a1 03be
00000320: 0ce5 15bd d230 b73d 9adc a83d 7c8e 13be
00000330: 31e9 dfbd 0054 c5b9 9a8e 34be 8a2d ae3d
00000340: 74a3 21bd 0192 113e 1270 f63d 51c1 283e
00000350: f378 113e 101f 3abc d3aa 2d3e 6ef2 ea3d
00000360: f022 cf3c d2c6 f4bd 9245 c13d 651b b6bd
00000370: c4df 2abd 00d2 043b 7847 4e3d a190 333e
00000380: 7c2f 5e3e b9c9 66be 615d fa3b 4857 fbbb
00000390: d044 23be 6d1c 443e 9531 9b3d c32f 693e
000003a0: 867d a6bd 9479 5a3e 139a 83bd 2229 22bb
000003b0: a119 18be 61e1 033e 75b0 d9bd 7799 a7bd
000003c0: 1a43 67be 260c 45be 5255 ecbd f156 253d
000003d0: 7f7d 44be fc33 eabd 7aaa 373a 06e8 e639
000003e0: afdc ad3d 96d6 623d 68fc c83d 8d35 c63b
000003f0: 5bd1 703d b262 dcbd 7d3d 603d 4296 f0bd
-0.14131555 -0.13878253 0.07837544 0.05902 -0.09068862 0.14239204 -0.1408473 -0.07749982
-0.027825374 0.047011852 -0.023627443 0.11826142 -0.135457 -0.0686493 -0.13769397 0.025205323
0.06834076 -0.09961059 0.09079099 0.05079074 -0.022156745 0.14362088 0.12118737 -0.12888731
0.08384052 0.0077126985 -0.20071818 -0.07763432 0.042573184 -0.19844016 0.037122566 -0.046548534
0.019727955 0.15416066 -0.17115614 -0.11106829 -0.027736016 -0.118734896 0.18026946 0.09356749
0.14200565 0.029038524 -0.00774849 0.14375986 0.07871545 -0.044106994 -0.02606195 -0.01316974
0.10803738 0.16855502 0.10413008 0.14793211 -0.023059389 0.10823793 0.16059169 -0.085388765
0.10954244 0.17019345 -0.120760076 -0.07702061 0.05195516 0.03347098 0.1283143 0.13536866
0.13443962 -0.08068771 0.053950112 -0.18128428 -0.029555148 0.10504917 -0.052915886 0.1972264
0.100336954 0.055838246 -0.043079138 -0.111439034 0.078889444 0.23489383 0.16126157 0.037183985
-0.033145115 -0.10104074 -0.0056814332 0.0128088435 -0.09659328 0.10765882 -0.1967359 0.20602989
-0.004558394 -0.17754456 -0.15395188 0.028939873 0.22387002 -0.058428325 0.010762315 -0.014565179
-0.16062151 -0.11574439 -0.008961636 0.053657375 0.060843047 -0.1127616 -0.23428023 0.17760769
-0.11680982 -0.08898696 -0.2030201 0.22244775 -0.20239262 0.08895787 0.15606591 -0.192102
-0.19727004 0.085730165 0.03982399 -0.23684104 -0.06155232 0.06098243 -0.05745542 -0.057086177
0.00077171554 -0.15257417 0.02070737 -0.08272922 0.12013783 0.11155592 0.1751989 -0.042125978
-0.07868049 -0.029830381 0.03594075 -0.012426719 -0.0028116107 -0.064680554 -0.039922804 0.15754981
0.13372971 0.16713007 0.08554454 -0.0030570328 0.12820046 -0.13616177 -0.1340927 -0.14588346
-0.03675376 0.14065577 0.059625864 0.16394861 -0.123954535 -0.1137554 0.15023251 0.025335953
0.07810517 0.040271908 -0.112120286 -0.0021580309 0.09652124 0.15936048 0.17458285 0.05310288
0.017222254 -0.19051248 0.21847051 -0.06598608 -0.079538666 0.24031799 0.13711633 0.0047873035
-0.14372426 0.06365715 0.054312896 -0.037894484 -0.058980975 0.017830413 0.10996969 -0.2422722
-0.12101396 -0.25194618 0.08755653 -0.12121162 -0.11620039 0.0616405 0.070602216 0.1520137
0.24755065 -0.05118256 -0.10197211 0.101178564 -0.10203387 0.021075532 0.1916699 0.056326166
0.11424367 -0.07835504 -0.1317454 0.12053819 0.17359619 0.16724704 0.07428472 -0.1285475
-0.03659539 0.089448586 0.082452014 -0.14409822 -0.109331496 -0.00037637353 -0.17632523 0.0850478
-0.03946252 0.14215852 0.120330945 0.16479994 0.14206295 -0.011359945 0.16959696 0.11472021
0.025285214 -0.119519845 0.094370976 -0.08891944 -0.041717306 0.0020266771 0.050361127 0.1753564
0.21697801 -0.22537889 0.007640526 -0.007670317 -0.15944219 0.19151469 0.075778164 0.22772126
-0.081294104 0.21335441 -0.06425872 -0.0024743755 -0.14853527 0.12878944 -0.1062936 -0.08183568
-0.22584191 -0.19242916 -0.11539711 0.040366117 -0.19188498 -0.114356965 0.0007006299 0.0004404189
0.08489358 0.055380426 0.09813768 0.006048864 0.058793407 -0.10761012 0.05474614 -0.117474094
