backend/anomaly_models/WH003_SKU-016.pth (torch, 242563 bytes, 20 tensors)

encoder_lstm1.weight_ih_l0 f4 [256, 6]
00000000: 3b6c 3b3d ecb4 c33d 4ae3 7ebc 98bc a0bc
00000010: 3e1e bf3d ca44 b6bd 7e19 d3bd 7798 0e3e
00000020: 38c1 05bd 1bca 16bd 69e5 b4bd e69f c6bd
00000030: 147f 29bd 3924 8e3d 366b 973d fbfa f2bb
00000040: c897 993d ef04 1ebd 6495 e13c c7ae 1abc
00000050: 3edb 95bd 2992 ea3d 7951 fd3d f014 42bd
00000060: 52e4 b13c f1c6 4a3d 12a2 d43d 36a4 ba3d
00000070: e5fa 743c bff8 b03d 857d 903d 0ae3 f83d
00000080: d6d6 d1bd d17e 6ebd 4ef5 d0bd 0d77 8cbd
00000090: 566b be3d b374 743d f4a8 34bd 1a1c 433d
000000a0: 729f da3d 5568 99bd 7f30 c0bd d8f2 ab3d
000000b0: e079 c93c 2ec2 fe3d 3543 1abd fef9 bcbd
000000c0: 07cb d33b 84b5 c23d ca73 ff3d a8bb b93d
000000d0: 87cd fe3d 8338 bfbd 351e 8b3d 2fce 07bd
000000e0: 0ffd c8bd 8b4e 643d ae7a 593d e8d0 d0bd
000000f0: 515c 473d 7fcd f9bd 01f9 ad3d 7caf e7bb
00000100: d777 883c 36df 85bd 5aa6 84bd 23a6 f93b
00000110: 5250 80bd 0a52 a73c aeb7 3a3c 0bb8 e13c
00000120: 02ec fa3d fd02 90bd c46d 013e bbe4 cdbb
00000130: 1ea5 acbd 74ba aabd 223b 92bd 5a21 41bd
00000140: 1bf3 31bd 35b0 07bd ba6f 123d 6527 7d3d
00000150: 89eb 21bd f8b2 2e3d 16f6 c1bd 6efb abbd
00000160: fd2a ea3d 79c0 a23d 2906 973d 64dc 02be
00000170: e378 99bd 9099 cc3c cc13 fbb9 e0cd cabb
00000180: 012b 803d fe4b c73d 667f 81bd 8fc6 afbd
00000190: 85b4 0dbd ce9c edbd 5c1d 023e cf5e 503d
000001a0: 78c6 71bc 08e7 ec3d 7cac c43d 50c0 c0bb
000001b0: d440 82bd dd66 e9bc 9130 6b3d 2c81 043e
000001c0: 9508 19bd ce86 f6bd ddf2 ab3d e1f4 e03d
000001d0: 905e fdbd 8cc9 303a 2fc3 863d a0e6 7a3d
000001e0: 7bd3 e53d 960f f03d 3946 d5bb 1d2e 33bd
000001f0: 4357 34bd 8719 a9bc 9f1f 5dbd 4bfe cdbd
00000200: 6447 263d 9791 1b3e a143 793d 7e56 afbd
00000210: 7117 3bbb 7398 8abd ced6 a33d fce5 95bd
00000220: eee1 c1bd 4520 733d 795a f6bc 0c2e f73d
00000230: 8898 f1bd a4d6 f5bd a00c f93d 8d30 e53d
00000240: 2f07 e53d 2df5 0abc 8fc5 ed3d d182 52bc
00000250: 2a51 8d3d d848 fd3d 47de 8bbd b878 f03d
00000260: 71fb a43c 1311 00bd 18ec ee3c 8838 a63d
00000270: a9e2 d3bd ff55 e63c 7b09 1bbd 3a36 01bc
00000280: 53b3 fe3d 4fb2 cfbd 517b 82bd 775a 39bd
00000290: 7d02 51bd 79d6 c5ba f4c0 a83d c763 893d
000002a0: 6814 92bd 3791 dc3d f1eb 5c3d 9335 6bbd
000002b0: 5051 193e b52e 20bd 370d 23bd f5b7 abbd
000002c0: 25a0 c63d ea3d b23b 2a1e 72bd 6278 54bd
000002d0: 8171 113e 131a 093e fe39 b73c 0b5c 0b3d
000002e0: 33a0 e9bc 9e4f a63d 17ef 503c 8c68 ce3c
000002f0: dae6 05bd 1738 b9bd 4ea0 6a3d 77fc 423d
00000300: 17cb f03c f554 b4bd 0a88 8fbd e8cf 8d3d
00000310: 6070 123e 9f9e c83c 2c8b 3f3c b64a 4c3d
00000320: e9eb b13d 5a19 963d 84b6 f23d f2be 35bd
00000330: dc98 a5bd 9ae3 123e 56e1 233e 8997 ccbc
00000340: 84e0 68bd c31a d93c e218 f73d 602d ebb9
00000350: 0e3f 1c3d 0daa 70bc 42f1 7abd 22e8 76bc
00000360: 1caa 73bc c0e6 f03d 56a8 0fbd 6dd3 5f3d
00000370: 456b 3b3d 4298 b73c cb53 94bd 5322 1abd
00000380: 5398 cdbd 3642 a33c 6711 1c3e 5643 863d
00000390: 282c 953c 6431 873c 988d a8bd 2c77 0fbc
000003a0: 1e13 d5bc 2adf 91bd d90d 093e 3126 44bb
000003b0: 68c8 0bbc 12d8 eabd 274e bc3c d94c 973d
000003c0: f001 1c3e 493f ac3d ccdd 7c3c de04 863c
000003d0: 3c11 653d fe25 a4bc d457 c3bd 0c3e d2bd
000003e0: 8132 edbc dd8b d2bd d3ab bb3d 7c5e e9bd
000003f0: adca 91bd 1b0f 3dbc 73a0 6abd bbef 1d3d
0.045757513 0.095559925 -0.01555712 -0.019621179 0.0933194 -0.08899839 -0.103075966 0.13925348
-0.03265497 -0.036813837 -0.08832819 -0.09698467 -0.041380957 0.06940503 0.07393496 -0.007415173
0.07499653 -0.038578924 0.027537055 -0.009441084 -0.07317208 0.11453659 0.12369055 -0.04738325
0.021715317 0.04950613 0.10382475 0.09113352 0.014952396 0.086411946 0.07055191 0.12152679
-0.10246055 -0.05822641 -0.10203038 -0.06858645 0.092978165 0.059681606 -0.04410644 0.04763422
0.10674943 -0.07490603 -0.0938425 0.08395928 0.024594247 0.124393806 -0.03766175 -0.0922737
0.0064634117 0.095072776 0.12473257 0.09068996 0.12441545 -0.09336951 0.06792871 -0.033155616
-0.09813892 0.055738967 0.053095512 -0.10196096 0.048672024 -0.121973984 0.08494759 -0.00707048
0.016658707 -0.06536715 -0.064770415 0.007618682 -0.0626532 0.020424861 0.011396332 0.027553579
0.12252046 -0.0703182 0.12639529 -0.0062833703 -0.08429931 -0.08336344 -0.07140185 -0.047150947
-0.043444734 -0.03312703 0.035751082 0.061805148 -0.039531264 0.042651147 -0.09470765 -0.08397566
0.114339806 0.079468675 0.07374222 -0.12779385 -0.074937604 0.024975568 -0.000478892 -0.006189093
0.06258202 0.09731291 -0.063231274 -0.08582794 -0.034595985 -0.11602174 0.12706512 0.050871667
-0.014756791 0.11567503 0.09603211 -0.0058823004 -0.06360021 -0.028491432 0.057419363 0.129399
-0.0373617 -0.12037431 0.08395932 0.10984207 -0.12371552 0.00067439 0.06580197 0.061255097
0.11221977 0.11721723 -0.0065086153 -0.04374515 -0.04402853 -0.020642055 -0.053985234 -0.10058268
0.040595427 0.15192257 0.06085551 -0.08561419 -0.0028547908 -0.06767359 0.07999955 -0.07319257
-0.09466921 0.059356946 -0.030072438 0.120693296 -0.11796671 -0.1200383 0.12160611 0.11190901
0.11183011 -0.008481306 0.11609947 -0.012848572 0.069002464 0.123674095 -0.068295054 0.11741775
0.020139428 -0.031266283 0.029165313 0.08116251 -0.10345966 0.028117178 -0.03785084 -0.007886464
0.12436547 -0.101414315 -0.06371177 -0.04525229 -0.051027764 -0.0015093825 0.08239928 0.06708484
-0.071327984 0.10769885 0.05393595 -0.05742414 0.14972425 -0.039107043 -0.039807525 -0.083846964
0.09698514 0.0054395096 -0.059110798 -0.05187262 0.14203455 0.13388853 0.02236652 0.034023326
-0.028518772 0.081206545 0.012752316 0.025196336 -0.03269086 -0.090439014 0.057281785 0.04760405
0.029393716 -0.08805267 -0.07008369 0.069244206 0.1430068 0.024489699 0.011690896 0.049875937
0.086875744 0.07329054 0.11851218 -0.044371553 -0.08085796 0.14344636 0.16003928 -0.024974601
-0.05685474 0.026502019 0.12065293 -0.000448565 0.03814607 -0.014688981 -0.061265238 -0.015069993
-0.0148721 0.11762762 -0.035072647 0.05464499 0.045756597 0.02241147 -0.07242545 -0.03763039
-0.10038819 0.019929033 0.15241013 0.06555812 0.018209532 0.016503043 -0.08230132 -0.00875644
-0.026010092 -0.07122643 0.13384189 -0.002992999 -0.008531667 -0.114669934 0.022986485 0.073877044
0.15235114 0.08410508 0.01543374 0.016359743 0.05592464 -0.020037647 -0.09538236 -0.10265741
-0.028954746 -0.10280583 0.09163632 -0.113949746 -0.071187355 -0.011539246 -0.057281923 0.038558703

encoder_lstm1.weight_hh_l0 f4 [256, 64]
00000000: 3b4d 1bbd cd18 46bd ba5a 4fbd 0196 4c3d
00000010: 0f79 a2bd 6c40 ba3d 70e1 303d fc8c c1bd
00000020: c7d6 703d a547 eb3d 6ce3 bdbd a9b5 32ba
00000030: 28aa c3bd b74c ca3d 71df 9dbd 4ebb 7abd
00000040: 7581 08be bf2e fd3d b3a6 62bc 9d8a 163c
00000050: 0ae1 09be 5d1c 79bd 7aae 80bd 2a08 153e
00000060: 1c78 9bbd 6746 833b ecd2 97bd 74a8 b33d
00000070: b43d f8bc c33b 103d b30c ca3d 80d0 803d
00000080: ef54 483d afd3 82bd 9c6e 5abd b3d8 863d
00000090: d761 463d 28bb ea3c 642d 9cbc d4cc 473d
000000a0: d291 d6bc dc47 d93c 2a1e 823d cfd9 e4bd
000000b0: 2c66 f03c 968d 5bbd 94b9 153b 6986 a9bd
000000c0: 4dcf f93d c87b 843b f2b7 dc3d 9fde 603c
000000d0: 5768 ae3d 2027 8c3d 76c2 d2bc 84ac 3e3c
000000e0: 57b4 593c fb88 763d ea3a 963c 72d5 893d
000000f0: 1b8b e6bb d9ec e4bd 65a5 293d 3f7d 82bd
00000100: 4b51 aa3d 880a b9bd b0fd 8b3d cbed 433c
00000110: 4c87 a53d 18e2 123e 917c 023d 4a02 0a3e
00000120: ff6e 7ebd fe11 e33d ecce 3ebc 5343 b93c
00000130: 7d12 983d d4e5 c13d 4506 ec3c 6cb3 53bd
00000140: 3ed7 603d 579c a7bd a7d3 a9b9 fb9c d5bc
00000150: bcee afbd 9d8c 23bb 27e9 9dbb b2fa 87bd
00000160: fabd f3bd 0837 b8bc 7904 983d 0bf2 e73d
00000170: cfe3 313d 12c2 c03d 6a56 69bd fc97 e0bd
00000180: 9516 43bd 58b0 923d 633d 6dbd df3c 15bd
00000190: 1198 af3d 56c0 503d acfc 433d 5d61 8c3d
000001a0: 6d3b 30bd fde5 c0bd 92bd d2bd 7f47 6abd
000001b0: 11ec 9cbd 157f d63d 462c 6fbd c680 ec3c
000001c0: ad6e 9fbd b4ec 2bbd 3737 ce3d c9ae 7b3d
000001d0: 8123 293c 813a 1abe 620c 90bc 6d4b 75bd
000001e0: 933b 42bd 58f6 58bd 2a3d 14be d1c9 123d
000001f0: 8e48 35bd ba24 133e 4de9 6cbd 9ef2 99bd
00000200: d91d a0bd bb83 983d 062a 1a3d 188e 14bd
00000210: 80ba 6bbd 661a 903c d955 8cbd 8899 d9bd
00000220: ae67 6c3d 003b d33d 9d3d 5c3c 4391 eabd
00000230: 7a68 703c 478f e23d 25c6 113c ce5e 933c
00000240: abd6 2b3d ee66 21bb ec62 753d 9a23 aa3c
00000250: b197 8b3a 11c9 04be 7f96 dbbd 7e87 933d
00000260: b8c4 843d 5844 89bd 0d46 e43d 69c7 9e3d
00000270: 9867 56bc 34e0 be3d 74a3 34bb ce3b 73bd
00000280: d9e9 0cbd cdae dcbb 3125 0f3d 9761 01be
00000290: e08d 183c c759 82bc 3990 d9bd ad8d c3bc
000002a0: 5a9c cabc 2bf9 f83c dcb5 99bd 2395 a43c
000002b0: 0123 4fbc 4e8c ff3d d0e9 003e 918b da3d
000002c0: 5797 f0bd f7b9 34bd 0404 26bd ca60 debd
000002d0: d866 10be eeff e6bd 8509 b83d c8bf 2b3c
000002e0: ebb6 173d cc09 9fbd 3543 cfbc 172c 783d
000002f0: ec96 1bbd 9c9e adbd 2b5e 143e 1331 ebbd
00000300: b7b0 b93d 52a1 8f3d aeec 0f3d 211d 03be
00000310: 776c 22bd 7c50 d73c c326 c8bd 3b68 963d
00000320: cf2b 3ebd a047 b93d cda9 ebbc af67 8f3d
00000330: 0e24 013d 707b df3d c6e9 cebc 10fa 00bd
00000340: 1526 443d 786c c13c 961e 7fbd 5173 8a3d
00000350: b52d e03d c14d 41bc d1a3 a8bd 13ea ee3c
00000360: 4faf 3a3d b178 133d 1a8e 343d d359 ca3c
00000370: 38db 07bc a8b0 903d 068d 99bc c2f8 0d3d
00000380: 787b 9ebd 4dcf 9b3d 74eb ee3d f3f6 1b3d
00000390: e526 5cbd ac27 ad3d 27a9 febc 05c2 ef3b
000003a0: 67c6 ae3d 626d 813d 6458 b8bd ed62 f73d
000003b0: 828f 17be e296 b8bd c6e1 b4bd 8285 fcbc
000003c0: 565e 7ebd d2b9 29bd 6508 d5bd b207 cb3b
000003d0: 99d2 b43d fc12 5fbb eddb 073e fc6c 08bc
000003e0: 1ebf 9ebd d3bc b83d cc9d bf3d 54c6 1cbe
000003f0: fa8b 91bd d07b 95bc 5629 b8bd d915 e03c
-0.03791545 -0.048363496 -0.050623633 0.049947742 -0.07933246 0.09094319 0.043183744 -0.09450719
0.058798578 0.114882745 -0.09271893 -0.00068172306 -0.09553939 0.098779134 -0.07708634 -0.061213784
-0.13330634 0.12362432 -0.0138336895 0.009188321 -0.13464752 -0.060818065 -0.06283279 0.14553896
-0.075912684 0.0040061953 -0.07413277 0.08772364 -0.03030286 0.035213243 0.098657034 0.06289768
0.048909124 -0.06388032 -0.05332814 0.06584301 0.04843315 0.028653696 -0.019064613 0.048779324
-0.02619258 0.026523523 0.063534096 -0.11174356 0.029345594 -0.053601824 0.002284621 -0.0827759
0.121977426 0.004043076 0.10777272 0.013724952 0.08515995 0.068434 -0.025727492 0.011637811
0.013287625 0.06018923 0.01833864 0.067301646 -0.0070356256 -0.111779876 0.0414175 -0.06371545
0.08316287 -0.09035212 0.068354964 0.01195855 0.080824465 0.1434406 0.031857077 0.13477436
-0.062117573 0.11087416 -0.011646014 0.02261511 0.07425401 0.09467664 0.028811583 -0.051684782
0.05489277 -0.08184116 -0.00032391885 -0.02607583 -0.08590457 -0.0024955638 -0.0048190537 -0.06639613
-0.119014695 -0.022487178 0.07422728 0.11325463 0.043430146 0.09412016 -0.056967176 -0.10966489
-0.047628958 0.07162541 -0.05791987 -0.036435004 0.08573926 0.050964676 0.04784839 0.06854508
-0.043025423 -0.09418867 -0.10290064 -0.05719709 -0.076622136 0.10473458 -0.05839183 0.028869998
-0.077847816 -0.041973785 0.10069125 0.061445985 0.010323406 -0.1506138 -0.01758403 -0.059886385
-0.047420096 -0.052969307 -0.14476457 0.035837 -0.044258647 0.14369479 -0.05783968 -0.07516979
-0.07818193 0.074470006 0.037637733 -0.036268324 -0.057550907 0.017590713 -0.06852312 -0.10624987
0.057716064 0.10313988 0.013442424 -0.11453488 0.014673347 0.11062484 0.008897339 0.017989542
0.04195277 -0.0024628001 0.059908792 0.02076893 0.0010650066 -0.12967326 -0.10722064 0.072035775
0.064828336 -0.06702489 0.111461736 0.07752878 -0.013086222 0.09320107 -0.0027563246 -0.059383206
-0.034402702 -0.006734705 0.034947578 -0.12634884 0.009311169 -0.01591195 -0.106232114 -0.023871267
-0.024732757 0.03039225 -0.0750539 0.020090645 -0.012642623 0.12477933 0.12589192 0.106711514
-0.11747616 -0.044122662 -0.040531173 -0.10858305 -0.14101732 -0.112792835 0.08986191 0.010482736
0.03703968 -0.077655405 -0.025300601 0.060588922 -0.037985727 -0.08477518 0.14489047 -0.114839695
0.09066909 0.07013191 0.035137825 -0.1280408 -0.03965422 0.026283495 -0.09773018 0.07344099
-0.046428498 0.090468645 -0.02876749 0.07002198 0.031528525 0.10912216 -0.025257956 -0.03148848
0.04788788 0.023611292 -0.06228503 0.06760276 0.10946218 -0.011798323 -0.082343705 0.02916435
0.045577344 0.036003772 0.04408083 0.024701035 -0.008292012 0.070649445 -0.018744003 0.034661062
-0.077383935 0.07607899 0.11666003 0.038077306 -0.05374803 0.084548324 -0.031086517 0.00731683
0.08533936 0.06319691 -0.09001234 0.120794155 -0.14800838 -0.090131536 -0.08832125 -0.03082538
-0.062101685 -0.041436978 -0.10401992 0.0061959857 0.08829231 -0.0034038415 0.13267489 -0.008326765
-0.077512965 0.0902039 0.09356269 -0.15310031 -0.071067765 -0.018247515 -0.08992259 0.027354168

encoder_lstm1.bias_ih_l0 f4 [256]
00000000: 6481 cfbd 1dd2 b6bd bb3a 2e3d f6bf bbbc
00000010: 8e3e 18bd 0901 a9bb 2e6e ed3c 353c 3fbd
00000020: c180 0e3e f4f9 25ba b11a b93d ec26 21bd
00000030: 786d 11bd fdb4 003e 1206 933d 62e2 debd
00000040: 8dc6 033e a4ac 69bc e2d0 ec3d 5c3c b93d
00000050: 210b 48bd c401 cabc abe1 c1bd 4a6e 6f3c
00000060: 9f89 ee3d cf0f ac3d ae4f d83c 6110 753d
00000070: 9c88 f9bc a96f bb3d daed 9fbd cca4 1bbc
00000080: c027 8c3d 9e66 243c 8aa2 773d 4c47 49bd
00000090: c8e8 62bd 4c9d 913d 3e6a d93c 5088 4cbd
000000a0: 2ed1 b03c a056 4d3d b16d 49bd cecf 78bd
000000b0: b449 8fbc 0b51 ebbc e092 b9bd 98fb 25bd
000000c0: ef63 ba3a a874 653d 4b10 a9bd b64e d6bd
000000d0: 6dbd 873d 5674 1fbd a055 adbd 049d c93d
000000e0: 6316 4dbd b8f3 96bd 5d78 2e3d cec5 1fbd
000000f0: 4f8a 1abd f899 c33d a1b2 033e 42ab c8bd
00000100: ba53 0a3e 1b4a 62bd 67f2 ebbc fb06 50bd
00000110: b662 283d d89d 68bc 9300 093e baa1 35bd
00000120: 5818 6dbd bf15 193d 0afe 6f3d 0c47 813d
00000130: 6374 87bd 0d4b 20bb 3939 be3d 172f 3abd
00000140: b393 86bd 5317 8abd 3a6b f8bc 20de 0abc
00000150: 27fc 81bd 29bd 8abd 2748 a5bd e7f2 c7bd
00000160: 0c34 cabd ea2b eebc 63cb 2bba ffd7 563d
00000170: b886 f83d 77a4 a83d 7e72 9bba 41aa d43c
00000180: 01fd eb3d df07 a33c a8cb e1bb c1e4 d33d
00000190: f20b 82bd 3501 863d 5817 a0bc b34f b83d
000001a0: 3d64 0e3e f1f1 d53b b865 ec3c 83bc dd3d
000001b0: 43da c93d 7df1 ba3d 81dc 393d 0b41 8cbd
000001c0: 826e 87bd bd8c f3bd 84de d53d 1593 62bd
000001d0: 2317 dc3d 5f3a b43d 3588 47bd 9347 a23d
000001e0: 10fe 6d3d fc97 1cbd 569a e43c 6683 783d
000001f0: 7c46 acbc 8395 c6bc 6c5c 3dbc 09e0 b53c
00000200: 6526 143b edd3 0fbe 2bc6 8a3d 667c 48bb
00000210: 70ad 1abe 323b d53c 0971 d4bd 4480 e33d
00000220: 7d09 b2bd 4d51 043e 0a3f 03bd 3158 e53c
00000230: 1b1d cc3d 9115 713d 5621 efbd d68c e93d
00000240: 1116 10be 7ebd d73d 83c5 abbc 95c3 e53c
00000250: 8775 ecbd 0e0e 84bd a144 f03d 1c9b acbb
00000260: 535b cdbd 40c6 933d 2a21 3dbd ccc9 973d
00000270: 40d2 bf3d 5870 033c 7b5e 1a3e 784e d3bd
00000280: 6be4 a53d 27a5 dabb 27d3 9e3d b2bf adbd
00000290: 698f c7bd 6f82 7b3d 900a 8fbc a845 023e
000002a0: 1caf 3bbc 63c8 04be 666e 963d 5fc9 3dbd
000002b0: a064 99bd d742 fc3d c91d 0a3d 7f4a b8bd
000002c0: 6fac 31bd 3e5d a03d b65a be3c f461 643d
000002d0: f39a fa3c 1187 b13c 2aea 3ebc 57b8 d23b
000002e0: 3588 dcbc 8c10 09be 98b1 fe3b ea13 b33d
000002f0: bb76 f5bd 61de 1bbb 1c3f c3bd 2fd3 aebd
00000300: e53a 4dbd 9d9c aa3c 36d6 b0bd 1d5c 66bb
00000310: f506 1ebd 4e6f f1bd 7aec febc 74d2 8a3d
00000320: 5b6c 083c dc82 033e 4c4f 343d 89b5 483b
00000330: c7c9 a83d 7add dabd 17bc bebb ebff 403d
00000340: bef4 d03d a0d5 c03d 2930 99bd be67 483d
00000350: f788 ef3d 886e c6bb 4998 e73d c949 e2bd
00000360: daf2 083e c96b 82bd c85d b63c de81 f6bc
00000370: 8141 013e 7dc0 b1bd 9350 84bd de89 553d
00000380: 1739 9bbd 7068 46bd 47ff 1ebd 6313 8c3a
00000390: 0195 733d c51e afbd f72e 073e 482a 873d
000003a0: 5402 1bbb 796f 3ebd ec9b 9cbb edac 293d
000003b0: e490 b23d 9b6c 82bd 740f e0bd cf3d 15bc
000003c0: 03db 643d dc59 243d d93b 2d3d 2405 753c
000003d0: 0b17 a13d 3013 c63d b301 af3d 0380 c13c
000003e0: 4c41 f6bd c680 1d3e 2fcd ea3d 6091 ed3d
000003f0: 7f7c cb3d e0a8 92bc 55e9 bb3c 13e5 463d
-0.10132101 -0.08926795 0.04253648 -0.022918683 -0.03716903 -0.005157594 0.028983202 -0.046688277
0.13916303 -0.00063314964 0.09038294 -0.03934376 -0.03550479 0.12569042 0.07178892 -0.10883023
0.1286871 -0.014262352 0.11563279 0.09044716 -0.04883874 -0.024659045 -0.09466871 0.014613697
0.11647343 0.08401453 0.026405182 0.059830073 -0.030460648 0.09152157 -0.078090385 -0.00949974
0.06843519 0.0100342315 0.060457744 -0.04914026 -0.05539778 0.0711008 0.026539918 -0.049934685
0.02158412 0.05013144 -0.049176876 -0.060745053 -0.0174912 -0.028725168 -0.09061217 -0.04052314
0.0014220456 0.056019455 -0.08255061 -0.10464232 0.06627927 -0.038929306 -0.08463597 0.098444015
-0.050070178 -0.073707044 0.042595256 -0.039007 -0.037729558 0.095508516 0.1286111 -0.0979829
0.13508502 -0.055246454 -0.02880211 -0.050787907 0.041109763 -0.014197789 0.13379125 -0.044343688
-0.057884544 0.037374254 0.05859188 0.06312379 -0.06613996 -0.0024458796 0.09288258 -0.045455065
-0.0657114 -0.0674273 -0.030324567 -0.00847581 -0.06346922 -0.06774361 -0.080704026 -0.09763127
-0.098732084 -0.029073674 -0.00065534393 0.052452084 0.121350706 0.08234494 -0.0011859683 0.02596009
0.11522866 0.019901214 -0.006890733 0.10346366 -0.06349935 0.06543199 -0.019542381 0.089995764
0.13905425 0.006529086 0.028857097 0.108269714 0.09856083 0.091280915 0.045376305 -0.068483435
-0.066128746 -0.11892078 0.10442832 -0.05531605 0.107466005 0.08800196 -0.04871388 0.07923808
0.05810362 -0.03823088 0.027905624 0.060672186 -0.021029703 -0.024241215 -0.01155768 0.022201555
0.0022605893 -0.14045687 0.06776079 -0.0030591725 -0.15105224 0.026029203 -0.10373122 0.11108449
-0.08693216 0.12921639 -0.03204254 0.027996155 0.09966489 0.058858458 -0.1167628 0.114038154
-0.14070918 0.1053419 -0.020968204 0.028047362 -0.11545854 -0.06447993 0.1173184 -0.005267514
-0.10027184 0.072155476 -0.046174206 0.074115366 0.09366274 0.00802239 0.15075104 -0.10317701
0.08100208 -0.0066725197 0.07755118 -0.084838286 -0.0974415 0.061403688 -0.017461091 0.12721884
-0.011455324 -0.12967066 0.073452756 -0.04633462 -0.07489896 0.12317436 0.03371981 -0.08998584
-0.043377336 0.078302845 0.023236614 0.055757478 0.030591464 0.02167085 -0.011652509 0.0064306664
-0.026920417 -0.13385218 0.0077726357 0.08744033 -0.11985537 -0.0023783671 -0.095335215 -0.08536374
-0.050104994 0.020826632 -0.086346075 -0.0035150119 -0.038580853 -0.11788808 -0.03111862 0.06778422
0.008326615 0.12842888 0.044020936 0.0030625782 0.08241611 -0.106867746 -0.005820762 0.047119062
0.10202931 0.09415746 -0.07479889 0.04892706 0.11696046 -0.006055657 0.11308343 -0.1104923
0.1337389 -0.06368215 0.022261515 -0.030091222 0.12622644 -0.08679292 -0.06460681 0.052133434
-0.075792484 -0.048439443 -0.03881767 0.001068693 0.059468273 -0.08550791 0.1320151 0.065998614
-0.002365251 -0.046493027 -0.0047793295 0.04142468 0.08719042 -0.06368371 -0.109404474 -0.009108975
0.05587293 0.04012476 0.042293403 0.014954839 0.07865723 0.096716285 0.08545246 0.023620611
-0.12024173 0.15381154 0.11464917 0.11599994 0.09935855 -0.017902792 0.02293841 0.048558306

encoder_lstm1.bias_hh_l0 f4 [256]
00000000: 1e8b fd3d 3236 5e3d d8be bbbd 2894 e83d
00000010: 7f4a 123e 2814 9cbb 973f dc3c 2490 88bd
00000020: 675b 443d c263 903d b64d ecbb 49de a63d
00000030: 612c 333d fd3f ac3b ad13 253d 5e63 cfbd
00000040: 3e38 043e 5f73 adbd f339 e6bd e5e0 46bd
00000050: 4ebf 833c dccd c8bc b336 0e3e dd85 a83c
00000060: bb87 f53c 63bb e2bb deab dabd 1f29 5f3d
00000070: 3659 193c 041c 453d 715d 11bd 1a91 b0bd
00000080: a7b9 e23c 1381 d5bd ccb4 8b3d 0889 bd3b
00000090: c830 1e3e 38ad b7bd bc99 b93d 2e4d 093e
000000a0: 6613 d53b ab56 033e a15f f83d 56dd 513d
000000b0: 128c f83d 917c 6d3d ece1 3abc 9d49 e03d
000000c0: 6fa2 9abd e5b4 013d 3224 a93d 27f7 87bc
000000d0: a1b8 b2bd ebc3 313d 7044 80bd c402 013e
000000e0: 25a0 cebd 2684 513d d0fa d8bd 827f 123d
000000f0: 91ca d73c 856e 563d 6ad0 efbc c11a 2c3d
00000100: 5c1a c1bd b6ec 54bd 338d 1abd 94f3 083d
00000110: 40d9 fa3d 9a70 c93d 8725 4c3d 386e 9abd
00000120: 01b5 de3d c797 e73d 80e4 d93d d9af bbbc
00000130: 157d b63c 6730 643d 2d17 e43d 893f f73b
00000140: 2c92 e83a 288a 97bd ead7 03be bc4f a43d
00000150: 45ad 1a3c e70a 7cbd dcfa 923c 2602 963d
00000160: 210f 123e b2b1 c13d 6e17 bbbc 5c05 86bc
00000170: 0995 54bc 9bee ccbd e5d7 903d dc85 63bd
00000180: 7e23 0d3e 3fab acbd 9a51 d43d 5a8c 2c3c
00000190: 18c5 9a3c aba2 a53d 549d e63d 97db 18bd
000001a0: 0c5d 303d 98c7 82bc 3688 e9bc ddea ebbd
000001b0: a823 183e dd51 453d 798a 77bd 8337 94bd
000001c0: d9f2 d2bc 351c d93d 4664 943d f392 33bb
000001d0: de0d adbc d34f 1ebd 3a51 d03d 21e6 043e
000001e0: 9255 72bd 9f8b d53d 227b 733d 1260 b23d
000001f0: 4124 03bd 49a7 4dbd 3862 8e3c 7b95 d1bb
00000200: 9a9f 0bbd fac9 9e3d 55c0 053e abcb d2bd
00000210: 2d55 6fbd b6f1 0e3e 15ea b8bd 80ef acbd
00000220: 4591 f13c 9f74 193d c017 33bd 4a9c ec3c
00000230: 6bc6 a83d 7e63 23bd d51c 533c bec6 023d
00000240: cf8f ffbd ae14 e63d a529 733c edf5 38bd
00000250: 9d2f 00bc 7293 55ba 3682 1d3c 7d0c 0e3e
00000260: 5b66 a3bd 8e3c 51bd dd03 c13d c2fc e4bb
00000270: 4e24 953d 7604 f53d bd64 ef3d e050 85bd
00000280: bfb2 dd3d e52d 053d db4c bd3d 9fe1 02be
00000290: c154 e13d 6b28 04be 366d 06be 90e0 f7bc
000002a0: bbf5 90bd e675 0abe 7863 8ebd aa9d 883d
000002b0: eb66 74bb 316a 06bd 88ea 533d 6695 c5bd
000002c0: eb3a fcbd 6d6e 1fbd 80e1 d83d 939a 0dbe
000002d0: 7fbb f2bd 9150 eebd 4a83 c23d 2b37 9f3d
000002e0: 68d5 0dbe 4c94 cbbd e232 e4bd b5af a73d
000002f0: df5e f5bd e69d f83d e0a3 ef3d 8f40 31bb
00000300: f8e2 e4bd ab26 913d 181e 9e3d e128 61bc
00000310: 4719 0d3e 49d7 c7bc 4bb2 f03d ef27 143d
00000320: f6dd 8fbc 20cc f13d 54e9 d93d b831 143e
00000330: 5a74 883d cc4d 16bd fdb8 8ebc 8b03 5e3d
00000340: 2650 a13d 8eab 7f3d 126e 5c3d cb90 edbc
00000350: 4102 dabd b79e 64bd f885 80bd 19dd f03d
00000360: 600b cbbd b937 cabd dc5d b3bc 17a5 183e
00000370: 7af0 89bd cc8e 73bd 74ed 9fbd 5c4b e53d
00000380: 260b 5d3d 24bf d0bd d600 d63c 9fca 9abd
00000390: 9b1a 41bd c9f5 ac3d 6e86 333d 3fc2 76bd
000003a0: f717 83bd 76a4 053d 4c08 c13d 96a2 fb3d
000003b0: 3995 0a3d a15d 30bd 4327 353d dcdd dbbc
000003c0: d773 863c 7ccc 833d 34a7 b23d be04 c33d
000003d0: 51f1 a53d 34bd cb3d 0f9a 493d e6be f43d
000003e0: e80a b23d 0a9e 96bd 8051 70bd ea86 353e
000003f0: 09a2 fe3d a9f5 8bbc 3783 d63d bc94 98bd
0.1238005 0.054250903 -0.0916726 0.113563836 0.1428623 -0.004763145 0.02688579 -0.06668118
0.04793873 0.07050277 -0.0072114123 0.08147866 0.043743495 0.0052566514 0.040301967 -0.10126375
0.1291208 -0.08469271 -0.11241522 -0.04855432 0.016082432 -0.024512224 0.13888054 0.020571643
0.029971948 -0.006919311 -0.10677312 0.054482576 0.009359648 0.04812242 -0.035489503 -0.08621426
0.027676417 -0.104250096 0.06821594 0.0057841577 0.15448296 -0.08968586 0.09062526 0.13408348
0.0065025566 0.1282603 0.12127615 0.051236473 0.12136091 0.057980124 -0.011406403 0.109515406
-0.07550513 0.031666655 0.08258857 -0.016597344 -0.087266214 0.043399733 -0.062630534 0.12598711
-0.10089139 0.051151417 -0.10594714 0.035766132 0.026341708 0.052351493 -0.029274184 0.042017702
-0.09428856 -0.051983558 -0.037732314 0.03343542 0.122484684 0.0983593 0.049840476 -0.07540554
0.108743675 0.11308246 0.10639286 -0.022911 0.02227644 0.055710223 0.11137233 0.007545416
0.0017743758 -0.07399398 -0.12875333 0.080230206 0.009440725 -0.061533835 0.017941885 0.073246285
0.14263584 0.09457721 -0.02283832 -0.016359977 -0.012974986 -0.10006448 0.070724286 -0.05554758
0.1378307 -0.084311 0.10367127 0.010531509 0.01889281 0.08087667 0.11260477 -0.037318792
0.043057486 -0.015964314 -0.028507333 -0.11519406 0.14857352 0.048173774 -0.060434792 -0.072371505
-0.025750564 0.10601083 0.07245688 -0.002740082 -0.021124776 -0.038650345 0.10171743 0.12978412
-0.059163637 0.10427021 0.0594436 0.0870973 -0.032016996 -0.050208364 0.017380819 -0.0063959933
-0.034087755 0.07753368 0.1306165 -0.10292753 -0.05843084 0.13959393 -0.090290226 -0.084441185
0.029488215 0.037464734 -0.04372382 0.028883118 0.0824097 -0.039889805 0.012885292 0.031927817
-0.12478601 0.11234413 0.014841472 -0.045156408 -0.007823852 -0.0008147276 0.009613564 0.13871951
-0.07978507 -0.05108314 0.09424565 -0.006988139 0.07282315 0.119637415 0.11689136 -0.06509566
0.10825109 0.03251447 0.09243175 -0.1278138 0.11002494 -0.12906043 -0.13127598 -0.030258447
-0.07078119 -0.13521537 -0.06952566 0.06670697 -0.003729279 -0.032816116 0.05173734 -0.09647636
-0.12315925 -0.03892367 0.10589886 -0.13828497 -0.11852168 -0.116364606 0.09497698 0.07774194
-0.1385094 -0.09940395 -0.111425176 0.0818781 -0.11980986 0.12139492 0.117011786 -0.0027046537
-0.11176103 0.070874535 0.07720584 -0.013742656 0.13779174 -0.024394648 0.11752757 0.036170896
-0.017561894 0.11806512 0.10640207 0.14472091 0.06662817 -0.036695287 -0.017422194 0.054202598
0.07876615 0.062419467 0.05381591 -0.028999707 -0.10644961 -0.055815425 -0.062755525 0.11760921
-0.09914279 -0.098739095 -0.021895342 0.14906727 -0.067353204 -0.059462354 -0.078089625 0.11196014
0.05396571 -0.10192707 0.026123445 -0.07558178 -0.047144514 0.08445317 0.043829374 -0.06024384
-0.06401055 0.032627545 0.09425411 0.1228687 0.033833716 -0.04305804 0.044226896 -0.02683919
0.016412659 0.06435487 0.08723298 0.09522389 0.08102668 0.09948197 0.049219187 0.119504735
0.086934865 -0.07354362 -0.058671474 0.17727247 0.124332495 -0.017084913 0.10474246 -0.07450244

encoder_lstm2.weight_ih_l0 f4 [128, 64]
00000000: 2131 183e 4fda 03bd 1ae2 f8bc bd3b 5c3d
00000010: ce3e 30bd 7950 d6bd a5ca 02be 16d9 a43c
00000020: 1c22 eebd ff6b 6bbb d743 c6bb 16cc dbbc
00000030: 2d5d 3e3e 622c 07bc 56f8 443c 5309 3f3e
00000040: e36d 693d f00f 48bd 5e4c e2bd 200e 0fbe
00000050: 3d95 a73d 5760 433e 9752 0fbe 69e6 1e3e
00000060: 31e1 44be c38b a23b edef 113e 71d5 87bd
00000070: d741 d9bd ee17 573d 456c 95bd 2db3 85bc
00000080: 89a2 3d3e 9eef 093e 577e 153e e05b eabd
00000090: ab41 043e 0351 3dbd 5b56 22be 17dd f73d
000000a0: d456 a2bd 307c 0c3e 6d58 f93c f5bc e73d
000000b0: 8d38 d3bc 47e3 bd3d 56dd bcbd d84d bbbc
000000c0: 723d 51bd 728d 633d 24f0 aa3b 04b2 ebbd
000000d0: 9545 3dbe 7f83 e43c 77f1 74bd 353e 60bd
000000e0: 3f56 383c c8e9 0cbe b49d 99bd 4690 1d3e
000000f0: dd52 1a3e 01f6 0b3e bde6 2b3d e7c0 ab3a
00000100: b002 9fbd 1e02 99bd 9043 7cbd 67c5 02be
00000110: 2310 c3bd 392d 343e 2ee5 263e 392d 963d
00000120: c00a 22bd 2420 c33c 1749 18be f6d4 6c3d
00000130: 2ee4 173e 07c0 9cbd 3992 293e 23f6 1fbe
00000140: 319f 51bd 2d47 f03c c4f1 f8bd 40bb 0c3c
00000150: 8b70 6f3d 8510 78bc d89e 75bd e48c 2dbe
00000160: 88f3 813d 3076 253e e181 393d c712 a4bd
00000170: e4bb 0cbe 316c 27be 8b0d 3d3d 9847 babd
00000180: b85c 313d 248e e8bd 797b cb3d baff 133e
00000190: 382d 9c3c 63db d13c b7ae bbbd bd81 b4bd
000001a0: 2c90 33be 30db b5bd ab67 4ebe d987 d33d
000001b0: d7fc af3d 815e 83bc c88a eb3b a81d 8a3d
000001c0: 1bc6 72bd f9c8 943d 1da3 9dbd b1a3 92bc
000001d0: 3ad0 1cbe 48c4 92bd 2cda acbd 70e9 abbd
000001e0: c00d dbbd b034 e1bd 6466 5a3d 7165 9bbd
000001f0: dcc8 993d 6b50 2abe 0a00 4fbe ab44 303e
00000200: e9c1 1bbe 9398 2bbe c2fe 223e 06b1 c9bd
00000210: 195b 063d 6df2 cd3d 28c8 22be ca50 943d
00000220: c5ec 633d f1da aebb 28dd e8bd 675c ff3d
00000230: a29a 2cbe 87f6 973d 7d84 a3bd 0470 15be
00000240: 6c1c 993d ec6e dabd 5f27 d2bc 1b3c a03d
00000250: 81cd 173e 8a07 163e 9ed7 1a3e d138 f5bd
00000260: cd30 d3bd 9deb 1cbd 99fd a0bd cab8 e5bd
00000270: 65d9 d6bd a948 0f3e d53e 54bd 6e1f db3d
00000280: 931b 38bd 56f3 69bd fc7f 933d 55d6 033d
00000290: 382b 033e 2a5a 04be f054 e4bd 8aba a9bc
000002a0: 3cf0 21be 7540 cabc 4cc7 263d cfc5 83bd
000002b0: 8c35 75bd 3d0a 3c3e b332 e6bd 2e18 ad3d
000002c0: 7ee7 7ebd 43d2 9c3d 3420 133e 69a7 4e3d
000002d0: 64d1 1ebe 69ce fbbd 1710 113d 92e8 89bd
000002e0: 4664 e3bd 03d0 b73d a588 11be 9ae7 86bd
000002f0: 3ee7 12be a95c c6bd cad6 263e 6230 473b
00000300: e3dd 1bbe 82f4 063e 03f6 123d 8c28 1ebd
00000310: c1fe 0dbe c134 8d3b fb16 503e 7d99 0dbd
00000320: 1034 4b3c ef3a 153d 365d cf3d cb31 873d
00000330: 07aa f6bd 774d 343e 385a a7bc 79a2 82bd
00000340: 0b86 efbc fa35 17bd afc9 08be 6715 34be
00000350: 96d9 d73d b081 173e 1d23 003d f758 3abe
00000360: 0671 edbc cd55 6dbc e35d 143d ee8d d4bd
00000370: 2f57 ec3d 908f c3bd fee3 f73d 5ce9 4e3e
00000380: 9f60 dbbc 7bfd 5f3e da27 a2bd a580 d3bd
00000390: f65b 8cbd ed77 5fbd 6340 933d c503 7e3d
000003a0: 3085 ccbc c718 083c 257c 0fbe 2c07 29bd
000003b0: c6e2 f7bd eff0 833d f7c3 113e bec8 ee3d
000003c0: 6fd4 f8bd 1d78 4e3e fbc8 85bd 7d45 21be
000003d0: d899 f73d 69c4 7dbd 9666 fcbd cfca f9bd
000003e0: 9ab5 82bd 1865 873d 79ed 053e ff09 883d
000003f0: 80b6 bfbd 3a6a 10be f6ca 1ebe b6f6 463e
0.14862491 -0.032190617 -0.030381251 0.05376791 -0.043028645 -0.10464568 -0.12772615 0.020123046
-0.116275996 -0.0035922525 -0.0060505676 -0.026830714 0.18590231 -0.008250328 0.0120220985 0.186559
0.05698956 -0.048843324 -0.11049722 -0.13970232 0.08182762 0.1907972 -0.1399635 0.15517582
-0.19226529 0.0049605086 0.1425168 -0.066325076 -0.10608261 0.052513056 -0.072960414 -0.01632079
0.18519033 0.13470313 0.14598976 -0.11443305 0.12915675 -0.046219837 -0.15853254 0.121027164
-0.079267174 0.13719249 0.030437673 0.113153376 -0.025783801 0.09271865 -0.09221904 -0.022864267
-0.05108399 0.055554815 0.0052166153 -0.11508563 -0.18483575 0.027894733 -0.05980059 -0.054746825
0.011251031 -0.13761055 -0.075007826 0.15387067 0.15070672 0.13668062 0.041968096 0.0013103754
-0.077641845 -0.07471107 -0.06158787 -0.12770616 -0.09524562 0.17595376 0.16298363 0.07332844
-0.039561033 0.023819037 -0.14871632 0.057820283 0.14833137 -0.07653814 0.16559686 -0.15621237
-0.051177207 0.029330814 -0.12155488 0.008589566 0.05845694 -0.015140657 -0.05996594 -0.16948277
0.06345278 0.16158366 0.045289878 -0.08011394 -0.1374355 -0.16349865 0.046155494 -0.09095687
0.043301314 -0.11355236 0.0993566 0.1445302 0.01906453 0.025617307 -0.091641836 -0.08813808
-0.17535466 -0.08879697 -0.20156734 0.10328645 0.08593147 -0.016036274 0.007188175 0.06743938
-0.05927096 0.07264895 -0.07697127 -0.01790032 -0.15313807 -0.07166344 -0.084400505 -0.08394134
-0.10695982 -0.109963775 0.053320304 -0.07587708 0.07509014 -0.1663224 -0.20214859 0.17213695
-0.1521069 -0.16757421 0.15917495 -0.09848218 0.03280172 0.10056005 -0.15896666 0.07241972
0.055645723 -0.0053361584 -0.11370307 0.12468796 -0.16855863 0.07420068 -0.079842545 -0.14593512
0.07476124 -0.10665688 -0.02565354 0.07823964 0.14824487 0.14651313 0.15121314 -0.119737275
-0.103120424 -0.038310636 -0.0786087 -0.11216886 -0.104906835 0.13992561 -0.051817734 0.10699354
-0.04494817 -0.05711683 0.072021455 0.032186825 0.12809455 -0.1292502 -0.11149013 -0.020718832
-0.15814298 -0.024688939 0.040717408 -0.06434213 -0.05986552 0.1836328 -0.11240139 0.084518775
-0.062232487 0.07657292 0.14367753 0.050452624 -0.15509564 -0.12295229 0.035415735 -0.067338124
-0.1110311 0.08975222 -0.14212282 -0.06587143 -0.14346024 -0.09685642 0.16292873 0.0030393829
-0.15221362 0.1317921 0.035879146 -0.038612887 -0.13866712 0.0043092673 0.20321266 -0.034570206
0.012402549 0.036433157 0.101252005 0.06601294 -0.12044149 0.17607675 -0.020428762 -0.063786454
-0.029238721 -0.03691671 -0.13358186 -0.1758629 0.10539548 0.14795566 0.031283487 -0.18198
-0.028984558 -0.0144857885 0.03622235 -0.103786334 0.115400665 -0.09548867 0.12104033 0.20206207
-0.026779471 0.21874039 -0.07917757 -0.10327271 -0.06853478 -0.05455773 0.07190015 0.062015314
-0.024965852 0.008306689 -0.14012201 -0.041266605 -0.121038005 0.06442439 0.14234911 0.11659382
-0.121498935 0.20163007 -0.065324746 -0.15749164 0.1208989 -0.06195489 -0.12324254 -0.12196886
-0.06382294 0.06611079 0.1307887 0.066425316 -0.09360981 -0.14103022 -0.15507111 0.1943005

encoder_lstm2.weight_hh_l0 f4 [128, 32]
00000000: 325f 96bd af7f b3bd 4693 533e b71a dabd
00000010: 93fa 073e 84d6 57be 989f 733d 4055 02be
00000020: 9631 143e 9fb5 283d 6bce cfbd 0db0 243d
00000030: ad75 16bc 6d8b 0b3d 5368 1fbe e24e cd3d
00000040: 9f2f 2c3e 4663 a73d c231 903d 1cc5 9e3b
00000050: 6927 0cbe 8a38 c43d 86e7 9c3d c686 1ebe
00000060: d573 ce3d a6a9 d1bd 5b06 2ebe ad98 fc3d
00000070: a889 39be d035 d2bd 6421 e63c c9bc 353d
00000080: b429 dabd 812a ad3d e7ea fcbd 0106 4fbd
00000090: 9775 0ebe a18a 4abd db5c cabd d8ed 35bc
000000a0: 78a0 2f3d 9f4e 173e e473 e03d 2225 4fbd
000000b0: 9c72 e6bd 02f1 c3bd 901a 4bbe 56f7 303e
000000c0: a32f 0cbe a9c4 87bd 8ddb 703d b245 97bd
000000d0: 8033 6ebd 6fc3 46bd 773a 9bbc 8825 a9bd
000000e0: 8abb b4bc 7384 afbd c078 10be 1963 913d
000000f0: 9b2a 05be 58d7 f6bd c87d 0bbe 62a9 b23b
00000100: 34b0 0cbe df8a a7bd 68db f3bd 006d b7bd
00000110: 84e0 8fbb d324 b7bd 75b6 673d d04d 92bc
00000120: 264d d2bd 3633 063d 3e5a d93d 1515 c6bd
00000130: d851 273e a9f5 81bb 2289 a23d cc10 f23d
00000140: 372a cc3c bdf3 fd3d 00e1 55be 5fae 10be
00000150: 06e0 eebc 0fa9 c6bc 9a64 0f3d 5a18 a83d
00000160: be03 a83d f43a a7bd aff2 7bbd d33b 05be
00000170: 6a75 1dbe d65e 17be 9475 4cbc 54d5 b73d
00000180: dc56 c7bc 1798 6d3d bc94 eabc 69bc 2f3d
00000190: ab75 86bd 4075 cc3c 5545 e43d 6ab6 073d
000001a0: 6f71 f83b 0b9e ae3d 6dee 3bbd 0160 febd
000001b0: d3c1 d33d 5012 1f3d 0804 55be 6466 1a3e
000001c0: cc46 313e 6edf b6bd dba4 333e 7c3e 37bd
000001d0: 789e 2d3c 33eb 783d 9c76 473d d826 1abc
000001e0: 6ee7 c4bc 4840 7ebd 6536 8dbd 4499 a63c
000001f0: 718c 053e 1340 01be 69f8 34be 55b5 dd3d
00000200: 3da0 c9bd 4107 7f3d 65ca e4bd 17ce 453e
00000210: 64d1 693d 23eb a73d fb9a 2ebb 693a 313e
00000220: c68a 003e bbf1 123e 8225 1fbd 3568 393d
00000230: f59b 433e cca3 b4bd 23c0 a13d d055 1c3e
00000240: 526b 23bd c27b c83d 5a37 83bd 0fce 813d
00000250: ef2f 723d 7d05 b03d 71fc 183e 8910 ad3c
00000260: a9f2 32bd 53d1 47be 3595 0d3e 7c2f b0bd
00000270: 38ed ffbd bcad 913c ca8b e33c 06ae dd3d
00000280: ba75 88bd d803 09be 2b68 433e d709 503e
00000290: b29f 24bc c8cf 46be 9974 99bd d56c 2cbd
000002a0: 8a97 a0bc bef0 7fbb b2cf cabd adf6 70bc
000002b0: 967f ae3d cd65 123e 0caa 6d3c 0775 b93c
000002c0: 9435 9e3d 42a5 c43d 83a7 2abd c87e 35be
000002d0: 1a4c 583e 6f63 5cbd 77ba 32be 1e69 e3bd
000002e0: 214a 023e 3348 3bbe fe56 283d 79dd fdbd
000002f0: f02a bd3d c51d 35be a19c d6bd 6df5 243d
00000300: f210 143d 90b8 083e b733 5cbd 11cc a9bd
00000310: ff5a bc3d de58 86bd 5924 06be 5a9b 2b3e
00000320: 064f 7cbd 10f9 dcbd 88c7 acbd 1c58 0a3d
00000330: 3ece 81bd 71bb 80bd 5832 2f3d fe26 9d3c
00000340: 95c7 24bd aca5 6e3d e3e4 69bd c22e c83d
00000350: 66e5 db3d 916d 973d 69ba b4bd 7e2c e73d
00000360: 9b14 cfbd 40b6 b3bd 68bc 8ebd 1d83 2abe
00000370: 45da e1bd be74 323d 07b7 9b3d e295 0a3e
00000380: aa38 27be ec05 17be 8e4f 443e 486f 08be
00000390: 5796 b43d f814 bfbc 3cd8 e33d 11df 683d
000003a0: 7350 34be 8083 533d 5f3e 83bd cfea 16bc
000003b0: 3691 eabc cd82 2abe 3b1a 1cbe 66dd b13d
000003c0: c6e3 88bc c61b 033e ed15 21be 345d 47be
000003d0: 7ff2 34be 9464 023e ab49 63bc b8ee 18bb
000003e0: c613 2ebd 970c df3d 363d 0ebd 010d 18be
000003f0: 60ea 2fbe 72c7 b53d 3888 963d 14c2 1ebd
-0.07342376 -0.08764588 0.20661649 -0.10649627 0.1327918 -0.21077925 0.059478372 -0.12727833
0.1447204 0.041188832 -0.10146793 0.040206958 -0.0091833295 0.034068514 -0.1556714 0.10024811
0.16815041 0.08173232 0.070407405 0.0048452746 -0.13686909 0.095810965 0.07661347 -0.154811
0.10080687 -0.10237436 -0.16994612 0.12333808 -0.18118918 -0.1026417 0.028092094 0.044369493
-0.106524855 0.084553726 -0.123494916 -0.050542835 -0.13912044 -0.049448613 -0.09880992 -0.01110407
0.042877644 0.14776085 0.109596044 -0.050572522 -0.11252329 -0.09567453 -0.19834352 0.17281851
-0.13690047 -0.06629307 0.05880313 -0.0738634 -0.058154583 -0.048526224 -0.018948777 -0.08259112
-0.022062082 -0.085701846 -0.14108562 0.070989795 -0.13004534 -0.12052792 -0.136222 0.005452321
-0.13739091 -0.081807844 -0.11907083 -0.08956337 -0.004390778 -0.089425705 0.05657049 -0.01785937
-0.10268621 0.032763682 0.106129155 -0.0967199 0.16339815 -0.0039660526 0.07936312 0.1181961
0.024922473 0.12400005 -0.20886612 -0.14129017 -0.029159557 -0.024250535 0.03500805 0.0820777
0.08203839 -0.08165541 -0.061510738 -0.13011102 -0.15376821 -0.14782271 -0.012479205 0.08976236
-0.02433341 0.058006372 -0.028635375 0.04290429 -0.06565412 0.024958253 0.111460365 0.033132948
0.0075818817 0.08526238 -0.045881677 -0.12420655 0.103397034 0.038835824 -0.20802319 0.15078121
0.17312163 -0.089293346 0.17543356 -0.044737324 0.010596864 0.06077118 0.0486971 -0.009408675
-0.024036136 -0.062073022 -0.068951406 0.020336755 0.13041855 -0.12622099 -0.17672886 0.10825602
-0.09845016 0.062262777 -0.11171416 0.19316898 0.057084456 0.08199146 -0.0026642669 0.17307438
0.12552938 0.14350025 -0.03885413 0.045265395 0.19102462 -0.08820304 0.07897975 0.1526711
-0.03989727 0.0978923 -0.06407042 0.06338131 0.059127744 0.08594797 0.14940049 0.021126049
-0.04368845 -0.19513445 0.13826449 -0.08602807 -0.12496418 0.017783038 0.027776618 0.10824208
-0.066630796 -0.13380373 0.19082706 0.20316254 -0.01004784 -0.194152 -0.07492942 -0.042095978
-0.01960351 -0.0039053406 -0.09902896 -0.01470725 0.08520429 0.14296646 0.014505874 0.02263881
0.07725063 0.09601833 -0.041663658 -0.17724144 0.2112278 -0.053805765 -0.17453943 -0.11104034
0.1272359 -0.1828926 0.041098587 -0.12395758 0.09236705 -0.17687137 -0.10479093 0.04027312
0.036148973 0.13351655 -0.053760257 -0.08290876 0.09197044 -0.06559919 -0.13099803 0.1675848
-0.0615988 -0.107896924 -0.08436495 0.033775434 -0.06338166 -0.062857516 0.04277262 0.019183632
-0.0402294 0.058263466 -0.05710305 0.09774543 0.10737114 0.07393945 -0.088246174 0.11287783
-0.10111352 -0.08774996 -0.069695294 -0.16651578 -0.1102796 0.043568365 0.07603269 0.13533738
-0.1633021 -0.14748353 0.19170973 -0.133237 0.088177375 -0.023325428 0.11125228 0.056853358
-0.17608814 0.05163908 -0.06408381 -0.009211256 -0.028633695 -0.16651459 -0.15244381 0.086848065
-0.016710173 0.12803563 -0.1573102 -0.19469148 -0.1767063 0.1273368 -0.013872544 -0.0023335647
-0.042499326 0.10891073 -0.034726344 -0.1484871 -0.1717925 0.08875932 0.073502004 -0.038759306

encoder_lstm2.bias_ih_l0 f4 [128]
00000000: 9a0b 90bc a10a 14be aa81 563b fe6e 333d
00000010: d2df 3fbd 9a1c 703d 88f7 22bd 0412 18bd
00000020: 4a29 3d3e 9534 c6bd 3d23 9bbd 76d9 b13d
00000030: 7d63 353e 4302 143b 00e9 3c3e 7722 293e
00000040: b36c 103e a653 4d3c 9608 05be 8257 003e
00000050: 92dd 463d 816a 243b a65e 203b 9117 233e
00000060: 5f0e 703c fc0c 8dbc c5db 393e d3b7 2dbe
00000070: af50 c03c 4fc7 9ebd 5109 023d fe9d 053e
00000080: aa28 febd 61d8 17be 3b66 2f3e 5e5d 0f3e
00000090: 7e2f 24bd 4e2a 9f3b 5f69 d73d 74a5 a23d
000000a0: 3168 373e 9bfd 693b d565 f2bd 782b 243e
000000b0: fb9e 443e 19e6 b73b 35da 2f3e 85fd 06bd
000000c0: da60 25be 0fa4 533e 540d 543e 1f7f cbbd
000000d0: c441 07be 0149 1b3e ee1e ddbd 29ae b7bd
000000e0: 27f6 0dbe 175e b3bd 5bbe f93d 2558 373d
000000f0: 3f87 b6bd 3c57 3cbd 7cf2 243e be93 1d3e
00000100: e57f d93c 84b7 a33c 740c eabd 2aae 753d
00000110: bbd9 053e 513e 8ebd 45da 99bd 9f42 84bc
00000120: 01d2 02be f621 c7bd c317 453e 99cf e7bd
00000130: f6a4 3a3e 8c05 803d a116 863c 73f7 76bd
00000140: 3863 13be 35e3 ebbd 0481 7f3d 6ff5 17bd
00000150: 4115 f93d 855c 1dbe b7fb e73d 1f56 983d
00000160: 7b68 b93d ec58 04bd 5da2 47be 17c0 e03d
00000170: 2a48 043d 607d e2bc 72e4 0e3e ed5c 053e
00000180: 2b55 993d 9fc4 593c db81 99bd a986 9ebd
00000190: f235 003e 12eb cabd 89a3 7ebd 5a63 053e
000001a0: 6422 97bd 0100 4dbb 9042 ea3d 8166 97bd
000001b0: 8869 c9bc 9da3 f63c b5ca 0c3e 6cb5 ac3c
000001c0: a81d 16bd 9452 dc3c eaf6 16bd cbea 933c
000001d0: a294 e03d e1ce 3d3e a413 7c3d 2c92 383e
000001e0: a9a4 f3bb e0ce d1bb d566 703d d18c 2a3d
000001f0: 0caf 143e 2889 de3d f9f8 bb3d 3cf5 3f3e
-0.017583657 -0.1445718 0.0032731094 0.043807022 -0.04684431 0.058621027 -0.039786845 -0.037126556
0.18472782 -0.09677998 -0.075750805 0.086840555 0.17713733 0.0022584356 0.18448257 0.16517054
0.14103965 0.01253215 -0.12991557 0.12533382 0.04855115 0.0025087895 0.0024470477 0.15926959
0.014651864 -0.017218105 0.18150242 -0.16964655 0.023475973 -0.07752859 0.031747166 0.1304855
-0.124101 -0.14828636 0.17128842 0.1400046 -0.040084355 0.004857338 0.10518145 0.07941714
0.1791084 0.003570414 -0.11835829 0.16032207 0.19201271 0.0056121466 0.17173083 -0.03295662
-0.16150227 0.20668052 0.2070821 -0.09936356 -0.13208681 0.15164568 -0.10796915 -0.08968765
-0.13863431 -0.087581806 0.121945105 0.044761796 -0.08912515 -0.04598163 0.16108125 0.1538839
0.026550243 0.019984968 -0.114281565 0.05998055 0.13071339 -0.0694548 -0.07512335 -0.016145049
-0.12775423 -0.097232744 0.19247346 -0.11318893 0.1822699 0.06251058 0.016368212 -0.06029458
-0.14393318 -0.11517946 0.0623789 -0.037099298 0.12162257 -0.15367325 0.11327308 0.07438301
0.09053131 -0.032311365 -0.1949553 0.10974138 0.032295384 -0.027647674 0.13954332 0.1302373
0.074869476 0.013291507 -0.07495471 -0.07740528 0.12520579 -0.09908117 -0.062167678 0.13026181
-0.07379606 -0.003128052 0.11438477 -0.07392598 -0.024586454 0.030107314 0.13749202 0.021082602
-0.036649376 0.026894845 -0.03685657 0.018056294 0.109658495 0.1853595 0.06154217 0.1802451
-0.0074354005 -0.0064028352 0.05869182 0.0416382 0.145199 0.10866004 0.09178347 0.18745893

encoder_lstm2.bias_hh_l0 f4 [128]
00000000: d4e9 b03b 7248 303e 644d bb3d d526 a8bb
00000010: 1f8a 503e d337 fcbd 8017 20bd b05a f63d
00000020: 2ef3 debd ca24 15be 862d c63d 8501 e03d
00000030: 8b3f a33d 1f04 5abc b8ee b33d c9b8 d2bc
00000040: a13a 3e3e 2b59 e1bd 949b f4bd dbc5 c93d
00000050: d5a2 00be 3fdc 1ebe be5a 093e 2f99 4cbc
00000060: cd4a 67bd f4e1 cdbc 8600 a73d f286 c8bd
00000070: 833b 1b3e af29 493d 0027 103e 40f9 c2bd
00000080: 4e3f 11be eb78 22be d8fe f03d ccbb e43c
00000090: 0636 ebbd e38d 0f3e 67b3 c8bd 8220 403e
000000a0: 7560 363e f542 983c 77e8 423e 2b4a 12bd
000000b0: bf7e dfbb 3994 1f3d f18c 353d e000 3a3e
000000c0: 8a9f 973d dc04 0bbe 47f0 de3d 634d b2bd
000000d0: e6f0 40bd b80d 5e3c d229 90bc 4824 10be
000000e0: 1e23 813d 07ba 743d 5f2e 023e 9866 23be
000000f0: f5b7 12be 4f63 81bd 6a42 413e c296 eabd
00000100: aeb3 133e b9de 3e3c 1d8e abbc 4bfa 283e
00000110: 6d8a a53d eb74 803d 8bea 473e c232 363e
00000120: b9e3 d03d 85c8 393e 71f4 98bd a8a3 30bd
00000130: 68c3 013e 83aa ccbd 5ac0 07be b3f7 0f3e
00000140: 830c d8bd 170c 3c3e 115a 863d d81b 693c
00000150: 02fe 733d b56f 363e ff34 ecbd a7a7 1fbd
00000160: a98d 1fbe 80fb fa3d 77bc c43d dcec b6bd
00000170: be59 ec3d 72cd 7ebd 7dd1 223d f153 213d
00000180: be7d e83d 9e8c 913c 6456 013e 6eda 523c
00000190: b292 413e c53e 673e d2ec fb3d f737 1ebe
000001a0: 7ed4 453e 575d d23d 4618 5d3d de33 833d
000001b0: 8276 1d3d 882c 183e 3247 c2bc a3de 0ebc
000001c0: 8a11 1cbd dd06 b1bd 63f7 f33c 705f 033d
000001d0: 9466 16bd 5145 ff3d 49b5 4abd f959 373d
000001e0: 7a48 7b3d 1cad 343e 78b1 cebb 72bd 17be
000001f0: 198e 973d 0c20 b73d c1e4 343e 798c e13d
0.0053989682 0.17215136 0.091456205 -0.0051315823 0.20365189 -0.12315335 -0.03908491 0.12029016
-0.108862266 -0.14564815 0.09676652 0.1093779 0.07971104 -0.013306647 0.08785766 -0.025722878
0.18577053 -0.110033356 -0.11943737 0.09852191 -0.12562115 -0.15513705 0.13413522 -0.012487694
-0.05646782 -0.025132157 0.08154397 -0.09791364 0.1515942 0.04911202 0.14077377 -0.09520197
-0.14184305 -0.15866439 0.117673576 0.02792158 -0.114849135 0.14018969 -0.09799843 0.18762401
0.17810233 0.018586615 0.19033991 -0.035715263 -0.0068205292 0.038959716 0.044323865 0.18164396
0.074034765 -0.13576072 0.10885673 -0.087061666 -0.04710474 0.0135530755 -0.017598066 -0.1407634
0.06305526 0.059747722 0.12713002 -0.15957105 -0.14327987 -0.0631777 0.18872991 -0.11454536
0.14424011 0.011649781 -0.020941788 0.16501729 0.08083043 0.062723 0.19523065 0.177928
0.10199685 0.18142898 -0.074684985 -0.043124825 0.12672198 -0.0999346 -0.1325697 0.14059334
-0.105492614 0.18363987 0.065601476 0.01422783 0.059568413 0.1781605 -0.11533546 -0.038978245
-0.15581383 0.12255001 0.09606259 -0.08931896 0.115405545 -0.062207647 0.039750565 0.039386693
0.113521084 0.017767247 0.12630612 0.0128694605 0.18903616 0.22582538 0.12301029 -0.15451036
0.1931934 0.102717094 0.053978227 0.06406377 0.038443096 0.14860737 -0.02371559 -0.008720073
-0.038102664 -0.08643887 0.02978105 0.03207344 -0.03671892 0.12464393 -0.049489293 0.04476354
0.061348416 0.17644161 -0.006307777 -0.14818361 0.0740015 0.08941659 0.17665388 0.11013121

encoder_fc.weight f4 [16, 32]
00000000: 0fe8 123e acfe fdbd 28cd 3d3e ee4c 9f3c
00000010: 6be5 fdbc eddb 40be d125 08be 7714 613d
00000020: 8b6d e33d 6160 183e ba4c 2c3e 0e8f 913d
00000030: f84a 7e3d d4c6 543e d9b3 f53d a41c e13d
00000040: 5d66 21be 0987 be3d afcf 4ebe a023 ff3d
00000050: 1677 a93b 77e6 dd3d f739 c3bd 6a9f d9bc
00000060: 76ad e93c a6f7 8f3d f3b3 3dbe 0826 00be
00000070: 959b 05bd 8ecb 4abd 2a0d 553e e4ac ff3c
00000080: f036 b43d 5889 eabd f09f 9f3d fc9a ab3d
00000090: 561b b93d 5eba c33d 74f1 123c a718 303e
000000a0: db72 1c3d 8939 503d 6ca2 20bd 8378 a03d
000000b0: abd6 283e 9717 d7bd e7a6 9cbd 4923 4b3e
000000c0: 7967 eabc 66fa 0e3e 86d5 c33d c15a b73d
000000d0: c791 b53c 5781 a73d 8184 083e f989 f83c
000000e0: 104b 2f3e 6c83 c9bc 6598 3abd 1092 533d
000000f0: b764 67be bc7b 093e e7c9 12be eca3 10bb
00000100: a4e5 2abe 13a3 233e fb78 f03c 9c58 d23c
00000110: 3e6d b3bd d1e7 58be c8e2 eebc 51cd 74bd
00000120: bcd4 3d3e 47f1 0fbe 7e95 41bd 8575 063d
00000130: 1b4f bd3d e192 ddbd 6c55 e73d 1f4c d13d
00000140: 6ab7 0ebe f315 263d bcf0 5f3d d6cf a4bc
00000150: cc11 ad3d fea2 0fbe 9f6b 3bbe e930 b13d
00000160: 88e1 563c 24ca 143e 9fbb 04be 04d6 313e
00000170: 5ca5 bfbc 57cc f7bd 0d2a 183c 4e48 2b3e
00000180: 0ba9 f6bd 400e c1bd 89ff 10bd ce86 8d3c
00000190: c75d 3fbd c071 0b3e 3d6b 0abd f0a6 1fbe
000001a0: 622c fcbd 0f4f c9bd e558 9fbd fc00 fb3d
000001b0: 37c7 113e e9de cf3c 1442 54bd ebbc d7bc
000001c0: 6571 893d 4b39 cf3d 6eed 70bd 7cff a8bc
000001d0: 2371 8bbd d2ae c63c 1c20 11be d5c0 6f3c
000001e0: ce37 1d3e e080 09bd 6876 07be be70 00be
000001f0: 7634 3ebc 745a 8e3d 5ebb ec3d 6be9 a4bd
00000200: ccbe 14bd 7036 573d 5440 84bd b24a f83d
00000210: 0fa3 003e b75e 083e 654f 183e 4ed8 ae3d
00000220: 5d09 2c3e be62 b53d b5c9 1ebe 6fef 2abe
00000230: 7847 b1bc 4329 debd b8fb d23c 4012 e93b
00000240: 3818 1dbe b04a afbd ddce 003e 5016 68bd
00000250: 59b6 323e f24e 22be 8668 fcbd ab65 2c3e
00000260: 8681 de3d d0d1 7d3d 70c6 503d bc08 09bd
00000270: 2daf 1d3e 5624 9b3d 53f4 263e a27c e0bd
00000280: 6c5d 87bc cf1b 4bbe 48a2 2d3d cc71 a13c
00000290: ab95 f63d 0622 013e 4c7e 373e 8ff7 8fbc
000002a0: 452a 14bd 92c6 fc3d 312a ec3d 0061 c23d
000002b0: 8d5e a43d 20d6 30be 8129 4bbe 4fff 013e
000002c0: cfed 203e bb5b 36bc 24d6 2cbd 572c 3cbd
000002d0: a77b 28be 283e 29bd 5310 b8bd 3c18 273e
000002e0: e417 6a3d 92c5 78be 849b 67bd 7f75 40be
000002f0: aab2 4abe b730 6fbe ec3c 0b3e d205 a8bc
00000300: c775 283e e1ef 16be 3333 60bd db54 d2bd
00000310: 1b6b f03d 853f a3bb 147e 44be 3396 4ebc
00000320: 1d95 3f3e e7b4 8dbd a0d6 3abe 45b0 24be
00000330: eb85 3a3e 7d0e ebbc 5d08 233e a3ca 823d
00000340: 41e0 46be 1dc6 2cbe cf33 eebd 3d71 00be
00000350: 814d a238 da4d 11be 6603 5bbd 86bb 0bbe
00000360: 74cb 833c 7ec7 313d 3818 cd3c 13f7 e8bd
00000370: d022 ec3d 9894 273e 0676 87bd ebea 323e
00000380: e34d 27be aeeb 9e3d 6650 f0bd 30af 6fbc
00000390: be31 c93d a14a a5bd 0e85 87bd 6cc1 1fbe
000003a0: 6cdd 2dbe cc1e 723d b5d3 14be 1c1f 28bd
000003b0: a821 93bd 36c8 1fbe a5aa c4bd 5c7c 74bd
000003c0: 44e8 04be 8e84 b33d 902c ae3c 3baf 13be
000003d0: 8286 04be 90c1 8b3c c849 8dbc bff0 c2bd
000003e0: 008d 47bd 0074 aab9 f0a4 6bbd cccb 133d
000003f0: 63fe b0bd a35e 0c3e 4c0d 3e3d 5acd ad3d
0.14346336 -0.124020904 0.18535292 0.019445863 -0.030993184 -0.18833895 -0.13295676 0.054951157
0.11104878 0.14880516 0.16826144 0.07107364 0.062083215 0.20778972 0.11997194 0.10991791
-0.15761705 0.093031 -0.20196413 0.12457967 0.005171667 0.10834973 -0.0953254 -0.026565272
0.028525095 0.07029657 -0.18525676 -0.12514508 -0.032619078 -0.04951053 0.20805803 0.03121037
0.08799541 -0.114519775 0.077941775 0.0837917 0.09038417 0.09557031 0.0089687 0.17196904
0.038195472 0.05083612 -0.039217398 0.07835486 0.1648814 -0.10502546 -0.076490216 0.19837679
-0.028613793 0.13962707 0.09562211 0.08952857 0.022164239 0.081789665 0.13331796 0.030339228
0.17118478 -0.0245988 -0.04555549 0.051652968 -0.22597013 0.13426107 -0.14334832 -0.0022070361
-0.16689163 0.15980177 0.029354563 0.025677018 -0.08761071 -0.21182181 -0.029160872 -0.059766117
0.18538183 -0.14056884 -0.047261707 0.03282692 0.09243604 -0.108190306 0.1129559 0.10219597
-0.13937154 0.040548276 0.05467294 -0.020118635 0.0845066 -0.1402702 -0.18302773 0.08651907
0.013115294 0.14530236 -0.12962197 0.17366797 -0.02339428 -0.120995216 0.009287369 0.16726801
-0.12043961 -0.09426546 -0.035399947 0.017276194 -0.046720292 0.13617611 -0.033793677 -0.15591025
-0.12313153 -0.09829532 -0.07780627 0.12256047 0.1423615 0.025374847 -0.05182083 -0.0263352
0.067110814 0.1011835 -0.05882018 -0.020629637 -0.068086885 0.024253283 -0.14172405 0.014633377
0.15353319 -0.03357017 -0.13228762 -0.12543008 -0.011609187 0.06950846 0.11559175 -0.080523334
-0.03631477 0.05254215 -0.06457582 0.12123622 0.12562202 0.13317381 0.14874037 0.085373506
0.16800447 0.08856724 -0.15506633 -0.16692899 -0.021640524 -0.10847714 0.025754794 0.0071127713
-0.1534127 -0.085591674 0.12578912 -0.056661904 0.17452373 -0.15850428 -0.12324624 0.16835658
0.108645484 0.06196767 0.050970495 -0.033455595 0.15398856 0.0757529 0.1630414 -0.10961272
-0.01652404 -0.19834827 0.04239109 0.019707583 0.12040266 0.12610635 0.17919272 -0.0175741
-0.036173124 0.12342562 0.11531485 0.094911575 0.08025847 -0.17269182 -0.19840051 0.12695049
0.15715717 -0.011130269 -0.042196408 -0.045940723 -0.1645342 -0.041319042 -0.089874886 0.16317838
0.05715169 -0.24294117 -0.056544796 -0.18794821 -0.19794717 -0.23358427 0.13597459 -0.020510588
0.16451178 -0.14739944 -0.054736327 -0.10270091 0.11739179 -0.0049819374 -0.1918872 -0.0126090525
0.18709226 -0.0691927 -0.18245935 -0.16082866 0.18215148 -0.028693432 0.15921159 0.06386306
-0.19421484 -0.16872449 -0.116309755 -0.12543197 7.739198e-05 -0.14189854 -0.053470038 -0.13645753
0.016088225 0.04340314 0.025035962 -0.11375251 0.115300775 0.16365278 -0.06614308 0.17472427
-0.16338305 0.07759796 -0.11734085 -0.01462917 0.09823941 -0.08070875 -0.06617175 -0.15601128
-0.16978997 0.0591114 -0.14533885 -0.041045293 -0.07184154 -0.15603718 -0.0960286 -0.05968891
-0.12979227 0.08765517 0.021261483 -0.14422314 -0.12941936 0.017060071 -0.017247096 -0.09518575
-0.048718452 -0.00032511353 -0.057530344 0.036083028 -0.086422704 0.13707976 0.0463994 0.08486433
