backend/anomaly_models/WH005_SKU-007.pth (torch, 242563 bytes, 20 tensors)

encoder_lstm1.weight_ih_l0 f4 [256, 6]
0	0xbdd35feb	-0.10321029
1	0xbe1773d2	-0.14790276
2	0xbe04644f	-0.1292889
3	0xbb04ad21	-0.0020244794
4	0xbcb44c9f	-0.022009192
5	0xbcbe41b8	-0.023224697
6	0x3dc88b75	0.09792224
7	0x3ccd90cf	0.025093464
8	0x3e0aca5c	0.13553756
9	0x3e100fd8	0.14068544
10	0x3dedf1e4	0.116184026
11	0xbceae890	-0.028675348
12	0xbc1fc2cb	-0.009751032
13	0x3d850fdb	0.06497165
14	0x3e30213e	0.17200181
15	0xbd3f12b3	-0.046648692
16	0xbd026a4a	-0.031839646
17	0xbd6da854	-0.05802186
18	0x3db3ad6c	0.08773312
19	0x3d1345cd	0.03595524
20	0x3db3c57b	0.08777901
21	0xbd743c15	-0.05962761
22	0x3daa3b8c	0.08312139
23	0xbd916e4c	-0.071011156
24	0xbdb6142b	-0.088905655
25	0x3cf8c743	0.030368453
26	0x3da3b4e2	0.07993485
27	0x3dce0b17	0.10060709
28	0xbdfa6946	-0.122271106
29	0xbd1659f0	-0.036706865
30	0x3db73d89	0.08947284
31	0xbd4974ad	-0.049183536
32	0x3e1186ce	0.1421158
33	0xbcdced2d	-0.026968563
34	0x3c0acbbb	0.008471425
35	0x3e1b730d	0.15180607
36	0x3e0f80e6	0.14014015
37	0x3bc6fd90	0.0060727075
38	0xbd0d93f6	-0.034564935
39	0x3d0b769f	0.034048673
40	0x3dcf8ce6	0.10134296
41	0xbd130fdc	-0.035903797
42	0x3d41eac7	0.04734304
43	0x3d4d64d3	0.05014498
44	0x3df84568	0.12122613
45	0x3def74cf	0.11692201
46	0xbd894a88	-0.06703669
47	0x3c804947	0.015659941
48	0xbc904fde	-0.017616209
49	0x3d57d8e4	0.052697077
50	0xbc1465f8	-0.009057514
51	0x3d0cb417	0.034351435
52	0xbc738da7	-0.0148653155
53	0x3e0e2d55	0.1388448
54	0x3d312e63	0.04325713
55	0xbe062273	-0.13099079
56	0xbd2716ab	-0.040793102
57	0x3dc6b256	0.09701984
58	0xbdf4e95e	-0.11958574
59	0xbd43b57b	-0.047780495
60	0x3dcf41be	0.10119961
61	0xbdb70a4a	-0.08937509
62	0xbd4d2b93	-0.050090384
63	0xbc542500	-0.012948275
64	0xbc84fa26	-0.016232561
65	0x3db13612	0.08652891
66	0xbd84d367	-0.06485634
67	0xbe03cb7c	-0.12870592
68	0x3d61344d	0.05498152
69	0xbd9d7527	-0.07688361
70	0xbe1c456d	-0.15260859
71	0xbd95217f	-0.072817795
72	0xbce3966e	-0.027781691
73	0x3dbeebf4	0.09322348
74	0x3d180695	0.037115652
75	0x3e022871	0.1271074
76	0xbc7b7d3e	-0.015349684
77	0xbd7dd3fc	-0.061969742
78	0xbd919676	-0.07108776
79	0x3d8f33e8	0.06992322
80	0x3e1cf059	0.1532606
81	0x3db5163f	0.08842134
82	0xbcc346fe	-0.023837563
83	0xbd76d63c	-0.060262904
84	0xbd75f424	-0.060047284
85	0x3b84dafc	0.0040544253
86	0x3d82ca76	0.063862726
87	0x3dbb7feb	0.09155258
88	0x3ddcef0b	0.10787781
89	0xbd878bea	-0.06618483
90	0x3da13436	0.078712866
91	0xbd4fc741	-0.050727133
92	0xbd07b7b2	-0.03313417
93	0xbe19f328	-0.15034163
94	0x3dd838dc	0.1055772
95	0x3d4a1b38	0.049342364
96	0xbdb7586f	-0.08952414
97	0x3d80af21	0.06283403
98	0x3e20c4f2	0.15700129
99	0x3e14235f	0.14466618
100	0xbdc71a9e	-0.09721874
101	0xbd2bcdae	-0.0419442
102	0x3d7fa151	0.062409703
103	0x3da77d0c	0.08178148
104	0x3e1e74f1	0.15474297
105	0xbb6beedc	-0.0036000526
106	0x3cd86697	0.026416106
107	0x3d41ff09	0.04736236
108	0x3d40b402	0.04704667
109	0x3d861013	0.06546035
110	0xbd8ff8fd	-0.070299126
111	0xbd145a6f	-0.036219057
112	0x3dc41796	0.09574811
113	0x3db1a566	0.086741254
114	0x3de6e315	0.11273781
115	0xbd7f6086	-0.06234791
116	0x3c555063	0.013019654
117	0xbd232918	-0.039834112
118	0x3c2874ee	0.010281784
119	0x3d44bba3	0.048030507
120	0xbc6353ee	-0.013874991
121	0x3df67561	0.12034107
122	0xbc100d11	-0.008792178
123	0x3e04a23e	0.12952515
124	0xbc850783	-0.016238933
125	0x3dec6d8b	0.11544331
126	0x3c64c88f	0.0139638325
127	0xbc2404ca	-0.010010907
128	0xbd2a7e35	-0.041624267
129	0x3dba5733	0.09098663
130	0xbd7207fd	-0.05908965
131	0x3ccc016f	0.024903027
132	0x3d4f16c3	0.050558817
133	0xbddebf11	-0.10876287
134	0x3d9282c8	0.07153851
135	0xbc180d75	-0.009280552
136	0x3dac49bc	0.08412501
137	0xbdc87221	-0.09787393
138	0xbc1fefcc	-0.009761762
139	0x3d9a1de3	0.07525232
140	0x3d36e3c3	0.044650804
141	0x3dfc15d1	0.12308849
142	0xbd177d88	-0.03698495
143	0x3d562bd9	0.05228791
144	0xbc87b173	-0.016564107
145	0x3d773ac2	0.06035877
146	0xbc891a37	-0.016736133
147	0x3c08e8ed	0.008356315
148	0x3da012d6	0.07816093
149	0xbd6fdf73	-0.058562707
150	0xbd6c32c8	-0.057665616
151	0xbd84c928	-0.0648368
152	0x3e00c89c	0.12576526
153	0x3d285cfd	0.041104306
154	0x3dd0c6f4	0.10194197
155	0xbcad85cb	-0.021181962
156	0xbd625f3e	-0.05526661
157	0xbdc6923b	-0.0969586
158	0xbcf5d6ed	-0.030009711
159	0x3d99a2d6	0.075017616
160	0x3e079b68	0.13242877
161	0x3dff3bb0	0.12462556
162	0x3dc80424	0.09766415
163	0xbdaf044d	-0.08545742
164	0x3c066580	0.00820291
165	0x3e2b3000	0.1671753
166	0xbd28db26	-0.04122462
167	0x3d13ec07	0.036113765
168	0x3dd1a78f	0.102370374
169	0xbd1f7609	-0.038930926
170	0xbca8ab3a	-0.02058946
171	0x3d42ab3a	0.047526576
172	0x3d9a8a9f	0.07545971
173	0xbd1bd9a4	-0.038049355
174	0x3bff693e	0.0077945283
175	0x3de53403	0.11191561
176	0x3e25042c	0.16114873
177	0x3da78312	0.081792966
178	0xbd17710b	-0.03697304
179	0x3de799ed	0.11308656
180	0x3b36c43d	0.0027887963
181	0xbcf13c38	-0.02944766
182	0xbd99e314	-0.07514015
183	0x3baaa5c2	0.005207748
184	0xbd23b7b6	-0.039970122
185	0x3d554fbe	0.052078
186	0xbdc73579	-0.09726996
187	0xbd637cd4	-0.055538967
188	0xbd3f02b4	-0.046633437
189	0x3d820b87	0.06349855
190	0x3d14724e	0.036241822
191	0xbc03dd7e	-0.008048413
192	0x3da56c1e	0.08077262
193	0x3d801688	0.062542975
194	0x3d27efe7	0.041000273
195	0x3e0ba321	0.13636447
196	0x3d9f0b39	0.077658124
197	0xbc72491e	-0.01478794
198	0x3e1328a2	0.14370969
199	0xbd6cfdf0	-0.05785936
200	0x3d137bef	0.036006864
201	0x3dba4678	0.09095472
202	0x3dd562cc	0.10419235
203	0x3ddcd797	0.10783308
204	0xbdb8ff74	-0.09033099
205	0xbd8eeb06	-0.06978421
206	0x3d697463	0.05699576
207	0x3da6d4a9	0.081460305
208	0x3dd6103a	0.10452314
209	0x3da474a8	0.08030063
210	0x3e174d90	0.14775681
211	0xbdba61c2	-0.09100677
212	0x3db1c3a2	0.08679892
213	0x3e016f22	0.1264005
214	0x3bb33667	0.0054691317
215	0x3dbc6cae	0.092004165
216	0x3df1cb1f	0.118063204
217	0xba3af468	-0.0007131756
218	0x3d0c00a6	0.034180306
219	0xbdc16605	-0.09443287
220	0x3dcdd29e	0.10049938
221	0xbdf4e3c2	-0.11957504
222	0x3da573e5	0.08078746
223	0x3d9191dd	0.07107899
224	0xbd879e41	-0.066219814
225	0xbd8a3309	-0.067480154
226	0xbc0cd470	-0.008595571
227	0x3cb8e4aa	0.022569973
228	0xbdb90ffa	-0.090362504
229	0x3dea9b60	0.11455417
230	0x3bc8c768	0.0061272867
231	0xbd2ba89e	-0.041908853
232	0xbd4e7f5a	-0.05041442
233	0x3d9ef96f	0.077624194
234	0xbd7ab944	-0.06121184
235	0x3dbd89d3	0.092548035
236	0x3de3dec3	0.11126473
237	0xbd93175a	-0.07182188
238	0xbd010f79	-0.031508896
239	0xbbcbc239	-0.0062182215
240	0xbd981e30	-0.07427633
241	0x3dded78e	0.108809575
242	0x3daa73bd	0.083228566
243	0x3c5c18c2	0.013433637
244	0xbdf49be0	-0.11943793
245	0x3d8c963a	0.06864591
246	0x3e0e2d61	0.13884498
247	0xbc42a503	-0.011880162
248	0x3d8ba500	0.068185806
249	0x3d12528f	0.035723265
250	0x3c9f27d0	0.019428164
251	0x3bff173b	0.0077847517
252	0xbe063681	-0.13106729
253	0x3d89dfe9	0.067321606
254	0xbdd368a8	-0.10322696
255	0x3bd0dfea	0.006374349

encoder_lstm1.weight_hh_l0 f4 [256, 64]
0	0xbd26b0fc	-0.04069613
1	0x3d973125	0.073824205
2	0x3d41bd2a	0.04729954
3	0xbc19d933	-0.009390163
4	0xbd056e4f	-0.0325759
5	0xbd28f86e	-0.041252546
6	0xbde2f1b9	-0.11081261
7	0x3d855773	0.0651082
8	0x3d9e2553	0.07721963
9	0x3cba5ef5	0.022750357
10	0xbd771808	-0.060325652
11	0x3d2908f9	0.041268323
12	0xbe32c765	-0.17458875
13	0x3e16149f	0.14656304
14	0xbe0b56b3	-0.13607292
15	0xbdb83f72	-0.08996476
16	0xbc32ac37	-0.010905317
17	0x3e21db7e	0.15806386
18	0xbd31cb41	-0.04340673
19	0x3db623fb	0.088935815
20	0x3b3a1175	0.0028391753
21	0x3dc37f10	0.095457196
22	0xbd362d02	-0.044476517
23	0xbe05aba8	-0.13053763
24	0xbb70b14a	-0.0036726766
25	0x3d481a51	0.048853222
26	0x3cc2c21d	0.023774201
27	0xbc87a00a	-0.016555805
28	0x3d82576e	0.06364332
29	0xbcadab25	-0.021199772
30	0xbc99f701	-0.018794538
31	0x3ddfd8d3	0.10930028
32	0xbcb32331	-0.021867367
33	0x3ca00042	0.019531373
34	0xbaf13c63	-0.0018404837
35	0xbd395d69	-0.0452551
36	0xbd271497	-0.04079112
37	0xbe1bf586	-0.15230379
38	0x3c50b1df	0.01273772
39	0x3e0d99db	0.13828222
40	0x3de0a1b4	0.109683424
41	0xbb0ec2c0	-0.002178356
42	0x3dd9058b	0.1059676
43	0xbcf925fb	-0.030413618
44	0xbd547b82	-0.0518756
45	0x3d794dba	0.06086514
46	0xbd6495f6	-0.055807076
47	0xbca1a474	-0.019731738
48	0xbe1df000	-0.15423584
49	0x3dcf4fdf	0.10122656
50	0x3e338a6e	0.17533275
51	0x3dccbd2b	0.099970184
52	0xbdb5ac7a	-0.08870788
53	0xbd785a1f	-0.06063282
54	0x3da2d6a9	0.079510994
55	0x3df0f6cb	0.11765822
56	0x3b8a6a46	0.0042240946
57	0xbd5b3fe9	-0.053527746
58	0x3dc87c64	0.09789351
59	0x3d5dbd83	0.05413581
60	0x3d29b0f7	0.041428532
61	0x3c9da823	0.019245213
62	0xbc803a4a	-0.015652794
63	0x3d908a93	0.07057681
64	0x3d50fa60	0.051020026
65	0x3dbd3f74	0.09240618
66	0x3d9505a0	0.072764635
67	0xbbf1e4f7	-0.007382031
68	0x3d95e4b4	0.07319012
69	0x3e0cac7f	0.13737677
70	0x3c980fc0	0.018562198
71	0xbdc31d5f	-0.095270865
72	0xb90dd8c3	-0.00013527558
73	0xbdacaf36	-0.08431856
74	0xbdcfc8b2	-0.101457015
75	0xbd968979	-0.073504396
76	0xbc237f0e	-0.009979023
77	0xbe009ea0	-0.1256051
78	0xbdaa97fa	-0.083297685
79	0xbd903b95	-0.07042614
80	0x3ca0d184	0.019631155
81	0xbda769ff	-0.08174514
82	0xbdc5c4f6	-0.09656708
83	0xbd908fd5	-0.07058684
84	0x3d9baf3d	0.076017834
85	0xbd8827d4	-0.066482216
86	0xbd47a620	-0.048742414
87	0x3e075146	0.13214597
88	0x3d20d034	0.039261058
89	0xbc671454	-0.014103968
90	0x3dfb8412	0.1228105
91	0xbc9d6ceb	-0.019216975
92	0x3b04d274	0.0020267041
93	0xbd5f25a1	-0.054479245
94	0xbdb0ee5a	-0.08639212
95	0xbdbb55e4	-0.09147242
96	0x3c89fe7d	0.016844982
97	0xbcfc0828	-0.030765608
98	0xbd1e8844	-0.03870417
99	0x3db3c1c9	0.08777196
100	0x3d12b30a	0.035815276
101	0xbd19ca50	-0.037546456
102	0xbd6d609c	-0.057953462
103	0xbc25b05b	-0.010112847
104	0xbdb4d531	-0.088297255
105	0x3db0bae6	0.08629398
106	0xbe02956b	-0.12752311
107	0xbca1f7ff	-0.019771574
108	0x3e0bf0f8	0.13666141
109	0x3dbeeda9	0.09322674
110	0x3d23198b	0.03981928
111	0xbd26c6cd	-0.040716935
112	0x3d8b8c60	0.06813884
113	0x3da4f889	0.08055217
114	0x3c29c948	0.010362931
115	0x3ddb3bef	0.10704791
116	0x3def1d1d	0.11675475
117	0x3c6d375b	0.01447853
118	0xbc12a3de	-0.008950202
119	0xbb1b1cf6	-0.0023668385
120	0x3dc0f99f	0.094226114
121	0x3d6306b2	0.055426307
122	0xbd880235	-0.06641046
123	0xbd9bc4b3	-0.07605877
124	0xbdb102b9	-0.086430974
125	0x3d0452b2	0.032305427
126	0xbde0fcf6	-0.109857485
127	0x3daeaf50	0.08529532
128	0x3c4b5182	0.01240957
129	0xbcc653d4	-0.024209894
130	0xbcaacb33	-0.020848846
131	0x3cd51bae	0.026014175
132	0xbd173979	-0.036920045
133	0x3c409ebe	0.011756597
134	0x3e096609	0.1341783
135	0xbdfdc647	-0.12391334
136	0xbd934181	-0.07190228
137	0x3de6a536	0.1126198
138	0xbd12c164	-0.035828963
139	0xbe168927	-0.14700757
140	0x3d3074b2	0.04308004
141	0x3dbbcd38	0.09170002
142	0x3d274c13	0.040844034
143	0x3d9ebab4	0.077504545
144	0xbe08176b	-0.13290183
145	0x3cbf98fe	0.023388382
146	0xbcf4eece	-0.029899027
147	0xbc42ee31	-0.01189761
148	0xbd9cc55b	-0.0765483
149	0x3de34daa	0.110987976
150	0x3da82e25	0.08211926
151	0xbd95fd13	-0.07323661
152	0xbd9c158d	-0.07621298
153	0xbd803feb	-0.062621914
154	0x3dc8d647	0.09806495
155	0x3db8e6e7	0.09028416
156	0x3d4cd13a	0.05000422
157	0x3d163a42	0.036676653
158	0xbd3e5d3f	-0.046475645
159	0x3c07b6af	0.008283301
160	0xbe011c3d	-0.12608428
161	0x3e295456	0.16536078
162	0x3decb0ef	0.11557185
163	0x3d08c6ba	0.033392645
164	0xbe139d11	-0.14415385
165	0x3ddcec74	0.10787287
166	0xbd526cfa	-0.05137346
167	0xbc27b9eb	-0.010237197
168	0xbdf3d9d8	-0.11906785
169	0x3d95314f	0.072847955
170	0x3d114b34	0.03547211
171	0xbdef39b7	-0.1168093
172	0x3d5c4971	0.053780977
173	0xbcc44fc2	-0.023963813
174	0xbd497e61	-0.04919279
175	0x3dc57c79	0.09642882
176	0x3bee2434	0.0072674993
177	0xbdb45841	-0.088058956
178	0xbcdd1d5d	-0.02699154
179	0xbcd31b20	-0.02576977
180	0x3dd933bc	0.10605571
181	0x3dd6f860	0.104965925
182	0x3d92c3bf	0.07166242
183	0xbd4702e1	-0.04858673
184	0xbb88582f	-0.004160903
185	0x3dffe099	0.124940105
186	0xbd9e44f5	-0.07727996
187	0x3d1bf2e2	0.038073428
188	0xbe057f3d	-0.13036819
189	0x3de62525	0.112375535
190	0xbdc76a3e	-0.09737061
191	0x3cc3a8a1	0.02388412
192	0x3d93241d	0.071846224
193	0x3cdfbdbc	0.027312152
194	0xbd03cb76	-0.032176457
195	0x3d77ee6a	0.060530104
196	0xbd1c3d2a	-0.038144268
197	0x3ded3cc5	0.115838565
198	0xbda85ae2	-0.082204595
199	0xbd91ecb5	-0.071252264
200	0xbe1219f0	-0.14267707
201	0x3db069b5	0.08613912
202	0x3d959d32	0.07305373
203	0xbd7c6312	-0.06161792
204	0xbd2613fc	-0.040546402
205	0x3d02c0e4	0.031922236
206	0xbdc42455	-0.09577242
207	0x3cb930bd	0.022606248
208	0x3cce7c8d	0.025205875
209	0xbc484970	-0.01222454
210	0x3cd71afc	0.026257984
211	0x3dc47250	0.09592116
212	0x3dc87850	0.09788573
213	0xbd7e8c5b	-0.062145572
214	0x3dde0cf3	0.108423136
215	0xbd9abbf4	-0.075553805
216	0x3dcdf760	0.10056949
217	0xbdc48247	-0.09595161
218	0x3ab40eec	0.0013737357
219	0xbd1f4acd	-0.038889695
220	0x3e13b109	0.14423002
221	0x3d8e0782	0.06935026
222	0x3d86c4f7	0.06580537
223	0x3d74a3c5	0.059726495
224	0x3cb90482	0.022585157
225	0x3dc04a1b	0.093891345
226	0x3db5ecbd	0.08883045
227	0x3cd61115	0.026131192
228	0xbc50f52d	-0.012753767
229	0x3d6cf84a	0.057853974
230	0xbb767aee	-0.0037609893
231	0xbe070237	-0.13184439
232	0x3db3930e	0.08768283
233	0xbc2b28a0	-0.0104466975
234	0x3ccdc88b	0.02512004
235	0x3d93c7ed	0.07215867
236	0xbd1393ec	-0.03602974
237	0x3da2cafa	0.07948871
238	0x3dda9f11	0.10674871
239	0xbd4be9c7	-0.049783494
240	0x3da31bc7	0.079642825
241	0x3d96a687	0.07355981
242	0x3d20d317	0.03926381
243	0x3daba0f2	0.08380307
244	0xbdc00b83	-0.09377196
245	0xbc5640ea	-0.013077
246	0x3c130aee	0.008974774
247	0xbc9e192d	-0.019299114
248	0xbda36d85	-0.079798736
249	0xbd94414a	-0.072390154
250	0xbdf7ed78	-0.121058404
251	0x3d4aa8f4	0.049477533
252	0xbda06cf2	-0.0783328
253	0x3d9be1d6	0.07611434
254	0x3e028022	0.12744191
255	0xbccae17a	-0.024765719

encoder_lstm1.bias_ih_l0 f4 [256]
0	0x3da0d03b	0.07852217
1	0x3dabc111	0.08386434
2	0x3c72df45	0.014823739
3	0xbd477ad1	-0.04870111
4	0x3cae8a7f	0.021306274
5	0x3d6cd90f	0.05782419
6	0xbd895eda	-0.067075446
7	0xbc5ab113	-0.013347882
8	0x3d8e58a8	0.069505036
9	0x3cadf224	0.021233626
10	0xbd82f163	-0.06393697
11	0x3d0be911	0.034157816
12	0x3d4f4120	0.050599217
13	0xbddd3395	-0.10800854
14	0xbcd7ec51	-0.026357802
15	0xbdb9275f	-0.090407126
16	0xbdbd6cbe	-0.092492566
17	0x3d8c3b91	0.06847299
18	0x3d97bb87	0.07408815
19	0x3c8d469d	0.017245585
20	0x3dce8eb2	0.10085811
21	0x3db10c19	0.086448856
22	0xbd40ff42	-0.047118433
23	0xbd84b5e3	-0.06480005
24	0xbb478fac	-0.0030450625
25	0x3de38c9e	0.11110805
26	0xbdc84282	-0.0977831
27	0x3e041b2e	0.12900993
28	0xbdaf3004	-0.0855408
29	0xbd81f5c6	-0.06345706
30	0xbdde4f2a	-0.10854943
31	0xbdca77b5	-0.098861136
32	0xbcef7abd	-0.02923333
33	0xbd6f9da1	-0.058499936
34	0xbd7574b8	-0.059925765
35	0xbd3d7313	-0.04625232
36	0x3da8c7a5	0.08241204
37	0xbc67bf3b	-0.014144714
38	0x3d4f4535	0.05060311
39	0x3d3944a4	0.045231476
40	0xbd97ddcf	-0.074153535
41	0xbd1b05e5	-0.03784742
42	0xbd2b4780	-0.041816235
43	0xbd843fa9	-0.06457455
44	0xbd20ac33	-0.039226722
45	0xbd1a4dda	-0.0376719
46	0xbdd530d0	-0.10409701
47	0x3c8749ff	0.016514776
48	0xbd054b8a	-0.032542743
49	0x3c8d21e0	0.017228067
50	0xbdd96694	-0.10615268
51	0x3c0b3a20	0.008497745
52	0xbdde9737	-0.10868686
53	0xbce9d31e	-0.028543051
54	0xbe060fa8	-0.1309191
55	0x3d0952c7	0.03352621
56	0x3d320c0e	0.043468527
57	0x3dfacde8	0.12246305
58	0x3cea270b	0.02858307
59	0xbdbd4309	-0.092413016
60	0x3e13878e	0.14407179
61	0x3da4a8ec	0.08040032
62	0x3dfef1b0	0.12448442
63	0xbd331454	-0.04372056
64	0xbdb624e3	-0.08893754
65	0x3dcfc35a	0.10144682
66	0xbd968eea	-0.073514774
67	0xbda603cd	-0.08106194
68	0x3caf9bb4	0.02143655
69	0xbd6bee11	-0.057600085
70	0x3da1cc75	0.07900325
71	0x3e131830	0.14364696
72	0x3dc8a955	0.097979225
73	0xbd80ac1f	-0.062828295
74	0xbd684266	-0.056703947
75	0xba917ac8	-0.0011099214
76	0x3bca1bef	0.0061678807
77	0xbd06e4ca	-0.032933034
78	0xbcff2283	-0.031144386
79	0xbc02c6d1	-0.007981972
80	0x3de50a45	0.111835994
81	0x3b811dc9	0.0039403182
82	0xbd4ea39b	-0.050448995
83	0x3d905b58	0.070486724
84	0x3cc81f86	0.024429094
85	0xbcd7031d	-0.026246602
86	0xbdc41ed0	-0.095761895
87	0x3d3deebb	0.04637025
88	0xbd0f5c73	-0.035000276
89	0x3d1f9488	0.03896001
90	0x3da37eb8	0.07983154
91	0x3d3fad44	0.0467961
92	0xbd916758	-0.070997894
93	0xbd2955cf	-0.0413416
94	0x3ce9a541	0.028521182
95	0x3d83ee42	0.064419284
96	0xbb3dfd91	-0.0028990249
97	0x3d1141b4	0.03546305
98	0x3d5cb3eb	0.05388252
99	0x3dd452c3	0.10367348
100	0xbd20c484	-0.039249912
101	0xbcec9ab8	-0.02888237
102	0x3cb6979a	0.022289086
103	0xbba4a264	-0.0050242413
104	0x3d765b6f	0.06014579
105	0x3d4eade8	0.05045882
106	0xbb5409b9	-0.0032354428
107	0x3e12ccbc	0.14335912
108	0x3e12a930	0.14322352
109	0xbd892711	-0.066969045
110	0xbc40a880	-0.0117589235
111	0x3cc41ad7	0.02393858
112	0x3d8cf808	0.06883246
113	0xbd77e0fa	-0.06051729
114	0xbcb198ad	-0.021679247
115	0xbe0a5b13	-0.13511305
116	0x3d799144	0.06092955
117	0xbd9120e7	-0.07086354
118	0x3de8c73e	0.113661274
119	0x3ddbae57	0.10726612
120	0x3dfd7af8	0.1237697
121	0xbd63fb26	-0.055659436
122	0x3db9196c	0.09038052
123	0x3de3c625	0.111217774
124	0x3e2083cf	0.15675281
125	0x3d97460d	0.07386408
126	0xbce09690	-0.027415544
127	0x3e067cc3	0.1313353
128	0x3d1c97b0	0.038230598
129	0xbdcf921d	-0.10135291
130	0xbc60fa65	-0.013731574
131	0xbcd6f109	-0.026237981
132	0x3ce4d75f	0.027934728
133	0x3d1c4486	0.038151287
134	0x3de58c2b	0.112083755
135	0xbdb807c3	-0.089858554
136	0xbd2bdb65	-0.041957278
137	0x3d67bd12	0.056576796
138	0xbe020772	-0.12698153
139	0x3d6643ef	0.05621713
140	0xbc00707a	-0.0078393165
141	0x3c7f705c	0.015590753
142	0x3d9414ab	0.072305046
143	0x3ca2f0e6	0.01989026
144	0xba0e32f9	-0.00054244656
145	0xbdcec15d	-0.10095475
146	0xbd008ad6	-0.031382404
147	0xbce94720	-0.028476298
148	0x3df09a7c	0.117482156
149	0xbcf0247c	-0.029314272
150	0x3da1a8e4	0.078935415
151	0x3d2fdbc9	0.042934213
152	0xbd9cce46	-0.07656531
153	0x3c6a8e0e	0.014316095
154	0x3c00c2a5	0.007858907
155	0xbd722a7b	-0.059122544
156	0xbd436fbe	-0.047713988
157	0x3dbfc350	0.09363425
158	0xbdb925a6	-0.09040384
159	0xbd823080	-0.06356907
160	0xbd8a749c	-0.06760523
161	0x3d11df4f	0.035613354
162	0x3dbef5cb	0.09324225
163	0xbd9af9fc	-0.07567212
164	0x3cbff62f	0.02343282
165	0x3d4513e1	0.04811466
166	0xbd897783	-0.06712248
167	0xbd5be0b4	-0.05368109
168	0xbde63d1c	-0.112421244
169	0xbe13fff0	-0.14453101
170	0x3d344774	0.044013456
171	0x3d71c9a1	0.05903018
172	0xbe0ba5f6	-0.13637528
173	0x3d30a622	0.043127187
174	0xb80710da	-3.2202202e-05
175	0xbd212c38	-0.03934881
176	0xbcc7e645	-0.024401793
177	0x3dc28ba6	0.09499292
178	0xbe03e463	-0.12880091
179	0x3c84c397	0.016206546
180	0x3d276041	0.04086328
181	0xbc0b17c4	-0.008489553
182	0xbc6b182d	-0.014349026
183	0xbd92ecde	-0.07174085
184	0xbdeb01f2	-0.114749804
185	0xbdf8249d	-0.121163584
186	0xbdb0f913	-0.08641257
187	0x3d69c656	0.057073914
188	0xbd99dede	-0.07513212
189	0x3b1896f2	0.002328333
190	0x3da35dd9	0.079768844
191	0xbbefa81b	-0.007313741
192	0xbdf666ca	-0.12031324
193	0x3d44a86a	0.048012175
194	0xbccbcbad	-0.024877394
195	0xbd013c2f	-0.031551536
196	0x3db44151	0.088015206
197	0x3d6fcef5	0.05854698
198	0xbdcef11a	-0.1010458
199	0x3de97056	0.113983795
200	0x3cda5601	0.026652338
201	0xbdd2a0ab	-0.10284551
202	0xbbf64ae1	-0.0075162505
203	0xbd9dc5a8	-0.077037156
204	0xbd8e0223	-0.06934001
205	0x3dd0d810	0.10197461
206	0x3d26dd4c	0.04073839
207	0xbcbc1341	-0.0229584
208	0xbcc57551	-0.024103792
209	0xbd999598	-0.07499236
210	0x3de4f68f	0.1117984
211	0x3d27a1a5	0.04092564
212	0x3db508ee	0.08839594
213	0xbc44ce69	-0.012012103
214	0xbd944360	-0.07239413
215	0xbcc62e4f	-0.024192004
216	0x3cb38cb5	0.02191768
217	0x3de782a1	0.11304212
218	0x3e07e03c	0.13269132
219	0x3ae3555a	0.0017344162
220	0xbd446603	-0.04794885
221	0x3e1c6b72	0.15275362
222	0xbd84ca27	-0.0648387
223	0xbd624ef4	-0.055251077
224	0x3cf09617	0.029368443
225	0x3e3b56d2	0.18294838
226	0x3d54333b	0.05180667
227	0x3d82a33d	0.063787915
228	0x3dc7337a	0.09726615
229	0x3e011e6d	0.12609263
230	0x3d994f0b	0.074857794
231	0x3d823009	0.06356818
232	0x3e00635c	0.12537903
233	0xbc248b10	-0.010042921
234	0xbdca726e	-0.09885107
235	0x3e2889e3	0.1645885
236	0x3d9e0cc2	0.07717277
237	0x3e0551b4	0.13019449
238	0xbce0fc18	-0.027463958
239	0xbd56b1d7	-0.052415695
240	0x3d91220e	0.070865735
241	0x3d9ffcd6	0.078118965
242	0x3c73b436	0.014874509
243	0xbbbb0282	-0.005707086
244	0x3d265927	0.040612366
245	0x3c744002	0.014907839
246	0x3d886f1e	0.06661819
247	0xbc90d565	-0.01767988
248	0x3cf8717b	0.03032755
249	0x3d4a7918	0.04943189
250	0x3d1fcc59	0.03901324
251	0x3d9e088d	0.07716475
252	0x3d0660d9	0.032807205
253	0x3de5686c	0.112015575
254	0x3c866a96	0.016408246
255	0x3dfde99f	0.12398075

encoder_lstm1.bias_hh_l0 f4 [256]
0	0xbe172967	-0.14761887
1	0x3c99f2af	0.018792478
2	0xbddbafea	-0.10726912
3	0x3dd3687e	0.10322665
4	0x3b7a1d3b	0.0038164395
5	0xbdc84710	-0.09779179
6	0x3d98b161	0.07455707
7	0x3df0908e	0.117463216
8	0xbce86004	-0.028366096
9	0x3ad95d70	0.0016583633
10	0x3db32de8	0.0874899
11	0x3c86885d	0.016422445
12	0xbdc6b5c7	-0.0970264
13	0x3daaf53b	0.08347555
14	0x3df4799e	0.11937259
15	0x3ce11221	0.027474465
16	0xbdbe4c0e	-0.0929185
17	0xbdd10447	-0.10205894
18	0x3d3fcc27	0.046825554
19	0x3de92b4e	0.11385213
20	0xbd9f1c32	-0.0776905
21	0xbca5cf0a	-0.020240325
22	0x3d96ed5c	0.073694915
23	0xbd3153e4	-0.043292895
24	0xbcdf7faf	-0.027282564
25	0xbe028927	-0.12747632
26	0xbc995f11	-0.018722089
27	0xbdd36ecb	-0.103238665
28	0xbd83a2de	-0.06427549
29	0x3cd7c5bb	0.026339402
30	0x3dab5520	0.08365846
31	0xbd32befc	-0.04363917
32	0x3df283f1	0.11841572
33	0x3d796349	0.0608857
34	0xbd868e6c	-0.065701336
35	0x3d5269ef	0.051370557
36	0x3d377227	0.0447866
37	0xbdecefa8	-0.11569148
38	0xbc8d6978	-0.017262205
39	0xbc3f5829	-0.011678734
40	0x3da7381f	0.08165001
41	0xbc69bcec	-0.014266234
42	0xbd55920b	-0.05214123
43	0xbd05086d	-0.03247874
44	0x3df37d7d	0.11889169
45	0x3e2bd386	0.16779909
46	0x3dd6ba52	0.104847565
47	0xbbf3f58d	-0.0074450434
48	0xbd87e791	-0.06635965
49	0xbc50eb34	-0.012751389
50	0xbde3a3a6	-0.11115198
51	0xbdcdfded	-0.10058198
52	0x3bea93cc	0.007158732
53	0x3d9e9d24	0.07744816
54	0x3dd1e308	0.10248381
55	0xbda1eb2e	-0.07906185
56	0xbdc27b84	-0.09496215
57	0xbd03cd95	-0.03217848
58	0xbd2f5df9	-0.04281423
59	0xbc43801e	-0.011932401
60	0x3e069e10	0.13146234
61	0x3d54c556	0.051946007
62	0x3d808cb7	0.06276839
63	0x3b7d6cb9	0.003866954
64	0x3c83873c	0.016055696
65	0xbdd6471a	-0.1046278
66	0xbd33d8c9	-0.043907914
67	0x3c875503	0.016520029
68	0x3d81ca92	0.06337465
69	0x3d54ba27	0.05193534
70	0x3d625661	0.05525816
71	0x3cb526f5	0.022113303
72	0x3d55ab08	0.05216506
73	0x3d428f78	0.047500104
74	0x3d141218	0.036150068
75	0xbcf4a27b	-0.029862633
76	0x3ce383be	0.02777278
77	0xbd457dd6	-0.04821571
78	0xbd8756bc	-0.0660834
79	0xbdc974dd	-0.09836743
80	0x3d361f51	0.04446346
81	0x3a54a75d	0.0008112097
82	0x3c84152c	0.016123377
83	0xbdb2b7a2	-0.087264314
84	0x3d17ba01	0.03704262
85	0x3aac1dfe	0.0013131497
86	0x3cd28028	0.025695875
87	0x3dcf7ed4	0.101316124
88	0xbdc3dfca	-0.09564169
89	0xbd8a1a07	-0.067432456
90	0x3dfe0975	0.124041475
91	0x3db111ae	0.0864595
92	0xbd66a56c	-0.056310102
93	0x3e2e2aa5	0.17008455
94	0x3d388e61	0.045057658
95	0xbdce98b4	-0.100877196
96	0x3d832106	0.06402783
97	0x3e3a2300	0.18177414
98	0xbdbcce75	-0.09219066
99	0xbd185326	-0.03718867
100	0xbda45e66	-0.080258176
101	0x3cc07872	0.023494933
102	0x3df8b8e1	0.12144638
103	0xbd3364a6	-0.043797158
104	0x3d6fed36	0.05857583
105	0xbc8bba5e	-0.01705664
106	0xbe0dc8d0	-0.13846135
107	0x3d3350bb	0.043778162
108	0xbce743e8	-0.028230622
109	0x3d71278b	0.0588756
110	0x3cf59cad	0.029981935
111	0x3cbcdaa9	0.023053484
112	0x3dccaa6f	0.09993445
113	0xbc3ac06b	-0.011398415
114	0xbd08eed4	-0.03343089
115	0x3d1a68c6	0.037697576
116	0x3dcaac50	0.09896147
117	0xbd490518	-0.049077123
118	0xbdac6f42	-0.08419658
119	0x3af6d939	0.0018833048
120	0x3d4d978c	0.050193354
121	0xbdebc5f4	-0.11512366
122	0xbb8c35b9	-0.004278865
123	0xbddd3ac3	-0.108022235
124	0xbcaa2fb9	-0.020774709
125	0xbd17abb4	-0.037028983
126	0x3d858542	0.065195575
127	0x3dbbee95	0.09176365
128	0x3ce1b1f4	0.027550675
129	0x3d323372	0.043506093
130	0x3d1b5127	0.03791919
131	0x3dda3fa8	0.10656673
132	0xbd16bd42	-0.036801584
133	0x3cf69dab	0.030104479
134	0x3dc2a7d5	0.09504668
135	0x3dbf78e5	0.09349231
136	0xbc65db8f	-0.014029398
137	0xbd9f91df	-0.077914946
138	0xbdc2eb05	-0.09517483
139	0x3de42e7c	0.11141679
140	0x3dcea181	0.10089398
141	0xbd564f2e	-0.052321605
142	0x3e161714	0.14657241
143	0x3d648402	0.055789955
144	0xbdbe9b15	-0.09306923
145	0x3b9885a1	0.0046546017
146	0xbd82f1c5	-0.0639377
147	0x3d3d0465	0.04614677
148	0xbc77dd6d	-0.015128476
149	0xbc48e192	-0.012260811
150	0xbd2505fc	-0.04028891
151	0x3da8f417	0.082496814
152	0x3e09280e	0.13394186
153	0xbdc0608c	-0.09393415
154	0xbcf58d4d	-0.029974604
155	0xbba2157e	-0.0049464097
156	0x3d8c0547	0.06836944
157	0x3ce3fdb3	0.027830934
158	0xbdb20d56	-0.0869395
159	0xbe020af4	-0.12699491
160	0x3d41d6aa	0.04732386
161	0xbde944ac	-0.11390051
162	0xbbe3c28b	-0.0069506816
163	0xbcb41adf	-0.02198547
164	0x3e16a6f9	0.14712133
165	0x3d50b9e3	0.050958525
166	0xbc911824	-0.017711706
167	0xbcb493c1	-0.02204311
168	0xbd91fc00	-0.07128143
169	0xba19fd15	-0.0005874199
170	0xbd96c3a6	-0.07361536
171	0xbcaeae45	-0.021323333
172	0xbd97a3db	-0.074043
173	0xbdbb393b	-0.09141775
174	0x3d93e5b0	0.07221544
175	0xbdc4f01d	-0.096161105
176	0x3be3f971	0.006957226
177	0x3df2f758	0.11863583
178	0xbd73d442	-0.059528597
179	0xbd432ecb	-0.047652047
180	0xbc246ccb	-0.010035704
181	0x3d09e9d2	0.033670254
182	0xbd0a5127	-0.0337688
183	0xbd92880e	-0.071548566
184	0xbdd9bd1a	-0.106317714
185	0x3dd00fe9	0.101592846
186	0x3d03baff	0.032160755
187	0x3d7b13ba	0.06129811
188	0x3d95ad7b	0.073084794
189	0xbdf6074d	-0.12013111
190	0x3d8ee023	0.069763444
191	0xbdbb29ec	-0.09138855
192	0x3c87fb5b	0.016599348
193	0x3e0d4965	0.13797529
194	0x3d98207c	0.07428071
195	0xbd0714d8	-0.032978863
196	0x3d885165	0.0665615
197	0xbc030bec	-0.007998448
198	0x3d3fb75f	0.046805736
199	0x3dd05a64	0.10173491
200	0xbd10d72c	-0.035361454
201	0x3d834108	0.06408888
202	0x3de73a86	0.11290459
203	0x3d664092	0.056213923
204	0x3da53988	0.08067614
205	0x3b8eef1f	0.0043620015
206	0xbd8ec0a1	-0.06970335
207	0xbdf1d522	-0.1180823
208	0xbd996958	-0.07490796
209	0x3d965725	0.0734084
210	0x3cd5f15d	0.026116068
211	0xbdbc37d2	-0.091903344
212	0xbd77a41a	-0.060459234
213	0x3da4863b	0.08033415
214	0xbdf0b4ab	-0.1175321
215	0xbddefbb1	-0.1088785
216	0x3e1759e5	0.14780386
217	0x3df0cc63	0.11757734
218	0xbda81187	-0.08206468
219	0x3d9bfbbe	0.076163754
220	0xbc43b4d4	-0.011944968
221	0x3d331ccb	0.04372863
222	0xbd989da4	-0.074519426
223	0xbd6097b3	-0.05483217
224	0xbd8c369f	-0.06846356
225	0x3d10f994	0.035394266
226	0xbda13990	-0.07872307
227	0x3cc7fab2	0.024411533
228	0xbd7beae8	-0.06150332
229	0xbcf0cca2	-0.029394452
230	0x3dfb9845	0.122849025
231	0x3c8a4b99	0.01688175
232	0x3ddb42e1	0.107061155
233	0xbdaeacd5	-0.08529059
234	0xbd5c3cba	-0.05376885
235	0x3cedf25d	0.029046232
236	0x3d1c533f	0.038165327
237	0x3d8b9dd8	0.06817216
238	0xbdb8c77f	-0.09022426
239	0x3d4c40f9	0.04986665
240	0xbd3b5e25	-0.04574408
241	0x3cf45df9	0.029829966
242	0xbd6aeafc	-0.057353005
243	0xbdd984fe	-0.10621069
244	0xbdaa8de7	-0.08327847
245	0x3d890fab	0.066924416
246	0x3dcfd9b2	0.10148944
247	0xbda25852	-0.07927002
248	0xbde917e6	-0.113815114
249	0x3dad8746	0.08473067
250	0xbd51d9fe	-0.051233284
251	0xbaa6c558	-0.0012723608
252	0xbb8fe03b	-0.004390744
253	0xbdf0c9d8	-0.11757249
254	0x3d711be9	0.058864508
255	0x3cc118b2	0.023571346

encoder_lstm2.weight_ih_l0 f4 [128, 64]
0	0xbc66f5c6	-0.014096683
1	0x3d50f63c	0.051016077
2	0xbe216ea8	-0.15764868
3	0x3e117a68	0.1420685
4	0x3d42e04c	0.047577187
5	0x3d8fac57	0.07015293
6	0xbdb90910	-0.09034932
7	0xbd80a4bb	-0.0628142
8	0x3db29ed7	0.087217025
9	0xbe2d289e	-0.16910025
10	0x3e108f94	0.1411727
11	0x3e396163	0.18103556
12	0x3d21b173	0.03947587
13	0x3d09d70c	0.03365235
14	0x3dd7e6fe	0.10542105
15	0x3d1ec790	0.038764536
16	0x3d93fc51	0.0722586
17	0x3daaa27d	0.083317734
18	0x3c607360	0.013699383
19	0xbe1ce2f0	-0.15320945
20	0x3b841ae7	0.0040315273
21	0x3dd69547	0.10477691
22	0xbd4ed43d	-0.050495375
23	0xbdb43356	-0.08798854
24	0xbd3b5141	-0.045731787
25	0xbe23b215	-0.15985902
26	0x3d957826	0.07298307
27	0x3d9e68af	0.077348106
28	0xbe1b0056	-0.15136847
29	0xbe30b0af	-0.172549
30	0xbc7db316	-0.015484592
31	0xbd11e75b	-0.03562103
32	0xbe401738	-0.18758857
33	0x3d9ad955	0.07560984
34	0xbe103d96	-0.14085993
35	0xba0b51b9	-0.0005314607
36	0x3c1cb88b	0.009565483
37	0xbd97935c	-0.074011534
38	0xbde13066	-0.109955594
39	0xbd3d5ed7	-0.046233024
40	0xbd17df92	-0.037078448
41	0x3c225807	0.009908683
42	0x3e2a66c2	0.16640761
43	0xbe279da9	-0.16368736
44	0x3d67ab89	0.056560073
45	0x3d34f607	0.044179942
46	0x3ccedb2e	0.025250997
47	0xbe14eb21	-0.1454282
48	0xbdb1bdae	-0.08678757
49	0xbd36af5c	-0.04460083
50	0x3e029622	0.12752584
51	0x3d7ea1fa	0.06216619
52	0x3dc85a25	0.09782819
53	0x3e144da1	0.14482738
54	0xbdf9e535	-0.12201921
55	0x3de24348	0.11047989
56	0xbd8bc065	-0.06823806
57	0x3e056b76	0.13029274
58	0x3d5ffd99	0.05468521
59	0x3d37cf07	0.04487517
60	0x3bc14ecb	0.0058992854
61	0x3d630299	0.0554224
62	0x3e256697	0.16152416
63	0x3d9e1579	0.07718939
64	0x3d222fb1	0.039596263
65	0xbd10b4cc	-0.03532867
66	0x3dfd9435	0.12381784
67	0xbe01503d	-0.12628265
68	0xbc821894	-0.01588086
69	0x3e180364	0.14845043
70	0x3b910d45	0.0044266307
71	0x3dc4c8d0	0.096086144
72	0x3e014376	0.1262339
73	0xbd30c71e	-0.043158643
74	0xbdc35edb	-0.095395766
75	0xbbc7be7c	-0.0060957056
76	0x3e396921	0.1810651
77	0x3cf7b75d	0.030238802
78	0x3db7325d	0.08945153
79	0xbdc4e79c	-0.096144885
80	0xbd899e42	-0.067196384
81	0xbd630111	-0.05542094
82	0xbd042aa7	-0.03226724
83	0x3e07c828	0.13259947
84	0x3e4cd648	0.20003617
85	0xbd587542	-0.0528462
86	0xbe04d503	-0.12971883
87	0x3b0c1bd9	0.0021378903
88	0x3e1970d5	0.14984448
89	0x3dbe0f24	0.092802316
90	0xbd4ff687	-0.050772216
91	0x3de5910d	0.11209307
92	0xbdd3bc73	-0.10338678
93	0x3da9f66c	0.08298954
94	0xbdee4f9f	-0.1163628
95	0xbd602548	-0.054723054
96	0xbb4ade4e	-0.0030955258
97	0x3e1313ff	0.14363097
98	0xbc916016	-0.017746013
99	0xbd3fc20d	-0.04681592
100	0x3de13d21	0.109979875
101	0xbe117e42	-0.1420832
102	0xbd1456e3	-0.036215674
103	0xbd5b46f8	-0.053534478
104	0xbd269ee3	-0.04067887
105	0xbdda88e8	-0.10670644
106	0x3dc7cff1	0.097564586
107	0xbd052f13	-0.032515597
108	0x3d9c308e	0.076264486
109	0x3da872a3	0.0822499
110	0xbe040185	-0.12891205
111	0xbdcef232	-0.10104789
112	0x3e12b026	0.14325008
113	0xbdf11600	-0.11771774
114	0x3dd98b12	0.10622229
115	0xbddc416f	-0.10754668
116	0x3e44147c	0.19148439
117	0x3ca4950b	0.0200906
118	0xbd2e5804	-0.042564407
119	0x3df13567	0.11777764
120	0xbe3d243a	-0.1847085
121	0x3d8a6732	0.06757964
122	0x3e000184	0.12500578
123	0x3d3d6ad7	0.04624447
124	0xbe049c6e	-0.12950298
125	0xbe4ce312	-0.20008495
126	0xbe34d5d6	-0.17659697
127	0xbd5d0d9b	-0.053968053
128	0xbd89f236	-0.06735651
129	0xbe34a6ff	-0.17641829
130	0xbe34dc44	-0.1766215
131	0x3e2a1a39	0.16611566
132	0x3d1265ac	0.035741493
133	0x3dc3cdfb	0.09560772
134	0xbd49770b	-0.049185794
135	0x3dacca1b	0.08436986
136	0xbe133064	-0.14373928
137	0x3d3db456	0.04631456
138	0x3d501f05	0.050810833
139	0xbcdd9f43	-0.027053481
140	0x3ddfcb7a	0.10927482
141	0x3e2dad6e	0.1696069
142	0xbdcac491	-0.09900773
143	0xbdb17329	-0.08664543
144	0xbe358889	-0.17727865
145	0xbe0dcaae	-0.13846847
146	0xbd8ae177	-0.06781285
147	0xbde1ed15	-0.11031548
148	0xbdbfd6cf	-0.09367143
149	0xbdf631a8	-0.1202119
150	0x3e1906a8	0.14943945
151	0x3ddf7fd7	0.109130554
152	0x3e04295a	0.129064
153	0xbc2cf047	-0.010555333
154	0x3d4de95e	0.050271384
155	0x3dbefc2d	0.093254425
156	0x3b7580be	0.003746077
157	0xbd877e61	-0.06615902
158	0x3e21f36a	0.15815511
159	0xbb317e72	-0.0027083424
160	0x3d5bf9b3	0.05370493
161	0x3dc54222	0.096317545
162	0x3e2a73d6	0.1664575
163	0xbd7fa2c3	-0.06241108
164	0xbd8cf959	-0.06883497
165	0xbdf2c619	-0.118541904
166	0x3d1a9165	0.037736315
167	0xbd1b7b69	-0.03795949
168	0xbd806ba0	-0.06270528
169	0x3e1692cb	0.14704435
170	0xbe185926	-0.14877757
171	0xbe27db8b	-0.16392343
172	0x3e06c172	0.13159731
173	0x3a6647b8	0.00087844906
174	0x3d57d84e	0.05269652
175	0xbe073d32	-0.13206938
176	0xbdf52de1	-0.11971641
177	0x3dfebd6b	0.12438472
178	0x3d90684f	0.07051145
179	0x3db82bb8	0.08992714
180	0x3dcac8bf	0.099015705
181	0xbdb961ab	-0.09051832
182	0x3e363554	0.1779378
183	0x3e0fe10f	0.14050697
184	0x3e2a5324	0.16633278
185	0xbcabdf48	-0.020980492
186	0x3cfe0217	0.031006856
187	0x3db97768	0.09055978
188	0xbd8896a0	-0.066693544
189	0x3dc718eb	0.097215496
190	0xbe35b85c	-0.17746109
191	0x3d17cefe	0.037062638
192	0xbcdc6df7	-0.026907904
193	0xbdc03944	-0.093859226
194	0x3de5b93a	0.1121697
195	0x3e01c66b	0.12673347
196	0xbda93b4a	-0.082632616
197	0x3cae8713	0.021304643
198	0x3dc067b3	0.09394779
199	0xbe308f07	-0.1724206
200	0xbdb1643c	-0.08661696
201	0x3db68ef5	0.08913986
202	0x3dc6f15e	0.09714006
203	0x3def61c0	0.11688566
204	0xbda0f9dd	-0.07860158
205	0xbddde72e	-0.1083511
206	0x3e2f9973	0.1714838
207	0x3e29d048	0.16583359
208	0xbe43b6b6	-0.19112667
209	0x3e1bcd8c	0.15215129
210	0x3e26137a	0.16218367
211	0x3e0cbebf	0.13744639
212	0xbdae9a69	-0.08525545
213	0xbcfc521d	-0.030800873
214	0x3d915376	0.07095997
215	0xbe09b4e8	-0.13447917
216	0xbd3acd54	-0.045605972
217	0x3d945739	0.07243199
218	0x3dafd439	0.085854
219	0x3dd62e37	0.104580335
220	0x3e25bea3	0.16186003
221	0xbd24391f	-0.040093537
222	0x3dde298e	0.1084777
223	0xbe1abc81	-0.15110971
224	0xbe17d747	-0.14828216
225	0xbccfb2f1	-0.02535388
226	0x3da525cc	0.0806385
227	0xbde4ee1c	-0.11178228
228	0xbd503923	-0.05083574
229	0x3ded8bdd	0.115989424
230	0xbd9e6640	-0.077343464
231	0x3d3dfdcd	0.04638462
232	0xbdfa0984	-0.12208846
233	0x3a9b31d0	0.0011840407
234	0xbdc8f251	-0.09811843
235	0xbde993e7	-0.11405163
236	0xbc827fe3	-0.015930122
237	0x3e19cac1	0.1501875
238	0x3e166253	0.14685945
239	0x3e1daf9b	0.1539902
240	0x3da80083	0.082032226
241	0xb9e01e39	-0.00042747127
242	0xbd9c8174	-0.07641879
243	0xbe0c7064	-0.13714749
244	0x3e2dbf11	0.16967417
245	0xbe2a310e	-0.16620275
246	0xbde9b76e	-0.114119396
247	0x3dbab854	0.09117189
248	0x3c5ea997	0.013590238
249	0xbdeaabb3	-0.1145853
250	0x3d1c6c6d	0.03818934
251	0x3e15f05e	0.14642474
252	0x3b26e2f9	0.0025464876
253	0xbd7dbd9f	-0.061948415
254	0x3cdaa6fc	0.026690952
255	0xbe264bc5	-0.16239841

encoder_lstm2.weight_hh_l0 f4 [128, 32]
0	0xbc612bc6	-0.013743347
1	0x3c1a63e3	0.009423229
2	0xbe0eddb5	-0.13951762
3	0x3bcc91e3	0.006242977
4	0xbe577aab	-0.21042888
5	0x3dc7edbf	0.09762143
6	0x3bc1173a	0.0058926614
7	0x3d904dc4	0.070460826
8	0xbd28d413	-0.041217875
9	0x3d8f9323	0.07010486
10	0xbd9117f4	-0.07084647
11	0xbd82e63a	-0.063915685
12	0xbcbe36de	-0.023219522
13	0xbe5503cb	-0.20802228
14	0xbd9e8848	-0.07740837
15	0xbcdf3058	-0.027244732
16	0xbe47ccc8	-0.19511712
17	0x3dd2b09e	0.10287593
18	0xbd4d9b7f	-0.05019712
19	0x3e082f3b	0.13299267
20	0xbb0585a3	-0.0020373843
21	0x3dee6848	0.11640984
22	0x3da02956	0.07820384
23	0x3c3fd29c	0.011707928
24	0x3cdcb39d	0.026941115
25	0x3cce6b8d	0.025197769
26	0x3de8a866	0.113602445
27	0xbdb112ac	-0.086461395
28	0xbe5a9fd8	-0.21350038
29	0x3e3654d8	0.17805803
30	0x3d437141	0.04771543
31	0xbc5ccc77	-0.013476483
32	0xbd93f1e9	-0.07223875
33	0xbd6fb4c1	-0.05852199
34	0x3e20050f	0.1562693
35	0x3e0d424b	0.1379482
36	0x3d1aca7c	0.03779076
37	0x3d932576	0.071848795
38	0x3de6255a	0.11237593
39	0x3dcfe1ce	0.10150491
40	0xbe11afc8	-0.14227211
41	0xbe39bbe3	-0.1813808
42	0xbe09084c	-0.13382071
43	0xbcb2b0ea	-0.021812875
44	0x3d1e17c2	0.038596876
45	0x3dc92074	0.09820643
46	0xbdb171b7	-0.086642675
47	0x3dfcd384	0.12345031
48	0x3e1f8293	0.15577154
49	0x3e060fdb	0.13091986
50	0x3df33270	0.118748546
51	0x3e036561	0.12831642
52	0xbd2f8000	-0.04284668
53	0x3de748ad	0.11293159
54	0x3d72f06c	0.059311315
55	0x3e1ade6d	0.15123911
56	0x3e1b7dbe	0.15184686
57	0x3e51b472	0.2047899
58	0xbd0bc9c6	-0.034127973
59	0x3c2d20a7	0.010566867
60	0xbd4e6da2	-0.050397523
61	0xbde9d01e	-0.11416648
62	0x3e3a1ecc	0.1817581
63	0xbe24e3aa	-0.16102472
64	0x3c82ddc5	0.015974889
65	0xbdb53923	-0.088487886
66	0x3de0a8dd	0.10969708
67	0x3dc9da37	0.09856074
68	0x3e2ef3f7	0.17085253
69	0x3e185ffd	0.14880367
70	0x3dc8075a	0.09767027
71	0x3dd32704	0.10310176
72	0x3cfa8fdf	0.030586181
73	0xbe54f826	-0.20797786
74	0x3def8e70	0.1169709
75	0x3e05bead	0.13061018
76	0xbe18067f	-0.14846228
77	0xbd2f9726	-0.042868756
78	0x3d3d3526	0.046193264
79	0xbd35b7a3	-0.044364583
80	0xbe04bed7	-0.12963425
81	0xbc290ed3	-0.010318476
82	0x3d40c8cb	0.04706649
83	0xbd87753e	-0.06614159
84	0x3d0b281d	0.033973802
85	0x3cd37eea	0.025817353
86	0xbe4ff1d8	-0.203071
87	0x3e2a6113	0.16638593
88	0xbdca0497	-0.09864157
89	0x3e394fe8	0.18096888
90	0xbd5c985d	-0.053856242
91	0xbddd4ffa	-0.1080627
92	0x3e2faf4b	0.17156713
93	0xbc99ebe4	-0.01878924
94	0x3d2d081f	0.042244073
95	0x3e1bc47a	0.15211669
96	0x3ded5482	0.11588384
97	0xbc919ee7	-0.017775966
98	0xbd90b184	-0.070651084
99	0x3dfb095e	0.12257646
100	0xbe0304a6	-0.12794742
101	0x3e2cc832	0.16873243
102	0x3d8ecf68	0.06973153
103	0x3e28dfc6	0.16491613
104	0xbd3b4500	-0.0457201
105	0x3db2e02a	0.08734162
106	0xbdd6a5ab	-0.104808174
107	0xbda9671b	-0.08271619
108	0x3e323c5e	0.17405841
109	0xbde2ca48	-0.11073738
110	0xbdbf3a8e	-0.0933734
111	0xbdcec806	-0.10096745
112	0x3d20b0a2	0.03923095
113	0x3c8b1da3	0.016981905
114	0xbe123417	-0.14277683
115	0x3d80ac2e	0.06282841
116	0x3da96043	0.082703136
117	0x3dcc0d26	0.09963445
118	0x3dbf54f1	0.09342373
119	0x3db27200	0.0871315
120	0xbe13106b	-0.14361732
121	0xbdc05a6a	-0.09392245
122	0x3e0d042e	0.13771126
123	0x3de2b0ed	0.11068902
124	0x3ce1ce5c	0.02756422
125	0x3daa870e	0.08326541
126	0x3e3192c9	0.1734115
127	0x3e10eb08	0.14152157
128	0xbe20db7e	-0.1570873
129	0xbda95606	-0.08268361
130	0xbdc4fd49	-0.09618623
131	0x3e11bfc5	0.1423331
132	0xbd93b5a5	-0.0721238
133	0xbdf19737	-0.1179642
134	0xbcf2292a	-0.029560644
135	0xbdaa2bb0	-0.08309114
136	0xbd3ea0ee	-0.046540193
137	0x3a39d296	0.00070885697
138	0x3da56607	0.08076101
139	0x3dcb427c	0.0992479
140	0x3db4aad9	0.08821649
141	0x3c826e30	0.015921682
142	0x3e095198	0.13410032
143	0x3dab2a1f	0.08357643
144	0xbe461f80	-0.19347954
145	0xbd9896c3	-0.074506305
146	0xbd188c7b	-0.037243348
147	0x3d234aa5	0.03986611
148	0xbdee29b8	-0.11629051
149	0xbd28a6aa	-0.04117457
150	0x3dbb64bd	0.09150074
151	0xbe152a8e	-0.14567015
152	0x3c54d454	0.012990076
153	0xbdd5f64b	-0.10447367
154	0x3e025e82	0.12731364
155	0x3c6b32ff	0.01435542
156	0x3cca3912	0.024685416
157	0x3da9af36	0.08285372
158	0x3dd3b6f2	0.103376284
159	0x3cb4d9b7	0.02207647
160	0xbca7822f	-0.020447819
161	0xbe4c60da	-0.19958821
162	0xbd0dc33c	-0.034610018
163	0xbd03b15d	-0.03215157
164	0xbcd7b06b	-0.02632924
165	0xbd6a0d8e	-0.057141833
166	0x3dc593cd	0.096473314
167	0xbd9d0137	-0.07666247
168	0xbd1b6a52	-0.03794319
169	0xbdf999e5	-0.12187556
170	0x3e058775	0.13039954
171	0xbd673725	-0.056449074
172	0x3d4293e1	0.04750431
173	0x3de317ef	0.11088549
174	0x3e2235bd	0.15840812
175	0x3dca591d	0.09880278
176	0x3d1c1c1b	0.03811274
177	0x3c528a33	0.012850332
178	0xbdb13b10	-0.086538434
179	0x3d2b40ac	0.041809723
180	0xbd84812d	-0.06469951
181	0xbe42a774	-0.19009191
182	0xbe4dc319	-0.20093955
183	0x3da81d22	0.08208682
184	0xbbfbd050	-0.007684745
185	0xbe17948b	-0.14802758
186	0x3d5f4608	0.054510146
187	0xbb284f04	-0.0025681863
188	0xbcb301a4	-0.021851368
189	0x3dd6a0f6	0.104799196
190	0xbe026917	-0.12735401
191	0x3e0cdc5d	0.13755937
192	0xbe0d46c6	-0.13796529
193	0xbd91d2b6	-0.07120268
194	0xbe1544b3	-0.14576988
195	0xbd971588	-0.07377154
196	0xbdbf88df	-0.09352278
197	0x3e29a0c7	0.16565238
198	0x3ddc2984	0.10750106
199	0x3dcff492	0.1015407
200	0x3c1a1244	0.009403769
201	0xbe0670b2	-0.13128927
202	0x3e3ed0be	0.18634316
203	0x3db6e0b2	0.08929576
204	0xbdd19502	-0.10233499
205	0xbd1eba10	-0.03875166
206	0x3a919297	0.0011106309
207	0xbdc9b93e	-0.09849785
208	0xbe216b79	-0.15763654
209	0x3de0a664	0.109692365
210	0xbd2fb607	-0.042898204
211	0xbdaff025	-0.08590726
212	0xbdd9e58d	-0.106394865
213	0xbe03f894	-0.12887794
214	0x3d92c604	0.07166675
215	0xbe5facb6	-0.21843228
216	0xbe040638	-0.12892997
217	0xbc8d8dff	-0.017279623
218	0xbd3a608c	-0.04550223
219	0x3c83bf4e	0.016082432
220	0xbd9c18bb	-0.076219045
221	0x3e2d9739	0.16952218
222	0xbe1dc43e	-0.15406892
223	0xbe4be1d7	-0.1991037
224	0x3d6642a4	0.056215897
225	0xbbfde644	-0.007748397
226	0x3d85b22d	0.06528125
227	0xbca27625	-0.019831726
228	0x3daf2a9a	0.085530475
229	0x3e407ff2	0.18798807
230	0xbd81cea9	-0.063382454
231	0x3df9426c	0.12170872
232	0xbd8895c9	-0.06669194
233	0xbe5c462c	-0.21511143
234	0xbe1da583	-0.15395169
235	0x3dd5d488	0.10440928
236	0xbd70ef8d	-0.058822203
237	0xbdde8c9d	-0.108666636
238	0x3df82772	0.121168986
239	0xbda4d52e	-0.08048473
240	0x3ddfb97b	0.109240495
241	0x3c663156	0.014049849
242	0xbdf7d208	-0.12100607
243	0xbe0a3fe0	-0.13500929
244	0xbe07bf63	-0.13256602
245	0xbcc3d13f	-0.023903487
246	0xbd8b752d	-0.06809459
247	0xbb993542	-0.0046755383
248	0xbd2b231a	-0.041781522
249	0xbdbab328	-0.091162026
250	0xbdd8088f	-0.105485074
251	0x3e35eb73	0.17765598
252	0x3dc141df	0.09436392
253	0x3cbb01ee	0.022828069
254	0x3db2fba4	0.08739403
255	0xbcb66000	-0.022262573

encoder_lstm2.bias_ih_l0 f4 [128]
0	0x3e4db469	0.20088352
1	0x3e2a20f6	0.16614136
2	0xbdf8eddb	-0.12154742
3	0xbe2b4f9d	-0.16729589
4	0xbe160a87	-0.14652453
5	0x3c86e0c6	0.016464602
6	0x3d18f7f9	0.03734586
7	0x3c2ebe36	0.010665467
8	0x3d82725f	0.06369471
9	0x3cc31112	0.02381185
10	0xbe03a09c	-0.12854236
11	0x3de91b63	0.11382177
12	0x3e097827	0.1342474
13	0xbdabfc5f	-0.08397745
14	0x3dd4c785	0.10389618
15	0x3e0537e0	0.13009596
16	0xbe25fb42	-0.16209128
17	0xbd35b490	-0.04436165
18	0x3d845e61	0.06463314
19	0xbe041159	-0.12897243
20	0x3e2aecef	0.16691945
21	0x3dd3131f	0.103063814
22	0xbc98305f	-0.018577753
23	0x3e2d8434	0.16944963
24	0x3e1217b7	0.14266859
25	0xbbcac40c	-0.0061879214
26	0x3e088421	0.13331653
27	0xbdb03fb2	-0.08605899
28	0x3da381c4	0.07983735
29	0xbde619f7	-0.11235421
30	0x3997d2a2	0.00028957898
31	0xbd8a1f6b	-0.06744274
32	0x3d14582d	0.036216903
33	0x3d9b4348	0.07581192
34	0x3e12c74b	0.14333837
35	0xbe0e9b5a	-0.1392645
36	0xbd8ea2c4	-0.06964639
37	0x3dbf9b7f	0.093558304
38	0x3dfea96a	0.12434657
39	0xbd333f4b	-0.043761533
40	0x3dbb2665	0.091381826
41	0xbd9fe8cf	-0.078080766
42	0xbd64a28a	-0.05581907
43	0x3dce6136	0.10077135
44	0x3d3b97ae	0.04579895
45	0x3e07d585	0.13265045
46	0xbdad3609	-0.08457572
47	0x3d39786b	0.045280855
48	0x3e0c625c	0.13709396
49	0x3e0bffd6	0.13671812
50	0x3d55e426	0.052219532
51	0xbe09556e	-0.13411495
52	0xbdf9b0b3	-0.12191906
53	0x3e3e6f1e	0.18597075
54	0x3dcc6e98	0.099820316
55	0xbcd2437f	-0.02566695
56	0xbd9834b5	-0.07431928
57	0xbe0acd5c	-0.13554901
58	0x3e0c838e	0.13722059
59	0x3ded1834	0.11576882
60	0x3e4b80cf	0.19873355
61	0xbd86b59e	-0.065776095
62	0xbd898304	-0.06714442
63	0xbda8d2e9	-0.08243353
64	0x3d7d9245	0.06190707
65	0xbe2f07d9	-0.17092837
66	0xbd449f9e	-0.048003785
67	0xbe08b7a4	-0.13351303
68	0x3c638257	0.013886056
69	0xbd190ab1	-0.03736371
70	0xbc7027fa	-0.014657969
71	0xbe1fed27	-0.1561781
72	0x3e02e8dd	0.12784143
73	0xbc9f753d	-0.019465083
74	0x3d3085d1	0.043096367
75	0xbe09e531	-0.13466336
76	0x3d3e3638	0.046438426
77	0xbda4929a	-0.080357745
78	0x3dd9ecc2	0.10640861
79	0x3e004bd1	0.12528922
80	0xbe4443e7	-0.19166528
81	0x3d90f5b7	0.070781164
82	0x3dd0cf82	0.10195829
83	0xbdadb895	-0.08482472
84	0x3d89c039	0.06726117
85	0xbcf0b62f	-0.029383747
86	0x3db90ecd	0.09036026
87	0x3dd9cb9f	0.10634541
88	0x3df7d464	0.12101057
89	0x3ada0635	0.001663393
90	0xbde9539f	-0.113929026
91	0x3d9db8b3	0.07701244
92	0xbd9dbb61	-0.07701755
93	0xbd8413d1	-0.06449092
94	0x3df72158	0.12066907
95	0x3c7305bd	0.014832911
96	0x3d25fcce	0.040524296
97	0xbe02e4a0	-0.12782526
98	0x3dd33608	0.1031304
99	0xbdbace5b	-0.091213904
100	0x3cc0e87f	0.023548363
101	0x3e3e9a92	0.18613651
102	0xbe1b2df6	-0.15154251
103	0xbdf92d29	-0.12166817
104	0xbd95d015	-0.07315079
105	0x3e3364a0	0.17518854
106	0xbd260daf	-0.040540393
107	0x3c16bea3	0.009200725
108	0x3e642d3e	0.22282884
109	0x3b716455	0.0036833484
110	0x3e2581d2	0.16162804
111	0xbe2380cd	-0.15967102
112	0x3d47091b	0.048592668
113	0xbb8f301e	-0.0043697497
114	0x3e44c6b6	0.19216427
115	0x3ccc7902	0.024960045
116	0x3d3db89f	0.046318647
117	0x3e56fa8e	0.20994017
118	0xbb72488b	-0.0036969509
119	0xbcf73ce9	-0.030180411
120	0xbd9f48c9	-0.077775545
121	0xbdd67348	-0.10471207
122	0xbe0b41e8	-0.1359936
123	0x3d50d512	0.05098445
124	0x3d5d3624	0.05400671
125	0xbe0fc2a8	-0.14039099
126	0x3e47d8b9	0.19516267
127	0x3def6428	0.11689025

encoder_lstm2.bias_hh_l0 f4 [128]
0	0xbe0badba	-0.1364049
1	0x3dac665e	0.084179625
2	0xbc9ef85f	-0.019405542
3	0xbdf0f36f	-0.11765181
4	0xbdcf2958	-0.101153076
5	0xbcfb90e2	-0.030708734
6	0xbd0af9ac	-0.033929512
7	0xbdd38f86	-0.10330109
8	0x3e1362fe	0.14393231
9	0x3e13fe40	0.14452457
10	0x3db45b3c	0.08806464
11	0xbd810e19	-0.06301517
12	0xbddc28f1	-0.107499965
13	0xb9cb4ac2	-0.00038774876
14	0x3d02857a	0.031865574
15	0x3dcd72c5	0.10031656
16	0xbd0111ef	-0.031511243
17	0xbd87fae2	-0.06639649
18	0x3d53fbe3	0.05175389
19	0x3c07ecd9	0.008296215
20	0xbdd11e94	-0.102109104
21	0x3ddb0cbf	0.106957905
22	0xbd32fb49	-0.043696675
23	0x3cd098dd	0.025463516
24	0x3e107e2d	0.14110632
25	0xbde7c00a	-0.113159254
26	0x3bbdb550	0.0057894364
27	0x3df60ea9	0.12014515
28	0xbd9af182	-0.07565595
29	0x3c84ef63	0.01622743
30	0x3d7ea57c	0.062169537
31	0x3e13033e	0.14356706
32	0x3c5cdd71	0.01348053
33	0x3e2b48e2	0.16727021
34	0x3d0a9a0e	0.033838324
35	0x3d964af1	0.07338513
36	0x3dc8f7f0	0.09812915
37	0xbe1f6639	-0.15566339
38	0xbe2e5fcc	-0.17028731
39	0x3e18f5a4	0.14937454
40	0x3dd92bfb	0.10604092
41	0x3dd04277	0.10168927
42	0x3cbe2df6	0.023215275
43	0xbd949d55	-0.07256571
44	0x3e3c4671	0.18386246
45	0x3d97897c	0.0739927
46	0xbcb619d2	-0.022229109
47	0x3e340ff1	0.17584206
48	0x3d408f76	0.047011815
49	0x3dc3bc66	0.095574185
50	0xbcaac10d	-0.020844007
51	0x3cd18302	0.025575165
52	0x3e3a7747	0.18209563
53	0xbda92a8c	-0.08260068
54	0x382fb1b8	4.1888765e-05
55	0x3e3c20b5	0.18371852
56	0xbe073d81	-0.13207056
57	0xbe052cef	-0.13005422
58	0x3dfd830a	0.12378509
59	0xbd3ee5b7	-0.046605792
60	0x3de8749a	0.11350365
61	0x3dd678f2	0.10472287
62	0x3e01d4eb	0.12678878
63	0x39cacb00	0.0003867969
64	0xbde477d6	-0.111556694
65	0xbe24768c	-0.16060847
66	0x3cacfb24	0.021115847
67	0x3d3abe4a	0.04559163
68	0x3da66011	0.08123792
69	0x3ddfc28c	0.10925779
70	0xbd5aa1a5	-0.053376812
71	0xbd06fdb8	-0.03295681
72	0x3e4c65da	0.19960728
73	0x3e113b0c	0.14182681
74	0x3e16de84	0.1473332
75	0xbe048bd0	-0.12943959
76	0x3e1cbe46	0.15306959
77	0x3d805306	0.062658355
78	0xbdfc582b	-0.12321504
79	0xbc835eb4	-0.016036369
80	0x3b0c9039	0.0021448268
81	0xbe47301c	-0.19451946
82	0xbd8732aa	-0.0660146
83	0xbd1fd1dc	-0.039018497
84	0x3e1b5020	0.15167284
85	0xbe182554	-0.1485799
86	0x3cedc73a	0.029025663
87	0xbd2b8b7b	-0.041881066
88	0x3d992347	0.07477432
89	0x3df4c90e	0.11952411
90	0x3e1358b1	0.14389302
91	0x3e3734fd	0.17891307
92	0xbe2a7a7b	-0.16648285
93	0x3cd5e705	0.026111135
94	0xbd4b0e6f	-0.04957431
95	0x3c082f9e	0.008312134
96	0xbd8eed2c	-0.06978831
97	0xbdc1eda2	-0.09469153
98	0xbbb6024b	-0.0055544726
99	0xbdf8bc41	-0.121452816
100	0x3e3a6ede	0.18206355
101	0x3db6e079	0.089295335
102	0x3d7184e1	0.058964614
103	0xbd11a464	-0.035557166
104	0x3e53baad	0.2067668
105	0xbdf07ec4	-0.117429286
106	0xbde52b06	-0.11189847
107	0x3d87e87c	0.0663614
108	0x3d7e43d7	0.062076416
109	0xbcb2aa28	-0.021809652
110	0xbe06b326	-0.13154277
111	0xbdb6458d	-0.088999845
112	0x3de6fa86	0.11278252
113	0x3dcec3f4	0.10095969
114	0xbd9b24c6	-0.07575373
115	0xbd6f250b	-0.058384936
116	0x3e22fe7e	0.15917394
117	0x3e21c0be	0.15796182
118	0x3de8d0ca	0.11367948
119	0xbd3b3f8e	-0.045714907
120	0xbd87d8ad	-0.066331245
121	0xbd22710f	-0.039658602
122	0xbde95f96	-0.11395185
123	0xbcd3ac0d	-0.025838876
124	0x3e327baa	0.17429987
125	0xbdabe24a	-0.083927706
126	0xbdd26721	-0.102735765
127	0x3e200cc1	0.15629865
