backend/anomaly_models/WH005_SKU-011.pth (torch, 242563 bytes, 20 tensors)

encoder_lstm1.weight_ih_l0 f4 [256, 6]
0	0x3dc6b1a8	0.09701854
1	0xbdac6508	-0.08417708
2	0x3c164614	0.009171981
3	0x3df80f77	0.12112325
4	0xbc430c93	-0.011904853
5	0x3e34dc1d	0.17662092
6	0xbdde6da2	-0.108607545
7	0x3dcbedda	0.09957476
8	0xbcc11b00	-0.023572445
9	0xbd218ece	-0.03944283
10	0x3a0201e0	0.0004959386
11	0x3dac06fd	0.083997704
12	0x3e06f8df	0.13180874
13	0xbd6bfbb1	-0.05761308
14	0x3e2b2706	0.16714105
15	0x3db7d4a7	0.08976107
16	0x3da8d18d	0.08243094
17	0x3cca7e1b	0.024718335
18	0x3d1d5ca8	0.038418442
19	0xbde125d1	-0.10993541
20	0xbd40d947	-0.04708221
21	0x3e2311bc	0.15924734
22	0x3cc69ab0	0.024243683
23	0x3e0ccaf1	0.13749291
24	0x3d3da3cf	0.0462988
25	0x3e0e0e4f	0.13872646
26	0x3de7d197	0.11319273
27	0x3e2c9374	0.16853124
28	0x3d3890c4	0.045059934
29	0x3d7a55d3	0.061117005
30	0x3c87a34e	0.016557362
31	0xbd3aaac7	-0.045573022
32	0x3d9e6e4c	0.07735881
33	0xbd26ecad	-0.040753055
34	0x3d841b75	0.064505495
35	0xbd971e75	-0.07378856
36	0x3b3e08e3	0.0028996996
37	0x3c81b5eb	0.015833816
38	0x3e074b16	0.13212237
39	0x3d3f1a18	0.046655744
40	0x3dff02e2	0.12451722
41	0x3dc0aa85	0.09407524
42	0xbd96ca5f	-0.07362818
43	0x3dee52fb	0.11636921
44	0x3dbed6b6	0.093182966
45	0xbcd47885	-0.025936374
46	0xbddc22aa	-0.10748799
47	0x3dde5864	0.10856703
48	0xbd508329	-0.050906334
49	0x3d9f1708	0.07768065
50	0x3dcdbefd	0.10046194
51	0x3dad2c1e	0.0845568
52	0x3dd932a5	0.10605363
53	0xbd2901a5	-0.041261334
54	0x3db13e6c	0.08654484
55	0x3d66d36a	0.056353964
56	0x3dec8d00	0.11550331
57	0x3d4a0f1b	0.049330812
58	0xbdb11c91	-0.08648027
59	0xbd0f6310	-0.035006583
60	0xbd53a177	-0.051667657
61	0xbc2d79ce	-0.0105881225
62	0x3de5bc92	0.112176076
63	0x3c6706cd	0.0141007425
64	0xbd8ed4c6	-0.06974177
65	0x3d8ed9b3	0.069751166
66	0xbc72cd1d	-0.014819411
67	0xbd808a68	-0.06276399
68	0x3da0a388	0.07843691
69	0x3e23363c	0.15938658
70	0x3de135c1	0.10996581
71	0x3de9f5ad	0.11423812
72	0x3d4547aa	0.048164047
73	0xbbb5bf3d	-0.005546479
74	0x3d3a8a96	0.045542322
75	0x3b0a8f4a	0.0021142536
76	0xbc27665f	-0.010217278
77	0xbd998b74	-0.07497302
78	0x3d9059f0	0.07048404
79	0xbca61b48	-0.02027668
80	0x3d4917df	0.04909503
81	0x3dcde936	0.10054247
82	0xbe07a975	-0.13248236
83	0x3c3bf064	0.011470888
84	0x3dcef081	0.10104466
85	0x3d4f336c	0.05058615
86	0x3e27d99f	0.1639161
87	0x3d9d9a19	0.076954074
88	0x3e276154	0.16345721
89	0xbccf43c4	-0.025300868
90	0x3df0d094	0.11758533
91	0x3dc1d96f	0.094653
92	0xbd0c0a85	-0.03418972
93	0xbd33cb36	-0.04389497
94	0x3dc32e58	0.09530324
95	0x3d28ee74	0.04124303
96	0xbd8dff7a	-0.06933494
97	0xbdcb96a0	-0.09940839
98	0xbd921b36	-0.07134096
99	0xbd0a85ae	-0.033818893
100	0xbb53e584	-0.0032332847
101	0xbdb9fbd9	-0.09081239
102	0xbce7e4ad	-0.028307283
103	0x3c100b48	0.008791752
104	0x3afe4820	0.0019400157
105	0x3dcb70cd	0.099336244
106	0xbcf22077	-0.029556496
107	0xbcb78328	-0.022401407
108	0x3d47fd80	0.04882574
109	0xbc1f0e99	-0.00970807
110	0xbcff2c87	-0.031149162
111	0xbde8eb24	-0.113729745
112	0x3da46eea	0.08028968
113	0x3c013404	0.007885937
114	0x3d943315	0.072363056
115	0xbd5632b2	-0.05229444
116	0xbd0df7e1	-0.034660224
117	0xbc845575	-0.01615403
118	0xbd3dcee2	-0.046339877
119	0xbcca694d	-0.024708414
120	0xbd933eda	-0.07189722
121	0xbd0d7b8c	-0.03454165
122	0xb89ad79c	-7.3834526e-05
123	0xbd87b8f6	-0.066270754
124	0xbdc750c8	-0.09732205
125	0x3d53e6ea	0.05173389
126	0x3d8351ed	0.064121105
127	0xbca6d890	-0.020366937
128	0xbd08b1b6	-0.033372603
129	0xbd05ecb0	-0.032696426
130	0xbd0af1af	-0.033921894
131	0x3db85810	0.090011716
132	0xbc36a982	-0.011148812
133	0xbdea5eb7	-0.11443847
134	0xbd519aef	-0.051173147
135	0xbd66dfa1	-0.056365613
136	0xbc6e9919	-0.0145628685
137	0x3ddb1413	0.10697188
138	0xbc7411f9	-0.014896863
139	0x3dffbc86	0.1248713
140	0x3d2e8e00	0.04261589
141	0xbb66b12b	-0.0035200815
142	0x3dfb9bee	0.122856006
143	0x3e1a826e	0.15088817
144	0x3dff567a	0.12467666
145	0xbde9f417	-0.114235096
146	0xbccdfa4a	-0.025143761
147	0xbcefb38e	-0.029260423
148	0x3d85b0ca	0.065278605
149	0x3ad55013	0.0016274474
150	0x3e02735e	0.12739322
151	0x3d3f9236	0.046770297
152	0xbd329948	-0.04360321
153	0x3e226f01	0.15862657
154	0x3b66dd4d	0.003522712
155	0x3e17fdcb	0.14842908
156	0xbdb4e7b0	-0.088332534
157	0x3dfa8eb3	0.12234249
158	0x3d18e4fa	0.037327744
159	0xbc143309	-0.009045371
160	0x3df93c44	0.12169698
161	0x3dc2799d	0.09495852
162	0xbd1b70a4	-0.03794922
163	0x3ccf78a3	0.025326079
164	0x3ddfdf47	0.10931259
165	0x3dbf5940	0.09343195
166	0x3dbf6c63	0.09346845
167	0x3d35d9a1	0.044397
168	0x3d4acb7a	0.049510457
169	0x3d1d9774	0.038474515
170	0xba115b2d	-0.0005544897
171	0x3d3ca465	0.046055216
172	0x3c769cd8	0.015052043
173	0xbd42416d	-0.047425676
174	0xbd844a30	-0.06459463
175	0xbd4fc946	-0.05072906
176	0xbdd31d9a	-0.103083804
177	0xbdf07179	-0.11740393
178	0xbc5a6663	-0.013330075
179	0xbd34d73d	-0.04415058
180	0x3bf172ea	0.007368435
181	0xbdadc50e	-0.08484851
182	0x3df044be	0.117318615
183	0x3db62a1c	0.088947505
184	0x3d74befe	0.059752457
185	0xbd556eee	-0.052107744
186	0x3dd23162	0.10263325
187	0x3cac87d7	0.021060867
188	0x3a99b0fc	0.0011725719
189	0x3e36053b	0.17775433
190	0x3d0f00fc	0.03491305
191	0xbd9a577e	-0.07536219
192	0x3dbb0258	0.091313064
193	0xbdaf1b7b	-0.08550163
194	0x3e1f3b0c	0.15549868
195	0x3d279a4e	0.04091864
196	0x3e03cf1d	0.12871976
197	0xbd9b9516	-0.07596795
198	0xbd1c0810	-0.038093626
199	0x3dc146e4	0.094373494
200	0x3dd14c2f	0.10219609
201	0x3e2164e9	0.1576115
202	0x3cc38768	0.023868278
203	0xbc427088	-0.01186765
204	0x3be65270	0.0070288703
205	0xbe10ec5f	-0.14152668
206	0x3debbf8d	0.11511145
207	0x3d81f318	0.063451946
208	0xbdf3542e	-0.118812904
209	0xbe09481d	-0.13406415
210	0x3d4cfabf	0.050043818
211	0x3de5d617	0.11222475
212	0x3d4b1720	0.0495826
213	0x3e12ff7c	0.14355272
214	0xbd87f389	-0.066382475
215	0x3d8b6aad	0.06807456
216	0xbdd49ac8	-0.10381085
217	0x3c099c7b	0.008399124
218	0xbdc001d7	-0.09375351
219	0x3d09b3e7	0.033618834
220	0xbd092aea	-0.03348819
221	0x3d9bdbc3	0.076102756
222	0xbc86cc4d	-0.01645484
223	0xbc21de63	-0.009879681
224	0x3d83648c	0.06415662
225	0xbddfc6ec	-0.10926613
226	0xbde1b44a	-0.110207155
227	0xbdce0b7f	-0.100607865
228	0x3d0f40f5	0.034974057
229	0x3dee55b2	0.11637439
230	0x3e0ea6f5	0.13930877
231	0x3e01f64c	0.12691611
232	0x3da7345c	0.08164284
233	0xbce73c19	-0.028226899
234	0xbbb3b902	-0.005484701
235	0x3d04c9b6	0.03241893
236	0x3e08c840	0.1335764
237	0x3d94f985	0.072741546
238	0x3da4ceed	0.080472805
239	0x3e461982	0.19345668
240	0x3e0aa4fc	0.13539499
241	0x3d45e2be	0.04831194
242	0xbccaa5f9	-0.024737345
243	0x3d851c0b	0.064994894
244	0x3dbe0985	0.092791595
245	0x3d84ab2f	0.06477963
246	0x3d5ffb09	0.054682765
247	0x3d632c97	0.055462446
248	0xbd7e4008	-0.062072784
249	0xbc949d38	-0.018141374
250	0x3de473fe	0.11154936
251	0xbcfa21a5	-0.030533621
252	0xbd26baf9	-0.040705655
253	0x3d946bd5	0.0724713
254	0x3e1e7c30	0.15477061
255	0xbd151b00	-0.036402702

encoder_lstm1.weight_hh_l0 f4 [256, 64]
0	0xbe001041	-0.125062
1	0xbbf93e62	-0.0076063136
2	0x3d99f5dc	0.07517597
3	0x3cd9d2e8	0.026589826
4	0xbc755a7a	-0.014975185
5	0xbdb15295	-0.086583294
6	0xbc9cb869	-0.019130902
7	0xbdc4cbba	-0.0960917
8	0xbe167de4	-0.14696461
9	0x3d16ad8a	0.036786593
10	0xbd842a61	-0.06453396
11	0xbd969bbd	-0.073539235
12	0x3cbcf553	0.023066198
13	0xbd8d1eaa	-0.06890614
14	0x3d61b3fd	0.05510329
15	0xbdeb51f1	-0.114902385
16	0xbc972535	-0.018450359
17	0xbdb7d625	-0.08976392
18	0xbc7845ed	-0.01515339
19	0x3e2cf984	0.16892058
20	0x3d4fecff	0.050763126
21	0x3d754201	0.0598774
22	0xbcf27aa7	-0.0295995
23	0xbd5ac191	-0.053407256
24	0x3d752d0f	0.059857424
25	0xbd122f26	-0.035689496
26	0xbe197d05	-0.14989097
27	0xbd6b9f2f	-0.057524856
28	0x3e0ab17f	0.13544272
29	0x3d6cfdb0	0.057859123
30	0xbdaee7cd	-0.08540306
31	0xbd574111	-0.052552287
32	0x3de12008	0.109924376
33	0xbd898835	-0.067154326
34	0x3c828d6d	0.015936578
35	0x3d515cfc	0.051114067
36	0xbdf45fd6	-0.11932342
37	0x3ce19602	0.02753735
38	0x3cb72610	0.022357017
39	0xbd90a181	-0.070620544
40	0x3cee6017	0.029098554
41	0x3e034141	0.12817861
42	0x3d31367d	0.043264855
43	0xbdc834d8	-0.09775704
44	0xbd4dd51b	-0.05025206
45	0xbe0f6650	-0.14003873
46	0x3d678137	0.056519713
47	0x3c46a544	0.012124363
48	0xbdd31884	-0.1030741
49	0xbde7996c	-0.1130856
50	0xbcff84bc	-0.031191222
51	0x3db557c0	0.088546276
52	0x3dd75fe4	0.105163366
53	0x3d230b32	0.0398056
54	0x3d8a5a00	0.067554474
55	0xbce95499	-0.028482722
56	0x3d1b745f	0.037952777
57	0x3b8c985d	0.004290624
58	0xbd2ee0d1	-0.04269487
59	0xbd8a4121	-0.067507036
60	0xbd0b10b9	-0.033951495
61	0xbc9539f8	-0.018216118
62	0x3d66e9b3	0.056375217
63	0x3d3f8519	0.04675779
64	0xbdaa870e	-0.08326541
65	0xbde5213f	-0.11187982
66	0xbdca2a57	-0.09871357
67	0xbde7a364	-0.11310461
68	0x3d625594	0.055257395
69	0x3dd7c108	0.10534865
70	0xbdbc9e20	-0.092098475
71	0x3d3d1940	0.04616666
72	0x3c942df8	0.018088326
73	0x3cdad20d	0.026711488
74	0x3d2d2774	0.042273954
75	0x3dbb4247	0.09143501
76	0x3d86114b	0.06546267
77	0x3d438a07	0.047739055
78	0xbdeb437d	-0.11487482
79	0xbdcd3684	-0.10020164
80	0xbc2a89e6	-0.010408854
81	0xbd88ca63	-0.06679227
82	0xbd340d0a	-0.043957748
83	0x3c31e90c	0.010858785
84	0xbdfa9786	-0.12235932
85	0xbd55a127	-0.05215564
86	0xbd88f150	-0.06686652
87	0x3d53a237	0.051668372
88	0x3d69fe24	0.057127133
89	0xbcefd494	-0.02927617
90	0xbce9f41b	-0.028558781
91	0xbde0d74e	-0.10978566
92	0x3dde6c95	0.10860554
93	0x3df81a07	0.12114339
94	0xbe054161	-0.13013221
95	0x3d877581	0.06614209
96	0xbd7b1397	-0.06129798
97	0x3dee5dfd	0.116390206
98	0x3df50a15	0.119648136
99	0xbd780369	-0.060550127
100	0xbd18732a	-0.037219204
101	0x3d993c5f	0.07482218
102	0xbdb7a402	-0.08966829
103	0xbe008656	-0.12551245
104	0xbdd9e4c2	-0.10639335
105	0xbde9a09c	-0.11407587
106	0xbd2e5a70	-0.042566717
107	0xbd83a057	-0.06427067
108	0xbdc29338	-0.09500736
109	0xbd07b8d7	-0.03313526
110	0xbd4229d1	-0.04740316
111	0x3d5710ea	0.052506365
112	0x3dd1d1b4	0.10245076
113	0x3d5383e4	0.051639453
114	0x3da33521	0.07969118
115	0x3e00fbc8	0.12596047
116	0xbd55252d	-0.052037407
117	0x3cb3c23a	0.0219432
118	0x3d74c3ac	0.05975692
119	0x3ba84ced	0.0051361234
120	0xbd338b56	-0.043834053
121	0x3dbf7c43	0.09349873
122	0x3d301bfb	0.042995434
123	0x3d544a64	0.051828757
124	0xbdeba096	-0.11505239
125	0xbd24e3eb	-0.040256422
126	0xbdeb13f1	-0.11478413
127	0xbcec6419	-0.028856324
128	0xbce50480	-0.027956247
129	0x3e0dc08c	0.13842982
130	0xbd95f67b	-0.07322403
131	0xbdadce10	-0.08486569
132	0xbdff4872	-0.1246499
133	0xbe0cf3e4	-0.13764912
134	0xbdee10f7	-0.116243295
135	0xbdeee7a6	-0.11665277
136	0x3d73101d	0.05934154
137	0x3d779760	0.060447097
138	0x3d9c8b5a	0.07643767
139	0x3d3fbe9a	0.04681263
140	0xbd373ef0	-0.044737756
141	0x3cd6b0f9	0.026207434
142	0xbc2e768f	-0.010648384
143	0xbd856123	-0.06512668
144	0x3b455434	0.0030110003
145	0x3dcc3624	0.09971264
146	0xbd06a99e	-0.032876603
147	0xbcec2b50	-0.028829247
148	0x3deb0706	0.11475949
149	0x3bf1746f	0.0073686163
150	0xbd9eddee	-0.077571735
151	0x3d43c9b2	0.047799774
152	0x3c3b7cd8	0.011443339
153	0x3d69fd14	0.05712612
154	0x3d8f0ac6	0.06984477
155	0xbd5a8e66	-0.053358458
156	0xbd508419	-0.05090723
157	0x3d4736da	0.048636295
158	0x3ca528ce	0.020161059
159	0xbdfdcd66	-0.12392692
160	0x3d16796a	0.036736883
161	0x3de68c88	0.11257273
162	0xbdd66ede	-0.10470365
163	0xbdbb8f85	-0.091582336
164	0x3c2db6a7	0.01060263
165	0xbde2b02e	-0.1106876
166	0xbdb078c0	-0.08616781
167	0x3c12f64e	0.008969856
168	0xbdbb7f42	-0.09155132
169	0x3e084afc	0.13309854
170	0x3d9f109d	0.077668406
171	0xbda9e23f	-0.08295106
172	0x3d752663	0.05985106
173	0xbd95a8f8	-0.07307619
174	0xbe07a122	-0.13245061
175	0x3daea238	0.085270345
176	0x3d3e8041	0.04650903
177	0x3d004dca	0.031324185
178	0x3cc14475	0.023592213
179	0x3d1c8578	0.038213223
180	0x3dda1a34	0.10649529
181	0x3dac71f9	0.08420176
182	0x3db68d56	0.089136764
183	0xbd650554	-0.055913284
184	0xbd169357	-0.036761608
185	0x3e0f16da	0.13973561
186	0x3d148e1a	0.03626833
187	0xbdd41710	-0.10355961
188	0xbde35824	-0.11100796
189	0xbdb241a4	-0.08703926
190	0x3dc2af58	0.095061004
191	0xbde6379a	-0.11241074
192	0xbd70736e	-0.058703832
193	0x3dd40f5f	0.10354494
194	0x3da5c088	0.08093363
195	0xbd3f1cb6	-0.04665824
196	0xbd92537a	-0.07144828
197	0xbc2dd7a3	-0.010610494
198	0x3d9f9f9b	0.07794114
199	0xbe1f3cbe	-0.15550515
200	0xbe097245	-0.13422497
201	0xbd989195	-0.074496426
202	0xbd68fe23	-0.05688299
203	0x3db6f702	0.08933832
204	0x3d8402c1	0.06445838
205	0xbda58142	-0.080812946
206	0xbe2a2dca	-0.1661903
207	0x3de420b5	0.11139051
208	0x3c3df776	0.011594644
209	0x3b3dc774	0.0028957995
210	0xbd61eff3	-0.055160474
211	0x3e1c8391	0.15284564
212	0xbd4c5430	-0.049884975
213	0xbcc0fc22	-0.023557726
214	0x3c49ef7f	0.012325167
215	0xbd220f37	-0.03956529
216	0x3dabb765	0.08384589
217	0xbd0b78f7	-0.034050908
218	0x3d8c32b8	0.06845611
219	0x3dc5eaf9	0.09663958
220	0x3db0e9bc	0.08638331
221	0xbd254df3	-0.04035754
222	0xbbd6bc51	-0.006553211
223	0xbdc258af	-0.09489571
224	0xbd983ebd	-0.074338414
225	0xbdbcb968	-0.09215051
226	0x3dbbc9a8	0.09169322
227	0xbd04d904	-0.032433525
228	0xbdc88300	-0.09790611
229	0x3d0b9518	0.034077734
230	0x3dcd9a44	0.100391895
231	0xbd0946d7	-0.033514824
232	0xbd9df5a3	-0.07712867
233	0x3d5ceadb	0.053934913
234	0x39a70316	0.0003185502
235	0xbdee22af	-0.11627709
236	0x3c0c4c32	0.008563088
237	0xbb8617f0	-0.004092209
238	0x3cfb27d2	0.030658636
239	0xbbe5c8d9	-0.0070124683
240	0x3d27cfca	0.040969647
241	0x3d83bb9f	0.0643227
242	0x3d2957cc	0.041343495
243	0x3bfcd7c5	0.0077161514
244	0x3d777ebc	0.060423598
245	0x3daebb80	0.085318565
246	0xbd68f41e	-0.056873433
247	0x3da807a4	0.08204582
248	0xbda33478	-0.07968992
249	0xbd13d8e1	-0.036095504
250	0x3d24f7ff	0.04027557
251	0x3db91141	0.09036494
252	0xbe1290cb	-0.14313047
253	0x3dc80f84	0.09768584
254	0x3a3d8cd4	0.0007230763
255	0x3d487eee	0.048949175

encoder_lstm1.bias_ih_l0 f4 [256]
0	0x3c4e9e16	0.012610933
1	0xbd995e43	-0.07488682
2	0x3d998e68	0.07497865
3	0xbc574961	-0.0131400535
4	0x3de9540d	0.113929845
5	0x3e18dd79	0.14928235
6	0x3d969e55	0.07354418
7	0x3bc1f508	0.0059191026
8	0xbdc5cb97	-0.09657972
9	0xbd85ea8c	-0.06538877
10	0x3deaacf8	0.114587724
11	0xbbb2a0cf	-0.005451299
12	0xbda4213c	-0.080141515
13	0x3dbefa44	0.09325078
14	0xbd19bb56	-0.037532173
15	0xbd61ba16	-0.055109106
16	0xbd41f71b	-0.0473548
17	0xbd85a0a3	-0.0652478
18	0xbdc9d2ab	-0.09854635
19	0xbdd44dd0	-0.10366404
20	0xbd93fe82	-0.07226278
21	0x3dfad154	0.122469574
22	0x3d3f7e14	0.046751097
23	0xbdb4e9b6	-0.08833639
24	0xbcc41c4c	-0.023939274
25	0xbd97d981	-0.074145325
26	0x3b83ad56	0.004018466
27	0x3bbc5bad	0.0057482333
28	0x3d30a75d	0.04312836
29	0xbdbf7c98	-0.09349936
30	0x3cc38e46	0.023871552
31	0x3e18e239	0.14930047
32	0x396b58bc	0.00022444403
33	0x3c9b4731	0.018954845
34	0xbd745886	-0.059654735
35	0x3db5ff5c	0.088865966
36	0xbd7bafca	-0.061446942
37	0xbd7ae27a	-0.06125114
38	0x3c4c6f33	0.012477684
39	0xbdaf58b8	-0.08561844
40	0xbd58166f	-0.05275577
41	0x3d4c2adc	0.04984556
42	0xbd2b0249	-0.041750226
43	0x3de63cca	0.11242063
44	0x3cceef3f	0.025260566
45	0xbe12a267	-0.14319764
46	0xbbfcdb79	-0.007716593
47	0x3e0e26b5	0.13881953
48	0xbdf046c3	-0.11732247
49	0xbda9c6b3	-0.08289852
50	0x3bfeae85	0.007772269
51	0x3d513ca7	0.051083233
52	0x3d95cf8a	0.073149756
53	0xbd571346	-0.052508615
54	0x3d735c8a	0.059414424
55	0x3d90f53b	0.07078024
56	0xbc473e6f	-0.012160881
57	0xbd692f69	-0.05692998
58	0xbd5b75be	-0.053579085
59	0xbb05ff93	-0.0020446524
60	0xbdc19804	-0.09452823
61	0x3c9438b9	0.018093454
62	0x3dc7b292	0.097508565
63	0x3d615169	0.05500928
64	0x3c30037e	0.01074302
65	0xbd68a426	-0.05679717
66	0x3d4a3668	0.049368292
67	0x3e052382	0.13001826
68	0x3db68c8e	0.089135274
69	0x3e202fe6	0.15643272
70	0x3d842503	0.06452372
71	0xbd373f44	-0.04473807
72	0x3dc67c67	0.096916966
73	0x3dd87e00	0.105709076
74	0xbdd81197	-0.1055023
75	0xbc87433c	-0.016511552
76	0xbdc6aa13	-0.09700408
77	0xbdc887df	-0.0979154
78	0x3e068102	0.1313515
79	0xbbb275a8	-0.0054461546
80	0x3da182b3	0.07886257
81	0xbdd6f557	-0.104960136
82	0xbdc85c17	-0.0978319
83	0xbbffa75c	-0.007801933
84	0xbd69032a	-0.056887783
85	0xbdba0725	-0.09083394
86	0xbd8948b9	-0.06703324
87	0xbda4fbf9	-0.080558725
88	0x3dd5411f	0.104128115
89	0xbc680523	-0.014161381
90	0xbd2ef5e6	-0.042714976
91	0xbca3b6f9	-0.01998471
92	0x3deec906	0.11659436
93	0x3caa74f2	0.020807717
94	0xbd09e01a	-0.033660986
95	0x3deb08a1	0.11476255
96	0xbcfa03da	-0.030519415
97	0x3b8e619a	0.004345131
98	0x3c6350e8	0.01387427
99	0x3dd77a9f	0.10521435
100	0x3ddbfcaf	0.10741555
101	0x3d973a66	0.073841855
102	0x3cffe046	0.031234872
103	0x3d5962cb	0.053072732
104	0x3d66851c	0.056279287
105	0xbcbf9494	-0.023386277
106	0xbd8fafbe	-0.07015942
107	0xbda92f3e	-0.08260964
108	0x3da055d8	0.078288734
109	0x3d983484	0.074318916
110	0x3de17f3d	0.11010597
111	0xbc7c1dcd	-0.015387964
112	0xbdb4f3bb	-0.088355504
113	0xbd2a7bdb	-0.041622024
114	0x3da1aedd	0.07894681
115	0x3d8c2f8c	0.06845006
116	0xbde1f720	-0.110334635
117	0x3e010503	0.12599568
118	0xbd1a28e8	-0.037636667
119	0x3dcdcafc	0.10048482
120	0x3de65694	0.11246982
121	0x3e0f9084	0.14019972
122	0x3ca338d6	0.019924562
123	0x3d8bd6de	0.06828092
124	0x3e15a512	0.1461375
125	0xbdbef7a9	-0.09324581
126	0xbdb5ad1b	-0.08870908
127	0xbcf510bc	-0.029915206
128	0xbdda05fe	-0.10645674
129	0x3d2bab36	0.041911326
130	0x3ddad149	0.10684449
131	0xbc83ab34	-0.016072847
132	0x3d92ad78	0.07161993
133	0x3db40acf	0.08791124
134	0x3ce5b377	0.028039677
135	0xbda9af41	-0.0828538
136	0xbbd70126	-0.006561416
137	0xbd724151	-0.05914432
138	0x3d08332e	0.033251934
139	0x3d849bfc	0.06475064
140	0x3d993839	0.07481427
141	0x3d52f4c6	0.051502965
142	0xbdd34238	-0.103153646
143	0x3ccaf80e	0.024776485
144	0xbd5f9ae0	-0.05459106
145	0x3c186299	0.009300851
146	0x3d085e6d	0.033293176
147	0xbe013562	-0.1261802
148	0x3d79fd2c	0.06103246
149	0x3dc1cb4b	0.09462603
150	0x3db0fed3	0.08642354
151	0xba96e587	-0.0011512496
152	0x3aaaf36e	0.0013042518
153	0x3da58ae5	0.08083133
154	0x3dbfb736	0.093611166
155	0xbdc67530	-0.096903205
156	0x3da00697	0.07813757
157	0xbdcc9492	-0.09989275
158	0xbd847ae3	-0.06468751
159	0x3dfd1c84	0.123589545
160	0xbdced89c	-0.10099909
161	0x3d6846c6	0.05670812
162	0x3c984ead	0.018592203
163	0x3d06e321	0.03293145
164	0xbdaf59c1	-0.08562041
165	0x3d6f9011	0.058487
166	0x3d3f8998	0.04676208
167	0xbe00cdf7	-0.1257857
168	0xbd06cadb	-0.0329083
169	0xbd31d5e6	-0.04341688
170	0x3ddde66f	0.10834967
171	0xbcbf78c6	-0.023373019
172	0x3d2d8797	0.042365637
173	0xbcbd87ad	-0.023135984
174	0xbd814330	-0.06311643
175	0x3ccb2364	0.024797149
176	0x3d9ad360	0.07559848
177	0xbdc72620	-0.09724069
178	0x3db5b745	0.088728465
179	0xbc8d5d55	-0.017256418
180	0x3cab66c9	0.020923035
181	0x3d3b4622	0.04572118
182	0x3df3f360	0.119116545
183	0x3c9bec79	0.019033657
184	0x3b421fd5	0.0029621024
185	0xbd353c6f	-0.044247087
186	0x3db269e8	0.08711606
187	0xbd20d80c	-0.03926854
188	0x3d88adb3	0.066737555
189	0x3d565c8d	0.052334357
190	0x3da09c01	0.078422554
191	0xbc58940e	-0.013218893
192	0x3d5e2e32	0.054243274
193	0x3d1ef6cd	0.038809586
194	0x3d3b940d	0.04579549
195	0x3d944c04	0.07241061
196	0xbc431562	-0.0119069535
197	0x3d82c828	0.06385833
198	0xbce3a0a7	-0.027786566
199	0xbdd88d60	-0.1057384
200	0xbda2149c	-0.07914087
201	0x3d267603	0.04063989
202	0x3d82e099	0.06390495
203	0x3d3ce901	0.046120647
204	0xbd8550fe	-0.06509589
205	0xbdfcb8f7	-0.12339967
206	0xbcf9ac8c	-0.030477785
207	0xbdb35d36	-0.08758013
208	0xbd8ccbe2	-0.06874825
209	0x3c27b171	0.010235176
210	0xbc94c402	-0.01815987
211	0x3cf98b3d	0.030461902
212	0x3d9340db	0.071901046
213	0xbda8e86a	-0.082474545
214	0xbd914ee2	-0.07095124
215	0x3e250aa6	0.16117343
216	0xbd5958c3	-0.053063165
217	0x3dc4b0b1	0.09604014
218	0x3d9d6524	0.07685307
219	0xbc25170e	-0.010076297
220	0x3debe55f	0.115183584
221	0x3cac1412	0.021005664
222	0xbd0c18dc	-0.034203395
223	0x3d240522	0.040043958
224	0x3de0fccf	0.109857194
225	0xbda929a8	-0.082598984
226	0xbd74a7c4	-0.059730306
227	0x3dce2038	0.10064739
228	0xbdea5780	-0.114424706
229	0x3d358a4a	0.044321336
230	0xbd599256	-0.053118072
231	0x3cd0cff0	0.025489777
232	0xbd401345	-0.046893377
233	0x3d2bc4a8	0.041935593
234	0x3b3c2d1e	0.0028713415
235	0xbcf8a24c	-0.030350827
236	0xbc3516fd	-0.011052844
237	0x3d7b4d12	0.061352797
238	0x3df4b28c	0.119481176
239	0x3d7c1692	0.061544962
240	0x3c13080d	0.008974087
241	0x3c76a989	0.015055069
242	0xbe09c1f9	-0.13452901
243	0x3e099c8f	0.13438629
244	0x3b99f300	0.0046981573
245	0xbd6fb39f	-0.05852091
246	0x3dc99748	0.09843308
247	0x3ce8086a	0.028324325
248	0xbdca2aa9	-0.09871418
249	0x3d2bb019	0.041915987
250	0x3d6c7135	0.05772515
251	0xbdab8d81	-0.08376599
252	0x3e08f632	0.13375166
253	0x3da094b2	0.078408614
254	0x3da58d5c	0.08083603
255	0xbd95ed71	-0.07320679

encoder_lstm1.bias_hh_l0 f4 [256]
0	0xbdddc7c7	-0.1082912
1	0x3ce38926	0.027775358
2	0x3d11acc3	0.03556515
3	0xbd05d3da	-0.03267274
4	0x39e1527a	0.00042976794
5	0x3de1bead	0.11022697
6	0x3e007d98	0.1254791
7	0x3dcdbeb9	0.10046143
8	0x3bc0aaa1	0.0058797156
9	0x3d76098b	0.060067695
10	0x3e023462	0.12715295
11	0x3d22b626	0.03972449
12	0xbdb1383e	-0.086533055
13	0x3d1df705	0.038565654
14	0x3c9fcb45	0.019506106
15	0x3debad12	0.1150762
16	0xbdea8ddc	-0.11452839
17	0xbcf2a26a	-0.02961846
18	0x3c77e48d	0.015130174
19	0x3ddb2f42	0.10702373
20	0x3d067ead	0.03283565
21	0xbd8cbb61	-0.06871677
22	0xbcec2950	-0.028828293
23	0x3da83026	0.082123086
24	0x3d4811ae	0.048844986
25	0xbda78203	-0.08179095
26	0xbd265328	-0.040606648
27	0xbd078c92	-0.033093043
28	0x3da2550b	0.07926377
29	0xbd959f14	-0.07305732
30	0xbbe76ea0	-0.007062748
31	0x3c506895	0.012720247
32	0x3c02f1c5	0.007992213
33	0xbd1c2b4a	-0.03812722
34	0xbe052a63	-0.1300445
35	0xbd72d892	-0.05928857
36	0xbd17bff3	-0.03704829
37	0xba9cd9a4	-0.0011966717
38	0xbdd1702b	-0.102264725
39	0xbd35b116	-0.044358335
40	0xbcc32acf	-0.023824124
41	0x3e122b65	0.14274366
42	0x3c9ad5dd	0.018900806
43	0x3cd576d1	0.026057633
44	0x3def1df4	0.11675635
45	0xbcbcb667	-0.023036195
46	0x3baaf48f	0.005217142
47	0x3d814801	0.06312562
48	0xbdba57cd	-0.09098778
49	0x3d9e9ba0	0.07744527
50	0x3cb9f4e0	0.022699773
51	0xbbf48fa3	-0.007463412
52	0xbdb92d0e	-0.090417966
53	0xbd14eb46	-0.036357187
54	0xbdf7b9bf	-0.12095975
55	0xbd23d2bf	-0.039995905
56	0xbcd32213	-0.025773084
57	0x3c504fb1	0.012714312
58	0x3dabea57	0.08394306
59	0x3da766ce	0.08173905
60	0x3c427e26	0.011870896
61	0xbd3730af	-0.044724163
62	0xbd76a897	-0.060219374
63	0xbd7bbe67	-0.06146088
64	0x3d16ab71	0.036784593
65	0xbcc2146d	-0.02369138
66	0x3ba60a71	0.0050671627
67	0xbc796ba5	-0.015223418
68	0x3e186015	0.14880402
69	0x3debe841	0.11518908
70	0x3d853148	0.0650354
71	0x3e038d16	0.12846789
72	0x3db577c3	0.08860733
73	0x3a070081	0.00051499164
74	0xbce5cbd6	-0.028051298
75	0x3be96199	0.0071222303
76	0xbda9bfdd	-0.08288548
77	0xbd98804b	-0.07446345
78	0xbd5a5fae	-0.053313904
79	0xbd7d309a	-0.06181393
80	0xbd06ad03	-0.03287984
81	0x3db6d02b	0.08926424
82	0x3deda34b	0.11603411
83	0xbce711c2	-0.02820671
84	0xbd829da8	-0.06377727
85	0xbc5c8d99	-0.013461494
86	0x3d1144f3	0.035466146
87	0xbd6b8cb5	-0.057507236
88	0xbd3540dd	-0.04425131
89	0xbcecdb5e	-0.028913196
90	0xbdca388a	-0.09874065
91	0xbdd8eff5	-0.10592643
92	0xbd0024ac	-0.031284973
93	0xbd174409	-0.036930118
94	0x3da1e941	0.07905818
95	0xbd485071	-0.04890484
96	0x3e1c3be3	0.1525722
97	0xbda2c0d2	-0.07946934
98	0x3d2f5587	0.042806175
99	0xbdbeadd1	-0.093104966
100	0x3d0f7c79	0.035030816
101	0x3c64dd53	0.013968783
102	0x3ca2ce8b	0.019873878
103	0xbd24cfa1	-0.040237073
104	0xbdb29df8	-0.087215364
105	0xbd4e1969	-0.0503172
106	0x3dcafeeb	0.09911903
107	0x3d66c9c8	0.056344777
108	0xbddb3b76	-0.10704701
109	0xbc84156b	-0.016123494
110	0xbdda929f	-0.10672497
111	0xbd34dbef	-0.044155058
112	0xbd8b48d8	-0.06801003
113	0x3ad49a04	0.0016220217
114	0x3d350363	0.044192683
115	0xbdb66a08	-0.089069426
116	0xbdc0be5e	-0.0941131
117	0xbd493584	-0.049123302
118	0x3d966776	0.07343952
119	0x3dada5b8	0.08478874
120	0xbda69be0	-0.081351995
121	0x3d403913	0.04692943
122	0xbcabada6	-0.020956825
123	0xbc68f9d5	-0.014219721
124	0x3d29fcf5	0.041501004
125	0x3dacbd25	0.08434514
126	0x3a296ff6	0.0006463522
127	0xbdd3340e	-0.10312663
128	0xbd7065c7	-0.058690812
129	0xbda7ebac	-0.08199248
130	0xbd4e0135	-0.05029412
131	0xbdd37b72	-0.1032628
132	0xbd63999d	-0.05556642
133	0x3af8b0fb	0.0018973643
134	0x3ce74667	0.028231813
135	0x3db468fd	0.088090874
136	0x3da8bdaa	0.082393005
137	0x3c47f33c	0.012203988
138	0xbc1b66b4	-0.009484936
139	0xbdb06a9b	-0.086140834
140	0xbd7c6299	-0.061617468
141	0xbdab50cb	-0.083650194
142	0x3dfb08b5	0.1225752
143	0xbdc5b955	-0.0965449
144	0x3da57206	0.08078389
145	0xbdb5912b	-0.08865579
146	0xbbad5dae	-0.0052907085
147	0x3dc66ba6	0.09688501
148	0x3c6b32e7	0.014355398
149	0x3d4e4c73	0.050365876
150	0xbcf54727	-0.029941155
151	0x3dabedd0	0.083949685
152	0x3df38152	0.118899
153	0x3d42b01c	0.047531232
154	0xbdc04ff8	-0.09390253
155	0x3d8e317f	0.069430344
156	0x3d7c1584	0.061543956
157	0xbcee21cb	-0.029068848
158	0x3c9c1d2d	0.01905688
159	0xbc7982c2	-0.015228929
160	0xbd25962f	-0.04042643
161	0x3d489812	0.04897315
162	0xbdf26744	-0.118361026
163	0xbdc34255	-0.09534136
164	0x3d112a6b	0.035440844
165	0xbd8cad5d	-0.06869004
166	0x3db0215d	0.086001135
167	0x3a1f75c0	0.0006082915
168	0xbcb37167	-0.02190466
169	0xbd877a6d	-0.06615148
170	0x3dd4749d	0.10373805
171	0xbda06f8b	-0.07833775
172	0xbd816765	-0.06318549
173	0x3d5280a5	0.051392216
174	0xbb0743b0	-0.002063971
175	0xbdec1c45	-0.115288295
176	0x3bfc78bc	0.0077048223
177	0xbce3e16c	-0.02781745
178	0x3d8e0825	0.06935147
179	0x3d8e57be	0.06950329
180	0x3b9d7f59	0.004806441
181	0xbd916ce6	-0.07100849
182	0x3d680ded	0.056653906
183	0x3cadca12	0.021214519
184	0xbd14a0f2	-0.036286302
185	0x3cc6c378	0.024263129
186	0x3dc2049a	0.09473534
187	0xbb1aa78a	-0.0023598396
188	0xbd81f6f7	-0.06345933
189	0x3c1e2e44	0.009654585
190	0x3cbf9fb9	0.023391591
191	0xbd2f53ee	-0.04280465
192	0xbd3624b4	-0.044468597
193	0x3d4740af	0.04864567
194	0xbd914f59	-0.070952125
195	0x3d911d12	0.07085623
196	0xbc6e1e11	-0.014533536
197	0xbd8c5986	-0.06853013
198	0x3df9227c	0.121647805
199	0x3dd0364e	0.10166608
200	0xbcb877c4	-0.022518046
201	0x3d6a59d3	0.05721457
202	0x3caaf3f3	0.020868277
203	0xbc58b8cf	-0.013227656
204	0xbd0e5c2f	-0.034755882
205	0xbc541ab5	-0.012945821
206	0x3d7c514b	0.061600965
207	0xbd662547	-0.056187894
208	0x3bc308dd	0.0059519843
209	0xbd82119b	-0.06351014
210	0x3d8f0d79	0.069849916
211	0x3d15ac21	0.036541108
212	0x3e03a132	0.1285446
213	0x3d43cc7e	0.04780244
214	0x3d3f0a8d	0.04664092
215	0x3dc50169	0.096194096
216	0x3da363e2	0.079780355
217	0x3dec4117	0.115358524
218	0x3c29a070	0.010353193
219	0xbbbace7e	-0.0057008853
220	0xbd1180df	-0.03552329
221	0x3d203335	0.039111335
222	0xbd718495	-0.05896433
223	0x3dc736de	0.09727262
224	0x3cd901f5	0.026490191
225	0xbd02203b	-0.03176902
226	0x3d204b44	0.03913428
227	0xbc6dcdb3	-0.014514375
228	0xbdb3429e	-0.087529406
229	0x3c588e4f	0.013217523
230	0xbdb6bc84	-0.08922675
231	0x3d58d7e2	0.052940257
232	0x3d972aca	0.07381208
233	0x3d8fb253	0.070164345
234	0xbde6821a	-0.11255284
235	0x3ddad64b	0.106854044
236	0xbd408021	-0.046997193
237	0xbe0df22e	-0.13861915
238	0xbd0d5bfd	-0.034511555
239	0xbd4a3d38	-0.04937479
240	0xb9dcded3	-0.00042127687
241	0x3d3f5306	0.046710037
242	0xbda8c323	-0.082403444
243	0x3b8890d4	0.0041676555
244	0xbd0d04db	-0.03442846
245	0xbd7118db	-0.058861595
246	0x3df3318b	0.11874684
247	0xbd9c99ea	-0.07646544
248	0x3db82825	0.08992032
249	0x3b58dc0b	0.003309014
250	0x3c941cf2	0.018080208
251	0x3d408913	0.047005724
252	0x3d8e8261	0.069584616
253	0x3d476eb0	0.048689544
254	0xbd5685b9	-0.05237362
255	0xbc264a0f	-0.010149493

encoder_lstm2.weight_ih_l0 f4 [128, 64]
0	0xbe27c6b6	-0.16384396
1	0x3d1c0314	0.038088873
2	0x3e0aada8	0.13542807
3	0xbdee355a	-0.1163127
4	0xbde54f1c	-0.111967295
5	0x3de77abb	0.11302706
6	0x3d37bdfd	0.04485892
7	0x3c462ded	0.0120959105
8	0xbe385115	-0.1799968
9	0xbdd7d0e8	-0.105378926
10	0x3dfbbbaf	0.12291657
11	0x3d806aca	0.062703684
12	0xbd6bfcff	-0.057614323
13	0x3e269c53	0.1627057
14	0xbdec7242	-0.115452304
15	0x3dbaa4fe	0.09113501
16	0x3e0cf0de	0.13763759
17	0xbe22d8d8	-0.15903032
18	0x3dae787e	0.08519076
19	0xbc6855f1	-0.014180646
20	0x3cb68bd9	0.022283481
21	0x3cef188e	0.029186513
22	0xbd2cb294	-0.042162493
23	0x3d775f18	0.060393423
24	0xbcf1cb4a	-0.029515881
25	0xbd415191	-0.04719693
26	0xbbec26f5	-0.0072067925
27	0xbc853db8	-0.016264781
28	0x3e1bfb0b	0.15232484
29	0xbe273313	-0.16328077
30	0xbd301c51	-0.042995755
31	0xbe382575	-0.17983039
32	0x3ded34c1	0.11582328
33	0x3da6c8d6	0.08143775
34	0xbe37ab61	-0.1793647
35	0x3d8591ab	0.065219246
36	0x3e15d7ce	0.14633104
37	0x3d14a8f8	0.036293954
38	0x3da86c14	0.08223739
39	0x3d8de04c	0.06927547
40	0xbe051c3d	-0.12999053
41	0x3daae9d2	0.08345379
42	0x3dc3cfff	0.095611565
43	0x3dab46c7	0.08363109
44	0x3d2303df	0.039798614
45	0x3d9deede	0.07711576
46	0xbde1c499	-0.11023826
47	0x3dfb0693	0.12257113
48	0xbe0c220a	-0.1368486
49	0xbe03171a	-0.12801781
50	0xbd595ef1	-0.05306906
51	0xbdfb3203	-0.12265398
52	0x3d3676f7	0.044547047
53	0x3d28e45e	0.041233413
54	0x3de084db	0.1096284
55	0x3d6d596c	0.057946607
56	0x3dae0e87	0.084988646
57	0xbe0904e4	-0.13380772
58	0xbdd7636e	-0.105170116
59	0xbd8c985f	-0.06865
60	0xbe0f67fb	-0.14004509
61	0xbdd7de1e	-0.10540412
62	0xbd6da982	-0.058022983
63	0x3e0e259e	0.13881537
64	0x3da6e77f	0.08149623
65	0xbdd5f4bf	-0.10447072
66	0xbd62454a	-0.05524186
67	0x3db09ca4	0.08623627
68	0x3e1361c1	0.14392759
69	0x3d7dce22	0.06196416
70	0xbe218abb	-0.15775578
71	0xbdfa15a4	-0.12211159
72	0x3df3325b	0.11874839
73	0xbc093943	-0.008375469
74	0xbd7ab06e	-0.061203413
75	0xbbfa0418	-0.0076298825
76	0xbe0591e9	-0.13043942
77	0x3ccff16f	0.02538368
78	0xbe54e11e	-0.20789
79	0x3da24f96	0.07925336
80	0x3e0e845b	0.13917677
81	0xbc48eee4	-0.012263987
82	0xbda50e9a	-0.08059426
83	0x3c7a766c	0.015287023
84	0x3d894cd2	0.067041054
85	0xbc56bf4e	-0.013107134
86	0xbd9ed17e	-0.07754801
87	0x3da69a56	0.08134906
88	0xbb8beba7	-0.0042700353
89	0xbdccf337	-0.10007327
90	0xbe41f41c	-0.18940777
91	0x3e01936f	0.12653898
92	0x3e2be0ea	0.16785017
93	0xbc9c6e22	-0.019095484
94	0xbdafc104	-0.08581737
95	0xbd96058b	-0.07325276
96	0x3de3aa26	0.111164376
97	0x3e3d378f	0.18478225
98	0xbda02ae0	-0.07820678
99	0x3bc9fde1	0.006164298
100	0x3d29c95c	0.041451797
101	0x3e1a6dc9	0.15080942
102	0xbd0e1fbf	-0.034698244
103	0x3d3049cc	0.04303913
104	0x3e1b073a	0.15139475
105	0x3e057c15	0.13035615
106	0x3dd035ec	0.10166535
107	0xbd6ad31d	-0.05733024
108	0x3d063e14	0.032774046
109	0xbdab0779	-0.08351035
110	0x3e0567fb	0.13027947
111	0xbdbea0db	-0.093080245
112	0xbe23528c	-0.15949458
113	0x3b40b67c	0.0029405644
114	0xbe2d8718	-0.16946065
115	0x3e38c460	0.18043661
116	0x3e257e75	0.16161521
117	0xbc930736	-0.017947774
118	0xbe282508	-0.16420376
119	0xbe0a38d8	-0.13498247
120	0x3d84a5e5	0.06476954
121	0xbd86d1f6	-0.065830156
122	0x3e241d50	0.16026807
123	0xbe304bfe	-0.17216489
124	0xbd99dffc	-0.07513425
125	0x3e007f5e	0.12548587
126	0x3d4e1553	0.050313305
127	0xbc1bbbfe	-0.00950527
128	0xbdf72d34	-0.12069169
129	0x3e2ab343	0.16669945
130	0xbd5d544e	-0.054035477
131	0xbe558bf4	-0.20854169
132	0xbdff86ff	-0.1247692
133	0x3d82e657	0.0639159
134	0x3ddd118a	0.10794361
135	0xbda220c2	-0.07916404
136	0xbd064109	-0.032776866
137	0xbe1399d3	-0.14414148
138	0x3e03f210	0.12885308
139	0x3dca3f13	0.09875312
140	0x3d986d32	0.07442702
141	0xbd1d35eb	-0.0383815
142	0x3dc12019	0.0942995
143	0x3e347004	0.17620856
144	0x3dd42a6c	0.10359654
145	0xbd2910f3	-0.04127593
146	0x3a9578a5	0.0011403753
147	0xbd9e14d1	-0.07718814
148	0x3d2eea57	0.042703953
149	0xbda5936e	-0.080847606
150	0xbdae7678	-0.0851869
151	0xbdfb2949	-0.12263734
152	0xbd8a3291	-0.06747926
153	0x3d85c144	0.06531003
154	0xbe1f2d1d	-0.15544553
155	0xbd8ab68a	-0.06773098
156	0x3dfb7d86	0.12279801
157	0x3e5694d8	0.20955217
158	0xbdf9e2eb	-0.12201484
159	0x3c7a1cc0	0.015265644
160	0x3ceed983	0.029156452
161	0xbd448e3d	-0.04798721
162	0xbdf2db04	-0.1185818
163	0xbcccf58d	-0.025019431
164	0x3dd6d772	0.10490312
165	0xbe2a380c	-0.16622943
166	0xbd3f0a2b	-0.046640556
167	0xbe501598	-0.20320737
168	0xbde04ff6	-0.10952751
169	0x3d510ab5	0.0510356
170	0x3d3b9f8d	0.045806456
171	0x3d970ab5	0.07375089
172	0xbd05c4c7	-0.032658365
173	0xbe1d92cf	-0.15388034
174	0xbdd5b972	-0.104357615
175	0xbd7793ff	-0.060443874
176	0x3d7ae89b	0.061256986
177	0x3df581f4	0.11987677
178	0xbdd9b1cb	-0.106296144
179	0x3e08743d	0.13325591
180	0xbc23acf7	-0.0099899685
181	0x3d95f971	0.07322968
182	0xbdc8d990	-0.09807122
183	0x3dda4bf3	0.106590174
184	0xbe033dc4	-0.1281653
185	0xbcb21ab0	-0.021741241
186	0x3e172590	0.14760423
187	0xbda21b79	-0.07915396
188	0xbe042a6c	-0.12906808
189	0xbd86822e	-0.065677986
190	0xbd1ecf2c	-0.038771793
191	0xbd9e2547	-0.07721954
192	0x3dff2bec	0.12459549
193	0xbe066a61	-0.13126518
194	0x3e11d848	0.14242661
195	0x3e02b811	0.12765528
196	0x3d791bc4	0.060817495
197	0x3da60677	0.08106702
198	0x3e03d0e0	0.12872648
199	0xbe31808d	-0.17334194
200	0xbe43e3d5	-0.1912988
201	0xbd2fa156	-0.04287847
202	0x3e348abe	0.17631051
203	0xbd8cabaa	-0.0686868
204	0x3db7c3e8	0.08972913
205	0x3e126ef6	0.1430014
206	0xbe0b83ec	-0.13624543
207	0x3dc3c38a	0.095587805
208	0xbdb52d1b	-0.08846494
209	0xbdbd5d70	-0.092463374
210	0xbe2354ac	-0.15950269
211	0xbd24442e	-0.040104084
212	0xbc7dd89a	-0.015493536
213	0x3dc7d31d	0.097570635
214	0xbe1efa5d	-0.15525194
215	0x3cab28d3	0.02089349
216	0x3dc0b208	0.09408957
217	0xbd56b943	-0.052422773
218	0x3dec7bcc	0.1154705
219	0x3b84b635	0.004050041
220	0xbd813d42	-0.06310512
221	0x3d1e38fd	0.038628567
222	0x3e09dd41	0.13463308
223	0xbc6cefbb	-0.014461453
224	0x3dcf396a	0.10118373
225	0x3d18746c	0.037220404
226	0xbe17cee8	-0.14825022
227	0xbc815063	-0.015785402
228	0x3e274c27	0.16337644
229	0x3dd8a62e	0.10578571
230	0x3e4da559	0.20082606
231	0xbe5b2300	-0.2140007
232	0xbdec8130	-0.11548078
233	0xbbc1d3d3	-0.005915144
234	0x3e27a57c	0.16371721
235	0x3dd23dda	0.102657035
236	0x3dbaeaaf	0.091267936
237	0x3b6f5bef	0.0036523303
238	0xbe056be7	-0.13029443
239	0x3df5f76e	0.12010084
240	0x3c8ef30a	0.017449874
241	0xbdf9d1f2	-0.12198247
242	0x3e05cc7f	0.1306629
243	0x3e1f2629	0.155419
244	0x3e3b2b56	0.1827825
245	0xbdc31cd2	-0.095269814
246	0x3e40f6ab	0.18844096
247	0x3dafa467	0.08576279
248	0xbdacb01e	-0.08432029
249	0xba86750d	-0.0010258273
250	0xbe0e9039	-0.13922204
251	0xbdb2fa16	-0.08739106
252	0xbd8ceef7	-0.068815164
253	0xbd8a6ff7	-0.06759637
254	0x3d9b8d4d	0.0759531
255	0xbdce80f1	-0.10083187

encoder_lstm2.weight_hh_l0 f4 [128, 32]
0	0x3e35b6ca	0.1774551
1	0x3db184fd	0.086679436
2	0x3b363a44	0.0027805725
3	0xbe4d19c0	-0.20029354
4	0xbcaff1e5	-0.021477649
5	0x3da3ffe5	0.080077924
6	0xbe0887e4	-0.13333088
7	0xbe3e2522	-0.18568853
8	0x3d4fb082	0.05070544
9	0xbe422786	-0.1896039
10	0x3d3ac2a8	0.045595795
11	0xbe4806a8	-0.19533789
12	0x3e52593f	0.20541857
13	0x3d549520	0.05190003
14	0x3c4116b0	0.011785194
15	0xbd22d9a5	-0.039758343
16	0xbd908c03	-0.07057955
17	0xbc4fd83b	-0.012685831
18	0x3d0b6902	0.03403569
19	0xbb0f0834	-0.0021824958
20	0xbd63b0e9	-0.055588637
21	0x3e0d4849	0.13797106
22	0xbd28eaa5	-0.0412394
23	0x3d819dae	0.06328903
24	0xbdb8ced3	-0.090238236
25	0x3d490db9	0.049085353
26	0x3c23ff12	0.010009544
27	0xbe1df97a	-0.15427199
28	0x3cad0fc5	0.021125684
29	0x3e59af20	0.21258211
30	0x3e21f200	0.15814972
31	0x3dbde2d1	0.092717774
32	0xbdf32137	-0.118715696
33	0x3da8e99a	0.08247681
34	0xbcfd0fae	-0.030891266
35	0xbe0fa77f	-0.14028738
36	0xbc9315b8	-0.017954692
37	0xbe438e67	-0.19097291
38	0xbd997e9c	-0.07494852
39	0x3d870304	0.06592372
40	0xbd96dad7	-0.07365959
41	0x3c2bf7c8	0.010496087
42	0x3dfc3d93	0.12316432
43	0x3ad837fa	0.0016496175
44	0xbdaf2280	-0.08551502
45	0xbdc9705f	-0.09835886
46	0x3ddced86	0.107874915
47	0x3e242192	0.16028431
48	0x3dd05c7f	0.10173892
49	0xbe253663	-0.16134028
50	0x3d19788a	0.03746847
51	0xbce1d3f6	-0.027566891
52	0x3dd333f9	0.10312647
53	0xbd01f8c0	-0.031731367
54	0x3d8f5c68	0.07000047
55	0x3ddb4f3e	0.107084736
56	0xbd7706d6	-0.060309254
57	0x3e17f6a2	0.14840177
58	0x3d75fecc	0.060057446
59	0xbde51f4e	-0.111876115
60	0x3d619118	0.055070013
61	0x3cb4cf43	0.022071486
62	0x3dd5db31	0.10442198
63	0x3dee68f1	0.1164111
64	0x3e464fbb	0.19366352
65	0xbcb796eb	-0.02241083
66	0xbdc38a7e	-0.095479
67	0xbe493bb6	-0.19651684
68	0x3ccc3612	0.024928126
69	0xbe168d17	-0.14702259
70	0xbe0aa7fa	-0.1354064
71	0xbe4223a0	-0.18958902
72	0x3d734d0e	0.059399657
73	0x3dbef63e	0.09324311
74	0x3daf6016	0.08563249
75	0xbe31e6d8	-0.17373216
76	0x3d8316df	0.06400847
77	0xbc72dc7f	-0.014823078
78	0x3dcd3227	0.100193314
79	0xbdcf783b	-0.10130354
80	0x3d80868d	0.062756635
81	0x3d49e98b	0.04929499
82	0xbd154655	-0.036444027
83	0xbd4b8355	-0.049685795
84	0x3debe9ed	0.11519227
85	0x3e1f8c2a	0.15580812
86	0xbda8c533	-0.08240738
87	0xbd0e0b95	-0.034679014
88	0xbd4f7d8c	-0.05065684
89	0xbd9db966	-0.077013776
90	0xbe08a55e	-0.13344333
91	0x3e172835	0.14761432
92	0xbd56a8d8	-0.052407116
93	0xbe0965ca	-0.13417736
94	0x3e02f53a	0.12788859
95	0xbde46564	-0.11152151
96	0xbe1cafc7	-0.15301429
97	0x3d6f42c8	0.058413297
98	0x3e32e8fc	0.17471689
99	0xbcdc013f	-0.026856063
100	0x3df04423	0.11731746
101	0x3e493840	0.19650364
102	0xbe4ccd43	-0.20000176
103	0xbd8bd59f	-0.06827854
104	0xbd658196	-0.056031786
105	0x3e0ac375	0.13551123
106	0x3ccc905d	0.024971182
107	0x3e15d06b	0.14630286
108	0x3e0250b5	0.127261
109	0xbc96e327	-0.018418862
110	0xbc93ad0c	-0.018026851
111	0xbaa6f885	-0.001273886
112	0x3e318e26	0.17339382
113	0x3dbd0e05	0.0923119
114	0x3d7b2e9d	0.06132375
115	0xbe0e677c	-0.13906664
116	0x3e2a6df0	0.166435
117	0xbdf0f373	-0.11765184
118	0x3e4d64e0	0.20058012
119	0x3c2c189e	0.010503916
120	0x3e1ed96e	0.1551263
121	0xbdf765a0	-0.1207993
122	0x3e3e1031	0.18560864
123	0x3e007a8b	0.12546746
124	0x3e15f167	0.14642869
125	0x3e123498	0.14277875
126	0x3de79629	0.11307938
127	0xbdcbfa65	-0.09959868
128	0xbc16f230	-0.009213015
129	0xbe0d6c74	-0.13810903
130	0xbe00a26a	-0.12561956
131	0x3c779166	0.015110349
132	0xbdf3373f	-0.11875772
133	0xbac9192a	-0.0015342582
134	0xbdbcb1e5	-0.09213618
135	0xbcae775e	-0.021297153
136	0xbdba113f	-0.09085321
137	0xbe337933	-0.17526703
138	0x3d592080	0.05300951
139	0xbe713e62	-0.23558953
140	0x3e154287	0.1457616
141	0x3e27bd12	0.16380718
142	0xbd8c5fd8	-0.06854218
143	0xbe044763	-0.12917857
144	0xbd6f32cf	-0.058398064
145	0xbe209ab9	-0.15684022
146	0x3e207acd	0.15671845
147	0x3e1cf9cc	0.15329665
148	0x3d617f90	0.055053294
149	0xbcb78bce	-0.022405531
150	0x3cd77fe1	0.026306095
151	0x3d0af89b	0.033928495
152	0xbded93dd	-0.11600468
153	0xbd223ad2	-0.039606877
154	0x3e5d16b4	0.21590692
155	0xbdbe06aa	-0.09278615
156	0x3e13265a	0.14370099
157	0xbdd05d68	-0.10174066
158	0xbc37334d	-0.011181665
159	0x3dcd71f3	0.100315
160	0x3e438db0	0.19097018
161	0xbe4ab220	-0.19794512
162	0xbdcf8e60	-0.10134578
163	0xbbdeb30c	-0.0067962464
164	0xbcf8d5cd	-0.030375386
165	0xbd187e88	-0.037230045
166	0xbd5d23aa	-0.05398909
167	0xbdc770a7	-0.097382836
168	0x3d8bd68a	0.068280295
169	0x3d3aaba2	0.045573838
170	0xbce089ec	-0.027409516
171	0xbe6e3b4c	-0.23264807
172	0xbb99cafd	-0.0046933875
173	0xbe03cbe2	-0.12870744
174	0x3e175c0d	0.14781208
175	0x3c8e355e	0.017359432
176	0xbdee77ea	-0.116439655
177	0xbe430b0b	-0.19047181
178	0xbdecf48c	-0.11570081
179	0xbdb52a7d	-0.088459946
180	0x3e266ec5	0.16253193
181	0x3de3f281	0.11130238
182	0xbdbb0d49	-0.09133393
183	0x3b2fc761	0.002682172
184	0xbd549d4f	-0.051907834
185	0x3d450af1	0.048106138
186	0xbda6f36c	-0.08151898
187	0xbc2eea08	-0.010675915
188	0xbde6bc5d	-0.11266396
189	0x3dfd944d	0.12381802
190	0xbb9ee23c	-0.0048487466
191	0x3e031a8a	0.12803093
192	0xbd36fadf	-0.044672843
193	0x3da290bf	0.079377644
194	0x3df5d9dc	0.12004444
195	0xbe279be7	-0.16368066
196	0xbe10a1b5	-0.14124186
197	0xbd6f9b56	-0.05849775
198	0x3e0c8879	0.13723935
199	0xbe351c36	-0.17686543
200	0xbbfff2ba	-0.0078109177
201	0x3ce66a7f	0.028126953
202	0xbd8291c6	-0.0637546
203	0x3d9aa65d	0.075512625
204	0x3e415ff0	0.18884254
205	0xbcac0ce3	-0.021002239
206	0xbdbf85b4	-0.09351674
207	0x3d193ab5	0.037409503
208	0x3b8a01f3	0.004211658
209	0xbe3b661d	-0.18300672
210	0x3da53507	0.08066755
211	0x3de44642	0.11146213
212	0xbe3f1717	-0.18661152
213	0xbe0a8d87	-0.13530551
214	0x3d5b7bf9	0.053585026
215	0x3d24b8b8	0.040215224
216	0x3e192d00	0.14958572
217	0xbde966ca	-0.113965586
218	0xbdbe745f	-0.0929954
219	0xbe2efed1	-0.17089392
220	0xbb5f4a9c	-0.003407157
221	0xbdf7425c	-0.12073204
222	0xbd77adb0	-0.060468376
223	0xbe17b740	-0.14815998
224	0x3d2f9082	0.042862423
225	0x3e0bea43	0.13663583
226	0xbdea9422	-0.11454035
227	0xbe06cc2d	-0.13163824
228	0xbd8d4e83	-0.068997405
229	0x3e2cb6b7	0.16866575
230	0xbdd61744	-0.10453656
231	0xbdcd1c10	-0.10015118
232	0x39e242df	0.00043155902
233	0x3d81adc7	0.063319735
234	0x3de2f773	0.110823534
235	0xbdfc355f	-0.12314867
236	0x3db6eb08	0.089315474
237	0x3e1c5baf	0.1526935
238	0xbe07145a	-0.13191357
239	0xbe64ff2b	-0.22362964
240	0xbdd482c0	-0.10376501
241	0x3bc049f9	0.005868193
242	0xbce15d9b	-0.027510455
243	0x3d3c4dff	0.04597282
244	0xbd9b6bc6	-0.075889155
245	0x3e0adf45	0.13561733
246	0xbd3cecd0	-0.04612428
247	0xbde034ee	-0.109475955
248	0x3d2c4f87	0.04206803
249	0x3e017f0f	0.12646125
250	0x3cb91c4a	0.022596497
251	0x3e11ad4a	0.14226261
252	0x3e0d7639	0.1381463
253	0xbe0860db	-0.13318197
254	0xbcc27eed	-0.023742164
255	0x3d085600	0.03328514

encoder_lstm2.bias_ih_l0 f4 [128]
0	0xbd44c2df	-0.048037406
1	0xbe268ac1	-0.16263868
2	0xbd37306f	-0.044723924
3	0xbdc25e63	-0.09490659
4	0xbe2f8af8	-0.17142856
5	0xbd6c6dc1	-0.057721857
6	0x3d476649	0.04868153
7	0x3c51015c	0.012756672
8	0x3db50389	0.08838565
9	0xbdad2c3d	-0.084557034
10	0x3d371cdb	0.044705253
11	0x3d9f9e20	0.07793832
12	0x3d163346	0.036669992
13	0xbd17b3c5	-0.037036676
14	0x3d866f57	0.06564205
15	0x3e28f5c3	0.165
16	0x3cf4dabf	0.029889463
17	0x3df46550	0.11933386
18	0xbe0006b8	-0.12502563
19	0x3e1d6bd8	0.1537317
20	0xbdca5409	-0.0987931
21	0x3e1571f0	0.14594245
22	0x3e0dd86e	0.13852093
23	0xbd9b81d4	-0.07593122
24	0x3dee0c9c	0.11623499
25	0xbdbb70de	-0.09152387
26	0xbd6e35b2	-0.058156677
27	0xbc9b21c4	-0.018937
28	0xbe042512	-0.12904766
29	0x3dfcd40c	0.12345132
30	0xbaecd088	-0.0018067518
31	0x3d5ce03f	0.053924795
32	0x3c9981e1	0.018738689
33	0xbd90de71	-0.07073677
34	0x3d9c86de	0.076429114
35	0xbc8c31e5	-0.017113635
36	0x3e15845b	0.14601271
37	0xbe14f8fa	-0.14548102
38	0xbcfb9882	-0.03071237
39	0xbd31008c	-0.043213412
40	0xbd961cbf	-0.07329702
41	0x3e1ada7f	0.15122412
42	0xbb22a727	-0.002481887
43	0xbd2fbf01	-0.042906765
44	0x3e12fe00	0.14354706
45	0xbdc3ccfb	-0.09560581
46	0x3dd3bcb6	0.10338728
47	0x3ca8557e	0.020548578
48	0xbe0ac147	-0.13550292
49	0x3e041188	0.12897313
50	0xbab8373b	-0.0014054546
51	0x3dcab500	0.09897804
52	0xbc94498d	-0.018101478
53	0x3d8452c1	0.064610966
54	0x3d6108e3	0.054940116
55	0xbd46ff74	-0.048583463
56	0xbcbd57ed	-0.023113215
57	0xbdcfca3b	-0.10145994
58	0x3d9811f1	0.07425297
59	0x3deb7062	0.11496045
60	0xbd988fcf	-0.07449304
61	0x3de9ec50	0.11422026
62	0x3e33cc9f	0.17558526
63	0x3db16081	0.08660985
64	0x3dd828c3	0.1055465
65	0xbe1c705d	-0.15277238
66	0x3d16bd5e	0.03680169
67	0xba8e713d	-0.0010867488
68	0x3de08113	0.10962119
69	0x3e053663	0.13009028
70	0xbaeae4d1	-0.0017920976
71	0xbe2b9abf	-0.1675825
72	0x3c997079	0.018730389
73	0xbd54f7ea	-0.05199424
74	0xbd8b4dd5	-0.06801955
75	0x3e1ad203	0.15119176
76	0x3cbcec97	0.023062034
77	0x3e3449a8	0.17606223
78	0x3a1edbd8	0.0006059981
79	0x3cf8ab71	0.030355187
80	0x3d127c93	0.035763334
81	0xbda10419	-0.0786211
82	0x3dda50cc	0.10659942
83	0xbdf1e644	-0.11811498
84	0x3c5cac33	0.01346879
85	0xbe247db8	-0.16063583
86	0x3dd94894	0.10609546
87	0xbe232b29	-0.15934433
88	0x3ce8fbb6	0.028440338
89	0x3d84df22	0.06487872
90	0xbdeaec27	-0.11470824
91	0xbd4b3b2f	-0.04961699
92	0x3d493d43	0.04913069
93	0xbde1cdb1	-0.11025561
94	0xbc869c54	-0.016431965
95	0x3dcb5380	0.09928036
96	0xbdf867cf	-0.12129175
97	0xbd73b50d	-0.059498835
98	0x3e57f7cf	0.21090625
99	0xbd5fad35	-0.054608542
100	0x3d5f0a2d	0.054453064
101	0xbe29b903	-0.16574483
102	0xbd812607	-0.06306081
103	0xbdef9fe7	-0.11700421
104	0x3de9dd0f	0.11419117
105	0x3e35fa1e	0.17771193
106	0x3e172139	0.14758767
107	0xbd1db168	-0.038499266
108	0x3cae128b	0.021249076
109	0x3e408b11	0.1880305
110	0xbdfedc92	-0.12444414
111	0x3c9df182	0.019280199
112	0xbdf2fda5	-0.11864785
113	0xbdc4dadd	-0.09612057
114	0x3e2a7fd4	0.16650325
115	0xbd02d215	-0.03193863
116	0xbdd1db15	-0.10246865
117	0x3e51baf6	0.20481476
118	0x3dbc1a43	0.091846965
119	0x3e09738b	0.13422982
120	0xbdcd2572	-0.10016908
121	0x3e0ed0ce	0.1394684
122	0x3cc9baa0	0.024625123
123	0xbe146e8d	-0.14495297
124	0x3d793d58	0.060849518
125	0x3c09adbb	0.008403237
126	0x3e4e64d6	0.20155653
127	0x3d12361b	0.03569613

encoder_lstm2.bias_hh_l0 f4 [128]
0	0xbd5127f7	-0.051063504
1	0x3deda805	0.11604313
2	0xbe1f9996	-0.15585932
3	0x3c3495a0	0.0110220015
4	0xbd3c260c	-0.04593472
5	0xbce7353b	-0.028223624
6	0xbcb4f211	-0.022088083
7	0x3d7cea20	0.061746716
8	0x3d03a1d2	0.032136746
9	0xbd98d93f	-0.074633114
10	0x3e2234b0	0.15840411
11	0x39684cbc	0.0002215383
12	0x3dc227e3	0.09480264
13	0xbdc27fd3	-0.09497037
14	0x3dfbcab7	0.12294524
15	0xbcdefb1e	-0.027219351
16	0x3e2f03b7	0.17091261
17	0xbdc5fb17	-0.09667032
18	0xbdcf2438	-0.1011433
19	0x3d678504	0.056523338
20	0xbe18868a	-0.14895073
21	0x3dbdd378	0.0926885
22	0x3cadc602	0.021212582
23	0xbd751943	-0.059838545
24	0x3d597381	0.05308867
25	0xbe070415	-0.13185151
26	0x3dd7d369	0.1053837
27	0x3db8b58b	0.090190016
28	0x3d25499e	0.04035341
29	0x3e1d91d2	0.15387657
30	0xbd55ec50	-0.05222732
31	0x3cecc56c	0.028902732
32	0x3e394432	0.1809242
33	0x3e0155ae	0.1263034
34	0x3ddaad86	0.10677628
35	0xbd58213b	-0.052766066
36	0x3dd4a662	0.103832975
37	0xbcb8066d	-0.022464002
38	0x3e0d4acd	0.13798065
39	0x3e291a30	0.16513896
40	0x3dad9e92	0.084775105
41	0xbd0c8296	-0.034304224
42	0x3de91bbe	0.113822445
43	0x3df499ca	0.119433954
44	0x3d920d1a	0.07131405
45	0xbd0554b9	-0.0325515
46	0xbc0c612b	-0.0085680885
47	0x3dc16002	0.0944214
48	0xbd106ec0	-0.03526187
49	0xbda14d72	-0.078761
50	0x3db5eda0	0.08883214
51	0x3de6dd78	0.112727106
52	0x3e12737b	0.14301865
53	0x3e2a908b	0.16656701
54	0x3ca90900	0.020634174
55	0x3e4c6e46	0.19963941
56	0x3de7e895	0.113236584
57	0xbce85c51	-0.028364332
58	0x3d17cc49	0.037060056
59	0x3e3923ea	0.18080106
60	0x3dfc7e66	0.12328796
61	0xbd87ad5f	-0.06624865
62	0x3c82d17e	0.015969034
63	0xbd65de5e	-0.05612027
64	0xbde53727	-0.1119216
65	0x3e324811	0.17410304
66	0xbdc15eaf	-0.094418876
67	0xbde5b6cc	-0.11216506
68	0x3daf9204	0.08572772
69	0xbe282953	-0.16422014
70	0x3d92404c	0.0714117
71	0xbe33ef2d	-0.17571707
72	0x3e1851d5	0.14874966
73	0xbe00e75f	-0.12588261
74	0x3c8240e2	0.01590008
75	0x3d2106dc	0.039313182
76	0xbdd52db8	-0.10409111
77	0x3d9a2b13	0.07527747
78	0xbd84e379	-0.064886995
79	0x3d47a880	0.04874468
80	0x3e01d68b	0.12679498
81	0x3d85300a	0.06503303
82	0x3e21af46	0.15789518
83	0x3d08ef49	0.033431325
84	0x3de87f18	0.11352366
85	0x3e198b8b	0.14994638
86	0x3d286bea	0.04111854
87	0x3dc8bc23	0.09801509
88	0x3d64a5ff	0.05582237
89	0xbd52baa9	-0.051447544
90	0x3de4ba93	0.11168399
91	0xbde57d32	-0.1120552
92	0x3dd8f1b4	0.10592976
93	0xbdc7359f	-0.09727024
94	0x3e2337c8	0.15939248
95	0x3d155fb4	0.036468223
96	0x3d37baff	0.044856068
97	0xbda75c48	-0.08171898
98	0x3cbf8dad	0.023382986
99	0xbae4ebf6	-0.0017465341
100	0x3c188213	0.009308356
101	0x3d5786f1	0.052618925
102	0x3e2aabaa	0.16667047
103	0xbd99beea	-0.07507117
104	0x3e05a4e8	0.13051188
105	0xbe13764f	-0.144006
106	0x3e25ed26	0.16203746
107	0x3e1cedbf	0.15325068
108	0xbddc156a	-0.10746272
109	0xbbd9d295	-0.006647418
110	0xbdbbf1f4	-0.09177008
111	0xbc4cf902	-0.01251054
112	0x3e0dce1d	0.13848157
113	0x3d320152	0.04345829
114	0x3aa683d5	0.0012704084
115	0x3e3c525a	0.1839079
116	0xbe108689	-0.14113821
117	0x3dd4cc0a	0.1039048
118	0xbd9c776d	-0.07639966
119	0xbd2aa385	-0.04165985
120	0xbdf68339	-0.120367475
121	0xbd0fe80d	-0.03513341
122	0x3e0c7ad4	0.1371873
123	0xbdac69a9	-0.084185906
124	0x3e35d591	0.1775725
125	0xbde8fdd3	-0.11376538
126	0xbcd2e08f	-0.025741844
127	0xbe06b09d	-0.1315331
