backend/anomaly_models/WH004_SKU-008.pth (torch, 242563 bytes, 20 tensors)

encoder_lstm1.weight_ih_l0 f4 [256, 6]
000000 1d 24 c7 3d ea 10 97 bd 51 ac 3d bb b1 de 60 bc
       0.09723685 -0.07376273 -0.002894182 -0.013724969
000010 fd 5a 2b 3d 9e b1 7f bd 6c f2 e3 3d 5f a9 c3 3d
       0.04183482 -0.06242525 0.11130223 0.09553789
000020 bb 5e 8b 3d 3b f8 aa bd b3 b2 54 bd 6b 58 3c 3c
       0.06805178 -0.083481275 -0.051928233 0.01149569
000030 df 02 0e 3e 73 4f b2 bd 6f 00 3d bd bb 83 27 3e
       0.13868283 -0.0870656 -0.04614299 0.16358845
000040 ea e5 85 3d 7d 71 d2 3c 14 a1 2b 3c 58 8b 8f bd
       0.06537993 0.025688881 0.010475416 -0.070089996
000050 a1 90 a0 3d 42 b0 db 3d 2b 7a 06 3d 22 67 25 3c
       0.07840086 0.10726978 0.032831352 0.01009539
000060 ec 88 b5 bc f8 61 85 bd de 19 0b 3e 2f 94 a1 bc
       -0.022160016 -0.06512827 0.13584086 -0.01972398
000070 7a 51 d6 3c 98 43 6f bd fb 72 b8 3d 42 97 59 bd
       0.026161898 -0.05841407 0.09006306 -0.053122766
000080 63 35 2d bd 0d d7 26 bd 08 ab 3b bc bd bd e8 3d
       -0.04228724 -0.040732432 -0.011454351 0.11364315
000090 ad 2b 55 bd 98 4c 92 3d 8d 5e ef 3d a3 a7 0f 3d
       -0.052043606 0.07143515 0.11687956 0.03507198
0000a0 22 24 90 3b b8 6a d1 bb c6 60 18 bc e2 f6 b2 3c
       0.0043988386 -0.0063908957 -0.009300416 0.021846239
0000b0 65 99 23 3d 38 3a ea 3d aa cc a8 3d 93 c1 e7 bd
       0.03994121 0.114368856 0.082421616 -0.11316218
0000c0 92 ab db 3c 8f 93 ca bd d2 fd 1f 3d 4e e6 42 3d
       0.02681521 -0.09891426 0.03906042 0.047582917
0000d0 60 87 8d bc 2d 2e c2 bb 4c 9e 58 bd 65 99 e5 3d
       -0.017276466 -0.0059259147 -0.05288534 0.11210898
0000e0 9c 1e 1d 3d 3d c8 21 bd f6 7f 25 3d 7f e5 de bc
       0.03835927 -0.039497603 0.040405236 -0.027209042
0000f0 61 75 7e bc 54 06 f6 3c a6 99 bc 3d 53 4a a1 3d
       -0.015530915 0.030032314 0.092089936 0.07875504
000100 5a c2 d4 3c 97 cf a0 3d d8 a1 a1 3d b4 e5 b1 bc
       0.02597158 0.078520946 0.07892197 -0.021715976
000110 6f a6 5e 3d 79 e8 d1 bd 64 8f 89 bc de 78 0f bd
       0.054357942 -0.10249419 -0.016792007 -0.035027377
000120 f6 4f ce 3d d4 1a 32 3d 6b 8c b6 bd 49 d4 b9 3d
       0.10073845 0.043482617 -0.08913501 0.09073693
000130 50 1a 88 3d 38 fd 33 be 60 94 bb bd 58 5d c4 3c
       0.06645644 -0.17577064 -0.0915916 0.023970291
000140 a5 85 fd bd c6 dd c0 bd 43 0f 21 bd 2a f8 83 bd
       -0.12379006 -0.094173 -0.039321195 -0.06443818
000150 cf dd ce bb 70 63 cf 3d 59 8e 5a 3d 49 8d 99 3d
       -0.0063130627 0.10126388 0.05335841 0.07497651
000160 8c 4c d1 bd 27 19 95 3d 57 01 e7 3c c0 99 ca 3d
       -0.10219678 0.07280188 0.028198881 0.09892607
000170 a3 fb 34 bd 86 54 91 bd 31 32 88 bd de 77 ad bd
       -0.044185292 -0.070962 -0.06650198 -0.084701285
000180 56 38 29 bc fe 2a 21 be 5f 07 d3 3d ff e9 8b 3d
       -0.010328373 -0.15739056 0.1030414 0.068317406
000190 20 e2 b6 bd 6d b0 16 bd 0b 7f 62 bd e6 5e 9b bd
       -0.08929849 -0.036789346 -0.05529694 -0.0758646
0001a0 14 7e f4 3d ee 98 96 3d d2 dd fb 3d 1b 15 a0 3d
       0.1193811 0.07353388 0.12298168 0.078165255
0001b0 1b 05 80 bd 9a bf 28 bd f1 41 ee 3d 2a cd 5c bd
       -0.06250974 -0.04119835 0.11633671 -0.053906597
0001c0 1d 26 eb 3d a2 e9 86 3d ec e8 17 3e 21 b9 f3 3c
       0.11481879 0.06587531 0.14834946 0.029751362
0001d0 ff 6c 7a 3d fb c8 74 bd b9 3f a0 bc 19 34 0b 3e
       0.061139103 -0.059761982 -0.019561635 0.13594092
0001e0 92 76 4b bd 7a 0b 57 bc df 95 bd 3c 75 f7 ff bd
       -0.049673624 -0.013125295 0.023142753 -0.124983706
0001f0 2a 86 01 3e c3 37 e6 bc 9f 84 1c 3e 44 c5 85 3d
       0.12648836 -0.028102761 0.15284966 0.06531766
000200 ed 94 2e 3c 2b 49 82 ba 63 52 83 3d c5 9f ce bc
       0.010655624 -0.0009940019 0.064121984 -0.025222668
000210 ab ec 9f 3d d6 2a 93 bd 85 5a da 3d 4f e4 78 bd
       0.07808813 -0.07185905 0.106617965 -0.060764607
000220 9b c5 40 3d c8 25 32 bd e0 b9 0b 3e 2a 9e 91 3d
       0.04706345 -0.043493062 0.13645124 0.071102455
000230 84 0a bf bd c8 3e 94 bc a4 54 bb 3d 39 0a 25 3d
       -0.093281776 -0.018096343 0.09147003 0.040292952
000240 83 08 c8 bc 65 b7 85 3c 14 4f 01 3d 90 56 51 3c
       -0.024418121 0.0163228 0.031569555 0.012776986
000250 80 65 f5 bc b1 66 d0 3d 36 e1 98 3d 28 c7 c1 3c
       -0.029955626 0.10175837 0.074648306 0.023654535
000260 b1 4a 75 3c f8 13 74 bd 13 c0 99 3c cc b5 0b 3e
       0.014971421 -0.059589356 0.018768346 0.13643569
000270 4b 9f b2 3d 0e f3 14 bd 27 84 5d 3d cc 1d eb bc
       0.08721789 -0.036364608 0.05408111 -0.028700732
000280 aa 77 d7 3d d9 b0 4c 3d b5 e5 10 3e 79 89 a0 3c
       0.10520871 0.049973343 0.14150126 0.019596802
000290 ac 66 68 3d 81 93 ec 3d 26 a3 d4 3d 40 06 e2 bc
       0.05673854 0.11551572 0.103826806 -0.02759087
0002a0 c1 a2 c0 bd 6b f1 bf bb 92 09 6d bd 45 62 25 be
       -0.09406043 -0.0058576367 -0.057870455 -0.16150768
0002b0 07 c1 64 3d dd a6 6e 3d d8 cd 04 3e 8a 9d 90 bb
       0.055848148 0.058264602 0.12969148 -0.0044133114
0002c0 6d fb 0d 3e 7a 3a 2a bd be d8 1f bd 9d f5 a0 bd
       0.13865443 -0.041559674 -0.03902506 -0.07859347
0002d0 b8 bd 05 be f8 42 43 bd 53 25 b9 bd d3 52 54 bc
       -0.13060653 -0.04767129 -0.09040322 -0.0129592
0002e0 05 be 6b bc 0e 86 34 3d d2 bc 5f 3b 79 0f 0a bd
       -0.014388566 0.044073157 0.0034139645 -0.033706162
0002f0 59 94 55 bd 1e cd 88 bd 08 bf b4 3d 75 53 f7 3d
       -0.05214343 -0.06679748 0.08825499 0.12076465
000300 56 47 97 3d 63 dc 80 3d a2 43 5c bd 7a 03 cb 3d
       0.07386653 0.062920354 -0.053775437 0.099127725
000310 e8 07 37 3c af 4d b0 bd 2f ee 71 bd 38 24 58 bd
       0.011171319 -0.08608567 -0.05906504 -0.052768916
000320 84 71 8c 3d 10 a7 e3 bc 2e 27 d1 bc 0d 45 8b 3d
       0.06857589 -0.027789623 -0.025531378 0.0680028
000330 db 3c 8b bd 11 53 9c 3d aa ea 0d 3e 17 8f 3d bd
       -0.06798717 0.07633031 0.13859048 -0.04627904
000340 36 10 0c 3a 52 eb 6f bc 2d 42 dd bc 00 c3 35 bd
       0.0005342992 -0.014643507 -0.027009094 -0.04437542
000350 42 1f fa 3d 67 2b d6 3d 2d 37 a1 bd df bc 8d bd
       0.12212993 0.10457497 -0.07871852 -0.0692079
000360 b1 53 33 3c 53 25 f7 3c a5 d5 88 3d 1d b7 86 bd
       0.010945247 0.030169165 0.066813745 -0.06577895
000370 24 67 18 3e ab 02 e3 3d 1e 0b 5f 3d 27 ae 0d be
       0.14883095 0.11084493 0.05445396 -0.13835965
000380 ae d8 7f 3d ab ce 0c 3e 16 57 05 be 19 08 ba 3b
       0.0624625 0.13750713 -0.13021502 0.005677235
000390 07 d6 d5 3d f4 37 42 bd 84 22 99 bc 9f 41 5e bc
       0.10441213 -0.047416642 -0.018693216 -0.01356545
0003a0 9e ea 7c bd 2c 80 dd 3d 62 6e 90 3d dc 92 0c bd
       -0.061747186 0.108154625 0.07052304 -0.034319744
0003b0 93 ed 24 bc 25 41 e0 3d 71 8b 64 bd ff 0a 09 3e
       -0.010066408 0.10949925 -0.055797044 0.13383101
0003c0 6a a1 df 3b 2e 89 9d 3d 73 d3 35 bd 7f c0 5b bd
       0.006824662 0.076921806 -0.044391107 -0.053650375
0003d0 03 8d df 3c e6 fa fd 3d 14 31 e2 3d b8 67 b6 3c
       0.02728892 0.12401371 0.11044517 0.022266254
0003e0 e6 66 81 3d ab a1 00 3e 7d c9 e5 bd 56 82 e9 3d
       0.063184544 0.12561671 -0.112200715 0.11401813
0003f0 62 b7 c2 bc e3 40 72 3c 32 6c 6f 3c e4 1c a4 bc
       -0.023769084 0.014785978 0.014613198 -0.020033307

encoder_lstm1.weight_hh_l0 f4 [256, 64]
000000 4f 10 cd bd a1 33 e4 3d f5 83 8d 3d 09 fb a1 3d
       -0.10012876 0.1114266 0.069099344 0.07909209
000010 c7 99 0b bd cc 94 b7 3c 1d 3d af bd 6c ee 58 bd
       -0.0340822 0.022409819 -0.08556578 -0.05296175
000020 7c 16 2c 3d c9 8e 9f bd fe 60 0e bd 94 a7 90 bd
       0.04201363 -0.07790906 -0.034760468 -0.07063213
000030 56 48 c4 bd ad 62 45 bb bc c5 ea 3d 1d f1 bf 3d
       -0.095841095 -0.003011863 0.11463496 0.093721606
000040 0a 72 b8 bd 17 99 8e 3d 06 d6 31 3d 58 77 f9 3d
       -0.09006126 0.06962793 0.043417 0.12180966
000050 70 17 16 bc bb cb 45 3d a4 06 fb bd 70 86 d6 bb
       -0.009160861 0.048289996 -0.12257126 -0.006546788
000060 3d 6c 1a 3d 58 b1 cf bd 6e 4e 87 3b 17 44 33 3c
       0.03770088 -0.101412475 0.0041292226 0.010941527
000070 f1 ac 1a be 00 72 2c 3d fb 9a 08 bd 7a 3e 31 3d
       -0.15105034 0.042100906 -0.033350926 0.043272473
000080 0e 80 2b 3d 59 e6 b0 3c b4 5b eb bb 53 b0 79 bd
       0.04187017 0.021594213 -0.0071825627 -0.06095917
000090 5f 1c a6 3d 49 7f b5 ba 64 80 31 bc 1b e3 b3 bd
       0.0811088 -0.0013847138 -0.010833833 -0.08783551
0000a0 19 1f 00 3e 09 cc 98 bc 90 ea af 3d 43 e7 c3 3d
       0.12511863 -0.018651979 0.08589661 0.09565594
0000b0 c0 1b 96 bd 1e 4a cb bd e9 60 09 3e ff ec 8f bd
       -0.07329512 -0.09926246 0.13415875 -0.07027625
0000c0 48 4a 37 3d 94 86 1e 3d 44 a8 b4 3c 4e 46 a0 3d
       0.044748574 0.038702562 0.022052892 0.078259096
0000d0 e9 74 42 3d bf 0e 52 bd 2e ad 64 3d 7d 75 71 3d
       0.047474775 -0.051283594 0.05582922 0.058949936
0000e0 b6 c2 94 3d 70 aa fb 3d e8 ee e9 bd 63 7b cb 3d
       0.07263701 0.12288368 -0.11422521 0.099356435
0000f0 76 95 ab 3d d0 5e 35 bd c5 cf c2 bd 4b d1 bf bc
       0.08378117 -0.044279873 -0.09512285 -0.023415228
000100 12 05 cc bd a9 c3 5f bd 91 07 0b 3e 5a 42 5d bd
       -0.099619046 -0.054629955 0.13577105 -0.054018356
000110 d5 23 29 3d f1 dc af 3d 5f 53 02 3d 44 a8 d0 bc
       0.041293938 0.08587063 0.03181779 -0.02547086
000120 72 bc 33 3d 88 87 29 3d b2 86 41 bd 35 2f 49 bc
       0.043880887 0.04138902 -0.047247596 -0.012279321
000130 db a1 2f 3d 56 d9 f9 bc 4b 52 91 bd 82 b3 88 3d
       0.042878967 -0.030499142 -0.07095774 0.066748634
000140 2d 8b d8 3d da 9c 73 3b 6b 77 29 3d bf c1 a3 3d
       0.10573421 0.0037172348 0.04137365 0.079959385
000150 50 43 ef bc 12 23 d7 3d 1d 14 b2 3d bf 89 0b be
       -0.029206902 0.10504736 0.086952426 -0.13626765
000160 f7 b7 77 bd 99 62 09 be a4 30 66 3c 3f 15 10 3e
       -0.060478177 -0.13416518 0.014049683 0.14070605
000170 d1 5a 32 3d e5 3c 00 3e 3c d1 f8 bd 79 7e 49 3d
       0.04354364 0.1252323 -0.12149283 0.04919288
000180 ef 6f c9 bd e0 cb 72 bd 03 8b 42 3d 61 cf 7d bd
       -0.09835803 -0.05927646 0.047495853 -0.06196535
000190 6c 49 f6 bd f5 01 85 bd 1d 56 26 bd 7e 41 21 3e
       -0.12025723 -0.06494514 -0.040609468 0.1574764
0001a0 a4 9c 06 3e 92 ea 19 3e 39 f8 8f 3c f9 ad fe 3d
       0.13145691 0.15030888 0.017574416 0.124355264
0001b0 f6 18 0a be 58 c5 09 3e a6 10 a3 3d f2 7b 25 3e
       -0.13486084 0.13454187 0.0796216 0.16160563
0001c0 53 04 24 bd 78 48 8f bd 24 e4 18 3c 57 e1 07 3d
       -0.040043186 -0.06996244 0.009331737 0.033173885
0001d0 5e 25 f3 bd 35 80 ba 3d 57 7d 37 bd fe 5b 94 bd
       -0.118723616 0.09106485 -0.044797268 -0.072441086
0001e0 7c fc e2 bd 9c 8e 1d 3e 31 84 91 bd 38 68 8c bd
       -0.11083314 0.15386432 -0.07105292 -0.06855816
0001f0 85 85 f6 3d ae 25 a3 bc fb aa b3 bd 59 7c 90 3d
       0.120371856 -0.019915428 -0.08772846 0.070549674
000200 d1 2f 13 3d 59 29 08 3e 59 fc 3c bd 7c ee 81 3c
       0.035934273 0.13297023 -0.046139095 0.015860789
000210 1b 77 1a 3d 81 cf e4 bc e3 ad 58 3d 38 d6 05 3c
       0.037711244 -0.027930977 0.052900206 0.0081687495
000220 60 8d 84 3d 47 56 85 3d 8f f1 ab bd 6c ef 18 3b
       0.06472278 0.06510597 -0.08395683 0.0023336066
000230 da f7 25 3c 0f b5 b5 3d 8a 51 5d 3d 8f 08 2b bd
       0.010129893 0.08872425 0.05403284 -0.04175621
000240 ff 8e 88 bd 6d bd 84 3d 03 34 17 bd 81 6c 4f 3d
       -0.06667899 0.064814426 -0.036914837 0.050640587
000250 ad bc cd bd ef 12 22 3e 85 f8 f1 bc 22 e9 fa bc
       -0.10045753 0.15827535 -0.029537449 -0.030628745
000260 0c 04 c8 bd 7b 53 8f bd a1 10 f6 ba 74 9b f6 3d
       -0.09766397 -0.069983445 -0.0018773266 0.12041369
000270 08 6d 98 3d 81 2c b2 bd cb 2d c3 bd 2b 55 87 bb
       0.07442671 -0.08699895 -0.09530219 -0.004130026
000280 40 94 d5 bd 26 60 9e 3d 46 ba 19 be 15 c8 b5 bd
       -0.10428667 0.077331826 -0.15012464 -0.08876053
000290 3c 69 f9 bb 87 49 b1 3d b1 d7 00 3a 5c 7d f8 3d
       -0.007611422 0.08656602 0.0004914953 0.121332854
0002a0 da fc 05 3e f6 ed a3 bd 48 94 57 bd 92 42 04 bd
       0.13084736 -0.08004372 -0.052631646 -0.03229005
0002b0 b2 d9 b0 bb 33 06 84 bd f5 d2 e8 bc 90 d9 0d bc
       -0.005397045 -0.06446495 -0.028420905 -0.008657828
0002c0 69 02 85 3d da 00 06 be ed d4 87 3d c2 ec a0 3d
       0.064946 -0.13086262 0.06632409 0.07857658
0002d0 cd 28 03 be 18 41 db 3c 36 2d 14 bd 8e 30 15 bd
       -0.12808533 0.026764438 -0.03617593 -0.03642326
0002e0 b3 9a f9 bd d6 01 9e 3d 7d c7 01 be 2e 09 df 3d
       -0.1218771 0.07715194 -0.12673755 0.10890423
0002f0 c0 7e 99 3c 87 dc 54 bd 16 cb 20 3d f1 ce 05 be
       0.018737197 -0.051968124 0.039256178 -0.13067223
000300 61 56 01 3e 19 88 35 3d 39 c7 d5 3d 61 b1 19 be
       0.12630607 0.044319246 0.10438389 -0.15009071
000310 e1 a3 8c bd 7a ca 50 3a 54 c4 c1 bb ca 61 69 bd
       -0.06867195 0.00079647417 -0.0059132967 -0.056978025
000320 bf 1e c4 3d be 98 db bd 4c fe 8a 3d fe 20 37 bd
       0.09576177 -0.10722493 0.067867845 -0.0447092
000330 cb 5b 64 3d ce 58 2e bc 22 7c 0d 3e 8a 79 92 3d
       0.055751603 -0.01064129 0.13816884 0.07152088
000340 bd 80 1c 3d 9a 9d d5 3d b6 82 19 be 04 dd 89 bc
       0.038208712 0.10430451 -0.14991269 -0.016829021
000350 85 3d 95 bc c8 ce 4d 3d 06 2f b5 3d c2 16 00 be
       -0.018217811 0.05024603 0.0884686 -0.12508681
000360 9d 57 a6 3d 1b 38 f9 3c d5 74 2f 3c 99 07 dc 3d
       0.0812218 0.030422261 0.010709007 0.10743637
000370 30 36 b8 bd e5 70 a9 3b c8 60 d5 bd bb a0 02 3e
       -0.089947104 0.005170929 -0.1041885 0.12756626
000380 69 0c b2 bd 28 90 3d 3d 39 fc c2 3a be c2 15 be
       -0.08693773 0.046280056 0.0014876194 -0.1462507
000390 d4 d3 e3 bd 20 18 b5 bd 98 ca 84 bd 29 ed 3a 3c
       -0.111243874 -0.08842492 -0.06483954 0.011409082
0003a0 b1 2b 95 bd a2 d3 5f 3d 7b 6e 07 3c 3a fa 13 3e
       -0.07283724 0.05464519 0.008266087 0.14450923
0003b0 dc 37 ad bd e4 e0 e7 3b c6 cc 8f bc f7 9c 94 bc
       -0.0845792 0.0070763696 -0.017553698 -0.018141253
0003c0 7e 10 bd bd 05 67 3b 3d 51 a2 32 bd db 9b 10 bd
       -0.09231661 0.045752544 -0.04361183 -0.035304885
0003d0 94 c4 98 bc 06 df 13 3d bc ed 91 bd 9c 49 91 bb
       -0.018648423 0.036101364 -0.07125422 -0.0044338237
0003e0 3b 52 80 bd 56 9f ac 3d 3d d5 95 bd d6 36 b8 bd
       -0.06265684 0.084288284 -0.073160626 -0.08994834
0003f0 43 08 a0 3d 27 a5 21 3d a6 95 24 3d 3a 1b 0d be
       0.07814076 0.039464142 0.04018178 -0.13779917

encoder_lstm1.bias_ih_l0 f4 [256]
000000 4f e5 be bd 2d 72 98 3c 24 35 d4 bd 16 95 58 bd
       -0.09321081 0.01860913 -0.10361698 -0.052876554
000010 97 d3 a2 bd a7 90 e4 3c 43 e4 8a bc 1e 42 b1 bd
       -0.07950514 0.027901007 -0.016954547 -0.08655189
000020 bd 9f 7f 3d 06 04 26 3d 93 3a 46 bc ea c4 ff 3d
       0.062408198 0.04053118 -0.012098926 0.1248873
000030 66 b8 12 3c c3 49 f7 bc 83 c7 68 3d fd 48 a5 3d
       0.008955097 -0.03018654 0.056830894 0.08070562
000040 c2 0b d4 bd 8a 59 b6 3d 75 b2 2a bd 97 fe 7b bc
       -0.10353805 0.08903797 -0.041674096 -0.015380523
000050 93 4c 85 3c 34 d8 95 3d ed 1c cd bc 28 d4 9e 3d
       0.016271865 0.07316628 -0.025038207 0.07755309
000060 4c ab 3b bd c1 8f 9c bd 42 76 3d bc 3b 94 8c 3d
       -0.04581766 -0.076446064 -0.011563839 0.0686421
000070 28 0c 9f bd 2f fe f8 bc ff 9e 08 be fe 9e 83 bd
       -0.077659905 -0.030394642 -0.13341902 -0.0642681
000080 20 f7 39 3d c3 97 f8 bd f7 bc 3f bc b7 d3 d0 3c
       0.045401692 -0.12138321 -0.011702768 0.025491579
000090 1f c6 eb bd 48 63 b4 3d b7 1d 34 bd 31 f2 cd 3d
       -0.11512398 0.08807999 -0.04397365 0.1005596
0000a0 83 48 8d 3d 82 d6 bb bd 6b fd 2c 3d d8 e7 5d 3d
       0.06898596 -0.091717735 0.042233866 0.05417618
0000b0 f2 06 91 bd ce 16 41 bd ef 48 8b bd 04 ba de bd
       -0.07081403 -0.04714089 -0.0680102 -0.108753234
0000c0 dd 3e 34 bd 24 cd 74 3c 34 2f 89 3d 56 59 b2 3d
       -0.044005264 0.014941487 0.066984564 0.08708446
0000d0 ee 8a 59 3d 74 e6 9b bd 5e 91 33 bc 1a e9 82 3d
       0.05311101 -0.07612315 -0.010959951 0.06392117
0000e0 a6 7d a4 3d e3 2a c2 bd 93 5c 05 be 71 50 c6 bd
       0.08031778 -0.09480836 -0.13023596 -0.09683312
0000f0 52 17 b4 bd bc 7e 8b 3d b2 05 d0 3d 55 17 01 3e
       -0.087935105 0.06811282 0.10157336 0.12606557
000100 09 9b 22 bd 0d d2 b8 3d e7 c1 67 3d a6 4e 7c bd
       -0.039698634 0.09024439 0.056581404 -0.061598442
000110 55 eb 23 bd 49 48 2c bc cf 27 8e bd 18 b8 85 bd
       -0.040019352 -0.010515281 -0.06941187 -0.06529254
000120 10 bb ac bd 62 ad 7d 3d 7e 9b 01 3e b1 ec 03 bd
       -0.08434117 0.06193293 0.12656972 -0.03220815
000130 e4 a6 d4 bd 61 05 a1 3d aa e9 f9 bd c2 e7 9b 3d
       -0.10383394 0.07862354 -0.12202771 0.07612564
000140 6f 79 87 3b ea 62 76 3d d3 df fb 3b ce 3f 08 3e
       0.004134349 0.060152926 0.007686594 0.1330559
000150 47 87 8e bd f1 18 fc 3d c6 b0 87 3b d1 64 b5 3d
       -0.06959396 0.12309445 0.004140946 0.0885712
000160 e4 a2 9c bd 3d 92 c2 3d 05 7f 00 3d cc 85 83 bd
       -0.076482564 0.09500549 0.031371135 -0.06422004
000170 9a 54 0e 3e 47 b3 23 3c a1 ac a7 bc e8 9d f6 bc
       0.1389946 0.0099914735 -0.020468058 -0.030104592
000180 0e 37 0e be 22 da d8 bd 40 37 14 3d 00 dc 17 3c
       -0.13888189 -0.105884805 0.036185503 0.009268761
000190 40 0f ec bd f2 05 4e 3d d9 08 0a 3e fb 9e dd 3d
       -0.11526346 0.05029864 0.13479938 0.10821339
0001a0 5e 84 76 bd a2 ca 9c bd 67 96 88 3d 99 b5 44 bd
       -0.06018483 -0.07655837 0.06669312 -0.048024748
0001b0 4e 61 c9 3d 2b 39 30 bc 83 b6 9a bd fc c0 f5 3d
       0.098330125 -0.010755817 -0.075543426 0.119996995
0001c0 dc 8d fd ba 75 cd 23 bd 54 cd 86 3d 98 15 3a bd
       -0.0019344646 -0.03999086 0.06582132 -0.04543075
0001d0 50 3f 90 3c cf d8 83 3d c7 9c d2 3d b2 02 88 3c
       0.017608315 0.06437837 0.10283809 0.016602848
0001e0 59 91 f4 b9 34 71 67 bd ef 4c e1 3c 78 25 29 3d
       -0.000466476 -0.056504443 0.027502505 0.0412955
0001f0 03 30 b4 3d 86 93 c6 3d 70 1d 74 3d 21 e7 c8 3c
       0.0879822 0.096961066 0.059598386 0.024524273
000200 a2 1b 59 3d e2 0d d9 3d 6c 26 32 39 e2 3e 4b bd
       0.05300487 0.10598351 0.00016989716 -0.049620517
000210 79 33 11 3d 90 cb ce 3d ed a8 92 3d 19 5b 64 bc
       0.03544948 0.1009742 0.07161126 -0.013937735
000220 90 7b 34 bd 0a 31 a4 3d 1f 46 4c bc c1 d2 94 3c
       -0.04406315 0.08017166 -0.01246789 0.018166902
000230 c0 63 bc 3d 2b 52 23 bb 3b 2f a9 bd 79 25 43 bc
       0.09198713 -0.0024920802 -0.082609616 -0.01191079
000240 fd 16 0f 3d e3 8c a4 3d 3e 51 e3 bd 34 00 aa 3c
       0.034934033 0.080346845 -0.1109948 0.02075205
000250 3c 24 87 3d 9b 66 74 3c da 93 9b 3d ba 58 b8 3d
       0.06598708 0.014917041 0.0759656 0.09001298
000260 0c 0c f2 bd 04 87 61 bd cc e4 95 3d 11 5d b5 3d
       -0.11818704 -0.0550604 0.0731903 0.08855642
000270 41 7a ff bc 3d 91 a4 bc 22 6c dd 3d c8 6f e4 bc
       -0.031186225 -0.020088786 0.1081164 -0.027885333
000280 03 1d d7 bc 4a 61 45 bd 44 35 bb 3c f6 08 5e bd
       -0.026258951 -0.048188485 0.022852547 -0.054207765
000290 7e bd 2f bd 1e 20 37 3d 79 a6 4f bc 58 b6 0e bc
       -0.042905323 0.044708364 -0.0126739675 -0.008710466
0002a0 93 b9 89 3b 86 cb 02 3d bf 40 52 3d 44 85 a1 bd
       0.0042030304 0.031932376 0.051331278 -0.078867465
0002b0 44 d4 9b bd b8 9c ec bc e8 d3 55 bd 37 6f 13 bb
       -0.07608846 -0.028883323 -0.052204043 -0.002249671
0002c0 84 16 15 3d 49 a9 47 3d f5 14 bb bd 9f a7 28 3d
       0.036398426 0.048745427 -0.091348566 0.04117548
0002d0 c6 89 1e 3c 89 ea 84 bc 30 1f 9d 3d c4 0d ed bc
       0.009676402 -0.016225116 0.07671964 -0.028937228
0002e0 f1 72 4b 3d 19 79 86 3c e9 2c b1 3d b4 c1 89 3d
       0.049670164 0.016415166 0.08651144 0.06726399
0002f0 38 98 71 3d a8 87 9d 3d d1 eb 87 3c e4 1a 69 bd
       0.058983058 0.0769189 0.016591938 -0.05691041
000300 70 3d c9 3d 7f 37 0e 3e e2 89 e9 bc 73 4c 40 bd
       0.098261714 0.13888358 -0.02850813 -0.046947908
000310 d8 29 3d 3d 0b 4c ec bb 13 c5 55 3d 58 9a 8d 3d
       0.046182483 -0.0072112135 0.052189898 0.06914204
000320 6a 3c 78 bc e1 e5 40 3b 5b 03 34 bc 0d 3f 40 bd
       -0.015151123 0.0029433894 -0.010987128 -0.04693513
000330 fb 94 c3 3d d4 6d 80 3d 83 27 66 bd 49 10 09 3d
       0.095499 0.06270948 -0.056190025 0.033462796
000340 56 62 f4 bd 43 f0 bc 3d be 43 b0 3d 13 3e 04 bd
       -0.119328186 0.09225514 0.08606671 -0.03228576
000350 de 7c ae bd 82 60 d9 3d 22 c9 cc 3c d6 d0 c6 3d
       -0.0851991 0.106141105 0.024998251 0.09707801
000360 32 5a 3c bd 0b ea 49 3d d1 80 05 3e 5c be 34 3d
       -0.045984454 0.049295466 0.13037421 0.044126853
000370 05 69 cb bd fb 51 1d bd c0 f9 5f bd 20 6b 97 3d
       -0.0993214 -0.03840826 -0.05468154 0.07393479
000380 68 e8 2b 3d 5a ca 4e 3d 4d 21 02 3c 1e 32 ee bd
       0.041969687 0.050485946 0.00794251 -0.11630653
000390 bf d6 b9 bd 9b 58 ad 3d b5 32 a6 bd aa b5 80 bd
       -0.09074163 0.08464166 -0.0811514 -0.0628465
0003a0 77 55 50 3c ec fc 43 3c 00 92 31 bd 8e ba 68 3d
       0.012715689 0.011962157 -0.043352127 0.056818537
0003b0 5e 29 84 3c 5c 9b 08 bd 06 c5 8f 3d 20 57 9e 3d
       0.016133007 -0.033351287 0.07020001 0.077314615
0003c0 ba da c4 3d e8 24 8f 3c c8 51 f9 3c 1e f7 a5 3d
       0.09612031 0.017473653 0.030434504 0.081037745
0003d0 13 31 7d bd 3a be cc bd 7f 5d ac 3a 81 15 3e 3c
       -0.06181438 -0.0999722 0.0013150423 0.011601807
0003e0 aa 3b 33 3d 21 41 f4 3c 07 3f a6 3c 27 ac 5d 3d
       0.043758072 0.029816212 0.020293726 0.054119255
0003f0 61 e5 42 3c e5 d4 90 bc 49 35 96 3c a3 b5 b2 bd
       0.0118955085 -0.017679641 0.018335955 -0.08726051

encoder_lstm1.bias_hh_l0 f4 [256]
000000 98 64 b5 bc 92 9f f1 bd 54 f3 b8 bd 6a 28 03 3d
       -0.022142693 -0.11798014 -0.09030786 0.032020964
000010 43 08 ce bc 4d 62 af 3c dc b6 db 3d ce 21 8e bc
       -0.025150424 0.021409178 0.10728237 -0.017350104
000020 10 22 82 bb c2 b8 51 bc f1 fe cb 3d 5e ad ac 3c
       -0.0039713457 -0.012800397 0.099607356 0.021078762
000030 23 42 89 bd 82 ee a3 bd e7 42 af bd b5 e9 b7 3d
       -0.06702068 -0.08004476 -0.085576825 0.08980123
000040 97 f2 90 bd b6 50 00 3e 1d d3 2e bd 49 03 00 3e
       -0.0707752 0.12530789 -0.042681802 0.12501253
000050 6c 69 1c bd f1 7d 3f bd a4 6e e7 bd 04 be 02 3e
       -0.038186476 -0.046750966 -0.113004 0.12767798
000060 f3 49 26 bd dd 93 f7 3d f7 90 04 3d 0f 7e ca bd
       -0.040597867 0.120887496 0.03236481 -0.09887325
000070 e3 9e 81 3d 49 6b c3 bd ae 27 8f bd 88 9a 9c 3c
       0.06329133 -0.095419474 -0.0698999 0.019116655
000080 8c d5 d3 3c 51 2d b9 bd 2c 5c 38 3d f8 11 af 3d
       0.025858663 -0.090418465 0.045009777 0.08548349
000090 23 43 50 3d 8e 41 83 3d d0 07 bd bc ac bd 07 bc
       0.050845277 0.06408988 -0.023075014 -0.008284967
0000a0 07 19 a9 3d 3b a8 f9 3c df 0f a9 3d 72 63 eb 3d
       0.08256727 0.030475726 0.0825498 0.11493577
0000b0 ba cf d1 3d ee 70 a7 3d f3 d0 33 bd 92 28 95 bd
       0.10244699 0.081758365 -0.04390044 -0.07283129
0000c0 7e a4 b8 3d db e3 6d bd 63 99 98 bc 6c 3c bd 3d
       0.090157494 -0.058078628 -0.018627828 0.0924004
0000d0 1f 0a b0 3d 2c ac 93 3d 1a 42 78 bd aa b2 7e bd
       0.085956804 0.072105736 -0.060609914 -0.062182106
0000e0 56 f0 f3 3d 79 f0 c7 bd ca 8c 22 bd 93 4b 01 bd
       0.11911075 -0.097626634 -0.03968505 -0.031566214
0000f0 50 ee 72 3c c2 fa 13 bd b6 0a 0d 3d fa ea 0d bc
       0.014827326 -0.036127813 0.034434043 -0.00866198
000100 75 0a 7b bc 81 66 d1 bd 88 24 6b bd 08 b2 32 3d
       -0.015322317 -0.10224629 -0.057407886 0.043626815
000110 2d 7b 1c bd b3 e2 81 bc 9a 0b 74 bc c0 0c fb 3b
       -0.038203407 -0.015855169 -0.014895344 0.007661432
000120 8b 05 8d bc c0 f9 47 bd a3 38 23 bd 2e fb e1 bc
       -0.017214557 -0.048822165 -0.039848935 -0.027585592
000130 4c f2 a4 3d 32 f9 87 bd e6 c5 12 bd 86 c0 a6 3d
       0.08054027 -0.06639327 -0.035833262 0.0814219
000140 4c 22 dc bb 14 b7 84 3d f9 6a bf 3d 93 88 96 3d
       -0.0067179557 0.06480232 0.09346575 0.07350268
000150 ec da fb bd 43 4b e4 3c 08 7e 6c 3d 5a e5 fa bc
       -0.122976154 0.027867919 0.05773738 -0.030626941
000160 62 72 64 bd 23 cf a6 3d 04 9d 39 bc fc af 86 3c
       -0.055773146 0.08144977 -0.011328939 0.016441338
000170 d3 6c 02 bd 62 be 9e 3d a6 d1 54 bd ad 76 8a bb
       -0.031842064 0.077511564 -0.05195775 -0.004225573
000180 4d 49 84 3d f4 38 d5 3d b6 18 27 3e 6d 6d 10 3d
       0.064592935 0.104112536 0.1631802 0.035260607
000190 64 6a 20 3d f0 70 30 3d 75 58 ab bd da f1 7f 3d
       0.039163962 0.043076456 -0.08366481 0.062486507
0001a0 9b 11 77 3d 6c e9 b7 3d 10 55 e3 3d 38 74 c1 3d
       0.060319524 0.089800686 0.11100209 0.09445995
0001b0 40 f4 15 3d 6b 75 f9 3d 51 d4 a5 bd 76 3b 9e bd
       0.036609888 0.12180599 -0.08097137 -0.07726185
0001c0 64 50 ce 3d a6 43 a5 3d fd 91 6c 3d 19 79 e0 bd
       0.10073927 0.080695435 0.057756413 -0.109605975
0001d0 6b 85 b2 bc cc 54 d1 3d 63 50 16 bd a7 6b 18 3e
       -0.021792134 0.10221252 -0.036697756 0.14884816
0001e0 2e 49 44 bd 63 09 4d bd 26 d6 19 bc 01 e1 c4 bd
       -0.047921352 -0.05005778 -0.009389436 -0.096132286
0001f0 b3 14 39 bd ef af ac bc 22 d9 1d 3d a1 03 de bc
       -0.045185756 -0.021079985 0.038537152 -0.02710134
000200 8e d0 c7 3d ac ce 1e bc 1e 7c d3 3c c1 b3 a1 3d
       0.097565755 -0.009692829 0.02581602 0.078956135
000210 62 57 7f 3c ba 69 71 bd 53 18 93 3d fb 23 b3 3c
       0.0155847985 -0.05893872 0.07182374 0.021867743
000220 76 08 25 3d 9f 6d 83 bd ed cc 3d 3d 84 db 75 bd
       0.040291272 -0.06417393 0.04633801 -0.0600238
000230 12 9d 93 bd 07 22 75 bd 50 fa a0 3d 84 55 a8 3d
       -0.07207693 -0.059846904 0.07860243 0.08219436
000240 67 23 83 bd 35 d3 f3 bd b7 c8 19 3d de f0 8a bd
       -0.06403237 -0.11905519 0.037544932 -0.06784223
000250 74 dc eb bc 25 19 c3 3d d9 e6 d5 bd e2 32 ad 3d
       -0.028791644 0.0952628 -0.10444421 0.08456971
000260 19 bb 04 3d 29 b1 8f 3d a2 14 03 bd 87 d8 90 3d
       0.032404993 0.070162125 -0.0320021 0.07072549
000270 6d dc 09 3e b4 65 66 bd 63 fc 98 bb e6 b6 66 bd
       0.13462992 -0.056249335 -0.0046687587 -0.05632677
000280 e2 8e 00 bc 50 2e 91 3d 18 93 93 3c 7e f2 a5 bd
       -0.007846566 0.070889115 0.018014476 -0.08102892
000290 80 ea ab bd 64 0a 9c 3c 03 51 e7 3d c4 c8 11 bd
       -0.08394337 0.019047923 0.11294749 -0.035591856
0002a0 7c 73 95 3d 50 21 81 bd 08 bc 0b ba e6 e7 4f bc
       0.072974175 -0.06305182 -0.0005330448 -0.012689566
0002b0 83 f8 b2 3d 3e e7 9a bc 9c 4a dc 3d a5 3c b7 3c
       0.08738806 -0.018909093 0.10756418 0.022367785
0002c0 98 44 83 bd 78 cf 28 3d f3 b3 39 bd 1f c3 d0 bd
       -0.064095676 0.041213483 -0.04533763 -0.101934664
0002d0 03 1a 00 3e 1e 27 dd 3c 71 5b 9d bd fe 4a 0c 3c
       0.12509923 0.026996192 -0.07683457 0.008562801
0002e0 31 2f b3 bc 80 fb 75 bd 29 d1 89 3d 17 63 68 3d
       -0.021873089 -0.060054302 0.06729347 0.056735124
0002f0 44 89 87 3c 09 23 45 3d f2 eb 32 3c 43 f8 ea 3d
       0.016544946 0.048129115 0.010920512 0.114731334
000300 36 ca 97 3d 74 4d 3b bb 9c 2c 32 bc 01 d6 fd 3d
       0.074116156 -0.0028580101 -0.0108748935 0.12394334
000310 21 f2 bc bc 14 ba 06 3d bb 74 0e bd 4c 94 db 3d
       -0.023064675 0.0328923 -0.03477929 0.10721645
000320 55 09 1f bb 10 96 d8 bd ca c2 98 bc 5b 6e 79 bd
       -0.0024267037 -0.10575497 -0.01864757 -0.06089626
000330 7b 0b 85 bd a4 49 cf bd 3d 2d fc bd 40 da c7 bb
       -0.0649633 -0.10121468 -0.12313316 -0.0060990155
000340 6b fa 75 bd 93 0b a4 3c 86 b1 db 3d bd 06 ba bc
       -0.06005327 0.02002505 0.10727219 -0.022708291
000350 9c f6 f7 bd 47 2a 92 3d a2 3a e9 bd 1e da 1b 3d
       -0.12107584 0.0713697 -0.113881364 0.03804981
000360 fe e0 86 3d 6f 4e b4 bd 20 5e 29 3e 6d 5e 0f 3e
       0.065858826 -0.088040225 0.16539812 0.14000864
000370 47 70 85 3d 1a 91 98 bd 27 8d f2 3c a2 f6 50 bd
       0.06515556 -0.07449551 0.029608322 -0.051016457
000380 fc 20 41 3d 00 f7 f0 3d 52 2d 73 bc 45 1e da bc
       0.047150597 0.117658615 -0.014842348 -0.026625762
000390 e7 a4 95 bc 0f f2 cc bd d8 c2 1d bd c7 0d 09 3e
       -0.018267108 -0.100071065 -0.038515896 0.13384162
0003a0 95 39 40 bc cb b5 e8 3d 09 73 77 3d 78 6c fd 3c
       -0.011732479 0.11362799 0.06041244 0.030935511
0003b0 74 4f d4 3d 8b 03 43 3d fa e5 78 bd 77 90 f5 b9
       0.10366717 0.0476108 -0.060766198 -0.00046837676
0003c0 ba 4a f9 bd fe 6c 14 bd 7c e2 c9 3b fe 77 db bd
       -0.12172456 -0.036236756 0.0061610322 -0.10716246
0003d0 da 01 00 3e 6d aa d3 3b 59 1b 30 bd b4 f2 75 bd
       0.12500706 0.0064595253 -0.04299483 -0.060045913
0003e0 4b 77 25 bd 71 f9 6b bd 9d 5b 57 bd 92 5e 93 3d
       -0.04039697 -0.057610933 -0.052577604 0.07195772
0003f0 33 f4 de bd a2 e1 21 bd b5 73 0d 3e 22 4d 6e 3d
       -0.10886421 -0.03952182 0.1381367 0.05817903

encoder_lstm2.weight_ih_l0 f4 [128, 64]
000000 f4 ca 1c 3c a5 b1 39 3e dd e6 a2 bd e5 00 c2 bd
       0.009569872 0.18134172 -0.0795419 -0.09472827
000010 53 7d c9 bb 99 e8 2e 3e e7 73 2e 3d cc 35 49 3e
       -0.006148973 0.17080916 0.042591 0.19649428
000020 87 42 f7 3d c6 7c 15 be 54 f7 c7 3d 40 38 19 be
       0.12073236 -0.14598379 0.09763971 -0.14962864
000030 34 c3 5d 3d 01 6d 34 3e b5 8e 1b 3e 16 ab ac bd
       0.05414124 0.17619707 0.15191157 -0.084310696
000040 ee ff 9d 3d 08 4e 7e bc 2c d5 91 3d 5a f2 cd bd
       0.0771483 -0.015521534 0.071207374 -0.100559905
000050 98 c1 16 bd a9 a9 d2 bd 82 3c 0c be fe 5a 0c bd
       -0.03680572 -0.10286266 -0.13694957 -0.034266464
000060 e4 05 02 3e d3 f7 1a be 40 76 91 bd dd 33 d1 3d
       0.1269756 -0.151336 -0.071026325 0.1021497
000070 5b e1 d1 bd 4f e8 fc bc f4 63 30 3e 51 2d 10 3d
       -0.10248061 -0.030872492 0.17225629 0.035199467
000080 e7 f1 0b 3e b3 c0 1f be 70 9a 2c be b9 a9 d2 bd
       0.13666497 -0.15600853 -0.16855788 -0.10286278
000090 f4 fa 66 3d 43 5c 8b 3d 08 8c e2 3d 1f 3d ad bd
       0.05639167 0.06804707 0.11061865 -0.084589235
0000a0 03 fd 43 3d 80 99 b6 bd 40 35 cd 3d 61 26 2e 3e
       0.047848713 -0.089159966 0.10019922 0.17006828
0000b0 c1 c8 14 be 10 c6 94 3c b3 5b 1a 3e 3d 56 0c bd
       -0.14529707 0.01816085 0.15074043 -0.03426193
0000c0 8d 44 25 bd 20 75 ee bc 7c a0 49 3c 61 fc 7a 3d
       -0.04034858 -0.029108584 0.012306329 0.061275844
0000d0 4a 6c 41 be d6 af 64 be 78 ea 27 bd cf 2a 1c be
       -0.18888965 -0.22332701 -0.04099509 -0.15250705
0000e0 e8 57 8d bd c5 f6 12 bd 58 66 7e bd 1f 0f ff 3d
       -0.069015324 -0.03587987 -0.06210932 0.12454056
0000f0 02 f3 49 3e 9c a6 f7 bc 8e 6e 07 3e 5b 66 03 3e
       0.19721606 -0.030230813 0.13225767 0.12832014
000100 72 cd e4 3d ca 62 aa bc f4 be bb 3d 7b 7b 91 3c
       0.11171998 -0.02079906 0.09167281 0.017759075
000110 32 b4 84 bd f8 aa a4 3d ad 6e 34 be 5d 25 a4 bc
       -0.06479682 0.08040422 -0.17620344 -0.020037347
000120 72 a8 e5 bd b0 17 8c 3c 9d 08 a8 bd 72 2f f0 3d
       -0.11213769 0.017101139 -0.08204768 0.117277995
000130 44 be 56 be 31 9c 12 be 47 11 b5 3d a9 12 f0 bd
       -0.20971018 -0.14317395 0.08841186 -0.11722309
000140 33 cd 31 be 31 59 96 3d 67 58 49 3c 1f d2 cb bd
       -0.17363434 0.07341231 0.012289143 -0.09952187
000150 e1 53 1a be 79 13 a8 3d 64 de ac bd 5f ea 48 bd
       -0.1507106 0.08206839 -0.08440855 -0.04905164
000160 46 94 f7 3d 48 d2 4d bd 0c fc 31 3e 2b 72 03 3e
       0.12088828 -0.050249368 0.17381305 0.1283652
000170 6a ee 72 bd 69 c5 f3 bc 7d 53 9f 3d bf e4 f5 ba
       -0.0593094 -0.029757218 0.07779596 -0.0018760188
000180 af 6e ff bd 3e b1 66 3d f7 77 04 be 56 fa 13 be
       -0.12472283 0.056321375 -0.12936388 -0.14450964
000190 4a 6d 0f 3e 58 9e 83 bd ba 34 05 bc c4 8a 3d bc
       0.14006534 -0.06426686 -0.008130247 -0.011568729
0001a0 6d 97 ab 3d 80 90 dc 3d 20 04 d5 bd 85 a0 bb bc
       0.083784916 0.10769749 -0.104011774 -0.02290369
0001b0 85 46 64 bd f8 74 20 3e 59 3d b8 bd 52 ab 0c 3e
       -0.055731315 0.1566962 -0.08996076 0.13737229
0001c0 31 89 af 3d 33 4e 40 be 4b 66 49 bd 46 89 93 bd
       0.08571089 -0.1877983 -0.04916982 -0.07203917
0001d0 6e d3 13 be a7 70 d5 3d e7 3a 6b 3c 74 02 d9 bd
       -0.14436123 0.10421877 0.014357305 -0.10596171
0001e0 1f 77 24 be 9c 82 e8 3d 12 6a 8c 3d e8 ac e4 3a
       -0.16061066 0.11353037 0.06856169 0.001744655
0001f0 60 e8 11 3e 90 2c 06 bd 4a 1b 25 bd cb 57 12 be
       0.142488 -0.03275734 -0.040309228 -0.14291303
000200 7d b7 d7 bd 57 6e f6 3d 0d de 52 3d 2e 12 05 3e
       -0.105330445 0.120327644 0.051481295 0.12995216
000210 ca 96 cd bd 75 0e 40 3e 29 11 f2 3d fa bf 02 3e
       -0.10038526 0.18755515 0.11819679 0.12768546
000220 89 bf 33 be 95 ce cb bd 6b 35 79 bd 54 a9 13 3d
       -0.17553534 -0.09951512 -0.06084196 0.036050156
000230 ad cf a9 3c a3 b3 ac 3d 4b 1b d5 3d c4 df dc bd
       0.02072891 0.084327005 0.10405596 -0.107848674
000240 70 e2 bd 3d 2d 21 c3 3d 9e ae 96 3c 3f 08 04 3d
       0.09271705 0.09527812 0.01839381 0.032234427
000250 69 37 3e bd 40 b7 81 bd 55 41 09 3e dd 78 82 3c
       -0.046439562 -0.0633378 0.13403828 0.015926773
000260 4d 96 1a bd f0 9b 9b bd 0c 45 ad bd 4d aa af bd
       -0.037740994 -0.07598102 -0.08460435 -0.08577404
000270 ef 11 98 3d 5a c4 fd bd 38 3a 1d 3e 20 73 57 bc
       0.074252956 -0.12390967 0.1535424 -0.0131500065
000280 96 79 f5 3d f9 72 8e 3d a3 fe dc 3c d8 2a fd bc
       0.11986081 0.06955523 0.026976889 -0.030904219
000290 e4 4e 03 be 60 52 de bd b8 76 11 be 80 33 4c bd
       -0.12823063 -0.108555555 -0.14205444 -0.0498538
0002a0 b2 fc 53 3c d8 8a b3 bd 5a a1 0b 3e 8c a3 d2 bd
       0.012938665 -0.08766717 0.1363577 -0.102851
0002b0 bf 74 20 3c a0 e5 2b 3e 67 e9 bb bb e8 69 3e 3e
       0.009793459 0.16786814 -0.005734611 0.18595088
0002c0 84 54 92 bd 0c bc 5f be 41 3e cc bd 91 2c e7 3d
       -0.07145026 -0.21849078 -0.099728115 0.11287797
0002d0 6b e7 80 3d 93 e1 18 bd 3f 66 fa 3d a6 a6 5f 3d
       0.062941395 -0.0373245 0.12226533 0.054602288
0002e0 af eb 16 be 57 f8 41 3e 30 50 00 be 55 6f fc 3d
       -0.14738344 0.1894239 -0.12530589 0.123259224
0002f0 6f c8 4c 3e 5f aa c2 3d 37 d8 0d 3e aa c1 98 bd
       0.19998334 0.09505152 0.1385201 -0.074588135
000300 14 79 4b 3d 32 8f 48 3c 00 0f fb bd d4 c7 53 bd
       0.049676016 0.012241172 -0.122587204 -0.051704243
000310 fe 53 55 3e 08 33 88 bd dc 5f 6a 3d 79 19 ad bd
       0.20832822 -0.066503584 0.057220325 -0.08452124
000320 52 0e 24 3e 81 3d df bc 6c c4 46 3d 60 76 ae bd
       0.16021088 -0.027251007 0.048527166 -0.08518672
000330 68 92 a4 3c 0a 2e ee bd 65 a2 03 be 39 45 11 3e
       0.020089343 -0.11629875 -0.12854917 0.14186563
000340 19 31 d4 bc 47 7b df 3d 4a d6 92 3d 33 a6 0b 3e
       -0.025902318 0.10912185 0.07169779 0.13637619
000350 c3 33 24 3e 69 5a bf 3d 33 2a 86 bc ca 7d 0a 3e
       0.1603537 0.09343416 -0.016377544 0.13524547
000360 06 1d 10 be 8f be 40 be 37 30 9e 3d 4a 74 00 3e
       -0.14073572 -0.18822692 0.0772404 0.12544361
000370 5e d1 9e 3d 12 c9 31 3e 45 ec 8f 3d 40 5c 10 bd
       0.07754777 0.17361858 0.07027487 -0.035244226
000380 82 38 b9 bd 7a ae 1f 3e 60 cb 6d be 38 70 46 be
       -0.09043981 0.15593901 -0.23222113 -0.19378746
000390 98 0b 9d 3b 39 cc 69 3d bd c9 92 3c 0e f3 0a be
       0.004792642 0.057079528 0.017918462 -0.1356928
0003a0 6f 0d 67 3c 7e 41 f7 bd 55 43 28 3d 6e 20 31 bd
       0.014102324 -0.120730385 0.041079838 -0.043243818
0003b0 35 0f 54 be cf 30 27 be 50 27 d0 bd d2 79 09 bd
       -0.20708926 -0.16327213 -0.10163748 -0.033563443
0003c0 18 5f 81 bd 57 0b be 3c f9 b4 61 bb a5 0f 2c 3d
       -0.06316966 0.023198767 -0.0034440143 0.042007107
0003d0 48 8c 0a bd 9b 2c 7b 3d ab ed 30 3e c9 83 18 be
       -0.03382519 0.061321836 0.17278163 -0.14894022
0003e0 88 1c a5 3d ec 20 e0 3d e0 81 4f bb 0c b5 8c bd
       0.080620825 0.10943779 -0.0031663105 -0.068704695
0003f0 c4 8b 42 3e 67 a8 d7 bc 58 e7 0a be d8 ed 44 be
       0.18998629 -0.026325418 -0.13564813 -0.19231355

encoder_lstm2.weight_hh_l0 f4 [128, 32]
000000 fb 89 5b be 40 d1 2a 3e 35 fd 04 3e e3 a1 2d be
       -0.21439354 0.16681385 0.12987216 -0.16956286
000010 56 75 16 3e e2 6e 9a 3d 9a df 7f 3d 2d 8d d8 3d
       0.14693198 0.075406805 0.062469102 0.10573802
000020 79 67 82 3b 4b 06 d7 bd 17 f3 9d bd 77 9c 03 3e
       0.00397962 -0.10499247 -0.07712381 0.12852655
000030 fe 13 16 be c5 5d c0 3b e8 06 08 3e ac bb 81 bd
       -0.14656064 0.005870553 0.13283885 -0.06334624
000040 12 7f 41 bb 69 0f 15 3e 7b 0c 18 3e 52 5d 53 bd
       -0.0029525203 0.1455666 0.14848511 -0.05160267
000050 2b 86 e3 bc 62 6d 30 3e ce 93 4e 3e 21 44 fd bd
       -0.027773937 0.17229226 0.2017357 -0.1236651
000060 19 03 4d be 6f 1f a3 bd 05 a5 25 3c d7 70 d9 3d
       -0.20020713 -0.0796498 0.0101101445 0.106172256
000070 73 fd 16 be 21 e0 1b be e6 6d 33 3d 58 24 c8 bd
       -0.1474512 -0.15222217 0.04380598 -0.09772557
000080 8c de 1a bd 9a ab be 3d 46 67 90 3c 8d 33 7d bd
       -0.037809893 0.09310074 0.01762737 -0.06181674
000090 18 56 a2 bd 79 54 56 3e 84 cd 16 bd d2 94 dd bd
       -0.07926577 0.20930661 -0.03681709 -0.10819401
0000a0 f7 86 c9 bd 39 ca 14 3e 07 be 2a 3e 42 fc 9c 3d
       -0.098401956 0.14530267 0.16674052 0.07665302
0000b0 14 03 fe 3d 66 24 51 3e ac e7 d7 bd e6 63 2a 3d
       0.12402931 0.20424041 -0.10542235 0.041599177
0000c0 2a cd 7e bd 03 85 29 be 5e 30 4c be 37 bc 8a 3d
       -0.06220738 -0.16554646 -0.19940326 0.067741804
0000d0 ac 7a 9d bd 1d d8 3e be 69 77 d1 3d 77 22 ea 3c
       -0.076894134 -0.18637128 0.10227854 0.028580887
0000e0 57 02 be bd 09 87 52 bd fd a2 e7 bd 2f 7a 29 3e
       -0.0927779 -0.05139831 -0.113103844 0.16550516
0000f0 98 c5 ea 3c 24 3a 14 bd 5a 64 9c bd 93 6f 02 be
       0.028658673 -0.03618826 -0.07636328 -0.12737875
000100 0e a0 c3 3d cb 70 fe 3c 77 f9 24 be 5b a0 38 be
       0.095520124 0.031059643 -0.16110788 -0.18029921
000110 de 8e 04 be c0 8c 06 be 03 f5 81 bd 14 73 0e 3e
       -0.12945125 -0.1313963 -0.063455604 0.13911086
000120 20 f7 e6 3d 18 94 88 bd 1f a5 39 3e c8 44 30 3e
       0.11277604 -0.06668872 0.18129395 0.17213738
000130 be 1c 9a 3d ca f7 e1 bd 43 c3 dd 3d ff b7 16 3e
       0.075250134 -0.1103359 0.10828259 0.14718626
000140 c9 86 df bd c9 30 a2 bd e6 bc fc bd 15 e3 bf bd
       -0.1091438 -0.07919461 -0.12340717 -0.09369484
000150 23 39 9d 3c d8 f3 08 3e db 94 81 bd 7e 2f ae bc
       0.019192284 0.13374269 -0.0632722 -0.02126288
000160 ab b4 3a 3d 34 33 51 3c 1b 2e 36 be e7 e5 09 be
       0.045582455 0.012768555 -0.17791025 -0.13466607
000170 95 36 ae 3a db 40 38 bc 5d 65 8f bd 81 9c 20 be
       0.0013291413 -0.0112459315 -0.070017554 -0.15684702
000180 dd 32 a7 bb d3 86 fa 3c 5c 3d d1 3d 41 f9 98 bd
       -0.005102499 0.030581867 0.102167815 -0.074694164
000190 8a 2d 3c be 65 22 b1 3c 6a e4 2e 3b 72 0b 2e 3e
       -0.18376747 0.021622846 0.0026686438 0.16996554
0001a0 40 9d a8 bd fe ae 1e be 8a 17 c8 3d 4a c6 86 bc
       -0.08233118 -0.15496442 0.09770115 -0.016451973
0001b0 11 e7 c0 3c 07 e0 cd bd 4a 4b a2 bc 4b a9 60 3c
       0.023547681 -0.100524954 -0.019811291 0.013712238
0001c0 8a f8 1e 3e c6 f6 20 bd 44 4a 12 3e 41 ba db bb
       0.15524498 -0.03929784 0.14286143 -0.006705553
0001d0 41 97 71 3d e9 5f 12 bd 53 58 e2 3c ab a9 e6 bd
       0.058982138 -0.035736 0.027630007 -0.1126283
0001e0 3f 9d 1d bd 63 d0 27 be 4e d1 2a 3d e1 85 fc 3d
       -0.03848004 -0.16388087 0.041703515 0.12330223
0001f0 fd 53 de bd b9 41 ce 3d df 41 40 be 9c bc 27 be
       -0.10855863 0.10071129 -0.18775128 -0.16380543
000200 fe 04 5d 3e 32 50 d0 bd 40 74 a9 3c 56 bb 6c bd
       0.21583936 -0.10171546 0.020685315 -0.057795845
000210 d9 d5 27 3d 88 80 57 3e c9 a0 90 3d a2 ef f4 bd
       0.040975425 0.21045125 0.07061917 -0.11959769
000220 77 9c d0 bd d6 ce 02 be 2b 47 9b 3d 33 ab 53 3e
       -0.10186093 -0.12774214 0.075819336 0.20670776
000230 59 6a 86 3d fa 74 85 3e 13 bc 33 3e 9c c2 3c 3d
       0.06563253 0.2606581 0.17552213 0.04608403
000240 99 3f 13 3e 21 65 b6 bd f3 b0 bf bd a6 d9 37 3d
       0.1437973 -0.089060076 -0.09359922 0.0448853
000250 8f 08 4c bd 3c 29 17 be cf 90 3e bd 09 71 3d bd
       -0.04981285 -0.14761823 -0.04652482 -0.046250377
000260 70 f1 86 3e 2b 86 ea 3d a9 ae b5 bd 35 5e 13 3e
       0.26356077 0.11451372 -0.088712044 0.14391406
000270 24 a3 e3 3d b4 fc 72 bd 89 32 b2 bd 53 f0 6c 3d
       0.11115101 -0.059323028 -0.08701045 0.05784638
000280 05 c4 22 bd 26 77 d7 bd d9 2b d7 bd 85 3b 08 3e
       -0.03973772 -0.10520773 -0.1050641 0.13303955
000290 e6 9a e5 3d c6 82 59 be 5f 08 1a 3e f2 fb 8b 3c
       0.11211185 -0.21241292 0.15042256 0.01708791
0002a0 17 45 06 bd 0b eb 9c 3d 24 f7 12 3d 73 03 4b 3e
       -0.032780733 0.076620184 0.035880223 0.19825535
0002b0 93 bd 0c 3e b3 22 30 be 6a 5d 25 bd 68 f3 a0 bd
       0.13744192 -0.17200737 -0.04037229 -0.07858926
0002c0 6b 55 0d 3e cc f8 e9 3d 36 39 ad 3d 11 05 02 be
       0.13802116 0.11424407 0.08458178 -0.12697245
0002d0 f3 71 b3 3c b6 21 e6 bd c9 39 e6 bc a0 57 b0 bd
       0.021904921 -0.112368986 -0.028103726 -0.08610463
0002e0 fb 12 e8 3c 0e 02 1c 3e 2b 25 e6 3d 53 c5 3b 3d
       0.028329363 0.15235159 0.11237558 0.04584248
0002f0 73 f7 c6 3d 21 5b f4 bd 4e 5e a9 bd 86 5c 7e 3d
       0.09715166 -0.11931444 -0.0826994 0.062099956
000300 52 37 80 3d 20 9e 99 3d 61 99 f3 bd b0 c6 6d bc
       0.062605515 0.07500863 -0.11894489 -0.014512703
000310 c2 72 ac bb 5d 11 16 3d 2f 4a 43 3e cc 77 80 bd
       -0.0052627036 0.036637653 0.19071268 -0.062728494
000320 83 25 9c bd 6b 0b 6f 3d fe 0d 46 3c 5b ad ad bd
       -0.07624342 0.0583605 0.012088297 -0.084803306
000330 25 ea 07 be b8 d6 cf bd 87 45 92 bc bd 9a f9 3d
       -0.13272913 -0.10148376 -0.017855419 0.12187717
000340 1c d4 b4 3d 35 0e 5d bc a4 8b 2a 3e df 68 d4 bd
       0.08829519 -0.013492157 0.16654831 -0.10371565
000350 22 4c f2 bb e3 51 26 3d ce 15 c5 3d 8a 8d 39 be
       -0.0073943296 0.040605437 0.096232995 -0.18120399
000360 d0 cc a0 3d 0b 03 88 3d 7d 75 73 3c 1b f8 4c bd
       0.07851565 0.066412054 0.014859554 -0.0500413
000370 33 85 81 bd ce 6d d4 bd a0 a0 1b bd dc 0f 1f 3e
       -0.06324234 -0.10372506 -0.03799498 0.15533394
000380 4a 0e dd bd 46 e2 cb 3b 2f 32 c3 3d 6a f5 0d bd
       -0.10793741 0.0062220423 0.09531056 -0.034657873
000390 eb 0d 9f bc 36 cf 0b be 3f 67 98 3d de 66 1f be
       -0.019415816 -0.13653263 0.07441568 -0.15566584
0003a0 e8 2e aa 3c ca 0c 33 3d 6c e2 20 3e a9 77 fe bd
       0.02077432 0.04371337 0.15711373 -0.12425167
0003b0 4c 38 09 3e 60 75 50 be c7 60 01 3e 4b 65 44 3e
       0.13400382 -0.20357275 0.12634574 0.19179265
0003c0 96 73 8c 3d 6b 6c c6 b9 78 59 d9 3d f6 e6 1c be
       0.06857984 -0.0003784628 0.10612768 -0.1532248
0003d0 ec cf ca 3d 54 d7 27 3e 51 fb e4 bd b1 20 1a 3e
       0.09902939 0.16390735 -0.11180747 0.15051533
0003e0 60 ad f2 bd 53 ca c3 3a 9f 48 14 3e 92 e4 26 3e
       -0.11849475 0.0014937617 0.14480828 0.1629813
0003f0 b8 87 ae 3d 27 d2 48 bc 66 f2 f0 3d af 07 2f 3d
       0.0852198 -0.0122571355 0.11764984 0.042731937

encoder_lstm2.bias_ih_l0 f4 [128]
000000 80 12 0e 3c 0f d8 18 3e 6a c0 b0 bd 9a 15 b1 3c
       0.008671403 0.1492617 -0.0863045 0.021616746
000010 95 71 71 3c 93 8e a7 bd 21 4f 49 bd 08 dc f1 3b
       0.014736553 -0.08181491 -0.04914773 0.007380966
000020 22 ba a7 3d f5 97 ce bd 82 e6 52 bd d3 ba 17 bc
       0.08189799 -0.10087577 -0.05148936 -0.009260851
000030 33 49 5f 3d fc b1 0b 3e f8 7a af bc d0 67 07 3e
       0.054513168 0.13642114 -0.02142094 0.13223195
000040 d4 09 21 be b9 f4 c4 bd 59 0d 4e 3e 05 d5 c4 bd
       -0.15726405 -0.0961699 0.20122279 -0.09610943
000050 34 ce 03 be d2 e1 c0 bd 2a 6b 3f 3c 1b ee a0 bd
       -0.12871629 -0.09418072 0.011683265 -0.07857915
000060 cf 8f e3 bd 3a 0b 95 bd 03 09 e9 bd 25 ed f1 bd
       -0.11111414 -0.07277532 -0.11378672 -0.1181281
000070 e4 34 d1 3d 24 92 d8 3d fa c8 2e bd 5f f7 95 3c
       0.10215166 0.10574749 -0.042672135 0.018306432
000080 81 53 02 3c fc c0 0c 3e 11 6c 14 be 18 c5 9c 3d
       0.007954479 0.13745493 -0.14494349 0.0765478
000090 49 3b 3c 3e a4 46 49 bd 15 4c 1f 3e 72 b2 ca bd
       0.1838199 -0.049139634 0.15556367 -0.09897317
0000a0 bd f9 11 3d 7b 5b 90 3d e5 54 49 3d ab d2 1a be
       0.03563856 0.070486985 0.049153227 -0.15119426
0000b0 00 7f 0b be ae 1c be 3d 27 59 83 3c 29 94 fe bc
       -0.13622665 0.09282814 0.016033722 -0.031076508
0000c0 7f 1b ad bd 6a fb a0 bd 63 7d 18 bd 2c 19 02 3d
       -0.0845251 -0.078604534 -0.037228953 0.031762287
0000d0 bb dd f0 3d d6 d6 47 bc 62 9d fd bd 5e db d3 3d
       0.11761042 -0.012197217 -0.12383534 0.10344575
0000e0 da 0b b2 3d 62 e2 c5 3d 9c 00 8e bd e0 ae d5 3d
       0.08693667 0.0966232 -0.0693371 0.104337454
0000f0 61 80 f8 3d e6 50 97 3d df 93 6f bc 17 76 21 3e
       0.12133861 0.07388477 -0.014622658 0.15767704
000100 00 8b d8 3d cb 26 b9 3d e0 1b 25 be 09 56 0b bd
       0.10573387 0.09040602 -0.16123915 -0.034017596
000110 2e 0a 82 bb 53 37 1b bd c7 61 9d bd 8e 3d 4f bc
       -0.0039684987 -0.03789456 -0.07684665 -0.012648953
000120 dd 7a 8f bd 5f 58 20 3e 66 39 d4 3d cb e0 da 3d
       -0.07005856 0.15658711 0.103625104 0.10687407
000130 60 f8 4a bd 54 4e 22 3c 0a 2b d8 bd 98 6c 77 bd
       -0.049553275 0.00990637 -0.10555084 -0.060406297
000140 24 7c da bd 13 d1 95 3c 19 8b 05 3e b9 bc 24 3e
       -0.10668209 0.01828817 0.13041343 0.16087617
000150 8d 2d 59 bc 32 8b f3 bd 77 55 f9 bd a8 b7 2a be
       -0.013255489 -0.11891784 -0.12174504 -0.16671622
000160 e5 58 25 bd 34 40 20 3e 71 7e 2d 3e 63 ee 5a bc
       -0.04036798 0.15649492 0.16942765 -0.0133625
000170 ea 44 db 3d 8d a8 0f bd 0b 23 7a bd 0e c3 a6 3d
       0.10706504 -0.035072852 -0.061068576 0.081426725
000180 17 40 ee bd 2b 85 04 3e 61 56 4f 3b cd 3d 2f be
       -0.11633318 0.12941425 0.003163718 -0.17113419
000190 ba a0 f3 bd e2 d6 c5 bd f9 ae d3 3d 00 f2 10 be
       -0.118958905 -0.09660126 0.10336108 -0.14154816
0001a0 24 94 0b 3e a5 6a 5e 3d 94 ac 88 bb 0b 79 23 bd
       0.1363073 0.054300923 -0.0041709635 -0.039910357
0001b0 16 97 d1 3d 1d 47 f4 bd d1 71 61 3d 5e ae 18 be
       0.102338955 -0.11927626 0.055040184 -0.14910266
0001c0 3d e3 0e be 4d ca a8 bd 0b 22 cc bd 9b 3c ec 3c
       -0.13953872 -0.08241711 -0.09967431 0.028837493
0001d0 5a 47 15 3e 58 8a 19 3e 4d 35 ca 3d 89 5f 92 bc
       0.14578 0.1499418 0.098734476 -0.01786782
0001e0 f0 3a 24 3e 2d 50 0b be 7e 25 bb 3d 76 ad cb bc
       0.16038108 -0.13604803 0.091380104 -0.024862986
0001f0 17 15 c5 bb 81 fa da 3d 7b f9 2c bd 46 0d d6 3d
       -0.006014477 0.10692311 -0.04223011 0.104517505

encoder_lstm2.bias_hh_l0 f4 [128]
000000 16 99 98 bd e6 48 ff bd 1e 0f 4c bd 4a ff f6 3d
       -0.07451074 -0.12465076 -0.049819104 0.12060411
000010 bf b2 6f 3d 7f 68 17 bd eb a7 f5 bd de 93 35 3e
       0.058520075 -0.03696489 -0.119949184 0.17732188
000020 8e f8 49 bd 1f 83 04 be ec 19 b7 3c a9 d3 cc 3d
       -0.049309306 -0.12940644 0.022351228 0.100013085
000030 d5 e5 7e bd 74 93 02 3e ed fe 85 bd 09 5b c2 bd
       -0.062230904 0.12751561 -0.06542764 -0.0949002
000040 fe 4b 64 bd 87 7a 87 3d dc 68 0a 3e 29 e9 22 3e
       -0.055736534 0.06615167 0.13516563 0.15909256
000050 42 11 66 3d 70 e7 b1 bd 4d c1 15 be 23 38 cb bd
       0.056168802 -0.08686721 -0.1462452 -0.099228166
000060 fe 4a 38 3e 6d e3 e0 bc 71 8c e5 bc 65 aa 4e be
       0.17997357 -0.027452195 -0.02802107 -0.20182188
000070 bc d7 15 be 7a 1f 33 bb bf 04 fb 3d 3f ac b5 bd
       -0.14633077 -0.0027331994 0.122567646 -0.08870744
000080 2f 95 c8 bd 0a 7e 00 3e 86 51 dd 3d ea 99 da 3d
       -0.097940795 0.1254808 0.10806565 0.10673888
000090 63 a8 3d bd 64 d3 0b 3d 72 2f 6b bd 0f 90 8b 3d
       -0.046303164 0.034137145 -0.057418294 0.06814586
0000a0 bf 42 65 3d 9c c3 b3 bd 77 d0 83 bd a0 a6 6a 3d
       0.055971857 -0.08777544 -0.06436246 0.057287812
0000b0 31 ab d7 3d 9e 9e b5 3d ac 15 84 3d 7a 05 e9 bd
       0.10530699 0.088681445 0.06449446 -0.11377998
0000c0 38 31 e5 3d db 81 94 bc 93 47 93 bd 90 1b 23 3c
       0.11191028 -0.018128326 -0.07191386 0.009955302
0000d0 91 96 11 be de a1 6c 3d ec 4b f2 bc c0 8c 84 bd
       -0.14217593 0.057771556 -0.029577218 -0.064721584
0000e0 2a 78 0d bd f3 4e 66 bd cb 4d e3 bd 82 0d 83 3b
       -0.034538426 -0.056227636 -0.11098822 0.003999413
0000f0 c2 ef 66 3a 21 76 36 3d d5 d2 1d bd 38 18 d2 3d
       0.00088095304 0.04454625 -0.038531143 0.102585256
000100 0f 5f 68 bc 1d 41 d6 bc c5 ba 8e bd d4 48 06 be
       -0.01418282 -0.026154095 -0.06969217 -0.13113719
000110 b6 93 16 3e 78 97 e8 3d 8e a6 cb bc b6 f9 10 3e
       0.14704785 0.11357015 -0.024859693 0.14157757
000120 a2 c4 9c bc 0f f6 19 be fd 9c 7c 3c 94 37 5d bd
       -0.01913673 -0.1503527 0.015418288 -0.05400808
000130 c1 7e 1a 3e 7a 03 19 3e 93 27 4e bd fb 5f a9 3d
       0.15087415 0.14942732 -0.05033071 0.0827026
000140 37 52 09 be 01 75 e3 bd 42 8b eb bd 49 48 37 bd
       -0.13410269 -0.11106301 -0.11501171 -0.04474667
000150 b2 d8 90 3c a7 98 93 bc 4f c5 a3 bb c7 e1 e3 bc
       0.017681453 -0.018017126 -0.0049978863 -0.02781762
000160 ba 60 bf 3c 8b c0 6a 3d 7a 2b 29 be 25 14 90 bd
       0.023361553 0.05731253 -0.16520491 -0.07035092
000170 16 33 03 3e 6f e0 a2 3d f9 f1 79 bc aa 22 0a 3e
       0.12812456 0.079529636 -0.015255445 0.13489786
000180 0b 52 c0 3d ac a4 fd ba 5c 18 68 bd 02 bc e4 bc
       0.093906485 -0.0019351444 -0.056663856 -0.02792168
000190 91 f0 01 3e 97 45 c8 bd d3 36 10 bd 8f f2 d3 3d
       0.12689425 -0.09778898 -0.035208534 0.10348999
0001a0 48 e3 2c 3e 90 09 a9 bd 63 c3 1b bd 3a 1b d2 3d
       0.16883576 -0.08253777 -0.038028132 0.10259099
0001b0 97 65 88 bd 7b 9e 24 3d 6d 9a 77 bd eb f7 19 3d
       -0.06660002 0.0401902 -0.060450006 0.03758995
0001c0 b3 1e fe bd a9 05 14 bd ae fa 1a 3e 44 c8 27 bd
       -0.12408199 -0.03613821 0.15134689 -0.040962473
0001d0 dc 82 fd bb 9b ca 5e 3d 4c 28 b1 3c 43 38 17 3e
       -0.007736547 0.05439244 0.02162566 0.14767556
0001e0 79 1a 59 3e e9 3d af bd 8a be 4e 3e 16 e4 41 be
       0.21201505 -0.0855673 0.20189872 -0.18934664
0001f0 c2 bf 4a 3d 81 eb 00 3e eb 16 1d bc d8 13 c9 3d
       0.04949928 0.12589838 -0.009587984 0.09818238
