models/WH002_SKU-018.pth (torch, 830897 bytes, 13 tensors)

lstm.weight_ih_l0 f4 [512, 6]
0	0xbc3be0fb	-0.011467214
1	0x3dba9771	0.091109164
2	0x3d7f7eca	0.062376775
3	0xbd52a45b	-0.051426273
4	0xbb5daba7	-0.0033824237
5	0xbd37c950	-0.04486972
6	0x3a1dab56	0.0006014606
7	0xbdaa0796	-0.08302228
8	0xbdaad2ff	-0.083410256
9	0xbda1680e	-0.07881175
10	0xbd217272	-0.039415784
11	0xbdceaf98	-0.100920856
12	0x3dc71223	0.09720256
13	0xbc86b0a4	-0.01644165
14	0xbd24ec34	-0.040264323
15	0x3d0fb062	0.03508032
16	0xbbaef445	-0.005339178
17	0x3d5dd710	0.054160178
18	0xbd3c1bd6	-0.045924984
19	0x3d6de305	0.05807783
20	0x3d9f9398	0.07791823
21	0xbd690446	-0.05688884
22	0x3dc18d26	0.0945075
23	0x3d9bef2a	0.07613976
24	0x3bc9c108	0.0061570443
25	0x3d52aee0	0.051436305
26	0xbc59bb0f	-0.013289227
27	0x3d132b0a	0.035929717
28	0x3db1be66	0.08678894
29	0x3d8b3385	0.06796936
30	0xbd2b71a4	-0.041856423
31	0x3d87f3a3	0.06638267
32	0x3b9d0171	0.0047914316
33	0x3de20807	0.11036687
34	0xbac62693	-0.0015117697
35	0xbc07e584	-0.008294467
36	0x3bcfe931	0.0063449373
37	0x3d445230	0.047929943
38	0xbd5df54f	-0.054189023
39	0x3d81e6f0	0.06342876
40	0x3b43176f	0.0029768606
41	0xbc21ecc2	-0.009883108
42	0xbd235779	-0.039878342
43	0x3d531e49	0.051542554
44	0xbcb5e718	-0.02220492
45	0x3d94e0a4	0.07269409
46	0xbd155735	-0.03646012
47	0x3d915199	0.07095642
48	0x3dbb0eef	0.09133708
49	0x3ba5d930	0.005061291
50	0x3ce6feb6	0.028197628
51	0x3d5cfdca	0.05395297
52	0xbca5da97	-0.020245833
53	0x3d0092b5	0.03138991
54	0x3da14a4a	0.07875498
55	0x3d0fbef3	0.035094213
56	0x3b4195ef	0.002953883
57	0x3d5a09dd	0.053232063
58	0xbd836425	-0.064155854
59	0x3c3cc757	0.011522136
60	0xbd189d5d	-0.03725945
61	0xbd83e70d	-0.06440554
62	0xbd843ab4	-0.06456509
63	0xbd448c40	-0.047985315
64	0x3befa498	0.0073133223
65	0x3c681c34	0.01416688
66	0x3d789533	0.060689162
67	0x3db4a530	0.088205695
68	0x3d9388db	0.072038375
69	0xbd127606	-0.035757087
70	0x3d8d9532	0.069132224
71	0x3dc07345	0.09396986
72	0xbd2d511b	-0.042313676
73	0xbaffd206	-0.0019517548
74	0x3daa3763	0.083113454
75	0x3de437db	0.11143466
76	0x3dc8506d	0.09780965
77	0x3cf3e34d	0.029771471
78	0x3d62d063	0.055374514
79	0x39d2b553	0.00040189418
80	0x3d48340a	0.048877753
81	0xbba64f04	-0.0050753374
82	0x3cbf55a7	0.023356272
83	0xbb6cf5fb	-0.0036157358
84	0x3d0922a6	0.03348031
85	0x3d9c708a	0.076386526
86	0xbc103395	-0.008801361
87	0x3d4a26c9	0.049353395
88	0x3d8ef191	0.06979669
89	0xbcc79f91	-0.02436808
90	0xbd4da8e5	-0.0502099
91	0x3d9ea73a	0.0774674
92	0xbb763b65	-0.0037572023
93	0xb985bba5	-0.00025507543
94	0xbc73d809	-0.01488305
95	0x3d89f15a	0.06735487
96	0xbd778273	-0.06042714
97	0x3ce4191b	0.027844002
98	0x3ab8319f	0.0014052874
99	0x3ba528aa	0.005040248
100	0x3d5daf1f	0.054122087
101	0x3c6f0992	0.014589684
102	0x3c838460	0.016054332
103	0x3db6bfef	0.08923327
104	0x3dc28d22	0.09499575
105	0x3d2aa74e	0.04166346
106	0x3d9d0420	0.076668024
107	0x3dca36b4	0.09873715
108	0x3c74d940	0.014944375
109	0xbd42e94e	-0.047585778
110	0x3d2e23cc	0.042514607
111	0x3da6eee8	0.081510365
112	0x3d63a247	0.05557468
113	0x3d66d70d	0.056357432
114	0x3d7c6aaa	0.06162516
115	0x3b9bb746	0.0047520725
116	0xbd8ff52c	-0.07029185
117	0x3caf2339	0.0213791
118	0x3d3df305	0.04637434
119	0xbd649130	-0.055802524
120	0x3c374bc1	0.011187495
121	0x3d585749	0.052817617
122	0x3cac44f8	0.02102898
123	0x3d57a9af	0.052652057
124	0xbc5c068e	-0.013429297
125	0x3d1c0999	0.03809509
126	0x3db786dd	0.0896127
127	0xbca220e5	-0.019791076
128	0x3c43b608	0.011945255
129	0x3d65674a	0.056006707
130	0x3d1313d1	0.03590757
131	0xb991f2ff	-0.000278376
132	0x3bc90987	0.006135169
133	0x3da218c1	0.07914878
134	0xbd7a7707	-0.06114867
135	0xbd2e6c15	-0.042583544
136	0x3d835121	0.064119585
137	0xbd2340a7	-0.03985658
138	0x3dd7e79b	0.10542222
139	0x3d0a2731	0.033728782
140	0x3d03c41a	0.03216944
141	0x3c51ebf9	0.012812608
142	0xbd7b6ed1	-0.06138498
143	0xbb4e6a52	-0.0031496477
144	0x3dd6b1cd	0.104831316
145	0x3dc428b9	0.0957808
146	0x3d6eba84	0.058283344
147	0x3b359778	0.002770869
148	0x3cebf7a2	0.028804604
149	0xbc7e85d8	-0.0155348405
150	0x3cd4e842	0.025989655
151	0xbd7837f9	-0.060600255
152	0xbc265326	-0.01015166
153	0xbc6cd630	-0.014455363
154	0xbd839258	-0.06424397
155	0xbc8d0986	-0.017216455
156	0x3db27ed4	0.08715597
157	0xbcf183a9	-0.029481726
158	0x3dc3a0a0	0.09552121
159	0xbcbb6e22	-0.022879664
160	0x3cd3575b	0.02579849
161	0x3d3d95c0	0.04628539
162	0x3b57deb2	0.0032939133
163	0x3d29e158	0.04147467
164	0x3c9f41b1	0.019440504
165	0x3ce973fd	0.02849769
166	0x3c998b08	0.018743053
167	0x3ca7e788	0.020496145
168	0x3dae8def	0.085231654
169	0x3d86a7c6	0.06574969
170	0x3dd1330f	0.10214817
171	0x3db8d2f8	0.09024614
172	0x3d336798	0.043799967
173	0xbced6811	-0.028980287
174	0x3d682ce5	0.05668344
175	0xbd0caa74	-0.034342244
176	0x3cc4aac4	0.024007209
177	0xbd3db950	-0.046319306
178	0x3dd576aa	0.10423024
179	0xbd6150fa	-0.055008866
180	0x3dc837a5	0.09776238
181	0xbd58e929	-0.052956734
182	0x3d92f665	0.07175902
183	0x3dcf07b4	0.10108891
184	0x3ceb9e2d	0.028761948
185	0xbd0da18e	-0.0345779
186	0x3d5bec27	0.05369201
187	0x3de1da16	0.11027925
188	0x3cea6d48	0.028616562
189	0x3d8d1540	0.06888819
190	0x3c6a390f	0.01429583
191	0xbd5d506b	-0.05403177
192	0x3dd69baa	0.10478909
193	0xbce796f2	-0.028270219
194	0xbd551fe7	-0.052032378
195	0x3c1a5b71	0.009421215
196	0xbd704e19	-0.05866823
197	0x3dc203db	0.094733916
198	0x3d00493c	0.03131984
199	0x3dd09f0f	0.10186588
200	0x3ba01582	0.0048853764
201	0x3b512d04	0.00319177
202	0xbd63004f	-0.055420216
203	0x3cfa525a	0.030556846
204	0x3c4e0a93	0.012575763
205	0xbd271cd8	-0.040798992
206	0xbd2d13f7	-0.042255368
207	0x3d94be4a	0.07262857
208	0x3d291504	0.041279808
209	0x3d4141fa	0.04718206
210	0xbc300137	-0.010742477
211	0x3b31a19a	0.0027104379
212	0xbb8f3343	-0.0043701245
213	0x3d4dcef1	0.050246183
214	0x3c20b00c	0.009807598
215	0xbd146ac1	-0.03623462
216	0xbcd54d0a	-0.026037712
217	0xbad57754	-0.0016286173
218	0xbd448172	-0.04797501
219	0xbce26db4	-0.027640201
220	0xbd749d04	-0.059720054
221	0x3d0ade85	0.033903617
222	0x3d27aa25	0.040933747
223	0xbcc77c14	-0.024351157
224	0x3dceff83	0.10107329
225	0xbb4a385f	-0.0030856354
226	0xbccaccd8	-0.02475588
227	0x3dd27b67	0.102774434
228	0x3dad0253	0.08447709
229	0x3d09c61c	0.033636197
230	0x3d8fadd6	0.070155784
231	0x3dc0be1e	0.09411262
232	0xbd2d33b9	-0.042285655
233	0x3d924217	0.07141512
234	0xbd14d489	-0.0363355
235	0x3d2e6b7c	0.042582974
236	0x3d800dea	0.06252654
237	0x3c76cf39	0.015064054
238	0x3be9e1ec	0.0071375277
239	0xbcdfd2bc	-0.027322166
240	0x3d227192	0.03965909
241	0xbd333e3b	-0.04376052
242	0xbc3e117a	-0.011600846
243	0x3d9f5749	0.0778032
244	0x3dc43758	0.095808685
245	0x3c9bef31	0.019034954
246	0x3ce7b201	0.028283121
247	0xbcddb5a1	-0.027064146
248	0xbd646394	-0.055759028
249	0x3d703648	0.058645517
250	0xbb24d509	-0.0025151393
251	0xbd570393	-0.052493643
252	0xbd268e85	-0.04066326
253	0x3d3867c9	0.045020852
254	0x3db9e22d	0.09076343
255	0xbd403f75	-0.046935517

lstm.weight_hh_l0 f4 [512, 128]
0	0x3d0597a7	0.03261533
1	0xbc295941	-0.010336221
2	0xbd80b3d1	-0.06284297
3	0x3d7edd4c	0.062222764
4	0x3d1efc83	0.038815033
5	0xbd0286cf	-0.031866845
6	0xbd93560a	-0.07194145
7	0xbcdcdf32	-0.026961897
8	0x3ddfe420	0.10932183
9	0x3d0650b1	0.032791797
10	0xbcf14f96	-0.029456895
11	0xbdd729af	-0.105059974
12	0x3d7a48ad	0.061104465
13	0xbbde185d	-0.0067778067
14	0x3d81e9e9	0.06343443
15	0xbdc1f6c4	-0.09470895
16	0x3d275f57	0.040862408
17	0xbd74d5bb	-0.05977414
18	0x3d1f45f5	0.038885076
19	0x3da5ae20	0.08089852
20	0xbd16812f	-0.036744293
21	0x3d793cd0	0.06084901
22	0xbdadb0c9	-0.08480985
23	0xbd1c2f1f	-0.038130876
24	0xbc025098	-0.007953785
25	0xbc10ff40	-0.008849919
26	0x3b2df20a	0.0026541972
27	0xbd8993ab	-0.067176186
28	0x3b46d4c5	0.0030339223
29	0xbd9281c9	-0.07153661
30	0xbd5d37d9	-0.05400834
31	0x3a0362aa	0.00050119555
32	0x3d1630e7	0.03666773
33	0x3c89c4a4	0.016817398
34	0x3d8c1dce	0.06841622
35	0xbd422dcb	-0.047406953
36	0x3d6a1903	0.05715276
37	0xbd4a73ea	-0.04942695
38	0x3ddc113a	0.10745473
39	0xbd486e39	-0.04893324
40	0xbc0c44a9	-0.008561292
41	0xbd5e4c7a	-0.054272152
42	0x3dd10b91	0.10207284
43	0xbc31fab8	-0.010862999
44	0xbcc21397	-0.023690982
45	0xbd9e2f9f	-0.07723927
46	0x3c26f1ce	0.010189487
47	0x3ddb1c4f	0.10698759
48	0xbc673c15	-0.014113446
49	0x3cc131cf	0.02358332
50	0x3d502951	0.050820652
51	0x3c4455ac	0.011983316
52	0x3bf5cbc8	0.0075010993
53	0xbc559812	-0.013036745
54	0xbdc2f159	-0.0951869
55	0xbd710fc4	-0.058852926
56	0x3dc3ec76	0.09566586
57	0x3d7690e7	0.060196783
58	0x3c73cb0a	0.014879951
59	0x3d02e949	0.03196076
60	0xbd0667c3	-0.0328138
61	0x3c7eaede	0.015544621
62	0xbd565073	-0.052322816
63	0x3ce94c81	0.028478863
64	0x3da79bef	0.08184039
65	0x3d84923d	0.06473205
66	0x3d5dd9cf	0.054162797
67	0xbd8628fe	-0.065507874
68	0xbd765ab7	-0.060145106
69	0xbd4d99e3	-0.050195586
70	0x3c1682d0	0.009186462
71	0x398ff47b	0.00027457238
72	0xbd02174c	-0.0317605
73	0xbd89a9fe	-0.067218766
74	0x3d4ca5bd	0.049962748
75	0x3d73d189	0.059526
76	0x3cc8f26a	0.024529655
77	0xbdabb309	-0.083837576
78	0xbd846503	-0.06464579
79	0xbd3b6dd7	-0.04575905
80	0x3d7e719a	0.062120058
81	0x3d568620	0.052374005
82	0x3d7002f6	0.058596574
83	0x3dd4c926	0.103899285
84	0x3d59ecb9	0.053204272
85	0x3d6ee47d	0.058323372
86	0x3b96ce04	0.0046021957
87	0xbd6af8b2	-0.05736608
88	0xbd4852ad	-0.04890697
89	0xbcf2524f	-0.029580263
90	0xbd1cc199	-0.038270567
91	0xbd818a23	-0.063251756
92	0x3c53838f	0.012909784
93	0xbcd9a5fa	-0.026568402
94	0x3d932953	0.07185616
95	0xbd2d667d	-0.04233407
96	0x3c567e40	0.013091624
97	0x3d02eb7e	0.031962864
98	0x3c0df08e	0.00866331
99	0xbc4f81f2	-0.012665259
100	0x3d5531c9	0.052049432
101	0xbc726f98	-0.014797114
102	0xbc0ff8e1	-0.008787365
103	0x3da772e9	0.08176214
104	0xbd6f4bcd	-0.0584219
105	0x3d37d0e8	0.044876963
106	0x3cd323fd	0.025773996
107	0x3dcc1d74	0.09966555
108	0xbdc75233	-0.09732475
109	0x3d702596	0.058629595
110	0x3bfb5051	0.0076694866
111	0xbde07aa8	-0.10960895
112	0xbca46b5d	-0.020070726
113	0x3ddc1e26	0.10747938
114	0xbda5a1bc	-0.08087489
115	0xbd08cc3c	-0.033397898
116	0x3c2f7936	0.010710051
117	0x3dbe583c	0.09294173
118	0xbdb56714	-0.08857551
119	0x3d34f84f	0.044182118
120	0xbd94c456	-0.072640106
121	0xbc1c98b3	-0.009557891
122	0xbcfe1e0f	-0.031020192
123	0x3c1578db	0.0091230525
124	0x3ca877b2	0.020564888
125	0xbdd22769	-0.10261423
126	0xbdaedbb2	-0.08537997
127	0x3d4cb656	0.049978577
128	0x3d47fc7d	0.048824776
129	0xbcab4fe1	-0.020912113
130	0x3d245739	0.040122245
131	0x3d2400f7	0.040039983
132	0x3d9325bb	0.07184931
133	0x3ca8e279	0.020615803
134	0x3d81d6f1	0.06339825
135	0xbd30c40c	-0.043155715
136	0x3c88d543	0.016703254
137	0xbd212829	-0.03934494
138	0x348e3e40	2.6494854e-07
139	0x3d0e166b	0.03468935
140	0x3cec298d	0.028828407
141	0x3d429bb2	0.047511764
142	0x3c2b7b9f	0.010466485
143	0x3c2188a7	0.009859241
144	0x3d59f1c9	0.0532091
145	0xbcd727d7	-0.026264114
146	0x3d2c3dec	0.04205124
147	0xbdab15f8	-0.083537996
148	0xbca6c285	-0.020356426
149	0xbd81a265	-0.063298024
150	0x3c2fbdd1	0.010726408
151	0x3d0c5c81	0.034267906
152	0xbd8b5527	-0.06803351
153	0xbc7270b7	-0.014797381
154	0xbdbe4ce2	-0.09292008
155	0xbccfe863	-0.025379365
156	0x3cb2edda	0.021841932
157	0xbd89dbf1	-0.067314036
158	0xbd68c4a8	-0.05682817
159	0x3d43ee77	0.04783484
160	0xbcda3d6b	-0.026640614
161	0xbcc384b2	-0.023866985
162	0x3d318860	0.043342948
163	0xbccbe84b	-0.02489104
164	0xbcbfa971	-0.023396226
165	0x3d36889f	0.044563886
166	0xbd095801	-0.033531193
167	0x3ca4e1d5	0.020127216
168	0xbb4ad4d6	-0.0030949614
169	0x3d77cb30	0.06049651
170	0xbd4418ef	-0.04787534
171	0x3d8692d0	0.06570971
172	0x3cedc173	0.029022908
173	0x3dc00218	0.09375399
174	0xbcb2db10	-0.021832973
175	0x3d843a9c	0.06456491
176	0x3d3076df	0.043082114
177	0x3cd6c474	0.026216723
178	0x3caea9e2	0.02132124
179	0xbcdd6612	-0.02702621
180	0xbd04b7b5	-0.03240176
181	0x3da24977	0.079241686
182	0x3d0826f7	0.033240285
183	0x3da3b649	0.079937525
184	0xbd6560e4	-0.056000605
185	0x3d9f03c2	0.077643886
186	0xbd942925	-0.0723441
187	0x3d85790b	0.06517228
188	0xbdca1f7d	-0.09869287
189	0xbd7fc658	-0.062445015
190	0xbc87d9df	-0.016583381
191	0xbd9251e9	-0.07144529
192	0xbca27cd6	-0.019834917
193	0x3c8dbc7e	0.017301794
194	0x3d7bc6b8	0.06146881
195	0xbd85ef63	-0.065398
196	0x3c7036e2	0.014661523
197	0xbd89d2e8	-0.0672968
198	0x3d54f501	0.051991466
199	0xbd22d9c0	-0.039758444
200	0x3d14628b	0.03622679
201	0x3d1078dd	0.035271514
202	0x3d4d8270	0.050173223
203	0x3db3a716	0.087721035
204	0x3d34f0eb	0.04417507
205	0x3d623a5e	0.055231445
206	0xbd0286b6	-0.03186675
207	0x3ba649f2	0.005074733
208	0x3d2ddd25	0.042447228
209	0xbb9d4821	-0.004799858
210	0x3dc98e84	0.09841636
211	0xbd3bacb4	-0.045819
212	0xbca2e8f9	-0.01988648
213	0xbcefc1e2	-0.029267255
214	0xbdaec1a4	-0.08533028
215	0xbc87fd63	-0.016600316
216	0x3d36a3db	0.04458986
217	0xbbab0ad5	-0.005219797
218	0x3d547074	0.051865056
219	0xbd5eb278	-0.05436942
220	0x3d6fb260	0.05851972
221	0xbd76e2c6	-0.06027486
222	0xbdada892	-0.08479418
223	0x3dc30c32	0.095238104
224	0xbd14d0bd	-0.03633188
225	0x3d1a85a8	0.03772512
226	0x3d8bac04	0.06819919
227	0xbdc7edf4	-0.09762183
228	0xbc15403f	-0.009109556
229	0x3cf36988	0.029713407
230	0x3d86b9ea	0.06578429
231	0x3d2b9267	0.041887667
232	0x3dcaa8c5	0.098954715
233	0xbc8eecd8	-0.01744692
234	0xbd8b6348	-0.06806046
235	0x3d3f2703	0.046668064
236	0x3c7922ad	0.015206021
237	0x3dc0f794	0.09422222
238	0xbd0e892a	-0.03479878
239	0x3dc493ac	0.09598479
240	0x3da4e794	0.080519825
241	0xbd9dc4ed	-0.07703576
242	0xbd38a836	-0.045082293
243	0x3d36286e	0.04447215
244	0xbd2994cf	-0.04140168
245	0xbd3bd391	-0.045856062
246	0x3d9eea72	0.07759561
247	0xbd81330e	-0.06308566
248	0x3d97fba1	0.07421041
249	0xbdb76900	-0.08955574
250	0xbd316a0f	-0.043314036
251	0x3d6f1b81	0.05837584
252	0x3d38daaa	0.04513041
253	0x3d808809	0.06275947
254	0x3d65334f	0.055957135
255	0xbdaf0e4c	-0.08547649

lstm.bias_ih_l0 f4 [512]
0	0x3d739979	0.059472535
1	0xbb3634dc	-0.0027802503
2	0xbd68b6db	-0.05681501
3	0x3c9e48b8	0.019321784
4	0x3dab2bc5	0.08357958
5	0x3ddba305	0.10724453
6	0xbd4454fa	-0.047932602
7	0x3d9d3236	0.076755926
8	0x3d804e4c	0.06264934
9	0x3da7b586	0.0818892
10	0xbce8ae6f	-0.028403489
11	0x3cd39ab9	0.025830613
12	0x3d8f0fe8	0.06985456
13	0xbd4701a9	-0.048585568
14	0x3d033103	0.032029163
15	0xbd144860	-0.036201835
16	0x3cc380e9	0.02386518
17	0xbc71f190	-0.014767066
18	0x3d9e6af5	0.07735244
19	0xbd47458b	-0.048650306
20	0x3dbcb8bd	0.092149235
21	0x3caeed9f	0.021353541
22	0x3dc631a3	0.09677436
23	0xbd22cdec	-0.039747164
24	0xbd1f0c2f	-0.03882998
25	0xbd806bbb	-0.06270548
26	0x3d3588c3	0.04431988
27	0xbd011a55	-0.031519253
28	0xbc2bad04	-0.010478262
29	0x3d5599d1	0.052148644
30	0x3d43dfca	0.047820844
31	0x3caf3bbb	0.021390786
32	0x3d9d3564	0.07676199
33	0x3d2a33c0	0.04155326
34	0x3ccbd9c5	0.024884114
35	0x3baca65a	0.005268854
36	0x3dbff533	0.0937294
37	0x3d66cae9	0.056345854
38	0xbd3d234f	-0.04617625
39	0x3d7bc37d	0.06146573
40	0xbb12c0ac	-0.0022392673
41	0x3d001a8e	0.031275325
42	0x3c9ece90	0.019385606
43	0x3d8822c3	0.06647255
44	0x3d93bec6	0.072141215
45	0x3c95bf5a	0.01827972
46	0xbcc1e833	-0.023670292
47	0x3ce8fb2f	0.028440086
48	0xbcd54fec	-0.026039086
49	0x3d807681	0.06272603
50	0x3d959ed4	0.07305685
51	0x3d58a3ec	0.052890703
52	0xbd829a98	-0.06377143
53	0x3dc755a2	0.0973313
54	0xbd3e5454	-0.04646714
55	0x3db6b04a	0.08920343
56	0xbd4a697f	-0.049417015
57	0x3d35fdf5	0.044431645
58	0xbc33e595	-0.01098003
59	0x3d06b731	0.03288955
60	0x3c4a6013	0.012352007
61	0x3dcef6e7	0.10105687
62	0x3dc6574f	0.096846215
63	0x3d7e5427	0.062091973
64	0x3d517063	0.05113257
65	0x3baef141	0.0053388183
66	0x3dc155ff	0.094402306
67	0x3c627629	0.013822117
68	0xbad6992b	-0.0016372552
69	0xbcc67dbf	-0.024229882
70	0x3d3ad02f	0.045608696
71	0xbc837777	-0.016048176
72	0x3d18137d	0.03712796
73	0xbc8d7d5e	-0.017271694
74	0x3dadf42e	0.08493839
75	0x3d5bfaaa	0.05370585
76	0xbc216137	-0.009849838
77	0x3dba1bb1	0.09087313
78	0x3a0efabc	0.00054542325
79	0x3d124903	0.03571416
80	0x3d5058f3	0.05086608
81	0x3d5de06a	0.054169096
82	0x3cb7066e	0.022341933
83	0x3cfbf777	0.030757649
84	0x3db29ab2	0.08720912
85	0x3c87c97b	0.016575566
86	0x3c9f3ac0	0.019437194
87	0x3d959def	0.07305514
88	0x3bb82c4c	0.005620515
89	0xbca9c78e	-0.020725038
90	0xbd19b394	-0.037524775
91	0x3dbc1081	0.09182835
92	0xbb8fbee7	-0.004386771
93	0x3d55720f	0.052110728
94	0x3d6fa39d	0.058505643
95	0x3d6931f0	0.05693239
96	0xbcc407ec	-0.023929559
97	0xbd5acd5e	-0.05341851
98	0xbc84d4dd	-0.016214782
99	0x3db6750a	0.08909042
100	0x3dbe4ef9	0.092924066
101	0x3c53e34b	0.012932609
102	0x3d2b408a	0.041809596
103	0xbd2e83f1	-0.042606298
104	0x3d5772c8	0.0525997
105	0xbcd34441	-0.025789382
106	0xbd87b30e	-0.06625949
107	0xbd5add50	-0.053433716
108	0x3d085777	0.033286538
109	0x3d9dd98a	0.07707508
110	0x3da77d9f	0.08178257
111	0x3d9bb979	0.076037355
112	0x3d9c5a90	0.07634461
113	0xbd019b69	-0.03164235
114	0x3cd274e2	0.0256905
115	0x3c3c6e47	0.011500902
116	0xbd02dc92	-0.031948633
117	0x3da17e79	0.07885451
118	0x3d1bde69	0.038053904
119	0x3dc8115a	0.097689345
120	0xbd2ee95e	-0.042703025
121	0x3db75b1a	0.08952923
122	0xbc57e8eb	-0.013178091
123	0x3d08af5c	0.03337036
124	0x3c44cfa1	0.012012393
125	0x3ce115f6	0.027476292
126	0x3db7d3db	0.08975955
127	0x3d076cf7	0.0330629
128	0x3d3c2fcb	0.045944016
129	0x3cdd3a65	0.027005384
130	0x3dbf1a6c	0.093312114
131	0x3da8f9e0	0.08250785
132	0x3d8b3977	0.0679807
133	0xbd1fbae2	-0.038996585
134	0xbd5fabe5	-0.05460729
135	0xbc05eb85	-0.008173828
136	0x3d6b6570	0.057469785
137	0x3cf3446e	0.029695716
138	0x3dcda8e8	0.10041982
139	0x3d160ce9	0.036633406
140	0x3c45010c	0.012024175
141	0x3dc76db2	0.097377196
142	0xbc3359ba	-0.010946685
143	0x3c579b98	0.013159655
144	0x3d2f61c3	0.042817842
145	0xbd506e18	-0.050886244
146	0xbc9e005c	-0.01928728
147	0x3a484b13	0.00076405815
148	0x3dbb13d0	0.09134638
149	0x3d092cde	0.033490054
150	0x3da78201	0.08179093
151	0xbc5b0083	-0.013366821
152	0x3b1ec76d	0.0024227754
153	0xbc16d828	-0.009206809
154	0xbd64e1df	-0.05587947
155	0x3daf9d3c	0.08574912
156	0x3cb19857	0.021679087
157	0xbc31fe29	-0.010863819
158	0x3dc95dd3	0.09832349
159	0xbd78ec0e	-0.060771994
160	0x3d8245e1	0.063609846
161	0x3d135f91	0.03597981
162	0x3cd04ec6	0.025428187
163	0x3d06d894	0.03292139
164	0x3c9854d8	0.018595144
165	0x3dceef09	0.10104186
166	0x3d150109	0.03637794
167	0xbd30a86d	-0.043129373
168	0x3da1debb	0.079038106
169	0xbd1e5d05	-0.03866293
170	0xbd18f63b	-0.0373442
171	0x3dae9e62	0.08526303
172	0x3dcc6173	0.099795245
173	0xbd22b12f	-0.039719757
174	0xbc954a16	-0.018223803
175	0x3db716a2	0.08939864
176	0xbd169529	-0.036763344
177	0x3c512311	0.012764708
178	0x3dba623e	0.091007695
179	0xbb1882a2	-0.0023271223
180	0x3c8adf55	0.016952196
181	0xbd5e141c	-0.054218397
182	0xbd140023	-0.036132943
183	0x3d8c9b7b	0.06865593
184	0xbbe81e49	-0.0070836884
185	0x3cfb166d	0.030650342
186	0x3d025743	0.0318215
187	0x3db14465	0.08655623
188	0x3d5fb2ec	0.054613993
189	0xbc8e723a	-0.017388452
190	0xbcfedff0	-0.031112641
191	0x3db7f844	0.089829
192	0x3d5d0dda	0.053968288
193	0x3d0f1f29	0.034941826
194	0xbcb607f6	-0.022220593
195	0x3d839081	0.06424046
196	0x3c8aa770	0.016925544
197	0xbd3cb4f7	-0.04607102
198	0x3d70581b	0.058677774
199	0xbcf25f2c	-0.029586397
200	0x3d9616ac	0.07328543
201	0xbd748593	-0.0596977
202	0x3d86bb55	0.065786995
203	0x3db388fd	0.08766363
204	0x3d16216e	0.036652975
205	0x3d4cc00d	0.04998784
206	0xbc890a47	-0.016728533
207	0xbce64b59	-0.0281121
208	0x3d611f4e	0.054961495
209	0x3d3fc548	0.046819
210	0x3d9d3c80	0.07677555
211	0x3d11557c	0.035481915
212	0xbd717301	-0.058947567
213	0xbc8e81de	-0.01739591
214	0xbc83fde0	-0.016112268
215	0xbd8129d7	-0.063068084
216	0x3c89b7d8	0.016811296
217	0xbcef5cd7	-0.029219074
218	0x3cc529f9	0.024067866
219	0x3d6bbb74	0.057551816
220	0x3dd65262	0.10464932
221	0xbd0c4248	-0.0342429
222	0x3ba5982b	0.00505354
223	0x3da76a7b	0.081746064
224	0xbc0f0076	-0.008728137
225	0x3cb0a9d3	0.021565353
226	0x3dc678ed	0.096910335
227	0x3ce779f7	0.0282564
228	0x3c5469d3	0.012964684
229	0x3bee90dd	0.0072804526
230	0x3ca5629e	0.020188626
231	0xbcb48574	-0.022036292
232	0xbca913fb	-0.02063941
233	0xbd45dc42	-0.048305757
234	0xbc9d3ba8	-0.019193485
235	0x3dc5e83f	0.09663438
236	0x3d4bfae3	0.04979981
237	0x3ca2542b	0.019815525
238	0x3dc48227	0.09595137
239	0x3d5d28cd	0.05399399
240	0x3c2eb707	0.010663754
241	0xbd08ec32	-0.03342838
242	0x3d013c47	0.031551626
243	0x3c34effd	0.011043546
244	0xbcb1ceb2	-0.021705005
245	0x3da67d32	0.08129348
246	0xbd1ae2b6	-0.037813865
247	0x3d975bb7	0.0739054
248	0x3c82c8ae	0.015964832
249	0xbbd06a9a	-0.006360364
250	0x3d7217cd	0.05910473
251	0x3db86315	0.090032734
252	0xbcebed4c	-0.028799675
253	0xbd44d9f0	-0.048059404
254	0xbc45111f	-0.012028008
255	0x3dbbc665	0.091687

lstm.bias_hh_l0 f4 [512]
0	0xbd050040	-0.03247094
1	0x3bef48dc	0.0073023867
2	0xbd0263f5	-0.031833608
3	0x3d56879e	0.05237543
4	0x3cb3f9e7	0.021969749
5	0x3dda7353	0.106665276
6	0x3d9c5a4a	0.07634409
7	0x3d0da704	0.034583107
8	0xbd056120	-0.03256333
9	0x3cd3e3c9	0.025865452
10	0xbd4f410b	-0.05059914
11	0x3d3d9130	0.04628104
12	0x3d223aed	0.039606977
13	0x38d87f6a	0.00010323415
14	0x3b3648ff	0.0027814505
15	0x3b83d887	0.004023615
16	0x3d7f02ef	0.062258657
17	0x3d738aa6	0.059458397
18	0x3ba8d9bd	0.0051529096
19	0x3c6b2136	0.01435118
20	0x3d442749	0.047889028
21	0x3db472a2	0.08810927
22	0xbd276a20	-0.040872693
23	0x3da3f25c	0.08005211
24	0xbc44e4b8	-0.012017421
25	0x3db4e867	0.0883339
26	0x3d96f3bb	0.07370707
27	0x3d62c03f	0.05535912
28	0x3c82200a	0.015884418
29	0x3d883d17	0.06652277
30	0x3dc15abc	0.09441134
31	0x3d82ad88	0.06380755
32	0xbc30983a	-0.010778481
33	0x3da85441	0.08219195
34	0x3d8f81d4	0.070071846
35	0xbcfcba7a	-0.030850638
36	0x3d8ee128	0.06976539
37	0x3d9200ce	0.0712906
38	0x3dd720ef	0.105043285
39	0x3d0077c5	0.03136422
40	0xbc1ada46	-0.0094514545
41	0xbca60a48	-0.020268574
42	0xbc0c0707	-0.008546597
43	0xbd373d08	-0.04473594
44	0x3da1726e	0.07883154
45	0xbc19f027	-0.009395636
46	0x3d6f7bff	0.05846786
47	0xbd6ff1ea	-0.058580317
48	0x3ddd246e	0.10797964
49	0x3dbc597c	0.09196755
50	0x3ca7dd11	0.020491155
51	0x3c0fb5d6	0.00877138
52	0x3c8b98b8	0.017040595
53	0x3d26d6fd	0.040732373
54	0x3d50bf9f	0.050963994
55	0x3d3c3ad2	0.045954533
56	0xbb471e10	-0.003038291
57	0x3daa899f	0.083270304
58	0x3d9c4538	0.0763039
59	0x3d1786e1	0.036993865
60	0xbd4d8f23	-0.050185334
61	0x3d8e450b	0.06946763
62	0x3d1eeefc	0.038802132
63	0x3dbce9ad	0.092242576
64	0x3d7f5a30	0.06234187
65	0x3d78181f	0.06056988
66	0xbcfda103	-0.030960565
67	0xbd2513e1	-0.04030216
68	0xbd1b26f1	-0.037878934
69	0xbd4e42e9	-0.05035678
70	0x3cff7de9	0.031187968
71	0x3dda1e00	0.10650253
72	0x3cabb620	0.020960867
73	0x3da9cfab	0.08291563
74	0xbdaf2a91	-0.08553041
75	0xbd3490ee	-0.04408353
76	0x3d0e71e6	0.03477659
77	0x3ca2bf06	0.019866478
78	0x3d1845e3	0.037176024
79	0xbb5a407d	-0.0033302598
80	0x3d083e22	0.03326238
81	0x3dd0db45	0.10198072
82	0x3d9e0f63	0.077177785
83	0xbcede1ae	-0.029038277
84	0x3db6e510	0.08930409
85	0x3b9b96ff	0.0047482247
86	0xbcdb41ab	-0.026764711
87	0xbce0b382	-0.027429346
88	0x3d0d92b3	0.03456373
89	0xbc1e79f2	-0.009672629
90	0xbd2699e2	-0.040674098
91	0x3d463d42	0.048398264
92	0x3d2b017b	0.04174946
93	0x3d841e17	0.06451052
94	0x3d1d668b	0.03842787
95	0x3d1e83ac	0.03869979
96	0xbd9bea67	-0.07613068
97	0xbd75c521	-0.06000245
98	0xbd300ecf	-0.042982873
99	0x3dad8476	0.084725305
100	0x3c864d1f	0.016394196
101	0x3d15fbd4	0.036617115
102	0xbd716bd8	-0.05894074
103	0xbc8bf217	-0.01708321
104	0x3c42d9af	0.01189272
105	0x3cd4bb55	0.025968233
106	0x3d7431c1	0.05961776
107	0x3c76d541	0.015065492
108	0x3dc3011c	0.09521696
109	0x3b26e8f1	0.0025468434
110	0xbd2c4a25	-0.042062897
111	0x3da74770	0.081679225
112	0x3da6c7e0	0.08143592
113	0x3d941afa	0.07231708
114	0xbd83e53f	-0.064402096
115	0xbc98e857	-0.018665476
116	0x3bf5aed2	0.007497647
117	0x3d24da2f	0.04024714
118	0x3dc6c783	0.097060226
119	0x3b82cde8	0.003991831
120	0x3d681928	0.056664616
121	0x3d7ff1a3	0.062486302
122	0x3de4b898	0.11168021
123	0x3dd897ae	0.105758056
124	0xbda3e3b2	-0.08002414
125	0xbca5ba2a	-0.020230372
126	0xbd3d9969	-0.04628888
127	0xbd49aeb7	-0.049238887
128	0xbd2c4328	-0.042056233
129	0xbd978a66	-0.07399444
130	0xbd41efa8	-0.047347695
131	0x3da6ac44	0.08138326
132	0xbd594a9a	-0.05304966
133	0x3bcf99a9	0.0063354564
134	0xbbea3dfa	-0.0071485015
135	0xbd709cf6	-0.05874344
136	0xbcc06d62	-0.023489658
137	0xbd6b25f7	-0.057409253
138	0x3d45def2	0.04830832
139	0xbc7a4f71	-0.015277729
140	0xbc8514fe	-0.016245361
141	0xbd22e3a0	-0.03976786
142	0xbd6d3a2e	-0.057916813
143	0x3d83d51a	0.0643713
144	0xbcb6a92b	-0.022297462
145	0xba61ace8	-0.0008608834
146	0x3dcec14a	0.10095461
147	0x3d35328b	0.044237655
148	0x3dd2b19a	0.10287781
149	0x3d3cc1d0	0.04608327
150	0xbd7d6ce0	-0.06187141
151	0xbd6be028	-0.05758682
152	0x3d8381d8	0.0642125
153	0x3c40018e	0.011719121
154	0x3ba1ad8c	0.0049340185
155	0x3d0000e3	0.031250846
156	0x3dc483f9	0.09595484
157	0xbd522bed	-0.051311422
158	0x3c8fccd6	0.017553728
159	0xbd422f47	-0.04740837
160	0x3d57c63a	0.052679278
161	0xbc9a77d9	-0.018855976
162	0xbd2b9ed7	-0.04189953
163	0xbd2e93e6	-0.042621516
164	0xbd59bb37	-0.053157058
165	0x3d4c8cdf	0.049939033
166	0x3d2a928a	0.041643657
167	0xbcf7e57e	-0.030260798
168	0xbd32e606	-0.0436764
169	0xbd741843	-0.05959345
170	0x3d649f9a	0.05581627
171	0x3b1d3f1f	0.0023993922
172	0xbd42c014	-0.04754646
173	0x3cf2e6fe	0.029651161
174	0x3d7c841a	0.06164942
175	0x3ceee2a1	0.0291608
176	0x3dc3c3db	0.09558841
177	0xbd3e3a46	-0.046442293
178	0xbd352f8d	-0.0442348
179	0x3de373fd	0.111061074
180	0x3cbe8312	0.023255859
181	0x3d5df8ae	0.054192238
182	0x3bbbe20b	0.0057337335
183	0x3d92d0bc	0.07168719
184	0xbc16df91	-0.009208576
185	0x3c3f5913	0.011678952
186	0xbd7c39d6	-0.061578594
187	0x3d43e1b1	0.047822658
188	0x3dcf41d7	0.1011998
189	0xbc0ab474	-0.008465875
190	0x3d6839a2	0.056695588
191	0xbc4e23ca	-0.012581775
192	0xb9e9d939	-0.00044603067
193	0xbd8180dd	-0.06323407
194	0x3d8e9c26	0.06963377
195	0x3be2b67b	0.006918726
196	0x39e7d9c1	0.00044221993
197	0x3dcb0a9b	0.09914132
198	0x3cca020b	0.024659177
199	0x3dcfda05	0.10149006
200	0xbd2316ed	-0.039816786
201	0x3d168a69	0.036753092
202	0xbd9d8593	-0.07691493
203	0xbd3f1aad	-0.0466563
204	0x3c25e0cb	0.010124396
205	0x3de1f49b	0.11032983
206	0xbd727f8c	-0.05920367
207	0x3da2df51	0.079527505
208	0x3c729003	0.014804843
209	0xbc84525c	-0.016152553
210	0x3d7c1810	0.061546385
211	0xbd02316e	-0.03178542
212	0xbb56122e	-0.0032664645
213	0xbd76e8a7	-0.06028047
214	0xbd38a73d	-0.045081366
215	0x3dd7ae17	0.10531252
216	0x3d38c4ba	0.045109488
217	0xbcab4c5d	-0.020910436
218	0x3d6064b0	0.054783523
219	0xbc1ea0a0	-0.009681851
220	0x3d9f1bcd	0.077689745
221	0x3d63ef42	0.055648096
222	0x3d404f30	0.04695052
223	0x3de11ce7	0.10991841
224	0x3b167ef7	0.002296386
225	0x3d82c46c	0.06385121
226	0x3b9360e4	0.0044976342
227	0x3d702647	0.058630254
228	0xbc88c4d3	-0.016695416
229	0x3da14f3f	0.07876443
230	0x3d953334	0.07285157
231	0xbcc3b54a	-0.023890156
232	0x3dbaa759	0.0911395
233	0x3da21cd1	0.079156525
234	0xbd8b9db3	-0.06817188
235	0xbd2a6007	-0.041595485
236	0xba0965ba	-0.00052412937
237	0xbd580a5b	-0.05274425
238	0xbcc519b2	-0.024060104
239	0x3dcecf80	0.10098171
240	0x3d05b072	0.032638974
241	0xbd447468	-0.047962576
242	0x3d7ab15f	0.06120431
243	0xbd754a26	-0.059885167
244	0x3dc99e03	0.098445915
245	0x3d3c9a95	0.04604586
246	0x3b6db11c	0.0036268895
247	0x3d853bcd	0.06505547
248	0x3d914dd6	0.07094924
249	0x3d1de481	0.038547996
250	0x3b72674e	0.0036987844
251	0xbd37a4c7	-0.04483488
252	0xbd8992b5	-0.06717435
253	0xbd877bcd	-0.0661541
254	0x3d1321c9	0.035920892
255	0x3dacf63d	0.08445404

lstm.weight_ih_l1 f4 [512, 128]
0	0xbc86b70f	-0.016444711
1	0x3ccbf1a1	0.024895491
2	0x3ad07a59	0.0015905603
3	0x3da8bd88	0.08239275
4	0x3c372f7d	0.011180756
5	0x3de1500f	0.11001598
6	0xbdaa02ae	-0.08301292
7	0x3d5fef25	0.054671425
8	0x3d40de30	0.047086895
9	0xbcab5255	-0.020913282
10	0x3ce14e48	0.027503148
11	0xbdc3aa89	-0.095540114
12	0xbd7a10f2	-0.061051317
13	0x3d5fd49f	0.05464613
14	0xbda819c6	-0.08208041
15	0x3d583bfc	0.05279158
16	0x3c9e259a	0.01930504
17	0xbc035350	-0.008015469
18	0xbd2920e4	-0.041291133
19	0x3dccf866	0.10008316
20	0xbcf808a1	-0.030277552
21	0x3dd63f36	0.10461275
22	0x3ba2f15f	0.0049726213
23	0x3c488dd7	0.0122408485
24	0x3beac9ac	0.0071651544
25	0xbb98f985	-0.004668417
26	0x3d3e87d1	0.046516243
27	0x3b807825	0.0039205723
28	0xbd755e51	-0.0599044
29	0xbdc9e1b9	-0.09857506
30	0xbd800dce	-0.06252633
31	0x3d5b5618	0.053548902
32	0x3d9d9e42	0.07696201
33	0x3da95a0b	0.082691275
34	0xbd00e691	-0.031469885
35	0xbd2dbb99	-0.042415235
36	0x3d6b8842	0.057502992
37	0x3a476492	0.00076062337
38	0x3da7b829	0.08189423
39	0x3d4ca5b6	0.04996272
40	0xbda49f75	-0.080382265
41	0x3d9e7eb4	0.077390105
42	0x3d1ab498	0.037769884
43	0xbd59202c	-0.053009197
44	0xbd342917	-0.0439845
45	0x3d6b1a65	0.05739822
46	0x3d02318d	0.031785537
47	0x3d9b61ae	0.0758699
48	0x3d6bab22	0.05753625
49	0xbd8bc44a	-0.068245485
50	0x3d5b64b6	0.053562842
51	0xbddbdb13	-0.107351445
52	0x3d7d49fb	0.06183813
53	0xbca87d1e	-0.020567473
54	0xbd8ed359	-0.06973905
55	0xbd94dd04	-0.07268718
56	0x3d522892	0.051308222
57	0xbdbf6b97	-0.09346693
58	0x3c419346	0.011814898
59	0xbdb96d84	-0.090540916
60	0xbcf231a6	-0.02956469
61	0x3d163208	0.036668807
62	0x3c6d3561	0.014478059
63	0x3cf7d857	0.030254526
64	0x3d9dec7c	0.077111214
65	0x3d569af1	0.052393857
66	0xbdd62710	-0.10456669
67	0x3cad7948	0.021175995
68	0x3d91a640	0.07111788
69	0xbcff9bfb	-0.031202307
70	0x3bf32eca	0.007421349
71	0xbc62e797	-0.013849161
72	0x3aa945f9	0.001291453
73	0x3d262ae5	0.04056825
74	0xbd7cb593	-0.0616966
75	0x3c038cd3	0.008029181
76	0xbd174840	-0.036934137
77	0xbd000b0a	-0.031260528
78	0xbdaae7d4	-0.08344999
79	0x3d196718	0.037451833
80	0xbd97a66f	-0.074047916
81	0x3dad9aaa	0.084767655
82	0xbdd3da98	-0.10344428
83	0xbc306b04	-0.010767702
84	0xbd49114e	-0.04908877
85	0xbd13092c	-0.03589742
86	0x3d959feb	0.073058926
87	0xbdb1c249	-0.08679635
88	0x3d6c968e	0.057760768
89	0x3da284b9	0.07935471
90	0x3d51cf5a	0.051223136
91	0xbde22af7	-0.11043351
92	0x3b905a4e	0.0044052964
93	0xbd419cb5	-0.047268588
94	0x3dd89c9e	0.10576747
95	0x3d042c2d	0.03226869
96	0x3d82e27d	0.063908555
97	0xbd08e6d6	-0.033423267
98	0x3d7a21da	0.06106744
99	0x3da37c46	0.07982688
100	0x3cbafcc9	0.022825615
101	0x3d9bfd91	0.07616723
102	0x3ce5f876	0.028072577
103	0xbd2f9256	-0.042864166
104	0xbd96081c	-0.073257655
105	0x3ddfe7e9	0.10932905
106	0xbd357053	-0.044296574
107	0xbd817eb4	-0.06322995
108	0xbd48038a	-0.0488315
109	0x3d2cdb19	0.042201135
110	0x3d80bc0c	0.06285867
111	0xbd55a5f2	-0.05216021
112	0x3cd4a495	0.025957385
113	0x3dcb8c1a	0.099388316
114	0x3cb9fc1b	0.022703221
115	0xbda31b18	-0.07964152
116	0x3d7bdc9d	0.06148969
117	0x3d8750fd	0.06607244
118	0x3b52cadd	0.0032164373
119	0xbdcf7860	-0.101303816
120	0xbd9a5c22	-0.07537104
121	0x3d91f466	0.071266934
122	0xbd4e0d5e	-0.050305717
123	0x3cd81b61	0.026380243
124	0xbd3cc705	-0.046088237
125	0x3c640704	0.013917688
126	0x3d56a2a6	0.052401207
127	0x3d4449dd	0.047922004
128	0x3dbc1cac	0.09185156
129	0x3d5d6e26	0.054060124
130	0xbd07a0c8	-0.033112317
131	0x3cea7d6f	0.028624265
132	0x3cc6dd61	0.024275484
133	0xbc415910	-0.011801019
134	0x3a916607	0.0011093029
135	0xbc9f67c7	-0.019458665
136	0xbd69bf79	-0.05706737
137	0xbc95789c	-0.018245988
138	0xbc19733d	-0.009365854
139	0xbd844f16	-0.06460397
140	0xbc4ee63d	-0.012628135
141	0x3d5c309a	0.053757288
142	0xbd8464c7	-0.06464534
143	0xbda922e5	-0.08258609
144	0xbda7bfe1	-0.08190895
145	0x3bca5a3e	0.0061753085
146	0x3b9c500b	0.004770284
147	0x3db42a6a	0.08797152
148	0x3d1c85f8	0.0382137
149	0x3c403e05	0.011733537
150	0xbdd55c9b	-0.10418054
151	0xbd13da53	-0.036096882
152	0xbcca28a6	-0.024677586
153	0xbd3dcad1	-0.046336
154	0x3dadd5c3	0.084880374
155	0x3d5ce406	0.053928398
156	0x3dce62ea	0.1007746
157	0xbdb99093	-0.090607785
158	0xbc50c229	-0.012741604
159	0xbc801264	-0.01563377
160	0xbce8a9f2	-0.028401349
161	0x3d58be9a	0.052916147
162	0xbcd84d9b	-0.026404193
163	0x3db91a62	0.09038235
164	0xbb57602d	-0.0032863722
165	0xbd120fb6	-0.035659514
166	0x3d955935	0.072924055
167	0x3d3155c1	0.043294672
168	0x3cebc685	0.028781185
169	0x3d464bde	0.048412196
170	0x3dc33df5	0.09533302
171	0x3dc2f696	0.09519689
172	0x3ca0471b	0.019565156
173	0x3d12f9f2	0.035882898
174	0x3d4bae22	0.049726613
175	0xbcd1abfe	-0.025594708
176	0x3d0928f1	0.03348631
177	0xbd7f7018	-0.06236276
178	0xbcb520f3	-0.022110438
179	0xbd7b1a88	-0.0613046
180	0xbd1d2228	-0.038362652
181	0xbdb029c9	-0.0860172
182	0xbd732858	-0.059364647
183	0xbd7213fc	-0.05910109
184	0x3db332e2	0.087499395
185	0x3d1985ee	0.03748124
186	0x3dbebfc2	0.09313919
187	0x3cd7f189	0.02636029
188	0x3ccbea1a	0.024891902
189	0x3daed803	0.08537295
190	0x3d0f1e6f	0.034941133
191	0xbdb5f8f7	-0.08885377
192	0xbd7740d8	-0.060364574
193	0xbd92636e	-0.07147871
194	0x3d104696	0.035223566
195	0x3cf956eb	0.030436954
196	0x3d654a43	0.055979025
197	0xbce14402	-0.027498249
198	0x3d6635cf	0.05620366
199	0xbd83560c	-0.064128965
200	0xbd1e14df	-0.038594123
201	0xbdb5e0dd	-0.0888078
202	0xbcdd6f94	-0.027030744
203	0xbca476da	-0.020076204
204	0xbdab2504	-0.083566695
205	0x3d75478a	0.059882678
206	0xbc7251fc	-0.014790054
207	0x3db1ecff	0.086877815
208	0x3d0c6259	0.03427348
209	0x3d60f48d	0.05492072
210	0x3cde1337	0.027108772
211	0xbd6186d4	-0.055060223
212	0x3d8a2fb5	0.06747381
213	0xbc64eb8d	-0.013972175
214	0xbd15a2d2	-0.03653223
215	0xbd9dc4fa	-0.07703586
216	0x3dd083e5	0.10181407
217	0xbd36f8d4	-0.044670895
218	0xbcfe6372	-0.031053279
219	0x3d06893a	0.032845713
220	0xbd285e81	-0.04110575
221	0x3d3373ca	0.043811597
222	0x3d87f19b	0.066378795
223	0xbdab04f7	-0.08350556
224	0xbcac10b7	-0.021004064
225	0xbd582aa9	-0.05277506
226	0x3c7923fa	0.015206331
227	0x3da241de	0.079227194
228	0x3cd587db	0.026065757
229	0xbcb6d9e1	-0.02232069
230	0x3d6aabd4	0.057292774
231	0xbca2603b	-0.019821277
232	0x3ca44f02	0.020057205
233	0x3d770ef5	0.060317
234	0xbd29559c	-0.04134141
235	0xbd80ac5f	-0.06282877
236	0xbd28c3a1	-0.04120219
237	0xbd0340c7	-0.0320442
238	0x3cd559d7	0.026043816
239	0xbc1cd0db	-0.009571279
240	0xba8a92e0	-0.0010572337
241	0x3da77c2c	0.08177981
242	0xbd525e3e	-0.051359408
243	0xbc988364	-0.01861734
244	0x3d1246c8	0.035712034
245	0x3d0b5d66	0.03402462
246	0xbc868aeb	-0.016423663
247	0xbdad5782	-0.084639564
248	0x3d88684d	0.06660519
249	0x3c76f1a8	0.015072264
250	0xbd65934c	-0.056048676
251	0xbc325ac6	-0.0108859
252	0x3d3e571d	0.046469796
253	0xbd9807e2	-0.074233785
254	0x3c689f39	0.014198118
255	0x3da6e0db	0.081483565

lstm.weight_hh_l1 f4 [512, 128]
0	0x3ccf342f	0.025293438
1	0x3d8706aa	0.06593068
2	0xbdc4b5b4	-0.096049696
3	0xbd84c5bf	-0.064830296
4	0xbd2df42f	-0.0424692
5	0x3dbb7839	0.0915379
6	0x3d646396	0.055759035
7	0x3ca2f0e2	0.019890253
8	0xbaa8faf9	-0.0012892178
9	0xbcc4df72	-0.024032328
10	0xbd961382	-0.073279396
11	0xbda8f266	-0.08249359
12	0x3c72231f	0.014778881
13	0x3c90e0af	0.017685262
14	0xbd487e2a	-0.048948444
15	0x3d1fcc11	0.039012972
16	0xbcbdcb15	-0.023168126
17	0xbd6eb2d1	-0.058276
18	0x3d881ee2	0.066465154
19	0x3db15de9	0.0866049
20	0xbd7c7c70	-0.06164211
21	0x3c7e0b0d	0.015505564
22	0x3ca42576	0.020037394
23	0x3ccd867f	0.025088547
24	0xbd5c1d69	-0.053738985
25	0x3c894383	0.016755825
26	0x3d755734	0.059897617
27	0x3ca5f446	0.02025808
28	0x3d3f0719	0.04663763
29	0xbcc312f3	-0.023812747
30	0xbca8e604	-0.020617492
31	0x3d2998c0	0.04140544
32	0x3bc8a8fd	0.0061236606
33	0xbccaf6fc	-0.024775974
34	0x3c76003f	0.015014707
35	0xbd09d1f9	-0.03364751
36	0x3dcbbb98	0.0994789
37	0xbd6c8911	-0.057747904
38	0xbd72cf68	-0.05927983
39	0x3b3daa67	0.002894068
40	0x3cc72b56	0.024312656
41	0x3db8ce00	0.090236664
42	0x3d2f091f	0.042733308
43	0xbd6dc195	-0.058045942
44	0xbdb6940e	-0.08914958
45	0xbd82e519	-0.06391353
46	0x3bc738f1	0.006079786
47	0x3bc1461f	0.0058982517
48	0xbb144ab6	-0.002262754
49	0xbd83d58a	-0.06437214
50	0x3c985626	0.018595766
51	0x3ccaf018	0.024772689
52	0x3db62801	0.08894349
53	0x3dc7cf48	0.09756333
54	0xbc9b7e91	-0.01898125
55	0xbb7099a2	-0.0036712666
56	0x3d76883c	0.060188517
57	0x3d65d800	0.056114197
58	0xbdccb701	-0.09995843
59	0x3b32fcf6	0.002731142
60	0xbc711f5e	-0.014716951
61	0x3d03c0b4	0.032166198
62	0x3d9bfbbe	0.076163754
63	0xbcebc84b	-0.02878203
64	0xbdac1995	-0.08403317
65	0x3ac25dc4	0.001482897
66	0x3cc8e366	0.024522495
67	0xbd297888	-0.041374713
68	0xbb988dda	-0.004655582
69	0xbdac6e8b	-0.08419522
70	0xbd8aed9d	-0.067836024
71	0x3d830ff7	0.063995294
72	0xbd96805f	-0.073487036
73	0x3b3b2848	0.0028557945
74	0xbc2d105e	-0.010562984
75	0xbce6937c	-0.028146498
76	0x3dbfbd75	0.09362308
77	0x3ddd8942	0.108171955
78	0xbc2516f5	-0.010076274
79	0x3d8822b3	0.06647243
80	0x3d1a324e	0.03764563
81	0x3a6b49c7	0.0008975532
82	0xbceaae64	-0.028647609
83	0x3c25757c	0.010098811
84	0x3c154c93	0.009112495
85	0x3c9de4cb	0.019274136
86	0x3da95cb7	0.08269637
87	0xbc1ef06c	-0.009700876
88	0xbc3bd3d7	-0.011464081
89	0xbd96d3de	-0.07364629
90	0x3c83fde3	0.016112274
91	0x3cf3d273	0.029763436
92	0xbc8e7fa6	-0.017394852
93	0x3cb13ce2	0.021635476
94	0xbda4682b	-0.08027681
95	0x3cb09cf6	0.02155922
96	0x3d719e31	0.058988754
97	0xbd880810	-0.06642163
98	0x3c16513d	0.009174642
99	0xbdb77680	-0.08958149
100	0x3ce5361d	0.027979905
101	0xbd09cfea	-0.033645548
102	0xbd44e22f	-0.048067268
103	0x3da3329d	0.07968638
104	0x3dcf2746	0.10114913
105	0xbd3236bb	-0.043509226
106	0xbcaafed5	-0.020873467
107	0xbdc4f8e8	-0.096177876
108	0xbb1c9153	-0.002389033
109	0xbc9d5358	-0.01920478
110	0xbd0d99a1	-0.03457034
111	0xbd9d971b	-0.07694837
112	0x3d497a6b	0.049189012
113	0x3d25bd41	0.04046369
114	0x3c44262c	0.0119719915
115	0xbc6c36fc	-0.014417406
116	0x3d720259	0.05908427
117	0xbd6f96c6	-0.058493398
118	0x3d5104eb	0.05103008
119	0xbaa8032f	-0.0012818332
120	0x3c806a77	0.015675766
121	0x3d2a3d65	0.041562457
122	0xbc9ebe11	-0.01937774
123	0xbcfd366f	-0.030909745
124	0xbadac12f	-0.0016689653
125	0xbcc6bf1c	-0.02426105
126	0x3d62780a	0.05529026
127	0x3ce957ec	0.028484307
128	0xbd5d13ba	-0.05397389
129	0xbd30f5d9	-0.04320321
130	0xbdc97681	-0.09837056
131	0x3c8e7794	0.017391004
132	0xba9cd8a6	-0.0011966422
133	0x3d7715ab	0.0603234
134	0x3d3fcca6	0.046826027
135	0xbcd64ee9	-0.026160674
136	0x3ccc21f3	0.024918532
137	0x3d110657	0.035406437
138	0x3ce29664	0.027659602
139	0xbd3924b4	-0.04520102
140	0xbdcbd561	-0.09952808
141	0xbd864dcc	-0.06557807
142	0xba3eda15	-0.00072804216
143	0xbba53dd4	-0.005042771
144	0xbb32f045	-0.0027303856
145	0xbd089f72	-0.033355184
146	0xbcf14e3b	-0.029456249
147	0x3da06b64	0.07832983
148	0xbd9fba95	-0.077992596
149	0xbdaefbf6	-0.085441515
150	0xbd0a639f	-0.033786412
151	0xbd83cc66	-0.0643547
152	0x3d1024d7	0.035191383
153	0xbdb21f7c	-0.086974114
154	0x3cf5057a	0.029909838
155	0x3ccb2c33	0.02480135
156	0x3d78900f	0.06068426
157	0xbcb681c3	-0.022278672
158	0x3cfdf186	0.030998956
159	0xbd3db4a3	-0.046314847
160	0xbbf44c75	-0.0074554035
161	0xbbf7ea76	-0.0075657917
162	0x3db1b93f	0.08677911
163	0x3cad72c7	0.021172894
164	0xbb92e774	-0.004483158
165	0x3dd8d62f	0.10587727
166	0xbc9f56dc	-0.019450597
167	0x3b07170e	0.0020613107
168	0xbdcf8cd1	-0.101342805
169	0x3ca76efb	0.020438662
170	0xbc34736e	-0.011013849
171	0x3d387b99	0.045039747
172	0xbd98bb86	-0.07457642
173	0x3d20d3e3	0.03926457
174	0x3d891224	0.06692913
175	0x3c4ae519	0.012383723
176	0x3d588821	0.052864198
177	0xbdc85e31	-0.097835906
178	0x3d9e3398	0.077246845
179	0xbd0e862d	-0.03479593
180	0x3d1b9398	0.037982553
181	0xbd2c2fc8	-0.042037755
182	0xbcf795aa	-0.030222733
183	0xbd78f398	-0.060779184
184	0x3b472100	0.003038466
185	0xbce764b7	-0.028246267
186	0x3d688839	0.056770537
187	0xbd70aee0	-0.058760524
188	0x3da4e7ca	0.08052023
189	0xbd51e7ee	-0.051246576
190	0xbd65d3cc	-0.05611019
191	0x3d730d8b	0.059339087
192	0x3b5d0858	0.0033726897
193	0x3cf5fab1	0.030026766
194	0x3dc28894	0.094987065
195	0x3cdab7b6	0.026698928
196	0x3dd810a4	0.10550049
197	0xbd025cea	-0.03182689
198	0xbd413452	-0.047169037
199	0x3dac82e2	0.084234014
200	0xbcff6a8e	-0.031178739
201	0x3d801258	0.06253499
202	0x3daf2b91	0.085532315
203	0x3cdfa6ec	0.027301274
204	0x3d5a2cbf	0.05326533
205	0xbd0d029f	-0.034426328
206	0xbcf703ba	-0.030153144
207	0xbd41c8f4	-0.047310784
208	0x3d88213b	0.06646963
209	0x3be44cd1	0.006967165
210	0x3da7c9e5	0.08192805
211	0x3db1a310	0.0867368
212	0x3cfb5cf8	0.03068398
213	0xbd164d56	-0.036694847
214	0xbce04626	-0.0273772
215	0x3dae51a8	0.085116684
216	0xbce1b159	-0.027550386
217	0xbd758125	-0.059937615
218	0x3d9a6eb1	0.07540644
219	0x3c656494	0.0140010305
220	0x3cb7d308	0.022439495
221	0x3dd565df	0.10419821
222	0xbd87e694	-0.06635776
223	0x3b33491c	0.002735681
224	0xbd265587	-0.04060891
225	0x3bdc7f15	0.0067290165
226	0x3d2735a8	0.040822655
227	0x3d81d864	0.06340101
228	0x3ce3b172	0.027794573
229	0x3d4931b3	0.049119662
230	0xbd8ffe47	-0.070309214
231	0xbd3655d0	-0.04451543
232	0xbce2bf2c	-0.027679048
233	0xbccc0808	-0.024906173
234	0x3ceb35f3	0.028712248
235	0x3d1d1752	0.038352318
236	0xbdb1dc42	-0.08684589
237	0xbd3b7aa2	-0.04577125
238	0x3c6ecd0c	0.014575254
239	0xbdd6bb19	-0.10484905
240	0x3d899083	0.067170165
241	0x3db904bb	0.090341054
242	0xbdc894bc	-0.09793994
243	0x3da92111	0.0825826
244	0xbcca74ab	-0.024713835
245	0x3cd7e7b5	0.026355604
246	0x3c6c9f98	0.014442347
247	0x3d0534e8	0.03252116
248	0xbd52c22d	-0.05145471
249	0x3bbe404d	0.005806005
250	0xbd5f9a45	-0.054590482
251	0x3d7223e6	0.059116267
252	0x3c957524	0.018244334
253	0x3d562a81	0.05228663
254	0x3bb52cdc	0.0055290293
255	0xbd6b9306	-0.05751326

lstm.bias_ih_l1 f4 [512]
0	0x3cc96c23	0.024587696
1	0x3d9ab382	0.0755377
2	0x3d01151c	0.031514272
3	0xbc763dcd	-0.015029383
4	0x3d7cd552	0.061726876
5	0xbd3c0b10	-0.045908988
6	0x3d75e535	0.060033042
7	0x3d3f53c3	0.04671074
8	0xbac80e3b	-0.001526303
9	0xbc4d9743	-0.012548271
10	0x3d9cbedb	0.0765359
11	0x3db54f24	0.088529855
12	0x3d3dc6c1	0.046332125
13	0xbd3225ff	-0.043493267
14	0xbd7d8d01	-0.06190205
15	0x3d4b9a4b	0.049707692
16	0xbd5ef9a5	-0.0544373
17	0x3dd48029	0.10376007
18	0xbd410f3f	-0.04713368
19	0xbc5c4bcc	-0.013445806
20	0x3d071b99	0.032985304
21	0xbd4965e3	-0.049169432
22	0x3cdecaae	0.027196255
23	0x3d9b2808	0.07575995
24	0x3db10e20	0.08645272
25	0x3dcf47f4	0.10121146
26	0x3d24b37a	0.040210225
27	0x3cc79116	0.024361175
28	0x3d43bed3	0.047789406
29	0x3cc35ef0	0.02384898
30	0x3db07c6c	0.086174816
31	0x3cafeba9	0.021474676
32	0x3c892f7d	0.016746277
33	0x3d11c7de	0.035591
34	0xbd5eb3bc	-0.054370627
35	0xbc96dfd0	-0.018417269
36	0x3d80b90b	0.06285294
37	0xbcb6c5ce	-0.022311118
38	0x3da68cdc	0.081323355
39	0xbd12e9ac	-0.035867378
40	0xbcd00434	-0.02539263
41	0x3d25284d	0.040321637
42	0x3adc4cb3	0.0016807526
43	0xbd8bd053	-0.06826844
44	0xbcf3ac28	-0.029745176
45	0x3d91c8be	0.07118367
46	0xbc374cc3	-0.011187735
47	0xbc0f5ca4	-0.008750115
48	0x3d9f6290	0.07782471
49	0xbd3cd308	-0.046099693
50	0xbd765eae	-0.060148887
51	0x3dae453e	0.08509301
52	0xbd8c4d80	-0.068507195
53	0xbd23d980	-0.040002346
54	0x3d770435	0.060306747
55	0x3c222c04	0.009898189
56	0x3d2f4a12	0.04279525
57	0x3bf0807f	0.0073395367
58	0x3d236cdb	0.039898735
59	0xbd465f22	-0.04843057
60	0xbd52a6c7	-0.051428583
61	0xbd2063e1	-0.039157752
62	0x3d593674	0.053030446
63	0xbd7622fc	-0.060091957
64	0x3d77b1f7	0.060472455
65	0x3d89ce95	0.067288555
66	0x3d9ff244	0.078098804
67	0x3d843a47	0.06456428
68	0x3ca28003	0.019836431
69	0xbc0302d4	-0.00799628
70	0x3db63b15	0.08897988
71	0x3d378040	0.044800043
72	0xbd190c47	-0.037365224
73	0x3d42c115	0.04754742
74	0xbd5dc753	-0.05414517
75	0x3d6614d3	0.056172203
76	0xbd28bd5f	-0.041196223
77	0x3d18bcf6	0.037289582
78	0xbc1e4315	-0.009659548
79	0x3c1ec56d	0.009690625
80	0xbc89cdfb	-0.016821852
81	0xbd89be5c	-0.06725761
82	0xbd5b49d1	-0.053537194
83	0x3dd2545c	0.102699965
84	0x3c436dcf	0.011928036
85	0x3d66c28d	0.05633788
86	0x3d811c10	0.063041806
87	0x3d97ad7b	0.07406136
88	0x3dd2ebc6	0.102988765
89	0xbd018df3	-0.031629514
90	0x3d8cf728	0.06883079
91	0xbd7e472d	-0.062079597
92	0x3d2d7e59	0.042356823
93	0xbc8ef8ed	-0.017452681
94	0xbd38ad26	-0.045087002
95	0xbca357cc	-0.019939326
96	0xbc1405d1	-0.00903459
97	0x3d21c695	0.039496023
98	0xbcc42f4b	-0.023948332
99	0x3d0ff720	0.035147786
100	0xbcccdfd1	-0.025009068
101	0xbb0d3898	-0.0021548625
102	0x3d7142a3	0.05890144
103	0xbd12b561	-0.035817508
104	0xbd83456a	-0.06409724
105	0x3c7bca79	0.015368097
106	0xbd5f8c63	-0.054577243
107	0xbcb2d248	-0.021828786
108	0x3d951be0	0.07280707
109	0xbd178392	-0.03699071
110	0x3c87ad54	0.016562141
111	0x3b3f35e1	0.0029176401
112	0xbd34747f	-0.04405641
113	0x3c80b20f	0.015709905
114	0x3d65521c	0.05598651
115	0xbd7af4a5	-0.061268467
116	0xbc9e3208	-0.019310966
117	0xbd6b9329	-0.05751339
118	0xbcbbff92	-0.022949014
119	0xbc557e44	-0.013030592
120	0x3d333260	0.043749213
121	0x3d7dcd09	0.061963115
122	0x3c97afd1	0.018516453
123	0x3dc97e8f	0.09838592
124	0xbc8d9ca2	-0.017286602
125	0xbd350eec	-0.044203684
126	0xbd5bd933	-0.053673934
127	0x3d746230	0.05966395
128	0x3db84edd	0.08999417
129	0x3d954ecc	0.0729042
130	0x3baae539	0.0052153138
131	0x3d56b365	0.052417178
132	0xbc8fcad3	-0.017552769
133	0x3cafe93d	0.021473521
134	0x3db88233	0.090092085
135	0x3d962ec7	0.07333141
136	0x3d0faab8	0.03507492
137	0xbcc88b38	-0.024480447
138	0xbaa35d79	-0.001246377
139	0xbd6b23b3	-0.057407092
140	0x3d7ce9b6	0.06174632
141	0x3dc191bb	0.09451624
142	0xbd32d2f1	-0.0436582
143	0x3d38226f	0.044954713
144	0x3caa1a57	0.020764513
145	0xbd04ab9c	-0.032390222
146	0x3dbbcb9e	0.09169696
147	0x3d84c631	0.064831145
148	0x3d539bbd	0.051662195
149	0xbc51e614	-0.012811203
150	0x3b421151	0.0029612372
151	0x3d802ee5	0.062589444
152	0x3cd9d9c6	0.0265931
153	0x3d0da5a3	0.03458179
154	0x3d74ed86	0.059796833
155	0xbd8e4b2b	-0.06947931
156	0xbd3f50db	-0.04670797
157	0x3dcc9fe4	0.09991434
158	0x3d88566a	0.06657107
159	0xbd35e9f8	-0.044412583
160	0xbc746022	-0.014915498
161	0x3d603221	0.054735307
162	0x3d93505f	0.07193064
163	0x3cd6b072	0.026207183
164	0xbceeaeb7	-0.029136045
165	0x3dc5745e	0.09641336
166	0xbd9347d8	-0.071914375
167	0x3d1fa8f1	0.038979474
168	0x3d8a0a28	0.067402184
169	0xbcf1144a	-0.02942862
170	0x3b4d1a4c	0.0031296192
171	0x3c935086	0.017982733
172	0xbae4efec	-0.0017466522
173	0xbd837b63	-0.064200185
174	0x3d58c896	0.05292567
175	0x3d178f2b	0.03700177
176	0x3d983a3b	0.074329816
177	0xbd327623	-0.043569695
178	0x3be4be89	0.0069807214
179	0x3d817adb	0.06322261
180	0x3d9828e1	0.07429672
181	0x3d87f3ad	0.06638274
182	0x3db4947f	0.08817386
183	0xbd691ee5	-0.05691423
184	0x3d835264	0.06412199
185	0x3d4dc99b	0.050241094
186	0x3cdfd156	0.027321499
187	0x3d46d481	0.048542503
188	0x3d9f8b68	0.077902615
189	0xbd824656	-0.06361072
190	0x3dd76063	0.10516431
191	0x3da6d103	0.081453346
192	0x3d8fd57c	0.07023141
193	0xbd08e6b5	-0.033423144
194	0x3c8f11bc	0.017464511
195	0x3d4fc8f3	0.05072875
196	0xbcfd8a96	-0.030949872
197	0x3dcf11ed	0.10110841
198	0x3dcd912c	0.10037455
199	0x3da5807c	0.08081147
200	0xbd70763f	-0.05870652
201	0xbc971018	-0.018440291
202	0xba31aca2	-0.00067777385
203	0xbcaf32ff	-0.021386622
204	0x3d8cba0c	0.06871423
205	0x3c9e5c9e	0.019331273
206	0x3d38e648	0.04514149
207	0xbd3e245c	-0.046421394
208	0x3c7c31b3	0.015392709
209	0x3d61f5a4	0.0551659
210	0x3ca6abea	0.020345647
211	0x3da3a326	0.079901025
212	0x3a978ad7	0.0011561763
213	0x3ca2829b	0.019837668
214	0x3c199b83	0.009375456
215	0x3d930a4c	0.07179698
216	0xbce406cb	-0.02783527
217	0x3dc45631	0.09586752
218	0x3d16b9f0	0.036798418
219	0x3d758850	0.05994445
220	0x3dcf51e3	0.101230405
221	0x3dce26a2	0.100659624
222	0xbcb622a1	-0.02223331
223	0xbd9184b2	-0.07105388
224	0xbd52ddcc	-0.051481053
225	0x3daf1e26	0.08550672
226	0xbd676d38	-0.056500643
227	0x3b77c0a4	0.0037804032
228	0xba9852d8	-0.0011621369
229	0x3b11669a	0.00221864
230	0xbd586752	-0.05283291
231	0xbd274b37	-0.040843215
232	0x3d232bd7	0.03983673
233	0x3c9568b9	0.018238412
234	0xbbf1d20d	-0.0073797763
235	0x3c6a3c2f	0.014296575
236	0x3d3c89cf	0.046029862
237	0xbca4a75b	-0.020099333
238	0x3cfc0ac3	0.03076685
239	0xbd2aea50	-0.041727364
240	0x3db58ef5	0.088651575
241	0x3ce242bf	0.027619718
242	0x3c74f829	0.014951744
243	0x3dd2ac6b	0.10286792
244	0x3dc928af	0.09822213
245	0xbdee16c0	-0.11625433
246	0x3daecc3c	0.08535048
247	0x3d848169	0.064699955
248	0xbc0422da	-0.00806495
249	0x3d690971	0.05689377
250	0xbbe532c1	-0.0069945757
251	0xbce92594	-0.028460301
252	0xbc5fc426	-0.013657605
253	0x3d07347b	0.033009034
254	0x3d913495	0.07090107
255	0x3cb83bf4	0.022489525
