models/WH002_SKU-007.pth (torch, 830897 bytes, 13 tensors)

lstm.weight_ih_l0 f4 [512, 6]
00000000: 696b 4c3d 28c3 133d 0079 573d 8e5f f9bc
00000010: 5a15 9e3b f292 ce3b 9ce1 5f3b 956f c93c
00000020: 081e a83d 5e12 d13d e9e6 c33d eaaa 7ebd
00000030: addb 803d be87 3c3d 016b 2bbd 8862 c7bc
00000040: 7976 053d 67bd 383d 267a 283d aaff b83b
00000050: 757d 983d 1310 b93d 7b4e 923d d4af aa3d
00000060: 8415 6dbc 6ef6 fabc c7ae 8abd 2fd1 cbbb
00000070: 8669 22bd 04cc f5bc 7857 873c e027 d1bb
00000080: 8d3f d03d 430b babc bc60 33bd e38c 0f3d
00000090: b359 983d 8617 a8bc 0521 173d 5b12 4f3c
000000a0: c7dd 94bd 8a7d 223d 7942 813d f986 86bd
000000b0: 2508 fbbc 01f4 1bbc 7984 8bbd 6246 003c
000000c0: 5016 2c3d 9aa0 a93d a23f 193d 195c 443d
000000d0: d2a2 80bc eefd d53d 19ec 34bd 1ba8 ccbc
000000e0: bf67 e3bc d60c 97bc 3c43 33bd 96a5 83bd
000000f0: 3598 553d ca93 8dbd 415b 2f3d 73ed 663d
00000100: f35b d8bc 6c7c 003d 9aa4 0fbd a7c1 18bd
00000110: 8980 09bd 2fdb c4bb 460a 08bc 6329 f73b
00000120: 1c33 7f3c dccb b9bc c106 2bbd 2b5a 8ebc
00000130: 601a 4a3a ec9f 5cbd c343 b13d 0c12 08bd
00000140: f5ae 9a3d 2127 b33d d806 0b3b 5172 b43d
00000150: 2583 ad3c 0134 d23d 93d2 873d 377e c0bc
00000160: 7328 613d de82 db3d a674 d3bd 96f6 b43c
00000170: fec6 bfbd 9788 aebc 91c0 9fbd 4a33 05bd
00000180: e8b2 e33d 4e01 aa3d f693 903d d415 8f3d
00000190: 725b 393d 9ad5 2d3d a0a7 173d 38fa f63c
000001a0: 4768 ddbc 85e8 f53c bf52 393d 3573 f9bc
000001b0: 5299 eab9 7d78 41bd 3d7b 1abc 9f09 733d
000001c0: cdd6 e5bc a40a 113d e97e 09bd 3e5a 413d
000001d0: 8ea0 5fbd 1f63 85bc 2d65 44bd 02f7 a93d
000001e0: 5331 49bd ab8d ba3d 70e3 823d d00e 35bd
000001f0: fe7b 853d be9e d73d 6c77 d13d 144c db3d
00000200: 2034 973d cc37 5f3d 61fa 4ebc 766c 033d
00000210: 3a6f 703d f921 8dbd 9464 0e3c 64f7 bfbb
00000220: 82bb a33d f585 8bbd 3dc0 b83d 41d3 cb3d
00000230: b9b5 82bd 48cc db3d 37eb 0dbd 3b3d e7bc
00000240: 66a0 a6bc cc6c 313d 3e3a 203d a1a8 86bc
00000250: 798d 1b3d dade a23d 0fbf dc3d 86ad 953d
00000260: fcae 4a3b 59fc 57bc 10c4 df3d ccf3 9c3d
00000270: 730c 833d bbcc c33c 0c3f 4b3d 7bb2 783c
00000280: 8f44 ba3d a6a3 73bd b913 1c3d 7a07 393d
00000290: 587f 823d 182e a8bc 21a8 8d3d 2aef cbbc
000002a0: a455 bd3a ba0e 253d a7f9 03bc 6ea3 49bd
000002b0: 2b6f ca3d e8bf ff3c d96f d93d 8c3b b03c
000002c0: 1874 ff3c 9cfe ae3d 6517 cc3c 0565 743d
000002d0: f57f 4cbd 7ccd 05bd f694 8bbd c777 3d3d
000002e0: ca5e 7abd 4369 183d a7f5 6ebd cf1b b43d
000002f0: a2ba 2cbd 69e6 4d3d eabf 103b 829e 0abb
00000300: b006 563c 0808 643d d49d 9e3c 76ed 743d
00000310: b756 143c 73a7 c13c 9612 5abd 8d83 863d
00000320: 7a6f 093d 2f6e 99bc 3214 04bd 7276 d43c
00000330: 6cc4 c13d 238b 04bd a366 b93c 7cb5 7a3d
00000340: 97bc ef3b cfad 2cbd 36b6 88bd c785 b03d
00000350: e28e 2a3d 8251 3ebd ed17 84bc ea0a 9f3d
00000360: 7562 12bc 91a5 a5bc fea2 41bd 79ea b83d
00000370: 57e6 46bd c2a0 003d b083 b7bc e962 ac3d
00000380: 7199 bc3d 4106 a03d 8043 24bb 86e2 503d
00000390: 3287 dd3d 64c9 af3d 41cb 833d 1c65 06bc
000003a0: a20d 44bd 1bca 0bbd b591 94bc c022 cb3d
000003b0: 3745 733c 7739 93bc 55f8 983d ccfc 8bbd
000003c0: 4cb0 6d3d f77a cfbb 21c6 0439 f824 9b3d
000003d0: 6a10 ab3c 9d60 893d 7e63 d03c 7840 0ebd
000003e0: 70a8 ef3c a8a0 2a3c 4e70 fcbc 37ad 9d3c
000003f0: d572 713c 9156 e13d ce05 d03c efd0 933c
0.04990712 0.036074787 0.05260563 -0.030441072 0.0048243226 0.0063041383 0.0034161573 0.02458934
0.08208853 0.102085814 0.09565527 -0.062174715 0.062919 0.04602789 -0.041850094 -0.024338976
0.032583687 0.045102503 0.041132115 0.005645712 0.07445804 0.09036269 0.07143875 0.08334318
-0.014470462 -0.030635085 -0.067716174 -0.006220005 -0.039651416 -0.030004509 0.0165212 -0.0063829273
0.10168371 -0.022710448 -0.043793425 0.03504647 0.07438984 -0.02051903 0.036896724 0.012638654
-0.07268863 0.039670505 0.06311507 -0.06568713 -0.030643532 -0.009518624 -0.068123765 0.007829281
0.042013466 0.082825854 0.0374142 0.047939394 -0.015702639 0.10448824 -0.044170473 -0.024982503
-0.02775943 -0.018438738 -0.04376529 -0.064280674 0.05214711 -0.06912954 0.042811636 0.056378793
-0.026411032 0.031368658 -0.035069086 -0.037294056 -0.033569846 -0.006007574 -0.008303231 0.0075427755
0.01557615 -0.022680216 -0.041754488 -0.01737698 0.00077096187 -0.05386345 0.08655503 -0.033220336
0.07552902 0.087476976 0.0021213796 0.088108666 0.021180699 0.10263825 0.06631961 -0.023497684
0.054970216 0.1071832 -0.10324983 0.022090238 -0.093641266 -0.021305365 -0.07800401 -0.032519616
0.11118108 0.0830103 0.07059471 0.06986585 0.045253225 0.042440034 0.037025094 0.03014861
-0.027027262 0.0300181 0.04524493 -0.030450443 -0.0004474619 -0.047234047 -0.009428796 0.059335347
-0.028056527 0.03541054 -0.033568297 0.047205202 -0.054596476 -0.016282616 -0.04794805 0.08299066
-0.049119305 0.09109052 0.063910365 -0.04420358 0.0651779 0.105283245 0.10227856 0.1070787
0.07382989 0.05449657 -0.012632937 0.03208586 0.058699824 -0.068912454 0.008690972 -0.0058583487
0.07994749 -0.0681266 0.090210415 0.09952403 -0.06382317 0.10732323 -0.034648146 -0.02822744
-0.020340156 0.043316647 0.039118044 -0.01643783 0.037976716 0.07952662 0.10778629 0.073084876
0.0030927053 -0.013182723 0.10926068 0.07663688 0.06398859 0.023901334 0.049620673 0.015179272
0.09095108 -0.05948224 0.038104746 0.045173146 0.06371945 -0.020529792 0.06916834 -0.024894316
0.0014445079 0.040297247 -0.008055127 -0.049228124 0.09884485 0.031219438 0.10617036 0.02151277
0.031183288 0.08544657 0.0249135 0.059666652 -0.049926717 -0.03266667 -0.068155214 0.046256807
-0.061125554 0.03720976 -0.05833974 0.087943666 -0.042170174 0.050268564 0.0022087046 -0.0021151607
0.013063118 0.05567172 0.019362368 0.059796773 0.009053878 0.023639416 -0.05324038 0.0656806
0.033553578 -0.018729297 -0.032245822 0.025935385 0.094612926 -0.032359254 0.022631949 0.061208233
0.007316183 -0.042157944 -0.06675379 0.08619266 0.04164017 -0.04646445 -0.01612469 0.077657536
-0.008934607 -0.02022055 -0.047274582 0.09029097 -0.048559513 0.03140331 -0.02240166 0.08417303
0.09208954 0.07813693 -0.0025064647 0.05099728 0.10816802 0.08583334 0.06435252 -0.008202817
-0.047864564 -0.03412829 -0.018135885 0.099187374 0.014848045 -0.017971737 0.074692406 -0.068353266
0.058029458 -0.006331797 0.0001266231 0.075754106 0.02088185 0.06707881 0.025438067 -0.03472945
0.029255122 0.01041428 -0.03081527 0.019247634 0.014736851 0.11002839 0.025393393 0.018043963

lstm.weight_hh_l0 f4 [512, 128]
00000000: 47fc 95bd 1616 b4bd 067b dabd e607 193d
00000010: b2ec 2dbd 9206 533d 626a 18bd 8a83 1bbd
00000020: 7560 a73c 855f a8bb a6d4 be3d 9d43 98bd
00000030: 1b40 013d 9dcc 353d 8843 173b fb7f 14bd
00000040: 1172 043d 73f1 c43c 6180 62bd f984 7f3d
00000050: 8319 7d3d cb4a 63bd be01 aebc da0e cabd
00000060: f99b a4bd 0341 7ebd 8b93 72bb 74c8 1ebc
00000070: d7e6 813d 48ab 983d 9f49 edbc c029 a4bb
00000080: 53bd 463d f15b 4f3d 7d46 743d 59e6 a0bd
00000090: c9bc c93c c9ad febc 4c17 15bd acbc f9bc
000000a0: 33e8 d5bd 77e2 ccbd 239f bbbc 5f4d d4bd
000000b0: f794 d53d 7698 9d3d 42ed 833c 927d d53c
000000c0: 37c7 0e3d a025 e6bd e545 babc 3cc2 b7bd
000000d0: 3f7d 59bd a0f3 dcbd 43a0 25bd cb91 2b3d
000000e0: b9a4 e03d e589 7fbd 1220 733d 95de 49bc
000000f0: 31f1 923c 83f9 8cbd 7c14 4a3d 6fc4 93bc
00000100: d454 19bd 34f5 db3d 4d2e 42bd 871a 9c3c
00000110: d017 c13d 9512 30bb 50dc a33c df3a d23d
00000120: 48ec f3bc d4d8 9cbc b2f7 cfbd 7b5d d0bd
00000130: 4b0b 2d3d cd85 20bd 6ad1 87ba 2ced 5f3d
00000140: c1e3 913b 6e5b 26bb 49aa 4abd 0cdd 78bc
00000150: af7e e33d 2909 dd3d f92a 51bc 6230 8cbd
00000160: 9dd8 eeba 9760 043d 1e0c c23d c713 6bbd
00000170: 9129 2dbd dd40 6b3d e2e4 dcbb e5ee 9d3d
00000180: 3065 743d c8f9 673d 3852 af3d 81b6 53bd
00000190: 0341 cb3d dc3f b0bd 87a1 983d a821 64bd
000001a0: 2e66 763d b4ba 8a3d 3cae a5bd fe0a ca3d
000001b0: 6c5f 843c b9fd 00bd f4cb f83b 8f7d 1b3d
000001c0: 69c2 843d 2a92 00bc 5f46 dfbd 2018 833d
000001d0: 4e59 123d c705 de3d e740 2dbd fd4f 393d
000001e0: fe26 2dbd 914e 713d 4567 ef3b b431 dabd
000001f0: be23 bcbd 7846 bdbd 29ad 763b 501e 85bd
00000200: b574 01bd f795 9b3c 60e3 5d3d 29f3 a43d
00000210: a365 cfbb 8100 ccbd c65e 15bc 206e b3bb
00000220: 20c2 0b3d c2f1 00bc 0831 a13d 3354 45bc
00000230: 7f26 a4bd b68c c7bd 7769 653d a4e2 7e3d
00000240: a993 a3bd d196 80bd c073 64bd 60ad 5c3d
00000250: 0e26 22bd 1411 81bd 48da 793d f02f 7cbd
00000260: 6e05 733d d475 843d b76a 5bbd 1e2e 113d
00000270: 459d 283d c633 923d 965a b43d 1f93 c1bd
00000280: d95c 1e3d 7e7a 95bd 10f3 87bd 4e32 d1bd
00000290: ea99 a43d d95f c03b 9240 2cbd 2794 11bc
000002a0: 764c 90bd e0db 21bd d78a 813d e70d 9dbd
000002b0: bc34 47bb 482c 9c3d 2116 b13c 5ebe 8bbd
000002c0: 228d 3ebd e185 ccbd fca5 9c3d aaf8 f2bc
000002d0: dc5e 89bb 055f 4f3b 7694 fabb 809c 853d
000002e0: c4e8 303d c2c8 853c c659 1dbd 60df 393d
000002f0: 25bb ed3c 51bb 173d 0b43 683d 6d8d cb3d
00000300: 8dfb ca3c 0c0e 833d 0010 673d 4eac 2c3c
00000310: 1e18 78bd 8e93 903c e7df 93bd 8081 45bc
00000320: c5d7 37bd 4c27 4d3d b05b 3fbc 386b 2ebd
00000330: d06e 86bd e46a 7cbd 46bd c2bc f729 b33c
00000340: 6802 2fbc ad9e 823c b09d bb3c 76c4 85bc
00000350: 3827 cebb e97d a43d 3f62 89bd 363c 5f3d
00000360: e9e9 c53d cf31 23bc 2ac8 553d 19b3 c7bc
00000370: 37ee 8ebd fbca a4bd 6b18 b53c 6cb6 9d3d
00000380: 05e1 5bbd e8ef b3bd 39fc be3d 5adb 3cbd
00000390: cbf2 0eba f009 9fbc c36e de3b e6a7 7d3d
000003a0: aea9 12bd ca44 4abd 8f68 883c 7abb 06bd
000003b0: 09db c63c 0ea8 813d 6839 98bb 4552 59bc
000003c0: 9ca2 34bd cc97 8a3d 4f94 c5bb 36e0 c0bd
000003d0: 57a7 13bd 8ed9 88bd 1a61 8f3d f870 41bd
000003e0: 4a6c c5bd 362a 86bc 836f 993d df8f e13b
000003f0: 8ba3 6a3d a4ea a93c 2b69 4b3d eea5 15bd
-0.07323509 -0.08793275 -0.10667996 0.03736105 -0.04246206 0.051519938 -0.03721083 -0.037967242
0.020431736 -0.00513834 0.09317903 -0.07434771 0.031555276 0.044384588 0.0023081023 -0.036254864
0.032335345 0.024040913 -0.055298213 0.062382672 0.061791908 -0.05549125 -0.021241065 -0.09866114
-0.08037562 -0.06207372 -0.0037014212 -0.009691346 0.06342857 0.07454544 -0.02896577 -0.00500986
0.048520397 0.05062479 0.059637535 -0.07856435 0.024626153 -0.031088727 -0.03639917 -0.030485474
-0.10444679 -0.10004132 -0.02290303 -0.1036632 0.104288034 0.07695095 0.016104344 0.026060853
0.034857955 -0.11237645 -0.022738406 -0.08972594 -0.05309796 -0.10788655 -0.04043604 0.041887086
0.10968918 -0.062387366 0.059356757 -0.012321134 0.017937275 -0.06883528 0.04933594 -0.018038003
-0.037434414 0.10740128 -0.047407437 0.019055618 0.0942837 -0.0026866545 0.020002514 0.10265135
-0.029775754 -0.01914636 -0.10154666 -0.1017408 0.042247098 -0.039190102 -0.0010362093 0.054669544
0.004452199 -0.0025384086 -0.049478803 -0.01518942 0.11108147 0.10792763 -0.012766593 -0.06845166
-0.0018222515 0.032318678 0.094749674 -0.057391908 -0.04227597 0.057434905 -0.006741152 0.07711581
0.059666812 0.056634694 0.08560604 -0.05168772 0.099245094 -0.0860593 0.07452684 -0.05569616
0.06015604 0.06773892 -0.08089873 0.09865378 0.016158782 -0.03149197 0.0075926725 0.03796154
0.06482393 -0.007847348 -0.10902094 0.06401086 0.0357297 0.10840946 -0.042298224 0.0452423
-0.042273514 0.058912817 0.007306012 -0.10654011 -0.09186505 -0.092419565 0.0037639833 -0.06499922
-0.03160544 0.018992407 0.05417192 0.080541916 -0.0063292547 -0.099610336 -0.009116834 -0.0054757744
0.03412068 -0.00787014 0.0787068 -0.012044 -0.08015155 -0.09743635 0.056008782 0.06222786
-0.07987148 -0.06278766 -0.05577445 0.05387628 -0.039587073 -0.063020855 0.060999185 -0.061569154
0.05933135 0.064677864 -0.053568568 0.03544437 0.04116561 0.07138781 0.088063404 -0.09451889
0.038662765 -0.07298754 -0.06638157 -0.10214673 0.08037169 0.005870801 -0.042053767 -0.00888542
-0.07045834 -0.03951633 0.0632531 -0.07668667 -0.0030396422 0.076256335 0.021616997 -0.06823419
-0.046521313 -0.09986473 0.076488465 -0.029659588 -0.0041922163 0.003164233 -0.0076470925 0.06523991
0.043190733 0.01633108 -0.038415693 0.045379043 0.029019902 0.037043873 0.056704562 0.09939084
0.024778152 0.063991636 0.056411743 0.0105391275 -0.060569875 0.017648485 -0.0722044 -0.012054801
-0.04488351 0.050086305 -0.011679575 -0.04258272 -0.065641046 -0.061625376 -0.023771893 0.021870596
-0.010681726 0.015944803 0.02290234 -0.016329031 -0.0062912963 0.08031828 -0.06708192 0.05450078
0.096637554 -0.009960606 0.052192844 -0.024377393 -0.069790296 -0.08046528 0.02210637 0.0770081
-0.053681392 -0.08785993 0.093254514 -0.046107627 -0.0005453049 -0.019413918 0.006788106 0.0619277
-0.03580635 -0.04938201 0.01665142 -0.032893635 0.024274366 0.06330882 -0.0046455152 -0.0132642435
-0.04410039 0.06767234 -0.0060296427 -0.09417765 -0.03604826 -0.0668212 0.070009425 -0.047226876
-0.09639795 -0.01637755 0.07491972 0.006883606 0.057284873 0.020741768 0.049660843 -0.036535196

lstm.bias_ih_l0 f4 [512]
00000000: d31a 74bc 3926 24bd f141 46bd 93d7 b93d
00000010: 4f9b 5abc 24ed 373d 0c61 443b 4d61 a73d
00000020: 54a3 a63d 0c46 6ebc 216f 09bd f7b0 9cbc
00000030: 14fd 053d cba4 963c 17ad 8dbc b36e 653d
00000040: a9d9 09bd 4bb2 cebb e044 9d3d c79c 88bc
00000050: 846f 5e3d 9a9f 8b3d 40a5 ce3c 74fa 8d3d
00000060: a332 0ebd 12ba 723d 5679 c33d ce1e b03c
00000070: 9f78 553d 514e 903d ccad 943c 2b86 dabc
00000080: 7137 b9bc 9bfd a6bc 8752 d83d d3a2 32bc
00000090: 056b 97bc c0ba f6ba 3671 3d3d 5e32 bcbc
000000a0: 27fc 39bc e61a 153c f49d ca3d b44c 36bd
000000b0: a400 493d 4b6a e53d 364a 55bd aee2 c73d
000000c0: 6920 983d 7445 a53d 25bc 3bbc 0222 a43c
000000d0: 8233 9e3c 1f8d eb3c 0953 e73b 2d82 c43d
000000e0: ea4d fdbc 2659 a03d 39c5 953d 4306 7ebd
000000f0: 1ba0 a43d 9b65 28ba 930f 1b3d 4b85 903c
00000100: f7b0 74bd 88f3 a03c b47f fa3c 120b 403c
00000110: 5c8b 62bd 93a5 9b3d 68ff 893d d8e8 513d
00000120: a056 8e3d 8d37 ba3d f56f 35bb 89df fdbb
00000130: fc90 703d 218a 96bc ef2c 203d 200a c3bd
00000140: 9aed d93d 0f4e b13d 0094 453b 5330 573d
00000150: ede4 fabc b43b c43d ad7c ae3d aef9 7d3d
00000160: 4993 7ebc e2fe 483c c32b 31bd 2ac2 3d3d
00000170: 082c 743d 64ba 3dbc bb45 b7bd be12 a33d
00000180: 7975 3abd 6026 a63d 2400 b2bc 2ef5 cc3d
00000190: b346 db3d da89 17bd 6635 c23d 5e1d a73d
000001a0: ac35 2b3d 7356 ae3d 943b d1bc 5ceb 8b3d
000001b0: b4f1 abba b075 823c d91e 7c3c c7ab 623d
000001c0: 17d3 9f3d f1db 45bd 38e8 a73c d771 7ebd
000001d0: bf56 3b3d 3b5c 8ebd f348 863c 85b9 75bd
000001e0: 1512 e43d 913c 58bb 620d 8d3d 161e c3bc
000001f0: 71b6 5bbd 9d8e 5a3d 421d c0bb a81e bdbc
00000200: fa4f d63c 04df 843d 5795 d43c 9c3a 3e3d
00000210: 468f 23bd d4cf 9dbc 75ae d83c 163c 8fbc
00000220: 89d2 f5bc 8ce9 e03d f24b 863d 57b7 863d
00000230: 21e3 d3bc 2921 343d 5dd5 df3c 8540 a3bd
00000240: 9782 193d 8aab 173d 3e8d 68bd 61fc b53d
00000250: 39b3 dc3d cc31 cf3d 0b99 713d 1fd3 9ebc
00000260: b3eb 6e3c 425b 2abd f751 0abd 5d8c 093d
00000270: 9078 f43a e311 be3d 62f2 7ebd c6c2 d4bc
00000280: 12ae 253d 953b a93c 6181 13bc 8f99 723d
00000290: 7f95 643b 2561 f9bc 1669 8a3c c7d4 803d
000002a0: e8c8 1ebc 1e28 d53d c562 2bbd 0c69 633d
000002b0: 5e9f a23c 22d3 a33d 74e3 b73d 77cb cfbc
000002c0: 9a3f cf3d 96c5 c73b ea54 893d cb61 923d
000002d0: 08ff 56bd fae3 40bd ed16 5c3d 1ad2 21bd
000002e0: a0d5 83bd ebc4 39bc 980c 203d 4dd2 3ebd
000002f0: c579 89bd c7c6 803d bf1f 153d aec0 25bd
00000300: 3c24 68bc d7ad d3bc 9494 743d 844e 35bd
00000310: 55f5 f4bc 7d4d e13d dbab b93d bd7a f43c
00000320: 4d5b 2fbc 99e9 943d 0873 95bc d945 b93d
00000330: 4a1f b13c a54a 6d3d 055a 393d a88f 843d
00000340: 412e c1bc c4f5 ad3d f3c1 e43d b0c1 c03d
00000350: 329f 953d f1a9 b53d c72e 8a3d 6e04 593d
00000360: 3cd4 413d cb4d 15bd f80b 12bd 63a1 523c
00000370: 7205 3f3d b3d9 b33d dd71 853d 7f9f eb3b
00000380: 5160 b93c 77cb 8b3d 73f1 ac3c 35a4 ce3d
00000390: 9811 db3d 429d 313d 82f0 463d 164a 49bd
000003a0: 2743 55bb c9c2 323c 0536 1d3d cbf5 003d
000003b0: a9ee 24bc b137 353d 8a4e b63d de9f 40bd
000003c0: 9a48 1d3c a0d4 963d 7659 4e3d 9866 a83d
000003d0: 6712 58bd a8ed a33d 338d c839 6d79 16bd
000003e0: a4c8 da3d a8d1 653b 9191 99bc 3e31 073d
000003f0: 6402 78bd 7065 093d 9e0d d13d 664d 14bd
-0.0148989735 -0.040075514 -0.04840273 0.09074321 -0.0133426925 0.04490389 0.002996507 0.081728555
0.08136621 -0.014543068 -0.033553246 -0.019127352 0.032712057 0.018389126 -0.01729445 0.056013774
-0.033654843 -0.0063078753 0.076791525 -0.01667632 0.05430557 0.06817551 0.025225282 0.06932536
-0.03471626 0.05925948 0.09544627 0.021499064 0.052116986 0.07046188 0.018149279 -0.026675304
-0.022609444 -0.0203846 0.10562616 -0.010903078 -0.018483648 -0.0018823966 0.046250544 -0.022973236
-0.011351622 0.009100651 0.098934084 -0.044506744 0.049072877 0.112019144 -0.052072726 0.097600326
0.07428057 0.08069888 -0.011458431 0.020035747 0.01931167 0.028753815 0.007059459 0.095951416
-0.030920941 0.07829504 0.07313008 -0.06201769 0.0803835 -0.0006423832 0.03785665 0.017641684
-0.05973908 0.019647375 0.030578472 0.011721389 -0.055308685 0.0759994 0.06738168 0.051247448
0.06950116 0.09092627 -0.002768514 -0.0077475947 0.058732018 -0.018376412 0.039105352 -0.095234156
0.10641022 0.086574666 0.003014803 0.05253632 -0.030626738 0.095817 0.08519874 0.06200569
-0.015538045 0.0122678 -0.043254625 0.046327747 0.059612304 -0.0115800835 -0.08948847 0.07962559
-0.045522187 0.08112788 -0.021728583 0.10007702 0.10706844 -0.0369967 0.09482841 0.08159898
0.041799232 0.08512583 -0.025541104 0.068320006 -0.0013118298 0.015925258 0.015388214 0.0553396
0.07803934 -0.048305456 0.020496473 -0.062120285 0.045737024 -0.06951185 0.016392207 -0.05999138
0.111362614 -0.0032995085 0.06887318 -0.023818057 -0.053640787 0.053358663 -0.005862863 -0.023085907
0.026161183 0.06487849 0.025950117 0.046442613 -0.039931558 -0.01926414 0.026450375 -0.017484706
-0.030007618 0.109820455 0.06557454 0.06577938 -0.02586514 0.043976936 0.02732342 -0.079712905
0.037478056 0.037028827 -0.056775324 0.08886028 0.107763715 0.1011692 0.058983844 -0.01938778
0.014582562 -0.041590936 -0.033769574 0.033581126 0.0018651653 0.09280755 -0.062242873 -0.025971781
0.04044921 0.020658294 -0.009003014 0.059228476 0.0034879146 -0.03044183 0.016895812 0.06290584
-0.0096914545 0.10408042 -0.04184224 0.055520102 0.019851383 0.07999255 0.0897893 -0.025365574
0.10119553 0.006096552 0.06705649 0.07147559 -0.05248931 -0.047092415 0.0537328 -0.03950701
-0.0643723 -0.011338453 0.03907451 -0.046587277 -0.06712679 0.06287914 0.03640723 -0.040466957
-0.014168795 -0.02583973 0.059712008 -0.04426433 -0.02990214 0.11001108 0.09065982 0.029843682
-0.01070292 0.07271118 -0.018243328 0.090465255 0.021621365 0.057932515 0.045251865 0.06472713
-0.023581626 0.08494142 0.111698054 0.09411943 0.07305755 0.088703044 0.06747203 0.05298274
0.047321543 -0.036451142 -0.035655946 0.01285586 0.046636052 0.08781757 0.06515858 0.0071906443
0.022628935 0.06825917 0.021111226 0.10089914 0.10696715 0.043362863 0.04856921 -0.04914292
-0.0032541247 0.010910698 0.038381595 0.031484406 -0.010066667 0.044242565 0.08901699 -0.04702746
0.009599829 0.07364774 0.050378285 0.08222693 -0.052751925 0.08004314 0.00038252174 -0.036736894
0.106828004 0.0035067592 -0.01874617 0.033005945 -0.060549155 0.033544004 0.102076754 -0.036206625

lstm.bias_hh_l0 f4 [512]
00000000: 6c15 823d d745 7fbd 2e4c 50bd 74af aa3d
00000010: ecae a33d f448 bd3d 0bf6 d63d a3c9 47bd
00000020: d473 043d 1059 b73d d5f4 683d 54d5 b93c
00000030: ea09 e03d 0e70 a83c d1f0 c8bc 730f 1e3c
00000040: 911c d83d 3f72 82bd b1b7 a2bd f5e3 dd3c
00000050: 5e1e 843d b3c9 db3c 4066 aa3c e2c4 543d
00000060: f134 65bd 0469 de3c 3be9 0d3d 239e b8bc
00000070: 971f 4f3d 177a 7ebd b802 943d 75ef 17bd
00000080: 9eaf 59bd de12 5c3d f780 c53d 3fd6 fabc
00000090: aa09 8bbc d88b 7d3d 9ecd 0b3d a31b 1a3d
000000a0: b275 4aba 123b e43d f47b 33bd 77b5 1e3b
000000b0: d20b 75bd 0103 e03d d865 a8bc e459 cf3d
000000c0: 7337 39bd 4a0b 40bd 13f3 2abd 6d29 d43d
000000d0: 7733 66bd f730 f23c f2f1 55bc 4785 ab3d
000000e0: 85df 1f3c 8fbf c03d 5e3b 163d e9ba b5bc
000000f0: e2ce a53d cb3e 61bd 718e 65bd 42f4 7d3d
00000100: f455 b03c 63e4 013d 4310 843d 2a84 f4ba
00000110: ace0 743d a175 d7bc beb8 b73d 4557 a73d
00000120: fcc0 1c3d 6eea 403d 5201 53bd 477d ab3d
00000130: 04d5 043d f555 8c3c 631f 453d 8e73 813d
00000140: bdcb ad3d eaf6 443d ad21 ccbc eb82 00bd
00000150: 095e 75bd 4e3c cd3d f2c6 9a3d 3269 663d
00000160: 958a e8bc 4ce2 533d 5fe3 8bbd a7c9 06bd
00000170: 22c2 8bbd 02dc 803d a608 70bd 9ffe d43d
00000180: 40db 8f3d ea59 55bc 0186 8f3c 88a5 42bc
00000190: 67d7 c53d 5dc9 573d f5db c43c f6f1 9f3b
000001a0: fa54 d3bc 0024 233d ada7 26bd 30a4 29bd
000001b0: e5b1 893d 686d a0b8 6877 32bd 2894 903d
000001c0: 19e0 b43d 870c 863d 48ec b73d 59f9 c03d
000001d0: 0d47 41bd 640f abbc a309 81bd 65e5 ca3d
000001e0: b115 a53d 5972 d03c 9c22 87bc e9a7 213d
000001f0: 0944 b23d 096d 86bb f301 ad3d 8423 b6bc
00000200: 7e6b 773d 87de 3a3d e83d 5b3d 9544 cf3d
00000210: 2644 493b 2262 553d 641b ac3d 686f 4ebd
00000220: 71f4 2c3d 9603 913d 280f 833d 9280 323d
00000230: 4137 d83d 191b af3d 20bd 25bd ee1f 213c
00000240: 9935 963d edb9 a23d 76a1 223d 0875 3b3c
00000250: b79c c23d a3e6 b5bb 8c73 83bc 37c4 af3c
00000260: 5a2c d63d 6375 c33d 9044 9b3b c187 f73c
00000270: b743 603c 64c1 1b3d 7085 09ba 0b2f 663d
00000280: 13ab 4f3d 20a7 3fbd 357d 63bc 083b debc
00000290: 4da9 d73d 244f 2dbd bba0 9e3b c0db 2cbc
000002a0: 17c5 913d 1ea8 833d 0330 523d 8420 e53d
000002b0: 9ff1 803d 0e7d a73c fa56 fc3b d81a 8d3d
000002c0: f29a 2abc 4fdc d03d 135d 89bd 0617 c8bc
000002d0: edeb 4c3d 50cd 05bd 773c e7bc 0a95 7fbd
000002e0: fead 8a3d 8527 47bd 18cf 7cbd 4279 b73d
000002f0: 2387 283d 664b 92bb 0019 763d d7ef e83c
00000300: 28d9 a73b e0d3 8a3d 54a2 37bb 2626 a63d
00000310: 902c 7f3c 33f0 b83d 7388 733d 5620 4bbd
00000320: 032b 673d 0f16 21bd a83c 413c 1f76 a0bc
00000330: 04dd d23d 5125 75bd 7eb7 963d 1045 1f3d
00000340: e236 cd3d 79a9 afbc 2ad1 3abd 9449 3e3d
00000350: 5a47 ea3d c84c c7bb 3d26 5d3b 0bcc 203d
00000360: 898d c13d fe7a d0ba efb3 9dbd 4c1a 6fbc
00000370: 5840 973d 8dab d33d a25d 663d 78ac 703d
00000380: 77d9 51bb 2b25 f83c 6881 4bbd 71cf 0d3d
00000390: 83d5 443d 4df6 893d 62ec 053c 43c0 3b3c
000003a0: d64e bd3d ef08 90bd 870e 3fbc 95a2 7c3d
000003b0: b37d 3c3c c314 48bb 6952 38bd bc7f 51bd
000003c0: 1e33 eabc 479a 5abd df54 c13d 54ae a83d
000003d0: 0104 433d 86b2 4f3c 7319 2e3d 54f8 b63b
000003e0: bbd6 3ebd 3bdb 58bd 0aa0 aabb 4962 873b
000003f0: d5a5 313b 7586 f7bc 448f 663c df48 bd3d
0.06351742 -0.062322464 -0.0508539 0.08334246 0.07992348 0.0924243 0.10496148 -0.04877628
0.032337025 0.08952534 0.056874115 0.02268473 0.10939391 0.020561244 -0.024528893 0.009647238
0.105523236 -0.06369447 -0.079451926 0.027086237 0.064511046 0.026829576 0.02080071 0.051945575
-0.055958692 0.027149685 0.034646254 -0.022536343 0.050567236 -0.062128153 0.07227081 -0.0370936
-0.053145997 0.05372893 0.09643739 -0.030619739 -0.016972382 0.061900944 0.03413164 0.037624013
-0.00077232264 0.11144079 -0.043819383 0.0024217048 -0.059825726 0.10938073 -0.020556375 0.10124567
-0.045218896 -0.046885766 -0.04173572 0.10359464 -0.056201424 0.029564364 -0.013058173 0.0837503
0.009757881 0.09411537 0.03667771 -0.022183852 0.080961004 -0.054991525 -0.056044046 0.06200052
0.02152536 0.031711947 0.06448414 -0.0018655111 0.059784576 -0.026301207 0.08970784 0.08170942
0.03826998 0.04709857 -0.05151493 0.08373504 0.03242971 0.017130831 0.048125636 0.063208684
0.084861256 0.048087038 -0.024918402 -0.031374853 -0.059904132 0.10021268 0.07557477 0.056252666
-0.028386394 0.051729485 -0.06830477 -0.032907154 -0.06824137 0.06291963 -0.058601998 0.104001276
0.070242405 -0.013021925 0.017519953 -0.011880286 0.09660225 0.05268227 0.024030665 0.004881139
-0.025797356 0.039829254 -0.04068725 -0.041416347 0.06723384 -7.649773e-05 -0.043570906 0.070595086
0.08831806 0.06545358 0.08980614 0.09422559 -0.0471869 -0.020881362 -0.06300666 0.09907035
0.08060778 0.02544515 -0.016495995 0.039466772 0.08704383 -0.0041023535 0.084476374 -0.022233732
0.060405247 0.045622375 0.053525835 0.10120503 0.0030710786 0.05209554 0.08403662 -0.050399214
0.042225305 0.07080762 0.06399375 0.043579645 0.10557414 0.0855009 -0.040463567 0.009834273
0.07334442 0.07945619 0.039704762 0.011441477 0.09502547 -0.0055511757 -0.016046308 0.021455867
0.10457678 0.09543874 0.004738398 0.0302161 0.0136880195 0.03802623 -0.0005246019 0.056197207
0.05070026 -0.046790242 -0.013884832 -0.027127758 0.105303384 -0.042311803 0.004840938 -0.010550439
0.0711767 0.0642855 0.05131532 0.111878425 0.062960856 0.020445373 0.007700798 0.06889886
-0.010412918 0.101982705 -0.067072056 -0.02442504 0.050029684 -0.032666504 -0.028227074 -0.062397994
0.067714676 -0.048621673 -0.061720937 0.08958675 0.0411445 -0.0044645546 0.060082436 0.028434677
0.0051223226 0.06778693 -0.002802034 0.08112745 0.015574589 0.09030189 0.0594563 -0.049591385
0.056437504 -0.039327677 0.011794247 -0.019587575 0.10296062 -0.05985004 0.07359217 0.038884223
0.10020234 -0.021443116 -0.04560963 0.04645689 0.114393905 -0.006082151 0.0033744716 0.03925709
0.09450824 -0.0015905795 -0.07700335 -0.014593672 0.073853195 0.10335455 0.05624164 0.05875823
-0.0032020488 0.03029116 -0.04968396 0.03462166 0.048055183 0.06736431 0.008174034 0.011459413
0.092435524 -0.07032954 -0.011661178 0.061678488 0.011504578 -0.0030529953 -0.045000467 -0.051147208
-0.028588828 -0.053369787 0.09440016 0.082363755 0.04761124 0.012676841 0.04250474 0.0055838022
-0.0465915 -0.05294345 -0.0052070664 0.0041315896 0.00271069 -0.030215481 0.014072243 0.09242415

lstm.weight_ih_l1 f4 [512, 128]
00000000: aedb 963a 5a76 5fbd 80a4 623d 37d6 4dbd
00000010: 3a5c 203d 3289 203d 17eb 9e3b b884 33bd
00000020: caa7 d13b 9dff 71bd 05ff 38bd 2f66 383d
00000030: 00dc d13c 5ee9 a2bd 4ea1 893c cffb 3dbd
00000040: b85e 31bc d935 31bc 2b38 97bc f925 913d
00000050: 8be6 64bd 3dea 323d a83f 5cbd ea08 833d
00000060: 0d64 8abd bf8a dbbd ec55 1bbd 8be2 c53c
00000070: 810e e53c 7bf9 c63d 4703 5a3c 1e27 7b3c
00000080: aded 933c da53 a8bd bcb0 b5bc dfbb 463d
00000090: 3e30 ac3d 5d38 813d 79ad 093d c944 b33c
000000a0: 04b4 20bd 1bd2 57bd b9c6 613d 7027 393d
000000b0: 7220 54bd a5ac a53c 33bd dcbd 7938 02bd
000000c0: cd0b d0bd c45b 80bd 72c7 c13d ef0f 73bd
000000d0: 2edd 783d 13f4 9bbd 598b d93d a839 c9bd
000000e0: c302 03bd fd2e 88bb d9c6 0d3d a669 58bd
000000f0: 1522 2e3c 37b8 cebd bce4 6a3d 7bd0 d7bc
00000100: bdd5 bb3d 020d 41bd 6630 60bd f1a6 a9bd
00000110: 4265 31bc de41 193d ea9d 223d 6618 ae3d
00000120: d2bf cfbd c18b 933c 991d cdbc 988c ef3c
00000130: 0e3f 68bd 6981 01bd 1471 273d aadc 7cbc
00000140: fff4 363d 33d4 d43c 29f9 96bd 4cef 093d
00000150: 45a5 203c 45ff ae3d c53c 923d 382e 4abd
00000160: 192c a8bc aacd 0fbd 76d8 533d 834a 31bd
00000170: 1aaf 1e3d e0f8 c9bc 6d1e 78bd fc86 853d
00000180: af7f 11bc 9ee1 b03c 087b d03d eca2 84bd
00000190: 4239 d13d 02fe 3d3c 1b4e 56bd 8815 4fbd
000001a0: c4f3 783c d3eb 9dbd e474 383d ba72 033d
000001b0: 3450 363d dc55 22bd 4cd1 033d 4dc5 623a
000001c0: ea08 163b 57dc c4bd 4753 a8bd ba4a 473a
000001d0: 2efd 2b3c bdbd 9fbc cb43 923d f828 b93d
000001e0: e385 36bd 702c d7bd 37fe 443c 89fb b23c
000001f0: 38f1 babd 6bbf 0b3c 80d7 813b dd0e ce3c
00000200: 38dd 2abb fb40 d6bd 0524 6f3c 7034 903d
00000210: f19c 93bd 16f2 63bc 202b 19bd 2b5e bf3b
00000220: 11f7 debd 5a5c b03c 41b0 8e3d bc02 8ebd
00000230: b864 d5bd 1787 96bd 7503 703d d74a e93c
00000240: 974d 2dbc 8735 24bc 3ee8 89bd 8d06 03bb
00000250: d15b 67bc 7c30 34bd 9871 ee3c 606b 093d
00000260: 1bc5 d7bd 948c 00bd 265c 15bd 0f11 bf3c
00000270: c92b ecbc 45d2 ba3d c755 aa3d 2ce6 6b3d
00000280: 4e3a c1bd 5996 95ba 45ac 983c 429f 88bd
00000290: 689d cb3d 63f2 8e3c b4c0 45bd dad6 873b
000002a0: 6b36 f2bc bdc9 6f3d 9c02 85bd e163 dc3c
000002b0: aa02 82bd 85a5 9b3c f144 033c c3c6 9bbd
000002c0: 2421 6fbd f31c 0e3d 786c 813d c2a4 a63c
000002d0: a53c 093d ea49 043d 3538 85bd 936d 8cbd
000002e0: 915f 61bd 380b 90bd 7d74 5f3c 8ced c43c
000002f0: e201 4c3d 6ebc 97bc a46a 92bd a0de 64bd
00000300: 87c9 383c a5b0 c33c a96d 43bd 447b 833b
00000310: 026c bb3d a0d2 74bd fe73 373d 7ae4 39bd
00000320: d075 c6bd 57db d13d c0c1 a6bd 5b63 5ab9
00000330: 0de2 7bbd 6b92 16bc 1543 c63d 23ac a4ba
00000340: c76f ee3c d9d7 6cbd 8f8a a53c 1454 a03c
00000350: fed5 d73d 1027 1abd 26ae 9f3d e208 2a3d
00000360: c0d8 553d 9b0d 05bd 7b4a 90bd 73a1 0abd
00000370: 84e1 0d3d b1d7 cbbd 2bb5 c4bd 8f3d ffbb
00000380: 7cf9 233d 9221 ebbb d013 74bd d2d5 1c3d
00000390: 5dbd b13c 4718 97bd 1d39 b9bc eb10 01bd
000003a0: 0800 673d 45da b8bd a879 0b3d 919f 5cbc
000003b0: 770e 13bd 6e5b 8d3d 6211 563d 9fe5 903d
000003c0: b8e1 d03c 1916 1b3d 2bd5 edbc 6ab4 d43c
000003d0: 8138 85bc 62a5 273d de07 7fbd 3b29 913c
000003e0: ebaa d5bd d427 fb3c 6156 da3d 146b a1bd
000003f0: 89f8 dcbb a327 813d ecab 45bc 4837 7e3d
0.0011509561 -0.05455623 0.05533266 -0.05025312 0.039150454 0.03919334 0.0048498022 -0.043827742
0.006398176 -0.059081662 -0.04516508 0.045019325 0.0256176 -0.079546675 0.016800549 -0.04638272
-0.010825805 -0.010816061 -0.0184594 0.07087321 -0.055883925 0.04368042 -0.053771645 0.063981846
-0.067573644 -0.10719823 -0.03792374 0.024155876 0.027961018 0.097155534 0.013306445 0.0153291505
0.018057669 -0.082191184 -0.022179 0.04851901 0.08407639 0.063095786 0.033612702 0.021883385
-0.039234176 -0.052690607 0.055121157 0.045203626 -0.051788755 0.020223925 -0.107782744 -0.031792138
-0.10158501 -0.06267503 0.09461869 -0.059341367 0.06075781 -0.07614913 0.106222816 -0.0982545
-0.031985056 -0.004155992 0.034613464 -0.05283513 0.010628243 -0.1009373 0.057347044 -0.026344528
0.09171627 -0.047131546 -0.054733656 -0.08283795 -0.010827364 0.03741633 0.03970138 0.085007474
-0.10144009 0.018010976 -0.025038527 0.029241845 -0.05670076 -0.031617556 0.040879324 -0.01543347
0.04466724 0.02598009 -0.07371742 0.033675477 0.009805028 0.085447825 0.07140497 -0.049360484
-0.02052884 -0.035108246 0.051720105 -0.04328395 0.03874121 -0.024654806 -0.06057589 0.06519887
-0.00888054 0.021591958 0.10179716 -0.064763874 0.10215999 0.011596205 -0.05232058 -0.050557643
0.015194837 -0.077109955 0.04503335 0.032091834 0.04451008 -0.039632663 0.032182023 0.0008650616
0.0022893497 -0.09612339 -0.08219009 0.00076023827 0.010497374 -0.019499654 0.07141837 0.09041017
-0.044561278 -0.10506523 0.0120235 0.021848457 -0.0912804 0.008529524 0.003962457 0.025153572
-0.0026071798 -0.10461613 0.01459599 0.07041252 -0.072076686 -0.013912698 -0.037394643 0.005840083
-0.10886968 0.021528412 0.069672115 -0.06934115 -0.10419601 -0.07349985 0.058597047 0.02847807
-0.010577581 -0.010022528 -0.0673375 -0.0019992918 -0.014121012 -0.04399155 0.0291069 0.033549666
-0.10535642 -0.031384066 -0.036464833 0.023323564 -0.028829472 0.09122137 0.08317142 0.057592556
-0.09434949 -0.0011412605 0.018636832 -0.06671001 0.09942132 0.017449563 -0.04827948 0.0041454853
-0.029566964 0.058542002 -0.06494638 0.026903095 -0.063481644 0.018999824 0.008012042 -0.0760627
-0.058381215 0.034695577 0.06319517 0.020342235 0.0335051 0.032297052 -0.06504861 -0.06856837
-0.05502278 -0.0703339 0.013638613 0.024039052 0.049806483 -0.018522467 -0.07149246 -0.055876374
0.011278517 0.023887942 -0.047712002 0.004012497 0.0915146 -0.05977118 0.044788353 -0.045383908
-0.0969044 0.10246914 -0.08142424 -0.00020827113 -0.061494876 -0.009190182 0.09680764 -0.0012563508
0.029106034 -0.057823036 0.020207671 0.019571342 0.10538863 -0.03763491 0.07796888 0.041512378
0.052208662 -0.03248368 -0.07045456 -0.033845376 0.034638897 -0.09953249 -0.096048675 -0.007789321
0.04003285 -0.0071756328 -0.059589207 0.038289852 0.02169674 -0.073776774 -0.022610242 -0.031510275
0.056396514 -0.090260066 0.034051567 -0.013465778 -0.035902467 0.069022045 0.05226267 0.07075047
0.025498256 0.03786287 -0.02903231 0.025964934 -0.016262295 0.040929206 -0.062263362 0.017719856
-0.10432991 0.03065864 0.10661007 -0.07881752 -0.006743495 0.06306388 -0.012064915 0.06206444

lstm.weight_hh_l1 f4 [512, 128]
00000000: f83f dabb 7120 353d 80c4 823d d4da 1ebd
00000010: 355d dd3d 331d c1bc 1065 ae3d 7540 d63d
00000020: 0461 06bd 97a7 17bd 7e3f 2ebd bde6 ffbc
00000030: eefc 25bc 84eb 88bd 93c5 dc3c cd90 7d3b
00000040: c708 6e3d 8827 21bd 9e1e a6bd 4ad1 dc3d
00000050: bf42 76bc e23d c83d 15c1 5b3d 4386 27bd
00000060: 4007 fe3c fa89 c63d 7b00 cdbc cced 0a3d
00000070: 288b b93b 50d6 fabc 029a 08bd 75da 453d
00000080: 2cf9 733d a837 b0bd 32df 5a3c 21ab b1ba
00000090: 34fd 8fbd f6fd d83d 8a8e 533d 35ab 33bd
000000a0: 41d4 7d3d 53c2 69bd ed56 103d 13c5 9bbc
000000b0: f234 ce3d 2bf2 c33d 3a7b 82bc 81fd da3d
000000c0: f47b 34bd 2797 cdbc fd1e b73d 7cae 783d
000000d0: 3712 c63b 705f 5b3d e662 103d 7154 933a
000000e0: cc47 913c fc09 3abd 8688 073b d247 9bbd
000000f0: ac1b 92bd b5b1 cebd 8c2b 1b3d f140 bf3d
00000100: 31e2 bfbc 335e 19bb bdf6 b03d 893e f83b
00000110: 59ca 3dbc 3e25 1fbd 8e67 853d 78f0 47bd
00000120: 5661 273d eb07 9d3d 85e4 b9bd ad46 8d3d
00000130: 5f17 80bd 3696 b4bd 4584 df3c 345a 0abd
00000140: a55a c8bd 789b 123c 2161 ef3c 49db be3d
00000150: 2626 b9ba b4d0 8bbb 9181 823d 1210 db3c
00000160: 4be8 c8bd 6afd 8bbd 3d37 59bc 7fc6 673d
00000170: c7df afbd 7133 10bd e45c b33d e3fe 8b3d
00000180: 3ed7 833b 477d 463d e213 123b 484d 26ba
00000190: 2c19 413d 2716 94bd 5766 c03d f385 b4bd
000001a0: aa8b 84bd 1c6a 96bd 4142 adbd 122f 39bc
000001b0: 85e0 4d3d 91ed 863d b918 9abd a934 2abc
000001c0: 844d df3d d16a 7b3c 3e2d 82bd 22f2 bf3b
000001d0: 5b10 f03c 9d27 d3bc a4a9 7cbc 83a3 973d
000001e0: f855 af3b 232a 9f3d 0f6e 203d 2e66 c9bd
000001f0: c18b 8abd 7fda 8e3d 4456 023d 5be5 223c
00000200: e5f3 ab3c 33ba a6bd e215 b03d bc36 99bb
00000210: 5a38 d1bc e3b3 c2bd 17a6 013c 555a 05bd
00000220: 0e66 a0bc 7a7f ffbc 4b76 38bd d24b 263d
00000230: 7862 7dbd cae5 4f3d fe0b dcbd 8334 5c3d
00000240: c5de f83c 1f13 aa3d 2d8a 143a c149 71bd
00000250: b500 28bd fc36 12bc e79c 7abd 59d3 3e3d
00000260: bffb 2bbb 5714 2e3d fb0c 8ebc 2b60 b43d
00000270: 9462 923d 61b9 8a3c 68ec b83c 9e07 4a3c
00000280: 6bf0 143d 5e96 403d 7627 263d 4bfe a6bb
00000290: 2088 e4bc 873d 88bd 93bf e1bc 6c01 6d3d
000002a0: 20cf ef3b f20f 073d 8f74 173b 5876 793c
000002b0: 722e 143d ce64 943c f31f 8a3c 86ba 993d
000002c0: 7f1c 05bd 0ec3 a6bc fd00 7bbd 3c04 c0bd
000002d0: 552d b0bc 5e0c 9f3b 4ee4 103d 8c35 90bb
000002e0: 875a 963d 45d8 bd3d 0a71 cf3d bb25 64bd
000002f0: 972f b0bd 2c1a 1bbd dd43 5bbd b266 a73d
00000300: a420 6a3d 90aa 92bc dbc3 91bd 0622 35bd
00000310: c06f bdbd 6f5b 9dbd c676 17bc e7c4 38bd
00000320: a234 9f3d a9fb 653d 82b9 94bd 9f1e 2dbd
00000330: 7adb ba3d d322 bbbd 6bbe b43d a348 883b
00000340: 1876 b7bd 7165 3bbd 18f7 5e3d ecbb 873d
00000350: 2273 203d 7038 a4bc c2a8 e43d 0a5f 563d
00000360: 6e56 d4bb 09d2 92bd 420e 5bbd c056 c13d
00000370: a016 dbbd 842e 50bc bba6 ccbc 26f1 aa3d
00000380: 5a89 3b3d 74a6 d5bd a763 30bd 2a1d 253b
00000390: 94a3 553d 73f7 c33c 96c2 503d f3d9 82bd
000003a0: 6326 3ebd b3e1 9fbd fdc1 803d e009 523c
000003b0: 2130 d1bb a415 c13d 7289 aa3c 4fb2 93bd
000003c0: b471 533d 43b3 36bc 49de 703d b447 8abd
000003d0: 0454 83bd eaa2 40bd 1038 5a3d 589b 94bd
000003e0: 65f6 343c cc9b 60bd 8c72 5e3d f42e 18bd
000003f0: 6f84 863b 953c 53bd 5e0d 0ebc e43b cd3d
-0.0066604577 0.04422039 0.06385136 -0.03878291 0.108087935 -0.023573494 0.0851537 0.10461513
-0.032807365 -0.03702506 -0.04254102 -0.031237954 -0.010131104 -0.06685546 0.02694968 0.0038691044
0.05811384 -0.03934434 -0.081113085 0.10782106 -0.015030562 0.09777428 0.053650934 -0.040899526
0.031009316 0.09694286 -0.025024643 0.033918187 0.0056623407 -0.03061977 -0.03335 0.04830404
0.0595638 -0.086043656 0.013358878 -0.0013555029 -0.070307165 0.10595314 0.051649608 -0.043864448
0.06197 -0.057070088 0.03523915 -0.01901487 0.10068692 0.09567674 -0.0159279 0.10692883
-0.044063523 -0.02509649 0.089414574 0.060713276 0.006044652 0.053557813 0.035250567 0.0011240375
0.01773443 -0.045419678 0.002068074 -0.07582058 -0.07134184 -0.10092489 0.037883326 0.093385585
-0.023423286 -0.0023402094 0.086408116 0.007575814 -0.011583888 -0.038853876 0.06513892 -0.048813313
0.04086431 0.07667526 -0.0907679 0.06898246 -0.06254458 -0.08817713 0.02728475 -0.03377743
-0.09782914 0.008948199 0.02922112 0.09319169 -0.0014125749 -0.0042668227 0.06372369 0.026741061
-0.09809931 -0.06835444 -0.013257799 0.056585785 -0.08587604 -0.03520531 0.08757952 0.06835725
0.0040234616 0.048459318 0.0022289683 -0.0006343913 0.047143146 -0.07230788 0.0939452 -0.08814611
-0.06471951 -0.073444575 -0.084599026 -0.011302726 0.050262947 0.06588281 -0.07524247 -0.010388532
0.10903457 0.015345291 -0.063562855 0.005857722 0.029304674 -0.025775725 -0.015421305 0.07404234
0.0053508244 0.07771709 0.03916746 -0.09833942 -0.06764937 0.069752686 0.03182055 0.009942378
0.020990321 -0.081409834 0.08597924 -0.0046757143 -0.025539566 -0.09506967 0.007913134 -0.03255685
-0.019579913 -0.031188715 -0.045034688 0.04059965 -0.061861485 0.050756253 -0.10744475 0.053761017
0.030379662 0.08304428 0.0005666342 -0.058908228 -0.0410163 -0.008924242 -0.06118479 0.046588276
-0.0026242582 0.042499866 -0.017340174 0.08807405 0.071477085 0.016934099 0.022573665 0.012330918
0.036362093 0.0470184 0.040564977 -0.005096232 -0.02789694 -0.066523604 -0.02755717 0.057862684
0.0073183924 0.03297419 0.0023110246 0.015225969 0.036177106 0.018114474 0.016860938 0.0750628
-0.03249788 -0.020356681 -0.06128024 -0.09375808 -0.021505991 0.004853769 0.03537398 -0.0044009145
0.073414855 0.09269766 0.10128982 -0.055700045 -0.08602827 -0.037866756 -0.053531516 0.081738845
0.057160035 -0.017903596 -0.071174346 -0.0442219 -0.0924983 -0.07683455 -0.009244626 -0.045109656
0.07773711 0.056148205 -0.07261945 -0.04226553 0.09123893 -0.091375016 0.08825382 0.0041590496
-0.089580715 -0.04575104 0.054434866 0.0662764 0.0391723 -0.020046443 0.111650005 0.05233673
-0.00648003 -0.07168967 -0.053480394 0.094403744 -0.10697675 -0.012706403 -0.024981847 0.08346777
0.045785286 -0.10432139 -0.043063786 0.0025194385 0.052157953 0.023921704 0.05096682 -0.06389227
-0.046423327 -0.078067206 0.06287 0.012819737 -0.0063839112 0.09427956 0.020817492 -0.07211744
0.051622108 -0.011151138 0.058805738 -0.067519575 -0.06412509 -0.047030367 0.05327612 -0.07256192
0.011045073 -0.05483608 0.05430846 -0.037154153 0.004105143 -0.051571447 -0.008670179 0.10021189

lstm.bias_ih_l1 f4 [512]
00000000: 8482 dd3d 61e7 ca3d 0a6f 83bd 7061 de3d
00000010: b7ec 993d ca03 5c3c 488d aa3d 10da ae3d
00000020: f8c4 bd3d adf7 2f3d a767 b03d cee2 ad3d
00000030: 322e 0f3d 5f64 973d b0f5 82bd 85fb 85bc
00000040: ca58 d23c 10d6 85bd 98b6 1abc e4d5 b93d
00000050: 1c13 2ebd c536 7abc f091 583d 2c15 ae3c
00000060: 5384 12bc 5cbe 103d 40f6 173d b698 1f3d
00000070: fb1d a43d ecce c53d 3797 ad3d fd53 373d
00000080: 1c60 45bc 5dfe 05bd 71a5 77bc 5fae 3b3d
00000090: e8f7 13bd 2b83 ac3d 4e2b df3b b952 583d
000000a0: 31c1 b6bc 91a1 5a3d 20f7 34bd b191 cc3d
000000b0: 2239 18bd 0c60 13bd 5fe7 2abd a85c 22bc
000000c0: 61b4 c73d aeb0 bb3d 6089 a13c 083c 46bd
000000d0: 0f0e d53b a94a 933d 3509 8b3c bdb2 5f3c
000000e0: be79 053d e9b2 c93d 5738 033d d858 8c3d
000000f0: bad3 ca3d 4b66 793c 85f4 963d 3935 a43d
00000100: d84b 873d b52a a9bc a6fc ac3d 6608 ca3c
00000110: 73ec e8bc df97 a63c de5f d83d a432 d43d
00000120: ed79 1d3d 9cab 3dbd 81a5 6ebd f71d 723d
00000130: cd45 493d 8d10 a1bc 02df 1a3c b683 98bc
00000140: 04e0 993a 221b 813d 9e93 c43d da44 a53a
00000150: 7132 b53d b8e3 353d 9231 84bd 0c8d 963d
00000160: de31 6a3c a4a3 c63d c905 943d 5007 213c
00000170: 0519 293d d842 7d3d 1d0a 74bb 7aa4 a03c
00000180: 5ae1 89bd ea00 ccbc acfa 59bd 821d 9d3b
00000190: 4714 b1bc 3f09 9a3d 4d6f 423c a91b 543d
000001a0: aaa1 473d b56a ce3b d495 5cbd 005a 25bd
000001b0: 4d28 3b3c af11 983d a75f ef3c ac48 22bd
000001c0: cfb2 613c b5bd 95bd d80c 913d eceb 90bd
000001d0: 7e9b dc3c 863e 293d 626c 083c 299a 383c
000001e0: edeb a33c caf8 10bc 34f7 6d3d c621 a23d
000001f0: c176 8abc f941 5e3d eb55 40bd 5d0a 35bd
00000200: c7f9 d6bb 22d2 e53b e1f3 943d 067a 1a3c
00000210: 6bd7 d93d d08f d03d b779 dd3d 573a 5b3d
00000220: e141 88bd 9a39 813c 8a71 913c 2847 a13d
00000230: 9a8e f43c 28db 5abc 5044 0d3d 0e6e d93d
00000240: a2a8 7a3b 3b3f ae3d 03f8 503d bc87 1bbd
00000250: 7784 9c3c 42d7 a4bc c7a0 bcbb fcca dcbc
00000260: 4615 093d 717d 783d 1304 47bd cb50 0d3d
00000270: 3b9a 2a3d 14b0 af3d 1e7e 823d a77b 5ebd
00000280: d9c3 4c3c 9376 183d 860c a2bc 31b1 54bd
00000290: 70cf be3d 83b5 8f3d 51a2 ac3d 1dbe 4a3d
000002a0: fd8a 843b 43c3 ae3c 1398 bf3b 5634 f2bc
000002b0: 26b5 833c 8032 55bd 93f4 c33b 69b4 fdbc
000002c0: 2f1b 703d 567a 5abd bf22 c83c d29a 3c3c
000002d0: 0c0c 573c 9e50 7fbb fc28 5dbd 37ef 4a3d
000002e0: d697 e13d a6b1 1abc de67 d93d aeec c03d
000002f0: d5af 23bd b5e4 973d 2838 14bd 21bd 383d
00000300: 3343 64bc d2ef 103c 0419 8fbb b62b 693d
00000310: 9ea5 8b3d 0f8c 173d e7ba 423a 584e b63d
00000320: bfe3 7cbd 9380 1bbd 5cca 4f3c b0c7 82bc
00000330: 65a5 6f3d 847a 62bd d829 d5bc dc0e 1b3d
00000340: b500 ab3d f77c e8bc bcf4 3e3d 646c 79ba
00000350: 002e 983d 8693 893a ac7d 693d c19c 75bb
00000360: 5616 2d3b 1314 1e3d 4ca4 debc db77 d2bc
00000370: 5793 2b3d 8bd8 b83d f9e4 3a3d b791 41bd
00000380: 3d47 b0bc e19b 903a 1d1f 223c 96a6 183d
00000390: 472d b83c bfc1 5bbd 2cd6 9b3c 9922 9f3d
000003a0: 9fe6 5c3a c6c7 a03d 84f0 013d 3e44 6fbd
000003b0: 3112 1dbd 6064 f73c 093d c93d 1d0d 213d
000003c0: 99ca 493d 4b67 3dbd deb3 403c 093a 71bd
000003d0: e6a8 5b3d 5f38 583d a43a 8abd b1e9 edbc
000003e0: 2e8a 6cbd b35a b1b9 7c6d 143d 78dd 523d
000003f0: 0055 43bc ddff a73d 69b7 463c 4b32 ce3d
0.108159095 0.09907413 -0.064176634 0.108584285 0.07515853 0.013428638 0.083277285 0.08537686
0.092660844 0.04296081 0.0861352 0.08490525 0.034956165 0.07392191 -0.063945174 -0.016355285
0.025677104 -0.0653497 -0.009442948 0.090739995 -0.042498693 -0.015271847 0.05287355 0.02125033
-0.008942681 0.03533779 0.037100077 0.038963996 0.08013531 0.09658608 0.084761076 0.04475783
-0.01204684 -0.032713283 -0.015115128 0.04582059 -0.036125094 0.08423456 0.0068105822 0.052813265
-0.022308918 0.053376738 -0.04418099 0.09988726 -0.03716386 -0.03598027 -0.04172456 -0.009909786
0.097512014 0.09164558 0.019718826 -0.048397094 0.00650192 0.07191975 0.016972164 0.013653454
0.032586806 0.098485775 0.03203615 0.06852883 0.09903665 0.015222142 0.07370857 0.08017964
0.06606263 -0.020650247 0.08446626 0.024662208 -0.02843306 0.02033609 0.1056516 0.103612214
0.038446356 -0.046306238 -0.058263306 0.059110608 0.049138833 -0.019661212 0.009452583 -0.018617492
0.0011739735 0.06304003 0.09598468 0.001260902 0.088475116 0.044406623 -0.06454767 0.07351121
0.014294116 0.09699181 0.07227666 0.009828404 0.041283626 0.061831325 -0.0037237473 0.019609679
-0.067324355 -0.02490278 -0.053217575 0.0047947774 -0.021616114 0.07521295 0.0118673565 0.05178419
0.04873816 0.0062993416 -0.053853825 -0.040369034 0.011423183 0.07425248 0.029220415 -0.039620087
0.013775541 -0.07311574 0.07082528 -0.070762485 0.026929613 0.041319393 0.008326622 0.011267223
0.02000996 -0.008848378 0.05809708 0.07916598 -0.01690233 0.054262135 -0.046956938 -0.044199336
-0.0065605375 0.007013575 0.07273079 0.009428507 0.10636791 0.1018368 0.10814231 0.053522434
-0.066531904 0.015774537 0.017754335 0.078749 0.029853154 -0.013357915 0.034488976 0.106166944
0.0038247486 0.08508154 0.051017772 -0.037971243 0.019106133 -0.020122174 -0.005756471 -0.02695226
0.033467554 0.060666505 -0.04858787 0.03450088 0.041650992 0.08578506 0.06371711 -0.054317143
0.012497866 0.037222456 -0.019781362 -0.051926795 0.09316909 0.070170425 0.08429397 0.049497712
0.004044889 0.021333342 0.005846986 -0.029565971 0.01607759 -0.052050114 0.0059800833 -0.030969815
0.058619674 -0.053339325 0.02443063 0.011511521 0.013125431 -0.0038957964 -0.053994164 0.04954454
0.110152885 -0.009441769 0.10615514 0.09420143 -0.03996261 0.07416669 -0.036186367 0.045102242
-0.013932037 0.00884624 -0.0043669958 0.05692645 0.06818698 0.036998805 0.00074283633 0.08901662
-0.061740633 -0.037964415 0.012682524 -0.015964359 0.058507342 -0.05529262 -0.02602093 0.037855968
0.08349744 -0.0283799 0.046620116 -0.00095147477 0.07430649 0.0010496236 0.057004616 -0.0037477466
0.0026411018 0.038593363 -0.027177952 -0.025691917 0.04188856 0.09025677 0.04562852 -0.047258105
-0.021518344 0.0011032784 0.009895113 0.037268244 0.022482527 -0.053651568 0.019023024 0.07770271
0.0008426699 0.07850604 0.031723514 -0.05841469 -0.038347427 0.03019923 0.09826095 0.039319146
0.049265478 -0.046241086 0.011761634 -0.058893237 0.05362787 0.052788135 -0.06749466 -0.029042097
-0.057748966 -0.00033827647 0.036237225 0.05148074 -0.011922121 0.08203099 0.012128689 0.10068186
