models/WH005_SKU-016.pth (torch, 830897 bytes, 13 tensors)

lstm.weight_ih_l0 f4 [512, 6]
000000 6c 60 b0 bc bd cf 81 bd 50 00 d1 3d d3 f5 79 3d
       -0.021530353 -0.06338451 0.10205138 0.061025452
000010 f3 12 9b 3c 8c 3a 80 3d f4 fe 34 bd c5 7d c5 bc
       0.018929934 0.06261167 -0.044188455 -0.024107823
000020 ce 32 38 bd 40 a5 da 3d e8 c0 6e 3d 88 66 7f 3d
       -0.044970326 0.1067605 0.05828944 0.06235364
000030 c1 8c 2e 3d 33 2c e0 bc de ab 14 3d e4 2c cc 3d
       0.042614702 -0.027364826 0.036296718 0.099695
000040 99 2c c6 3d d2 64 ab 3d 29 ca 49 bd 68 16 f6 bc
       0.09676475 0.08368839 -0.04926506 -0.030039981
000050 ed 4f 46 bd 02 c7 8c 3d 2c 15 87 3d a5 5d 54 3d
       -0.048416067 0.06873895 0.06595835 0.05184712
000060 08 4d 4e 3d c3 a5 52 bd b7 8f 81 bc f3 ff 79 bd
       0.05036643 -0.051427614 -0.015815599 -0.061035108
000070 d1 2b 92 bc 84 46 60 3c ce 4c 85 3d 66 82 17 3d
       -0.017843159 0.013688687 0.0650879 0.036989592
000080 b4 e3 4d 3d e2 04 83 3d 45 76 6d 3d 93 cd 7e bc
       0.050265983 0.06397416 0.05797412 -0.015551942
000090 88 6e 42 3d f6 38 f3 bc 3a 6c 30 bc 18 ba 82 bd
       0.047468692 -0.029690247 -0.010767991 -0.06383151
0000a0 94 a7 73 bd 31 b7 d0 3d 63 14 e2 bc 6f c4 11 bd
       -0.059485987 0.10191191 -0.027597612 -0.035587724
0000b0 cd d5 eb bc fe 8f e3 bc ac 7d 3a bd 13 6c 16 3d
       -0.028788472 -0.027778622 -0.045530006 0.03672416
0000c0 ef d6 1f 3d a6 67 6f bd d0 86 4b bb cb 0e 70 bc
       0.039023336 -0.058448456 -0.0031055696 -0.014651964
0000d0 8c 9f 59 bc d9 46 d6 3d 3c ea b1 3d c9 5f 54 bd
       -0.013282668 0.10462732 0.08687255 -0.05184916
0000e0 6f 3d 20 bd 5c 4c 30 3d de 22 af 3d fd f3 ba 3d
       -0.039121088 0.043041572 0.08551572 0.09128568
0000f0 e7 73 0d bb 9f 52 9d 3d 68 54 cb 3d 5e fb 53 3d
       -0.0021583976 0.07681774 0.099282086 0.051753394
000100 9e 47 b1 bc 00 50 d4 3d a9 ec a3 bc 65 7f ae 3d
       -0.021640595 0.10366821 -0.02001031 0.08520392
000110 ab 8f 71 bc 6b 4e 57 3d bc 7a 14 3c 47 73 75 3d
       -0.014743726 0.05256502 0.009062465 0.05992439
000120 17 11 a4 3d 8f 0b b6 3c de 89 df bb c3 4b 07 bd
       0.08011072 0.022222308 -0.006821855 -0.033031236
000130 5d 9f 89 3c 2b 2a 54 bd ce df a0 3d 01 24 d2 3d
       0.016799623 -0.051798027 0.07855187 0.102607735
000140 11 66 0a bc 45 2e 9e 3d 67 47 ad 3c d1 e5 4b bd
       -0.008447186 0.07723669 0.021152211 -0.049779717
000150 09 c3 3a bd a5 4d d1 3d a1 3b 5f 3d 6a 35 8f bd
       -0.045596156 0.10219888 0.054500226 -0.0699261
000160 e8 4a 09 3c 11 39 b0 bc 0d 8f ea 3c b9 4e 1b 3b
       0.008379675 -0.021511586 0.028632665 0.0023698045
000170 64 e4 b5 3c 2e d9 b1 bc 66 f1 4c 3c 05 18 8a 3d
       0.022203632 -0.021710005 0.012508726 0.067428626
000180 9f 4f 7e 3d 8d df a4 3d 93 f9 a0 bc 1b ff e9 3c
       0.06208765 0.080504514 -0.019650256 0.028564027
000190 ee c3 c9 3c 32 e3 25 bd ee ac 6e bd da 43 bc bd
       0.02462956 -0.040499873 -0.058270387 -0.09192629
0001a0 50 ac 20 bd 47 bf 9e bc 2b 67 9d 3d 01 5d bc bd
       -0.03922683 -0.019378318 0.07685693 -0.091974266
0001b0 6b e3 a8 3d 8d 2d bc 3d cb 38 18 3d b9 d3 2f 3d
       0.082465015 0.091883756 0.037163537 0.042926524
0001c0 7e b6 4f bd 10 c1 06 3d 22 b9 43 3d fe d3 60 bd
       -0.050711147 0.032898962 0.04778398 -0.05488967
0001d0 e3 97 c1 3d 67 e3 1e 3c 54 61 ce bc a5 74 8c bd
       0.09452798 0.009697772 -0.025192894 -0.06858186
0001e0 8b ea 0a bd 32 c2 18 bd 0f fc d1 3d e0 29 73 bd
       -0.033915084 -0.037294574 0.102531545 -0.059366107
0001f0 b3 fa 42 bd df f9 e5 bc 64 bc b0 3d ad 73 48 3c
       -0.047602367 -0.02807325 0.08629683 0.0122346105
000200 aa 91 61 3d f9 e6 51 3d c0 99 fb 3b 21 b6 0c bc
       0.055070557 0.051245663 0.0076782405 -0.008588345
000210 7d eb 5c 3d 52 ad 5b bd 2d 57 e3 bc 3b 2f 42 3c
       0.053935517 -0.053632088 -0.02775153 0.011852081
000220 d3 62 55 bd 77 1a 2c 3d 86 8b 95 bd e9 5c 41 3c
       -0.0520962 0.042017426 -0.073020026 0.011801937
000230 55 17 49 3d 3b 6f b3 bc 1b 9f 8d 3d 1f c6 b1 3d
       0.049094517 -0.021903625 0.069151126 0.08680367
000240 4f 3c e1 bc 98 38 78 3d 33 51 81 3d 6a 3b 04 bd
       -0.027494578 0.060600847 0.06314316 -0.032283224
000250 e4 ff 4f 3c 4c 1a 2d bd 5f aa 2a 3d 57 7f 33 bd
       0.012695286 -0.042261407 0.041666385 -0.043822613
000260 25 51 e2 3d 4f 18 c7 3d 5c 58 6a bd a5 1d 4a bd
       0.11050633 0.09721433 -0.057213172 -0.049344677
000270 de 97 1e bd 05 14 81 3d bc fc 65 3d 60 16 bd 3c
       -0.03871905 0.063026465 0.05614923 0.023081958
000280 3b 77 03 3d 6c 8a e0 3b 65 08 8c 3d 65 97 57 bd
       0.03209613 0.0068524387 0.06837539 -0.052634615
000290 f0 45 95 3d 62 a2 4d 3d ca 2a c7 3c a0 8c 1b 3d
       0.0728873 0.05020369 0.024312396 0.037975907
0002a0 50 ba 43 bc fb 6d f3 bc e3 8a 41 3d 26 d0 c5 3d
       -0.011946276 -0.029715529 0.047251593 0.09658842
0002b0 3f 27 79 bd 5f af 5c bd 5e 57 da 3d 35 2b 20 3d
       -0.060828444 -0.053878184 0.10661195 0.039103705
0002c0 5f 63 7c 3c bb 3d 88 3c 4e 19 a3 bc d0 b9 49 bd
       0.015404551 0.016630998 -0.019909527 -0.04924947
0002d0 cf 32 8c 3d 96 35 47 bd 7d 24 ab 3d 9c 0a 29 bd
       0.068456285 -0.048635088 0.08356569 -0.041269884
0002e0 a4 f9 23 3b a2 0e d0 3b ad 4a ea 3d 06 c3 a8 3d
       0.0025020624 0.0063494006 0.114400245 0.08240323
0002f0 09 93 99 bb ac fe 09 3b 19 0f 28 3d 03 6c a5 3d
       -0.0046867174 0.0021056337 0.041030023 0.08077242
000300 6a ef 73 bd bf d1 15 bd f4 c3 a6 3d 58 8a c7 3d
       -0.059554495 -0.036576983 0.08142844 0.09743184
000310 6d 84 77 3c 37 7a bd 3d 65 43 c8 3d ca 2d 22 bd
       0.015107256 0.09251826 0.097784795 -0.03959445
000320 6d b3 ff 3c f5 7b 53 bc a1 f6 e2 3c 86 5b b0 3d
       0.031213487 -0.012907972 0.027705492 0.08611207
000330 71 f1 d6 3d 8a 9c 44 bd 6c a9 1a 3d e3 d3 38 3c
       0.1049527 -0.04800085 0.03775923 0.0112809865
000340 e4 bb cc bb 71 08 2b bd 22 f0 71 3d 7e 0d 90 3c
       -0.0062479842 -0.041756097 0.0590669 0.017584559
000350 e6 e5 34 bd ba 59 1a bc b6 b6 30 bd 25 d9 a2 3d
       -0.04416456 -0.009420807 -0.043142997 0.07951573
000360 ba f2 e4 3d bd ca 66 bd 45 53 56 3d 1e b2 a1 3d
       0.11179109 -0.05634569 0.052325506 0.07895301
000370 83 12 7a 3d 31 f6 4f bd 3e 8c 77 3d 90 0c b6 3d
       0.06105281 -0.050771896 0.06043648 0.08889115
000380 09 23 82 3d 77 30 34 bd d2 af 3b 3d a7 c4 94 3d
       0.06354339 -0.043991532 0.045821972 0.07264071
000390 08 c2 c8 bb 8f 5e a8 3c c2 15 bb 3c d6 90 dc 3d
       -0.006126646 0.020552902 0.022837523 0.10769813
0003a0 23 3c 81 3d 84 e1 2b bd 6a 0f b0 bc db e8 13 3d
       0.06310298 -0.041963115 -0.021491725 0.03611074
0003b0 6c 14 75 3d 03 2a bc 3c 07 d0 b5 3d 0e ec cd 3c
       0.05983393 0.022969251 0.08877569 0.025136974
0003c0 2a 37 31 3d f0 2d 71 3c f9 4a 88 3c 99 c3 9d 3c
       0.0432655 0.014720425 0.016637312 0.019258307
0003d0 12 d7 82 bd 53 6a ab ba f4 ce bc 3d 7a 2b 74 3d
       -0.06388678 -0.0013077952 0.09219161 0.059611775
0003e0 f1 ba 03 3c 62 cd 82 bd 05 da a6 3d 3b dd 01 3d
       0.008040176 -0.0638683 0.08147053 0.031705122
0003f0 45 da bb 3c 41 9a 75 bd ff fa 9c 3d 3e 81 09 3d
       0.022931227 -0.05996156 0.07665061 0.03357052

lstm.weight_hh_l0 f4 [512, 128]
000000 11 5b b7 bd f1 a2 89 bd af c0 c9 bb 2f fc a4 3c
       -0.089529164 -0.06720532 -0.006157003 0.020139782
000010 61 d6 57 bd b0 32 7f bc fa d0 d3 bd 9e f7 d3 bd
       -0.052694682 -0.01557605 -0.103425935 -0.103499636
000020 41 39 a1 bd fe 41 46 3d 47 73 06 bd 61 64 15 bd
       -0.078722484 0.04840278 -0.03282478 -0.036472682
000030 38 68 1f bd eb aa 81 3d b3 1e cb 3d 23 5b 64 3d
       -0.03891775 0.06331428 0.09917965 0.055750977
000040 6d 55 64 bd c3 53 c4 bd d7 fc a1 3c cf b2 4e 3d
       -0.05574553 -0.09586289 0.019773884 0.050463494
000050 cb 18 d0 3d d0 10 c8 bb 48 5a 0b bd 52 78 c7 bd
       0.10160979 -0.00610552 -0.034021646 -0.09739746
000060 49 0d 02 bd 24 5e a0 bc bc 15 75 3d f3 cb 6c 3c
       -0.03175095 -0.01957614 0.05983518 0.014452922
000070 f2 11 44 bd f5 cf 48 3c b9 5f 34 3c fa 08 2e 3d
       -0.047868676 0.012256612 0.01100915 0.04248903
000080 49 49 68 bd 30 dd 57 3d bf 2b 62 bd 2f 91 b7 bd
       -0.056710515 0.052701175 -0.0552175 -0.089632384
000090 e9 67 45 bd 04 85 4b bc 38 f4 87 bc e4 0d 18 3b
       -0.0481948 -0.01242185 -0.016595945 0.0023201639
0000a0 6f 73 2e 3c 01 0d 5f 3d 3c fb 82 bd b1 e0 3b 3a
       0.010647639 0.05445576 -0.063955754 0.00071669655
0000b0 5d 18 80 3d f2 73 9f bd f2 72 8b bb 85 c4 9f 3d
       0.06254647 -0.07785787 -0.004255646 0.07801155
0000c0 03 25 5c bd 36 c5 3e bc 49 9f 3c bd 03 d2 19 3d
       -0.053746235 -0.011643698 -0.046050344 0.0375538
0000d0 8b 77 41 bd dc 26 e2 bd 83 48 6c 3d 0a f9 79 bd
       -0.047233146 -0.11042568 0.05768634 -0.061028518
0000e0 4a 4f d2 bd 4c f7 c8 3d 7f 1c a5 ba c4 07 b7 3d
       -0.102690294 0.09812793 -0.0012596993 0.08937028
0000f0 18 44 52 bd dc aa d9 3c 1f 3c 1f bd 62 fa c9 3d
       -0.05133447 0.02657073 -0.038875695 0.0986221
000100 3f e0 f3 bc 54 65 83 3d 87 90 3a bd 5c 8a 58 bd
       -0.029770015 0.06415811 -0.04554799 -0.052866325
000110 d7 c8 aa 3d 55 22 df 3c fb 2e fc 3c e3 f1 44 bd
       0.083390884 0.02723805 0.03078412 -0.048082244
000120 9a 82 cf 3d 60 c9 49 bd 9a 89 7d 3c 9d ab dc bc
       0.10132332 -0.04926431 0.015474701 -0.0269373
000130 a1 76 76 3d 38 79 00 3d 50 a3 5c bd 8d a3 89 3c
       0.060171727 0.031365603 -0.053866684 0.01680162
000140 79 f3 45 3d cc fa 0b 3d 57 ca 84 3d 57 c2 d8 3c
       0.048327897 0.034174725 0.06483906 0.026459856
000150 a0 be 9a 3d 99 1b 1f bd 53 8c b8 bd 82 1e a5 3c
       0.0755589 -0.03884468 -0.0901114 0.020156149
000160 6a a0 d6 3d ef 62 92 bd 24 0e c2 3d 2e f2 c1 bd
       0.10479815 -0.07147776 0.09475353 -0.0947002
000170 de ac 4d 3b 1e 25 bf bd dd f1 e1 3d 2f f1 c9 3d
       0.0031383554 -0.093332514 0.1103246 0.09860455
000180 f3 2c fd bc f1 0e cd bd 88 27 6d bd d0 04 e7 bc
       -0.030905223 -0.100126155 -0.057899028 -0.028200537
000190 84 04 fc 3c f9 d0 8e 3c a1 28 96 bd bc d2 c1 3d
       0.030763872 0.01743363 -0.07331968 0.094640225
0001a0 0d 22 19 3c 83 7a 94 3d 55 fc 9e 3d 11 7b 2f bd
       0.009346497 0.0724993 0.07762972 -0.042841975
0001b0 51 e1 0d 3c d1 41 f3 bc f7 4d 34 3d 63 47 90 3d
       0.008659677 -0.02969447 0.044019666 0.07044866
0001c0 84 10 57 3d 81 0e 90 3d 05 0e 1a 3d 65 c6 0e bd
       0.052505985 0.070340164 0.037611026 -0.034857173
0001d0 f8 cd 89 3d fc ae d5 3b 8c d2 ad bd 0f 76 03 bd
       0.067287385 0.006521104 -0.08487424 -0.03209501
0001e0 3d 1d 0d 3d ce 3f 83 3d ed 6b 87 3d ed 3e 98 bd
       0.034451712 0.06408654 0.06612382 -0.07433877
0001f0 c6 e3 b6 3d 20 56 25 bd ed ee b2 bc 49 65 8d bc
       0.08930163 -0.04036534 -0.021842444 -0.01726021
000200 8f e8 f2 3c fe 9d 8c 3d ed 80 27 3d 70 09 99 3d
       0.029651908 0.06866072 0.040894438 0.07472503
000210 d3 4c 31 3c 01 29 cd 3c 3b b7 c8 bd 05 bb 0b bd
       0.010821539 0.025043966 -0.098005734 -0.034113903
000220 e0 8c c7 bd 63 a6 72 3d 74 66 54 bc db 8a 87 bd
       -0.09743667 0.05924071 -0.01296388 -0.066182815
000230 20 32 b0 bd c6 50 ee 3b b8 e0 05 bd 2b b2 61 3d
       -0.086033106 0.0072728125 -0.03268501 0.055101555
000240 ba 79 0c 3d da 19 8d bc 59 4d 66 bd 60 a1 ee bc
       0.034295775 -0.017224241 -0.05622611 -0.029129684
000250 ca a4 15 3d da a1 ee 3b 87 20 08 3d 97 36 d1 3c
       0.03653411 0.007282478 0.033234145 0.025538726
000260 32 6a cd bd 29 7f 2a 3d 3c 1e 44 bc bb 8b e0 3d
       -0.10030021 0.041625176 -0.011970099 0.109641515
000270 2c 3a 57 3c e0 6e a7 bc db 69 75 3d 63 be 20 3d
       0.013136428 -0.020438612 0.059915405 0.039244067
000280 45 5c 8f 3b 53 8e ea 3d 00 27 95 bd d6 63 8b bd
       0.004375013 0.114529274 -0.07282829 -0.068061516
000290 1d a9 49 bd c7 bd 1c 3d 5e b8 80 3d 0e fc 8a bd
       -0.049233545 0.038266923 0.06285165 -0.06786357
0002a0 56 23 4b bd 7d 15 c6 bd 05 ad be 3b 39 e6 14 bc
       -0.049594246 -0.09672067 0.0058189654 -0.0090880925
0002b0 96 e8 d2 3d 48 16 a2 bc 71 3e f7 bc 20 83 07 3d
       0.102982685 -0.019786015 -0.030181142 0.033084035
0002c0 e8 5c 97 3d bc 4d 17 3d 1b e6 98 bd 92 9a 25 3d
       0.07390767 0.036939368 -0.07465764 0.040430613
0002d0 1f 03 81 3d 07 f2 6e 3d 66 35 95 3b 06 49 5e 3d
       0.062994234 0.058336284 0.0045534847 0.05426886
0002e0 c9 12 d5 3c 34 70 ae 3d 52 cb 64 3d bd db 13 bd
       0.026009934 0.08517495 0.055857964 -0.03609823
0002f0 07 49 b8 bd de 40 0a 3d be 07 1b 3c fa 56 ae bc
       -0.08998304 0.03375327 0.009462295 -0.021281708
000300 a0 5f cd bd 3c 61 91 3d 48 9b 86 bd 00 56 7f bd
       -0.10028005 0.07098624 -0.06572586 -0.062337875
000310 b6 31 79 3c cf 94 5f bd 3f 5b 4a 3d 90 b9 24 bd
       0.015209606 -0.054585274 0.049403425 -0.04021603
000320 de 8c f4 bb f6 a1 06 3d 9b a3 1c bd a9 46 d5 3d
       -0.0074630817 0.0328693 -0.038241964 0.10413868
000330 29 44 d1 3d 67 b1 b7 bd 66 49 0a 3d 28 1e ef 3b
       0.10218079 -0.08969384 0.033761404 0.007297296
000340 c0 ac 1f 3d c7 13 1a 3d 16 c2 85 bd 6e 02 2a bd
       0.038983107 0.037616517 -0.065311596 -0.041506223
000350 50 0b 7d bd c0 52 59 bd b2 a0 ae bd 16 ef ae bc
       -0.061778367 -0.053057432 -0.08526744 -0.02135424
000360 8d 61 d4 3d ab 43 67 bd 74 cf fe 3d b0 02 c8 bd
       0.10370169 -0.056461018 0.12441912 -0.097661376
000370 87 31 8d 3c 1b 0a 93 bd f7 8c e8 ba d5 30 90 bd
       0.01723553 -0.07179662 -0.0017742206 -0.07040564
000380 00 c3 ea 3c b0 50 37 bc 23 e4 97 bb 8b b3 aa bd
       0.028657436 -0.011188671 -0.0046353503 -0.08335026
000390 87 58 10 3d 49 34 d2 bd cb 49 df 3b ff c8 97 3d
       0.035240676 -0.10263879 0.0068142167 0.07411384
0003a0 92 16 5d bd ee 3d 95 bd 12 51 62 bc 85 46 d4 bd
       -0.053976603 -0.07287203 -0.013813274 -0.10365013
0003b0 2f 12 96 3d 32 df 09 3d c7 04 ad 3c 90 7f e7 3c
       0.07327687 0.03366012 0.021120442 0.028259069
0003c0 1e 87 84 3d 4d 6e 33 bd 44 42 be bc 10 66 97 3a
       0.06471084 -0.043806363 -0.023224957 0.0011550803
0003d0 2e 86 88 3c 61 fd ad 3c d9 40 0f 3d e5 0f 20 bd
       0.016665544 0.021238985 0.034973953 -0.03907766
0003e0 d5 1d 98 bd 93 a1 1b bd fa 44 ed 3c aa 74 a7 bc
       -0.07427565 -0.037995886 0.028963555 -0.020441372
0003f0 77 35 ef bc 63 a3 c9 3c d4 c9 08 bd 41 46 54 bd
       -0.029200299 0.024614042 -0.033395603 -0.05182481

lstm.bias_ih_l0 f4 [512]
000000 37 83 d5 bb 21 ca 9a bd 3d ed 0a 3c 08 43 33 3d
       -0.006515886 -0.07558084 0.008479414 0.043765098
000010 ce 7d b4 3d a4 d9 99 bb 94 3b 05 3d 67 1c 8a 3d
       0.08813058 -0.0046951342 0.03252752 0.067436986
000020 98 17 c5 3d 31 a7 8f 3c ec 97 1b 3d 6c 81 57 3d
       0.09623641 0.017535778 0.03798668 0.05261366
000030 96 eb bd bc 91 e2 bb 3d dd c3 67 3d 9e 0e 8a bb
       -0.023183625 0.091740735 0.056583274 -0.0042131683
000040 a9 7f c7 3c 99 94 b1 bd 2b 08 0d 3d 5f 06 83 3d
       0.024352865 -0.08670921 0.034431618 0.063976996
000050 40 4a ca 3d 95 fe 4f 3d cb bc 41 3d b1 7d 9a 3d
       0.09877443 0.050779898 0.047299188 0.07543505
000060 ab 95 be 3d fa 21 a4 3d 7c 0c 7c 3d 7b 98 66 bd
       0.09305891 0.08014293 0.061535344 -0.05629776
000070 9e ea e7 bb 1a 68 cc 3c c0 62 7d 3d 9e c3 51 bd
       -0.007077529 0.024951983 0.061861753 -0.051211946
000080 09 b6 b8 3c 4d 82 86 bd 7b d0 5f 3c 0f 5c 21 bd
       0.022547739 -0.06567822 0.013660545 -0.039394435
000090 8e cb 37 3d 94 1a e5 bc 45 dd 67 ba a4 bc 72 bc
       0.04487186 -0.027966775 -0.00088449224 -0.014815483
0000a0 05 7f 3f bd da bf 0c 3c 8d cd 95 3d 18 6a ce 3d
       -0.046751995 0.008590663 0.07314596 0.100788295
0000b0 38 bf cb 3d 43 13 ef bc 60 e0 da bc 34 f8 a3 3d
       0.099485815 -0.02918399 -0.026718318 0.08006325
0000c0 b8 d2 4f 3b ac d3 a9 3d 91 0f 36 bd d7 2d 01 bd
       0.0031711292 0.08292326 -0.04444844 -0.031537857
0000d0 4b 1a 43 bd 84 aa 26 3d 5e 4e 32 3d 4c 55 9d 3c
       -0.047632497 0.04068996 0.043531768 0.019205712
0000e0 91 8b df 3d 6d 16 de 3b c6 66 10 3d eb fe c7 3a
       0.10915292 0.0067775757 0.035254262 0.0015258467
0000f0 7d ff 7b bd 54 3f 86 3c bb cd 55 3c 14 0e 43 bb
       -0.06152295 0.01638762 0.013049538 -0.002976303
000100 49 d0 95 bd 06 0c 23 3c 84 1a 70 3d da fd 40 bb
       -0.07315118 0.009951597 0.058619037 -0.0029448182
000110 1d c7 75 bd 12 e7 f9 3c 76 db 9b 3c 99 b4 af 3d
       -0.060004342 0.03050569 0.019025546 0.08579368
000120 14 a2 bd bc 1f de ec bb 4c 37 d4 3d a2 80 2c 3d
       -0.023148574 -0.0072286273 0.103621095 0.04211486
000130 f2 3b c4 bc 70 0c 13 3d 61 f3 80 bd cb d3 90 bb
       -0.023954365 0.035900533 -0.06296421 -0.004419779
000140 7c 93 c3 3d 35 d3 29 3d ac 84 b5 3d 9c 9f c7 3d
       0.09549615 0.04146119 0.08863196 0.0974724
000150 e7 19 8d 3c b9 9b 90 3d 15 59 f7 bc b8 4d 83 bc
       0.017224265 0.07060952 -0.030193845 -0.01602827
000160 86 85 65 bd 40 3b 0e bd 44 c2 b6 3d 7a de 71 bd
       -0.05603554 -0.034724474 0.08923772 -0.05905006
000170 b0 39 6f bd 17 c6 a6 3b fe c1 55 3d c0 0e 13 bd
       -0.058404624 0.005089532 0.05218696 -0.03590274
000180 66 75 94 3c 51 c4 e6 bb c3 93 43 3d 2c 86 55 3d
       0.018122386 -0.0070424457 0.04774834 0.05212991
000190 f6 de 5e 3c da 7f 2e 3d 50 e2 12 bd ee b8 b6 3d
       0.013602963 0.042602398 -0.03586036 0.08921991
0001a0 37 40 26 bd 57 0e 21 3c f0 9c 9c bc 7f 15 a1 3d
       -0.040588584 0.009830079 -0.019117802 0.07865428
0001b0 40 38 de bb 7e ee 8e 3b 11 92 63 bd 68 65 d9 3c
       -0.006781608 0.0043619266 -0.05555922 0.026537612
0001c0 40 2e cd 3d 0e 00 80 3d 67 63 88 3d d6 76 a9 3d
       0.10018587 0.062500104 0.066595845 0.08274619
0001d0 0b ad 3e bd dc a5 c7 3b 62 37 09 3d 0a 8e 3c 3d
       -0.046551745 0.00609277 0.033500083 0.046033897
0001e0 2e 3d 4a 3a a5 68 c3 3d 0c 91 c9 3d b5 5c c2 3d
       0.0007714805 0.09541444 0.098421186 0.09490339
0001f0 d4 98 6c 3d 41 f9 ce 3a 75 61 3b bc f5 f7 c9 3d
       0.057762936 0.0015790836 -0.01143681 0.09861747
000200 8e c6 71 3d c3 5a 0f bd be b0 0e bd 0b 7b e7 bc
       0.059027247 -0.034998666 -0.034836523 -0.028256914
000210 23 d2 d9 3d 89 1c 80 3d 66 e5 73 3d b4 ef 85 3d
       0.106357835 0.06255443 0.059544943 0.0653986
000220 8d 66 69 bd c3 c7 a7 3d 4b 51 d5 bc 75 90 d5 3d
       -0.056982566 0.081923984 -0.02603974 0.104279436
000230 7a c1 6c 3d f9 71 f4 bc c0 c7 fb bc 38 f3 1d bd
       0.0578017 -0.029839503 -0.030734897 -0.03856203
000240 7d b2 91 bc 32 e9 d7 bd 5c 96 b6 bb 90 27 51 bc
       -0.017785305 -0.10542525 -0.0055721235 -0.01276578
000250 7c dd 80 3d 10 fd 1d bd 6c ff 15 3d 70 95 b6 3d
       0.06292245 -0.038571417 0.036620542 0.08915222
000260 3b 9f 74 bd 70 51 5d bc f9 cc c5 3b fc 38 b6 bc
       -0.059722167 -0.013508186 0.0060363975 -0.02224397
000270 2f d7 5b 3d 1f 73 f8 3c 7e 3d 6f bd e3 cc a7 3c
       0.053672012 0.030328332 -0.058408253 0.02048344
000280 a5 90 0c 3d ac 17 6c 3d de ea 6e 3d 01 a6 73 bd
       0.03431763 0.057639763 0.058329456 -0.059484486
000290 fe 0e fe bc d9 15 49 3d 10 61 87 3d b8 76 61 bc
       -0.031013008 0.0490931 0.0661031 -0.013761215
0002a0 3a 36 6c 3d 97 71 f4 3c 1d c2 93 bc 6e 3d 78 3c
       0.057668902 0.02983932 -0.018036896 0.015151365
0002b0 60 1d 5b bd 76 87 6a 3c 7b ac 7e bd b5 40 bc 3d
       -0.05349481 0.014314523 -0.06217621 0.091920294
0002c0 7e ca a4 3d 6d 86 0b 3d 83 1d 96 3d 16 d6 11 3c
       0.08046435 0.034063745 0.07329848 0.00890114
0002d0 c2 5b 1d bd 29 46 3e 3d 35 8c 2f 3c e1 10 29 3c
       -0.038417585 0.04645363 0.01071458 0.010318966
0002e0 72 38 e7 3c 8a 50 30 3d eb 6a 86 3d 90 a8 64 bd
       0.028225157 0.043045558 0.06563362 -0.055824816
0002f0 79 9e 07 39 66 87 98 bc 74 d3 d8 3d 3b 95 d0 3c
       0.00012933639 -0.01861925 0.105872065 0.025461784
000300 ec a6 77 3c 23 da 19 3d 23 e3 07 3d d1 82 e0 bc
       0.015115481 0.037561547 0.0331756 -0.027406128
000310 05 54 83 3d 49 01 9c 3d f0 f9 97 3d a2 a1 16 3c
       0.0641251 0.076174326 0.07420719 0.00919381
000320 72 33 54 bd 66 d4 6f bc 0a cf 43 3c d4 ff ce 3c
       -0.051806875 -0.014638042 0.011951217 0.025268473
000330 2d 96 bd 3d fe 69 d5 3d 54 04 99 3d 6a 04 64 bd
       0.092571594 0.10420607 0.07471529 -0.055668272
000340 f0 89 b8 3d 52 b7 1c bd 01 17 1d 3b a0 f4 72 3d
       0.090106845 -0.038260765 0.002397001 0.059315324
000350 8c 6c d1 3d 81 73 47 3d bd 60 4f bc 26 11 53 ba
       0.10225782 0.048694137 -0.012657342 -0.00080515665
000360 3d 71 dd 3d 8c a3 50 3d a4 bd 4d 3a b8 fb 23 3c
       0.10812614 0.05093722 0.0007848388 0.010008745
000370 01 d0 ec 3c 7d a3 49 bd 6f 8e a7 3d 87 95 7a bd
       0.028907778 -0.04922818 0.08181464 -0.061177757
000380 4d 61 2c bd af 79 71 bd f1 e1 cb 3d 3b 72 15 3d
       -0.04208498 -0.058953937 0.09955204 0.03648589
000390 e9 cd 43 bd 79 80 c1 3d 19 2f 9d 3d f9 06 85 3d
       -0.047803793 0.09448332 0.07674999 0.064954706
0003a0 51 57 81 3d 7a 1e d4 3d fe 4c 92 3c 68 b1 37 3d
       0.063154824 0.103573754 0.017858978 0.044846922
0003b0 5b d6 c6 3d 7e 80 90 bc 0c cb 00 bd f1 2d 85 3d
       0.09708854 -0.017639395 -0.03144364 0.06502903
0003c0 39 7e d9 3d 54 f2 b9 3d fa 0e 97 3d 79 6a ca bc
       0.10619778 0.090794235 0.073759034 -0.024708973
0003d0 c6 26 54 3d 89 87 90 3d 36 f0 06 bd 42 f3 7b 3d
       0.05179479 0.07057101 -0.032943927 0.061511286
0003e0 28 e6 26 3c 00 2f 00 3c 4e 37 2c 3d 25 53 82 bd
       0.010186709 0.007823706 0.04204493 -0.06363515
0003f0 c7 e8 0d 3c 20 c6 90 3c 8a 90 14 bd 15 3e b0 3c
       0.0086614555 0.017672598 -0.036270656 0.021513978

lstm.bias_hh_l0 f4 [512]
000000 c3 fa 52 bd 5b ad 52 3c ee 6d 1c 3d 5c 86 88 bd
       -0.051508676 0.012858714 0.038190775 -0.06666252
000010 d4 39 d7 3d 02 02 92 3d 3b 0d f4 bc 9d 18 55 bc
       0.10509077 0.07129289 -0.029791465 -0.013006357
000020 e4 95 75 3d 13 a0 0f bd bc aa 95 3d 15 68 30 bd
       0.0599574 -0.035064768 0.073079556 -0.04306801
000030 26 11 25 bd 4a 6f 80 3d 67 ea 2f 3d 26 44 d9 3d
       -0.040299557 0.06271227 0.042948153 0.106087014
000040 0a 8b 85 3c 59 ec 83 bd c6 b4 81 bc df 20 b1 bc
       0.01630165 -0.06441564 -0.01583327 -0.02162212
000050 f6 9b d1 bc 27 4b 15 bc e7 aa 61 3d 18 bd 3b 3d
       -0.025587063 -0.009112156 0.055094626 0.04583463
000060 e5 d9 5d 3d 0b 4c 91 3c 58 e3 6f 3c ad dc aa 3d
       0.05416288 0.017736455 0.014641605 0.08342872
000070 f3 41 b8 3c 68 91 07 bc 3f 86 15 bd e6 81 6f bd
       0.022492385 -0.008274414 -0.03650498 -0.05847349
000080 14 f6 58 bd d9 e6 be 3d b2 43 04 bd 89 95 d3 3d
       -0.052969053 0.093213744 -0.03229112 0.10331256
000090 46 7b a0 3d c1 df 44 3d 33 fd 70 bb d9 a3 9b bc
       0.078360125 0.04806495 -0.0036772012 -0.018999027
0000a0 b8 ce 91 3d fc 3e e5 3d 08 9d 1a 3d 22 95 8f 3d
       0.071195066 0.11193654 0.037747413 0.07010867
0000b0 1c ef cc 3c ea 82 1d bd 11 a6 67 bd 65 5e 52 bd
       0.02501636 -0.038454928 -0.056554858 -0.051359553
0000c0 cd 96 e2 bb b1 a6 bb 3d 18 a0 ae 3a a5 95 97 3d
       -0.0069149495 0.09162653 0.0013322858 0.07401589
0000d0 30 c8 db 3d d2 41 da bc 12 55 62 bd 24 c2 81 bb
       0.10731542 -0.026642714 -0.05525691 -0.003959911
0000e0 77 81 1a bd 35 fd 93 bc 7f f9 c8 3d 85 fd a7 bc
       -0.037721124 -0.018065074 0.098132126 -0.02050663
0000f0 d4 a3 8a bd b6 13 a5 3d e1 af 16 bd 1c 90 d4 bb
       -0.06769529 0.080604 -0.036788825 -0.0064869057
000100 6c 50 16 bd f2 16 00 bd 65 56 59 bd 58 0f 9c 3d
       -0.03669779 -0.031271882 -0.053060908 0.07620114
000110 ac a3 53 3c da 9a 2e bd 1b fe d7 3d 15 f0 d3 3c
       0.01291744 -0.042628147 0.10546514 0.025871316
000120 8d 0e aa bb cc 10 23 3d 2e ee 1b 3d 6e 12 2d 3d
       -0.005189723 0.03981094 0.038068943 0.042253904
000130 cf 4b d0 3c 80 3b 42 ba 24 3d 09 bc df 9e 49 3d
       0.025426773 -0.0007409379 -0.0083763935 0.049223777
000140 89 95 de 3c 91 93 64 3c 4b cb 34 3d c2 0d 0d bd
       0.027170913 0.013951198 0.044139188 -0.03443695
000150 61 da cc 3c 29 58 69 3d b3 15 0b 3d 41 ea 8d 3d
       0.025006475 0.05696884 0.03395624 0.06929446
000160 34 e4 46 bd c5 57 4b bd dc f4 14 3c 14 b7 87 bd
       -0.048557475 -0.04964425 0.009091582 -0.06626716
000170 5c 37 e0 3b 12 09 54 3d 70 72 cf 3d bb 43 d0 bc
       0.006842537 0.051766463 0.10129249 -0.025422921
000180 ed 10 21 3d 1d f4 6b bd 13 4c 2e bc 6b bf 15 ba
       0.039322782 -0.05760585 -0.010638255 -0.00057124224
000190 1e 2f 68 3c 17 3b 1b bd f1 36 25 bd 4b 8c 41 bd
       0.01417139 -0.03789815 -0.0403356 -0.047252934
0001a0 c2 e6 e8 3b bd 1a 6f 3c 9d 9e 39 3d 5d b3 9a 3d
       0.0071075866 0.014593777 0.04531728 0.07553742
0001b0 7a e9 c9 3d 09 73 f2 bc 76 32 04 bd c9 99 e2 3d
       0.09858985 -0.029595869 -0.032274686 0.110644884
0001c0 d1 c8 8f 3d 73 5c c0 3d da 53 7c 3d 64 a0 b6 3d
       0.070207246 0.09392633 0.061603405 0.08917311
0001d0 8b f7 37 bc 79 6e 04 3c 65 ee 2f 3d 3c 8a b3 bc
       -0.011228452 0.008082979 0.04295196 -0.021916501
0001e0 c5 08 20 3d 6c 41 3c bc 59 f3 b9 bc b5 59 51 bd
       0.039070863 -0.011490207 -0.022699045 -0.051110942
0001f0 b2 11 a2 3d 36 fb 80 3d 92 bd 8d bd a9 81 19 3d
       0.07913531 0.06297915 -0.06920923 0.03747717
000200 a5 75 c6 3d 49 00 98 ba fa 2c 84 3d ec 1d 79 3d
       0.09690408 -0.0011596765 0.06453891 0.06081955
000210 b8 08 cb bc 19 d0 1b 3d ee 21 7f 3d a2 1c 49 3d
       -0.02478443 0.038040254 0.062288217 0.049099572
000220 26 ee 2b bc a5 0e 37 bd 41 ca c0 3c 8e 7e 7e 3d
       -0.010493791 -0.0446917 0.023533942 0.06213241
000230 49 53 a1 3d a2 4c 2f 3d 22 26 8d 3d 7c 5d f9 3a
       0.078772135 0.042797692 0.06892039 0.0019025053
000240 46 68 8d 3c 7b b0 9a 3c c7 4c 0d 3d b9 73 83 3c
       0.017261636 0.01888298 0.03449705 0.016046392
000250 10 65 94 3d 66 cb 9d 3c 35 7d d6 3d 6c 6b c5 3d
       0.07245839 0.019262027 0.104731 0.0963963
000260 20 a3 b7 3d 55 7a cf 3c a8 d9 52 3c fd ca 6a bc
       0.089666605 0.025326887 0.012869276 -0.014330623
000270 d0 5e 3f bd 98 46 97 3d 79 d0 a0 3d d8 49 94 3c
       -0.04672128 0.073865116 0.07852263 0.018101618
000280 6d 77 66 bc 0f 9d 9b 3d df bb 41 bd 1d d8 d0 3c
       -0.014066559 0.07598316 -0.04729831 0.025493676
000290 09 c5 a5 3b 82 a4 ba 3d ca 68 8a 3d 79 ba 4d 3d
       0.005058889 0.091134086 0.06758268 0.050226662
0002a0 5c 45 cc 3d 91 15 6a bd ad 68 3e bc e8 47 b7 3d
       0.09974167 -0.057149474 -0.011621636 0.08949262
0002b0 1e 19 81 3d 10 20 c2 bc 1b 27 b2 3b 93 45 9e 3c
       0.06303619 -0.02369693 0.0054367906 0.019320285
0002c0 93 d8 29 3c 46 03 0d 3d d1 11 4b bd 40 07 74 3d
       0.010366577 0.03442695 -0.049577538 0.059577227
0002d0 6e 7b 7c bd 15 6c bb 3c eb 83 9b 3a b6 b4 e4 3d
       -0.06164115 0.022878686 0.0011864876 0.111672804
0002e0 39 73 36 bd 11 df 94 3d 35 be 99 bc 53 13 d2 3d
       -0.04454348 0.07269109 -0.018767456 0.10257592
0002f0 16 5f d5 3d d7 7a 9f 3b 50 21 de 3d d7 b2 66 3d
       0.10418527 0.0048669386 0.108461976 0.0563229
000300 94 0f 66 3c 01 fa ae 3d ae 76 c4 bc 1b 9f 8b bd
       0.0140418 0.08543778 -0.023982372 -0.06817456
000310 22 5c 9d 3d 28 ef 88 3d be 49 96 3d b9 1a e5 bc
       0.076835886 0.066862404 0.07338284 -0.027966844
000320 83 ae 47 3d ef 8c f3 bc 23 26 4e bc 28 d3 8b 3d
       0.04875041 -0.029730288 -0.012582335 0.06827384
000330 0b bb 9b 3d ce 70 c8 3d 9c 6a ad 3c db 5d d5 bb
       0.07604035 0.09787141 0.021169 -0.0065114326
000340 a5 38 c8 3c b0 30 25 3d 99 e6 fb bb 37 60 85 3d
       0.024441073 0.040329635 -0.0076874015 0.06512492
000350 4d a1 1d bd 32 f4 e3 3d 55 c2 86 bd 17 df 4f bd
       -0.038483907 0.11130561 -0.06580035 -0.050749864
000360 b3 8c 19 bc 0b 06 80 3d ee c8 d6 bb 9b ef bf 3d
       -0.009371924 0.062511526 -0.0065547144 0.09371873
000370 66 5e 7a bd 59 5d 77 3d ab ce b7 3d 9f d6 81 bc
       -0.06112518 0.060391758 0.08974966 -0.01584941
000380 bf db 9c bc 36 58 7d bd 6d 97 48 bd e6 02 2a 3b
       -0.019147752 -0.061851703 -0.048972536 0.002594167
000390 ee df d9 bc 2f eb c5 3d 82 19 62 bd 8a 22 a5 3d
       -0.026596036 0.09663998 -0.055200107 0.080632284
0003a0 93 60 22 3d 7c 6f 64 3d 9c 0c 21 bc a0 3e d3 3c
       0.03964288 0.055770382 -0.009829666 0.025786698
0003b0 54 cc 37 bc cc a1 e7 3d 71 bd 6e bd 94 bd cb 3d
       -0.011218149 0.11310157 -0.058286134 0.099482685
0003c0 36 8c 52 3d 46 01 bc 3d f1 55 17 bc c0 84 2f 3d
       0.051403247 0.091799304 -0.009236799 0.04285121
0003d0 71 02 8d 3c b2 14 8e 3d 78 67 96 3d c3 92 57 bc
       0.017213078 0.06937541 0.07343954 -0.013157549
0003e0 8b 67 4b 3d d2 ed 23 bd f5 c7 e1 3d 79 c7 4b bb
       0.049659293 -0.040021725 0.11024467 -0.0031094237
0003f0 68 45 bf 3d c5 aa 03 3d 76 49 d6 3d 1b 64 c8 bc
       0.0933941 0.03214528 0.1046323 -0.024461797

lstm.weight_ih_l1 f4 [512, 128]
000000 23 9d 8d 3c 22 66 ba 3d 59 2c 86 bd 59 ed 29 bd
       0.017286843 0.091015115 -0.065514274 -0.041486118
000010 55 d4 3c bd c7 07 98 bd 34 bc 91 bd 94 d9 bb bc
       -0.046100933 -0.074233584 -0.07115975 -0.022930898
000020 44 a6 26 bc 41 cc 7d 3d f6 a6 6f 3d 63 ee c4 bd
       -0.010171477 0.06196237 0.058508836 -0.09615781
000030 19 9a 8c bc 0f d8 39 3c 53 7a 9f 3d 58 3a ad b9
       -0.017163323 0.011343016 0.07787003 -0.000330406
000040 06 44 a1 3d 95 59 73 bd c6 c0 58 bc 28 1a 25 bd
       0.078743026 -0.059411604 -0.0132295545 -0.040308148
000050 8f 31 ab 3d c3 5c 22 3d 08 38 d8 39 96 1a f1 bc
       0.08359062 0.039639246 0.00041240477 -0.029431622
000060 ec 19 f4 bc 00 64 48 3d 40 d9 dd 3c 93 72 a0 3d
       -0.029797517 0.048923492 0.027081132 0.07834353
000070 42 4f bf 3d 9e a1 68 3d 37 ea 67 bd ef 47 d8 bd
       0.09341289 0.056794755 -0.05661985 -0.10560595
000080 4d 9f 58 3d 04 26 62 3c 52 82 4e 3d 20 36 df bc
       0.052886296 0.013803009 0.050417252 -0.027247488
000090 aa 46 c5 bc 3e c3 4b 3d 24 71 0d bd 73 11 cc bc
       -0.024081547 0.049746744 -0.034531727 -0.024910664
0000a0 79 bc c2 bc 8f 72 a1 bd 34 40 7e bd 6c 98 b3 bd
       -0.023771511 -0.078831784 -0.062072948 -0.087693065
0000b0 d1 ac df 3d 4e 3f f4 3c 28 44 7d 3c cb 88 a3 3d
       0.10921634 0.029815342 0.015458144 0.079850756
0000c0 df f9 c1 bc 8f 1d c9 bd 0e dd 7a 3d ee 94 e3 3c
       -0.023678718 -0.09820091 0.06124597 0.027780976
0000d0 fd a8 0b 3d 8e 3c 1f bd c9 6b f2 3c 16 2d 82 bd
       0.034096707 -0.03887611 0.029592412 -0.06356256
0000e0 5b 37 fa bc 13 2d 84 3d 10 3c 8b 3d 2c a2 d5 bc
       -0.030543974 0.0645391 0.067985654 -0.026078306
0000f0 ce 27 e9 bc 48 68 92 bd 08 29 26 bd a9 47 df bc
       -0.028461363 -0.07148796 -0.040566474 -0.02725585
000100 ac 0b 29 3d 34 b1 1d 3d 77 4e 9c bd ba 54 97 bc
       0.041270897 0.038499072 -0.076321535 -0.018473018
000110 98 7e 6a bb 93 23 77 bd ab 00 a9 bd bb 8d bf bd
       -0.0035781022 -0.06033666 -0.082520805 -0.09353205
000120 f0 31 db 3d 85 9e 90 bd 2d 78 14 3d 6d c0 db bc
       0.10702884 -0.07061485 0.03624742 -0.026825154
000130 d4 a9 a5 3d 04 49 a2 3d 53 3c f7 3c d0 7b 6b 3d
       0.08089033 0.07924083 0.030180132 0.057491124
000140 17 ff 58 bd 69 90 2c 3c 94 69 ad 3d 8c 29 14 3c
       -0.052977648 0.010532477 0.08467403 0.009043109
000150 52 28 94 bb 45 b3 8d 3d 74 c6 4f 3d 79 72 15 3d
       -0.004521408 0.069189586 0.05072637 0.036486123
000160 3a 6d d0 3d b0 29 2a 3d 4a 69 24 bc c8 50 71 3d
       0.10177083 0.041543663 -0.0100348685 0.05891493
000170 a3 32 d2 bd 4d 06 ec bc 1a 60 a8 3c 6c 0c 28 bc
       -0.102635644 -0.028811598 0.020553637 -0.010256868
000180 76 de 46 bc ad 99 5f 3d 68 77 ce bd c7 07 17 3d
       -0.012138 0.054589916 -0.10081369 0.03687265
000190 8e 36 23 3d 94 95 96 3d ee f4 17 3d a6 f4 a6 bc
       0.03984695 0.073527485 0.037098818 -0.02038033
0001a0 7a 07 80 3d 0e 27 05 3d f7 48 01 3d 88 c3 bf 3a
       0.06251426 0.03250795 0.031563725 0.0014630416
0001b0 24 45 97 3d 5d 1b a4 3c d1 15 c7 bd 9e 08 7d bd
       0.073862344 0.02003258 -0.09720958 -0.061775796
0001c0 ff 36 8b 3d 0f b2 92 bd e6 a9 df bc 61 d3 70 bc
       0.06797599 -0.07162868 -0.027302694 -0.014698834
0001d0 75 0f d4 3d c9 63 62 3d f0 84 20 3b bb e3 f7 3c
       0.10354511 0.055270944 0.00244933 0.030259958
0001e0 09 be 81 3d e3 84 73 bc 4d 35 a6 3d be fb a3 bd
       0.063350745 -0.014863226 0.08115635 -0.080070004
0001f0 42 10 20 bd b1 35 d8 3b b5 9f af 3d 4b e4 82 bc
       -0.039078005 0.0065981974 0.085753836 -0.015978
000200 bc e6 00 bd c4 e4 9e bc 1c f3 e2 bc 17 18 2f bd
       -0.031470045 -0.019396193 -0.027703814 -0.042747583
000210 53 38 d8 3b a0 15 00 3b 4d fd 9e bd 50 c4 99 3c
       0.0065985112 0.001954414 -0.07763157 0.018770367
000220 1f ca 92 3d ea d6 96 bd 49 5f b9 bc 40 5e b4 bd
       0.07167458 -0.0736521 -0.022628443 -0.08807039
000230 78 f9 8e 3d 5a 56 c1 bb be ea 0d 3d 78 fc 46 3b
       0.06981176 -0.0059001865 0.034647696 0.0030362885
000240 9d 44 6e 3d 60 f2 b1 bd b3 fc 2c 3d c5 f2 a9 bc
       0.058170903 -0.086888075 0.04223318 -0.020745644
000250 22 3b b5 3d 7a 59 9d 3b 69 8f e6 bc 13 2f 90 bd
       0.08849169 0.004801926 -0.028144555 -0.07040229
000260 41 cd 89 bd aa 69 78 bd 4e c1 00 3b 4d 26 1b 3d
       -0.06728602 -0.060647644 0.0019646469 0.037878323
000270 11 08 9f 3d c2 0a ab bc 53 24 79 bd 5b 7b 1d 3d
       0.077652104 -0.020879153 -0.060825657 0.03844772
000280 9d 0c f5 3c 13 12 6f bd 5e 3d 72 bb 1f c9 91 bd
       0.029913241 -0.058366846 -0.0036962847 -0.07118439
000290 13 58 5a 3d db 33 b6 39 f9 54 db 3c ca e4 81 3d
       0.05330665 0.0003475238 0.026773917 0.06342466
0002a0 bd 61 43 bc db 89 84 3d d9 13 70 3d 1e 51 43 3d
       -0.011925158 0.06471606 0.05861268 0.04768478
0002b0 82 46 8f bb 70 6e f3 3b d1 ed a5 3d bd 59 03 bd
       -0.004372419 0.0074289367 0.081020005 -0.032068003
0002c0 5e f1 dd 3c 1e a8 de 3a e9 e3 a4 bd e3 cd d2 3d
       0.027092632 0.0016987359 -0.08051283 0.10293176
0002d0 41 c0 30 bc 02 1b 37 bd 83 79 a4 bd 72 4b 90 3d
       -0.010788024 -0.04470349 -0.08030989 0.0704564
0002e0 38 3b 93 3c b6 07 31 3d c8 62 b5 bc 43 5c ed bc
       0.017972574 0.043220244 -0.02214183 -0.028974658
0002f0 ee 8c 9c 3c 37 88 a4 bd dc 97 0b bd 47 cf 8e 3c
       0.01911017 -0.080337934 -0.03408037 0.017432822
000300 54 54 d2 bd f3 60 1b bd 55 04 7c bd 9a e5 56 bd
       -0.102699906 -0.037934255 -0.06152757 -0.05246506
000310 8a 71 89 3c 7b fb a2 3d ad 0d 23 3d 48 dc 50 bb
       0.016777772 0.07958122 0.039807964 -0.003186958
000320 d2 f0 84 3d bb ff aa bc ae bb 3b bc cc b4 80 bc
       0.06491245 -0.020873895 -0.011458321 -0.01571121
000330 13 fa 8e 3d 12 cf 43 3d 1d 3f f4 3c 51 54 7d 3d
       0.069812916 0.0478049 0.029815251 0.06184799
000340 ea 4c d6 3d d4 c4 80 bd 3d 93 84 bd 13 cc ab bc
       0.10463889 -0.06287542 -0.06473396 -0.020971334
000350 5d 02 b5 3d b6 41 88 bd 11 83 4f bd a0 1b 79 3d
       0.088383414 -0.06653158 -0.050662104 0.06081736
000360 de 32 5d bd bf aa 40 3d 71 cc 52 3b 3a cc 5d 3d
       -0.05400359 0.047037836 0.0032165314 0.054149844
000370 d2 48 e9 3c 0b 92 92 bc 4d 5b 7a bd ca 39 bc 3d
       0.028477106 -0.017891904 -0.061122227 0.0919071
000380 df 7f 4a bd 85 34 8f 3d 8f bf 3c 3d 7f 94 42 3d
       -0.049438354 0.06992439 0.046081122 0.0475049
000390 3f 91 a0 bc 26 f0 4e 3c 82 7b 8a bd cf 8c ab bc
       -0.019600509 0.012630498 -0.067618385 -0.020941166
0003a0 36 65 e3 3c 36 16 3c bc 2e 33 66 bd 01 ce 4f bd
       0.027758222 -0.011479905 -0.056201153 -0.05073357
0003b0 0a c2 3a 3d 5d 80 3b bd 85 fb 8a 3c e5 a6 34 bc
       0.045595206 -0.045776714 0.016965637 -0.011026119
0003c0 60 ab 92 bd 56 40 61 bc a1 3d b2 3d 53 c8 3c 3d
       -0.071615934 -0.013748249 0.08703161 0.04608948
0003d0 bb 11 4d 3c 9a 04 b6 3b 3b 70 e5 bc 14 72 68 3c
       0.012516434 0.005554748 -0.028007617 0.014187355
0003e0 d9 be 8b bd 1c 1d c0 3d aa a7 b2 3d 39 3b 67 bd
       -0.06823511 0.09380552 0.08723386 -0.056452964
0003f0 05 31 96 bc 48 b9 8d 3d c1 3f 8b bd e3 cc 80 3d
       -0.018333921 0.06920105 -0.067992695 0.06289079

lstm.weight_hh_l1 f4 [512, 128]
000000 a3 86 e3 bc 92 20 28 bd ef df 19 3c 7a fc 5b 3d
       -0.02777416 -0.041046686 0.009391769 0.053707577
000010 ac 04 0e 3d fd 30 74 3c 1d 70 27 3d 67 92 bb 3d
       0.034672424 0.014904258 0.040878404 0.091587834
000020 58 e7 e3 3c 94 0b 09 bd 43 d2 db 3c 5f 5b c9 bc
       0.027820274 -0.033458307 0.026833659 -0.024579702
000030 57 d4 14 3b 3b e5 a4 3d b7 0a 20 bd 10 e1 d1 3c
       0.0022709572 0.08051535 -0.03907272 0.025620013
000040 82 dd 1d ba 7c 98 13 3d 13 8f c6 3d 59 b3 c4 3c
       -0.0006022082 0.036034092 0.09695258 0.0240113
000050 8d a2 eb bd 25 8b 30 3d 03 f9 21 3d 58 ac 78 3d
       -0.115056135 0.04310145 0.039544117 0.060711235
000060 5c e5 b4 bd 19 c9 aa 3d d2 5e 71 3d 71 e0 c5 bc
       -0.08832809 0.083391376 0.05892832 -0.024154874
000070 09 0e 10 bd 3c be 80 3b df 45 71 bd 10 cd 9e 3d
       -0.035169635 0.0039289277 -0.058904525 0.07753956
000080 ff 31 7b 3d 60 5c ed 3c a7 c4 5a bd 1e 1f 99 3d
       0.061326977 0.028974712 -0.0534102 0.07476638
000090 29 1d 10 3d 6c a9 26 3c 43 3f 37 3d 77 04 c2 bc
       0.03518406 0.010172229 0.044738065 -0.02368377
0000a0 b6 99 94 bc 28 54 56 bd ba 05 ac bb 1a 72 9e bd
       -0.018139701 -0.05232635 -0.005249706 -0.07736607
0000b0 4a a2 3b bd 69 e1 36 bd 45 39 83 3d 1c 54 e2 b9
       -0.045809068 -0.04464856 0.06407408 -0.00043168745
0000c0 08 fc 03 bc 96 fa 72 bd a6 9c 74 bd fa df a2 3c
       -0.008055694 -0.05932101 -0.059719704 0.019882191
0000d0 b7 58 fb bc 32 95 49 3d e5 33 bf bc 1c e7 81 3c
       -0.030681951 0.04921455 -0.023340175 0.015857272
0000e0 a8 cb b8 3c 9b d2 9e 3c 7b 91 70 3d f0 24 99 3d
       0.022558048 0.019387534 0.05873249 0.074777484
0000f0 87 92 18 3d 68 5e 8d bd 67 a2 92 3d b8 74 b8 3d
       0.037249114 -0.06902772 0.07159882 0.09006637
000100 2a c6 3e bd 7e 47 c5 bd e3 ca b6 3d 3a e1 c4 3c
       -0.046575703 -0.09632777 0.08925416 0.024033178
000110 5c 69 ac 39 33 ff cb bd 69 6d ba bd 9c 46 94 3d
       0.00032884895 -0.09960785 -0.091028996 0.0724003
000120 26 5e 31 bd b8 ef 83 bd e4 93 b7 3d ee 2e 7e 3d
       -0.043302678 -0.06442207 0.08963755 0.062056474
000130 3c da 6a bd b2 34 9c bb a5 93 e6 bc 61 d0 aa 3d
       -0.05733703 -0.004767024 -0.028146574 0.08340526
000140 77 d5 a2 3d be 15 80 3d 0b 0e 0a 3d 15 49 79 bd
       0.079508714 0.06254147 0.0337048 -0.060860712
000150 52 f3 a7 3d 55 3a e2 3c 30 d8 1b bc 63 16 96 bb
       0.082007065 0.027615706 -0.009511992 -0.0045803054
000160 b8 35 10 bd f7 90 21 bd ba 21 e6 3c 29 73 85 bd
       -0.03520748 -0.03944489 0.028092254 -0.06516106
000170 0e e5 32 bc dc e8 41 3d 12 9a f3 3c 7b a0 9e bc
       -0.010918869 0.047341213 0.029736552 -0.019363632
000180 fc 6b 12 3d 6a cc 2a bc b8 d7 54 bd 0b 11 72 bc
       0.035747513 -0.010424713 -0.051963538 -0.014774571
000190 ef 99 ce 3c 8d cd 88 3c 68 db 3f 3d 89 4f 88 bd
       0.025219886 0.016699577 0.0468401 -0.06655795
0001a0 79 e2 23 3d c5 b3 a4 3d 31 1d 49 3c ca 81 c0 bc
       0.040010903 0.08042101 0.012275026 -0.023499388
0001b0 95 ff 82 3d c3 57 9d 3c 0d be 8e bd e9 fe 6e bd
       0.06396405 0.019206887 -0.06969843 -0.05834857
0001c0 17 83 cf bd c1 ee 11 bc 7f 22 67 bd 85 e6 b4 3d
       -0.10132425 -0.008907021 -0.056429382 0.088330306
0001d0 42 1b 57 bd 64 25 6c 3d 16 5b 8b bd c5 4e 7d bd
       -0.05251623 0.057652846 -0.06804483 -0.0618427
0001e0 11 78 8f 3c 7a 91 64 bc c2 b1 81 3b ba 4c 26 bd
       0.017513307 -0.0139507 0.003957958 -0.040600516
0001f0 45 2d 89 bd cd 10 45 3c cc 92 98 bd cf 80 67 3d
       -0.066980876 0.012027931 -0.07449874 0.056519326
000200 27 75 80 bc a5 30 b7 3d e6 0a a9 3c a8 fe a8 bd
       -0.015680863 0.08944825 0.02063508 -0.08251697
000210 68 07 ae 3a a3 27 57 bb 3a 86 2c bc d0 e5 b4 3d
       0.0013277354 -0.0032830022 -0.010530049 0.08832896
000220 14 9f 12 3d 31 40 c4 3d c8 12 e3 3d f9 c5 82 bd
       0.03579624 0.09582556 0.110875666 -0.063854165
000230 6b c0 bd 3d ff 95 34 bd 48 04 70 bc ec 54 d4 39
       0.092652164 -0.04408836 -0.014649458 0.00040499063
000240 d5 93 25 bd 9c df f7 3b b1 36 9a 3d 1b bb c8 bd
       -0.040424187 0.007564498 0.07529963 -0.098013125
000250 1d 50 e5 bd 55 81 b4 3a 16 3e 89 3d eb 94 c6 3c
       -0.11196921 0.0013771454 0.06701295 0.024240931
000260 e9 10 10 bc ba 5a a9 3d 7c c1 9f 3c 72 d1 f6 bc
       -0.008793094 0.08269258 0.01950144 -0.030129168
000270 c6 89 47 bd cc 8e 5d 3c 5f 89 a2 3d 85 f3 9f 3d
       -0.048715375 0.013522815 0.07936358 0.078101195
000280 59 74 b9 bd dd 92 f8 3d 55 c9 06 bd f0 3f 70 3c
       -0.09055395 0.12137387 -0.03290685 0.014663681
000290 f5 32 71 bd f6 07 ca bd 25 ad 54 3d 4a 57 88 3d
       -0.058886487 -0.098648 0.051922936 0.06657274
0002a0 20 cb 42 bd 3a 26 5f bd 82 b0 6a bd cd 76 57 bd
       -0.047556996 -0.054479815 -0.057297237 -0.05260353
0002b0 e9 ae e8 bd 08 09 1d bd ba 00 8e 3d c5 a9 7e bd
       -0.113614865 -0.03833869 0.06933732 -0.062173624
0002c0 02 b9 90 bd 97 74 75 3d f4 e7 27 3c 74 a0 1d bd
       -0.070665374 0.059925642 0.010248173 -0.0384831
0002d0 c8 79 46 bd a2 4c 1b 3d b2 bf b3 bb 2e 74 96 3c
       -0.048455983 0.03791488 -0.0054854983 0.018365946
0002e0 2f ee 84 bc 31 8b c3 3d 7c 49 cf bc 99 52 65 3d
       -0.016226856 0.09548033 -0.025303595 0.055986974
0002f0 05 8f c9 bd f3 c1 83 bc f9 46 bb 3c 06 de 56 bb
       -0.09841732 -0.016083693 0.02286099 -0.0032786145
000300 5d 4c 57 bb de 5d c7 bd ea f0 97 3d 56 51 38 3d
       -0.0032851913 -0.097347006 0.074189976 0.044999443
000310 7a d8 d8 bc 2c d2 87 3d a0 60 7a bd bb 9e 68 bd
       -0.026470412 0.06631884 -0.061127305 -0.056792002
000320 b7 08 b0 bd 1e c7 e1 3b 6f 7a 29 3d 3e f8 63 bc
       -0.08595412 0.0068901917 0.041376527 -0.013914166
000330 47 4e 2e bd 32 1d c2 3c ce 38 2b 3d d9 fb c6 3d
       -0.04255512 0.023695562 0.04180222 0.09716005
000340 cf da 67 bc 60 b2 91 3d fc 1e c0 3d 18 2c 2c bc
       -0.014151289 0.071141005 0.0938091 -0.01050856
000350 4e 4f 82 3d a3 d4 b2 bd 50 1f 0c bc 9b 08 ea 3b
       0.063627824 -0.087319635 -0.008552387 0.007142139
000360 26 dd 61 3c e2 d0 60 3d e0 fe 82 3c 25 23 9c bb
       0.013785636 0.054886706 0.015990674 -0.0047649317
000370 d7 cb 8d bd 59 a6 44 bd dc 67 0d bd 1b e6 1b bd
       -0.06923645 -0.048010204 -0.034522876 -0.038061243
000380 b1 3e 38 3d 32 8c f0 bc 06 60 b1 3d 59 0a be bc
       0.044981662 -0.029363725 0.08660893 -0.023198294
000390 9c ed 90 bd 62 92 94 3d f2 35 67 bd 2c f1 89 3d
       -0.070765704 0.07254483 -0.05644793 0.06735453
0003a0 30 8f 7e bd df 91 e8 bb af 5d 89 3d eb ec bd bc
       -0.062148273 -0.0070974673 0.06707322 -0.02318426
0003b0 fa 30 2e bd 92 bd 50 3c 13 f4 f3 bc a2 27 8a 3c
       -0.042527176 0.01274051 -0.02977947 0.016864602
0003c0 ea b7 28 bd 55 93 55 bd 94 ad 4a bc 98 bb 1b 3d
       -0.04119102 -0.05214246 -0.012370486 0.0380207
0003d0 40 e2 76 bd 52 43 ca 3d 6a 4b 9b 3d 6f d1 bd bc
       -0.060274363 0.098761216 0.075827435 -0.023171155
0003e0 0f 28 53 3c 72 6d f7 bc 57 8f cb 3a d2 b5 87 bd
       0.012887969 -0.030203555 0.001553039 -0.06626476
0003f0 57 16 99 bc bf e7 79 bd c1 8e b1 bd 1a 83 09 bd
       -0.01868741 -0.061012026 -0.08669806 -0.033572294

lstm.bias_ih_l1 f4 [512]
000000 a5 ba 9b bc c5 d4 b2 bc 3b e3 96 3c 64 8d 70 3b
       -0.019009897 -0.021829972 0.018418899 0.003670537
000010 b9 52 b1 3d 0f 6c 7f bc b7 dd a7 3d 0d 4e c7 3d
       0.08658356 -0.015589728 0.081965856 0.09731684
000020 46 b2 33 3d fe 98 37 bd e1 1b 91 bd 74 0d 91 3c
       0.043871187 -0.04482364 -0.070853956 0.01770661
000030 f6 48 c9 3d ce 01 bf 3d ec 3e 4b 3d 46 e4 1c bd
       0.09828369 0.09326516 0.049620554 -0.038303636
000040 91 fe 6c 3c 43 53 27 3d a8 9c 84 3d f4 a7 3e 3c
       0.01446499 0.04085089 0.06475192 0.011636723
000050 79 ce 44 3d 15 8c c4 bc 57 98 a7 bc 21 bd 1d 3d
       0.04804847 -0.023992578 -0.020458383 0.038510446
000060 39 72 2c bd 67 0d 5e bd 0e 18 90 3d 15 1e b0 3d
       -0.04210112 -0.054212 0.07035838 0.08599488
000070 e8 16 47 ba 8b 6d f1 bc 4b 57 3c 3d a4 85 30 bd
       -0.0007594661 -0.02947118 0.045981687 -0.0430962
000080 15 c0 98 bd bd a1 cb bc 40 05 85 bd ad 1e a1 3d
       -0.07458512 -0.024857396 -0.06495142 0.07867179
000090 f0 61 97 3d d5 69 3a 3d f3 c9 63 3c 3a a5 2f 3d
       0.07391727 0.045511086 0.013903129 0.04288218
0000a0 09 d3 49 3d a7 38 77 3c 17 d4 38 bd e5 e5 a0 3d
       0.049273524 0.015089191 -0.04512414 0.07856349
0000b0 e1 5b e1 ba 58 f9 1e 3d ca b9 ec bc 17 2c 64 bd
       -0.001719352 0.03881201 -0.028897185 -0.05570611
0000c0 ca ba 9a 3c 50 1b f8 bc 0e 49 59 3d d9 ad 58 3d
       0.018887896 -0.030286461 0.053048186 0.05290017
0000d0 f8 a3 7a 3c 94 b2 7f bd 2e 91 c8 3c 3c 65 a9 3d
       0.015297882 -0.062426165 0.02448329 0.08271262
0000e0 5e 84 8d bd 94 33 97 3d ca a2 5d 3d 7c fa d8 3d
       -0.06910013 0.073828846 0.054110326 0.10594651
0000f0 c1 ff 44 bd ff 11 a1 3d 8d 0f 22 3d 77 1a 86 3d
       -0.04809547 0.078647606 0.03956561 0.065480165
000100 a5 9b fb bb 89 ff 52 3b 4b 61 d8 bb 2b 66 0e 3d
       -0.0076784664 0.0032195768 -0.006603395 0.034765404
000110 5c 25 f9 bb b1 73 3a bd 60 68 bd 3c 5d 14 80 3d
       -0.0076033305 -0.04552049 0.023121059 0.06253884
000120 dc b7 1b bd 5e f9 b2 3d eb a3 85 bd 80 9a 38 3d
       -0.03801714 0.08738969 -0.065254055 0.045069218
000130 0a 3d 12 3c 5b 7f 31 3d 40 94 aa 3d 66 0f 95 3d
       0.008925686 0.043334346 0.08329058 0.07278328
000140 7b 66 9e 3d 61 e4 b0 3c 58 9b 77 3a 61 92 21 bd
       0.0773439 0.021593275 0.000944545 -0.03944624
000150 02 33 d2 3d 27 44 64 bd 40 f1 0a 3d 52 86 4f bd
       0.10263635 -0.055729058 0.03392148 -0.050665207
000160 06 7d 47 bd 7c 75 c8 3d b7 c2 8e bc 0b c8 6d bd
       -0.048703216 0.09788033 -0.017426832 -0.058052104
000170 9b 0d 98 3c c6 a4 14 bc 88 5a 09 bc 5f 4d f3 ba
       0.018561175 -0.009072488 -0.008383401 -0.0018562487
000180 67 2d 1e bc 56 da b6 b9 93 3f c3 3d f6 9f 71 3d
       -0.009654379 -0.00034876418 0.0953361 0.05899044
000190 82 5c 08 3d 39 b6 14 bd 50 9f 00 3c 33 9a b6 3a
       0.033291347 -0.036306594 0.007850483 0.0013931453
0001a0 a0 c3 3a bd a9 db 8c 3d d6 49 15 3d 1f 38 94 b9
       -0.04559672 0.06877834 0.03644737 -0.00028270573
0001b0 f0 98 b7 3d 44 fa a6 3d 3c 42 47 3d 52 d4 8a bd
       0.089647174 0.08153203 0.04864715 -0.06778778
0001c0 45 55 bf bc 10 00 ab 3c a5 f6 4f 3c 08 f2 6f 3c
       -0.02335609 0.020874053 0.012693082 0.014645107
0001d0 dd b8 9d bd 93 27 1a 3a 14 b5 0a bc b9 9c 0a 3d
       -0.077012755 0.0005880531 -0.008466024 0.03384087
0001e0 8c 80 e0 bc e1 3d 67 bd 22 f3 88 3d 3d 55 41 bd
       -0.027405046 -0.056455497 0.06686999 -0.04720043
0001f0 46 d0 e3 3c 05 9d 15 bd 54 d4 a4 3d 83 5d 76 3d
       0.027809273 -0.0365267 0.08048311 0.060147773
000200 e3 29 cd 3b 5b 89 a6 3c 2a e4 b6 bc ed 28 0c 3c
       0.006261097 0.020329168 -0.022325594 0.008554679
000210 86 53 79 3d bb 08 a3 bc 92 01 74 ba fc be 2d bd
       0.06087067 -0.019901624 -0.00093080953 -0.042418465
000220 08 e5 54 3d 9d 03 55 3d 05 57 02 bd ca 50 94 bd
       0.051976234 0.0520054 -0.03182127 -0.07241972
000230 b5 62 60 3c 24 77 65 bc ea 3c c5 3b 8b ee 52 bc
       0.013695409 -0.014005456 0.0060192244 -0.012874256
000240 78 ea 25 3d 57 c8 47 3c 76 0e bc 3d 32 17 19 bd
       0.04050681 0.012193761 0.09182446 -0.037375636
000250 77 f8 5b ba dc 14 b7 3c d4 06 11 3b d8 cd 8b 3c
       -0.0008391211 0.022348814 0.0022129314 0.017065927
000260 3a c7 22 bc 9e 69 bf bc 32 f3 cb 3c 68 00 7a 3d
       -0.009935195 -0.023365792 0.024896238 0.061035544
000270 c4 35 d4 bc 4c 5e 73 bd 84 0b 34 bd 6c 30 3d 3c
       -0.025904544 -0.0594161 -0.043956295 0.011547189
000280 de 8b 2b bd 5c 64 80 3c 3b 32 a3 3d 86 51 a1 bc
       -0.041881435 0.015672855 0.07968565 -0.019692194
000290 d9 38 13 bc 8b 06 4f 3d 44 51 0f 3d 5b 3c 21 3d
       -0.0089857215 0.05054335 0.03498961 0.0393642
0002a0 08 54 db 3d 03 3f 1e 3d 57 b0 0d 3a d5 6d 83 bd
       0.10709387 0.03863431 0.0005405 -0.06417433
0002b0 5c df bf 3d 7a 59 8c 3b 81 11 04 3d dc a2 e9 3d
       0.09368774 0.0042831274 0.032243256 0.11408016
0002c0 92 8d 1e bd 89 e6 7d bd 04 7e 0e bc 6f 0d 89 3d
       -0.03870923 -0.061987434 -0.008697037 0.066920154
0002d0 dd 54 7b 3d 52 f1 b8 bc 32 2f 12 bc b1 c6 82 3d
       0.06136023 -0.022576008 -0.008922385 0.06385554
0002e0 19 1d 4c 3d 3b 93 6d 3d 8f a0 8e bd 59 27 9a 3d
       0.049832437 0.058001738 -0.06964218 0.07527036
0002f0 a6 35 b8 bc bc c3 8d 3d 4c 7c ba 3d 84 1e 57 bb
       -0.022486519 0.06922099 0.09105739 -0.0032824585
000300 12 a5 53 3d 7b 9b ea bc a0 d4 ee 3a 0b b7 b0 3c
       0.051671095 -0.028638592 0.0018221326 0.021571657
000310 34 30 48 3d 26 b1 8c 3d 59 88 9e b9 e6 ef cb 3d
       0.048874095 0.06869726 -0.00030237695 0.09957866
000320 19 5c b2 3d 22 80 b7 3c 62 c5 9e bc d0 bc cb bc
       0.087089725 0.022399966 -0.019381229 -0.024870306
000330 99 a5 fb bc c6 22 9a bb d4 8b c4 bc fe 4b bc 3d
       -0.030718612 -0.0047038523 -0.023992456 0.09194182
000340 a1 b9 b5 bc cb 06 94 bd e8 0f ca 3d 24 ea d2 bd
       -0.022183241 -0.07227858 0.09866315 -0.10298565
000350 79 b4 d1 3d a2 fe 6b bd c2 c6 63 3d 7d dd 8b bb
       0.102395006 -0.057615884 0.055609472 -0.004268347
000360 42 fa b0 bc 24 6f 58 3d ea b8 4d 3d 4a 03 f5 3c
       -0.021603707 0.052840367 0.050225176 0.029908795
000370 3e 90 e6 bc bf d8 00 bd 08 07 5a bd 0d 3b c8 3d
       -0.028144952 -0.031456705 -0.05322936 0.09776888
000380 b9 4e e3 3d 79 c5 c8 3d d4 6f 87 bd e5 fd 8a 3d
       0.110989995 0.0980329 -0.066131264 0.06786708
000390 60 b2 73 3d f8 bf a0 3c ca b2 60 bd 22 38 12 bd
       0.059496284 0.019622788 -0.054858007 -0.035698064
0003a0 00 e3 90 3d ea f9 81 3d 64 24 ca 3b 52 61 99 3d
       0.07074547 0.063464954 0.006168889 0.074892655
0003b0 d5 7c d2 3d cb f7 c4 bc 1e 84 2b bd c3 95 c2 bc
       0.10277716 -0.024043938 -0.041874044 -0.023753053
0003c0 56 f3 cc 3b 55 bc 8d bd d5 cb 03 bd df 04 c5 bc
       0.006254594 -0.06920687 -0.03217681 -0.024050174
0003d0 4f 78 b6 3c 8f 02 d5 3d 76 60 a1 bc dd 4b 28 bd
       0.022274164 0.10400879 -0.019699316 -0.041087974
0003e0 36 c5 8f 3d d5 bd 94 3d ee 17 83 3d 0d 3f 89 3b
       0.07020037 0.0726277 0.064010486 0.0041884244
0003f0 2c 38 88 bd 91 3c 66 bd f9 22 76 3d 1b e1 96 3b
       -0.06651339 -0.056210104 0.060091946 0.0046044714
