models/WH001_SKU-003.pth (torch, 830897 bytes, 13 tensors)

lstm.weight_ih_l0 f4 [512, 6]
-0.020136602 -0.048919152 0.10259967 -0.065870054 -0.012375593 0.027611885 -0.061191298 0.05925499
-0.02924968 0.06688907 0.04458524 0.07715904 0.018665206 -0.021330347 0.04453916 0.016091313
0.09671497 0.06399618 0.039153308 -0.042919066 -0.044352505 0.045545865 0.10695312 0.0124445185
0.07539091 0.011517155 -0.03632246 0.10430816 0.035804853 0.08382549 0.09565381 0.069132715
0.099842176 0.08419913 0.092827804 0.08390031 0.010870545 -0.05101601 -0.0315528 0.07306957
0.08832095 0.003810727 0.056938935 -0.049225595 -0.055467468 0.042071767 -0.053557605 -0.020541083
0.071211174 0.011533177 0.07155384 0.045536317 0.08326295 -0.012622768 0.010570599 0.037073307
0.020766888 0.097803466 -0.01803835 0.038495474 0.031415414 0.08021318 0.011168683 0.05330242
0.028778471 -0.043197725 -0.015103732 0.054421797 0.080315046 0.06897943 0.015819488 -0.013449729
0.08637507 0.048057176 -0.05152046 -0.0062529887 0.096125074 0.08141741 -0.06680848 0.055815987
0.07861518 -0.014944728 -0.06985926 -0.04017575 0.027926318 0.0752604 -0.036597192 0.087463446
-0.05921938 -0.0006123663 0.06243836 0.012697731 0.032904275 0.013090156 -0.02001214 -0.047869842
0.100410566 0.07839168 0.060323834 0.06935986 0.005650226 0.058041442 0.012597593 0.06600467
0.09905308 -0.02475646 0.0036324612 -0.03139107 -0.04017949 0.036172967 -0.06257168 0.046896067
-0.011899955 0.047638126 -0.04859744 0.0035414281 -0.060998645 0.07963195 0.01639438 -0.065590635
-0.05722249 -0.044299774 0.009646 0.030219674 0.04743929 0.069830805 0.1053286 -0.016644713
-0.06406147 0.025603315 0.033212204 -0.03636809 0.001609383 0.09702238 -0.027494391 0.07216811
0.030205674 0.07246837 -0.052508377 0.018474877 0.09231206 -0.01871474 -0.022198834 0.09941229
-0.053041026 -0.045889385 0.07312022 0.10752761 0.09515388 -0.02141321 -0.029334847 0.032016754
0.016544964 -0.017247094 -0.02019059 -0.055442452 -0.05834345 -0.062586226 0.034868456 0.10978092
-0.0026005679 0.068788655 -0.033327036 0.07869678 -0.0036327152 0.060548194 0.04933332 0.009676177
-0.0033731996 0.016172884 0.09029654 -0.036530122 0.08954284 0.018053425 -0.012881494 0.08714694
0.08924537 0.08306191 -0.0078851795 0.020093074 0.02532113 0.048216816 0.041729644 -0.020990018
0.062072437 -0.0036267578 -0.04397117 -0.0141137745 -0.047753405 -0.059111755 -0.013371226 -0.056749593
0.030670246 0.06102887 0.08288668 0.024224011 0.10841718 0.04873003 -0.00047659955 0.06849316
0.021310853 -0.05447895 0.025186876 0.011148975 0.08312397 -0.032364205 0.017749026 -0.07228354
0.08956707 0.09231714 -0.049012464 -0.024431013 -0.063276075 0.05355994 0.046985213 0.09434547
-0.067334145 0.07032814 0.017672595 0.09425096 0.0858206 -0.038169302 -0.04632949 0.006431132
-0.068511404 0.06664576 0.06284551 0.09108342 0.070989646 0.08845013 -0.03530747 0.07104002
-0.038332157 0.02936615 0.09369809 -0.06888104 0.096651845 -0.05329591 0.034875732 -0.038261585
0.0654334 0.06287169 -0.037518803 0.04964738 -0.061909817 -0.020633824 0.06883132 -0.014863042
0.032047532 0.104244575 0.079738386 -0.031052895 0.041209202 0.104413025 -0.020013213 -0.045839064
00000000: 84f5 a4bc 735f 48bd c71f d23d e1e6 86bd
00000010: 00c3 4abc 5232 e23c baa3 7abd 5cb5 723d
00000020: 069d efbc 23fd 883d 039f 363d 8f05 9e3d
00000030: c6e7 983c fbbc aebc b26e 363d eed1 833c
00000040: 8012 c63d 6e10 833d 385f 203d e7cb 2fbd
00000050: f9aa 35bd 4d8e 3a3d 3d0a db3d 18e4 4b3c
00000060: 8d66 9a3d 73b2 3c3c dcc6 14bd 849f d53d
00000070: 1ca8 123d b3ac ab3d 25e6 c33d 7495 8d3d
00000080: 0e7a cc3d 9870 ac3d 811c be3d edd3 ab3d
00000090: 5f1a 323c 2af6 50bd 823d 01bd 80a5 953d
000000a0: 9de1 b43d 64bd 793b cd38 693d c7a0 49bd
000000b0: db31 63bd 7253 2c3d 385f 5bbd c645 a8bc
000000c0: 2ad7 913d a7f5 3c3c d28a 923d 4a84 3a3d
000000d0: c485 aa3d bacf 4ebc 4e30 2d3c 2eda 173d
000000e0: 521f aa3c 2f4d c83d 29c5 93bc 6ead 1d3d
000000f0: 73ad 003d cf46 a43d dafc 363c a353 5a3d
00000100: d4c0 eb3c 19f0 30bd a575 77bc 64e9 5e3d
00000110: 377c a43d 1645 8d3d df97 813c 415c 5cbc
00000120: 6ae5 b03d 9ad7 443d 1e07 53bd dfe5 ccbb
00000130: 39dd c43d 2cbe a63d e2d2 88bd 4e9f 643d
00000140: ff00 a13d bcda 74bc 5f12 8fbd 548f 24bd
00000150: bcc5 e43c 2022 9a3d f0e6 15bd 0920 b33d
00000160: 0590 72bd 3587 20ba 5ebf 7f3d 250a 503c
00000170: a2c6 063d 1878 563c 80f0 a3bc 2b13 44bd
00000180: 0ea4 cd3d d18b a03d 2016 773d 8b0c 8e3d
00000190: 8825 b93b ddbc 6d3d 2266 4e3c 752d 873d
000001a0: 57dc ca3d 0fce cabc 960e 6e3b ec93 00bd
000001b0: 4093 24bd 1b2a 143d 9525 80bd 1716 403d
000001c0: 07f8 42bc 3220 433d 1c0e 47bd 4e17 683b
000001d0: b7d9 79bd 1316 a33d 824d 863c 6254 86bd
000001e0: 2162 6abd ae73 35bd 420a 1e3c 408f f73c
000001f0: b34f 423d 7403 8f3d 85b6 d73d 7e5a 88bc
00000200: a932 83bd 0bbe d13c 8509 083d b5f6 14bd
00000210: eff1 d23a abb3 c63d eb3b e1bc e0cc 933d
00000220: e471 f73c 4c6a 943d 0613 57bd a058 973c
00000230: 1b0e bd3d a84f 99bc 54da b5bc ac98 cb3d
00000240: 8c41 59bd 82f6 3bbd 0ec0 953d 7037 dc3d
00000250: 0ae0 c23d c26a afbc a24f f0bc 0024 033d
00000260: 4e89 873c c749 8dbc bc66 a5bc a017 63bd
00000270: 8bf9 6ebd 352d 80bd 3ad2 0e3d d2d4 e03d
00000280: 4a6e 2abb 11e1 8c3d ee81 08bd c72b a13d
00000290: d912 6ebb 6201 783d bc11 4a3d d488 1e3c
000002a0: e610 5dbb ff7c 843c 64ed b83d 9ca0 15bd
000002b0: 3d62 b73d c7e4 933c e70c 53bc 187a b23d
000002c0: 47c6 b63d 5d1c aa3d d730 01bc 3b9a a43c
000002d0: 426e cf3c ff7e 453d b4ec 2a3d 42f3 abbc
000002e0: ab3f 7e3d e6ae 6dbb 1d1b 34bd 763d 67bc
000002f0: 1399 43bd 2b1f 72bd fd12 5bbc 4372 68bd
00000300: 2b40 fb3c 69f9 793d 7ec0 a93d 6f71 c63c
00000310: d409 de3d 2499 473d 1ce0 f9b9 2446 8c3d
00000320: 1994 ae3c 5225 5fbd b554 ce3c 31aa 363c
00000330: e63c aa3d 5490 04bd 6866 913c 6509 94bd
00000340: f16e b73d c510 bd3d 4bc1 48bd 8c23 c8bc
00000350: e396 81bd ab61 5b3d 9173 403d 3338 c13d
00000360: 7ce6 89bd 3308 903d 1ec6 903c a606 c13d
00000370: b6c2 af3d 6a57 1cbd fec3 3dbd 3fbc d23b
00000380: b54f 8cbd 927d 883d 26b5 803d f289 ba3d
00000390: 0563 913d 5725 b53d 919e 10bd 6e7d 913d
000003a0: 2e02 1dbd 4891 f03c c9e4 bf3d 8111 8dbd
000003b0: 67f1 c53d d04c 5abd dbd9 0e3d 2eb8 1cbd
000003c0: f201 863d dfc2 803d 51ad 19bd 0d5b 4b3d
000003d0: 2695 7dbd 4408 a9bc 6ff7 8c3d 1e84 73bc
000003e0: 4644 033d 2e7e d53d e14d a33d a462 febc
000003f0: fbca 283d 7fd6 d53d c0f2 a3bc bec1 3bbd

lstm.weight_hh_l0 f4 [512, 128]
-0.107798584 -0.05954229 -0.034061283 0.030694759 -0.02306065 0.022463894 0.05461154 -0.062013395
-0.013247668 0.033759363 0.073562324 0.031472176 0.00808695 0.10807309 0.04836973 -0.08085347
-0.036769964 -0.09060243 0.05798725 0.029803738 0.05558699 0.07530361 -0.009463673 0.03780338
-0.0017104864 0.059206218 -0.02009907 -0.031484745 -0.020033883 -0.020337947 -5.2434432e-05 0.030588405
0.08621558 0.058867306 0.015555956 0.08098883 -0.050229426 -0.026517762 -0.0016192603 0.034683198
-0.06872021 -0.04388918 0.10997781 -0.036069833 -0.00032469077 0.016962547 -0.038592733 -0.079131916
-0.06978367 -0.0022525142 0.058449738 0.039231278 0.05376328 0.10150676 0.06992205 0.10661516
-0.06933209 -0.0483856 -0.035826225 -0.058219366 0.109330565 0.07176023 -0.110213414 0.008898993
0.06221813 0.06579062 -0.0020357047 0.025018921 0.05213049 0.005263936 0.10851982 0.013051075
0.06982951 0.026104296 -0.014816012 0.011475382 -0.07293649 0.049066797 -0.059718378 -0.070091926
0.090754025 -0.061615624 -0.054121047 0.0019422625 0.07968576 0.09376453 0.056389783 0.06989365
-0.029610014 -0.02111189 -0.008403782 -0.029600132 -0.021305416 0.07975697 0.07048862 -0.04056878
0.023162117 -0.02361194 0.1011725 0.08413525 0.06451107 0.091176584 -0.060641404 -0.0588682
0.088329464 0.06932921 -0.041178588 -0.025308575 -0.015851157 0.022820596 -0.032028016 0.07093623
-0.09823993 -0.10100333 0.051818166 0.04890028 0.00952344 -0.031541914 -0.05523969 -0.017324742
0.016097076 -0.09368296 0.090164006 -0.003403923 -0.045631327 -0.047615245 0.03000506 -0.009345482
-0.0924577 0.086933695 -0.05118379 -0.009085235 -0.010939726 -0.027167002 0.007136032 -0.079036705
0.01309769 -0.044636134 -0.021514416 -0.10575021 0.07755205 -0.05870217 0.04409086 -0.036898337
0.060225975 -0.05082917 0.039683096 -0.014052548 0.035280265 0.05619398 -0.05479939 0.0037366478
0.063139856 -0.08294975 0.0035682947 -0.041244127 0.015833681 -0.053913385 0.001732003 0.08532845
0.026313432 -0.0065195058 -0.023065658 -0.05045343 0.09651339 0.054791927 -0.050087564 -0.008167441
0.009737613 -0.08671238 -0.06942121 0.014333351 -0.03787253 -0.09262642 0.064245485 0.06677945
-0.07049117 -0.054827407 0.019720333 0.06597799 -0.0028641159 0.087041244 0.040613115 -0.0015543576
0.09250974 0.022068165 -0.04447659 -0.023642952 -0.029668786 0.05680098 0.04154908 -0.017176291
0.08660429 0.006482391 0.0015099822 0.018202737 0.08464603 0.062448435 -0.049311224 -0.08039151
0.100709766 -0.014945348 0.1023397 0.03455638 -0.059455343 -0.033620052 -0.08183908 0.028062189
0.102653824 -0.0530306 0.047468714 0.07133599 0.07680783 -0.047465302 -0.013641052 -0.031513877
-0.046771307 -0.06925873 -0.09165873 -0.031408556 -0.076343134 0.11379287 -0.04032238 0.07813689
0.04470033 -0.0001892963 0.02567184 -0.036557704 0.09983019 0.030858366 0.0008886457 -0.0004676318
0.01873205 -0.09676712 -0.009730639 -0.035166945 -0.07210765 -0.04567193 0.012663367 0.09769832
0.031515058 3.644112e-05 -0.023780331 -0.04054918 -0.056557797 0.040108178 0.06807268 0.029226327
0.020479066 -0.040190086 -0.039408676 -0.09793496 -0.060434166 -0.05891195 0.051972724 0.06628879
00000000: 81c5 dcbd 9ee2 73bd d883 0bbd 9373 fb3c
00000010: b0e9 bcbc 3306 b83c 5ab0 5f3d c201 7ebd
00000020: bf0c 59bc 4247 0a3d d8a7 963d f8e8 003d
00000030: 207f 043c 6d55 dd3d 571f 463d 8196 a5bd
00000040: 1a9c 16bd c48d b9bd 0a84 6d3d f826 f43c
00000050: 2faf 633d c738 9a3d 860d 1bbc b8d7 1a3d
00000060: 6632 e0ba 3882 723d cea6 a4bc 26f6 00bd
00000070: 191e a4bc c49b a6bc 0bed 5bb8 8994 fa3c
00000080: cb91 b03d d81e 713d 69de 7e3c 79dd a53d
00000090: 5fbd 4dbd c73b d9bc 5c3d d4ba f80f 0e3d
000000a0: 2ebd 8cbd 24c5 33bd 0c3c e13d f6bd 13bd
000000b0: 423b aab9 0af5 8a3c 6a13 1ebd ea0f a2bd
000000c0: beea 8ebd eb9e 13bb fe68 6f3d fab0 203d
000000d0: e336 5c3d c7e2 cf3d 4b33 8f3d 0d59 da3d
000000e0: fcfd 8dbd fb2f 46bd 85be 12bd 6e77 6ebd
000000f0: b4e8 df3d 07f7 923d 92b7 e1bd 15cd 113c
00000100: 70d8 7e3d 3cbd 863d 7569 05bb 7bf4 cc3c
00000110: c886 553d 187d ac3b a43f de3d 2dd4 553c
00000120: c602 8f3d add8 d53c dcbe 72bc 3e03 3c3c
00000130: ba5f 95bd 44fa 483d 429b 74bd 5b8c 8fbd
00000140: 3fdd b93d aa60 7cbd 08ae 5dbd 8493 fe3a
00000150: 4a32 a33d 9e07 c03d f9f8 663d 6724 8f3d
00000160: b390 f2bc d8f2 acbc 04b0 09bc fa7b f2bc
00000170: b288 aebc 9f57 a33d 565c 903d 732b 26bd
00000180: 7bbe bd3c d46d c1bc 8733 cf3d 1a4f ac3d
00000190: 611e 843d caba ba3d 1f63 78bd c81f 71bd
000001a0: 14e6 b43d 79fc 8d3d e1aa 28bd ee53 cfbc
000001b0: 49da 81bc 42f2 ba3c cf2f 03bd 0447 913d
000001c0: 0432 c9bd d5da cebd 493f 543d a94b 483d
000001d0: 3408 1c3c 1832 01bd 0343 62bd 9eec 8dbc
000001e0: 04de 833c dadc bfbd e8a7 b83d 5a14 5fbb
000001f0: eae7 3abd 3408 43bd 2ccd f53c cb1d 19bc
00000200: 765a bdbd 4b0a b23d 18a6 51bd 3dda 14bc
00000210: 893c 33bc 558d debc 60d5 e93b ffdd a1bd
00000220: b297 563c 61d4 36bd 003f b0bc 9193 d8bd
00000230: 9cd3 9e3d b071 70bd 9e98 343d b622 17bd
00000240: 83af 763d 3f32 50bd be8a 223d a93c 66bc
00000250: 0a82 103d a92b 663d 5375 60bd 8ce2 743b
00000260: 784f 813d 8fe1 a9bd 0dda 693b 9aef 28bd
00000270: a3b5 813c 48d4 5cbd 6004 e33a afc0 ae3d
00000280: 448f d73c 94a1 d5bb 31f4 bcbc 41a8 4ebd
00000290: d0a8 c53d 806d 603d 9e28 4dbd bbd0 05bc
000002a0: 828a 1f3c 4396 b1bd b52c 8ebd 6ed6 6a3c
000002b0: 3a20 1bbd ecb2 bdbd 2393 833d aac3 883d
000002c0: ad5d 90bd b492 60bd 898c a13c 781f 873d
000002d0: e4b3 3bbb ae42 b23d f059 263d 96bb cbba
000002e0: bf75 bd3d 4cc8 b43c 162d 36bd ddae c1bc
000002f0: f40b f3bc 25a8 683d 5e2f 2a3d 4bb5 8cbc
00000300: 975d b13d 3d6a d43b 98ea c53a e81d 953c
00000310: e65a ad3d eec9 7f3d 91fa 49bd 4ea4 a4bd
00000320: ec40 ce3d 55dd 74bc 7a97 d13d fe8a 0d3d
00000330: 7287 73bd 2eb5 09bd 3f9b a7bd ade2 e53c
00000340: 2b3c d23d 9d36 59bd 8e6e 423d 9b18 923d
00000350: 6c4d 9d3d fa6a 42bd b87e 5fbc b214 01bd
00000360: 4593 3fbd 85d7 8dbd 92b7 bbbd 42a6 00bd
00000370: ca59 9cbd 3c0c e93d 1429 25bd 3c06 a03d
00000380: b117 373d d77d 46b9 c04d d23c 88bd 15bd
00000390: c573 cc3d afca fc3c 01f4 683a 7a2c f5b9
000003a0: f573 993c d72d c6bd 426d 1fbc 370b 10bd
000003b0: 2dad 93bd 7d12 3bbd 037a 4f3c 0f16 c83d
000003c0: ef15 013d 5bd8 1838 f8ce c2bc e616 26bd
000003d0: 26a9 67bd 7948 243d b069 8b3d 0d6c ef3c
000003e0: b7c3 a73c 5c9e 24bd fe6a 21bd 2092 c8bd
000003f0: d189 77bd a84d 71bd 5ae1 543d 6bc2 873d

lstm.bias_ih_l0 f4 [512]
-0.020718908 0.09778568 -0.013295405 0.05281185 0.012539294 0.084869064 -0.039555453 0.01841779
-0.04660195 0.026950372 0.048511617 -0.023758795 -0.005696166 0.024929093 0.06924419 -0.007037316
-0.049777053 0.0066546486 0.030889327 -0.019023588 0.09055565 0.037700623 -0.05022174 0.07353913
0.027530164 0.054706234 -0.020155124 0.0793277 0.079287514 -0.06612622 -0.07506115 -0.06520296
0.070530385 0.10666739 0.07817996 0.03737832 0.009499905 0.0592412 -0.026157496 -0.03746047
-0.059491687 0.08712163 -0.016177163 -0.03183657 0.04177581 0.021221003 -0.04305998 0.08209928
-0.054546967 -0.02368447 0.09728421 0.04837966 -0.019407908 -0.017869892 0.04668647 0.08434422
0.062261585 -0.026095923 -0.04378011 -0.062400434 -0.06035206 -0.0478623 0.01935687 0.079089776
0.09413229 0.07674865 -0.057753056 0.04384846 0.059907652 0.06379677 0.08313435 0.039886482
0.04877928 0.040952478 -0.034941494 0.047874548 -0.022584273 0.038420577 0.05194746 0.027561555
0.101957045 0.10498611 0.07911887 0.10878296 0.068729475 0.08345782 0.021142414 -0.0010336187
0.05452218 0.029625287 -0.01821068 0.00836899 0.07831925 0.040656894 -0.034066726 0.10252873
-0.025463033 -0.010585485 -0.036174554 0.027976172 0.05178602 0.04019847 0.08982903 -0.06192615
0.08749216 -0.025891935 -0.023898793 -0.041545026 -0.022055566 0.04322118 0.06592661 -0.011364801
-0.005407838 0.07124131 0.04479145 0.0051049734 -0.023772877 0.037566967 0.10326626 -0.008045665
-0.057202782 0.09084249 0.09404675 0.09303527 -0.0430366 0.035228297 0.07785461 0.09729691
0.104222365 0.012566312 0.047255732 0.051807974 0.067442685 0.01367875 -0.06443917 0.03430674
0.015032408 -0.03192313 -0.00878315 -0.055358004 -0.043610513 -0.013614204 0.07732004 0.043753274
-0.04400546 0.02159317 -0.011891412 -0.05015772 0.00019226946 -0.010922593 0.09966115 -0.0022618056
0.009501916 -0.0034437675 0.094754286 0.073065296 0.042732067 -0.04115046 0.005856788 0.045217127
0.09284933 0.06792549 0.087473005 0.09424111 -0.014500215 0.034734767 -0.017070532 0.052207943
-0.021991642 0.050122235 -0.06602779 0.04162091 -0.027421987 0.10028683 0.0011643548 0.03931365
-0.018045062 0.01995027 0.10281348 0.024356006 0.072694086 0.048384227 -0.0023338725 0.061381154
0.07964733 -0.0027911393 -0.012153534 0.09580864 -0.040702097 -0.016454665 0.104387075 -0.016682347
0.050489243 -0.061937764 -0.04944052 -0.01736502 -0.04417718 -0.047272418 0.08283862 0.02577975
0.09152268 0.022705842 0.0086641265 0.019842284 0.0033755156 -0.051531415 0.004747718 0.07183398
-0.05889755 0.008384679 -0.02677029 -0.01944292 0.05965251 -0.004612301 0.011894664 -0.017414974
0.030017896 -0.014168124 0.007250168 0.059850954 -0.063655 0.0028353557 -0.046662487 -0.023502357
0.05020658 -0.012127157 0.02695547 0.089298025 0.034478113 -0.04333848 -0.0383312 0.02006911
0.04973574 0.0623462 0.010182462 0.09326405 0.003149295 0.00916078 -0.039037265 0.071428135
-0.013950442 0.038570642 0.022604715 0.03654037 0.0782107 -0.031647775 -0.06001728 0.012430437
0.04474979 0.0703598 0.010795725 0.0462274 0.060096014 0.08514341 -0.010113384 0.05445637
00000000: b3ba a9bc dc43 c83d f8d4 59bc 3d51 583d
00000010: 9c71 4d3c d5cf ad3d e604 22bd e8e0 963c
00000020: b0e1 3ebd 07c7 dc3c 1eb4 463d cea1 c2bc
00000030: e7a6 babb 1938 cc3c e6cf 8d3d 4999 e6bb
00000040: 06e3 4bbd 3d0f da3b 9d0b fd3c 5bd7 9bbc
00000050: 3e75 b93d f86b 1a3d 50b5 4dbd af9b 963d
00000060: f086 e13c a513 603d 5c1c a5bc 9076 a23d
00000070: 7e61 a23d 2f6d 87bd a9b9 99bd 2189 85bd
00000080: 3c72 903d 6f74 da3d d11c a03d 021a 193d
00000090: 7da5 1b3c e7a6 723d 3f48 d6bc 2670 19bd
000000a0: 8ead 73bd d36c b23d f885 84bc 1067 02bd
000000b0: 1d1d 2b3d abd7 ad3c a95f 30bd ab23 a83d
000000c0: a46c 5fbd ef05 c2bc f23c c73d c029 463d
000000d0: 55fd 9ebc e163 92bc 503a 3f3d aabc ac3d
000000e0: 0106 7f3d 1ec7 d5bc c652 33bd 9997 7fbd
000000f0: b933 77bd 420b 44bd 4c92 9e3c d2f9 a13d
00000100: 6ec8 c03d 652e 9d3d 788e 6cbd 719a 333d
00000110: ba61 753d e2a7 823d 5842 aa3d 0260 233d
00000120: c8cc 473d c9bd 273d d01e 0fbd 1a18 443d
00000130: a702 b9bc e55e 1d3d dcc6 543d c5c8 e13c
00000140: dbce d03d f502 d73d 1309 a23d 9ac9 de3d
00000150: 0ac2 8c3d efeb aa3d db32 ad3c 7d7a 87ba
00000160: a652 5f3d bbb0 f23c 902e 95bc 171e 093c
00000170: d865 a03d d887 263d 8d89 0bbd 95fa d13d
00000180: da97 d0bc be6e 2dbc c52b 14bd 492e e53c
00000190: 941d 543d 27a7 243d 48f8 b73d 46a6 7dbd
000001a0: 172f b33d 531b d4bc 67c7 c3bc 1e2b 2abd
000001b0: e0ad b4bc b108 313d 8804 873d 6e33 3abc
000001c0: 3c34 b1bb f7e6 913d 3d77 373d 9f47 a73b
000001d0: 56bf c2bc d2df 193d 437d d33d f7d1 03bc
000001e0: 774d 6abd a10b ba3d 959b c03d 4789 be3d
000001f0: 2547 30bd 8c4b 103d 3d72 9f3d 9a43 c73d
00000200: 8972 d53d efe2 4d3c 3a8f 413d 9934 543d
00000210: 641f 8a3d d61c 603c aff8 83bd 3985 0c3d
00000220: 7d4a 763c d4c1 02bd 34e7 0fbc 13bf 62bd
00000230: f0a0 32bd 1c0e 5fbc f859 9e3d a236 333d
00000240: 123f 34bd 29e4 b03c 32d4 42bc 2e72 4dbd
00000250: f19b 4939 adf4 32bc 251b cc3d cd3a 14bb
00000260: edad 1b3c d5b0 61bb 890e c23d 42a3 953d
00000270: d207 2f3d 628d 28bd 4cea bf3b 9835 393d
00000280: ca27 be3d 851c 8b3d 0c25 b33d 7c01 c13d
00000290: 4f92 6dbc 0b46 0e3d 80d7 8bbc ffd7 553d
000002a0: d127 b4bc f94c 4d3d 9439 87bd b07a 2a3d
000002b0: 13a4 e0bc 2e63 cd3d 449d 983a 5a07 213d
000002c0: 3dd3 93bc c06e a33c e08f d23d 3f86 c73c
000002d0: a3e0 943d 8a2e 463d e2f3 18bb ce6a 7b3d
000002e0: 241e a33d 8ceb 36bb 9e1f 47bc 5237 c43d
000002f0: 3eb7 26bd efcb 86bc e4c8 d53d 6ba9 88bc
00000300: cfcd 4e3d 74b2 7dbd 2582 4abd 1641 8ebc
00000310: 21f3 34bd b9a0 41bd 4ba7 a93d 0e30 d33c
00000320: 3e70 bb3d 9a01 ba3c fbf3 0d3c 498c a23c
00000330: c137 5d3b 9b12 53bd bf92 9b3b b21d 933d
00000340: 8f3e 71bd e55f 093c 5e4d dbbc c246 9fbc
00000350: 3156 743d c922 97bb d6e1 423c d9a9 8ebc
00000360: 17e8 f53c 6b21 68bc d192 ed3b 4626 753d
00000370: 8d5d 82bd 60d1 393b 2a21 3fbd 0488 c0bc
00000380: 6aa5 4d3d fcb0 46bc b8d1 dc3c e2e1 b63d
00000390: ec38 0d3d b183 31bd 2d01 1dbd f967 a43c
000003a0: b4b7 4b3d bb5e 7f3d 57d4 263c 3901 bf3d
000003b0: 6764 4e3b 1917 163c 8ae5 1fbd ea48 923d
000003c0: 6590 64bc 40fc 1d3d 862d b93c 5bab 153d
000003d0: ee2c a03d 19a1 01bd aed4 75bd 08a9 4b3c
000003e0: 8e4b 373d cc18 903d 8de0 303c f158 3d3d
000003f0: 3d27 763d ab5f ae3d 9bb2 25bc a50d 5f3d

lstm.bias_hh_l0 f4 [512]
0.07015129 0.01965022 0.046189774 -0.018404447 -0.04867798 0.004716765 -0.012482616 0.050248623
0.01569408 -0.009222156 0.07392292 0.06716474 0.008323876 0.02399372 -0.036527097 -0.051951252
0.09484123 0.03863157 0.050886396 -0.008973562 0.03155477 -0.0025397593 -0.033988476 -0.052946758
0.09108997 0.08797155 -0.040112652 -0.06333703 -0.077277415 0.021797493 -0.03644906 0.095320165
-0.04381637 0.0033979302 0.0066346573 0.0060633565 0.044640515 -0.02394681 0.029700657 0.061589666
-0.014728054 0.017420894 0.004182807 0.06204121 0.07255798 0.06801236 -0.06299558 0.09107252
-0.037972428 0.06584888 0.09388964 -0.021657867 -0.028927641 0.10689659 0.04733359 0.084573194
0.025575722 -0.08111916 0.08460096 0.0017752353 0.036288 0.09732498 -0.031546485 0.0010923718
0.09465326 -0.067297034 0.0052108793 0.05467687 -0.016087977 0.025555085 -0.011291839 0.008256816
-0.015594368 -0.025632098 0.09800961 0.0879162 0.031795684 -0.040300567 0.0062623536 0.072083585
0.037370577 -0.046627477 -0.028448464 -0.023767434 0.058584422 0.018169038 0.023477465 -0.024989521
0.07673707 -0.015080263 0.008989128 -0.050322823 0.057098895 -0.020711103 0.049098276 -0.004704018
0.0046461155 0.034506466 0.0327395 0.035171818 -0.046147026 0.103402376 0.09366141 0.010244371
0.019449888 0.05061075 0.10185558 -0.0024218392 0.07528486 0.056229927 -0.04983027 0.07365039
0.090231515 0.037922453 0.009591158 0.035492133 -0.017288743 0.0035961142 0.07596212 -0.029462978
0.10078993 0.036727153 -0.05196389 0.013465232 -0.060791407 0.09938789 -0.017636145 -0.051002994
0.10197573 0.017685045 0.081482075 0.049399707 -0.036018353 -0.06855847 0.10000583 0.06305705
-0.05688675 0.0042926865 0.09635628 0.109892175 -0.053239442 0.06450056 -0.0022818418 0.020809531
0.04265523 -0.061132148 0.00079592323 0.015109356 -0.03770058 -0.06147151 -0.0062055285 0.0133141875
0.028088294 -0.051619057 0.08994376 -0.008899689 -0.013408817 0.05300212 0.09263415 -0.051889993
0.006999935 0.08816146 0.06832979 0.00029384767 -0.012902325 -0.06948364 -0.04844892 0.018332675
0.024047416 0.098720096 -0.0077293767 -0.06439254 -0.04186578 0.06838663 0.02227069 0.05239062
0.08210586 0.0054440983 0.015044797 0.009212356 0.10436271 -0.06240382 0.046003066 0.020085428
0.08194489 -0.048550673 -0.019953588 0.09658475 0.05514199 -0.015285959 0.093334004 -0.00917542
-0.056341507 0.06441269 0.057371724 0.086815 -0.000981142 -0.048012745 -0.019599926 -0.03543726
0.00445198 0.051085103 -0.038349178 -0.014747067 0.051760174 0.07283468 -0.002124899 0.03900343
-0.027819546 0.104362264 -0.009153811 -0.020966042 0.021469451 0.07041134 0.1035749 0.0638294
-0.021129621 0.08280038 -0.046485595 -0.0032144731 0.07850484 0.013683271 0.096759245 -0.002705332
-0.05304753 0.085110396 -0.059804447 0.052279152 0.017010925 0.031144083 0.055964503 -0.057645164
-0.016859004 -0.07400473 -0.0056533553 0.08968424 0.08237831 0.10811795 0.051064648 -0.04441642
-0.037986238 0.105314136 0.08507284 -0.028469251 -0.01710205 0.067740545 0.07894021 -0.040703986
0.04781307 -0.05755533 -0.06154413 -0.043042906 0.013327991 0.016732324 0.06455354 -0.040597886
00000000: 7bab 8f3d 80f9 a03c 7d31 3d3d ecc4 96bc
00000010: 9062 47bd 188f 9a3b e383 4cbc 80d1 4d3d
00000020: df90 803c 8718 17bc e664 973d ab8d 893d
00000030: de60 083c 7a8e c43c 709d 15bd d6ca 54bd
00000040: 1e3c c23d 233c 1e3d 416e 503d d905 13bc
00000050: 933f 013d 1772 26bb 8037 0bbd b3de 58bd
00000060: 618d ba3d 6e2a b43d 2a4d 24bd d8b6 81bd
00000070: 9f43 9ebd a890 b23c 9c4b 15bd 3837 c33d
00000080: cb78 33bd cfaf 5e3b 8a67 d93b 1faf c63b
00000090: f9d8 363d 1a2c c4bc cb4e f33c 7245 7c3d
000000a0: f04d 71bc 43b6 8e3c ee0f 893b ec1e 7e3d
000000b0: 4799 943d 104a 8b3d d403 81bd 3b84 ba3d
000000c0: fa88 1bbd c7db 863d 3649 c03d d76b b1bc
000000d0: a9f9 ecbc 99ec da3d dee0 413d b634 ad3d
000000e0: 2d84 d13c cd21 a6bd 4543 ad3d 03af e83a
000000f0: baa2 143d 5252 c73d e336 01bd ea2d 8f3a
00000100: 92d9 c13d 07d3 89bd 06c0 aa3b dbf4 5f3d
00000110: efca 83bc e658 d13c 6801 39bc 9947 073c
00000120: 857f 7fbc 68fa d1bc 43b9 c83d 690d b43d
00000130: 313c 023d 3512 25bd 6e34 cd3b 8fa0 933d
00000140: e411 193d 74fc 3ebd c10c e9bc ecb3 c2bc
00000150: 38f6 6f3d 3cd7 943c d053 c03c d3b6 ccbc
00000160: 5328 9d3d 3513 77bc 2347 133c 4e1f 4ebd
00000170: 88e0 693d 55aa a9bc 461b 493d 2a24 9abb
00000180: 713e 983b a756 0d3d db19 063d 5310 103d
00000190: aa04 3dbd a0c4 d33d 8ed1 bf3d 02d8 273c
000001a0: 5f55 9f3c 384d 4f3d a999 d03d b8b7 1ebb
000001b0: f32e 9a3d 5a51 663d d31a 4cbd 04d6 963d
000001c0: 4dcb b83d 9354 1b3d 3b24 1d3c 3360 113d
000001d0: 1fa1 8dbc c9ac 6b3b 0792 9b3d 585c f1bc
000001e0: f36a ce3d 366f 163d 17d8 54bd 479d 5c3c
000001f0: 6900 79bd e18b cb3d ad79 90bc 84e8 50bd
00000200: a7d8 d03d 3ae0 903c 13e0 a63d 5957 4a3d
00000210: fb87 13bd 6268 8cbd dbcf cc3d 0e24 813d
00000220: 1502 69bd aaa9 8c3b 7156 c53d 260f e13d
00000230: 9a11 5abd df18 843d f48a 15bb c078 aa3c
00000240: 40b7 2e3d b465 7abd 81a5 503a 3b8d 773c
00000250: ec6b 1abd 8dc9 7bbd bf57 cbbb c023 5a3c
00000260: 6c19 e63c 816e 53bd 6f34 b83d 00d0 11bc
00000270: a8b0 5bbc c018 593d f9b6 bd3d 9a8a 54bd
00000280: b65f e53b ff8d b43d 7df0 8b3d 910f 9a39
00000290: 4664 53bc 704d 8ebd 6072 46bd 682e 963c
000002a0: 16ff c43c c32d ca3d b646 fdbb 3ce0 83bd
000002b0: 747b 2bbd 4a0e 8c3d 0671 b63c 8c97 563d
000002c0: 1e27 a83d 6864 b23b 747e 763c 6cef 163c
000002d0: 1ebc d53d 269b 7fbd b66d 3c3d 328a a43c
000002e0: b9d2 a73d 12dd 46bd b575 a3bc 3ace c53d
000002f0: 91dc 613d f571 7abc e625 bf3d 8054 16bc
00000300: 5ac6 66bd cdea 833d 9dfe 6a3d 10cc b13d
00000310: aa99 80ba 03a9 44bd 0690 a0bc a926 11bd
00000320: eae1 913b 9d3e 513d 0714 1dbd af9d 71bc
00000330: 7a02 543d 592a 953d e441 0bbb 10c2 1f3d
00000340: d1e5 e3bc e2bb d53d def9 15bc fac0 abbc
00000350: b4e0 af3c d233 903d 141f d43d fdb8 823d
00000360: 0718 adbc 3f93 a93d ae67 3ebd e9a9 52bb
00000370: 25c7 a03d cc2f 603c b629 c63d f04b 31bb
00000380: 5e48 59bd 5c4e ae3d 82f5 74bd aa22 563d
00000390: 7f5a 8b3c e021 ff3c 093b 653d 561d 6cbd
000003a0: e51b 8abc cb8f 97bd c83f b9bb 5fac b73d
000003b0: f6b5 a83d f26c dd3d 2a29 513d feed 35bd
000003c0: 7597 1bbd f0ae d73d ab3a ae3d 5938 e9bc
000003d0: 9919 8cbc 8ebb 8a3d 68ab a13d 39b9 26bd
000003e0: a3d7 433d 23bf 6bbd b315 7cbd c24d 30bd
000003f0: a55d 5a3c 3a12 893c a534 843d f849 26bd

lstm.weight_ih_l1 f4 [512, 128]
-0.034174986 -0.0022417945 0.060505867 -0.055161767 0.10770192 -0.055589482 -0.041175976 -0.09611562
-0.037514992 -0.05461302 0.10415634 -0.0076651913 -0.045047745 -0.046621863 0.0787274 -0.032511357
0.04892346 -0.10659331 0.05862337 -0.10709315 0.09580686 0.09854894 -0.020490771 0.020438429
-0.10421583 -0.051655468 0.08490766 0.09958943 -0.076899104 -0.05654107 -0.06838032 -0.015671562
0.09697187 -0.077280946 -0.06622292 0.055091944 -0.0012204822 -0.007891267 -0.019163247 0.030785678
-0.08661532 0.0043873265 0.091062635 -0.07342955 -0.031346805 -0.0944805 -0.037790906 0.06289638
0.0039711148 0.027715022 -0.04851065 0.104357906 0.060526278 0.106566586 -0.10769066 0.0073010707
0.051166944 -0.029169545 -0.043719474 0.10855236 0.09157955 0.012223104 0.0070104375 0.04234078
0.034833256 -0.09249144 -0.052682675 -0.011968704 -0.056656115 0.06406029 -0.033159733 -0.011108472
0.06636882 0.09557793 0.051432118 0.059498888 -0.00926905 0.07224879 -0.02809955 -0.05606733
0.029576914 0.026143624 -0.043312702 -0.014325522 -0.016536098 0.08953524 -0.003001423 0.0982404
-0.09569998 0.042781983 -0.1089953 0.019648245 -0.029653106 0.023409428 0.056044597 -0.012969573
-0.045561086 0.06955757 0.07580585 0.09065162 -0.031724334 0.020752357 0.029704884 0.020807318
-0.013606824 0.05729264 0.072664075 0.049618527 -0.09145388 -0.08275302 0.085862674 0.016345456
0.03447736 0.01148163 -0.0028677515 0.007683749 -0.040785514 -0.065101735 0.047975745 0.05517388
-0.08273959 0.04301807 0.018576209 -0.01659786 -0.08969176 -0.071908996 -0.055081274 -0.06471899
-0.050134927 0.04372661 -0.10386049 0.021569954 -0.059348427 -0.0022767994 0.002937822 0.043596417
0.06287166 0.05767656 0.060873475 -0.0045706895 -0.036545787 -0.0021454804 0.033636652 -0.05627153
-0.04619814 0.022719262 0.042387333 0.06475896 0.086017154 -0.051873196 -0.039993856 0.063115284
-0.024604391 -0.09099812 -0.02819599 0.037575774 -0.010767685 -0.030273793 -0.037779145 0.036974125
0.02677084 -0.08462748 -0.06289427 0.0938131 0.090966925 -0.018474385 -0.019069415 0.032526627
0.037850466 -0.06501248 0.0825929 0.04835876 -0.032721598 -0.06630216 0.027259018 -0.108305655
-0.054877225 0.019899994 0.024734402 0.02981664 -0.013647162 0.056221526 0.016731722 -0.052695032
-0.0678001 0.04229417 -0.023353294 -0.036116544 0.049175125 0.09072702 -0.01113201 -0.0174099
0.08547386 0.048068553 -0.078538075 -0.0024138682 -0.014232569 0.061655346 0.09690279 0.047694616
0.10759256 -0.004056369 -0.039915256 -0.036429413 -0.043506198 0.040404025 -0.0906541 -0.10086836
-0.051768634 -0.046294786 0.03938611 -0.0054322085 0.085498706 -0.06462397 0.019414948 -0.03844459
-0.103439 0.06447905 -0.06719814 0.047526706 -0.08517362 -0.015095945 -0.0041317665 0.04883232
0.018666094 0.06536471 -0.0026927332 0.044271793 -0.056394476 0.10278284 -0.07564047 0.014607516
-0.046732057 -0.021983396 -0.054962985 -0.06271535 0.012352079 0.012494188 0.07773254 0.009326078
-0.09320205 0.0082306145 -0.0908148 0.020509599 0.007915549 0.055573292 0.03518475 -0.0977307
-0.057206172 0.023852818 -0.051694643 -0.073079795 0.008179211 -0.03982404 0.0006380865 -0.06375374
00000000: 12fb 0bbd 12eb 12bb 00d5 773d 4ef1 61bd
00000010: d392 dc3d ccb1 63bd 24a8 28bd 44d8 c4bd
00000020: 52a9 19bd e7b1 5fbd eb4f d53d 492c fbbb
00000030: fc83 38bd 91f6 3ebd d53b a13d a12a 05bd
00000040: f763 483d 984d dabd 0f1f 703d a753 dbbd
00000050: 6336 c43d 07d4 c93d 43dc a7bc 7e6e a73c
00000060: 1c6f d5bd af94 53bd 11e4 ad3d 8bf5 cb3d
00000070: 477d 9dbd 9c97 67bd fb0a 8cbd a661 80bc
00000080: 3099 c63d 7945 9ebd e29f 87bd 17a8 613d
00000090: 96f8 9fba 5f4a 01bc 3efc 9cbc 3f32 fc3c
000000a0: 5f63 b1bd 90c3 8f3b 0c7f ba3d 3b62 96bd
000000b0: 8265 00bd fe7e c1bd a3ca 1abd d1cf 803d
000000c0: 2020 823b 9d0a e33c 1ab3 46bd 99b9 d53d
000000d0: 67ea 773d 953f da3d ec8c dcbd d23d ef3b
000000e0: 6e94 513d f8f4 eebc 3113 33bd b350 de3d
000000f0: 0f8e bb3d 6a43 483c d0b7 e53b 876d 2d3d
00000100: 51ad 0e3d 276c bdbd cac9 57bd 6218 44bc
00000110: 3e10 68bd 0b32 833d 80d2 07bd 4f00 36bc
00000120: 60ec 873d 5dbe c33d 7caa 523d 1bb5 733d
00000130: 37dd 17bc 2cf7 933d 0731 e6bc dba6 65bd
00000140: 494b f23c 272b d63c a968 31bd 98b5 6abc
00000150: b676 87bc 405e b73d 86b3 44bb 4332 c93d
00000160: 5afe c3bd 293c 2f3d ee38 dfbd 5bf5 a03c
00000170: 12eb f2bc 21c5 bf3c 058f 653d 557e 54bc
00000180: 439e 3abd 3374 8e3d 1940 9b3d 8ea7 b93d
00000190: 60f1 01bd d900 aa3c a857 f33c 1c74 aa3c
000001a0: 28ef 5ebc b0ab 6a3d e7d0 943d cc3c 4b3d
000001b0: 2c4c bbbd 6a7a a9bd c5d8 af3d e8e6 853c
000001c0: 2238 0d3d 721d 3c3c e3f0 3bbb f5c7 fb3b
000001d0: b60e 27bd 0f54 85bd 3782 443d 02fe 613d
000001e0: 6073 a9bd b733 303d 222d 983c 3cf8 87bc
000001f0: 50b0 b7bd 0645 93bd e79c 61bd 648b 84bd
00000200: 485a 4dbd ac1a 333d cfb4 d4bd 79b3 b03c
00000210: 5617 73bd 5b36 15bb 7988 403b 2892 323d
00000220: dbc2 803d 423e 6c3d 7756 793d b9c5 95bb
00000230: 09b1 15bd 309b 0cbb 96c6 093d fa7c 66bd
00000240: 433a 3dbd bf1d ba3c 579e 2d3d 58a0 843d
00000250: c329 b03d fd78 54bd 99d0 23bd 9642 813d
00000260: 268f c9bc 395d babd 47fb e6bc 0ee9 193d
00000270: f26a 30bc bf00 f8bc 4ebe 1abd 2e72 173d
00000280: 854e db3c 2c51 adbd b6ce 80bd 1521 c03d
00000290: de4c ba3d 9857 97bc 7637 9cbc a43a 053d
000002a0: 1709 1b3d 4325 85bd 7726 a93d d613 463d
000002b0: 1507 06bd 6dc9 87bd 4e4e df3c 5bcf ddbd
000002c0: f1c6 60bd 5005 a33c cd9f ca3c 0742 f43c
000002d0: 5998 5fbc 8b48 663d f710 893c bfd6 57bd
000002e0: c7da 8abd a73c 2d3d 684f bfbc f1ee 13bd
000002f0: db6b 493d 16cf b93d 0963 36bc 359f 8ebc
00000300: eb0c af3d 88e3 443d 92d8 a0bd fd31 1ebb
00000310: b92f 69bc 518a 7c3d f874 c63d 6e5b 433d
00000320: 7d59 dc3d 4aeb 84bb 2e7e 23bd 0237 15bd
00000330: 8e33 32bd b17e 253d dba8 b9bd 1294 cebd
00000340: 590b 54bd 9a9f 3dbd 5453 213d ab00 b2bb
00000350: f219 af3d 9259 84bd 190c 9f3c 1378 1dbd
00000360: d4d7 d3bd 980d 843d 2e9f 89bd 5dab 423d
00000370: 826f aebd fc54 77bc c563 87bb 6604 483d
00000380: a3e9 983c efdd 853d 9178 30bb 5756 353d
00000390: e5fd 66bd cf7f d23d 64e9 9abd 5d54 6f3c
000003a0: 1d6a 3fbd 8616 b4bc de20 61bd e870 80bd
000003b0: 6060 4a3c 6cb4 4c3c 3d32 9f3d 68cc 183c
000003c0: b7e0 bebd b3d9 063c 1cfd b9bd bf03 a83c
000003d0: 38b0 013c d2a0 633d e21d 103d 0927 c8bd
000003e0: 0551 6abd fc66 c33c c3bd 53bd dcaa 95bd
000003f0: 1902 063c 881e 23bd 4345 273a 5291 82bd

lstm.weight_hh_l1 f4 [512, 128]
-0.008049523 -0.08438542 -0.087949105 -0.07727206 0.03147794 -0.055238355 -0.019889833 0.060927346
-0.03719292 0.021009378 -0.04071007 -0.008688329 -0.042735633 0.054155823 -0.0733042 0.07786476
0.09233678 0.055988595 -0.053899057 0.081201315 -0.033505578 -0.09068731 -0.040659893 -0.008880875
-0.0091040945 -0.04966869 0.103412315 -0.06767869 0.06864598 -0.021887088 0.07546437 -0.057095278
0.025855117 0.06286488 -0.10165775 0.03158116 -0.09479156 0.017975295 -0.017195784 0.0871693
-0.002036981 -0.056064382 -0.05114894 0.01042498 -0.089844696 0.035817124 0.07731884 -0.08428331
-0.06403168 0.0044441815 -0.05491052 0.07249064 -0.063668385 0.054595914 -0.012464869 0.053588945
-0.081863366 -0.07514652 0.04873113 -0.10438438 0.06622497 0.015863337 0.09842081 0.056070276
-0.059594944 -0.0031348048 -0.097106285 0.044253536 0.0035095382 -0.052146617 0.04929478 -0.022801988
0.028241195 0.059227414 0.035341635 -0.08115479 -0.09870561 -0.029216593 -0.0027281935 -0.057187557
0.105537236 0.043713123 -0.056839928 -0.03853294 -0.07255201 -0.07292884 0.08910805 0.022399917
0.027872842 -0.073150724 -0.08020572 0.012902999 -0.09083451 -0.04372672 0.102999024 0.062744714
0.05137443 -0.038363032 0.025930563 0.02003699 -0.051306084 -0.022081893 -0.0042016027 0.020809522
-0.09194536 -0.020893259 0.10915577 -0.04457649 0.0060028913 0.059394464 0.03922442 -0.020676037
0.009316399 -0.038180336 -0.025148751 -0.09752223 0.09687612 -0.032958783 0.001716854 -0.02017291
-0.06988074 0.013611261 0.084815286 -0.048860878 0.04781221 -0.002752629 0.014821391 -0.0022129558
-0.10049577 -0.030372169 -0.05773808 0.012706198 -0.09324874 0.0032483097 0.0018857302 0.045275565
0.044060245 -0.078770034 0.037819516 0.03638347 0.033574246 -0.074770756 -0.010296737 -0.07520779
0.051947687 0.10401747 0.028517524 0.012266771 0.06303549 -0.007120591 -0.059729774 -0.026341507
0.052761048 -0.0472448 0.030430632 -0.023649149 0.005668418 0.047417454 -0.031067114 -0.06550419
-0.0552387 0.05879508 0.03428852 -0.052637074 0.042168643 0.06104821 -0.04054132 0.052195814
-0.003163442 -0.039426606 0.016641095 0.00559549 -0.054934833 0.009445079 -0.067460544 -0.07928789
0.07366312 0.021270033 -0.00586145 -0.099024445 -0.015645022 -0.08211208 -0.0832408 0.014441304
-0.029822683 -0.07978615 -0.045995228 -0.1050365 0.010206093 -0.051827207 -0.047325402 0.08032351
-0.0043152994 0.06180331 -0.028492596 0.0063066045 -0.077920206 0.0055060703 0.021765245 0.056874745
-0.00664132 0.010499246 0.08175877 0.057872925 -0.057028875 -0.015504913 -0.0880535 -0.093745664
0.055406384 0.08646376 -0.0091953855 -0.091671534 0.035910696 0.05883107 0.035195 -0.0011582706
-0.06793386 -0.07742195 -0.09263333 0.08131826 0.045593295 0.059168268 0.089199565 -0.03727496
-0.0545881 -0.07496031 -0.029467015 0.01897859 -0.022195684 0.058519073 0.019818734 0.056074347
-0.023139775 0.050125845 0.00851294 -0.02747372 -0.059582915 -0.07014619 0.010650829 -0.0535084
0.018045118 -0.03795605 0.060671795 -0.037567504 0.08902189 0.08362321 -0.058494266 0.042124867
0.031091005 -0.070983835 0.09446653 0.07077925 -0.006289634 -0.009862989 -0.08644149 -0.08750709
00000000: 26e2 03bc 43d2 acbd a91e b4bd d040 9ebd
00000010: 03ef 003d 9d41 62bd 01f0 a2bc f48e 793d
00000020: 9a57 18bd dc1b ac3c 9abf 26bd 7e59 0ebc
00000030: 8f0b 2fbd 7fd2 5d3d 8320 96bd 8f77 9f3d
00000040: 111b bd3d 4c54 653d 42c5 5cbd e04c a63d
00000050: 253d 09bd 45ba b9bd fd8a 26bd 1781 11bc
00000060: 5729 15bc 6571 4bbd d6c9 d33d 209b 8abd
00000070: 4396 8c3d 8d4c b3bc 108d 9a3d bddc 69bd
00000080: 1cce d33c 4dbf 803d f031 d0bd 3f5b 013d
00000090: 1422 c2bd ed40 933c 2cde 8cbc d185 b23d
000000a0: df7e 05bb c4a3 65bd 8d81 51bd 89cd 2a3c
000000b0: 7f00 b8bd fab4 123d 5759 9e3d ba9c acbd
000000c0: 0b23 83bd 7fa0 913b dae9 60bd f975 943d
000000d0: 9264 82bd f79f 5f3d 7339 4cbc 1580 5b3d
000000e0: fba7 a7bd 6be6 99bd 4b9a 473d 7ac7 d5bd
000000f0: f5a0 873d d4f3 813c da90 c93d f2a9 653d
00000100: d419 74bd 4c71 4dbb a9df c6bd 3243 353d
00000110: 4800 663b b197 55bd 53e9 493d 3ccb babc
00000120: 145a e73c 7298 723d 64c2 103d 7c34 a6bd
00000130: 2b26 cabd a357 efbc 7ecb 32bb 803d 6abd
00000140: e823 d83d 880c 333d fcd0 68bd b7d4 1dbd
00000150: 2696 94bd b75b 95bd 487e b63d 0880 b73c
00000160: 9655 e43c 0cd0 95bd e642 a4bd 1a67 533c
00000170: 7207 babd ca1a 33bd 27f1 d23d 4d80 803d
00000180: ff6d 523d 8e22 1dbd 556c d43c 9d24 a43c
00000190: 5426 52bd 16e5 b4bc 99ad 89bb bb78 aa3c
000001a0: d94d bcbd 5728 abbc 0f8d df3d d695 36bd
000001b0: e7b3 c43b 9c47 733d c9a9 203d cb60 a9bc
000001c0: cfa3 183c fc62 1cbd c104 cebc bcb9 c7bd
000001d0: fd66 c63d caff 06bd 1008 e13a a941 a5bc
000001e0: a21d 8fbd c401 5f3c a3b3 ad3d 5822 48bd
000001f0: bcd6 433d 7465 34bb 6bd5 723c 3d07 11bb
00000200: bad0 cdbd 0ecf f8bc c47e 6cbd a82d 503c
00000210: 32f9 bebd 98e1 543b 9b2a f73a df72 393d
00000220: 8478 343d 2f52 a1bd a3e8 1a3d d506 153d
00000230: 2685 093d 6921 99bd a5b3 28bc 8b06 9abd
00000240: 19c7 543d 1c07 d53d 959d e93c 91fa 483c
00000250: c018 813d d953 e9bb 35a7 74bd 25ca d7bc
00000260: f81b 583d c383 41bd a949 f93c dcbb c1bc
00000270: 23be b93b ce38 423d 7680 febc 1027 86bd
00000280: fa41 62bd 1cd3 703d 1f72 0c3d f999 57bd
00000290: 07b9 2c3d b00d 7a3d a80e 26bd 47cb 553d
000002a0: c051 4fbb cb7d 21bd e852 883c 5f5a b73b
000002b0: 5903 61bd 88bf 1a3c c128 8abd b061 a2bd
000002c0: b1dc 963d 7e3e ae3c 6811 c0bb 54cd cabd
000002d0: fd29 80bc 612a a8bd 277a aabd 389b 6c3c
000002e0: b34e f4bc ec66 a3bd 7e65 3cbd 601d d7bd
000002f0: 7537 273c c448 54bd 48d8 41bd a780 a43d
00000300: 5b67 8dbb 7825 7d3d 4e69 e9bc a2a7 ce3b
00000310: a194 9fbd 446c b43b 074d b23c 7ef5 683d
00000320: 6e9f d9bb 0805 2c3c 2471 a73d 290c 6d3d
00000330: 1c97 69bd 5208 7ebc 6555 b4bd bafd bfbd
00000340: cef1 623d e913 b13d 3ea8 16bc 49be bbbd
00000350: 1817 133d d9f8 703d a228 103d 1dd1 97ba
00000360: e820 8bbd 668f 9ebd 8bb6 bdbd 308a a63d
00000370: 09c0 3a3d 6d5a 723d 43ae b63d a1ad 18bd
00000380: c697 5fbd ca84 99bd cf64 f1bc fd78 9b3c
00000390: b9d3 b5bc b2b1 6f3d e65a a23c 37ae 653d
000003a0: a08f bdbc c250 4d3d dc79 0b3c 9110 e1bc
000003b0: 370d 74bd cea8 8fbd d180 2e3c a02b 5bbd
000003c0: 5bd3 933c ce77 1bbd fd82 783d 62e0 19bd
000003d0: 1c51 b63d a542 ab3d af97 6fbd 208b 2c3d
000003e0: 90b2 fe3c f95f 91bd ab77 c13d b6f4 903d
000003f0: 4619 cebb 6098 21bc 3c08 b1bd eb36 b3bd

lstm.bias_ih_l1 f4 [512]
0.02920003 0.054506466 -0.029388558 0.07961282 0.0996088 0.085331805 -0.011411587 -0.062600814
-0.042152073 0.008866391 0.03143941 -0.0213039 -0.05626921 0.08400378 0.05854133 0.028756082
-0.021300895 -0.022827776 0.021967039 -0.032377116 0.009290488 0.005681143 -0.037308 -0.0023840945
0.004024627 -0.058299713 0.0790863 -0.055450235 -0.035917576 0.0051068384 -0.04894007 0.019189006
0.013103946 0.08024142 -0.0014325354 0.010706539 0.07550937 -0.041477267 -0.016481748 -0.026893035
0.07284434 -0.06761527 0.004756014 -0.053202897 -0.0083136065 -0.033160914 0.100883484 0.05023737
-0.049588677 0.0016127831 0.038121723 -0.012628862 0.0792947 0.011501136 0.07483511 0.078969255
-0.06489158 -0.01678227 -0.056397073 -0.02313912 -0.022108115 0.05508937 0.005666738 0.08883617
-0.01602828 0.09245367 -0.021571532 0.05571953 -0.0052860603 0.0015870994 0.007138726 0.0069025564
0.06437954 0.034296628 0.08420687 0.10984873 0.0637755 -0.032471307 0.024071446 0.019272467
0.093507916 -0.052686993 0.047719397 -0.0095136585 -0.041577052 0.07417821 0.064028285 0.04446831
-0.0499998 -0.058756463 0.020154223 0.0095291985 0.002803264 -0.032492638 -0.0025642642 -0.021785306
0.07567836 0.06562604 0.009565835 0.063271195 -0.042845923 0.10479316 -0.04334687 0.0963473
-0.0070780744 -0.039045833 0.08936182 -0.06923191 -0.03296768 0.084711105 0.08540905 -0.03530267
-0.05862905 0.049728513 -0.058109593 -0.023568882 0.007455377 -0.06296469 0.047448322 0.100795664
0.06890749 -0.011640154 0.047175024 0.07306231 -0.03762319 0.061253417 0.020236224 0.07004075
-0.016944528 0.0093239555 0.018205885 0.08853003 0.008141641 0.06584756 0.07006259 0.09254371
0.0430529 0.02180056 0.04435905 0.029344566 0.09111995 0.022276524 0.06903971 -0.0052735563
0.05107239 -0.027354306 0.036018327 -0.01682428 0.0014548725 0.08463668 -0.004391671 -0.023112021
-0.012116636 -0.058394525 -0.02804078 0.008872578 -0.07333387 -0.04764437 0.072520025 0.016177323
0.017971855 0.0013960018 -0.02551893 -0.016955638 0.013190213 0.009236686 0.013142513 -0.013448201
0.034515046 -0.044974253 -0.018041547 0.030240333 0.08442174 0.10850966 -0.02754511 -0.06209699
-0.031247957 -0.014046156 -0.030399907 0.10105682 0.007405695 -0.03940683 -0.030522706 0.0049306513
0.04847195 -0.037116926 -0.06500096 0.093353786 0.09956374 0.10118321 0.023822593 0.068759926
-0.032405935 -0.029064119 -0.068479866 0.0065458193 0.052116778 -0.023885325 -0.05749224 0.09938319
-0.040063962 0.061084945 0.02208681 0.08049902 0.009216444 -0.052721992 -0.028539853 -0.017191399
0.013168948 0.08273782 -0.00096079893 0.084481105 -0.012109047 -0.05628023 0.102370135 -0.06685939
-0.019791173 0.047093414 0.06306058 -0.06533032 0.103538066 0.09253591 0.09628862 0.08811003
0.07102826 0.09268825 0.011707562 0.079495706 0.10897129 -0.032083824 0.008282459 -0.027901053
0.09188373 0.0019359459 0.09085745 0.057916373 0.054399997 0.09296111 -0.054382272 -0.021683827
0.010221401 0.07646494 -0.0019972974 -0.034362342 0.107377455 -0.031550847 0.092981465 -0.011916457
-0.033085607 0.08198221 -0.03000826 0.102160394 -0.024066793 0.038652953 0.080194585 0.054146662
00000000: e734 ef3c 2c42 5f3d 46c0 f0bc 0c0c a33d
00000010: b3ff cb3d 71c2 ae3d aaf7 3abc db34 80bd
00000020: a7a7 2cbd 5744 113c 9cc6 003d 8485 aebc
00000030: 8b7a 66bd 2c0a ac3d 09c9 6f3d e091 eb3c
00000040: 377f aebc 5101 bbbc 38f4 b33c de9d 04bd
00000050: 2237 183c e228 ba3b 46d0 18bd 783e 1cbb
00000060: 05e1 833b aecb 6ebd 00f8 a13d c91f 63bd
00000070: 4f1e 13bd 4457 a73b 6275 48bd 4332 9d3c
00000080: efb1 563c 9d55 a43d e9c3 bbba 7b6a 2f3c
00000090: a8a4 9a3d 11e4 29bd bb04 87bc c84e dcbc
000000a0: 6a2f 953d e079 8abd 56d8 9b3b 48eb 59bd
000000b0: cb35 08bc bdd3 07bd 009c ce3d b3c5 4d3d
000000c0: 7f1d 4bbd 0564 d33a 8625 1c3d 49e9 4ebc
000000d0: 4265 a23d 436f 3c3c 2643 993d a2ba a13d
000000e0: e0e5 84bd f97a 89bc 9e00 67bd 408e bdbc
000000f0: 141c b5bc 64a5 613d 0bb0 b93b bdef b53d
00000100: bd4d 83bc 5a58 bd3d c8b6 b0bc 293a 643d
00000110: b036 adbb 3806 d03a f9eb e93b d72e e23b
00000120: 6cd9 833d 9f7a 0c3d a774 ac3d 5ff8 e03d
00000130: bb9c 823d a200 05bd 7b31 c53c 4be1 9d3c
00000140: 1481 bf3d 51ce 57bd 6a75 433d 2ddf 1bbc
00000150: b34c 2abd bfea 973d 4321 833d 6724 363d
00000160: 97cc 4cbd 9eaa 70bd 781a a53c 5b20 1c3c
00000170: f7b6 373b 0017 05bd 370d 28bb 1977 b2bc
00000180: 42fd 9a3d f266 863d 05ba 1c3c 5494 813d
00000190: 357f 2fbd cc9d d63d 7d8c 31bd bc51 c53d
000001a0: 31ef e7bb 86ee 1fbd 5403 b73d 76c9 8dbd
000001b0: 1e09 07bd 047d ad3d f1ea ae3d 8899 10bd
000001c0: 0425 70bd 20b0 4b3d 5304 6ebd 8713 c1bc
000001d0: 3c4c f43b a2f3 80bd 2c59 423d f56d ce3d
000001e0: 5f1f 8d3d 58b6 3ebc 993a 413d b1a1 953d
000001f0: c61a 1abd dde4 7a3d 70c6 a53c 8671 8f3d
00000200: 40cf 8abc 81c3 183c 8224 953c 3b4f b53d
00000210: 8464 053c 16db 863d fa7c 8f3d 8e87 bd3d
00000220: 3d58 303d 1797 b23c d6b1 353d 0464 f03c
00000230: 199d ba3d 427d b63c b164 8d3d cccd acbb
00000240: 4831 513d 2316 e0bc f487 133d 13d3 89bc
00000250: 6cb1 be3a ff55 ad3d 02e8 8fbb 6c55 bdbc
00000260: db84 46bc 192f 6fbd c7b5 e5bc 4a5e 113c
00000270: 1130 96bd be26 43bd 6185 943d 4e86 843c
00000280: b639 933c 0cfa b63a 130d d1bc 8de6 8abc
00000290: c31b 583c 7855 173c b253 573c d855 5cbc
000002a0: a65f 0d3d ec36 38bd decb 93bc 93ba f73c
000002b0: 4ee5 ac3d 503a de3d 48a6 e1bc 6a59 7ebd
000002c0: b7fb ffbc d921 66bc 3a09 f9bc e1f6 ce3d
000002d0: 79ab f23b 0e69 21bd c10a fabc 4d91 a13b
000002e0: 868a 463d eb07 18bd 391f 85bd 4530 bf3d
000002f0: 13e8 cb3d 2539 cf3d 9927 c33c 01d2 8c3d
00000300: 16bc 04bd e017 eebc 2c3f 8cbd 507e d63b
00000310: 6778 553d 28ab c3bc fc7c 6bbd 6a89 cb3d
00000320: 1c1a 24bd 3534 7a3d 66ef b43c acdc a43d
00000330: 9100 173c 04f3 57bd 69cc e9bc fad4 8cbc
00000340: 92c2 573c 7272 a93d 20de 7bba 6e04 ad3d
00000350: 0665 46bc 1986 66bd 6fa7 d13d 93ed 88bd
00000360: 1921 a2bc 06e5 403d e825 813d e7cb 85bd
00000370: c40b d43d 7883 bd3d f832 c53d 0873 b43d
00000380: 4477 913d 56d3 bd3d 13d1 3f3c a5ce a23d
00000390: 572c df3d 546a 03bd 27b3 073c c090 e4bc
000003a0: 892d bc3d 91bf fd3a 7913 ba3d b839 6d3d
000003b0: 88d2 5e3d 6562 be3d f2bf 5ebd 48a2 b1bc
000003c0: aa77 273c a799 9c3d 17e5 02bb 87bf 0cbd
000003d0: b6e8 db3d 763b 01bd 116d be3d 3e3d 43bc
000003e0: c684 07bd 4ae6 a73d e2d3 f5bc 7839 d13d
000003f0: b927 c5bc 8f52 1e3d 0f3d a43d e4c8 5d3d
