models/WH002_SKU-002.pth (torch, 830897 bytes, 13 tensors)

lstm.weight_ih_l0 f4 [512, 6]
-0.052560735 -0.05388104 -0.021833174 -0.067546874 0.06378601 0.025537254 0.10127374 0.035713702
-0.051604114 0.084722884 0.014849248 0.03480959 0.03186308 0.01845603 0.09458418 -0.011703354
0.074089654 0.017557764 -0.041501533 0.011415028 -0.036915075 0.05765261 0.033449892 0.082919024
0.06475914 0.017639322 0.042219 0.04836038 0.07159904 -0.063521236 -0.06341337 -0.045756396
-0.03030939 -0.05289525 -0.0043894704 -0.008612826 0.07742102 0.08514041 -0.003492028 -0.027258663
0.10932811 -0.0454704 0.045359932 0.09843581 -0.05023389 0.073592454 0.03440971 0.09905616
0.033060573 0.091315 0.090907834 0.07442128 -0.059441563 0.045092978 -0.044763777 0.086228445
-0.035696466 -0.0023566452 0.068624124 0.09675925 0.09927483 0.06073344 0.063070044 -0.03832026
-0.046107568 -0.056842417 0.0014726961 -0.06347725 0.042469755 0.07514195 0.05410983 0.011338546
-0.056611508 0.03697925 0.075279385 -0.032769736 0.090712585 0.033589866 0.06608717 0.079900496
0.04103876 0.020881357 0.016440228 0.079331435 -0.022309376 -0.010354356 0.01904641 0.10718249
0.045711603 0.059581827 -0.05530743 0.0022722348 -0.0343885 0.08453273 -0.038868032 0.10136253
0.0759785 0.09337822 0.07416261 0.06009733 0.079821706 0.067717016 0.06971984 -0.06701851
0.08018995 0.073707744 0.028235879 0.04420826 0.00016653253 0.0709298 -0.002993372 0.09535243
-0.04702533 0.10477438 0.10243364 -0.00076772866 0.1025133 0.079669334 0.11175286 0.037861284
-0.05700329 0.04966268 -0.021151468 -0.069045514 0.050586198 -0.0694878 0.0204074 0.064581394
0.07181302 -0.031603597 -0.029366404 0.05100017 -0.056771427 -0.028996982 -0.0066722105 -0.043491345
-0.00933131 0.06594456 -0.043203544 0.102149606 0.08527527 0.10627574 0.055627983 -0.04279882
-0.035240542 0.050294407 -0.033307265 -0.043643866 0.035391036 -0.032165945 0.0926686 -0.042907815
-0.06116103 -0.06588659 0.004589054 0.026002415 0.0770418 0.06512065 0.053693313 0.0015883812
-0.06555776 0.10396121 -0.011005802 0.09578412 0.08766173 -0.039645296 -0.021474121 -0.06172497
0.067430735 0.0003507438 0.049790356 0.031593926 -0.024546959 0.047639877 0.010533281 -0.047055714
0.002909255 0.0039852774 -0.016866902 -0.051176667 0.030850511 -0.07305775 -0.02983601 0.030958924
0.030330466 0.11079175 -0.0422128 0.096894026 -0.016987314 0.018525995 -0.003211105 0.033493035
-0.013934088 0.1086659 -0.018124158 -0.028110893 -0.044967126 0.03935353 0.037320644 0.10889084
-0.023298755 0.04825848 0.021858713 0.06442622 0.09272782 0.07042294 -0.061177015 0.04568329
0.06596124 -0.068380415 0.08363459 0.112272635 -0.03464485 0.058557663 0.0007338687 0.11464048
-0.05850898 0.061350893 -0.00065209565 0.020613188 -0.06693715 -0.046702407 0.0800953 0.034465402
0.08923346 -0.0066098156 0.016189769 0.08208476 0.07121784 0.0016603823 -0.030711766 0.049649917
0.11228266 0.07901828 0.03179224 0.071462646 0.026475256 0.01229758 -0.06402686 -0.04141885
-0.03705098 0.03890366 -0.017413596 -0.03728133 0.03869254 0.09941922 0.005505091 0.08857062
0.013740142 0.033219863 -0.010068253 0.09922978 -0.03347657 -0.006512085 0.028477019 0.09865484
00000000: ed49 57bd 5eb2 5cbd 7cdb b2bc 0456 8abd
00000010: 3da2 823d 8133 d13c 9b68 cf3d 8848 123d
00000020: d65e 53bd 3183 ad3d 434a 733c 8094 0e3d
00000030: dc82 023d 1a31 973c 5ab5 c13d 6dbf 3fbc
00000040: 51bc 973d 4dd5 8f3c 83fd 29bd 1906 3b3c
00000050: 4334 17bd 2525 6c3d c102 093d 73d1 a93d
00000060: 71a0 843d 5780 903c d5ed 2c3d 8915 463d
00000070: 84a2 923d 6c17 82bd dede 81bd 0f6b 3bbd
00000080: 664b f8bc b1a8 58bd 8cd5 8fbb cf1c 0dbc
00000090: e98e 9e3d 185e ae3d 82da 64bb 8f4d dfbc
000000a0: 6be7 df3d 2c3f 3abd 56cb 393d b798 c93d
000000b0: 0dc2 4dbd a4b7 963d 32f1 0c3d f5dd ca3d
000000c0: 866a 073d 5c03 bb3d e32d ba3d 2f6a 983d
000000d0: ff78 73bd 6ab3 383d 395a 37bd 8a98 b03d
000000e0: 7536 12bd f271 1abb ce8a 8c3d b729 c63d
000000f0: 9a50 cb3d a1c3 783d de2a 813d b4f5 1cbd
00000100: 4adb 3cbd 98d3 68bd 7b07 c13a 5c00 82bd
00000110: c4f4 2d3d 06e4 993d 45a2 5d3d 4fc5 393c
00000120: 78e1 67bd 8e77 173d 142c 9a3d 8f39 06bd
00000130: 85c7 b93d 8795 093d b658 873d dfa2 a33d
00000140: 4218 283d 610f ab3c a8ad 863c 8578 a23d
00000150: 27c2 b6bc 51a5 29bc 3807 9c3c 7e82 db3d
00000160: 173c 3b3d 130c 743d 0b8a 62bd c6e9 143b
00000170: f5da 0cbd 7f1f ad3d 1634 1fbd 2897 cf3d
00000180: 9e9a 9b3d 153d bf3d 91e2 973d 9e28 763d
00000190: 9079 a33d 38af 8a3d 47c9 8e3d 0041 89bd
000001a0: a13a a43d 16f4 963d ee4e e73c b813 353d
000001b0: 3c9f 2e39 a543 913d 732c 44bb 2348 c33d
000001c0: a29d 40bd f393 d63d bac8 d13d 6641 49ba
000001d0: 7ef2 d13d ad29 a33d afde e43d 6f14 1b3d
000001e0: 487c 69bd 186b 4b3d d845 adbc bc67 8dbd
000001f0: 7933 4f3d 9f4f 8ebd 6b2d a73c 4043 843d
00000200: b412 933d c672 01bd d091 f0bc 8ee5 503d
00000210: 2889 68bd 148b edbc 8fa2 dabb fb23 32bd
00000220: 5ae2 18bc f10d 873d 33f6 30bd d033 d13d
00000230: cda4 ae3d 18a7 d93d 2bda 633d d14d 2fbd
00000240: 6358 10bd 8201 4e3d 336d 08bd e9c3 32bd
00000250: 31f6 103d 70c0 03bd 09c9 bd3d 1bc0 2fbd
00000260: fd83 7abd 8cef 86bd c65f 963b 0403 d53c
00000270: 17c8 9d3d fa5d 853d 85ed 5b3d 3b31 d03a
00000280: 2643 86bd 9de9 d43d ae51 34bc 772a c43d
00000290: fe87 b33d 1b63 22bd 7fea afbc 52d3 7cbd
000002a0: 2019 8a3d 09e4 b739 f9f0 4b3d a268 013d
000002b0: b416 c9bc 0822 433d c893 2c3c 7ebd 40bd
000002c0: 33a9 3e3b ee96 823b 752c 8abc a09e 51bd
000002d0: 36ba fc3c 4d9f 95bd a66a f4bc 929d fd3c
000002e0: 9977 f83c c9e6 e23d 54e7 2cbd 6070 c63d
000002f0: fb28 8bbc d4c3 973c 6771 52bb fe2f 093d
00000300: cd4b 64bc 3a8c de3d 1d79 94bc d148 e6bc
00000310: 732f 38bd 2b31 213d 88dd 183d 2902 df3d
00000320: 08dd bebc afaa 453d 0b11 b33c e5f1 833d
00000330: 15e8 bd3d e739 903d c094 7abd 671e 3b3d
00000340: b016 873d 080b 8cbd 9d48 ab3d 32ef e53d
00000350: c2e7 0dbd 29da 6f3d 1861 403a a1c8 ea3d
00000360: 1da7 6fbd 134b 7b3d 66f1 2aba fddc a83c
00000370: 5816 89bd 064b 3fbd 0109 a43d 982b 0d3d
00000380: 08c0 b63d 2797 d8bb 68a0 843c 0e1c a83d
00000390: a9da 913d 2fa1 d93a 3e97 fbbc b65d 4b3d
000003a0: 74f4 e53d 56d4 a13d 9438 023d 025b 923d
000003b0: a3e2 d83c ca7b 493c 8420 83bd d0a6 29bd
000003c0: c5c2 17bd 7259 1f3d f5a6 8ebc 4fb4 18bd
000003d0: 127c 1e3d 4e9c cb3d 0d64 b43b 8364 b53d
000003e0: 551e 613c 8d11 083d 50f5 24bc fc38 cb3d
000003f0: ba1e 09bd 5463 d5bb a348 e93c 8c0b ca3d

lstm.weight_hh_l0 f4 [512, 128]
-0.06572619 -0.06377432 -0.031313095 0.014771511 0.02984882 0.046857957 0.0637541 -0.037530296
0.012094735 -0.0022043125 -0.066722855 -0.045942903 0.029763076 -0.055040855 -0.0257337 0.067532465
0.03368054 0.0447548 -0.05551526 0.050226282 -0.04933204 -0.0062788893 0.09959334 0.061447393
0.04994152 0.10598888 0.09731033 -0.047484174 0.060260866 0.014744345 0.092126235 0.012584547
0.037137326 -0.061876964 0.005077098 0.03011251 0.005138381 0.0014260415 0.025227 0.06524689
-0.054456536 0.032106932 -0.04407411 0.08528833 0.01926513 -0.04817542 0.054824904 -0.00472465
-0.059756994 0.03819258 -0.092945494 -0.048880674 0.035545975 0.02067555 0.04140983 -0.07890005
-0.023675775 -0.044964623 -0.07426685 0.051121045 0.07622187 0.026322192 0.016132886 -0.04263969
0.08063215 0.027387952 -0.06872099 -0.047672223 -0.040982883 0.045314264 0.07425255 -0.06795166
-0.06595019 0.026002686 -0.08207528 0.016230121 -0.020265149 -0.06596908 -0.025169032 -0.06668722
0.06692084 0.07560685 0.023292828 -0.033267878 0.0100051155 -0.107778706 -0.03481013 0.0068826857
0.039830614 0.023845842 0.05880055 -0.05897292 0.04382635 0.022286765 0.081261456 0.067808114
0.034717347 0.008865564 0.015068214 -0.028387893 -0.10253415 0.0090921195 0.06358979 -0.10258172
0.09890739 0.06313136 0.08143741 0.095591456 0.025863916 -0.039629765 -0.05000536 -0.052469674
0.02674024 0.07786542 -0.04777274 0.010615996 -0.031626776 0.07606146 -0.056941304 -0.009956882
-0.022918405 0.028049225 -0.0012518882 0.006417077 -0.00781565 -0.015466012 0.046666164 0.09527577
-0.08882442 -0.071724735 0.0445014 -0.008969116 -0.01723106 -0.039524462 0.029413743 0.06778885
0.002015965 0.011289168 0.074272506 -0.061153196 -0.06080524 -0.09201264 -0.020189738 -0.051554818
-0.03968536 -0.018135529 -0.0038926068 0.008051249 0.012046377 0.04369973 0.011384403 -0.051370766
-0.049617846 -0.051606093 0.047634423 -0.01864363 -0.04351085 0.0635296 -0.003210158 0.083042555
-0.042877566 0.07904398 0.10621965 -0.024811033 -2.4676458e-05 -0.008144241 0.027946737 0.055291418
0.0811461 0.05730746 0.049753487 0.05889598 -0.01629155 -0.00714722 -0.068496995 -0.058839776
0.03447984 -0.024392173 -0.03005033 0.09898722 -0.09595183 -0.006365205 -0.04324449 -0.10517638
0.04796437 -0.06336243 0.02747866 0.036560073 -0.029557113 -0.0051738876 0.046577584 0.06782319
0.085011415 -0.054337177 -0.1069509 -0.051793963 0.084447525 0.037247904 0.053746413 -0.004588734
-0.020892315 -0.038937002 -0.041534074 0.046976026 -0.06399289 -0.09049738 -0.06519156 0.03795491
0.03785147 -0.042658374 -0.029125374 -0.01369527 -0.01025897 -0.01834075 0.04674782 0.02788494
-0.01906973 0.08400046 -0.10816623 0.028729903 0.064006686 -0.014175764 -0.06590758 -0.052846696
0.008041533 0.05213938 -0.09661357 0.012637569 -0.050522372 0.08332748 -0.04222993 -0.029326823
0.016256751 -0.049263418 0.019197633 0.082260944 -0.046097692 0.062476274 -0.0099677965 -0.054343455
0.05255721 0.0020824461 0.022403395 -0.0065050134 0.056905087 0.035195485 0.018710237 0.024572697
0.005608397 -0.047710348 -0.06563396 -0.003627636 0.008858148 -0.06364921 -0.06933185 0.09975465
00000000: 749b 86bd 1c9c 82bd 2942 00bd 3504 723c
00000010: 8385 f43c 21ee 3f3d 8291 823d 5eb9 19bd
00000020: ff28 463c 3a76 10bb fea5 88bd a02e 3cbd
00000030: b2d1 f33c 8572 61bd 7bcf d2bc 764e 8a3d
00000040: 9bf4 093d cf50 373d f863 63bd 13ba 4d3d
00000050: 6510 4abd 24bf cdbb 98f7 cb3d 43b0 7b3d
00000060: 7b8f 4c3d b310 d93d a34a c73d c47e 42bd
00000070: 19d4 763d 4492 713c aeac bc3d 6a2f 4e3c
00000080: 4f1d 183d b372 7dbd c95d a63b 83ae f63c
00000090: dd5f a83b 03ea ba3a daa8 ce3c 29a0 853d
000000a0: d10d 5fbd 8f82 033d 0e87 34bd a6ab ae3d
000000b0: e8d1 9d3c 9753 45bd 1490 603d 3dd1 9abb
000000c0: c0c3 74bd d36f 1c3d 355a bebd 1a37 48bd
000000d0: a898 113d c55f a93c 5b9d 293d 5996 a1bd
000000e0: b3f3 c1bc d32c 38bd 3819 98bd 4d64 513d
000000f0: 361a 9c3d a3a1 d73c 1d29 843c f5a6 2ebd
00000100: 7822 a53d b35c e03c 97bd 8cbd f343 43bd
00000110: abdd 27bd 739b 393d b911 983d 3d2a 8bbd
00000120: e510 87bd 9603 d53c 1617 a8bd 08f5 843c
00000130: 1903 a6bc cc1a 87bd 492f cebc 4f93 88bd
00000140: cb0d 893d c4d7 9a3d 9ad0 be3c e643 08bd
00000150: 7fec 233c 15bb dcbd 1195 0ebd 2788 e13b
00000160: 6d25 233d 5b58 c33c d8d8 703d 978d 71bd
00000170: 4283 333d bc92 b63c 686c a63d fbde 8a3d
00000180: c733 0e3d df40 113c ace0 763c ba8d e8bc
00000190: 6dfd d1bd 1df7 143c 5d3b 823d 5d16 d2bd
000001a0: f58f ca3d 044b 813d a8c8 a63d 74c5 c33d
000001b0: 90e0 d33c d252 22bd 6cd2 4cbd 71ea 56bd
000001c0: 590e db3c e877 9f3d 59ad 43bd b7ee 2d3c
000001d0: 148b 01bd 1cc6 9b3d 493b 69bd 3122 23bc
000001e0: 61bf bbbc 7dc7 e53c 6616 a4ba 5846 d23b
000001f0: 360d 00bc 2865 7dbc 0525 3f3d f11f c33d
00000200: 94e9 b5bd 6be4 92bd 1a47 363d 33f3 12bc
00000210: 2728 8dbc 67e4 21bd 17f5 f03c e1d4 8a3d
00000220: 481e 043b 34f6 383c 2f1c 983d c67b 7abd
00000230: ea0e 79bd 1f71 bcbd f364 a5bc 252b 53bd
00000240: 1e8d 22bd f690 94bc 1b1b 7fbb 63e9 033c
00000250: 2b5e 453c 7dfe 323d a685 3a3c 276a 52bd
00000260: 153c 4bbd e960 53bd 501c 433d 87ba 98bc
00000270: 6f38 32bd cf1b 823d 8461 52bb 3712 aa3d
00000280: 63a0 2fbd cfe1 a13d b089 d93d 8240 cbbc
00000290: 4a00 cfb7 6c6f 05bc 8ef0 e43c 4179 623d
000002a0: ed2f a63d 3abb 6a3d 50ca 4b3d e93c 713d
000002b0: db75 85bc 3a33 eabb 2748 8cbd fa01 71bd
000002c0: bc3a 0d3d 18d2 c7bc 1c2c f6bc d0b9 ca3d
000002d0: 6582 c4bd 3693 d0bb 2221 31bd b766 d7bd
000002e0: 4a76 443d 29c4 81bd ed1a e13c 04c0 153d
000002f0: c221 f2bc b789 a9bb 23c8 3e3d e2e6 8a3d
00000300: 771a ae3d a990 5ebd 1309 dbbd e825 54bd
00000310: d3f2 ac3d 4291 183d 3325 5c3d 175d 96bb
00000320: 5c26 abbc 687c 1fbd a21f 2abd ef69 403d
00000330: b40e 83bd b156 b9bd 2783 85bd 9c76 1b3d
00000340: 250a 1b3d 8cba 2ebd 5698 eebc 2062 60bc
00000350: 3d15 28bc 573f 96bc a47a 3f3d f56e e43c
00000360: 1f38 9cbc 6f08 ac3d 4286 ddbd f95a eb3c
00000370: f015 833d 7741 68bc 8efa 86bd c775 58bd
00000380: a2c0 033c 1a90 553d 56dd c5bd ce0d 4f3c
00000390: 8cf0 4ebd 99a7 aa3d 4bf9 2cbd ce3e f0bc
000003a0: e12c 853c 70c8 49bd 5b44 9d3c 6d78 a83d
000003b0: efd0 3cbd 1fe7 7f3d f84f 23bc 3e97 5ebd
000003c0: 3b46 573d a679 083b 5387 b73c 0228 d5bb
000003d0: 4f15 693d 2429 103d 3646 993c ae4c c93c
000003e0: a5c6 b73b ed6b 43bd 196b 86bd a2bd 6dbb
000003f0: c421 113c 845a 82bd dbfd 8dbd 2a4c cc3d

lstm.bias_ih_l0 f4 [512]
-0.04079197 0.08932559 0.07598953 0.053033646 0.09659752 -0.033630237 -0.06339985 -0.037932694
0.07623885 0.007286239 0.0596446 0.10931889 -0.053279553 0.014628626 0.10780481 -0.056553587
0.039492067 0.00067294575 0.10944919 -0.0083636 -0.045986664 0.10946213 0.012794614 -0.03586391
0.018402245 0.08513994 -0.06528247 0.07804361 -0.041789033 0.03896124 0.09171884 -0.04826221
0.06948667 0.075680755 0.07161222 -0.04307515 0.06044131 0.04212424 -0.058407128 0.0147492215
0.057659477 0.0021126075 -0.017994955 0.08180344 -0.05853704 0.091883235 -0.012708462 -0.003685824
0.077294186 0.031629737 -0.04672951 0.101947084 0.07173149 -0.05267005 0.056461934 0.10332822
0.056089636 -0.053579003 0.08337912 0.085429095 -0.02358694 -0.0020094637 -0.030770293 -0.047756296
-0.04973363 0.008061835 -0.023372332 0.052478656 0.0069486285 0.09993856 0.10222162 0.05986223
0.04111132 0.0034514698 -0.044300973 -0.06430217 -0.038651064 -0.03645326 0.09926714 -0.069569334
0.0027378837 0.06016091 -0.051983964 0.082799934 0.037685245 0.10217368 0.0010404583 -0.033292465
-0.061972104 0.00013622432 0.03583472 0.010718635 0.100903854 0.06573688 0.018724179 0.043372985
0.066665076 0.0048003634 0.01866524 0.0879549 0.045997474 0.079549514 -0.059470717 0.05834275
-0.054143485 0.020136287 0.038067788 0.10100715 0.03648917 -0.052373532 0.07785377 -0.011506402
0.054671705 0.03745256 -0.056524877 0.011867351 0.0063668117 -0.060276937 -0.0068797953 0.07287149
0.10709318 0.03724594 0.0717355 0.049124975 -0.05578637 0.08251891 0.09949622 0.073143885
-0.050181396 0.06482239 -0.025328347 -0.067181766 0.055932306 -0.05151686 0.1128005 0.084510125
0.032662846 0.04766583 -0.012678434 0.07904851 0.05824753 0.098259844 0.09865422 0.0016425964
-0.007940085 0.027988458 0.067702875 -0.014285505 -0.013839689 0.03469618 0.047228113 0.11219269
0.057386164 0.049737025 0.10624968 0.108516954 0.014740778 0.040972274 -0.05055529 0.025171269
0.109418236 0.0065272273 -0.037936255 0.101053454 0.050177883 -0.011760291 -0.0031423587 0.01779105
-0.028454885 0.103208594 -0.021956917 0.015417957 -0.04723131 -0.038070742 0.020219032 0.04485468
-0.018552136 0.09660511 0.08878643 0.018652879 -0.015303875 -0.042953238 -0.05254039 0.08213387
0.01866202 -0.026339045 -0.035083905 -0.016248837 0.069165446 0.02182243 0.08407433 0.016017696
0.108795434 -0.006443374 0.00898532 -0.0021756596 -0.011004473 -0.013244917 -0.037847318 0.0473254
-0.027735306 0.022704987 0.033782706 0.055946138 0.08354441 0.030801984 0.013088191 -0.012779966
-0.03226359 0.018534837 -0.0050074374 0.06567585 0.068409994 0.066716865 0.016791893 -0.012190958
0.082545005 0.044524215 0.030357886 0.08162864 0.012461442 0.08811934 -0.026719462 0.055335965
0.09427375 0.039981257 0.017625513 0.1023085 -0.016369682 -0.019526798 -0.029136648 0.061119273
0.01858594 0.10002943 0.05367273 -0.0013352219 0.02130066 0.027947191 -0.019734321 -0.037783165
0.035627667 0.051053904 0.03672811 -0.025320383 -0.05198378 -0.02319498 0.10146816 -0.04986543
-0.019276142 0.007435096 0.040060095 -0.05488615 0.08222592 0.020478148 0.028294038 -0.028224776
00000000: 7b15 27bd 56f0 b63d 66a0 9b3d cf39 593d
00000010: ecd4 c53d dcbf 09bd c8d7 81bd 505f 1bbd
00000020: 1d23 9c3d 67c1 ee3b e54d 743d 95e2 df3d
00000030: a93b 5abd e8ac 6f3c c5c8 dc3d bca4 67bd
00000040: 6fc2 213d a068 303a e626 e03d 7b07 09bc
00000050: 835c 3cbd ae2d e03d 80a0 513c 09e6 12bd
00000060: 4ec0 963c d95d ae3d d1b2 85bd 54d5 9f3d
00000070: fa2a 2bbd d295 1f3d 16d7 bb3d 98ae 45bd
00000080: 074f 8e3d 83fe 9a3d 6da9 923d 926f 30bd
00000090: 4f91 773d 788a 2c3d 503c 6fbd b8a6 713c
000000a0: 582c 6c3d ac73 0a3b 286a 93bc 9088 a73d
000000b0: 89c4 6fbd 472d bc3d 2737 50bc de8d 71bb
000000c0: 6a4c 9e3d 2f8e 013d 7167 3fbd a2c9 d03d
000000d0: f6e7 923d 8dbc 57bd a144 673d bf9d d33d
000000e0: 3fbe 653d a875 5bbd acc2 aa3d 73f5 ae3d
000000f0: 6639 c1bc 35b1 03bb fb11 fcbc 1b9c 43bd
00000100: 7eb5 4bbd c915 043c 5577 bfbc dcf3 563d
00000110: 52b1 e33b 96ac cc3d 9259 d13d 1932 753d
00000120: 5864 283d 0e32 623b f074 35bd dbb0 83bd
00000130: 9450 1ebd 0350 15bd 924c cb3d 5e7a 8ebd
00000140: 116e 333b 496b 763d 23ed 54bd 0393 a93d
00000150: d85b 1a3d 6f40 d13d fd5f 883a ae5d 08bd
00000160: 76d6 7dbd 70d7 0e39 6dc7 123d 379d 2f3c
00000170: aea6 ce3d 0fa1 863d 7363 993c dfa7 313d
00000180: b387 883d 5e4c 9d3b d8e7 983c b321 b43d
00000190: d967 3c3d dbea a23d 9197 73bd cff8 6e3d
000001a0: 8fc5 5dbd dbf4 a43c f8ec 1b3d d6dc ce3d
000001b0: ab75 153d a185 56bd cc71 9f3d 5985 3cbc
000001c0: 70ef 5f3d db67 193d a186 67bd 476f 423c
000001d0: b0a0 d03b f3e4 76bd e86f e1bb a63d 953d
000001e0: ab53 db3d 338f 183d 10ea 923d 4537 493d
000001f0: 4080 64bd adff a83d adc4 cb3d 76cc 953d
00000200: 028b 4dbd 9ac1 843d 657d cfbc 9896 89bd
00000210: 4619 653d 5803 53bd f303 e73d a513 ad3d
00000220: 7ac9 053d 3f3d 433d 35b9 4fbc 2fe4 a13d
00000230: f694 6e3d 753c c93d 390b ca3d 644c d73a
00000240: 2117 02bc 0d48 e53c cea7 8a3d c00d 6abc
00000250: ddbf 62bc 951d 0e3d 4472 413d 48c5 e53d
00000260: c10d 6b3d 0db9 4b3d 6f99 d93d 233e de3d
00000270: 4e83 713c 8bd2 273d 1013 4fbd fa33 ce3c
00000280: ab16 e03d 5ae2 d53b 0c63 1bbd 1df5 ce3d
00000290: 5387 4d3d 3cae 40bc 08f0 4dbb 89be 913c
000002a0: 381a e9bc 075f d33d fede b3bc 999b 7c3c
000002b0: 9e75 41bd 11f0 1bbd 62a2 a53c 8ab9 373d
000002c0: a6fa 97bc e6d8 c53d a9d5 b53d eccd 983c
000002d0: 1bbd 7abc bcef 2fbd 9834 57bd cd35 a83d
000002e0: 18e1 983c fbc4 d7bc 24b4 0fbd 481c 85bc
000002f0: 9da6 8d3d f4c4 b23c 2a2f ac3d 8b37 833c
00000300: 24d0 de3d f022 d3bb 2a37 133c 8395 0ebb
00000310: 1b4c 34bc 3501 59bc ca05 1bbd 47d8 413d
00000320: 2735 e3bc cfff b93c bc5f 0a3d c727 653d
00000330: 5519 ab3d 7154 fc3c da6f 563c 1063 51bc
00000340: d326 04bd 5fd6 973c 6e15 a4bb 0f81 863d
00000350: 8a1a 8c3d daa2 883d 278f 893c 95bc 47bc
00000360: 5b0d a93d 065f 363d 1ab1 f83c eb2c a73d
00000370: 132b 4c3c ea77 b43d c6e2 dabc f7a7 623d
00000380: 9912 c13d 63c3 233d 6163 903c 1e87 d13d
00000390: b619 86bc aaf6 9fbc fbaf eebc 3458 7a3d
000003a0: 8b41 983c 3bdc cc3d f0d7 5b3d 9d02 afba
000003b0: b97e ae3c 82f1 e43c dfa9 a1bc 85c2 1abd
000003c0: 51ee 113d e61d 513d 3770 163d b16c cfbc
000003d0: f2ec 54bd 6603 bebc 8ace cf3d b13f 4cbd
000003e0: 00e9 9dbc 1ba2 f33b 0e16 243d 4dd0 60bd
000003f0: 1066 a83d cac1 a73c e6c8 e73c a537 e7bc

lstm.bias_hh_l0 f4 [512]
-0.029657204 0.019867763 0.009291011 0.10008593 0.10513435 -0.027738806 0.08697175 0.07477127
-0.015912013 0.025253922 0.04742004 0.06386919 0.0128203835 -0.021010036 -0.057444844 -0.012068905
0.11051217 -0.05361015 -0.013689754 0.07002889 -0.036297876 0.04228759 0.105909884 0.029051566
-0.011537187 0.05828456 0.055646256 0.026949981 -0.026596148 0.105237894 0.020635683 0.05235617
-9.199971e-06 0.0568615 0.004597766 0.0023228666 0.015216004 -0.04970987 0.05726458 -0.06667666
0.016348843 0.0026638203 -0.026245756 -0.034881987 -0.057267755 -0.0171365 -0.00049920194 0.026450504
-0.032672822 0.08558149 0.07561212 0.061046526 0.053675007 0.026333703 -0.008949454 0.053440146
0.08466608 0.050994556 -0.061258964 -0.0046813837 0.070223965 -0.029881455 0.09096903 0.04888527
0.06960125 0.07562333 -0.014956623 0.03550871 0.10596614 0.05741906 -0.037369743 -0.0031371373
0.1040287 0.09793171 -0.060336567 0.09873384 -0.018976506 -0.052831102 0.066551395 -0.04659637
0.035893325 0.0010971986 0.11066707 -0.028477496 -0.030211182 0.10860748 0.07809048 0.080901794
0.048573855 0.022985738 0.009162941 -0.015987527 -0.048081785 0.0647218 0.04808214 0.012726082
0.060147505 0.046574797 0.010931717 0.060038805 0.05930953 0.030524343 0.021374812 -0.01623864
-0.039978605 -0.037979234 0.056888495 0.053574637 0.07361484 -0.014818878 0.08292734 0.02052787
0.053687282 0.008277806 0.0077008833 -0.06670513 0.08972569 -0.030123565 0.0075363484 0.07507458
0.06927439 -0.042420134 -0.065308884 0.06989063 0.03653429 0.09524136 0.07831316 0.048284814
-0.045186177 0.0076014777 -0.03935649 0.102409296 0.0057326416 -0.048668828 -0.047789223 -0.004795316
-0.027727155 0.08628216 0.04455145 -0.011860315 0.047612906 0.04245264 0.09326593 0.07039824
0.070048414 -0.009668256 0.087482594 -0.03049089 -0.03324579 0.09423822 -0.051616997 0.054442458
0.04492942 -0.023338731 0.07517679 0.08155612 -0.014048839 0.032102935 -0.042216502 -0.033052932
0.026250388 0.0025857037 0.019098515 -0.04740773 -0.062153213 0.067430384 -0.032373875 -0.06686279
-0.008444847 0.09632068 -0.0050803125 0.047245637 0.016523112 0.047115166 0.036980327 -0.04878661
0.07372106 0.087649286 0.098044924 0.0019100207 0.0852612 0.09809283 -0.03644687 -0.034153964
-0.02806373 0.05462678 -0.03173417 0.005899504 0.03824623 -0.038966905 0.025748672 -0.049274534
0.053243708 0.082086995 0.06847942 0.061922017 0.094094895 -0.025358493 -0.030401973 -0.06882044
0.09912625 0.08871881 -0.054354124 -0.02564218 0.024509288 0.057954274 0.022563959 0.00048438716
-0.03736948 -0.010906886 0.11345208 -0.0074329646 0.017761396 0.09559909 -0.03306655 0.00926978
-0.02185901 0.07572047 0.09663549 -0.035427395 -0.054867253 -0.061541036 0.097688526 0.03534956
0.09935092 -0.049977012 0.030905224 0.0820474 -0.012006381 0.0055732364 0.07098825 -0.016991172
0.063789405 0.040556356 0.023796853 0.10930832 0.08798565 0.08825439 -0.013053591 0.03399543
0.03204721 -0.015537591 0.0072601857 0.08269536 0.08986376 0.04065873 0.0043877168 0.041900713
0.107822634 0.07056696 0.0004976391 -0.020567192 -0.04516245 0.07744615 -0.019172657 0.049715046
00000000: aaf3 f2bc b8c1 a23c 5339 183c daf9 cc3d
00000010: ae50 d73d 7e3c e3bc 3f1e b23d ae21 993d
00000020: e959 82bc 50e1 ce3c 843b 423d dacd 823d
00000030: 960c 523c 3d1d acbc 494b 6bbd a8bc 45bc
00000040: 3454 e23d 5196 5bbd fd4a 60bc 4f6b 8f3d
00000050: 15ad 14bd c135 2d3d 48e7 d83d 8dfd ed3c
00000060: 7806 3dbc cabb 6e3d 54ed 633d 35c6 dc3c
00000070: 2ae0 d9bc f786 d73d 2a0c a93c 6c73 563d
00000080: 9359 1ab7 9be7 683d dba8 963b 3c3b 183b
00000090: 8c4c 793c 949c 4bbd 448e 6a3d c68d 88bd
000000a0: 02ee 853c 7d93 2e3b 5701 d7bc 6ae0 0ebd
000000b0: 9891 6abd d861 8cbc e0dc 02ba baae d83c
000000c0: f0d3 05bd 5945 af3d 87da 9a3d ec0b 7a3d
000000d0: 53da 5b3d c7b9 d73c bba0 12bc 0ee4 5a3d
000000e0: 6965 ad3d abdf 503d aeea 7abd 4b66 99bb
000000f0: 95d1 8f3d f4c9 f4bc f94d ba3d ec3b 483d
00000100: 1a8b 8e3d 68e0 9a3d a00c 75bc 9571 113d
00000110: c704 d93d 4030 6b3d 0411 19bd 6e98 4dbb
00000120: 000d d53d 6c90 c83d 7a23 77bd f834 ca3d
00000130: 9e74 9bbc 6d65 58bd 194c 883d d6db 3ebd
00000140: e104 133d e0cf 8f3a 6ba5 e23d a349 e9bc
00000150: 717d f7bc 996d de3d e7ed 9f3d d7af a53d
00000160: 61f5 463d 964c bc3c 2920 163c 46f8 82bc
00000170: 68f1 44bd dd8c 843d c7f1 443d 0e81 503c
00000180: 3b5d 763d 37c5 3e3d f21a 333c 40eb 753d
00000190: 8dee 723d 300e fa3c 3b1a af3c e506 85bc
000001a0: 9bc0 23bd 1d90 1bbd e903 693d 1471 5b3d
000001b0: 61c3 963d e1ca 72bc cfd5 a93d 102a a83c
000001c0: 32e7 5b3d a39f 073c b157 fc3b b39c 88bd
000001d0: 1ac2 b73d b2c5 f6bc 79f3 f63b b4c0 993d
000001e0: bbdf 8d3d bcc0 2dbd aac0 85bd d222 8f3d
000001f0: fba4 153d e70d c33d a662 a03d 4cc6 453d
00000200: 2415 39bd d115 f93b 4534 21bd f7bb d13d
00000210: e2d8 bb3b f758 47bd a2be 43bd 0722 9dbb
00000220: 0f24 e3bc b3b4 b03d 957b 363d c451 42bc
00000230: c005 433d d2e2 2d3d 3502 bf3d f42c 903d
00000240: 8b75 8f3d 9b67 1ebc 132a b33d 08c8 f9bc
00000250: bd2c 08bd f8ff c03d 586c 53bd 0eff 5e3d
00000260: e907 383d de30 bfbc 4af6 993d e506 a73d
00000270: 1a2d 66bc 5e7e 033d 36eb 2cbd 8362 07bd
00000280: 0e0b d73c e974 293b 7d74 9c3c 9c2e 42bd
00000290: 5e94 7ebd f118 8a3d 789a 04bd 5cef 88bd
000002a0: 415c 0abc c743 c53d c078 a6bb a484 413d
000002b0: 7a5b 873c d5fb 403d af78 173d 78d4 47bd
000002c0: 11fb 963d 7881 b33d c7cb c83d a959 fa3a
000002d0: 6d9d ae3d e5e4 c83d 5049 15bd 07e5 0bbd
000002e0: e8e5 e5bc 55c0 5f3d b0fb 01bd a050 c13b
000002f0: 14a8 1c3d c39b 1fbd e1ee d23c 18d4 49bd
00000300: 1316 5a3d 3a1d a83d f03e 8c3d f1a1 7d3d
00000310: d3b4 c03d 9dbc cfbc 8f0d f9bc bbf1 8cbd
00000320: b402 cb3d 35b2 b53d 6ea2 5ebd 8d0f d2bc
00000330: b4c7 c83c 7661 6d3d 0dd8 b83c 58f5 fd39
00000340: bd10 19bd ccb2 32bc 9059 e83d 3a90 f3bb
00000350: 5980 913c 75c9 c33d ca70 07bd 46e0 173c
00000360: ab11 b3bc 5513 9b3d d4e8 c53d 511c 11bd
00000370: 7cbc 60bd 7412 7cbd ec10 c83d b3ca 103d
00000380: 7f78 cb3d b2b4 4cbd f42c fd3c 7808 a83d
00000390: 69b6 44bc b29f b63b 4a62 913d 1231 8bbc
000003a0: 05a4 823d 6c1e 263d 9ef1 c23c 0add df3d
000003b0: d231 b43d b8be b43d bbde 55bc cb3e 0b3d
000003c0: ef43 033d 6191 7ebc dae6 ed3b 2f5c a93d
000003d0: 7e0a b83d c589 263d d6c6 8f3b 15a0 2b3d
000003e0: 1dd2 dc3d 6985 903d ff73 023a 877c a8bc
000003f0: 43fc 38bd 169c 9e3d fa0f 9dbc 01a2 4b3d

lstm.weight_ih_l1 f4 [512, 128]
0.026003957 0.060291097 -0.023810444 -0.047057096 -0.013729674 -0.051380124 0.006148466 0.033977352
-0.05911273 -0.08093312 0.02489711 -0.052667376 -0.008422638 -0.08331725 -0.06349311 0.09225427
0.07086918 -0.081556536 -0.020009192 0.029888585 -0.009291203 -0.0046464074 -0.047940403 0.04590842
0.08699359 -0.009979737 -0.051414523 -0.09189682 0.033211812 -0.05910155 0.09578992 -0.011131712
-0.049454927 -0.014438974 0.0651079 0.06403799 0.011944596 0.05750067 0.0566523 0.0024140656
-0.022950817 0.042673387 -0.088260576 0.037408143 -0.033018235 -0.017245598 0.047481 -0.06978367
0.059913237 -0.045466084 -0.04365434 -0.059462294 0.07224858 0.062031105 0.064789556 -0.093266614
0.02614707 -0.053195648 0.018025205 -0.05130185 -0.0031573037 -0.055583358 0.0074076587 -0.047164593
0.08849392 0.0041067787 -0.0029856954 0.052312095 -0.043247283 0.06824004 0.01659646 -0.09500544
0.053045668 -0.074278735 0.06746334 0.026207265 0.019594546 -0.06467519 -0.067728825 0.09475929
0.028848212 -0.06171199 0.081317075 0.03772975 -0.024179604 -0.01060484 -0.029228367 -0.017714422
0.04522777 0.043675657 -0.11247593 0.030964708 -0.017922534 -0.010898107 0.096257865 -0.06236559
-0.06994857 -0.008304613 -0.07962975 -0.07166575 -0.0072505614 0.03995453 0.00078324875 0.03152088
-0.01655761 -0.02261927 0.08602271 0.026628343 -0.017007401 -0.05322912 0.029734638 -0.0050249724
0.058852986 -0.039818194 -0.057363603 0.03431685 -0.048805047 0.011253603 0.0063367197 -0.010126752
-0.04418621 0.07651576 -0.05162754 -0.08793063 -0.060503732 -0.040155984 -0.09411097 -0.0061796233
-0.035676047 -0.043043327 0.059165616 -0.033068676 -0.090389274 -0.08592123 0.05745565 0.03746529
-0.022808127 -0.09965536 -0.019031797 0.0556207 0.017608333 -0.023088818 -0.07986813 0.08526216
-0.013311388 -0.022589192 0.009810865 0.023327881 -0.0050586183 0.013699253 -0.059959557 0.036114506
0.024151148 -0.039605062 0.00926119 -0.055724815 0.011390345 0.06947243 -0.021550827 0.051981498
0.068081826 0.026804198 0.008358955 0.0651131 0.06603483 -0.052991997 0.047570493 -0.01168942
0.07352139 -0.0475407 0.0025771263 -0.07094183 0.04852285 0.032156244 -0.00063502125 0.020031488
0.01999716 -0.09649611 -0.041086648 0.08587755 0.022928184 0.037567783 -0.0011814504 0.0552356
0.032114208 -0.042955298 0.025139352 -0.062099483 0.009730222 -0.10747884 -0.040169884 0.055183977
-0.044891853 0.024970734 -0.027153257 -0.03709267 0.03718413 0.023223696 0.10881481 -0.06384295
0.0052281204 0.047269814 0.024029076 0.018748669 0.046434715 -0.044902787 -0.03572534 -0.03804187
0.0465506 0.031563804 -0.04532627 -0.055230185 -0.019715726 -0.09918329 0.064082816 -0.0076825796
-0.06687298 0.04043156 -0.0070495442 -0.020259084 -0.0605838 -0.037833802 0.03368587 0.004967455
-0.007762659 0.119405665 -0.056433883 -0.0090798205 0.024407482 -0.04430444 0.060860105 0.048811823
0.029844778 -0.032450706 -0.05062427 0.04312596 0.048787516 0.082147494 0.068587996 0.017764922
-0.016023345 0.079185545 -0.041538633 0.046072662 -0.063044004 -0.002307623 -0.103982374 -0.056701493
0.056514177 -0.04909137 -0.0045361505 -0.063727506 0.0034308522 0.06072368 -0.113227114 0.013867817
00000000: 4006 d53c ccf3 763d 1f0e c3bc f1be 40bd
00000010: 6df2 60bc f773 52bd 1279 c93b d62b 0b3d
00000020: 3120 72bd 43c0 a5bd 06f5 cb3c bfb9 57bd
00000030: 1bff 09bc 3ca2 aabd ad08 82bd cfef bc3d
00000040: dc23 913d 1d07 a7bd 51ea a3bc e8d8 f43c
00000050: 213a 18bc e440 98bb 285d 44bd 780a 3c3d
00000060: b229 b23d 0d82 23bc 0998 52bd 6634 bcbd
00000070: 1c09 083d 7814 72bd 812d c43d c961 36bc
00000080: 4091 4abd 7291 6cbc 4a57 853d 5a26 833d
00000090: 44b3 433c d385 6b3d 3e0c 683d 4d35 1e3b
000000a0: 5a03 bcbc 4aca 2e3d f6c1 b4bd 4839 193d
000000b0: 213e 07bd a446 8dbc 707b 423d beea 8ebd
000000c0: 9567 753d a53a 3abd e5ce 32bd bc8e 73bd
000000d0: 10f7 933d 5414 7e3d 63b0 843d 9102 bfbd
000000e0: 6132 d63c aee3 59bd 98a9 933c e321 52bd
000000f0: c4ea 4ebb 60ab 63bd f2bb f23b a92f 41bd
00000100: 4d3c b53d 2892 863b a8ab 43bb 3545 563d
00000110: 1024 31bd 6fc1 8b3d 4df5 873c 3692 c2bd
00000120: 6a46 593d 731f 98bd 382a 8a3d 9eb0 d63c
00000130: be84 a03c 6d74 84bd 69b5 8abd 2911 c23d
00000140: 1653 ec3c b6c5 7cbd 9189 a63d 838a 1a3d
00000150: 4e14 c6bc ecbf 2dbc 5470 efbc d61d 91bc
00000160: c140 393d 3fe5 323d c859 e6bd b3a9 fd3c
00000170: 47d2 92bc f98d 32bc d822 c53d 1073 7fbd
00000180: 3241 8fbd 1210 08bc ec14 a3bd 7ec5 92bd
00000190: 1e96 edbb 5ca7 233d ef52 4d3a 0a1c 013d
000001a0: d3a3 87bc 0c4c b9bc ad2c b03d af23 da3c
000001b0: 1b53 8bbc c706 5abd 0e96 f33c 86a8 a4bb
000001c0: d40f 713d 6718 23bd 19f6 6abd d38f 0c3d
000001d0: cde7 47bd 0861 383c 42a4 cf3b adea 25bc
000001e0: 99fc 34bd 4bb4 9c3d 6677 53bd f914 b4bd
000001f0: c3d2 77bd 9a7a 24bd 41bd c0bd 707e cabb
00000200: 0c21 12bd 334e 30bd a557 723d 0573 07bd
00000210: 031e b9bd 78f7 afbd 9e56 6b3d 3475 193d
00000220: 1cd8 babc 1c18 ccbd 92e8 9bbc 88d2 633d
00000230: 5a3f 903c c324 bdbc e791 a3bd ed9d ae3d
00000240: 0218 5abc f80c b9bc c0bd 203c 1d1a bf3c
00000250: c4c2 a5bb d572 603c 2798 75bd ceec 133d
00000260: a1d8 c53c eb38 22bd 3fbc 173c b43f 64bd
00000270: 929e 3a3c 9047 8e3d 5c8b b0bc 8dea 543d
00000280: 7c6e 8b3d 7a94 db3c 00f4 083c 045a 853d
00000290: 453d 873d 230e 59bd 47d9 423d fb84 3fbc
000002a0: 6292 963d 09ba 42bd 01e5 283b f349 91bd
000002b0: e5bf 463d 44b6 033d 8e77 26ba 1319 a43c
000002c0: 16d1 a33c c19f c5bd 794a 28bd 92e0 af3d
000002d0: e3d3 bb3c ade0 193d e6da 9aba b93e 623d
000002e0: 308a 033d e5f1 2fbd 0bf1 cd3c 075c 7ebd
000002f0: 826b 1f3c de1d dcbd 2d89 24bd 9808 623d
00000300: 85e0 37bd 6d8f cc3c 8270 debc 7cee 17bd
00000310: 634e 183d 9f3f be3c 4dda de3d 18c0 82bd
00000320: a750 ab3b fe9d 413d a0d8 c43c cf96 993c
00000330: 5432 3e3d fceb 37bd bc54 12bd cbd1 1bbd
00000340: d8ab 3e3d 0c49 013d 0aa8 39bd 0c39 62bd
00000350: e082 a1bc 9c20 cbbd da3d 833d 26be fbbb
00000360: b3f4 88bd 909b 253d ddff e6bb 61f6 a5bc
00000370: b826 78bd 9ef7 1abd 32fa 093d 08c6 a23b
00000380: e75d febb f58a f43d 3727 67bd 87c3 14bc
00000390: 33f2 c73c 9378 35bd 7248 793d e8ee 473d
000003a0: 097d f43c 08eb 04bd 655b 4fbd d9a4 303d
000003b0: 6bd5 473d f23c a83d dd77 8c3d be87 913c
000003c0: 6443 83bc 082c a23d 6a24 2abd b0b6 3c3d
000003d0: 371d 81bd 7d3b 17bb b6f4 d4bd d33f 68bd
000003e0: 697b 673d 0814 49bd fda3 94bb 9183 82bd
000003f0: 26d8 603b 65b9 783d 9ee3 e7bd d735 633c

lstm.weight_hh_l1 f4 [512, 128]
-0.05477692 0.08419145 -0.050236996 0.046675615 0.046767704 0.075025015 0.074437745 -0.026507726
0.068629146 0.008849738 0.0033400222 0.013481482 0.03887251 -0.060777016 -0.07567587 -0.015980944
-0.091412716 -0.052327603 -0.07334829 -0.06969316 0.03666096 0.029448815 -0.0006615763 0.049935475
0.090252884 0.09759204 0.0130686285 0.06469658 -0.08955523 -0.027073398 -0.029027754 -0.000110824636
0.024137994 -0.061629146 -0.07096303 -0.013426862 -0.06811042 -0.057074714 -0.076527864 0.0033622105
-0.046227295 -0.033020053 0.008778051 0.038084187 0.05878945 0.030715896 0.09360558 -0.087837026
0.015519155 -0.068644255 -0.07311211 0.008246918 -0.037273582 -0.008659799 0.052898806 -0.00894727
-0.04350808 -0.022341514 0.04887886 -0.06360087 0.053146116 -0.0053674346 0.050560594 0.08605283
-0.052679203 0.02492015 -0.059447415 -0.046587493 0.00091277406 0.0042992453 0.05725279 0.0053785364
-0.044377547 -0.016379979 -0.081588164 0.027529694 -0.013180685 -0.07058115 0.096427195 0.044209335
0.055904303 -0.057579543 -0.00924183 0.052558307 0.036375675 -0.01223391 -0.045485087 0.07239324
-0.082867004 -0.027359055 0.08296371 -0.037792254 0.015608642 0.05444016 -0.04287932 -0.017339965
0.0891938 -0.078788415 0.07005421 -0.046790414 -0.0096222125 0.021554919 -0.048739936 -0.02894034
-0.0766098 -0.042801227 -0.109343424 -0.054087937 -0.043636225 -0.10702252 -0.03862494 -0.057816736
0.077516384 -0.056720115 0.042815246 -0.043454405 0.016570117 -0.07060857 0.03067679 0.038027905
0.032673396 0.04158002 0.04098541 0.05326556 -0.0863845 -0.009134781 0.070269 -0.036713276
0.0047440724 -0.042461134 0.043468494 -0.10564725 0.013422468 0.0048907883 -0.0039739944 0.009329589
0.11290198 0.07001758 0.006270466 -0.09105368 0.0029726883 0.054818086 -0.029225165 0.06520494
-0.04671426 0.08199257 0.023332411 0.085996866 -0.04060008 0.06758353 0.08246597 0.012200853
0.091547064 0.03170783 -0.026650531 0.10012806 -0.0372815 0.10259089 0.050252486 -0.09423158
-0.038712967 -0.057697494 0.05082123 -0.01940558 -0.024419555 0.0032144955 0.007822282 0.0050893314
0.040115867 -0.032371044 -0.028050762 0.041600253 0.0705026 0.010670149 -0.029460454 0.022922331
0.007326324 0.064788796 0.048212696 0.07588526 -0.08932565 0.022417035 0.002434498 0.030151622
0.09543527 0.06655089 -0.06279161 -0.019996664 0.07389999 0.056829106 0.058503665 0.020251617
0.061177555 -0.10369289 0.0085166525 0.08359022 -0.018530287 -0.025285933 0.01574881 0.026164643
-0.10212633 -0.03640689 0.005390852 -0.063742846 0.087066 -0.03307291 0.095887505 -0.07133332
-0.08378061 -0.10873127 -0.064199775 -0.02359323 -0.038832176 0.054039713 0.075039096 0.00013377848
-0.015457822 0.0075870496 -0.045152843 0.031149227 -0.012259378 0.032305833 0.06909013 0.10476814
-0.019120999 -0.045231353 -0.02538146 0.046249006 -0.054550007 0.047704745 0.060440883 0.038578905
-0.008750341 -0.08890547 -0.09655656 -0.09035143 0.033379875 -0.11533419 0.01769903 -0.004334181
0.026664581 0.009299892 -0.03094381 -0.08574994 0.08592467 -0.04815363 0.043625012 0.017034678
-0.019843707 -0.027042918 0.04090848 -0.010210857 0.05244895 0.044821806 -0.004567126 0.014180946
00000000: c35d 60bd 916c ac3d 4fc5 4dbd ee2e 3f3d
00000010: 7e8f 3f3d b7a6 993d d172 983d bb26 d9bc
00000020: 708d 8c3d 7efe 103c 46e4 5a3b 6fe1 5c3c
00000030: c838 1f3d 52f1 78bd f3fb 9abd 78ea 82bc
00000040: 9736 bbbd 7855 56bd a137 96bd 4abb 8ebd
00000050: ce29 163d a43e f13c a26d 2dba 2489 4c3d
00000060: 81d6 b83d 56de c73d cd1d 563c a47f 843d
00000070: bc68 b7bd 08c9 ddbc 9dcb edbc 866a e8b8
00000080: 0bbd c53c d86e 7cbd 1155 91bd 57fc 5bbc
00000090: 7a7d 8bbd 2dc7 69bd a4ba 9cbd 8858 5c3b
000000a0: d558 3dbd 0940 07bd d0d1 0f3c 2afe 1b3d
000000b0: 35cd 703d e79f fb3c 48b4 bf3d e6e3 b3bd
000000c0: 0e44 7e3c 5c95 8cbd cdbb 95bd 151e 073c
000000d0: 2fac 18bd d4e1 0dbc 6bac 583d 9297 12bc
000000e0: 8735 32bd 8d05 b7bc 3335 483d 2c41 82bd
000000f0: beaf 593d 4ee1 afbb a018 4f3d 773c b03d
00000100: 26c6 57bd 5825 cc3c 227f 73bd 87d2 3ebd
00000110: 3b47 6f3a afe0 8c3b e781 6a3d 6f3e b03b
00000120: 3bc5 35bd 4e2f 86bc b217 a7bd f485 e13c
00000130: cdf3 57bc da8c 90bd 9f7b c53d d914 353d
00000140: e9fb 643d 87d8 6bbd 0b6b 17bc 6147 573d
00000150: a9fe 143d bd70 48bc 924e 3abd e842 943d
00000160: 2db6 a9bd 1920 e0bc e1e8 a93d 0dcc 1abd
00000170: 64bb 7f3c a5fc 5e3d 3aa2 2fbd 8b0c 8ebc
00000180: 3dab b63d d25b a1bd 9578 8f3d 4ea7 3fbd
00000190: 7ca6 1dbc f193 b03c 87a3 47bd 4b14 edbc
000001a0: 99e5 9cbd 5750 2fbd 72ef dfbd 508b 5dbd
000001b0: e6bb 32bd 9f2e dbbd 2f35 1ebd 3ed1 6cbd
000001c0: e9c0 9e3d 5a53 68bd 0a5f 2f3d 3ffd 31bd
000001d0: 0ebe 873c 3a9b 90bd e44d fb3c 26c3 1b3d
000001e0: 8ad4 053d d04f 2a3d 51e0 273d fd2c 5a3d
000001f0: 5bea b0bd 0caa 15bc 32e9 8f3d a960 16bd
00000200: 2a74 9b3b baeb 2dbd 050c 323d 965d d8bd
00000210: e9e9 5b3c e842 a03b 4838 82bb 22db 183c
00000220: 2739 e73d 6165 8f3d 7b78 cd3b 5a7a babd
00000230: 6fd1 423b ee88 603d 9d69 efbc 2b8a 853d
00000240: 7457 3fbd b8eb a73d 9d23 bf3c 201f b03d
00000250: 454c 26bd 3c69 8a3d ebe3 a83d 16e6 473c
00000260: 077d bb3d 12e0 013d 3752 dabc f10f cd3d
00000270: 7cb4 18bd 2c1b d23d 8dd5 4d3d 7dfc c0bd
00000280: 7d91 1ebd 3554 6cbd ec29 503d 73f8 9ebc
00000290: 850b c8bc 49aa 523b 0729 003c 68c4 a63b
000002a0: 8950 243d 8097 04bd b6ca e5bc 0765 2a3d
000002b0: ab63 903d d9d1 2e3c 0d57 f1bc 9dc7 bb3c
000002c0: a911 f03b fdaf 843d ad7a 453d bb69 9b3d
000002d0: 5ef0 b6bd eea3 b73c 198c 1f3b 8900 f73c
000002e0: 9173 c33d d54b 883d e398 80bd 0bd0 a3bc
000002f0: e158 973d a3c5 683d 8aa1 6f3d b8e6 a53c
00000300: 5195 7a3d f05c d4bd 6e89 0b3c 5931 ab3d
00000310: d4cc 97bc 7224 cfbc a603 813c 3c57 d63c
00000320: 9c27 d1bd 641f 15bd bfa5 b03b 9c8b 82bd
00000330: a94f b23d 7677 07bd ab60 c43d 3417 92bd
00000340: 2b95 abbd 80ae debd 2c7b 83bd 9746 c1bc
00000350: 7d0e 1fbd bf58 5d3d 19ae 993d e346 0c39
00000360: ce42 7dbc c99c f83b 30f2 38bd aa2c ff3c
00000370: 8fdb 48bc 1f53 043d 207f 8d3d ae90 d63d
00000380: a4a3 9cbc 8344 39bd c8ec cfbc 996f 3d3d
00000390: d46f 5fbd 0d66 433d dc90 773d ea04 1e3d
000003a0: 975d 0fbc 1214 b6bd 72bf c5bd 2c0a b9bd
000003b0: 56b9 083d 5534 ecbd 8efd 903c bf05 8ebb
000003c0: ae6f da3c 935e 183c df7d fdbc aa9d afbd
000003d0: 46f9 af3d be3c 45bd 24b0 323d 4f8c 8b3c
000003e0: 458f a2bc 1c89 ddbc a68f 273d 704b 27bc
000003f0: b6d4 563d 1297 373d d4a7 95bb 3357 683c

lstm.bias_ih_l1 f4 [512]
0.018738393 0.086840995 -0.035318673 -0.046730652 0.09572332 -0.03948858 -0.025611276 -0.0077663693
0.021988561 -0.019872518 0.029370178 0.025556985 0.025129152 -0.047373798 -0.05511585 0.016371204
0.055913657 -0.049202267 -0.06051127 0.027968278 -0.032242578 0.09313813 0.009148737 0.07337099
0.092682034 -0.061056003 -0.01194635 -0.025408419 -0.036755096 0.09755276 0.039371185 -0.007994561
0.063266255 -0.025140932 -0.052755367 -0.03219671 0.09474286 0.057269312 0.024268586 0.0877348
-0.061580762 0.09092739 0.060684826 -0.050852776 -0.037007276 0.06519075 0.09272564 0.032495227
0.013437406 -0.06076823 -0.031909153 0.051227443 0.09790921 0.039408755 0.046717 -0.020655125
-0.039213702 0.011227743 0.082216285 0.048005413 0.09184985 0.047585864 0.014919074 0.03304341
0.05965696 0.06916561 -0.0918228 -0.02333214 0.00971282 0.072047226 0.011994185 0.08206334
0.023541559 -0.05205452 0.045452043 -0.016214538 0.07710452 -0.040675502 -0.05963899 -0.0377347
0.05714601 0.050209217 0.05055627 0.108709686 -0.019198092 -0.0013023859 -0.015037444 -0.021901572
-0.019582028 0.021539683 -0.06249878 -0.019696113 0.0022263513 -0.050262026 0.04412339 -0.013990927
0.03752652 0.107090905 0.031958997 0.0018226487 0.035487972 -0.04139414 0.015529932 -0.02625783
-0.048258014 0.053484537 0.012446096 0.001391567 0.033295102 -0.05236978 0.0006814412 0.03809096
0.0005616802 0.0048219264 0.08278177 -0.039506167 0.056194354 0.059978843 0.108464114 0.08842025
-0.06239568 0.007446034 0.07912722 0.053714048 -0.057330452 -0.043897357 0.027279245 -0.040153857
-0.071741216 0.06723347 0.04083036 0.07507714 -0.046044864 -0.06059935 0.0049793767 -0.0027929728
0.052432295 -0.011527243 0.05034923 0.02323847 0.0116906185 0.04049213 -0.04253297 0.062414672
0.0854017 0.042776536 0.08026943 -0.0183958 0.09359702 0.031854898 0.054229647 0.05013921
0.050524104 0.09283224 0.018680843 0.07839652 -0.05081848 0.041894957 0.08243796 -0.03742955
0.08337476 0.09482543 0.054041576 -0.0036981925 -0.055249482 0.08159969 -0.02831763 0.10390709
0.049325436 0.015088391 -0.0010849336 -0.01973843 0.09992834 -0.004856032 0.010955948 -0.008393366
-0.004820078 0.04831555 -0.022375854 0.088320434 0.05952272 0.08113824 -0.06689716 0.09635407
0.058010187 0.0050451555 0.06586761 0.033590082 -0.014164473 0.08184737 -0.07907338 -0.05698374
0.03722887 0.042727057 0.0043212287 0.079766065 0.022086104 0.06410437 0.09818536 0.09188661
-0.006403181 -0.022030177 0.014874505 0.037705418 -0.052824944 0.0645811 0.05130666 -0.0045881993
-0.0033663819 0.02332872 0.095496126 0.009058354 0.04207056 -0.0689177 -0.0347488 0.027371403
-0.007985497 -0.033938404 0.023029232 0.042812288 -0.020404976 -0.021499839 0.079134986 -0.028343316
0.076388374 -0.045818694 -0.012396352 -0.024812272 -0.049452532 0.055709835 0.028073445 0.009752322
-0.02578623 0.057042576 0.069924906 0.04887238 0.027773734 0.08031028 -0.029734435 -0.013164411
0.07582759 -0.0089571625 0.10198673 0.10762767 0.04184097 -0.042177934 -0.03632644 0.015328484
0.020640941 -0.026420616 -0.034938347 -0.0033938421 -0.023101578 -0.073544174 0.07284981 -0.048468273
00000000: 4281 993c b1d9 b13d 50aa 10bd a468 3fbd
00000010: 970a c43d c7be 21bd bdce d1bc 077d febb
00000020: 5b21 b43c b1cb a2bc ba99 f03c e25c d13c
00000030: a7db cd3c 070b 42bd 28c1 61bd e71c 863c
00000040: b805 653d 5188 49bd aada 77bd bb1d e53c
00000050: cb10 04bd 34bf be3d 96e4 153c 8843 963d
00000060: 14d0 bd3d dc15 7abd a0ba 43bc 5125 d0bc
00000070: 838c 16bd bec9 c73d ae43 213d 9ffb 02bc
00000080: bd91 813d 5bf4 cdbc 0316 58bd b3e0 03bd
00000090: 8b08 c23d 3a93 6a3d eace c63c 4eae b33d
000000a0: 1c3c 7cbd 2438 ba3d a790 783d 004b 50bd
000000b0: f194 17bd ba82 853d f1e6 bd3d b719 053d
000000c0: 9128 5c3c 1ce8 78bd 2cb3 02bd ded3 513d
000000d0: a084 c83d 136b 213d 535a 3f3d f034 a9bc
000000e0: 8c9e 20bd 91f4 373c 0361 a83d 53a1 443d
000000f0: c61b bc3d 65e9 423d 226f 743c 8758 073d
00000100: db5a 743d b3a6 8d3d 980d bcbd 0b23 bfbc
00000110: 8522 1f3c 7f8d 933d 4283 443c d310 a83d
00000120: 3ada c03c 1f37 55bd ec2b 3a3d 5ad4 84bc
00000130: f9e8 9d3d 5b9b 26bd 0348 74bd b38f 1abd
00000140: ef11 6a3d 2ea8 4d3d 1714 4f3d 2fa3 de3d
00000150: 5145 9dbc d2b4 aaba 9d5f 76bc ed6a b3bc
00000160: 7d6a a0bc fd73 b03c b9fe 7fbd be59 a1bc
00000170: fae7 113b 8edf 4dbd baba 343d 333a 65bc
00000180: 69b5 193d 7a52 db3d 70e7 023d f1e5 ee3a
00000190: d65b 113d e78c 29bd 4271 7e3c a91a d7bc
000001a0: 32aa 45bd 9a12 5b3d b6ea 4b3c 3e65 b63a
000001b0: 7260 083d b281 56bd bfa2 323a 4405 1c3d
000001c0: b83d 133a 4001 9e3b 7d89 a93d 38d1 21bd
000001d0: 0d2c 663d 60ac 753d 6f22 de3d ad15 b53d
000001e0: 9d92 7fbd dcfd f33b 740d a23d 4303 5c3d
000001f0: 56d3 6abd b7cd 33bd b978 df3c 5f78 24bd
00000200: 0fed 92bd b4b1 893d bc3d 273d 0bc2 993d
00000210: 8a99 3cbd 0637 78bd 0a2a a33b 4f0a 37bb
00000220: 3fc3 563d c3dc 3cbc ff3a 4e3d 9b5e be3c
00000230: 028a 3f3c 13db 253d 0d37 2ebd 87a6 7f3d
00000240: 16e7 ae3d 7336 2f3d 4d64 a43d cab2 96bc
00000250: cbaf bf3d 487a 023d e81f 5e3d c65e 4d3d
00000260: 5df2 4e3d d41e be3d 9108 993c 5b8e a03d
00000270: 0a27 50bd 0c9a 2b3d 3cd5 a83d ba4f 19bd
00000280: 63c0 aa3d d633 c23d b35a 5d3d 605d 72bb
00000290: 484d 62bd bd1d a73d 60fa e7bc 3ecd d43d
000002a0: 7809 4a3d 4c35 773c 5534 8eba 7db2 a1bc
000002b0: 3ba7 cc3d 591f 9fbb 9480 333c 5484 09bc
000002c0: bff1 9dbb 87e6 453d 914d b7bc 58e1 b43d
000002d0: 18ce 733d ce2b a63d 6101 89bd 4855 c53d
000002e0: 179c 6d3d d551 a53b 99e5 863d c195 093d
000002f0: 1b12 68bc 989f a73d 39f1 a1bd c867 69bd
00000300: 4d7d 183d 9102 2f3d 1899 8d3b 645c a33d
00000310: ebed b43c 2749 833d 6815 c93d 0c2f bc3d
00000320: c6d1 d1bb a178 b4bc 32b4 733c ff70 1a3d
00000330: f85e 58bd 1943 843d ef26 523d 9b58 96bb
00000340: 849e 5cbb df1b bf3c 7993 c33d 7e69 143c
00000350: 2e52 2c3d b924 8dbd c254 0ebd fe39 e03c
00000360: 9ad5 02bc ff02 0bbd cda7 bc3c f05b 2f3d
00000370: 5628 a7bc 6e20 b0bc 8611 a23d 3e30 e8bc
00000380: 8271 9c3d 62ac 3bbd 121a 4bbc 1b43 cbbc
00000390: bd8e 4abd ff2f 643d 48fa e53c 34c8 1f3c
000003a0: a53d d3bc 7aa5 693d ca34 8f3d 682e 483d
000003b0: be85 e33c b779 a43d a195 f3bc 8baf 57bc
000003c0: 7f4b 9b3d 10c1 12bc 6bde d03d e56b dc3d
000003d0: 7061 2b3d c5c2 2cbd 08cb 14bd 5224 7b3c
000003e0: 3117 a93c 0c70 d8bc 831b 0fbd 396b 5ebb
000003f0: 853f bdbc 549e 96bd 4832 953d ab86 46bd
