models/WH005_SKU-002.pth (torch, 830897 bytes, 13 tensors)

lstm.weight_ih_l0 f4 [512, 6]
0	0x3d37ce91	0.04487473
1	0x3dba2ea8	0.0909093
2	0x3cdb899f	0.026799021
3	0xbb19cdbb	-0.0023468572
4	0x3d6d7e21	0.057981614
5	0xbd266ef8	-0.04063317
6	0x3d833761	0.06407047
7	0xbd0b7105	-0.03404333
8	0x3ca042a1	0.019563021
9	0x3d378e9b	0.044813734
10	0xbd6fc72c	-0.058539554
11	0xbd4b0d51	-0.049573246
12	0x3d5d4cfb	0.054028492
13	0xbd1d7b2f	-0.038447555
14	0x3c5c05a2	0.013429077
15	0x3d11aee5	0.035567183
16	0x3d12e3f3	0.03586192
17	0x3cb2a483	0.02180696
18	0x3cae6ede	0.0212931
19	0xbce3b30b	-0.027795335
20	0x3cd6629c	0.026170067
21	0x3dacb179	0.08432288
22	0xbcd39956	-0.025829952
23	0xbcf81827	-0.030284954
24	0xbd31d098	-0.04341182
25	0x3ca80992	0.020512376
26	0x3d8b3ef6	0.06799118
27	0x3dd634d2	0.104592934
28	0xbb5900bc	-0.003311201
29	0x3d852fd8	0.06503266
30	0x3d9f1917	0.077684574
31	0x3d990628	0.07471877
32	0x3d9a6b7b	0.075400315
33	0x3dc29e60	0.09502864
34	0x3d44afe5	0.04801931
35	0xbac3cc47	-0.0014938199
36	0x3dd4f953	0.10399117
37	0xbcd4e6d1	-0.025988968
38	0xbd6425e1	-0.055700187
39	0xbd77d63f	-0.060507055
40	0xbd8e836b	-0.0695866
41	0x3d620172	0.05517716
42	0xbd891efc	-0.06695363
43	0x3d03d8da	0.032189228
44	0x3dc18066	0.09448318
45	0x3cf6bfbc	0.030120723
46	0x3d77718f	0.060411032
47	0xbceea80e	-0.02913287
48	0xbb826148	-0.003978882
49	0x3dbf9813	0.09355178
50	0x3c934f92	0.017982278
51	0x3dd02dfc	0.10165021
52	0xbcf4033a	-0.029786695
53	0xbd1061ce	-0.035249524
54	0xbc1db2a9	-0.009625115
55	0xbd8c6bac	-0.06856474
56	0x3d208296	0.039187036
57	0xbd161d8c	-0.03664927
58	0xbd81a30c	-0.06329927
59	0x3dbeab62	0.093100324
60	0xbcff2a04	-0.031147964
61	0x3dd446ff	0.10365104
62	0xbc68a737	-0.014200023
63	0x3cce6505	0.025194654
64	0xbd503e3b	-0.050840598
65	0x3d0a65a1	0.033788327
66	0x3d30dacd	0.043177415
67	0xbcc30e6e	-0.023810592
68	0x3d505e9f	0.050871488
69	0xbc8e4307	-0.017365946
70	0x3d7cf2d8	0.06175503
71	0xbd740713	-0.05957706
72	0xbc2b5396	-0.01045694
73	0xbabdba3e	-0.001447506
74	0x3d56c126	0.052430294
75	0x3da5f8ea	0.08104117
76	0xbd8f2d32	-0.06991042
77	0x3cbfa489	0.023393886
78	0xbd2c87e0	-0.042121768
79	0xbc6a8df5	-0.014316072
80	0x3ceefd80	0.029173613
81	0x3d84de40	0.06487703
82	0x3cfceb1b	0.030873826
83	0x3d01400a	0.031555213
84	0x3dcf77d4	0.10130277
85	0xbd31e80d	-0.04343419
86	0xbb6481e7	-0.0034867467
87	0xbd77689c	-0.060402498
88	0xbcfdf58c	-0.031000875
89	0xbd60ca81	-0.054880623
90	0x3d55eb9e	0.052226655
91	0x3dc35d1b	0.09539243
92	0x3d19aa78	0.037516087
93	0xbd60452e	-0.054753475
94	0xbd35e3d5	-0.04440673
95	0xbbe1e89c	-0.0068941843
96	0x3d148bca	0.036266126
97	0x3d5a2ee5	0.05326738
98	0x3c64ebf7	0.013972274
99	0xbcb88534	-0.022524454
100	0x3d596fa9	0.053085003
101	0x3ddaaea4	0.10677841
102	0xbca9687d	-0.020679707
103	0xbc490df7	-0.012271396
104	0x3d422d54	0.04740651
105	0x3d47b506	0.04875662
106	0xbd2fdb29	-0.042933617
107	0x3dcf75f8	0.10129923
108	0x3dd72c0a	0.10506447
109	0xbcee0d94	-0.029059209
110	0xbc4749e5	-0.012163614
111	0x3dc23ed2	0.09484638
112	0xbd73e160	-0.059541106
113	0xbbcf5d56	-0.006328265
114	0x3dabff24	0.083982736
115	0x3d87b3dd	0.06626103
116	0x3c765eaa	0.015037218
117	0xbb3ca89b	-0.002878702
118	0xbd0d2e70	-0.034468114
119	0xbd2cdfd9	-0.042205665
120	0x3db5f688	0.08884913
121	0xbd64aeeb	-0.055830877
122	0x3d81f7db	0.06346103
123	0xbd5ebf64	-0.054381743
124	0x3d390230	0.0451681
125	0xbd0d27a6	-0.03446164
126	0x3d47a9a4	0.048745766
127	0x3db085c8	0.08619267
128	0xbcd5388c	-0.02602794
129	0x3cf75f86	0.030196916
130	0xbd4306de	-0.04761397
131	0x3cb24b9d	0.02176457
132	0x3de09bc4	0.1096721
133	0x3db04bf9	0.08608241
134	0xbc9e200d	-0.019302392
135	0x3d6f2336	0.05838319
136	0x3d74c600	0.05975914
137	0x3dd18249	0.10229928
138	0x3dd0fbbb	0.10204264
139	0x3d758b18	0.059947103
140	0x3cebcae1	0.028783264
141	0x3d94a6d9	0.07258386
142	0x3daba7e6	0.083816335
143	0x3c16900e	0.009189619
144	0x3d4bdfc0	0.04977393
145	0xbd963c7a	-0.07335754
146	0x3d4b7617	0.049673166
147	0xbd849bb4	-0.064750105
148	0x3d5037c5	0.050834436
149	0x3d51a0fd	0.05117892
150	0x3dad3917	0.08458155
151	0x3d8aa14f	0.067690484
152	0x3bc04bf4	0.0058684293
153	0x3d66b97c	0.056329235
154	0xbcef1a46	-0.029187333
155	0x3dc2ed19	0.09517879
156	0xbcfa2737	-0.030536277
157	0x3dca9891	0.09892381
158	0x3da6e746	0.08149581
159	0x3dde8f7e	0.10867213
160	0x3cd25800	0.025676727
161	0x3d98b3fe	0.07456206
162	0xbd47fd4a	-0.04882554
163	0x3da69621	0.081341036
164	0xbd875cb0	-0.066094756
165	0xbd0713db	-0.03297792
166	0x3d40c464	0.047062293
167	0x3d82f674	0.063946635
168	0xbcf3bcbe	-0.029753085
169	0x3ce01dbd	0.02735793
170	0xbd8818a3	-0.06645324
171	0xbd6cd9bd	-0.05782484
172	0x3c50e054	0.0127487965
173	0x3d8b1154	0.067904145
174	0x3d28e6c7	0.04123571
175	0xbcb80541	-0.022463443
176	0x3dc08fc7	0.09402423
177	0x3d5de8b7	0.054177012
178	0x3db319c6	0.0874515
179	0x3dca83c8	0.098884165
180	0xbd09893f	-0.033578154
181	0xbd5d37e9	-0.0540084
182	0xbd1b7555	-0.037953693
183	0x3da70a99	0.08156318
184	0x3ce82c7d	0.028341526
185	0x3dbc8fa7	0.09207087
186	0x3dda1c93	0.10649981
187	0xbd17bc2e	-0.037044697
188	0x3d1ea2c8	0.03872946
189	0xbd4b0e39	-0.04957411
190	0x3d13f738	0.036124438
191	0xbcdc5a64	-0.02689857
192	0xbd50e85e	-0.051002853
193	0x3c388beb	0.011263828
194	0x3db29f19	0.08721752
195	0x3dbfdcc5	0.0936828
196	0x3d6b0003	0.057373058
197	0x3dac99b8	0.08427757
198	0x3d126ed8	0.03575024
199	0x3c97527f	0.018471954
200	0xbc4476fb	-0.011991258
201	0x3d7a7fbb	0.06115697
202	0x3dd5ba8a	0.1043597
203	0x3bc9f0e2	0.0061627487
204	0x3c9f19fa	0.019421566
205	0x3dd4885b	0.1037757
206	0x3d1d95ce	0.038472943
207	0x3b7d83e5	0.0038683352
208	0xbba2ae97	-0.0049646604
209	0xbc837195	-0.016045371
210	0xbd5e0db7	-0.0542123
211	0xbd403565	-0.04692592
212	0xbd306e4b	-0.043073934
213	0x3cb8bcb8	0.022550926
214	0x3d7470c0	0.05967784
215	0x3d6b4eb4	0.057448104
216	0x3d4f601d	0.05062877
217	0xbcfd3e57	-0.030913515
218	0x3d156fd4	0.0364836
219	0xbd1a2320	-0.037631154
220	0x3ddb5c4e	0.10710965
221	0x3cfca8cb	0.030842206
222	0x3b963147	0.004583511
223	0x3db903a7	0.090339
224	0x3d13a475	0.03604551
225	0x3d83d880	0.064377785
226	0xbc560f4e	-0.013065172
227	0x3cf9da8a	0.030499715
228	0xbccf914c	-0.025337838
229	0x3d4c0763	0.049811732
230	0x3d67c71b	0.056586366
231	0x3d448e3c	0.047987208
232	0x3dbf2689	0.09333522
233	0xbd1f59ec	-0.038904116
234	0xbd1218e8	-0.035668284
235	0x3dd9324e	0.10605298
236	0x3d9de322	0.07709338
237	0x3d81aceb	0.063318096
238	0xbd7dd343	-0.061969053
239	0x3ca97c4e	0.020689156
240	0xbbe56dfb	-0.007001636
241	0x3dad9a95	0.0847675
242	0xbb99a1ec	-0.004688492
243	0x3da219be	0.07915066
244	0x3d3d320f	0.046190318
245	0xbbc8839c	-0.0061192047
246	0xbd0400d1	-0.03222734
247	0x3dcce29a	0.10004158
248	0xbd390ecf	-0.04518014
249	0xbcbac399	-0.022798346
250	0xbd39f7aa	-0.045402206
251	0xbd40979f	-0.047019597
252	0x3da6f85a	0.08152838
253	0x3db0e55a	0.08637495
254	0xbb88aeb7	-0.0041712183
255	0x3dc748fc	0.097307175

lstm.weight_hh_l0 f4 [512, 128]
0	0xbd8b8269	-0.06811983
1	0x3be99ee1	0.0071295355
2	0x3d84ac16	0.06478135
3	0x3da6f5b3	0.08152332
4	0xbd93c5c7	-0.072154574
5	0xbd3a883f	-0.04554009
6	0x3dbd9015	0.09255997
7	0xbd11a0cc	-0.03555374
8	0x3dcbd374	0.09952441
9	0x3dd268b3	0.10273876
10	0xbdb20a01	-0.08693314
11	0x3ca5a34e	0.020219471
12	0xbd7c6ce8	-0.0616273
13	0xbcc9cac7	-0.024632825
14	0x3d80f793	0.06297221
15	0x3d57f23c	0.052721247
16	0xbc01531b	-0.007893349
17	0xbd2d16f4	-0.042258218
18	0xbcdaac2d	-0.026693428
19	0x3dac79c9	0.08421666
20	0x3ce1367b	0.027491799
21	0x3c285fc7	0.010276741
22	0xbc8d9e21	-0.017287316
23	0x3da854a7	0.08219271
24	0xbb5a7398	-0.003333306
25	0xbdc5e634	-0.096630484
26	0x3d8cffd9	0.068847366
27	0x3cdd79ce	0.02703562
28	0x3cbec8a1	0.023289027
29	0xbcde2d53	-0.027121222
30	0x3db03917	0.08604639
31	0x3d53e38b	0.051730674
32	0xbd017ac4	-0.03161122
33	0x3d57906f	0.052627977
34	0x3d203fd6	0.03912338
35	0xbd18c313	-0.037295412
36	0x3d158275	0.036501367
37	0xbd025bf2	-0.031825967
38	0xbce0be48	-0.027434483
39	0xbd198e8d	-0.037489463
40	0x3ccaf80b	0.02477648
41	0x3d2aca74	0.04169698
42	0x3c60bf7b	0.0137175275
43	0x3c6cd1dd	0.014454332
44	0x3dcfaa9a	0.101399615
45	0x3db23493	0.08701434
46	0xbdbc081f	-0.091812365
47	0x3d21da72	0.039514966
48	0x3d249c7d	0.0401883
49	0x3c036606	0.00801993
50	0x3bacbd66	0.0052716015
51	0x3d1c0dd5	0.03809913
52	0x3dab6375	0.08368579
53	0xbd20b0ed	-0.03923123
54	0x3d86c4f8	0.065805376
55	0x3d75d8d7	0.060021248
56	0xbcbde6ec	-0.023181401
57	0x3d9e57e4	0.077316076
58	0xbd2540fb	-0.040345173
59	0x3c93b65e	0.018031295
60	0xbd973c83	-0.073845886
61	0x3d2425c4	0.04007508
62	0xbcc0a473	-0.023515915
63	0xbdd175c9	-0.10227544
64	0x3d079ea4	0.033110276
65	0x3d2521ca	0.040315427
66	0x3c612a49	0.013742992
67	0x3d9ff442	0.0781026
68	0x3d4780aa	0.048706688
69	0x3d31e64b	0.043432515
70	0xbd5a85ef	-0.053350385
71	0x3c37761c	0.011197593
72	0xbc256eec	-0.010097247
73	0xbdab1d0d	-0.0835515
74	0x3d7cccca	0.06171874
75	0xbd02ae1f	-0.031904336
76	0xbd749f9f	-0.05972254
77	0xbda2657c	-0.07929513
78	0xbc86bf95	-0.016448775
79	0xbd814bf0	-0.06313312
80	0x3d3b548c	0.045734927
81	0xbd07c7a9	-0.033149395
82	0x3b7ac6dd	0.0038265504
83	0x3d9e77f7	0.07737725
84	0xbdcb5b96	-0.09929578
85	0x3d1599df	0.036523696
86	0x3d229c10	0.039699614
87	0xbcc232ee	-0.023705926
88	0x3cbcfd0f	0.023069886
89	0xbda5b26d	-0.08090673
90	0xbd8954a1	-0.06705595
91	0xbc2ea0d3	-0.010658461
92	0xbd8af1e9	-0.06784422
93	0x3d88e1dd	0.06683705
94	0x3da43a68	0.080189526
95	0xbca43cef	-0.020048587
96	0x3a443364	0.00074844644
97	0xbd1e6e2f	-0.038679298
98	0xbc3770b8	-0.011196308
99	0x3d6b645d	0.05746876
100	0xbd3c138e	-0.045917086
101	0x3cb9c6b9	0.022677766
102	0x3dc5e0ea	0.096620396
103	0x3c296cf9	0.0103409225
104	0x3c629d81	0.013831497
105	0xbdd28935	-0.102800764
106	0x3d460b54	0.048350647
107	0x3cbfcc04	0.023412712
108	0x3d616e9d	0.05503713
109	0xbae5a5db	-0.0017520742
110	0xbc1bd5b9	-0.009511405
111	0xbb7ee470	-0.0038893484
112	0xbd38b132	-0.04509086
113	0x3d9668bc	0.07344195
114	0x3c14e23e	0.0090871435
115	0xbd6b272d	-0.057410408
116	0x3b926fb0	0.0044688806
117	0xbc0f7106	-0.008754974
118	0x3c1c3628	0.009534396
119	0xbbb95618	-0.005656015
120	0x3cdab54f	0.026697783
121	0xbdd852a3	-0.10562637
122	0xbc4a9b05	-0.012366061
123	0xbc132511	-0.008981005
124	0x3d85277a	0.0650167
125	0xbcd7d490	-0.026346475
126	0x3c67dc2a	0.014151612
127	0x3d995ade	0.07488035
128	0x3cb9ed19	0.022696065
129	0xbdb37fe4	-0.087646276
130	0x3d2c53bd	0.042072047
131	0xbca671e2	-0.020317975
132	0xbcdaa723	-0.026691025
133	0xbc601af7	-0.013678304
134	0x3dc8b6b7	0.09800475
135	0xbd97e3a3	-0.07416465
136	0x3da133c2	0.078712
137	0xbd94d256	-0.07266681
138	0x3cb3bda9	0.021941023
139	0xbc03af8f	-0.008037462
140	0xbd08267c	-0.033239827
141	0xbd0e4239	-0.034731124
142	0xbd226464	-0.03964652
143	0x3dc2a889	0.09504802
144	0x3d5ff86c	0.054680273
145	0xbc3af8f0	-0.01141189
146	0x3c8e7576	0.017389994
147	0x3d87c7b2	0.06629886
148	0xbca17208	-0.019707695
149	0xbd7676dd	-0.06017195
150	0x3cf27fd6	0.029601973
151	0x3c8b94ff	0.01703882
152	0xbdaf1f38	-0.085508764
153	0x3c9c52df	0.019082485
154	0x3a36f9d3	0.0006979976
155	0xbdd589f0	-0.104267
156	0x3dcda206	0.10040669
157	0xbb481f59	-0.0030536263
158	0x3cdfa0ca	0.02729835
159	0x3d1a832d	0.037722755
160	0xbdbf5bf2	-0.09343709
161	0xbd03687f	-0.032082077
162	0x3d5f4380	0.054507732
163	0x3d1c543d	0.038166273
164	0x3d035ccc	0.03207092
165	0xbd754022	-0.059875615
166	0xbd9eccc1	-0.077538975
167	0xbcecc0bf	-0.028900502
168	0xbc943a5d	-0.018094236
169	0x3c373b79	0.011183613
170	0x3d638c14	0.05555351
171	0x3d0fdb2d	0.03512113
172	0x3dba0400	0.09082794
173	0x3d368478	0.044559926
174	0xbd8f68d3	-0.070024155
175	0xbd1ca89f	-0.038246747
176	0xbd5efa1a	-0.054437734
177	0xbddea9e8	-0.10872251
178	0x3de79f69	0.11309702
179	0x3cd52c3b	0.026022067
180	0xbcaddb04	-0.021222599
181	0x3d5eb6c8	0.054373533
182	0xbcd8ea64	-0.026478954
183	0x3d94e173	0.072695635
184	0x3b7ed9aa	0.0038887062
185	0xbd7fc2a9	-0.0624415
186	0x3d35c985	0.044381637
187	0x3caca844	0.021076329
188	0xbda5247d	-0.080636
189	0x3c6dc348	0.014511891
190	0xbdb5ed03	-0.08883097
191	0xbdd875c9	-0.10569341
192	0x3d53379d	0.05156671
193	0x3d72ea75	0.059305627
194	0x3c1cc169	0.009567597
195	0xbd57833a	-0.05261538
196	0xbcfb78ed	-0.03069731
197	0xbdba3343	-0.09091809
198	0x3cb4300b	0.021995565
199	0x3dc47013	0.09591689
200	0x3ccac2c0	0.024751067
201	0xbdb24ec7	-0.08706432
202	0xbc03ab10	-0.00803639
203	0x3d31db10	0.043421805
204	0x3a86dfd3	0.0010290093
205	0xbd0a0909	-0.033700023
206	0xbd7afaad	-0.06127422
207	0x3cd0c48e	0.02548435
208	0x3d50103e	0.05079674
209	0xbde02493	-0.10944476
210	0x3ca03e1d	0.019560868
211	0x3da330f9	0.07968325
212	0x3d0d02c3	0.034426462
213	0xbc86f8e5	-0.016476104
214	0xbd744312	-0.059634276
215	0xbc7866a3	-0.015161189
216	0xbcee18d6	-0.029064577
217	0xbdbb39fe	-0.091419205
218	0xbb7f6556	-0.0038970313
219	0x3b5c6b59	0.003363332
220	0xbda8ca28	-0.08241683
221	0xbca8ccc9	-0.020605462
222	0xbd367116	-0.04454144
223	0xbd73b406	-0.059497856
224	0xbbf8e54f	-0.007595695
225	0x3ba39516	0.0049921377
226	0xbd334ebc	-0.04377626
227	0xbd5606ed	-0.0522527
228	0x3ca4ce25	0.020117829
229	0x3ccc2a78	0.024922594
230	0x3dd74e4b	0.1051298
231	0x3d4f5e32	0.05062694
232	0x3c641680	0.01392138
233	0xbc600524	-0.013673101
234	0x3d69b476	0.057056867
235	0x3cabd0d8	0.020973608
236	0x3c549140	0.012974083
237	0x3d7c5ef1	0.06161398
238	0x3d43c06b	0.047790926
239	0xbd28082f	-0.04102343
240	0x3d08c2ff	0.033389088
241	0xbc8c46b4	-0.017123558
242	0xbc97e9d7	-0.01854412
243	0xbd6cc443	-0.057804357
244	0x3d028bce	0.03187161
245	0x3dbc9a83	0.09209158
246	0xbd671979	-0.056420777
247	0x3dd37842	0.10325672
248	0x3bec6a01	0.007214785
249	0xbce0747e	-0.027399298
250	0xbdcf0063	-0.10107496
251	0x3d42ec6a	0.047588743
252	0x3c86a3bb	0.016435495
253	0x3dc84f42	0.09780742
254	0x3dc26433	0.09491768
255	0x3cac42ff	0.02102804

lstm.bias_ih_l0 f4 [512]
0	0x3d81add2	0.06331982
1	0xbcac9d9b	-0.021071246
2	0xbd02d731	-0.031943504
3	0xbc8f8336	-0.017518621
4	0x3ddff520	0.10935426
5	0x3c8e6d1b	0.01738601
6	0xbcbc831a	-0.023011733
7	0xbcb080e8	-0.021545842
8	0x3d02010a	0.031739272
9	0xbd691a86	-0.05691006
10	0x3c9076e4	0.017634816
11	0x3bc85b4c	0.006114399
12	0xbd15e31b	-0.036593538
13	0x3d3ae0ea	0.04562465
14	0x3d80e219	0.06293125
15	0xbcb9bff2	-0.022674534
16	0x3d557700	0.05211544
17	0x3d64910a	0.055802383
18	0x3d2ad849	0.04171017
19	0x3ce911f6	0.028450947
20	0x3ddd3c28	0.108024895
21	0x3d5f0de8	0.05445662
22	0x3d30f94f	0.04320651
23	0x3d760dfb	0.060071927
24	0xbd212b74	-0.03934808
25	0x3c52db8e	0.012869729
26	0x3d31cba7	0.04340711
27	0x3d820334	0.06348267
28	0xbc6f35e7	-0.014600254
29	0x3d54834f	0.051883038
30	0x3dab7a22	0.08372904
31	0x3d5d2eab	0.053999584
32	0x3c04fc08	0.00811673
33	0xbae3e345	-0.0017386457
34	0x3dab016b	0.0834988
35	0x3d43b794	0.047782496
36	0x3ba3bcbc	0.004996864
37	0xbcacd5be	-0.021098014
38	0x3d3ec4e2	0.04657448
39	0xbcbd4fd2	-0.02310935
40	0x3d8d347b	0.068947755
41	0x3d8fb491	0.07016862
42	0x3cbd8e17	0.023139043
43	0x3d035a7d	0.03206872
44	0x3be77a11	0.007064112
45	0x3d8d13e0	0.068885565
46	0x3d87cc88	0.06630808
47	0xba1ce2f7	-0.0005984748
48	0x3de49f63	0.11163213
49	0x3c49294d	0.012277913
50	0x3db63b1f	0.08897995
51	0x3cbf6595	0.023363868
52	0x3dd0baff	0.10191917
53	0xbd5bbb46	-0.053645395
54	0x3cd58c1e	0.02606779
55	0x3dd38703	0.10328486
56	0x3d4623fc	0.04837416
57	0x3bb4eb2f	0.0055212
58	0xbd2af80b	-0.04174046
59	0x3ddfa66e	0.10920416
60	0x3d370b29	0.044688378
61	0xbd372d0b	-0.04472069
62	0xbd36de3e	-0.04464554
63	0xbcb663bf	-0.02226436
64	0xbd2c1bb4	-0.042018607
65	0x3d21867d	0.0394349
66	0x3dd2666d	0.102734424
67	0x3d3a6773	0.045508813
68	0x3d4c42de	0.049868457
69	0x3b2c73e8	0.0026314203
70	0xbceee341	-0.029161097
71	0xbd308c9b	-0.04310284
72	0x3d7130cb	0.058884423
73	0x3d7fc83a	0.06244681
74	0xbc2ef2a2	-0.010677965
75	0xbd0ddddd	-0.034635413
76	0x3d9bcb27	0.076071076
77	0x3de0e838	0.10981792
78	0x3d2c3cc0	0.042050123
79	0xbd558fe5	-0.05213918
80	0xbc87ced4	-0.016578116
81	0x3cf53f25	0.029937336
82	0x3d4506ac	0.048102066
83	0x3d8bb1e7	0.068210416
84	0x3d06dd55	0.032925922
85	0x3c84025c	0.016114406
86	0x3d6e7e41	0.058225874
87	0xbce75ec5	-0.028243432
88	0x3ca977e3	0.02068705
89	0x3d13a143	0.036042463
90	0xbd775d1f	-0.06039154
91	0x3b88b383	0.00417179
92	0x3d3f8d7c	0.04676579
93	0x3da827e8	0.082107365
94	0x3d1a0649	0.03760365
95	0x3cada32c	0.02119597
96	0xbc22136f	-0.009892329
97	0x3c025383	0.007954481
98	0x3d63f744	0.055655733
99	0xbd3c7e42	-0.046018846
100	0x3cffcd41	0.031225802
101	0x3d2f7f21	0.04284585
102	0xbcda1800	-0.026622772
103	0x3d9672ba	0.07346101
104	0x3dbb4ebd	0.091458775
105	0xbccfac89	-0.025350826
106	0x3d848289	0.0647021
107	0x3d034554	0.03204854
108	0x3dcc636f	0.09979903
109	0x3dcbef51	0.09957755
110	0xbcbffb50	-0.023435265
111	0x3cb0ef83	0.021598583
112	0x3d8c9f0e	0.06866275
113	0xbc575015	-0.013141652
114	0x3daf519b	0.08560487
115	0x3d449301	0.047991756
116	0x3db78d7e	0.08962534
117	0x3dac6eb6	0.08419554
118	0xbc8d8701	-0.017276289
119	0x3d17fb3d	0.037104834
120	0x3da36614	0.07978454
121	0x3d96632d	0.07343135
122	0xbc5af486	-0.013363963
123	0x3d67dcfd	0.056607235
124	0x3dc434d0	0.09580386
125	0xbd7fb0c9	-0.062424455
126	0x3b11ab0c	0.0022227196
127	0xbced44e0	-0.028963506
128	0xbcd5afe5	-0.02608485
129	0x3dc635d1	0.096782334
130	0x3c49331b	0.012280251
131	0xbd0285a5	-0.031865735
132	0x3c18861b	0.009309317
133	0xbd1e6edd	-0.038679946
134	0x3dd48dfe	0.10378645
135	0xbd0c5e1b	-0.034269433
136	0xbd22f868	-0.03978768
137	0x3b895715	0.004191289
138	0x3d2bd04f	0.041946705
139	0xbcb79a76	-0.02241252
140	0xbd19795e	-0.03746926
141	0x3c541ad5	0.01294585
142	0x3dcbdfac	0.099547714
143	0x3de1bd39	0.110224195
144	0x3dbd4526	0.09241705
145	0x3d564a7c	0.052317128
146	0x3d0d4a64	0.034494773
147	0x3dac3755	0.08408991
148	0xbd44fdd6	-0.04809364
149	0x3dcde300	0.100530624
150	0x3acd0e4f	0.0015644523
151	0xbbf87691	-0.0075824936
152	0xbd558257	-0.052126255
153	0x3dba6d50	0.09102881
154	0xb829527d	-4.0369563e-05
155	0xbd830984	-0.06398299
156	0x3bad8c1e	0.0052962443
157	0x3dca8678	0.09888929
158	0x3dbdec67	0.09273606
159	0xbb2934d9	-0.0025818853
160	0x3c8b351f	0.016993104
161	0x3d47c890	0.048775256
162	0xbc710f5a	-0.014713133
163	0x3cc5be66	0.02413864
164	0x3dbc2c32	0.09188117
165	0x3db1a958	0.08674878
166	0x3d18aa8e	0.03727203
167	0x3dce39dd	0.1006963
168	0xbc59f5c0	-0.01330322
169	0x3d8f2071	0.069886096
170	0xbbba9a22	-0.0056946436
171	0x3d5af1aa	0.053453125
172	0x3daf489d	0.08558772
173	0xbd517a45	-0.051141996
174	0x3ca30f95	0.019904891
175	0xbc9158ad	-0.01774248
176	0x3c672938	0.014108948
177	0x3da8944c	0.082314104
178	0xbce410b7	-0.027840002
179	0x3d4f8c95	0.05067118
180	0x3d16247b	0.036655884
181	0xbd35714f	-0.044297513
182	0xbd44e19c	-0.04806672
183	0x3dcaed35	0.09908525
184	0xba0a56d6	-0.0005277222
185	0x3d7d8c96	0.06190165
186	0x3ce605cc	0.028078936
187	0x3d32d311	0.04365832
188	0xbc0f0856	-0.008730015
189	0x3dbf6e8d	0.09347258
190	0x3d879ba5	0.06621484
191	0x3dbdf2f3	0.092748545
192	0x3cd1dc8a	0.025617857
193	0x3d1bc1ca	0.03802661
194	0x3dcb4b09	0.09926421
195	0x3d1732d5	0.03691371
196	0xbd8d2aa9	-0.068929024
197	0x3db44e86	0.0880404
198	0xbc94c97a	-0.018162478
199	0x3d265561	0.040608767
200	0x3dc6ab14	0.09700599
201	0x3d1f43a0	0.03888285
202	0xbd7b5b38	-0.06136629
203	0x3d954055	0.07287661
204	0xbcbd7a67	-0.023129655
205	0xbc9a1b5b	-0.018811872
206	0x3d90424b	0.070438944
207	0x3c89e79b	0.01683407
208	0xbd41b477	-0.047291245
209	0xbca89847	-0.020580424
210	0x3bea146a	0.007143547
211	0x3dcf20c8	0.101136744
212	0xbd73bf58	-0.05950865
213	0x3d2d9eab	0.042387646
214	0x3d0f3ec4	0.034971967
215	0xbb8d9ce3	-0.004321681
216	0x3de1f0a8	0.1103223
217	0x3d52c5b7	0.051458087
218	0x3da06b91	0.07833017
219	0x3d2af7db	0.04174028
220	0xbd6cf7f6	-0.05785366
221	0x3c3d73df	0.01156327
222	0xbd310d0d	-0.043225337
223	0x3cf559a3	0.029949969
224	0xbc86323f	-0.016381381
225	0x3d9e4e3f	0.07729768
226	0xbd4d1d85	-0.05007698
227	0xbcaddbd9	-0.021222996
228	0xbca35853	-0.019939577
229	0x3d277061	0.040878657
230	0xbd2beae8	-0.04197207
231	0x3d905b1b	0.07048627
232	0x3d8ba15c	0.06817886
233	0x3dcb3e51	0.09923995
234	0xbd8cee73	-0.06881418
235	0xbd669bd3	-0.05630095
236	0x3d04a0fc	0.03238009
237	0x3d665069	0.05622903
238	0x3d092a6b	0.03348772
239	0xbd7517da	-0.0598372
240	0x3d5bc66a	0.05365602
241	0x3dcd1ccf	0.100152604
242	0xbd255a33	-0.040369224
243	0x3ca4e655	0.020129362
244	0xbd495064	-0.049148932
245	0x3d0b37ab	0.033988636
246	0xbc23e6d0	-0.01000376
247	0xbd5b71bf	-0.053575274
248	0x3d2885c9	0.041143212
249	0x3d7da48c	0.061924502
250	0xbd541a88	-0.051783115
251	0x39293aa5	0.00016138943
252	0x3ddabbbd	0.106803395
253	0x3dc87926	0.09788732
254	0xbd076642	-0.033056505
255	0xbd2dd79d	-0.042441953

lstm.bias_hh_l0 f4 [512]
0	0xbd0f045d	-0.03491627
1	0xbd6b758b	-0.057485145
2	0xbcb6ba39	-0.022305595
3	0xbb987baf	-0.004653416
4	0xbd4ddc7e	-0.050259106
5	0xbc820d84	-0.015875585
6	0xbcec856f	-0.02887222
7	0x3d3248d6	0.043526493
8	0x3d8dd79d	0.069258906
9	0x3ce5e19e	0.028061684
10	0x3c9ceba8	0.019155338
11	0xbd5ec7f9	-0.054389928
12	0xbd18de7f	-0.037321564
13	0x3d33de82	0.04391337
14	0x3ca1e2cc	0.019761465
15	0xbc9fae18	-0.019492194
16	0x3d4e52c8	0.050371915
17	0x3dd421a6	0.103579804
18	0xbaeb4938	-0.0017950898
19	0x3cb7f75e	0.022456821
20	0x3db4d5c8	0.08829838
21	0xbd65697b	-0.056008797
22	0x3d1042c6	0.03521993
23	0xbd88ae40	-0.066738605
24	0x3db19488	0.08670908
25	0xbcf433ad	-0.029809797
26	0x3d68b00d	0.05680852
27	0x3d8219ca	0.06352575
28	0xbd224b5e	-0.039622657
29	0x3dd60982	0.10451032
30	0x3d4c8dca	0.049939908
31	0xbd65f8f3	-0.05614562
32	0x3ad5ad54	0.0016302266
33	0x3bf937ad	0.007605514
34	0x3dc565ef	0.09638583
35	0xbd6682ca	-0.056277074
36	0x3dca6aef	0.09883677
37	0x3d37d99d	0.044885267
38	0xbce612d9	-0.02808516
39	0xbcf4d159	-0.029884981
40	0x3d9ccf16	0.07656686
41	0x3d145d01	0.036221508
42	0xbcd8260a	-0.026385326
43	0xbd743884	-0.05962421
44	0x3c435e39	0.01192432
45	0xbd7aed4c	-0.06126146
46	0x3cff2c61	0.031149091
47	0xbbd58fd4	-0.00651739
48	0x3d2db04b	0.042404454
49	0x3dcc48e5	0.09974841
50	0x3b2ccf4a	0.002636867
51	0xbd27b353	-0.0409425
52	0x3d651805	0.05593111
53	0xbc8c2708	-0.017108455
54	0x3d935dce	0.07195626
55	0x3d79d62f	0.060995277
56	0x3d2bfeb4	0.04199095
57	0xbd3c5616	-0.045980535
58	0x3d25c1db	0.040468078
59	0x3d9b290a	0.07576187
60	0xbc98af92	-0.018638406
61	0x3d1f0cfc	0.038830742
62	0xbaf346eb	-0.0018560564
63	0xbcd3fb7c	-0.025876753
64	0x3be257a3	0.00690742
65	0xbc3849c5	-0.011248057
66	0x3d30756b	0.04308073
67	0x3cb09bb1	0.021558614
68	0x3d308fc0	0.04310584
69	0x3d22429a	0.039614297
70	0x3d666d21	0.056256417
71	0xbc345457	-0.011006436
72	0xbd228331	-0.039675895
73	0x3d6a4538	0.05719492
74	0x3d85f536	0.06540911
75	0x3cb45396	0.022012513
76	0x3da6a77b	0.08137413
77	0xbd259fda	-0.04043565
78	0xbc723172	-0.0147822965
79	0xbc8f8cc1	-0.017523171
80	0xbd47af4b	-0.048751157
81	0x3dcbb44e	0.099465
82	0x3dd0ba05	0.101917304
83	0xbd749dff	-0.05972099
84	0xbd16fe91	-0.036863867
85	0x383c437a	4.4885535e-05
86	0x3d8d551c	0.06900999
87	0xbbf7b7ab	-0.0075597367
88	0x3d60494e	0.05475741
89	0xbcd3742d	-0.025812233
90	0xbcd00abb	-0.025395742
91	0x3cc2d043	0.023780948
92	0x3dc590c4	0.096467525
93	0xbd5189e5	-0.051156897
94	0x3d0aded2	0.033903904
95	0x3d2f214f	0.042756375
96	0xbc9efa6f	-0.019406525
97	0x3d4f92e2	0.050677188
98	0xbd2ece01	-0.04267693
99	0x3d483eea	0.048888125
100	0xbcab17a6	-0.0208853
101	0xbc4d1619	-0.0125174755
102	0xbce544f5	-0.027986983
103	0x3dbf8c7c	0.09352967
104	0x3c04bfbe	0.0081023555
105	0x3d98aeab	0.0745519
106	0x3da13a5f	0.078724615
107	0x3bacbbd0	0.0052714124
108	0x3cef7f56	0.029235523
109	0x3d5e98c1	0.054344896
110	0x3dd28fd6	0.10281341
111	0xbd46c767	-0.04853001
112	0x3d429eb5	0.047514636
113	0x3cdfc320	0.027314723
114	0x3d37b8db	0.044854026
115	0x3d978e43	0.07400181
116	0x3cb04ad0	0.021520048
117	0xbcf329a1	-0.029682936
118	0xbd41ff77	-0.04736277
119	0xbd614b3c	-0.05500339
120	0x3dae3b82	0.08507444
121	0xbd7cc162	-0.06170786
122	0xbb2bc2e0	-0.0026208684
123	0xbba49e71	-0.0050237705
124	0x3d7982c9	0.060915742
125	0x3dbd4628	0.09241897
126	0xbd971802	-0.07377626
127	0xbd54e00a	-0.051971473
128	0x3d38fe7f	0.04516458
129	0x3d2b9fe6	0.041900538
130	0xbd793f40	-0.060851336
131	0xbd860a39	-0.065449186
132	0x3d3c7b48	0.046016008
133	0x3c509be2	0.012732478
134	0x3bd8686a	0.006604244
135	0xbcb02736	-0.021503072
136	0x3d083288	0.033251315
137	0xbd8340f1	-0.06408871
138	0x3db5f711	0.08885015
139	0xbb93b893	-0.004508087
140	0x3d8dd86d	0.069260456
141	0xbd79b911	-0.06096751
142	0x3d86f6ce	0.06590043
143	0x3d394a9f	0.04523718
144	0xbd659961	-0.056054477
145	0x3d3c8635	0.046026427
146	0x3d48921f	0.048967477
147	0x3d17e68e	0.03708511
148	0x3db4a4aa	0.0882047
149	0xbb836d4b	-0.0040108315
150	0xbbb2d87a	-0.005457935
151	0xbc9e141f	-0.019296704
152	0x3dc9a9d6	0.09846847
153	0x3d22d534	0.039754108
154	0xbc7f07de	-0.0155658405
155	0x3d763a68	0.060114294
156	0xbd61e18b	-0.055146735
157	0xbd8b9230	-0.068149924
158	0xbbe3342e	-0.0069337105
159	0x3d8b10aa	0.06790288
160	0x3de11964	0.10991171
161	0xbd831174	-0.06399813
162	0xbd6fd61c	-0.0585538
163	0xba67d540	-0.00088437274
164	0xbd656642	-0.056005724
165	0x3dcaec8c	0.09908399
166	0xbd2b53d3	-0.041827988
167	0x3d5b68b2	0.053566642
168	0x3b5a03ae	0.0033266353
169	0x3c005516	0.007832786
170	0x3d2aae12	0.041669913
171	0xbca1ca1e	-0.019749697
172	0x3daa8b46	0.083273456
173	0xbd92622e	-0.071476325
174	0x3d894fe7	0.06704693
175	0xbcded2c2	-0.027200107
176	0x3dc2f0ae	0.09518562
177	0xbb9192c7	-0.004442546
178	0x3cebcf89	0.028785484
179	0xbd18dc64	-0.037319556
180	0xbcf23ac7	-0.029569043
181	0x3d201d33	0.039090347
182	0xbaecee74	-0.0018076436
183	0x3ccf013b	0.025269141
184	0xbc263b5a	-0.010145986
185	0xbd83bac9	-0.06432111
186	0x3d2d9f67	0.042388346
187	0x3d9443b3	0.07239475
188	0xbd73cb9a	-0.05952034
189	0x3d88c78c	0.066786855
190	0x3da58027	0.08081084
191	0x3c59692f	0.013269707
192	0x3d4d539f	0.050128575
193	0xbd1c1f95	-0.038116056
194	0x3d601230	0.054704845
195	0xbb119019	-0.0022211133
196	0x3c8e7c60	0.017393291
197	0x3d2eca2a	0.042673267
198	0x3c8b9143	0.01703704
199	0x3c9dd30a	0.01926567
200	0x3db5a448	0.08869225
201	0xbd0675db	-0.03282724
202	0xbd1040b9	-0.035217974
203	0x3d8d68b7	0.069047384
204	0xbd5b6991	-0.053567473
205	0x3c1bb790	0.009504214
206	0x3cc5df26	0.024154257
207	0x3d9ffcc9	0.07811887
208	0x3d3d824f	0.04626685
209	0xbd1c6bb9	-0.03818867
210	0x3d116032	0.03549213
211	0x3d877ee5	0.06616
212	0x3d84bd93	0.06481471
213	0x3d7b8a8f	0.061411437
214	0x3da00eb3	0.07815304
215	0xbd6907f0	-0.056892335
216	0x3d701242	0.058611162
217	0x3d5fe51c	0.054661855
218	0x3d495162	0.04914988
219	0xbd5f2901	-0.054482464
220	0xbc671d6d	-0.014106137
221	0xbd6dd26f	-0.058062013
222	0x3d934677	0.071911745
223	0x3ce50a3b	0.02795898
224	0x3d9ca364	0.07648352
225	0x3da92f0f	0.08260929
226	0x3d1bebac	0.03806655
227	0x3dd74587	0.10511308
228	0xbdb46349	-0.08808
229	0xbccdb224	-0.025109358
230	0x3cc4df6d	0.024032319
231	0xbd79c5dc	-0.06097971
232	0x3c48fad5	0.012266834
233	0xbcfb686a	-0.030689437
234	0x3d021d35	0.031766135
235	0xbd81aa3b	-0.06331297
236	0x3d06955a	0.032857276
237	0xbd7f3cb9	-0.06231377
238	0xbbd566a8	-0.0065124817
239	0xbd67116f	-0.05641311
240	0x3db2219a	0.08697815
241	0x3c99c202	0.018769268
242	0xbbde1c79	-0.0067782965
243	0x3d774efa	0.060378052
244	0x3cc88ab5	0.024480203
245	0x3d8a523e	0.06753968
246	0x3d8bf111	0.06833089
247	0xbce87242	-0.028374795
248	0x3b24a21e	0.0025121043
249	0xb9b68916	-0.00034815882
250	0xba4e02cb	-0.00078586926
251	0x3d0c2f3a	0.034224726
252	0x3d9dbeeb	0.0770243
253	0xbd51d4cf	-0.05122834
254	0x3d29d62b	0.041464012
255	0x3cc65943	0.024212485

lstm.weight_ih_l1 f4 [512, 128]
0	0x3d947334	0.07248536
1	0x3bce0140	0.00628677
2	0xbd584399	-0.05279884
3	0xbd36a932	-0.04459495
4	0x3c80bb15	0.015714208
5	0xbc7b3e01	-0.015334607
6	0x3964b34f	0.00021810572
7	0xbd655a2c	-0.055994198
8	0x3d7826b6	0.060583793
9	0xbd9a8794	-0.07545391
10	0xbd45231e	-0.048129193
11	0x3c8c2c50	0.017110974
12	0x3cb05f3d	0.021529788
13	0xbd96ba01	-0.07359696
14	0x3c836ddc	0.016043596
15	0xbd6587e3	-0.056037795
16	0x3c1dd7a9	0.009633937
17	0xbd1f8eb9	-0.03895447
18	0xbc4ab95d	-0.012373296
19	0x3d3d7b6f	0.046260294
20	0xbcb882f8	-0.022523388
21	0x3d7a9d1f	0.061185
22	0xbd91dc7b	-0.071221314
23	0x3d820999	0.06349487
24	0x3d919403	0.07108309
25	0xbd98de93	-0.07464328
26	0x3ccf3cf5	0.025297621
27	0xbcc6c52e	-0.024263944
28	0x3d2a65e9	0.041601095
29	0x3c6e7af2	0.01455568
30	0x3c88acff	0.016684053
31	0x3d82f84b	0.063950144
32	0xbd5628ec	-0.05228512
33	0x3d58716b	0.05284254
34	0xbd5714a4	-0.05250992
35	0x3d8dcf48	0.069243014
36	0xbd5d6d83	-0.054059517
37	0xbd22d4a3	-0.039753567
38	0xbd9305fc	-0.07178876
39	0xbd40fbef	-0.047115263
40	0xbd82a785	-0.06379608
41	0x3d77c768	0.060492903
42	0x3d2a1f38	0.04153368
43	0x3c0a6988	0.008448012
44	0xbce2bc99	-0.027677821
45	0xbca69ea2	-0.020339314
46	0x3cbb5254	0.022866406
47	0x3cc58230	0.02410993
48	0xbd00cf92	-0.031447954
49	0xbcc0e636	-0.023547273
50	0xbb8c1228	-0.0042746253
51	0xbc05962a	-0.008153478
52	0xbd3779d9	-0.044793937
53	0x3db4ffd9	0.088378616
54	0xbd6c0255	-0.05761941
55	0x3dcf7aec	0.10130867
56	0x3dcc41e2	0.09973504
57	0x3d9536e6	0.07285862
58	0xbd45736b	-0.048205774
59	0x3d8f1e15	0.069881596
60	0x3c6366d6	0.0138794985
61	0xbd4f9186	-0.05067589
62	0xbd858f55	-0.06521479
63	0xbcefafd0	-0.029258639
64	0x3d256630	0.040380657
65	0x3d7a8561	0.061162356
66	0xbc972c20	-0.018453658
67	0xbcbcf163	-0.02306432
68	0x3d2bb5fe	0.04192161
69	0xbb686228	-0.0035458896
70	0x3ce3ada6	0.027792763
71	0xbd476d99	-0.048688505
72	0xbcada29b	-0.0211957
73	0xbdd04a0a	-0.10170372
74	0xbc337ced	-0.010955078
75	0xbd2011f2	-0.039079614
76	0x3d090804	0.03345491
77	0x3d6f9660	0.05849302
78	0x3c85cc33	0.016332721
79	0xbd1f2d74	-0.038861707
80	0xbb83d6c0	-0.004023403
81	0xbd2490b6	-0.04017707
82	0xbcce8c8a	-0.025213499
83	0x3d843383	0.064551376
84	0x3c9ec196	0.019379418
85	0x3d04cc00	0.032421112
86	0x3bd5ae6c	0.006521037
87	0xbdb1ebbb	-0.0868754
88	0x3d9c7178	0.0763883
89	0x3d2da5e9	0.042394552
90	0xbc9bf2bb	-0.019036641
91	0xbc8f4f48	-0.017493859
92	0x3c959ea8	0.01826413
93	0xbc47aca7	-0.01218716
94	0x3ccb559e	0.024821099
95	0x3d45ae03	0.048261654
96	0x3cebe7c1	0.028797032
97	0x3dd7b154	0.105318695
98	0x3c96d63d	0.018412704
99	0xbd018c61	-0.031628016
100	0xbc9ff5a0	-0.019526303
101	0x3cde96ea	0.02717157
102	0xbbd2af28	-0.0064295717
103	0xbd09a319	-0.033602808
104	0x3c01ce0c	0.007922661
105	0xbcbcea16	-0.02306084
106	0xbdcf1283	-0.10110953
107	0xbd34a46f	-0.04410213
108	0xbd08b554	-0.033376053
109	0xbdb30928	-0.08741981
110	0xbd846551	-0.06464637
111	0xbd2e4147	-0.042542722
112	0x3cfc752d	0.030817593
113	0xbc6b6b12	-0.014368789
114	0x3c8358be	0.016033527
115	0x3c0eb76c	0.008710723
116	0xbd2621a9	-0.040559445
117	0x3d3bcc8e	0.045849375
118	0xbcdc5e16	-0.026900332
119	0xbd31a2c7	-0.043368127
120	0x3db16fee	0.08663927
121	0xbdb8b14f	-0.09018194
122	0xbaf1898e	-0.0018427835
123	0xbcc21faf	-0.023696749
124	0x3c04415e	0.008072225
125	0x3c8be969	0.017079072
126	0x3d0b95dc	0.034078464
127	0xbcdfec0c	-0.027334236
128	0xbcf11b24	-0.029431887
129	0x3c77b59e	0.0151189845
130	0xbd49166d	-0.049093653
131	0x3db6c84e	0.08924924
132	0x3cd91e36	0.026503664
133	0xbce106d7	-0.027469082
134	0x3d254f00	0.040358543
135	0x3c9d9f6d	0.01924106
136	0x3d5db0ec	0.054123804
137	0xbd8b10ce	-0.067903146
138	0x3d332f49	0.043746267
139	0xbd8b8254	-0.068119675
140	0xbc6bf0a7	-0.014400638
141	0xbca7cbbd	-0.020482892
142	0x3d2eb39c	0.042651758
143	0x3d8221c6	0.06354098
144	0x3d8a1be5	0.06743602
145	0x3d549366	0.051898383
146	0xbd3a3569	-0.045461092
147	0xbccbb209	-0.024865167
148	0xbd809d5c	-0.06280014
149	0xbd0fe0fc	-0.03512667
150	0x3d7826d7	0.060583916
151	0xbcf11d24	-0.02943284
152	0xbdcaf1fc	-0.09909436
153	0xbd8ff264	-0.07028654
154	0xbd7df8de	-0.062004916
155	0x372473ff	9.802169e-06
156	0x3ca45346	0.02005924
157	0x3db38267	0.08765107
158	0x3c8b2090	0.0169833
159	0x3d13f543	0.03612257
160	0xbd26742b	-0.04063813
161	0xbc3463ee	-0.011010153
162	0x3d8ac03f	0.06774949
163	0x3d824609	0.063610144
164	0x3c79f379	0.015255802
165	0x3d6beb80	0.057597637
166	0x3d8a37bb	0.06748911
167	0x3c596ff8	0.013271324
168	0x3d5c8b4a	0.053843774
169	0xbc871f33	-0.01649437
170	0xbc0d7c77	-0.008635632
171	0x3d5c8bfc	0.053844437
172	0x3d1b094c	0.037850663
173	0xbca8d1ad	-0.020607794
174	0x3b840346	0.0040287105
175	0xbd34e175	-0.044160325
176	0x3d945828	0.07243377
177	0xbcee8d80	-0.029120207
178	0x3dc088fe	0.09401129
179	0xbcb90f73	-0.022590375
180	0xbd095fdd	-0.033538688
181	0x3d92636b	0.07147869
182	0xbcb6e01b	-0.022323659
183	0xbd8385e7	-0.06422024
184	0x3c476171	0.012169228
185	0xbc365db6	-0.011130741
186	0xbdcf4007	-0.10119634
187	0x3d95df9f	0.07318043
188	0xbca14384	-0.019685514
189	0x3da09cd2	0.07842411
190	0xbc97be4c	-0.018523358
191	0xbdd02298	-0.10162848
192	0x3d47875f	0.048713084
193	0xbd280751	-0.041022602
194	0x3d99937b	0.07498833
195	0x3c1c94c1	0.00955695
196	0xbc89bb98	-0.016813084
197	0xbdbe5ecc	-0.09295425
198	0xbd46c10d	-0.04852395
199	0xbd775621	-0.060384873
200	0xbd1a49de	-0.0376681
201	0x3d7690ac	0.060196564
202	0xbc30d0c1	-0.010791958
203	0xbad5ecbf	-0.0016321166
204	0xbd230e34	-0.039808467
205	0xbd944f58	-0.07241696
206	0xbcc6a892	-0.024250302
207	0xbd9ce9e3	-0.07661798
208	0x3ca65803	0.02030564
209	0xbdce067b	-0.1005983
210	0xbb14ecd1	-0.0022724161
211	0x3dd5f190	0.10446465
212	0xbba87427	-0.0051407996
213	0xbd5048f3	-0.05085082
214	0x3d9c9489	0.07645518
215	0x3c1fd7f5	0.009756078
216	0xbd3253da	-0.043537
217	0xbcf8325f	-0.030297456
218	0x3c394f94	0.011310477
219	0x3dcbd903	0.09953501
220	0xbdaecea2	-0.08535506
221	0xbd3ad3e5	-0.045612235
222	0xbd644cde	-0.05573737
223	0x3d7d72ba	0.06187699
224	0x3d3b9c6f	0.045803484
225	0x3dd5ec9f	0.104455225
226	0xbd848e3c	-0.064724416
227	0x3d852cf5	0.065027155
228	0xbc88f603	-0.01671887
229	0xbd0f4a8c	-0.034983203
230	0xbd81df67	-0.06341439
231	0x3c24e265	0.010063742
232	0xbcae749c	-0.021295838
233	0xbd062977	-0.032754388
234	0xbd4732b0	-0.048632324
235	0x3d5c231b	0.053744417
236	0x3ca8fed4	0.020629324
237	0x3bd52b55	0.0065054097
238	0x3d86405a	0.06555243
239	0xbc288691	-0.010285989
240	0xb92df6c5	-0.00016590494
241	0x3c800ade	0.015630182
242	0xbd899714	-0.06718269
243	0xbdb6b050	-0.08920348
244	0xbc2360a3	-0.00997177
245	0x3dc54858	0.09632939
246	0x3d9458b9	0.07243485
247	0xbbaf9057	-0.005357783
248	0xbd8341f8	-0.06409067
249	0x3a8823cf	0.0010386648
250	0x3d7e5d16	0.062100492
251	0x3cc260ed	0.023727858
252	0xbdbe7301	-0.09299279
253	0xbd326fb3	-0.043563556
254	0xbd809d32	-0.062799826
255	0x3dbd798f	0.09251701

lstm.weight_hh_l1 f4 [512, 128]
0	0x3d9882d7	0.07446831
1	0x3c29d90b	0.0103666885
2	0x3c2fdd69	0.010733941
3	0x3d7a20e0	0.06106651
4	0xbb94b011	-0.0045375903
5	0xbbb610ee	-0.0055562174
6	0xbbe75bcc	-0.0070605036
7	0xbd8c9c01	-0.06865693
8	0x3c354eef	0.0110661825
9	0xbd386395	-0.045016844
10	0xbd7d30dd	-0.061814178
11	0x3d815d39	0.06316609
12	0xbd273bc3	-0.040828478
13	0x3c4b61ce	0.012413455
14	0xbd5bd36e	-0.053668432
15	0x3d359888	0.04433492
16	0xb9cf950d	-0.00039593168
17	0xbdb9bd40	-0.090693
18	0x3c86dc44	0.016462453
19	0x3b860a13	0.0040905564
20	0x3c906310	0.017625362
21	0xbb79a12a	-0.0038090446
22	0xbd83d458	-0.06436986
23	0xbd6db39b	-0.058032613
24	0x3cb18191	0.021668227
25	0xbd179f0a	-0.037016906
26	0x3cdea2eb	0.027177295
27	0xbca5fa8a	-0.020261068
28	0x3ca2a5d3	0.019854462
29	0xbdd3acab	-0.10335668
30	0x3da40b13	0.08009925
31	0xbd8225a8	-0.063548386
32	0xbd59c725	-0.053168435
33	0x3c229557	0.009923301
34	0xbcc5ecf4	-0.02416084
35	0xbc91dbf9	-0.017805086
36	0xbce2cb0b	-0.027684709
37	0x3cd81881	0.026378872
38	0xbcc12e12	-0.023581538
39	0xbdc5af52	-0.0965258
40	0xbc9bdc04	-0.01902581
41	0xbc8af7f2	-0.016963933
42	0x3d995497	0.07486837
43	0xbd6aa74a	-0.057288446
44	0x3c39aa10	0.01133205
45	0x3dc7c9ef	0.09755313
46	0xbd2d54d0	-0.04231721
47	0x3dc7f593	0.097636364
48	0x3c645d99	0.013938331
49	0xbd74d4b1	-0.05977315
50	0xbc30e62b	-0.010797064
51	0x3d37571f	0.04476082
52	0xbcea39e3	-0.028592056
53	0xbda280ec	-0.07934746
54	0x3da26056	0.07928531
55	0xbd5d93ce	-0.054096036
56	0xbd7f53cc	-0.062335774
57	0x3d923a3d	0.07140014
58	0x3d2b8d7a	0.04188297
59	0x3db6f4fe	0.08933447
60	0xbdccc361	-0.09998203
61	0xbcbf0439	-0.023317443
62	0xbcc8bc4f	-0.024503855
63	0x3b8bbc21	0.00426437
64	0xbd41f3ee	-0.04735177
65	0xbd81739d	-0.063208796
66	0xbd7a9c5e	-0.06118428
67	0xbdbce2e3	-0.09222963
68	0x3cb90411	0.022584947
69	0xbd420285	-0.047365684
70	0xbcca3039	-0.024681197
71	0xbba0ef32	-0.004911327
72	0x3ba5d587	0.005060855
73	0x3daa6855	0.08320681
74	0xbd901bcf	-0.07036554
75	0x3da419c5	0.08012728
76	0xbdb7d79b	-0.0897667
77	0xbd82b43e	-0.06382035
78	0x3d00f678	0.03148505
79	0xbd99c371	-0.075079806
80	0x3dc69788	0.09696871
81	0x3c54fdf4	0.013
82	0xbceff51c	-0.029291682
83	0xbaa8e417	-0.0012885359
84	0xbd640222	-0.055666097
85	0x3d49aa98	0.049234957
86	0xbd77a26b	-0.06045763
87	0xbd9c831d	-0.076421954
88	0xbd4de5eb	-0.050268095
89	0x3d66bf87	0.056335
90	0xbc92e9e7	-0.017933799
91	0xbdac8ec9	-0.084256716
92	0xbdca276c	-0.098708004
93	0xbd3ed1fd	-0.04658698
94	0x3dace7ed	0.08442674
95	0x3d2b6d1f	0.041852113
96	0x3d2d2043	0.042267095
97	0x3da00830	0.07814062
98	0xbd462bb2	-0.048381515
99	0x3d421c2a	0.04739014
100	0x3d854cba	0.06508775
101	0xbcda06ca	-0.026614565
102	0xbd4b64dc	-0.049656734
103	0xbc51abda	-0.01279732
104	0x3d1f3325	0.038867135
105	0xbd55689b	-0.052101713
106	0xbcb6eb0f	-0.022328882
107	0xbd920d31	-0.07131422
108	0x3c3d6e79	0.011561983
109	0xbd7f961a	-0.062399007
110	0x3d643415	0.05571373
111	0xbd8f14f8	-0.06986421
112	0x3d44c0d5	0.04803546
113	0xbd1da468	-0.03848687
114	0xbd015e7c	-0.031584248
115	0xbcd1cb39	-0.0256096
116	0x3da9f4c0	0.082986355
117	0x3d1beafc	0.038065895
118	0xbdb97cb5	-0.09056989
119	0xbb6edaa7	-0.0036446245
120	0xbcdefcbb	-0.02722012
121	0xbb8ab8e4	-0.0042334665
122	0xbd3e88df	-0.04651725
123	0x3d92f1c3	0.07175019
124	0x3d87f365	0.06638221
125	0x3cae5a41	0.02128327
126	0xbd8421b3	-0.0645174
127	0xbda4ab58	-0.08040494
128	0xba9db65e	-0.0012032499
129	0xbcf98fb0	-0.030464023
130	0xbbed87f1	-0.0072488715
131	0xbdc7e55f	-0.09760546
132	0x3d79910b	0.06092934
133	0x3d157b31	0.036494438
134	0x3ccb9266	0.024850082
135	0x3d50cf4a	0.050978936
136	0x3db31745	0.08744673
137	0x3b40ff0e	0.00294489
138	0x3cebe8bc	0.0287975
139	0xb8aca00e	-8.2314116e-05
140	0x3d309fc9	0.043121133
141	0xbc29b1a9	-0.010357299
142	0xbd631748	-0.055442125
143	0xbcfe58e4	-0.031048246
144	0xbdda43c6	-0.10657458
145	0x3d8afff2	0.06787099
146	0x3d0e0a82	0.03467799
147	0xbd1d782b	-0.03844468
148	0xbcb1c9e4	-0.021702714
149	0x3d55a885	0.052162666
150	0x3d8d9e85	0.06915001
151	0x3d731eef	0.059355672
152	0x3d6dbf25	0.058043618
153	0xbd848cf4	-0.06472197
154	0xbc2629eb	-0.01014183
155	0x3dcc4cf4	0.09975615
156	0x3d1b34fa	0.03789232
157	0x3d4aa470	0.049473226
158	0xbd530071	-0.051514093
159	0x3c492a92	0.012278216
160	0x3d8aa87e	0.067704186
161	0x3c6d3ea1	0.014480264
162	0xbc074cfc	-0.008258101
163	0xbdbc3237	-0.09189265
164	0x3d33c663	0.04389037
165	0x3d940f2c	0.07229456
166	0x3c1c9dfe	0.009559153
167	0x3d512a9f	0.051066037
168	0x3dc7285f	0.09724497
169	0x3d7f8685	0.062384147
170	0x3c57a08e	0.013160838
171	0xbd7f855b	-0.062383037
172	0x3d572388	0.05252412
173	0xbd0024e2	-0.031285174
174	0x3be36cbc	0.0069404524
175	0xbd1821c1	-0.037141565
176	0xbc8ca85e	-0.017170127
177	0x3d8392bf	0.06424474
178	0xbd865359	-0.06558866
179	0x3c9c80c4	0.019104369
180	0xbb36856c	-0.0027850522
181	0xbd085c00	-0.033290863
182	0xbcbb50b2	-0.022865627
183	0x3dbe7126	0.09298925
184	0x3a9630cb	0.0011458633
185	0xbd8be5b5	-0.068309225
186	0x3ccc1663	0.024913019
187	0xbd189646	-0.037252687
188	0x3d531658	0.05153498
189	0xbd29292d	-0.041299034
190	0x3c9a3cde	0.018827852
191	0x3dd558e3	0.104173444
192	0xbd6ac8d9	-0.05732045
193	0x3da9c880	0.082901955
194	0xbd1aa92f	-0.037759002
195	0xbdaf12b5	-0.0854849
196	0xbbaf3f72	-0.0053481394
197	0xbcae88de	-0.021305498
198	0x3d3f0b4b	0.04664163
199	0xbccb8b8c	-0.024846815
200	0xbdad7c94	-0.08471027
201	0xbd1126b0	-0.035437286
202	0xbcc51279	-0.02405666
203	0x3d478d05	0.04871847
204	0xbdc1876f	-0.0944966
205	0xbd5adf57	-0.05343565
206	0x3d14e83f	0.0363543
207	0xbd394938	-0.045235842
208	0x3dd1c510	0.10242665
209	0xbd02a324	-0.031893864
210	0xbc92cd09	-0.017920034
211	0xbd9f193f	-0.07768487
212	0xbda9a541	-0.08283473
213	0x3ceec5c4	0.029147036
214	0x3dd41979	0.10356421
215	0x3bfb6ff9	0.0076732603
216	0xbd7337d9	-0.059379432
217	0x39a1054b	0.00030712257
218	0xbd88591f	-0.066576235
219	0xbdd6ec97	-0.10494345
220	0x3cfc9deb	0.03083702
221	0xbda9988f	-0.08281051
222	0x3d2aa607	0.041662242
223	0xbcfcb360	-0.030847251
224	0xbd49a5ae	-0.04923027
225	0x3bd4b7e9	0.0064916504
226	0xbd5f876a	-0.0545725
227	0x3dbeedf7	0.09322732
228	0xbd6bb0b5	-0.057541568
229	0xbca4f899	-0.020138072
230	0xbd5dd6e7	-0.054160025
231	0x3c03ffd1	0.008056597
232	0x3dab49b2	0.08363666
233	0xbd8b2232	-0.067936316
234	0xbbfd75fa	-0.007735011
235	0xbd951779	-0.07279868
236	0x3d5306be	0.0515201
237	0xbd88bb96	-0.06676404
238	0xbd454a51	-0.048166577
239	0x3cc24ffb	0.023719778
240	0xbc436a19	-0.011927151
241	0xbd9a013e	-0.07519768
242	0x3d911466	0.07083969
243	0x3d5d24cd	0.053990174
244	0xbad4a335	-0.0016222956
245	0x3d148195	0.03625639
246	0x3d488516	0.048955046
247	0x3ccee064	0.025253482
248	0xbd0f3867	-0.0349659
249	0x3d7c81ec	0.06164734
250	0x3c9f7bde	0.019468244
251	0x3c8ab3ae	0.016931381
252	0x3dbeac75	0.09310237
253	0x3da1be50	0.07897627
254	0xbdc19993	-0.0945312
255	0x3cfc527e	0.030801054

lstm.bias_ih_l1 f4 [512]
0	0x3d7e44e7	0.06207743
1	0xbc4bda6e	-0.012442214
2	0xbc598afb	-0.013277764
3	0x3d76f4ac	0.06029193
4	0x3b097a59	0.0020977466
5	0x3cb10178	0.021607146
6	0x3cac7f31	0.021056743
7	0x3d6ec111	0.05828959
8	0xbc5c6be8	-0.013453461
9	0xbb897350	-0.0041946545
10	0xbd50a49e	-0.05093824
11	0x3d12262c	0.035680935
12	0x3daa9883	0.083298706
13	0xbd34dd61	-0.044156436
14	0x3d7f57e6	0.062339686
15	0x3d074ebd	0.033034075
16	0xbcb44f3f	-0.022010444
17	0x3dd16112	0.10223593
18	0x3d9d70d8	0.07687539
19	0x3cedbf14	0.029021777
20	0x3ce4cfc5	0.027931103
21	0xbd5e58f5	-0.054284055
22	0x3dbff518	0.0937292
23	0x3d14c579	0.036321137
24	0xbc7c2371	-0.015389309
25	0x3d4f7784	0.05065109
26	0xbb9e39cf	-0.0048286687
27	0xbd18dbd3	-0.037319016
28	0xbd03b2b0	-0.03215283
29	0x3d8b9437	0.06815379
30	0x3dc8dd06	0.09807782
31	0x3d308e92	0.043104716
32	0x3d3f6dd9	0.04673562
33	0xbd0c6fc1	-0.034286264
34	0x3cd46e59	0.025931524
35	0xbcbab415	-0.022790948
36	0xbce0b255	-0.027428785
37	0x3c24cff6	0.010059347
38	0x3dac113c	0.08401725
39	0x3c93c6db	0.018039158
40	0xba743002	-0.0009315015
41	0xbd516467	-0.05112114
42	0x3da588cc	0.080827326
43	0x3dd04b23	0.10170581
44	0xbc32c64a	-0.010911534
45	0x3dbcf400	0.09226227
46	0x3d8bec2a	0.06832154
47	0x3da0b2ed	0.078466274
48	0x3dad8509	0.0847264
49	0xbbbb0cd4	-0.0057083163
50	0x3d3ccafc	0.04609202
51	0x3dcd5754	0.10026422
52	0x3dcdffdb	0.10058566
53	0x3d8a11a5	0.06741647
54	0xbd65a3c0	-0.056064367
55	0xbd8773c1	-0.06613875
56	0x3b3f70c7	0.0029211508
57	0xbb8eb968	-0.0043555982
58	0xbc9891b4	-0.018624164
59	0xbb8ea6d9	-0.004353386
60	0xbd22c1b8	-0.039735526
61	0x3db9b7f9	0.09068293
62	0x3d996f47	0.074919276
63	0xbd2834ab	-0.041065853
64	0x3d1ed465	0.038776774
65	0xbae15136	-0.001719034
66	0xbc12f1e9	-0.008968809
67	0xbbf2afb0	-0.0074061975
68	0x3cfac8a0	0.030613244
69	0x3d973a67	0.07384186
70	0xbd005bb0	-0.03133744
71	0xbd94cbfc	-0.072654694
72	0x3cd0a269	0.025468068
73	0xbd306c09	-0.04307178
74	0x3dca56af	0.09879815
75	0xbc993d9e	-0.01870614
76	0x3da79989	0.081835814
77	0xbd92b3dc	-0.07163212
78	0x3b4a6908	0.0030885357
79	0xbd18b7c2	-0.03728462
80	0x3d2ae5d3	0.041723084
81	0x3d01ef64	0.03172244
82	0x3db07943	0.08616879
83	0xbd0bceea	-0.034132876
84	0x3d6e6bca	0.058208264
85	0xbd5f6e33	-0.054548454
86	0xbd743c22	-0.05962766
87	0x3d37cb02	0.044871338
88	0xbcd802cb	-0.02636852
89	0x3d88bfae	0.06677185
90	0xbaa7ef61	-0.0012812429
91	0x3c8e5828	0.01737602
92	0x3d3d8d30	0.046277225
93	0xbda13bba	-0.0787272
94	0x3b239f5a	0.0024966807
95	0xbd5c5846	-0.05379512
96	0xbcb2cb9b	-0.021825602
97	0x3dcea48d	0.10089979
98	0xbc3d8fa1	-0.011569888
99	0x3dc36ae1	0.0954187
100	0x3d7997f2	0.060935922
101	0x3d22499c	0.03962098
102	0x3d9440eb	0.072389446
103	0x3c835d55	0.016035715
104	0x3dd1909e	0.10232662
105	0x3db73701	0.08946038
106	0x3d802882	0.06257726
107	0x3cfc39bb	0.030789247
108	0x3db4328e	0.08798705
109	0x3d787a7b	0.06066368
110	0x3cd20752	0.025638256
111	0x3ac2d8fc	0.0014865692
112	0xbd5599f4	-0.052148774
113	0x3dd0aaf1	0.101888545
114	0x3de016e3	0.10941865
115	0xbd342e55	-0.0439895
116	0xbd121d02	-0.035672195
117	0xbd539335	-0.05165406
118	0x3dbf5b8a	0.093436316
119	0x3db47b65	0.08812598
120	0x3d49a71b	0.04923163
121	0x3db9ce85	0.090725936
122	0xbd039ef4	-0.03213401
123	0xbac0cd4e	-0.0014709623
124	0x3dae8a04	0.08522418
125	0xbdaed67e	-0.08537005
126	0xbd0af5b9	-0.033925746
127	0x3ce8f1b3	0.028435564
128	0x3d888e59	0.06667776
129	0xbcebf30a	-0.028802413
130	0xbc84c559	-0.016207384
131	0xbd7373f2	-0.059436746
132	0xb9be7c2a	-0.00036332133
133	0x3db16d1c	0.08663389
134	0xbd02c971	-0.03193039
135	0x3da43e62	0.08019711
136	0xbd805895	-0.06266896
137	0xbc491f96	-0.012275597
138	0x3d041590	0.032247126
139	0xbd4df5c9	-0.050283227
140	0xbbf46dc2	-0.007459373
141	0x3d3e8fa0	0.04652369
142	0xbc01182b	-0.007879297
143	0xbbe72f84	-0.007055225
144	0x3d3e5bfa	0.046474434
145	0xbd4a0c7f	-0.049328323
146	0x3c388645	0.011262481
147	0x3d98e254	0.07465044
148	0x3dcf4f58	0.101225555
149	0x3d9f9de0	0.07793784
150	0x3d2d6d46	0.04234054
151	0x3db6e079	0.089295335
152	0xbc1c2858	-0.009531103
153	0x3d9d64a0	0.07685208
154	0x3d8f6ee3	0.07003572
155	0x3aa29b88	0.0012405971
156	0xbd91987a	-0.07109161
157	0x3dafd3cb	0.08585318
158	0x3d2b87d1	0.04187757
159	0x3d8f2b63	0.06990697
160	0xbd5c3eaa	-0.0537707
161	0x3cea2ece	0.028586771
162	0x3dc8198f	0.097705
163	0x3d90b588	0.07065874
164	0x3d8d48c7	0.06898647
165	0x3dc40c02	0.09572603
166	0xbd52e1d6	-0.051484905
167	0x3c572493	0.013131279
168	0x3d89ff61	0.06738163
169	0xbcdfdb64	-0.027326293
170	0x3cb332a8	0.02187474
171	0x3da3c71d	0.07996962
172	0xbb60f734	-0.0034327032
173	0xbcdaab3b	-0.026692977
174	0xbcc07a80	-0.023495913
175	0xbd5038ab	-0.050835293
176	0xbd74501b	-0.059646707
177	0xbd872c82	-0.06600286
178	0x3c5b5d8a	0.013389001
179	0x3b4c532e	0.0031177509
180	0x3db14fce	0.086578
181	0x3dc842be	0.09778355
182	0x3d510c49	0.051037107
183	0x3c71df7f	0.014762758
184	0x3d97d43b	0.074135266
185	0xba1b9952	-0.0005935627
186	0x3ba7f930	0.005126141
187	0x3bfa3e11	0.0076367934
188	0xbca53519	-0.02016692
189	0x3d4e4563	0.05035914
190	0x3da73555	0.08164469
191	0xbd4a31e2	-0.04936398
192	0x3dd1ea0a	0.102497175
193	0x3de15b3b	0.11003729
194	0x3caa4f11	0.020789655
195	0x3d9de7cd	0.07710228
196	0x3befab8e	0.007314152
197	0xbc4ea54f	-0.012612655
198	0x3da41349	0.08011491
199	0xbd8911eb	-0.06692871
200	0xbd2a53d5	-0.041583855
201	0xbd00bbec	-0.031429216
202	0x3d38c4a6	0.045109414
203	0xbb22523f	-0.002476826
204	0xbd84fed2	-0.064939156
205	0x3cbd21b1	0.023087354
206	0x3d1af83e	0.0378344
207	0x3ca8a71e	0.0205875
208	0xbd27969a	-0.04091511
209	0x3d4221cd	0.047395516
210	0x3d7b3740	0.061331987
211	0x3cb2bbea	0.02181812
212	0xbd947652	-0.0724913
213	0x3d8542d3	0.06506886
214	0xbd7730d1	-0.06034929
215	0x3d88dddf	0.066829436
216	0xbbb2ca56	-0.005456249
217	0xbd574849	-0.05255917
218	0xba05c5bd	-0.00051030127
219	0x3d3941e7	0.045228865
220	0x3d7f6c89	0.062359367
221	0x3d2e5acc	0.04256706
222	0x3dc57bda	0.096427634
223	0x3cdc34ab	0.026880583
224	0x3dcee69a	0.101025775
225	0x3d810fcd	0.06301842
226	0xbcdfae19	-0.027304696
227	0xbbb015f6	-0.0053737117
228	0x3db257ad	0.08708129
229	0x3d9a3e30	0.075313926
230	0x3dc936ef	0.09824931
231	0xbcc35f61	-0.023849191
232	0x3d444517	0.04791745
233	0x3dd44a66	0.10365753
234	0x3d9b40fb	0.075807534
235	0x3d2c1150	0.042008698
236	0xbd13ec24	-0.036113873
237	0x3d8e4ac3	0.069478534
238	0x3ca1b893	0.019741332
239	0xbb06c4be	-0.0020564045
240	0x3c1575e9	0.00912235
241	0xbd6927c1	-0.056922678
242	0x3ceb375c	0.02871292
243	0x3d7846cb	0.06061439
244	0x3d200c69	0.039074335
245	0xbd559a3f	-0.052149054
246	0xbc2108ca	-0.009828756
247	0x3c887aff	0.016660212
248	0xbd9887c6	-0.07447772
249	0xbd98276c	-0.07429394
250	0x3c7eecae	0.0155593585
251	0x3cad9ed0	0.021193892
252	0x3d490bd1	0.049083535
253	0xbdd32dbe	-0.10311459
254	0xbd08b0f7	-0.03337189
255	0x3c0eac04	0.008708004
