models/WH001_SKU-014.pth (torch, 830897 bytes, 13 tensors)

lstm.weight_ih_l0 f4 [512, 6]
00000000: 1921 393d a136 2c3d d192 54ba 30ef 11bd
00000010: 8b09 ecbc 45c6 5a3d 177d bb3d 7a06 8c3c
00000020: 8475 94bc fa16 87bc 22e9 8e3c 15b7 09bd
00000030: d62a 063d 8a29 153d 4642 3e3d babc 2cbc
00000040: f4d8 c83d dcef 7fbd 1331 293d b80a aabc
00000050: 395d b73d 33ae 943c 35ef 8dbb 8b72 923d
00000060: caed d0bc ed60 9c3d ef45 b73c d26c 803c
00000070: 9c18 bcbc a5c9 703d 0b76 20bd bc73 4ebd
00000080: f2fe f73a dd06 b93d fc1f 3a3c f208 c63d
00000090: deec c23d dee2 15bc 138d 403c 8a5e 44bd
000000a0: ad22 80bc 84a7 213d edb7 47bd dff5 b63b
000000b0: 2f29 c5bc cf09 30bd 100e 283d 949c 0e3b
000000c0: b5c3 c93d f004 f03b d77a 0c3d a547 123d
000000d0: 8ee9 c73d 6534 e23b 589e 983d 90cc 87bc
000000e0: 11d2 c23d 0857 9a3d eba5 0f3d 44ec 48bc
000000f0: cfdb 813d 096d 7e3d aeda 493d 0593 783d
00000100: ff71 913d 72de 59bc d04d 7a3d e862 9fbc
00000110: b49c 1b3d 33db 08bc 1e2d adbc 49a9 c83c
00000120: 3394 3fbd 288e 92bd e82f 6bbd a796 55bd
00000130: c54f ce3d 4889 e4bc 8faf 84bd 3597 313d
00000140: e4c7 c43c 924a 833d 789e d23d f59b 6e3c
00000150: 5f6a 333d 993b 4a3d 1632 1fbd 31e3 5ebd
00000160: 9155 c73d a578 553d dcbd f23c 3172 833c
00000170: ba4f 92ba 756e 0a3d 78c1 cd3d 2339 c63b
00000180: ba8b 5dbd a216 113c 214d 36bb fbf5 983d
00000190: e828 35bc 2b59 9d3d 5d96 e13b 1def 043c
000001a0: 5c82 5abc 8e64 68bd 908a 0d3d 7d20 453d
000001b0: e04c 06bd 978f c73d 9a1a 44bd b800 5abd
000001c0: 4d17 573d 95ee 08bc 43c3 833d 717c e4bc
000001d0: 15d1 ac3d 7906 a83d 8cd3 a43c 696e 403d
000001e0: cef6 ca3d 1461 933d d41f d43c ccb7 91bc
000001f0: f652 8f3c 4614 b53d 38a9 103b e105 36bd
00000200: 82dd 673d 5555 1b3b 9bc7 c3bc cb55 d73d
00000210: fb35 77bd ba76 403c 8009 9c3d 1819 873d
00000220: caed 79bd c802 b33d 0170 fabc 9bbd fd3c
00000230: a2e9 3abd 9318 ce3d 0f94 85bd beb9 bb3a
00000240: 0d12 7cbd 5cb8 5b3d 9a58 a1bc dfbd 04bc
00000250: 20f5 833c 24ac 4b3d e956 b53d 1cc9 8dbd
00000260: 4442 bc3d 8f33 563d 947f 8b3d dadf ad3d
00000270: 9ee0 bc39 515f 853d 240b 63bc 8398 b03b
00000280: d195 f63c 5583 6c3d 4d40 60bd 99f4 07bc
00000290: 4d6f a93d 8e0d 613c 863b c63d 43a4 873d
000002a0: 05c1 79bd 0006 8ebc 0948 7bbd 434b ad3d
000002b0: 7a03 8c3d 9c58 86bc 5929 ac3d e89e 97bc
000002c0: de8b 5cbd 8385 18bd a826 1b3a 8970 2b3d
000002d0: 7561 04bd 6189 363d e651 9f3d 74b4 d43d
000002e0: 5201 8c3d 1b32 ebbc 7f33 a13c 52a6 16bd
000002f0: e49a b83d d63a e33d 44e9 6cbd 586f eabc
00000300: c7a7 9b3b c02f 7abd eebc 9d3d b58f 3abd
00000310: d550 b83c 1248 2abd a275 01bd 066c c73d
00000320: d799 c23d 7292 843d 3b04 c83d cfe6 4b3d
00000330: 9a57 12bd 22f1 773d 2f6e 823d 93e0 2abd
00000340: 1b7a 73bc f443 9c3c 9497 37bc 8ad1 da3d
00000350: 25c1 28bd b97d 8f3d 3c4c c23d a18a 24bd
00000360: c6fb 47bd 1991 4bbd a5c2 403b 7fac 4bbd
00000370: a320 b33d 5a4c 0b3c b76c 883c 9d48 ac3d
00000380: d5a5 973d c449 5b3d c2de b13c 5fae c43d
00000390: 6e0e 613d 8fdc 043d edc7 ce3d aac0 e2bb
000003a0: 8246 5dbd 7461 213d a447 cc3d a121 dd3d
000003b0: b593 d53d b10e 643d b3fb ad3d 6552 0c3d
000003c0: be0d 8bbb a7c5 f03c 4a14 803d e58a 2fbd
000003d0: 2173 e03b 0413 20bd d1d0 4d3d 2888 603d
000003e0: 12b6 d03b 37ed 183d c1a2 a1bc 1bd6 63bc
000003f0: a4f6 1fbd e3ec de3d 0f3a d43d d6ac f43b
0.04519758 0.042044286 -0.00081090356 -0.035628498 -0.028813144 0.05341174 0.09154718 0.017092932
-0.018122442 -0.016490448 0.01744515 -0.033621866 0.032755695 0.036416568 0.046449922 -0.010543043
0.098070055 -0.062484607 0.041306566 -0.020757064 0.08953328 0.01814947 -0.004331494 0.071507536
-0.025504012 0.076356746 0.022372214 0.01567689 -0.022960953 0.058786053 -0.039175075 -0.05040334
0.0018920584 0.09034512 0.011360165 0.09669675 0.09517835 -0.009148328 0.011752385 -0.047941722
-0.015641535 0.039466396 -0.04875939 0.0055835093 -0.02406749 -0.042978104 0.041029036 0.0021760808
0.09851781 0.0073248073 0.034296837 0.035712857 0.09761344 0.0069032186 0.07452077 -0.016577035
0.09512723 0.07536131 0.03507034 -0.012263361 0.06340753 0.062115703 0.049280815 0.060687084
0.07101821 -0.013297664 0.061109364 -0.019456342 0.03799124 -0.008353042 -0.021139678 0.024494784
-0.046772193 -0.071560204 -0.057418734 -0.052145626 0.100738086 -0.027897492 -0.06478798 0.043357093
0.024021097 0.064107075 0.10284132 0.01456355 0.043802615 0.049373243 -0.038866125 -0.054415885
0.09733117 0.05211701 0.029631548 0.016045662 -0.0011162676 0.033796746 0.10046667 0.0060492917
-0.05408833 0.008855494 -0.0027816969 0.07468792 -0.011057116 0.07683023 0.00688438 0.00811365
-0.013336744 -0.05673652 0.03455597 0.048126686 -0.032788157 0.097441845 -0.04787693 -0.05322334
0.052512456 -0.008357664 0.064337276 -0.02789137 0.08438317 0.082043596 0.020120405 0.046980295
0.099103555 0.071962506 0.025894083 -0.017787836 0.017495614 0.088417575 0.0022073518 -0.0444392
0.05660773 0.0023701985 -0.02389889 0.105144106 -0.060354214 0.011747057 0.076189995 0.06596583
-0.06101779 0.08740765 -0.030570986 0.0309742 -0.045632966 0.10063281 -0.065223806 0.0014322323
-0.061540652 0.053642616 -0.019695569 -0.008101909 0.016108096 0.049724713 0.088544674 -0.06923124
0.09192327 0.052295264 0.06811443 0.08489962 0.00036025507 0.06512321 -0.013857637 0.0053892746
0.030100735 0.057742435 -0.054748822 -0.008298063 0.08273182 0.013736142 0.09679322 0.06623127
-0.060975093 -0.017336845 -0.061347995 0.08461621 0.068366006 -0.016399674 0.08406324 -0.01850839
-0.053844325 -0.0372367 0.0005918541 0.04185537 -0.032319505 0.04456461 0.07779293 0.10385981
0.06836189 -0.028710416 0.019677876 -0.03677971 0.09013918 0.110952064 -0.057839647 -0.028617546
0.004750225 -0.061080694 0.07702051 -0.045547206 0.022499481 -0.041572638 -0.031606324 0.09737401
0.09501999 0.06473245 0.09766432 0.049780663 -0.035728075 0.060532697 0.06368672 -0.041718077
-0.014860655 0.019075371 -0.011205573 0.10684498 -0.041199822 0.070064016 0.09487197 -0.04017127
-0.048824094 -0.049698923 0.0029412892 -0.049725052 0.08746459 0.00850209 0.016653402 0.084122874
0.07404677 0.053537145 0.021712665 0.09603571 0.0549454 0.032436904 0.100967266 -0.00691994
-0.05402232 0.03939958 0.09974602 0.1079743 0.104285635 0.055678073 0.084952734 0.034258265
-0.0042435816 0.029391123 0.0625387 -0.04285707 0.006849662 -0.039080635 0.05024797 0.05481735
0.0063693607 0.0373356 -0.019730927 -0.013906027 -0.039053574 0.10885026 0.10362636 0.0074668927

lstm.weight_hh_l0 f4 [512, 128]
00000000: 74ed 433d f7da 44bd f9b4 01bd dfc5 603c
00000010: f6c6 8d3d 9023 c83c 263c 2bbd 820d 62bd
00000020: 03b3 20bc f65e 6f3c c705 953d 7781 f0bb
00000030: f41b 61bd 3943 de3d 42b4 283d 86ee 8e3c
00000040: bfe4 2e3d 2c06 593d e608 4dba 7bc0 003d
00000050: 5d6a 20bd 07ca acbd 4c19 c5bd a576 83bd
00000060: 1c6f 18bd e72a e13d 58c5 d6bc facc 56bd
00000070: c85d 7f3d 465b c8bd 50da 96bd f3b4 73bd
00000080: 1ee8 11bc e6e5 dabd 3f68 c73c 450b d2bc
00000090: b41e f2bc e6d6 bcbd f305 0abd 7299 bc3d
000000a0: 3d05 89bc ca69 99bd e740 a7bc aa29 eb3c
000000b0: 99de c93d d1ac cabc d9de 21bd 91c7 773d
000000c0: 7892 b83c 66e4 093c 46e5 01bc 4112 99bc
000000d0: f341 ddbb 2806 c43d 5b79 88bd 2999 0a3d
000000e0: e801 2e3d 09a1 e5bc 8ed5 9b3d 860a 613c
000000f0: 82d0 393c 7194 633c 5d9b a03d 066c 273d
00000100: 0c69 0fbd 2fb0 62bd 2964 de3d f9e3 2dbd
00000110: 32ad 4ebd 6c0e b73d a8b6 58bc 56d1 b53d
00000120: 6bf3 a33b ed5f 88bd 6255 30bd b752 903d
00000130: 5b4a 813c 0167 523c 88f0 0d3d 086e 2bbd
00000140: 7596 92bb 9185 d0bd 3356 453d 77bb ae3c
00000150: 35cc bebc 3f06 3dbd 42d1 87bd 31ac 5fbd
00000160: ac09 4abd e1cd 02bd c71d 113d 8a88 debc
00000170: 22e8 233c b5bf 5abc c91d 8f3c 0a02 893d
00000180: 970d 183d 7eea 25bc d44a 643d 041f b53d
00000190: c261 aa3b 1061 aabd 9b2a 6c3d 92cb f3bc
000001a0: fd91 c2bc 0c6b 87bd f23d a03d a351 f53c
000001b0: 27b1 413d b819 56bc 2d73 dabc 8d5f 4bbd
000001c0: fbb4 a13c 9575 94bd 227d 923c 6215 4cba
000001d0: 7dd3 883d e541 f13c 805c 8fbd a8ef bc39
000001e0: e200 483d 00eb 423c 37bc 003d 6bdd 31bd
000001f0: 06b9 45bd c7c6 7c3d 5abe 76bd f510 14bd
00000200: 91ff b63d f6d9 b9bd 2d54 99bc 29bc 8b3d
00000210: a134 3fbd 7211 70bd 274c d8bd b715 c0bc
00000220: 8ebe b63d 3ead 493c a4ae 5abc dcde 753c
00000230: 6817 e5bd cfab 9d3d 458e a03d a5cf a4bc
00000240: b874 803d 60e0 f13c 2972 e53b 54c4 783d
00000250: 4adc 4f3c 921a 46bd 6c5f 9bbd 3a1c 6f3d
00000260: 77cb 92bb 35f6 65bd 5cf9 023d 41c0 343d
00000270: b2a3 d0bd 4637 4c3d 22aa fc3c 1519 113d
00000280: e9d0 b53b e16d 8dbc 53c2 03bd 6b95 27bd
00000290: b149 4a3c 4f2a 89bd 1239 83bc c2a0 ba3d
000002a0: 6da7 b5bd f766 053d 465c 62bd d4a1 8b3b
000002b0: 88aa 213c 0d5f a2bc 9379 d6bc 7243 b6bb
000002c0: 3097 d43b 02f2 a53d d2ed a93a 6968 86bb
000002d0: ce26 afbc a10a c63c 58a2 14bd d195 0d3d
000002e0: cce1 47bd 3b48 81bd 6263 d43b 88e9 aa3d
000002f0: d03e bc3d ab4e 39bc c6d9 87bd 4c11 c83d
00000300: 4cc1 fdb9 71e2 a0bc 2b4a 21bc e603 f4bb
00000310: 3854 ed3b 2e6a 78bd 610e 753d 431f ae3c
00000320: 675a 0d3d 5214 56bb 1e87 2bbd c878 b93d
00000330: 1897 fdbc 752f 19bd 3c1a bb3c b6d0 80bd
00000340: b87e 23bd 1ada 533d 89ef b73c 1a7a cd3c
00000350: bdd7 8bbd c736 6fbd 0b46 f43b e675 0fbd
00000360: ca2d 283c 8d19 fabc 0aa2 aabd adaa 34bd
00000370: dd66 28bd cb92 aabd 5b2a 76bd 670d dc3c
00000380: a284 c83d e39c 8a3d b7a9 66bd d1a4 a63b
00000390: a127 a0bd fde5 bdbd 7d02 a4bd 0db3 40bd
000003a0: 0e0a 44bd 1d33 b0bc e8ac 65bd 5ec4 ba3d
000003b0: 86ad 76bd d476 d4bc 43aa 0c3d e918 363d
000003c0: b360 acbc 2ccd f3bb 4878 2a3d 28ef 973d
000003d0: 1d1b 9c3d 58ed cc3c f838 bebc 94d3 7e3d
000003e0: 8f08 103c f2b7 963d a077 57bd ee27 af3c
000003f0: de31 fbbc 8a02 14bd f245 db3d 9655 eb3c
0.047833875 -0.048060384 -0.03166673 0.013719051 0.069227144 0.02443102 -0.04180541 -0.055188663
-0.009808305 0.014610043 0.072764926 -0.007339652 -0.0549583 0.108526655 0.041187532 0.017447721
0.042698618 0.0529844 -0.00078214554 0.031433564 -0.039163936 -0.08436971 -0.096239656 -0.06419114
-0.037215337 0.10994511 -0.026217148 -0.052441575 0.062345296 -0.09783034 -0.073658586 -0.05949874
-0.008905439 -0.10688381 0.0243417 -0.02564014 -0.029555656 -0.09220676 -0.03369708 0.09208955
-0.01672613 -0.07490881 -0.02041669 0.02870639 0.0985691 -0.024740608 -0.039519165 0.060493056
0.02253078 0.008416271 -0.007928198 -0.018685462 -0.0067522465 0.09571487 -0.06663772 0.03383747
0.042482287 -0.02803089 0.07609092 0.013735419 0.011341216 0.013890372 0.07842133 0.040874504
-0.03501229 -0.055343803 0.10858948 -0.04245374 -0.05045814 0.08938298 -0.013227142 0.08877818
0.005003383 -0.066589214 -0.043050177 0.070470266 0.015782526 0.012841941 0.034653217 -0.04185298
-0.0044735023 -0.10181726 0.04817791 0.021329625 -0.023290733 -0.046148535 -0.0663171 -0.054607574
-0.04932563 -0.031934623 0.03542879 -0.027164716 0.010004075 -0.013351371 0.017470257 0.06689842
0.037122335 -0.010126708 0.055735424 0.088438064 0.005199642 -0.083192945 0.05765782 -0.029760156
-0.023751253 -0.066122144 0.07824315 0.029946154 0.047288086 -0.013067655 -0.026666248 -0.04965167
0.019739619 -0.072489895 0.017881934 -0.0007785169 0.06680963 0.029450366 -0.07000065 0.00036036712
0.048828967 0.011896849 0.031429496 -0.04342405 -0.048272155 0.061713006 -0.060240127 -0.036148984
0.08935464 -0.09074776 -0.018716896 0.06822998 -0.04668105 -0.058610387 -0.105614 -0.023447854
0.08923064 0.012309371 -0.013347302 0.015006747 -0.11186105 0.076987855 0.07839636 -0.020118544
0.06272262 0.029525936 0.0070021343 0.060734108 0.012686798 -0.048365183 -0.0758656 0.05837653
-0.0044798213 -0.056143004 0.03197609 0.04412866 -0.101874724 0.0498574 0.030842844 0.03542431
0.0055485857 -0.017264308 -0.032167744 -0.04091398 0.012346671 -0.06697523 -0.016018424 0.09112693
-0.088698246 0.032568898 -0.05526378 0.004261235 0.009867318 -0.019820714 -0.026181018 -0.0055622393
0.0064877495 0.081028 0.0012964553 -0.004101802 -0.021380808 0.02417499 -0.036287636 0.034566704
-0.04879932 -0.06312605 0.006481574 0.08345324 0.09191668 -0.01131026 -0.06633334 0.09768924
-0.00048399938 -0.019639226 -0.009844343 -0.007446754 0.0072427057 -0.060648136 0.059828166 0.021255141
0.034510043 -0.003266592 -0.041876905 0.0905624 -0.030955836 -0.037398774 0.022839658 -0.062898085
-0.03991577 0.05172167 0.022453086 0.025082637 -0.06828258 -0.05840185 0.007454639 -0.035024546
0.010264823 -0.030529762 -0.08331688 -0.04410808 -0.041113723 -0.0832878 -0.060098987 0.02686186
0.09790923 0.06768205 -0.056314196 0.0050855656 -0.078200586 -0.092723824 -0.08008287 -0.047045756
-0.04786115 -0.021508748 -0.0560731 0.09119485 -0.06022408 -0.025935568 0.03434206 0.04445735
-0.021042204 -0.00744023 0.041618615 0.07418662 0.07622359 0.025015518 -0.023220524 0.062213495
0.008791103 0.073593035 -0.052604318 0.021381345 -0.030663427 -0.036135234 0.107067004 0.028727334

lstm.bias_ih_l0 f4 [512]
00000000: 4672 61bd 39ec 733c 5c6f 8ebd 4b66 223d
00000010: 88bd 41bd 64a4 82bd 5a32 c6bc aa50 ae3d
00000020: 44b0 3b3d 44c2 6c3c 461f 833d 7ac4 723d
00000030: c6a6 3cbd 9bc3 663d 2c04 28bd 9783 583d
00000040: 3763 303d 1604 8f3b 37ed bd3c 0bd4 3a3d
00000050: 4dd0 8f3d a74b 98bc 467f 14bd 31d7 09bd
00000060: adf7 02bd af77 c6bb 6dc6 bd3d 87f0 913b
00000070: ec5c 933d 4812 593b bf59 5bbd cbe5 283d
00000080: e774 07bd 3e2d 47bd d133 913d 4e39 c53d
00000090: 3357 353d 5d48 5fbd 2063 58bd 50c6 903d
000000a0: 7a49 8c3d 0f64 fa3c 7920 b93d 84a8 353b
000000b0: 4915 073d 6b74 a33d a20a afbc edef 843d
000000c0: 197d 6dbd 67ad 31bd b42f cabb 3c4a b4bc
000000d0: 94d6 5ebd 24a6 dabc 933c 21b9 0f6f 3cbd
000000e0: 9e57 ebbc 3344 95bc 45a2 7cbb ccbf df3c
000000f0: 95a3 13bd 112a e03d 8d85 88bd f06d 753d
00000100: 2274 2fbd b7b9 003d a044 87bd 1d90 83bc
00000110: 029d 36bd 9515 593c a486 213c f070 08bd
00000120: e9cc 74bc 2f05 113d 10b2 81bd d762 da3d
00000130: 3330 6fbc 0a4b b03c 4ffa abbc cb54 473c
00000140: a934 cc3d de1d c93c b184 983d 702c e63d
00000150: 3820 943d 72fb c23d ce0e 5fbc 5bae a03c
00000160: 3a84 e53d 3f40 4ebd 9aa2 573d 1f8c 3e3c
00000170: 4fc1 cdbc 13ba ba3d f490 c23d 8c5a a23c
00000180: 9270 afbc c740 763d 1a60 6f3d 61df 8e3c
00000190: a53c 8ebc ad4e 4abd b7c5 69bc f17d 243d
000001a0: e770 673d 22ac a03d 7389 713d c30c b53d
000001b0: 840e 30bd 43a2 26bd 741b c83c dbe7 ca3d
000001c0: b229 29bd f961 5d3d 0efb af3c f6f4 09bd
000001d0: 3cbc c33d 1014 dbbc bac1 7f3d 16ed 573d
000001e0: 9906 013d e0d8 a53c e08f 20bd 7caf aebc
000001f0: a455 8fbd 95b0 5d3d 15f3 7fbd 9c6b 38bb
00000200: f3fe 1ebb c536 e33c 2329 3e3d 05ed e6bc
00000210: bea7 4b3d c3a7 b63d 7fd3 6c3d 175d 5e3d
00000220: 35d2 6bbc 66c6 723d 0ba7 533c dae8 be3d
00000230: cb02 3ebc e7c0 8e3d 90b7 c33d 8b9f cf3d
00000240: 7c17 84bd 22c0 ecbc 6d6b 883b 7a40 71bd
00000250: 0606 463d 9e84 00bd 65f3 16bd 58bc c93d
00000260: ceb2 ff3b 65d8 c63d 47f6 023c 1406 5fbd
00000270: 217b 8abb 4c55 59bd d15b 113d 2940 01bd
00000280: 857f 20bd b450 863d e4c4 433c 5ad8 39bd
00000290: 13b8 c33d 24b3 c43d 3a8f 6bbc c851 0ebd
000002a0: 21b2 953d bee4 6f3d 35d4 b53d 5bc7 2c3d
000002b0: 2433 da3c 3cc8 cd3c e5ff 7b3d f0af 5dbd
000002c0: 9488 4f3d 9c13 6d3a 11a5 01bd 84c3 af3d
000002d0: 8bc7 e5bb e012 ae3c ed27 1bbd e87d 7c3c
000002e0: 3757 50bc 0424 a53d 6519 883d d92b 5339
000002f0: 8673 08bc 4565 de3d 4046 c93d cf73 b43d
00000300: 996d 583d fa20 9c3d 4f5d 4ebc 6d57 bb3d
00000310: 65cb 8a3d 3b2b 8c3d 5e79 28ba 95e4 92bc
00000320: 587b 09bd 1093 dc3d eae1 af3c 5fc0 60bd
00000330: c4af 713d eb45 a23d b2e4 dc3d 37ce da3d
00000340: 3c4a 973d 1ec5 f33c 12c5 0f3d 152a 43bd
00000350: d4e9 043d 2070 64bc 895a 3cbd 8dfc 673d
00000360: 0872 e83b 888a f5bc a32f 56bd b56c 923d
00000370: 3fad bc3d 32d2 cd3d 5a44 453d 738d 54bd
00000380: 9f6a 83bc cc00 1cbd 05ee df3d 52af 5cbb
00000390: f119 e43b 96db eabc b14d e73c 4684 ce3d
000003a0: 56fd 2ebd 4ecb d63c 1301 b63d 471e 9a3d
000003b0: 6b0d 29bd 00da 24bc f0f0 7bbd f26a d83d
000003c0: 6a7b a53c e3c5 d23c 4712 77bd 0fbd ec3b
000003d0: e9d6 9f3d 52b2 873d fa9a f7bb 40ab f3bc
000003e0: be5f 8e3c cf74 ab3d 5c87 863d 930d 8d3d
000003f0: 1d55 203d e1bf 21bd bce9 f6bb 18fa ce3c
-0.05504062 0.014887863 -0.06954834 0.039648335 -0.04729989 -0.06379011 -0.024193931 0.08511479
0.045822397 0.014450613 0.06402449 0.059269406 -0.046057485 0.056338888 -0.041019604 0.05285987
0.04306337 0.0043645008 0.023184402 0.045612376 0.07022152 -0.018590761 -0.03625419 -0.03365249
-0.031974483 -0.006056748 0.09266362 0.004453722 0.07195458 0.0033122469 -0.053552385 0.041234773
-0.03307047 -0.04862713 0.07089961 0.096300706 0.044272613 -0.05451237 -0.052828908 0.07069075
0.06849952 0.03056529 0.09039397 0.0027718851 0.032979283 0.07981189 -0.021367375 0.06491075
-0.05798063 -0.04337826 -0.0061702374 -0.022008054 -0.054403856 -0.02669055 -0.00015376722 -0.04600435
-0.028728303 -0.018220996 -0.0038548869 0.027313136 -0.036044676 0.109455235 -0.06666098 0.059919298
-0.042835362 0.03142711 -0.06604886 -0.01605993 -0.044583328 0.013249774 0.009858761 -0.03331083
-0.0149414325 0.035405334 -0.06332791 0.106633835 -0.014598894 0.021520156 -0.02099338 0.012166212
0.09970982 0.024550375 0.07447184 0.112389445 0.07232708 0.09520616 -0.01361437 0.01961439
0.11206861 -0.05035424 0.052645303 0.011630087 -0.02511659 0.09117522 0.09500304 0.019818567
-0.021415982 0.06012037 0.05844126 0.0174405 -0.017362902 -0.049391437 -0.01426833 0.04015917
0.056504156 0.07845332 0.058968972 0.08840325 -0.042982593 -0.04068209 0.024427153 0.09907504
-0.04129953 0.054048512 0.021482017 -0.03368088 0.09557387 -0.026742965 0.06244061 0.052716337
0.031500433 0.020245016 -0.03919971 -0.021323912 -0.069987565 0.05412348 -0.06248768 -0.0028140312
-0.0024260848 0.027736077 0.04642595 -0.028189192 0.04972052 0.08918717 0.057818886 0.054287996
-0.014393379 0.05927124 0.012918244 0.09321757 -0.011597346 0.06970387 0.09556496 0.10137852
-0.06449792 -0.02890021 0.004163197 -0.05889938 0.04834559 -0.031376474 -0.036853213 0.09850377
0.0078032976 0.09709243 0.007993287 -0.054449156 -0.004226104 -0.05305986 0.035487954 -0.03155533
-0.039184112 0.06558362 0.011948798 -0.045372345 0.09556594 0.09604481 -0.01437741 -0.03474596
0.07309366 0.058567755 0.08878366 0.042182308 0.026635714 0.025119893 0.061523337 -0.054122865
0.05066736 0.00090437545 -0.03165156 0.085822135 -0.0070123128 0.021249235 -0.037879873 0.015410878
-0.012716106 0.0806351 0.066454686 0.00020138863 -0.008328324 0.108591594 0.09827852 0.08811151
0.052838895 0.07623477 -0.012595489 0.091475345 0.06777076 0.06844183 -0.00064267765 -0.017931262
-0.033564895 0.107702374 0.021470029 -0.05487096 0.059005514 0.07923492 0.10785808 0.106838636
0.07387206 0.029757079 0.03510005 -0.047647554 0.03244956 -0.013942748 -0.04598478 0.056637336
0.0070936717 -0.029973283 -0.052291524 0.071496405 0.092127316 0.10049857 0.04816089 -0.05189271
-0.016042052 -0.038086697 0.109340705 -0.0033673835 0.0069611003 -0.02866916 0.028235288 0.10083823
-0.04272207 0.02621999 0.08886924 0.07525306 -0.041272562 -0.010061741 -0.061509073 0.10567273
0.02020045 0.025729125 -0.060320165 0.007224686 0.07804663 0.06625809 -0.0075563164 -0.029744744
0.017379638 0.08371889 0.065687865 0.06887355 0.03914367 -0.03948963 -0.0075351875 0.025265738

lstm.bias_hh_l0 f4 [512]
00000000: 4c73 a93d 1eba d73d 34ca 67bc 0712 8c3d
00000010: f51f c13d 5f44 943c 9364 c13d a16f 213c
00000020: 2d3d b13c b063 fbbb e85d 3fbd e2ae a03c
00000030: 65fb 903d 3eb6 eabc 96df cd3b 9c7a 0ebc
00000040: 4504 dc3c 5d29 3fbd 3d11 b4bc a0e3 0d3d
00000050: 154a cd3d 3c29 a23d b759 003d 52a7 353d
00000060: b417 66bd 12d2 ebbc c0d8 a33c 2387 7bbc
00000070: e2c8 893d 45ec ac3d 47de 10bd a8f2 45bc
00000080: d4b8 153c 7f2c b03d 1ca1 26bd 5a3d 26bd
00000090: 61bc 86bd 8c1a 75bd dfd9 6ebc 5f5d 94bc
000000a0: fbc2 66bc 975f 113d 1db2 c43d d823 633d
000000b0: 4302 3b3d 44f6 bbbb 98fe 263d 5d0d d23d
000000c0: d4ec bc3d 09fa 923b bed6 3f3d 54f0 f9bc
000000d0: e4cd 32bd f565 28bd 7ec2 9e3d a751 c83c
000000e0: e782 623d 795c 933d 3998 223d e7fd 4f3d
000000f0: 9557 563d c943 863d 73f6 d03d bf8f 1a3c
00000100: 8104 583c 172d e3bc 44d2 9a3b 25d6 20bd
00000110: 0d17 a2bc 700b 2cbd 637f c53d c590 f93c
00000120: 59b7 353b 3dd9 973d 98e8 6abd 2db5 ee3c
00000130: 56d4 98bc d038 2a3d 218c aa3d 7321 333a
00000140: 81eb c73d 21cc 833c 8560 2bbd 2bf0 2ebd
00000150: 0d06 c73d ed26 943d e4a6 203d b323 bd3d
00000160: 3351 413d 0cb9 713d 1f87 b93c 9366 ebbc
00000170: 3251 463d b465 283d 903d ac3a 568a 6e3d
00000180: 699a be3d 9df2 fbbc ed7d c43d 0d1c 3f3d
00000190: a52e 1f3d d3e9 033d 74f8 50bd d0d8 32bd
000001a0: 65d4 943d 2d36 683d 6cd8 4abd fb86 7fbc
000001b0: b163 bd3d 2b0f 39bd ea9f aa3d 18aa 29bd
000001c0: 7aa2 d53d f673 a8bb 1270 c63d 6ae1 e23d
000001d0: 9880 6bbd d905 5ebc 45d8 12bc f83c ccbc
000001e0: 42e6 863c 24ae 42bc b633 9a3d 6b2d f9bc
000001f0: b996 963d d129 943d 6c96 083d a7af cbbc
00000200: f10a 80bc 454e dd3d 9193 3bbd 6c88 633d
00000210: fa46 cd3d 34df 4ebd e6c7 a43c c5c1 65bd
00000220: f23f 30bd c031 8ebc 186d f1bc 276b 993d
00000230: e10d a5bb 5a5a 393c f579 223d a287 6ebd
00000240: 22c1 e8bb c460 c03d e870 da3d f616 a83d
00000250: 461c fa3b fe34 e23b 1155 383d ba4f 793d
00000260: ff7a c03d 56f8 963d f6e5 af3c 3f24 d03d
00000270: 13d6 ac3c 8ea5 223b 3821 fb3c 389c 05bd
00000280: fefd 58bc 1a6d 9bbd 35ef c43d 68eb 943c
00000290: 2c85 0f3d a0ed bc3d 2a3d f3bc d60b b23c
000002a0: 9047 9d3d c7fb 36bd 371d d73d d135 77bb
000002b0: 0a4f d23d d466 763b 2174 4ebd 5125 373d
000002c0: 85ab b83d dd6d 75bd ff05 d93d b1f2 683d
000002d0: 2abd 523d 0f25 283d 9cd8 01bd 3afe a13d
000002e0: 1b49 9a3d 069f ab3d 9055 6a3c 6acd 2bbd
000002f0: 3628 a43c ed8a c93d 9c3f c13c 252b b03d
00000300: 196f c0bb c72d 80bd 0cfa 483d c927 193d
00000310: d8fb 073d 425f 7c3d 1437 1ebd f09d 673d
00000320: f53f 6fbd e6a1 da3d 92e5 013d d571 933d
00000330: f21e d0bc bdd4 70bd 9b8e 02bc 61c4 8f3d
00000340: 1352 7ebd 2bd9 3f3d c964 ba3d 91d6 c93d
00000350: 600c fdbc 8ec8 7f3c 84a2 52bd 3062 85bd
00000360: 0ef0 2dbd 3bb5 7d3c 7ecb babc ef96 103c
00000370: 5797 1a3d ae1d e43d 4cf8 0cbd a114 6dbc
00000380: d1bd f8bb ab95 43bd 409c 843d 2546 14bd
00000390: 2480 863d 9bd5 403d c9d6 843d 613f 413d
000003a0: b5cb 9b3b f407 9d3d e3d9 893d 5744 ab3d
000003b0: fb86 a23d d2d4 67bd 162e 633d 5058 b93d
000003c0: 5add 5abc d9c8 fd3c 3756 7bbd f190 b63d
000003d0: 2d0d 003d 3875 0e3d 3776 cc3d 6ed9 8f3d
000003e0: a3bc 33bd 4116 c93c 3c3c 873d 4463 6e3d
000003f0: ac79 27bd 17e2 56bd 34c6 dcbc 8494 87bd
0.08273944 0.10533546 -0.01414733 0.06839376 0.094299234 0.018099008 0.09443011 0.009853275
0.021635616 -0.007671796 -0.046720415 0.01961464 0.070792 -0.028651353 0.006282757 -0.008696225
0.026857505 -0.046670306 -0.021980876 0.03464091 0.10023896 0.07918021 0.03133556 0.044349022
-0.05617495 -0.028786693 0.020000815 -0.015352043 0.067277685 0.08443502 -0.03536823 -0.01208178
0.009138305 0.08602237 -0.04068099 -0.040585853 -0.06578899 -0.05983977 -0.014578312 -0.018110929
-0.014084573 0.035491552 0.09604285 0.055454105 0.045656454 -0.0057361443 0.040770143 0.10256455
0.09224859 0.004485373 0.046835653 -0.030510105 -0.043653384 -0.04111286 0.0775194 0.024452997
0.05530062 0.07195372 0.039695952 0.05077925 0.05232962 0.06555898 0.102032565 0.009433686
0.013184668 -0.027731461 0.0047247726 -0.039266724 -0.019786382 -0.042003095 0.09643438 0.03046454
0.0027727692 0.07414482 -0.057350725 0.029139126 -0.018655937 0.041558087 0.08327509 0.00068332924
0.09761716 0.016088547 -0.041840095 -0.04270951 0.09717951 0.07233987 0.03922166 0.09235325
0.04719658 0.059014365 0.022647439 -0.028735435 0.048417278 0.041112617 0.0013140906 0.058237396
0.09306795 -0.030755335 0.09594331 0.04665761 0.038862843 0.032205414 -0.051018193 -0.0436638
0.072670735 0.05669229 -0.049522802 -0.015596147 0.0924753 -0.04518048 0.083312824 -0.04142198
0.104313806 -0.0051407767 0.096893445 0.110781506 -0.057495683 -0.013551199 -0.0089626955 -0.024931416
0.016467217 -0.011882339 0.07529394 -0.030417165 0.07352967 0.07234538 0.03334658 -0.024864031
-0.015630217 0.10805944 -0.045795027 0.055550024 0.10023303 -0.05050583 0.02011485 -0.056092996
-0.043029733 -0.017357707 -0.029470965 0.07491141 -0.005037055 0.011313045 0.03966709 -0.05823482
-0.0071031014 0.093934566 0.106660664 0.082075045 0.007632765 0.00690329 0.045003 0.06086705
0.0939846 0.07371585 0.021471959 0.101631634 0.021098172 0.0024817917 0.030655488 -0.032619685
-0.01324415 -0.07589169 0.096159376 0.018178657 0.035039112 0.09225011 -0.029692251 0.02173416
0.07679665 -0.044673707 0.10503619 -0.0037721286 0.10268982 0.0037597911 -0.050403718 0.044713322
0.0901709 -0.059919227 0.10596847 0.056872074 0.051449932 0.041050967 -0.031700715 0.07909818
0.07533475 0.08379941 0.014302626 -0.041943945 0.020038705 0.09840951 0.023589902 0.08601979
-0.005872619 -0.06258731 0.04906659 0.037391458 0.03319916 0.061614282 -0.038626745 0.056547105
-0.058410604 0.10675411 0.031713076 0.07199446 -0.02540538 -0.058796633 -0.00796857 0.07019878
-0.06208999 0.046837967 0.091012545 0.098553784 -0.03088969 0.015611781 -0.05142452 -0.065128684
-0.042465262 0.015485103 -0.02280211 0.008825048 0.037741985 0.111384735 -0.03441648 -0.01447025
-0.0075909873 -0.047750156 0.06475115 -0.036199708 0.0656741 0.04707871 0.064862795 0.047179583
0.0047545084 0.076675326 0.06731012 0.08362644 0.07935902 -0.056599446 0.055463873 0.090500474
-0.013358438 0.03097956 -0.061361518 0.08914364 0.031262565 0.034779757 0.09983485 0.07023893
-0.04388107 0.024546744 0.06603286 0.058200136 -0.04088752 -0.05246171 -0.02694998 -0.06620124

lstm.weight_ih_l1 f4 [512, 128]
00000000: 775a 3bbd 8b77 173d 7502 9b3d ec32 873d
00000010: 3d07 e23c 3142 803d 99a1 803b fa1c 56bd
00000020: 07f6 233d 55f6 853d f901 c03d bcaf 9e3d
00000030: 65a1 d8bd 39c4 d5bc 77d8 553d fa33 c2bd
00000040: 13b1 6c3d fda5 a73c 6590 63bd afea 86bd
00000050: 597b bdbc 6d9b c0bc 0482 a8bd de30 003d
00000060: f2db cf3c d822 75bb 5818 c03c 3300 da3d
00000070: b07f 533d 251b 263c caff 263d 715b 4b3c
00000080: 659e 483d 3f74 6dbd 78f4 19bc 017b c13c
00000090: 3de7 853b 6fa3 8abc c07d b23d dfc5 cd3d
000000a0: 227c 1ebd 062c 0b3c 39ba 12bb 85ed 973d
000000b0: f53f 88bd 319d 853a 19a7 d8bd c2b1 ca3c
000000c0: 02f3 9a3d db8f c33c fd1e 97bd 47e3 3dbd
000000d0: 9f35 bbbd badb 703c 84c7 973c d917 663d
000000e0: 4e43 8ebb 026f 4dbd c7c0 7d3d b686 3d3c
000000f0: bffc ba3c a8f8 5fbc 3e98 1fbc 56b1 f0bc
00000100: 98c7 a03d 7e45 90bd 3ea2 cb3d 2b98 31bd
00000110: ea50 543c fe27 c03d 3422 433d 1d31 f9bc
00000120: 6205 d13b 13c7 9bbd 9036 c43c dc28 b03d
00000130: ac09 6cbd 15d1 bbbc 1b36 70bc ec3c 603d
00000140: 265f b03d 3f59 b0bd 50cc 1f3d 614f 0fbd
00000150: df68 7a3d c208 d93d 99c9 853d c2cd 31bd
00000160: 1a69 e4bb d9c2 9c3b ec51 93bd 3f22 90bb
00000170: 506e 9f3d 253d 853d a899 eebc 811e 5ebc
00000180: d7f5 26bd eb29 933d df85 733d 6a16 53bd
00000190: 64bc 8d3c 2bb5 113d c92c 5cbd 6873 7abd
000001a0: 0c56 af3d 39bd 413d 1675 b03d 1f47 7cbd
000001b0: b0ed d13d 28f5 0cbd ddec fa3c d9f6 88bd
000001c0: f21a 01bd 46d5 9abd fb92 aa3d ec43 c63d
000001d0: 2b80 70bd 9395 05bd 60a5 33bc 9afe ac3c
000001e0: c600 5dbd 9ee6 523d 3f04 7d3c 9b5e 8cbc
000001f0: 737d 79bd 614e 3b3d 3c75 af3d faf4 883d
00000200: d65f d53d 7a05 56bd 0233 1e3d ff13 8c3d
00000210: d15a 6fbd 7da0 6abd d495 953c 2c69 2abc
00000220: ae83 86bc eeba a53c 2d81 2c3c a882 213d
00000230: 2c36 7a3d 9f68 2d3d d0b6 403d 2552 6e3d
00000240: 26de 293c 216a 92bd ffbc a2bc 3414 62bd
00000250: bb81 2ebd 1a27 63bd 9e7e 433d ae62 86bc
00000260: 9d27 e73c 0dc2 283d edfc 2d3d c9fe a13d
00000270: 5742 83bd d863 56bd 61fc cebb a419 973c
00000280: 81bb 8cbd 56fe c0bd 12b2 efbc fa7e 8b3d
00000290: f84e d3bd 93f5 71bd a5ec 4d3d e808 823d
000002a0: 42e5 333c b0b5 a73d 3959 1bbd a85d 023d
000002b0: 66b8 063d fb59 16bd 17dc 4bbd 75ad c23d
000002c0: c3ad 983c cf6e 6b3b cb2b 6e3c 4f51 dabd
000002d0: 3303 083d 2b39 b43d aea2 8e3b 6bc8 343d
000002e0: 9f44 cf3c d465 d13c 258f b53d 5d65 743d
000002f0: 370d 5d3c 7ef2 7a3c 32ba 7a3d 0ab9 33bd
00000300: 5914 7b3d f055 b83d 7f35 f23b 59d4 74bd
00000310: 9ee8 883d bed1 8e3c 5516 aebd 153e a63c
00000320: bc1a a13d 1616 1dbd d397 5ebc 8d95 233d
00000330: f1ef 47bd d8d0 863d ebc4 c83c 2f63 c7bc
00000340: 67f3 24bd 904e cebd 1c57 eaba 17a7 cf3d
00000350: 4329 cf3c 31b6 c63d ad99 373d 900a a03c
00000360: e462 263d 657d 643d 135c 61bd 5e23 2f3d
00000370: 8560 17bd 46d0 aebd 0f45 90bc 67c9 f5bc
00000380: e44a 6f3d 5280 2ebc 7260 6dbd a079 a83d
00000390: ba16 343d cbc0 35bd f3c1 c1bc 52f4 c93c
000003a0: 4e42 123d 5216 e3bc d0a9 03bd 192c b23d
000003b0: 0fab adbc 1db1 09bd f7fb 3d3d b12f 26bd
000003c0: c246 5e3c 27bf 62bd 570a 89bd 42fc 9d3d
000003d0: f7ab d8bc 7536 98bc a2d0 823d f7b6 2cbd
000003e0: c50a c63d b731 6f3d e385 053d b06b 83bd
000003f0: a7a8 e13c 651c 57bd 5348 0b3d be02 89bd
-0.04574057 0.03697924 0.07568828 0.066015095 0.027591342 0.06262625 0.003925514 -0.052273728
0.04002955 0.06541125 0.09375376 0.077483624 -0.105776586 -0.026094543 0.05220839 -0.0948257
0.05778606 0.020464892 -0.055557627 -0.06587731 -0.023130106 -0.023511613 -0.082279235 0.031296603
0.025373433 -0.0037404802 0.023449108 0.10644569 0.051635444 0.010138308 0.040771283 0.012411938
0.04897918 -0.05797219 -0.009396665 0.023618223 0.0040864036 -0.016923634 0.08715391 0.100475065
-0.0386926 0.008494383 -0.002238883 0.0741835 -0.06652824 0.0010193941 -0.10578746 0.024742965
0.07565881 0.023872307 -0.073789574 -0.046359327 -0.09141087 0.014700824 0.018527754 0.056175087
-0.0043415194 -0.050154693 0.061951425 0.011567762 0.022825597 -0.013670124 -0.009740887 -0.029381435
0.078505695 -0.070445046 0.099430546 -0.04335801 0.012958745 0.09382628 0.04764004 -0.030418927
0.0063788155 -0.0760633 0.023951799 0.08601543 -0.05762641 -0.022926847 -0.014661337 0.0547456
0.08611898 -0.08610772 0.039013207 -0.03498781 0.06113517 0.105973735 0.06532592 -0.043409117
-0.006970537 0.00478397 -0.0719336 -0.0043986137 0.07784712 0.06505803 -0.029126003 -0.013557077
-0.040761795 0.071857296 0.05945384 -0.051535048 0.017301746 0.035573166 -0.053753648 -0.061145216
0.08561334 0.047299597 0.08616082 -0.061591264 0.102504134 -0.034413487 0.030630523 -0.066877075
-0.031519838 -0.0756021 0.083288155 0.09680924 -0.05871598 -0.03261335 -0.010964721 0.021117497
-0.053955816 0.051489465 0.015442907 -0.017134955 -0.060910653 0.045729045 0.085672826 0.066873506
0.1041867 -0.052251317 0.038622864 0.068397515 -0.05843622 -0.05728196 0.01825992 -0.0104010515
-0.016420212 0.020230737 0.010528845 0.039431244 0.06108682 0.042336103 0.047049344 0.058183808
0.010367906 -0.07149149 -0.019865511 -0.05519505 -0.04260419 -0.055457212 0.047728173 -0.016404476
0.028217131 0.041200686 0.042477537 0.079099245 -0.06409138 -0.052341312 -0.006316707 0.018444844
-0.06871701 -0.09423511 -0.029259715 0.06811328 -0.103177965 -0.05907209 0.05027451 0.06349355
0.010979952 0.08188951 -0.037926886 0.0318276 0.0328907 -0.036706906 -0.04977044 0.095057406
0.018637544 0.0035924201 0.014536808 -0.1066004 0.033206176 0.087999664 0.004352889 0.044136446
0.025301276 0.02556125 0.08865193 0.05966698 0.01349192 0.015316604 0.061212726 -0.04387764
0.061298702 0.09000766 0.007391631 -0.059772823 0.06684993 0.017433997 -0.08500353 0.020293275
0.07866427 -0.03835114 -0.013586002 0.039937545 -0.04881281 0.065828025 0.02450796 -0.024339287
-0.04027119 -0.10073578 -0.0017878744 0.10139292 0.02528823 0.09702719 0.04482429 0.019536287
0.040621653 0.055783648 -0.05501945 0.04275834 -0.036957283 -0.08535819 -0.017611055 -0.030003263
0.05842103 -0.010650711 -0.057953306 0.08226323 0.043966986 -0.044373315 -0.023652053 0.024652634
0.035707764 -0.027720604 -0.032144368 0.08699817 -0.021199731 -0.033616174 0.04638287 -0.040572826
0.013566675 -0.05535808 -0.06691425 0.0771413 -0.026449187 -0.018580655 0.0638745 -0.042166676
0.09670023 0.05839702 0.032598387 -0.06417024 0.02754624 -0.052517314 0.03400452 -0.06689976

lstm.weight_hh_l1 f4 [512, 128]
00000000: e8e9 53bd 29d4 4fbd c7fe 23bc b587 a0bd
00000010: e6cd 4abc c93d d4bd 1fe1 cfbc e65c 92bd
00000020: a785 9fbc 1494 873c 0ae4 42bd b220 dcbd
00000030: 4fa2 7a3d ee6d 213d 03d8 183d 1a99 1cbc
00000040: 37c1 4ebd e7f1 533d 314a 223d 26c6 debc
00000050: 64f3 1d3d 4a56 82bd 0a76 9eba 6b5d 063c
00000060: fa88 f13b 1234 82bd 95db ed3c 2f18 d63c
00000070: f43d d6ba 74a4 8e3d 1676 17bc 242a 8bbd
00000080: f123 0b3d c49d 47bb 7296 793d c819 24bd
00000090: 0d83 c5bd 5fde b03d b397 673d 7fad c7bc
000000a0: d13c 513d 8dd8 dbbd 94ac 8c3c ba66 363d
000000b0: e376 c2bd 7ee6 e13b 65d3 76bd 3418 c5bd
000000c0: f75c f13c 6a1b 5f3d bd85 c0bb 1aa0 953d
000000d0: 34c4 c9bc 989d 49bd 76db 90bc 3ff5 a73d
000000e0: dc5c 8fbd 02cb 123d fb81 af3d 0cf5 babd
000000f0: 9ae5 06bd 5ed6 013d 4738 2fbd f3a7 ddbd
00000100: 2d97 dabd d59f acbd ff9d 623d a23b a93c
00000110: eeba cfbd b9a2 65bd 4dc4 c0bc a7e7 d63c
00000120: d1f7 8f3c e7f0 c73d 5e4e 40ba a884 dbbd
00000130: 29d5 a93d d85b 8dbd 178b b43d 90cd 82bd
00000140: 058a 553c 07d8 cc3c 9928 253d b1e3 8cbd
00000150: cfd3 15bd ed49 40bd a340 d03b 3ba7 32bd
00000160: e8bd febb a155 4a3d 44c0 81bd dc80 7a3c
00000170: 688f 3bbd 5456 633b 69e5 52bd b03b 98bd
00000180: c344 eb3c 41ea 2bbc ad41 96bd d8cd ccbd
00000190: 1ec3 d4bd 67da b5bd 3443 9bbd dc42 9fbd
000001a0: b50c 9ebd e04c 483d 5cfa 96bd d719 0dbd
000001b0: a422 8cbd d59c 2e3d 61b8 43bd df40 313d
000001c0: 694c 373d c5ad 0fbc 111d fe3b b8df 063d
000001d0: 085b 2bbc 989d 76bd 3994 533d 6c23 933d
000001e0: 69ee 853d d29b 333d bafc d4bc 2f28 5abd
000001f0: f213 85bd 7241 7bbd d5a8 bebc 455e 793d
00000200: 585e 9fbc 804b 2f3d fe41 0d3d c9c0 81bd
00000210: ab77 da3c dd4a 433d 7f3f 4c3c 4a3c 09bd
00000220: 70af c23d 85e6 8cbb 585f 1bbb 375c 11bb
00000230: 9d90 88bd b277 173d 9ea1 82bc 327f 483d
00000240: 1482 1bbd b2d5 d0bc 060c 8cbb a40a 08bd
00000250: aedd 31bd ac62 72bd 81cc ae3d 5930 70bd
00000260: ae01 5a3d 08da 8ebb 2bff 133d e1b8 23bd
00000270: 3722 1abd 1841 3b3d d346 82bc f943 a93d
00000280: 5220 bdbc ec06 1a3d 738a 423d 35d5 2dbd
00000290: d231 93bd 6ae4 36bd 0dd9 1cbd 0b36 893c
000002a0: 42dc 523d 1320 88bd e8ea dfbb cf90 e53c
000002b0: e75c 463b 545a 953d 5fb7 503d dfd3 aa3c
000002c0: e6ab cbbd 8518 1fbd 2104 ccbd e2d3 2c3b
000002d0: 2810 9bbd 3131 a73c 0615 5dbb 1e69 0a3d
000002e0: 1a9d e9bd 1e17 1cbc 64ab 533d 8b11 f33c
000002f0: 04b7 053d ca85 3a3d af7c cfbc 883b ab3a
00000300: 0bc0 213d d387 693d f294 72bd 6ad1 80bd
00000310: cbbd fabc bfa8 f93c ad89 0f3d 7150 993c
00000320: 7678 853d f753 9d3c 7f6f 033c 7240 80bd
00000330: a6bf 983d 0b79 853d aab9 19bd 5530 5f3c
00000340: fd81 26bd 1253 d73d 07de 9e3d 753c c1bd
00000350: 3a51 043d 62b4 3b3d 25a6 6fbc 8e81 1f3d
00000360: 4cb2 d73c 8a13 0abd 4ced ea3b f437 033c
00000370: 0ce3 703d 4488 e1bd 46e6 f2bc 98d4 ca3c
00000380: b177 cd3d 45fa 0abd e6a7 c0bc 8097 943b
00000390: c04f 07bb 778c 183c 16dc 263d 2a15 aabd
000003a0: 09ab 75bc 4191 2cbd 6cd5 8abd bc6d 693d
000003b0: bd6e a73d 9ea6 cf3d 8118 cf3d 3e9e c13d
000003c0: 507d 0c3d fb15 023d 8984 2abc 5b54 ccbc
000003d0: 21ca aabd 0bb8 cd3c ef0f 2cbd 4ebf d33c
000003e0: a5de d03b 6d14 ad3c be3b 2e3d 358b ce3d
000003f0: 7479 c7bd 6e25 213c 4509 883d 4ef7 653d
-0.051736742 -0.05073944 -0.010009474 -0.07838384 -0.012378192 -0.10363347 -0.0253759 -0.07146625
-0.01947291 0.016550101 -0.047580756 -0.10748424 0.061189946 0.039411478 0.03731538 -0.009557987
-0.050477233 0.051744368 0.039621536 -0.027194094 0.038562194 -0.063641146 -0.0012089622 0.0082009835
0.007371065 -0.06357588 0.029035369 0.026134579 -0.0016345368 0.06964961 -0.0092444625 -0.06795147
0.033969823 -0.0030459026 0.06093449 -0.04006365 -0.096441366 0.08636164 0.056541156 -0.024374722
0.05108339 -0.10734663 0.017172135 0.04453156 -0.09495332 0.006893932 -0.060260195 -0.09623757
0.029463274 0.054469503 -0.005875318 0.073059276 -0.02462969 -0.04922256 -0.017682772 0.08201074
-0.070001334 0.035838135 0.08569714 -0.0912877 -0.03293381 0.031698577 -0.04277828 -0.108230494
-0.10673366 -0.08428923 0.055326458 0.020658318 -0.10143076 -0.056063388 -0.023531104 0.026233507
0.017574223 0.09762745 -0.00073358964 -0.107186615 0.0829261 -0.069022834 0.08815592 -0.06386864
0.013033395 0.025005354 0.04032192 -0.06879366 -0.03657895 -0.0469455 0.0063553615 -0.043616515
-0.0077741034 0.04939807 -0.063355 0.0152895115 -0.04579106 0.0034688907 -0.051488314 -0.074332595
0.028719312 -0.010492862 -0.073367454 -0.10000199 -0.10388778 -0.088795476 -0.07581177 -0.07776424
-0.077172674 0.04890144 -0.07371971 -0.03444847 -0.06842545 0.042630035 -0.04778326 0.043274757
0.044750605 -0.008769457 0.00775493 0.0329282 -0.010458715 -0.060208887 0.051655028 0.071844906
0.06539614 0.043849774 -0.025999416 -0.05326098 -0.06497945 -0.06134171 -0.023273865 0.060880918
-0.019454166 0.04279661 0.034486763 -0.06335599 0.02666839 0.047678817 0.0124663105 -0.03350476
0.09506118 -0.004299941 -0.0023707952 -0.0022180208 -0.06668208 0.036979385 -0.015946206 0.048949428
-0.03796585 -0.025492523 -0.0042738942 -0.033213273 -0.0434243 -0.059176132 0.085351 -0.058639858
0.053224258 -0.0043594874 0.03613202 -0.039971236 -0.037630286 0.045716375 -0.015902912 0.08264918
-0.0230867 0.037604257 0.047495317 -0.04243966 -0.07187237 -0.044651426 -0.038292933 0.016749403
0.051479585 -0.06646743 -0.006833423 0.028023152 0.0030267776 0.07292619 0.050956126 0.020852981
-0.099448964 -0.038841743 -0.09961725 0.002637141 -0.07571441 0.020409198 -0.0033734455 0.033791654
-0.11406918 -0.009526996 0.051677123 0.029671451 0.03264524 0.045537747 -0.025328008 0.0013064006
0.039489787 0.057014298 -0.059224077 -0.062899426 -0.030608078 0.030475972 0.035043407 0.018715115
0.06517117 0.019205077 0.008022188 -0.06262292 0.07458429 0.06517228 -0.03753058 0.013622363
-0.04065131 0.10513891 0.07757192 -0.094353594 0.032304026 0.045826323 -0.014627014 0.038941912
0.026330136 -0.03371004 0.0071694013 0.008008946 0.05881028 -0.11012319 -0.029650819 0.024759576
0.10032595 -0.033930082 -0.02351756 0.004534662 -0.00206469 0.009310833 0.040737234 -0.08304818
-0.014994391 -0.042130712 -0.06778988 0.056989416 0.081754185 0.101392016 0.101120956 0.094540104
0.034299195 0.031759243 -0.010407575 -0.024942568 -0.08339334 0.025112173 -0.042007383 0.025848057
0.0063741975 0.021127904 0.042537443 0.100851454 -0.09739962 0.009835584 0.06642393 0.05614405

lstm.bias_ih_l1 f4 [512]
00000000: eaaa fdbc 4e7c fdbc 4b02 cbbb 9eb0 b63c
00000010: b350 c13c 3c0f 833d 511f 943d 7af8 283d
00000020: 1bc8 f9bc e33c 92bc 5353 41bc 6c97 e43d
00000030: 4ac7 b73d 07b5 32bd 70a3 cb3d 6f16 a13d
00000040: 2ad5 583b 0b1b dabc 4ccb 593d 4fc1 223d
00000050: b7a8 813d a067 57bd 50e6 0e3d 9d7f 92bd
00000060: 9d3e 1cbd 7ee1 e0bc 10a1 f43c df51 99bc
00000070: 9553 b23d 653b 87bd 634a a43b 6a20 d13c
00000080: be5d 92bc fc6c 813d c385 b23d 099a 8dbd
00000090: c05c 6fbd 3f08 02bd e550 983d 2c2a 843b
000000a0: 48d2 a9bc 83b4 9d3d 4298 02bd 67bd 61bd
000000b0: 7a20 be3d dad5 193d c2c1 8a3d 2c26 a93d
000000c0: fb3f 5c3d e949 773c 7642 52bd 08cc e1bc
000000d0: 0ce9 b63d 47c6 693d aa4d 183b 97aa bebc
000000e0: ba2d 033d c177 bb3d 47e3 2ebd b288 493d
000000f0: 294c 34bd 197c a03a 7990 b33c e55f d33d
00000100: c079 a13c dc6f 4e3c 55c6 5b3d c7de 1e3d
00000110: 6932 c93d 3746 743d ada5 f63c 857b bd3c
00000120: e292 003d b71c 2e3d 7fa6 1abd 134d 43bd
00000130: 62ca ee3c cc1d 913d 178b 783c c69b 8a3d
00000140: 4fcf dbbc 2656 043d 65e1 413c aac0 713d
00000150: 31fd 34bd 0142 39bc eb01 25bd 3d34 213d
00000160: e686 bc3d df33 cb3c 157c 22bc 8329 75bd
00000170: 0b4b 153d cccb 3bbd e94f 8fbd 9690 553d
00000180: 74ef 273d dde4 a83d e948 8a3d 4f2c 8d3d
00000190: aeca 81bd 1d43 973d 05be 743c 3ac3 76bd
000001a0: d23b 733d 53c4 a2bb a801 d83d 7885 223c
000001b0: 61bc 4e3c ebde 3c3d fc51 a63d e2bb 68bd
000001c0: 168e 133d ca77 8f3d 496f 81bd 6c3a 89bc
000001d0: 46ad d13d 8c69 793c 1f75 5ebd 3a40 2c3d
000001e0: 2937 9cbd e3f4 403d 40ed 2e3c 6e91 ddbc
000001f0: 7865 1c3d 81e1 a23d 0835 e2bc a08e a63d
00000200: ba9f 06bd 70c7 993d bf77 6ebc 2197 64bd
00000210: c1f0 923d d25b 183c 0ecf ca3d b3e2 763d
00000220: 15d8 b33d f97a 01bc 92ab 00bd bd44 09bd
00000230: a7a1 bb3d 2af1 623d 1fd0 a43c 374b ca3c
00000240: 28a5 ea3c 4392 6abc 9090 943d ec38 3c3d
00000250: 62ff 2c3d f7c6 853d d263 7bbd c1c6 3dbd
00000260: 68d1 9cbd e468 9c3d 6da6 5f3d 70fa 04bc
00000270: 99b9 0b3d 27fe 0cbd c33e 87bd a23d 26bd
00000280: 9c08 8c3d 5d51 573d 8dfe b43d 28c8 b5bc
00000290: 9e4c 8dbc 6758 813d 02f8 2cbd b227 c53d
000002a0: 3094 183d 73f7 d53d 1605 15bd 4606 4ebd
000002b0: 6193 80bd 168a 833d cbd2 823b 1bab b1bc
000002c0: 1933 f5bc 99d8 36bd a4c8 bf3d 4e41 4bbc
000002d0: 5a9b 893c 378f d03d dd25 033d 14e1 bfbc
000002e0: f024 253d 0953 d13d 1fa6 8a3d 3922 9ebc
000002f0: 9bd9 96ba 02a3 ad3c 81f1 c0bd 5874 083d
00000300: 5954 dd3d 7a00 bc3c 110c 923d 57c0 943d
00000310: 61e0 ad3c fc79 75bd afbc 263d 2fbf 8e3d
00000320: 48b3 8cbc 72f7 d9ba 68ab eb3c 9d09 bd3d
00000330: e115 86bd e2dd 01bd bf34 bb3b 5146 d83d
00000340: c2b4 c83c 5943 ff3c b6b7 0d3d 127c b23c
00000350: dc09 13bd 3b5a 803d ec58 e5bc d4ff 56bd
00000360: 4e72 b33d 400f 0b3d 3337 1d3d 6eb3 18bc
00000370: fbf4 3e3d 6af4 523d 12e4 da3a b5d7 b43c
00000380: ac5b 84bd 5133 acbb 661c 79bd dcb2 72bc
00000390: 2dba 17bd 7aed 443c fd69 5d3d 8757 d53c
000003a0: f471 873c ec84 cd3c 425e 4ebd ae3f 423d
000003b0: 578e 793d c81b e03a 75f0 cf3d 81ce b73d
000003c0: 78e9 973d fec2 7bbd cc87 d23d 3e16 65bc
000003d0: a11f a0bc eb86 a33d d7b3 41bd c75b 0cbd
000003e0: 03b5 c73c e555 b53c 5282 893d 612b 243d
000003f0: c84c be3d b1f4 a73d ed8d 283c 199c 33bd
-0.030965287 -0.030943062 -0.0061953417 0.022301015 0.02359805 0.0639939 0.07232536 0.04125259
-0.030490926 -0.017851299 -0.011799651 0.11161694 0.08973558 -0.043629672 0.099432826 0.07865607
0.003308604 -0.026624223 0.053172395 0.039735135 0.06331008 -0.05258906 0.034887612 -0.071532466
-0.03814565 -0.027451273 0.029861957 -0.018715797 0.08707348 -0.066031255 0.0050137504 0.025528152
-0.017866965 0.06319615 0.08716919 -0.069141455 -0.058438063 -0.031746145 0.074373044 0.0040333476
-0.020730153 0.077004455 -0.031883486 -0.05511227 0.09283538 0.03755746 0.067752376 0.08259234
0.053771954 0.015093305 -0.051332913 -0.02756311 0.08931169 0.057073858 0.002323965 -0.023274703
0.03202603 0.091537006 -0.042697217 0.04920263 -0.044017944 0.0012244015 0.021919476 0.10321025
0.019711375 0.012599912 0.05365594 0.038786676 0.09824068 0.059637275 0.030108297 0.023130188
0.03139008 0.042507853 -0.03775644 -0.047680926 0.029149238 0.070857614 0.01516988 0.06767993
-0.02683225 0.03230872 0.011833523 0.05902163 -0.044186775 -0.01130724 -0.040285032 0.03935646
0.09205417 0.024805008 -0.009917279 -0.05985404 0.03644852 -0.045848653 -0.069976635 0.05213984
0.040999845 0.08246777 0.06752188 0.06893217 -0.06337486 0.07385848 0.014937882 -0.060244776
0.05938322 -0.0049672513 0.10547191 0.009919517 0.012618155 0.04611103 0.08121106 -0.056819804
0.036024176 0.0700527 -0.06320054 -0.01675149 0.102381274 0.015222918 -0.054310914 0.04205344
-0.076277085 0.047108542 0.010676682 -0.027046885 0.038182706 0.07953168 -0.027613178 0.08132672
-0.03286717 0.07508743 -0.014554917 -0.05580819 0.071748264 0.009299235 0.09902774 0.06027479
0.08781449 -0.007902854 -0.031413622 -0.03351282 0.09161692 0.055405773 0.020118771 0.024694068
0.028643206 -0.014317098 0.072541356 0.045952722 0.04223574 0.0653209 -0.061374493 -0.046332125
-0.076571286 0.07637194 0.054602075 -0.00811635 0.034112547 -0.034422066 -0.06603768 -0.04058612
0.068375796 0.05256783 0.08837614 -0.022190168 -0.017248448 0.063156895 -0.042228706 0.09626712
0.037250698 0.10447588 -0.036381803 -0.05029895 -0.0627811 0.06422822 0.0039924136 -0.021688035
-0.029931592 -0.044640157 0.09364441 -0.012405707 0.01679771 0.10183566 0.03201853 -0.023422755
0.04031843 0.10220916 0.06769966 -0.019303428 -0.0011508943 0.021195892 -0.09421063 0.03331408
0.10807104 0.022949446 0.07131208 0.072632484 0.021225156 -0.059930786 0.040707286 0.06970059
-0.017175332 -0.0016629531 0.028768256 0.09230349 -0.06547142 -0.031705745 0.005713075 0.10560287
0.024500255 0.031160044 0.03459903 0.021787677 -0.035898075 0.0626721 -0.027996503 -0.05249007
0.08762036 0.03395009 0.03838272 -0.009320123 0.04662035 0.051502623 0.001670005 0.022075513
-0.064627975 -0.005255141 -0.0608181 -0.014813151 -0.037042785 0.012019509 0.054056156 0.026042713
0.01653383 0.025087796 -0.05038286 0.04742401 0.06092676 0.0017098123 0.101532854 0.08974934
0.074175775 -0.061465256 0.102798074 -0.013982354 -0.019546332 0.07984718 -0.04729065 -0.034267213
0.024378305 0.022135684 0.0671431 0.04008043 0.092919886 0.08200968 0.010287744 -0.04385004
