models/WH005_SKU-001.pth (torch, 830897 bytes, 13 tensors)

lstm.weight_ih_l0 f4 [512, 6]
000000 8c 1d aa 3d 8e 6a 9e 3d 3d d1 bb 3d b5 3d 85 bb
       0.08306417 0.077351674 0.091707684 -0.004066194
000010 7e 72 39 bd c9 f6 9c 3d e5 9b bb 3d 14 04 79 bc
       -0.045275204 0.07664258 0.09160594 -0.015198726
000020 50 67 48 bc 27 f8 a9 3a 38 0e 48 3d 66 60 41 3c
       -0.012231663 0.0012967632 0.048841685 0.011802768
000030 16 59 72 bd 54 6f 8f bd 73 4e 34 bc 95 dd f8 3c
       -0.05916699 -0.07003656 -0.011005032 0.030379096
000040 4c 62 24 3d 79 b7 9b bc fa b7 1d bc c7 4b 9f bc
       0.040132806 -0.019008385 -0.009626383 -0.019445313
000050 2e 77 1e bb 65 81 0a bd fb 63 a6 bc 98 3c 02 3c
       -0.0024179923 -0.033814806 -0.020311346 0.007949017
000060 6b 02 3c bc b3 38 35 3b b2 e1 96 3d e5 ad 69 bd
       -0.011475186 0.0027652204 0.07367267 -0.057050604
000070 07 f3 d3 3d 03 fb 3a 3d bd 2c 9a 3d 40 ef 3d bd
       0.10349088 0.04564954 0.075280644 -0.046370745
000080 e7 23 9a 3c 0a 07 bf 3d cc 9a 23 3d c3 64 f3 3c
       0.018815948 0.093275145 0.039942548 0.029711133
000090 aa 7f aa 3d 4c 20 81 3d 5f a4 c6 3d dd 20 21 3d
       0.08325131 0.06304988 0.0969932 0.03933798
0000a0 0c cd 35 3d 9a 61 b7 3d 24 57 5d 3d 0e 41 cd bc
       0.044385 0.08954163 0.054038182 -0.025055435
0000b0 c1 7d 3b 3d 16 92 84 3d 65 0c 63 3d bd 25 f9 bc
       0.045774225 0.06473176 0.055431742 -0.030413503
0000c0 2a 29 c8 3d fb 76 0c bd ed b9 c4 3d da da f0 bc
       0.097734764 -0.034293156 0.09605775 -0.029401232
0000d0 d5 0d 1d 3d f5 9f 39 bd a1 77 e4 3b 1b 45 54 3c
       0.03834327 -0.045318563 0.0069722687 0.012955929
0000e0 5d a1 ad 3b d8 5c c5 3d a4 c1 df 3d a0 2f 8a 3d
       0.005298777 0.09636849 0.10925606 0.06747365
0000f0 42 97 9e 3b f0 66 6d 3d 29 2f 39 3c bf cb b6 3d
       0.0048398087 0.057959497 0.011302748 0.0892558
000100 8f 83 cf 3d 64 1f 86 3d a3 15 42 b9 08 a1 c4 3d
       0.10132515 0.06548956 -0.00018509342 0.09601027
000110 8f a1 92 3d bf fb 40 bd ac 0c bd 3d 04 11 90 3d
       0.07159721 -0.047115084 0.092309326 0.070344955
000120 e4 d6 57 3d 90 2f 22 3c 92 25 29 bb c6 9c d0 3c
       0.05269517 0.009899035 -0.0025809747 0.02546538
000130 af 45 58 3d 43 d6 b3 3d 9b e1 5d 3c e1 a9 89 bc
       0.05280083 0.087811016 0.013542558 -0.016804637
000140 fc 1a 5a 3d e4 11 d9 3b 6c 34 14 bd 10 96 93 3c
       0.05324839 0.006624447 -0.036182806 0.018015891
000150 bd 21 de 3d c9 10 36 bc 83 c0 98 3d 2c db ae bb
       0.10846279 -0.0111124 0.07458594 -0.005336186
000160 82 57 01 bc 4a fc f5 3c cb 11 7c 3b 1a 87 a6 3d
       -0.007894399 0.030027527 0.0038462754 0.08131237
000170 27 fc 2b 3c 59 1d 94 3d 90 27 a0 3d 7b 55 e0 3c
       0.0104971295 0.0723216 0.07820046 0.02738451
000180 c0 23 0d bd 1d 51 c5 3d 95 10 d9 bb 10 e4 a1 bc
       -0.034457922 0.09634612 -0.006624291 -0.019762069
000190 93 3c d6 3d 2d d9 b1 bc aa 4e 95 bd 57 aa 40 3b
       0.10460772 -0.021710003 -0.072903946 0.0029398405
0001a0 6d 90 1e bd 24 fd 12 bd 7e 0d ff 3c 27 14 5a 3d
       -0.038711954 -0.035885945 0.031134363 0.053241875
0001b0 2e 81 13 3d c8 9f 43 bd c6 44 ac 3b 0f 60 22 3d
       0.036011867 -0.0477598 0.005257222 0.03964239
0001c0 b6 10 3c bd ca a8 89 bd b2 30 3c 3d 4c 56 ea 3c
       -0.045914374 -0.06721647 0.045944877 0.028605603
0001d0 aa 90 04 bd 07 fa be 3d 38 9c b7 3c 38 33 52 bc
       -0.032364525 0.09325033 0.022413358 -0.012829594
0001e0 97 59 29 3b 2b 13 b6 3d 7a 94 8f 3c a5 82 f3 bb
       0.0025840753 0.08890375 0.017526854 -0.0074313455
0001f0 7e 7b d3 3d 32 41 1c 3d 7c b9 74 3d 15 ea 0e bc
       0.10326289 0.038148113 0.059747204 -0.008722802
000200 eb 24 75 bd dc 30 68 3d 42 f0 8d bc d0 e7 ad 3d
       -0.05984966 0.05668722 -0.017326478 0.0849148
000210 42 59 c2 3c 51 ec da 3d 89 87 4e 3d 6a aa 77 3d
       0.023724202 0.10689605 0.050422225 0.060465254
000220 bc 22 68 3d 4a 9c 29 3d 0d 63 d1 3d bd e5 cd bc
       0.05667375 0.041408814 0.102239706 -0.025133962
000230 19 06 62 bd a2 e6 bb bc 48 f8 68 bd c5 d0 2d bd
       -0.055181596 -0.022937123 -0.056877404 -0.042435426
000240 35 b3 63 bd 2f ba 4c 3b d1 7e 48 bc 36 85 3b 3d
       -0.055590827 0.0031238904 -0.012237267 0.045781337
000250 1d 88 a3 3d 0f 84 df 3d 88 e3 37 3d 15 f0 e0 3d
       0.07984946 0.1091386 0.044894725 0.10983292
000260 fb d5 7f 3d e3 2d 05 bb 95 5c 7a bd 95 5e 22 3d
       0.062459927 -0.002032154 -0.06112345 0.03964098
000270 50 f8 5e 3d bf 2d 3d bd 41 67 22 3d fe 84 68 bc
       0.054436028 -0.046186205 0.03964925 -0.014191864
000280 9f f4 29 3b 13 c0 bc 3d fb 68 6d 3c 7a 87 17 3c
       0.002593316 0.09216323 0.014490361 0.009248609
000290 2a 36 52 3d 9d 90 bb 3c 5f 7a a3 3d 42 df d8 3d
       0.051321186 0.022896105 0.07982325 0.10589458
0002a0 0f aa 57 3d f1 20 c8 3c a7 10 78 bd f6 af b1 3d
       0.052652415 0.02442977 -0.060562756 0.0867614
0002b0 f7 c0 07 3d 77 29 ca 3d e8 d4 aa 3d 60 38 b7 3d
       0.03314301 0.0987119 0.0834139 0.089462996
0002c0 77 ca cb 3d b4 25 92 3c 92 88 bc 3d 18 83 d1 3d
       0.099507265 0.017840244 0.09205736 0.10230082
0002d0 7f ad 36 3c d3 13 9e bc d9 82 ad bb a7 a4 68 bd
       0.011149763 -0.019296562 -0.0052951393 -0.05679765
0002e0 ea c0 bb 3d 92 e2 c6 3c 1c ce fc bc 74 2a e2 bc
       0.09167655 0.024277959 -0.03086 -0.027608134
0002f0 9b 2b 66 3d b8 12 c6 3d f6 44 94 3d 9e 70 9a bd
       0.05619393 0.09671539 0.07239716 -0.07541011
000300 b8 11 f5 3c 79 b3 16 3d ef 6a 45 bd f7 49 94 3d
       0.029915676 0.036792252 -0.048197683 0.0724067
000310 68 e2 cb 3c f5 e6 01 3d 85 a0 ff 3c 49 a2 8e bb
       0.024888232 0.0317144 0.031204471 -0.004352842
000320 15 50 23 bc 02 c9 c3 3c 9d 9b b2 bc c0 c6 61 ba
       -0.0099678235 0.023899559 -0.021802718 -0.0008612685
000330 72 7b d7 3c 5f be 37 bd 19 8a 04 3d bb 27 bb 3c
       0.02630398 -0.044859286 0.032358263 0.022846093
000340 83 9e 3c bc 45 7f bc 3d e2 51 13 bd 12 fd cd 3d
       -0.0115124015 0.09203962 -0.03596676 0.10058035
000350 5f 17 47 bd d9 53 07 3d aa 28 b3 3d 4d 18 b1 3d
       -0.048606273 0.033038948 0.087479904 0.08647213
000360 4a f1 30 bd 4c 43 90 bd b6 f2 bc 3d a6 6c 35 bc
       -0.04319886 -0.07044086 0.09225981 -0.011073267
000370 04 d0 8b bd 9a e3 94 bd 7e 1a af 3c 59 68 a2 3d
       -0.06826785 -0.07269974 0.021374937 0.07930059
000380 4c 90 84 bb 17 32 c6 3d 6d ce 08 3d c2 89 33 bd
       -0.004045522 0.09677523 0.033399988 -0.043832548
000390 bb ba 6b 3d 80 92 d5 3d 8f f5 b4 3a 3b a0 82 3d
       0.057551127 0.10428333 0.0013806092 0.06378218
0003a0 38 80 ee 3c 09 89 4d 3c 94 f5 99 ba 1e af 3e bd
       0.029113874 0.012544879 -0.0011746162 -0.046553724
0003b0 ee 86 88 3d fe ac 36 bd 17 e3 a2 bc 0a 26 49 bd
       0.06666361 -0.044598572 -0.019883676 -0.049108543
0003c0 57 9c 7a 3d f4 b2 66 bd fc 60 b5 3d 4d e3 3b bd
       0.061184254 -0.056323007 0.08856389 -0.045871068
0003d0 12 95 5c 3d cb 8c aa 3d 09 3f c3 3d c8 85 ad bb
       0.053853102 0.083276354 0.095335074 -0.005295489
0003e0 7b 6e 2c 3d 82 d3 8d bc 40 c6 1f 3d 88 9f 0d 3d
       0.04209755 -0.017312769 0.039007425 0.03457597
0003f0 7e ca 88 bc c4 bf b6 3d a3 33 13 bc 2e 18 1e 3d
       -0.016698118 0.08923295 -0.008984479 0.03859728

lstm.weight_hh_l0 f4 [512, 128]
000000 45 77 ba 3d c4 bf a1 3d 0a 82 c0 3d 9a a4 0a bd
       0.0910478 0.078979045 0.09399803 -0.033848383
000010 8d db 86 3c b6 be a1 bd 42 b2 74 bd 19 8b 8c 3d
       0.016462112 -0.07897703 -0.059740312 0.06862468
000020 fa 1e a1 bd 0d 68 c8 3d c6 51 7a bd 59 44 bd bd
       -0.078672364 0.09785471 -0.06111314 -0.09241552
000030 c0 44 0e bd e2 17 a0 bd 6b de 14 3d 23 c9 3a bd
       -0.034733534 -0.07817055 0.036344927 -0.045601975
000040 86 21 66 bb 42 0b c1 3c f3 7b 6b bc 4b ad bc bc
       -0.0035115196 0.023564938 -0.0143728135 -0.023031851
000050 26 77 8d 3d d4 27 cc 3b c6 83 6b 3d e8 28 8b b9
       0.069074914 0.006230334 0.057498716 -0.00026542624
000060 20 8c a8 3d e7 f8 dc bd 6d 70 c1 3d 50 24 1e bd
       0.08229852 -0.10789662 0.09445272 -0.03860885
000070 62 20 9a 3c ca 0a 5b 3a af 49 d7 3d 82 dc 91 3b
       0.01881427 0.00083557947 0.10512101 0.0044513354
000080 fb 74 72 3c b7 19 bb bd 91 d9 30 bd 38 63 62 3d
       0.014798398 -0.09135764 -0.043176237 0.055270404
000090 a1 d5 67 bc 61 1b df 3c 54 ab e0 3b 0a f2 2e 3d
       -0.014150054 0.027234735 0.0068563614 0.042711295
0000a0 44 ba 23 3d 1d 01 9f 3c a5 50 d6 bd d7 9f c1 bd
       0.03997256 0.01940971 -0.104646005 -0.09454315
0000b0 d7 d4 fe bc e6 dd b6 3c 24 85 62 bd 42 08 f8 bc
       -0.03110735 0.022322606 -0.055302754 -0.030277375
0000c0 44 73 97 bd cb cf b3 bd 50 9f be 3c 20 c1 0b bd
       -0.07395032 -0.08779868 0.023269325 -0.034119725
0000d0 19 b5 a6 3d 99 14 53 3d bb 2a a5 bd 3c 89 dc 3c
       0.081400104 0.051533315 -0.08064791 0.026920907
0000e0 57 97 41 bd bc 6a 25 3d a0 3a 45 3d 46 16 c0 bc
       -0.04726347 0.040384993 0.048151612 -0.02344812
0000f0 39 3b a5 bd b4 08 de bc 5c 3b 92 3d 2a 39 56 bd
       -0.080679365 -0.02710376 0.07140228 -0.05230061
000100 d8 87 1d 3d 0f 45 25 bd 7d 72 90 bd 50 56 25 3d
       0.03845963 -0.040349063 -0.07053087 0.040365517
000110 8d 3f f0 3b d7 23 bc bd 55 de be b9 5d 1a d4 bd
       0.0073317946 -0.091865234 -0.00036405274 -0.10356591
000120 a6 7d 30 3d 40 8b f1 bb 3a be de 3c 60 c6 1c bd
       0.043088578 -0.007371336 0.027190316 -0.038275123
000130 4d 8c 34 3d 4c ff 8d 3d 87 f5 9e bc ca 24 dc 3d
       0.044079114 0.0693346 -0.019404186 0.107492045
000140 23 ce 29 bd 14 11 9c bc 0a 31 d0 3d 08 7a c7 3d
       -0.041456353 -0.019051112 0.101656035 0.097400725
000150 84 80 0d 3d 12 45 11 bd 65 7d 05 bd 6a 01 c7 bd
       0.03454639 -0.03546626 -0.03259029 -0.097170666
000160 87 2f f4 3b 47 98 05 3d aa 14 22 bd d9 e4 85 bc
       0.0074519548 0.032615926 -0.039570488 -0.016344475
000170 8e fc b5 bc 8f f2 93 bc d6 cc 6f 3d e1 38 8a bb
       -0.022215154 -0.018059997 0.058544956 -0.0042182063
000180 7e 51 2d 3d 68 b8 03 3d 83 c6 73 3d 8d 99 33 bd
       0.042314045 0.032158285 0.059515487 -0.04384761
000190 54 a1 4e 3d 8f 2a 08 3c 7c a9 2e 3d 08 aa 40 3d
       0.050446823 0.008310928 0.0426421 0.047037154
0001a0 b6 b0 7c bc fb 6f df bb 6e 21 a6 3d 67 48 d7 bc
       -0.015422991 -0.006818769 0.08111845 -0.026279641
0001b0 83 b2 37 3d 3e 52 7f bd a3 46 f8 bb 2c 5c 20 3d
       0.044847976 -0.06233429 -0.00757678 0.039150402
0001c0 9c cc d8 bc 13 64 0d 3d 9c e9 19 bd 16 ec 4e bd
       -0.026464753 0.034519266 -0.037576303 -0.050518118
0001d0 1a 7c 4e 3b 7b 05 2a 3d 3b ea 22 bd cd cc 8f 3d
       0.0031507076 0.041509133 -0.03977416 0.070214845
0001e0 2c 2e 20 3d d7 0b 2f 3d 0b 9f 82 bd 39 5b 84 bc
       0.039106533 0.0427359 -0.06377991 -0.01615678
0001f0 71 5c 40 bd 5b 23 10 bd be 52 3d 3d 58 b7 82 3d
       -0.04696316 -0.035189968 0.046221487 0.06382626
000200 d0 0e 24 bc 85 e9 ae 3d 5e 9b 4c bd 0c 31 17 3d
       -0.010013297 0.08540634 -0.049952857 0.03691201
000210 99 9c 35 bd ba fd 66 3d 11 9b db 3d e5 5e 77 3d
       -0.044338796 0.056394316 0.10722936 0.060393233
000220 ef 65 8f bd 52 ec db bc 9e 5d dc bd 32 f8 8d 3d
       -0.07001864 -0.026846085 -0.107600436 0.06932105
000230 4e 21 b1 3d 0e b3 b8 bd 7d 14 56 3c 0b 26 05 bd
       0.086489305 -0.09018527 0.013066408 -0.032506984
000240 be ac 41 3d 74 7f ef bb 43 d1 02 3d c5 f0 9c 3d
       0.04728388 -0.007308895 0.03193785 0.07663111
000250 2d 99 8d 3d a6 9f c9 bc 53 12 3f 3d 70 78 03 3d
       0.069139816 -0.02461226 0.046648335 0.03209728
000260 73 45 7c bc b4 aa 66 bd c6 c6 72 3d 2d 6f 25 bc
       -0.015397417 -0.05631514 0.059271596 -0.010097307
000270 45 0e 6b 3d d0 85 c3 3d c1 a6 8c 3c e9 10 58 3d
       0.057386655 0.09547007 0.017169358 0.0527505
000280 3d 8c 35 bd 0f 6e 04 3d ac 07 14 bd 41 8c de bd
       -0.044323195 0.032331523 -0.03614013 -0.10866595
000290 48 b2 80 3c 50 d6 e6 3b 95 aa 28 3d 44 cf c4 bd
       0.015710011 0.007044591 0.041178305 -0.09609845
0002a0 eb 7c 55 3d 10 b6 6c bd e6 62 6c bd 12 f4 b1 bc
       0.052121084 -0.057790816 -0.057711504 -0.021722827
0002b0 3e 9b 7b 3a 7d d9 fd bc da c1 55 3d f4 75 cd 3d
       0.0009598023 -0.030987496 0.052186824 0.100322634
0002c0 a7 2f be 3c c4 05 96 3c 7e 82 7e 3d a7 a3 c3 3c
       0.023216082 0.018313296 0.062136166 0.023881746
0002d0 fa 8b 29 3d 96 a9 b0 3c a1 af 2b bd bf 39 0f bd
       0.041393258 0.02156524 -0.04191554 -0.03496718
0002e0 b5 5b 2b 3c 13 9a 68 3d 2c 7a 67 bd 6d 00 b9 3d
       0.010458876 0.05678756 -0.056512997 0.09033284
0002f0 cd 80 b3 3c 21 11 c8 bc f0 2a 80 3c f4 0c 50 bd
       0.021912003 -0.02442223 0.015645474 -0.050793603
000300 21 63 5a bd fa ed bd bc 4e 20 ab bd c4 1b 4a bd
       -0.053317193 -0.023184765 -0.08355771 -0.049342886
000310 8b c6 3a 3d 77 d5 20 3d 6a 62 9f bd 26 b7 41 3d
       0.0455995 0.039266076 -0.07782443 0.047293805
000320 68 21 5d bd 58 35 88 bc 0f b4 ce 3d 65 4e b4 bd
       -0.053986937 -0.016626999 0.10092937 -0.08804015
000330 65 e7 68 3d d5 41 c7 bc b5 7d 8d bd aa 23 1b bd
       0.0568613 -0.024323383 -0.06908742 -0.03787581
000340 96 37 7c bd 77 23 e7 3c a0 5f 89 bc 53 e7 7e 3d
       -0.06157645 0.028215153 -0.01676923 0.062232327
000350 45 b7 3c 3d ff 42 90 bd b7 1c 44 bd 07 58 cb bc
       0.046073217 -0.070440285 -0.047878947 -0.024822248
000360 a4 2c b7 bd b6 26 b9 bd 90 9f a3 3d 56 cd 87 bd
       -0.089440614 -0.09040587 0.079894185 -0.066309616
000370 c1 f4 82 3d 77 af 6c bc 79 e2 6a 3d 8b aa a0 3d
       0.06394339 -0.014446131 0.057344887 0.078450285
000380 fa ad 24 bd 58 d8 f8 bc 42 59 1a bd d0 50 a0 3d
       -0.04020498 -0.030376598 -0.03768278 0.07827914
000390 90 b8 45 bd ab b4 c9 3c 2e f0 3c 3d b5 f3 b8 3d
       -0.048271716 0.024622282 0.04612749 0.090308584
0003a0 55 59 af 3d 7d 98 99 3d 7e 51 b9 bc bb 06 9f 3c
       0.085619606 0.07499788 -0.022621866 0.019412389
0003b0 30 34 bb bd ee 52 fb 3c 96 4b b7 3d ee 77 19 3d
       -0.09140813 0.030679192 0.08949964 0.03746789
0003c0 9d 88 31 bd a6 50 ac 3c 41 01 b7 3d 99 ae 04 3d
       -0.043343175 0.02103455 0.08935786 0.03239307
0003d0 fe 20 f6 3c e0 76 d3 3c d8 bb 04 3d 16 6e 29 bd
       0.030045029 0.02581352 0.032405704 -0.04136475
0003e0 1e 7b b4 bd d9 5c a1 3c 9f e2 7a 3c 08 69 05 bd
       -0.08812545 0.019697594 0.01531282 -0.03257087
0003f0 70 f8 d5 bc 37 8b 1e 3d 0c 1e 02 3d 7f 9f 0d bc
       -0.02611944 0.038706984 0.031766936 -0.008643984

lstm.bias_ih_l0 f4 [512]
000000 89 30 04 3d 58 3d d0 ba 19 cd 8f bd 46 ef 0b bd
       0.03227285 -0.0015887422 -0.07021541 -0.034163736
000010 d4 45 5a bd f0 2f 60 bd 66 0f 52 bb a6 d0 66 3d
       -0.05328925 -0.054733217 -0.0032052635 0.056351326
000020 8b 10 ba 3d 75 15 f0 ba 07 87 79 bc 0f 55 dc 3d
       0.090851866 -0.0018316942 -0.015229947 0.10758411
000030 4d ea 83 bd 40 65 4b bd a2 96 70 bd d8 e4 a0 3d
       -0.06441174 -0.049657106 -0.058737405 0.078561485
000040 55 81 be 3d 15 d9 43 bd 38 44 9d 3d cc 37 74 3d
       0.09302012 -0.047814447 0.07679027 0.059623525
000050 05 73 7a 3d 04 75 87 bd 87 50 66 bd fa bf 47 bd
       0.061144847 -0.06614116 -0.05622914 -0.048767067
000060 c8 cd ad bc 3e 8c cd 3d 8a 42 32 bd 4a c9 01 3d
       -0.021216288 0.10036515 -0.043520488 0.031686105
000070 d6 eb 84 3d cb 03 35 bd 8c f5 65 3d b5 d1 7e bd
       0.06490295 -0.04419307 0.056142375 -0.06221171
000080 3a ed 5c bd c4 22 f3 3c 8d bd c4 3d df 07 c6 3c
       -0.053937174 0.029679663 0.096064664 0.024173675
000090 c7 5d 75 3d e6 af a5 3d 66 59 fa bb 69 6d cb 3d
       0.059903886 0.080901906 -0.0076400517 0.09932978
0000a0 77 0a 35 bd d9 23 90 3d 93 d3 ad bc e2 15 77 bd
       -0.044199433 0.070380874 -0.02121905 -0.060323603
0000b0 5b 00 98 3d b3 ef 9c 3c de 28 91 3d 24 19 bf bc
       0.07421943 0.019157266 0.07087873 -0.023327418
0000c0 b6 21 6e bd e1 cf 41 3c b9 89 e4 3c 00 9f b8 3d
       -0.058137618 0.011829347 0.027897703 0.09014702
0000d0 49 5c 7f bd 2e 16 8a 3d 7f 14 99 3d 41 6f 21 bd
       -0.06234387 0.06742512 0.074746124 -0.03941274
0000e0 a5 b2 25 bc 8b 45 b0 3b 15 d1 bb 3d 2c 6c 5f bd
       -0.010113393 0.005379384 0.091707386 -0.05454652
0000f0 6d 95 aa 3d 19 14 aa 3d 3f d5 7b bd 2b 74 a9 3d
       0.08329282 0.083046146 -0.061482664 0.082741104
000100 fe f9 d4 3d a9 7b 58 3c 55 44 bc 3d 6a fb d3 bb
       0.10399245 0.013213077 0.09192721 -0.00646918
000110 14 02 43 bc 7e dc b7 3d 5c e4 30 bd 23 f4 fe 3a
       -0.011902351 0.089776024 -0.04318653 0.001945142
000120 24 88 b3 3d 37 da 2e 3d 71 07 11 3d e8 54 12 3d
       0.08766201 0.042688575 0.035407487 0.035725504
000130 2c af 5f bd 4f 9f e7 b8 fd 44 58 bd 9a f2 7e 3d
       -0.054610416 -0.00011044612 -0.052800167 0.06224308
000140 61 4f 97 ba 96 67 72 3c 65 f7 3d bd 54 f1 58 bc
       -0.0011544042 0.014795205 -0.046378512 -0.013241131
000150 c1 1c 28 bd c9 f9 06 3d af 86 5e bd 3b 86 84 bd
       -0.041043047 0.032953057 -0.054327663 -0.06470915
000160 ea 8e ef bc 61 b2 3d bd 0e e5 11 3c 6c 50 bf 3d
       -0.029242951 -0.046312694 0.008904709 0.09341511
000170 9b b3 9d bc cb fb 62 3d 61 7b 07 3d dd fb 9e bc
       -0.019250682 0.05541591 0.033076648 -0.019407207
000180 c7 7a ec 3c 56 cf 53 3d 97 ce d2 bc ac 61 86 bd
       0.028867139 0.051711403 -0.025733275 -0.06561598
000190 70 e3 74 bd 6e ec c8 3c bc 9d fd 3c a8 a1 69 bd
       -0.059787214 0.024526801 0.030959003 -0.057038933
0001a0 07 f4 28 3d 7b 08 d6 3d f5 b6 ce 3d d0 4d 5c 3d
       0.041248348 0.10450836 0.1009349 0.053785145
0001b0 95 69 6f bd 38 c6 15 bd 4a c4 19 bd 82 b5 78 3c
       -0.0584503 -0.03656599 -0.03754071 0.015179994
0001c0 63 ed b4 3d f0 c5 5e bd f3 8b 0a bd a4 a0 a1 bc
       0.088343404 -0.054387987 -0.033824872 -0.01972992
0001d0 c2 cd ae 3d bc 6a 6b 3d 1d 9e a3 bb 51 d3 ab bd
       0.08535339 0.057474837 -0.004993214 -0.08389915
0001e0 7e 06 3e 3d bb 45 1c bd 65 5c 31 3d 0a 9c ba 3d
       0.04639291 -0.038152438 0.043301005 0.09111793
0001f0 12 40 82 bd f8 18 18 3d c0 15 01 bd 6f 68 26 3d
       -0.06359877 0.037133187 -0.031514883 0.04062694
000200 3a 89 c2 3d 55 0e b0 3d 6b 66 12 3d 73 37 89 3d
       0.0949883 0.085964836 0.035742205 0.06700029
000210 14 da 97 3d ec c0 bb bc 63 9a ad 3d f9 2f 6e 3c
       0.07414642 -0.02291914 0.084767126 0.014537805
000220 ef e9 cd 3d 9e af c4 3d 8b 7a 46 bb 23 08 2e 3d
       0.10054385 0.09603809 -0.0030285444 0.04248823
000230 ac 83 10 3d 64 e2 3a bd 6a 2c 5d bd 9e fc 28 bd
       0.035281822 -0.04562606 -0.053997435 -0.04125654
000240 18 08 32 3b d8 e4 28 3d 15 47 83 bc 21 1f 17 bd
       0.0027165469 0.041233867 -0.016025105 -0.03689492
000250 5d bf 37 bd cd 76 49 3d fd 0a a7 3d 30 8c 80 3d
       -0.044860233 0.049185563 0.08156393 0.06276739
000260 3a 4e f5 bc f0 71 3f bd a6 9e ae 3d d2 58 05 3d
       -0.029944528 -0.04673952 0.085263535 0.03255541
000270 10 b2 7e 3d b8 71 55 bd 29 14 21 bc 6a 37 ca 3b
       0.062181532 -0.052110404 -0.009831467 0.0061711567
000280 a1 98 4b bd 60 8c 80 3d 9d 81 de 3d c0 43 9c 3d
       -0.049706105 0.062767744 0.108645655 0.0763011
000290 78 1d 9d 3d bc 0c 0d bd 0f 85 5f bc c5 be 67 bd
       0.07671636 -0.034435973 -0.0136425635 -0.056578416
0002a0 0a ad 52 3d 8c 3b c7 3c 0e d9 7c 3c d9 b4 c9 3d
       0.051434554 0.024320386 0.015432609 0.09848947
0002b0 e4 e5 21 3c c2 99 15 ba 9b 69 5d bd 95 5e c3 bc
       0.00988147 -0.00057068106 -0.05405579 -0.023848811
0002c0 d4 89 47 b8 17 c1 31 3d 96 d1 ce 3d a3 da 69 bc
       -4.757366e-05 0.043397035 0.10098569 -0.014273318
0002d0 7c a6 1b bd c3 f0 be bc 00 75 e3 bc 45 a1 83 bd
       -0.03800057 -0.023308164 -0.02776575 -0.06427244
0002e0 65 00 11 3d 53 96 64 bd 59 98 1a 3d ac af d1 3d
       0.035400767 -0.055807423 0.037742946 0.10238585
0002f0 7d 3c d7 3c b5 ed f5 3c 07 8d 92 3a 54 b2 c3 3d
       0.02627396 0.030020574 0.0011180945 0.09555498
000300 56 f1 06 3d bd d7 0e 3d b4 be 9d 3d dd a4 4c bd
       0.032945 0.034873713 0.07702389 -0.049961913
000310 b5 fa b2 3d 10 6a 4c bc b9 15 6d bb ae 68 60 3d
       0.08739225 -0.012476459 -0.0036176278 0.05478733
000320 9a 72 f1 bc 65 00 19 bd 05 74 e1 3d b4 cb 7d bd
       -0.029473592 -0.037353892 0.11008457 -0.061961845
000330 6e 2e 27 bd c9 07 02 3d 74 98 64 bd 84 75 94 3b
       -0.040815763 0.031745706 -0.055809453 0.0045306105
000340 4e c3 88 bd ed 1a 35 bd dc 1a c1 bc f3 3d 65 3d
       -0.066778764 -0.04421513 -0.023572378 0.055967283
000350 7e 4d e6 3c a0 e2 58 bc c4 e8 bd 3d 18 e8 2a bd
       0.028113123 -0.013237625 0.09272912 -0.041725248
000360 83 bd b6 3b 2b d5 83 b7 55 a4 36 bd 5f 6e 17 3d
       0.005576791 -1.5715681e-05 -0.044590313 0.036970492
000370 6a de 75 3d 1f 14 e6 3d 1f 80 65 3d 58 50 4e 3c
       0.060026564 0.112343065 0.05603039 0.012592398
000380 df 86 dd 3d 2d 82 1d 3d e2 f8 b6 bc a1 3c a4 bb
       0.1081674 0.038454223 -0.022335473 -0.0050121103
000390 9f 77 46 3d 63 4c 23 bd 6d 96 1c 3d c2 29 e9 bc
       0.048453923 -0.03986777 0.038229395 -0.028462294
0003a0 e1 f1 35 bd 88 5a bc bb 2f 1f 57 3d ce 6f a6 3d
       -0.044420127 -0.005748097 0.052519973 0.08126794
0003b0 97 05 48 bd b4 57 a4 3c fa 9a a9 3d 04 6d 9a 3d
       -0.048833456 0.020061351 0.082815126 0.07540324
0003c0 6f d4 8f 3d 1d b8 1f bc 58 12 be 3b 7a 8f 88 bb
       0.0702294 -0.009748486 0.0058005266 -0.0041674944
0003d0 5c 2a b5 3c 9f c8 97 3d 97 24 ec 3d fa 47 af 3c
       0.022114925 0.07411312 0.115304165 0.021396626
0003e0 79 30 9d bb 42 bc 58 3d d6 0b 11 3d a3 30 b1 3d
       -0.004797038 0.05291391 0.03541168 0.08651855
0003f0 df f5 ce 3d 39 d7 bb 3a 2f 06 9e bc c8 6d 31 bd
       0.1010549 0.0014331109 -0.019290058 -0.043317586

lstm.bias_hh_l0 f4 [512]
000000 f7 82 5f bc 88 0d 84 3c a4 a1 aa 3d 95 b9 85 3d
       -0.013642064 0.016119733 0.08331612 0.065295376
000010 0f 03 09 bb a8 06 40 3c 4a b7 25 bd b8 e9 7e 3d
       -0.0020906364 0.011720337 -0.040458 0.06223461
000020 58 e2 ef 3c 05 73 ce 3d b0 b2 53 3d f3 a2 c6 bc
       0.029282734 0.10080532 0.05168408 -0.024247622
000030 35 ac 3b 3d 21 ce 2b 3d ae 7c 40 bd 02 65 8c 3c
       0.045818526 0.041944627 -0.046993904 0.017138008
000040 af 49 4c 3d c1 85 29 bd 3a b9 09 3d af b2 25 bc
       0.049874958 -0.041387323 0.03362391 -0.010113402
000050 5a b3 a4 3d 10 fb 52 bc 77 7a 3d bd c3 f9 12 bd
       0.08042021 -0.012877241 -0.04625937 -0.035882723
000060 17 91 af 3d db 25 62 bd 1b 7b c3 bc dd 49 43 bd
       0.085725956 -0.055211883 -0.023862412 -0.047677863
000070 ac a5 9f bc ee b1 36 bc aa 9b 81 3c eb 62 8d 3d
       -0.019488178 -0.01115082 0.015821297 0.06903633
000080 b8 8f c8 3d 5b 6d 39 bd 3b 6a 53 bd 39 27 6f bd
       0.09793037 -0.045270305 -0.05161498 -0.058387015
000090 5e ff 31 bc 42 b4 b9 3d 74 d7 1d bd d4 35 34 bd
       -0.010864107 0.090675846 -0.03853555 -0.043996647
0000a0 40 11 38 bd 09 f2 72 bd c1 a4 7f 3c ea c4 a4 3d
       -0.044938326 -0.059312854 0.015603245 0.08045371
0000b0 2d 66 8c 3c 05 f9 b4 3b f8 4f 40 3d a7 23 88 3d
       0.017138565 0.0055228495 0.046951264 0.06647425
0000c0 da 12 22 bc d8 ff ca 3d fd 76 a8 3d ca 73 c2 3d
       -0.00989219 0.099120796 0.0822582 0.09494741
0000d0 8f 54 6e bc d3 4c af bc 85 5c 8f bc 35 03 e1 bc
       -0.0145465275 -0.021398937 -0.017500171 -0.02746735
0000e0 46 a6 5c bd 60 93 87 3a da be dd bc d5 57 0b bd
       -0.05386951 0.0010343604 -0.027068544 -0.03401931
0000f0 47 45 ae bc da cd 5a bd 6e b3 de 3d b4 3d bf 3d
       -0.021273268 -0.05341897 0.10874067 0.09337941
000100 8e fb c5 3d a6 0d 8a 3a ee 93 3e bc 16 0b 22 3d
       0.09667121 0.0010532632 -0.011631949 0.039561354
000110 7c 10 e8 3d 05 c7 9f 3c 0b 97 d0 3c 1e ba 3d bd
       0.11331269 0.01950408 0.025462648 -0.046320073
000120 78 06 53 bd 1d 32 5c 3d 95 93 ce bc 19 55 8b 3d
       -0.05151984 0.05375873 -0.025216857 0.068033405
000130 a0 77 14 bc 5b c6 8d 3d 2f 86 b8 3d c6 4a 8b bc
       -0.009061724 0.06922599 0.090099685 -0.017003428
000140 b3 03 9f 3d 7e 74 72 3d 1a 2d a2 bc 7b 1b 30 3d
       0.077643774 0.059193127 -0.019796897 0.042994957
000150 fc b2 b1 3d ef 72 2a 3d ee 44 0a bc 3b 18 15 3d
       0.08676717 0.041613515 -0.008439286 0.03640006
000160 1e a5 8e 3d df 70 72 bc cd 89 77 bd bd e9 7c 3c
       0.06965087 -0.014797418 -0.06043415 0.015436587
000170 e0 3b e1 3c 1a 7f a3 3d 78 9d 56 bd 09 20 86 3c
       0.027494371 0.07983227 -0.052396268 0.016372697
000180 f8 2a 10 bc c1 4c a6 bd af f6 c1 3d 0a 19 9b bb
       -0.008799307 -0.081201084 0.09470879 -0.0047332095
000190 7c 73 61 bd 73 d2 1d 3c 93 06 8b 3d 6f cd da 3d
       -0.055041775 0.009632695 0.06788363 0.106837146
0001a0 21 e6 40 3d 47 a8 d2 3d 56 08 83 bd c4 44 51 bd
       0.047094468 0.102860026 -0.06398074 -0.05109097
0001b0 fc f6 91 bd c1 a0 3d bc d6 0c 11 bd 68 09 38 bc
       -0.07127187 -0.011573971 -0.035412632 -0.011232711
0001c0 6d 9e 85 3a 8f 4e ac 3d 13 0b 82 bd 0c 43 e0 3d
       0.0010194309 0.08413421 -0.063497685 0.10950288
0001d0 25 ec a4 3d 2b 2e 9d 3d cd f8 13 3d 68 f6 be bd
       0.080528535 0.076748215 0.036125947 -0.09324342
0001e0 bd da 8d 3d 5f 9e ac 3d 0d 5e 6e 3d 7b cd 9f bc
       0.06926487 0.084286444 0.058195163 -0.01950716
0001f0 ad 7a 72 3d c7 df 36 bd 83 ec 3b 3c a9 ea 3c bc
       0.059199024 -0.044647004 0.011469963 -0.011530557
000200 f9 c7 8a bd 2a 1d d3 3c 99 af 81 3c d6 ab 74 bd
       -0.06776423 0.025770742 0.015830802 -0.059734188
000210 df 7d 5f bd 78 39 5b bd 8d 74 bd 3c 4e 9e 96 bc
       -0.0545634 -0.053521603 0.023126865 -0.018386032
000220 ab 7d c8 3d 64 5e 98 3d 89 8d d1 3c a2 b2 63 3d
       0.09789594 0.074398786 0.025580185 0.05559028
000230 27 d2 8c bc 38 9e d0 3d a7 88 8a 3c f2 ac 04 bd
       -0.017190052 0.10186428 0.016910864 -0.032391496
000240 77 ca 17 bd 76 3a d3 bb aa c8 eb bc c4 ce 6d bd
       -0.03705832 -0.006446178 -0.028782208 -0.058058515
000250 ab 57 13 bd ee c7 6b 3c b4 3b 05 bd e9 d1 ac 3d
       -0.03597228 0.014390929 -0.03252764 0.08438475
000260 e0 1a a4 3d b7 2b af 3a 01 e3 64 bd 13 8c 42 3c
       0.080129385 0.0013364468 -0.05588055 0.011874217
000270 da cd 25 3d ad 96 29 3d 93 fe 0f 3c 59 92 74 3d
       0.04047952 0.04140346 0.008788723 0.05970988
000280 47 a2 04 3a 9d 16 92 3d 1d 35 a2 3c fc 62 a7 3d
       0.00050595816 0.071332194 0.019800717 0.08173177
000290 bc bf 37 bd 7d 6e 45 bd f5 89 04 bd b3 f3 45 3c
       -0.044860587 -0.048201073 -0.03235813 0.012082028
0002a0 6f e8 aa 3d 09 43 9f 3d 7f a2 09 bd 53 40 71 3d
       0.083451144 0.07776458 -0.033602234 0.058899235
0002b0 90 8b 95 bc 02 4f 89 3d 89 2e 03 3d d5 a6 7a bd
       -0.018255025 0.06704523 0.0320268 -0.06119426
0002c0 31 a7 5e 3d 45 72 79 3d 84 df bf bc ff 48 0c 3d
       0.054358665 0.06089999 -0.02342201 0.034249302
0002d0 95 0b 82 3d 90 83 1b 3d f8 36 9f 3d 53 91 a4 3d
       0.06349865 0.037967265 0.07774156 0.08035531
0002e0 13 35 76 bb 02 d4 91 3d 15 97 2d 3d f2 c9 db 3d
       -0.0037568256 0.071205154 0.04238041 0.107318774
0002f0 e8 41 4b 3d 19 18 98 3d 52 c2 aa 3b ea f2 e4 3d
       0.0496234 0.07426471 0.005211153 0.11179145
000300 09 b9 46 3d e8 d1 c7 bc 01 00 db 3c 1e 57 cf 3d
       0.048516307 -0.024392083 0.0267334 0.10124038
000310 2e dd 45 bd 47 e8 42 3c e8 4d 2f 3c cd ba 3e 3c
       -0.048306637 0.0118962 0.010699727 0.011641216
000320 eb de ee bb 4b e2 06 bd d5 9c d0 bc f9 d4 89 ba
       -0.0072897575 -0.032930654 -0.025465408 -0.0010515741
000330 27 ff e9 bb ca 25 1b bd bb 1d c2 3d 43 a7 6d bd
       -0.007141012 -0.037877835 0.09478327 -0.05802084
000340 46 3f 85 bd 1c 91 17 bd 3a 59 17 bd c3 46 fb bc
       -0.06506209 -0.03700362 -0.036950327 -0.03067339
000350 08 18 2e bd a7 3a ce 3d 84 41 b6 3d c9 c8 ff 3b
       -0.042503387 0.10069781 0.08899215 0.007805918
000360 d7 d5 09 bd 44 21 10 bd 72 84 b3 3d 44 84 6b 3d
       -0.0336512 -0.035187975 0.08765496 0.057499185
000370 2e 4d 92 3d e4 0e 23 3d cf c0 ca 3d d5 db 6c 3b
       0.07143627 0.039809123 0.099000566 0.0036141772
000380 21 3c 92 3d 17 54 e1 bb 35 68 15 3d eb 91 6f bd
       0.07140375 -0.0068764794 0.036476333 -0.058488768
000390 b7 59 bb 3d 7b df 52 bd 26 b5 26 3d b5 01 b3 bc
       0.09147971 -0.05148266 0.0407001 -0.0218514
0003a0 47 d3 b2 bc 1c 5a e3 b7 41 99 98 3c d9 f9 c6 3d
       -0.02182926 -2.710247e-05 0.018627765 0.097156234
0003b0 1b 19 49 bd 1e 42 65 bc 5f d3 3a 3d a3 3a 8d 3d
       -0.049096208 -0.013992814 0.045611735 0.0689595
0003c0 38 f6 81 bd 22 02 8d 3d 7f 6e b3 3d 48 b4 96 3b
       -0.063457906 0.068851724 0.0876131 0.004599128
0003d0 cd bc ad 3b 73 f6 ca 3d 09 25 3a bd c4 94 d2 bd
       0.005302048 0.09910288 -0.045445476 -0.10282281
0003e0 36 4d 24 bd 29 e5 96 b9 ac ba cc 3d bb 02 62 bd
       -0.040112697 -0.00028780967 0.09996542 -0.055178385
0003f0 7b 3d b4 3d a3 64 b4 3d 4a 4c d3 3d 4f 93 e4 bc
       0.08800789 0.088082574 0.10317285 -0.027902273

lstm.weight_ih_l1 f4 [512, 128]
000000 7e 64 d3 3d 58 3c 8d 3c 45 f2 13 3d 5d 91 af bd
       0.10321902 0.017240688 0.036119718 -0.08572648
000010 c0 27 e2 3d c2 3c 75 bd 4f 1c c8 3c f4 ed d7 bd
       0.11042738 -0.059872396 0.024427561 -0.10543433
000020 c1 68 2c 3d a7 2b 20 3d e6 4a c3 bd 26 43 ad bd
       0.04209209 0.03910413 -0.0953577 -0.08460073
000030 dd 8f ac 3c 08 10 e4 bc ea cc 60 bc 66 bf 26 3c
       0.021064693 -0.027839676 -0.01372073 0.010177469
000040 70 8b 4d 3d 8d 2e 8f bd 57 81 34 3d f3 cc 71 3d
       0.050181806 -0.06991301 0.04406866 0.059033345
000050 0c 89 96 bc a8 5a 4b bc e1 8c 8c bb ac 3a 9c bd
       -0.018375896 -0.012411751 -0.004289255 -0.07628378
000060 f4 29 7c bd ea ed 43 3d 51 30 1a 3d a2 32 e3 39
       -0.061563447 0.047834314 0.037643734 0.00043334538
000070 00 ce c8 bd ec b2 c6 3d 1b fc 61 3d 5c 13 a1 bc
       -0.098049164 0.097020954 0.055172067 -0.019662552
000080 0a dd 28 3d 87 86 38 bd d6 1f 75 3b 0c 54 ba bd
       0.041226424 -0.04505017 0.003740301 -0.09098062
000090 4a 2f 84 3d d9 1e 96 3c 7b ca 6c 3d 75 b6 8e bd
       0.06454332 0.018325256 0.057810288 -0.06968395
0000a0 56 dc a8 bd 12 d2 78 3d 20 19 d7 bc 2e 42 38 3d
       -0.08245151 0.060747214 -0.026257098 0.04498499
0000b0 42 33 65 3d b7 4a a3 3c 77 01 d3 bd df 81 c8 3d
       0.055957086 0.019933088 -0.10303014 0.09790396
0000c0 55 d9 07 bd dd 6a 3d 3d 3e ad a0 bd fa 09 51 bd
       -0.03316625 0.04624449 -0.07845543 -0.051034905
0000d0 b1 b8 0b bd 4c 99 21 3d db cf 82 bd 71 6b dc 3c
       -0.034111682 0.039452836 -0.063873015 0.0269067
0000e0 65 4e cc bc 0f 18 3c 3d cd a5 2e 3d 6e 1b 36 bd
       -0.024939725 0.04592138 0.04263859 -0.044459753
0000f0 bf ab 2d bd 87 b7 71 3c 83 12 f9 3b 70 18 d6 3d
       -0.042400118 0.014753229 0.0076010837 0.1045388
000100 a9 43 6a bd 08 73 69 bd 2f 17 0a 3a 24 c1 ba 3c
       -0.057193432 -0.056994468 0.0005267737 0.022797175
000110 66 48 f7 3c 81 1d 82 3d f0 32 ad 3c 61 3b c1 bb
       0.03018589 0.06353284 0.021142453 -0.005896971
000120 e3 9a 5a 3d 41 19 10 bd 47 ad c5 3d a1 8d a6 bd
       0.053370368 -0.035180334 0.09652191 -0.08132482
000130 8f 6f 83 bd ce c8 e1 3b 49 7c 5a 3d 75 7b 30 3d
       -0.064177625 0.006890393 0.053341184 0.043086488
000140 5b 46 c7 bc cb 63 b6 3d ce 47 33 bd 85 2e 74 3d
       -0.02432554 0.08905753 -0.04376965 0.059614677
000150 e7 65 44 3d 89 58 e2 3c 6c 7c de bd 44 f6 92 bc
       0.047948744 0.027630107 -0.10863575 -0.017939694
000160 af 90 a1 bd fd 61 ab bd b1 cd 70 3c d3 40 4a bd
       -0.07888924 -0.08368299 0.014697478 -0.049378227
000170 30 a9 33 3c 5f 34 1b 3c 9e 1a 38 bd 7e 32 36 3c
       0.01096563 0.009472935 -0.04494726 0.011120437
000180 0f 11 fc bc 82 54 3f 3d da 32 9a 3d 66 5e af bd
       -0.030769853 0.046711452 0.075292304 -0.08562927
000190 3f 5a 1e bd 3f 53 2b bd 00 f3 07 3c f6 8a 27 3c
       -0.038660284 -0.041827437 0.008297682 0.010226002
0001a0 67 16 8b bc 82 d5 c9 bc ea ab d6 3a 7d 5e 0a 3d
       -0.016978456 -0.024637941 0.0016378139 0.033781517
0001b0 c0 21 53 3d d8 64 eb bc 7a 87 b1 3d 33 45 76 3d
       0.05154586 -0.02873461 0.08668418 0.060124587
0001c0 13 7f 2b bd 15 75 8a 3c b8 5e dd 3c a1 2e a0 bd
       -0.041869234 0.016901532 0.027022704 -0.07821394
0001d0 4d 61 2d bd e7 40 5a 3d c8 e3 ef 3c 47 00 72 3c
       -0.04232912 0.053284552 0.02928342 0.014770574
0001e0 c0 93 13 bd 33 f1 7f bd 22 81 18 3d 5d 11 94 3c
       -0.036029577 -0.062485885 0.037232526 0.018074686
0001f0 fb 81 e0 3d 24 f3 ca bd 0c 39 7f bc f4 dc db ba
       0.10962292 -0.09909657 -0.015577566 -0.0016774223
000200 f1 33 12 3d 4e 10 20 3d e7 05 5d bd ab 2f f2 bb
       0.035694066 0.03907805 -0.053960707 -0.0073909364
000210 f6 c6 cf 3d 21 66 21 bd 1d 89 0f bb e9 dd cb bd
       0.10145371 -0.03940404 -0.0021901794 -0.099544354
000220 e8 3c bf bd 20 04 0d 3d 4b ba e6 3c 47 c2 2f bd
       -0.09337789 0.034427762 0.028165003 -0.042909887
000230 86 ff 09 3d 5a 82 a3 bc 14 22 a6 3d 1c 43 66 3d
       0.03369095 -0.019959617 0.08111969 0.056216344
000240 c7 23 82 3d 37 95 85 3d eb 26 dd 3d e1 d0 c7 3d
       0.0635448 0.06522601 0.10798439 0.09756637
000250 4a dc 7f 3c 27 62 ce bd 12 ab bd 3d 36 86 2c bc
       0.015616486 -0.10077315 0.09261145 -0.010530045
000260 8c bf 96 3d 1c f9 34 bd b3 9e ab bc b9 2f 97 3d
       0.073607534 -0.04418288 -0.020949697 0.07382149
000270 eb b1 95 bd f3 c7 e0 3c 66 c6 37 bd 7b 4b b7 3d
       -0.07309326 0.027439093 -0.044866942 0.08949944
000280 19 3f bb bd 62 54 82 3c b5 b0 d8 3d 9a 94 9c bc
       -0.09142894 0.015909377 0.10580579 -0.019113827
000290 42 19 9b 3d d2 ee c9 bc 31 fd 6e bd ec 6d 9b bd
       0.07573177 -0.024650011 -0.05834693 -0.07589325
0002a0 d6 52 dc bb 3a f5 86 bd 9f 71 31 39 8f eb d3 bd
       -0.006723742 -0.06589742 0.00016922363 -0.103476636
0002b0 78 3b d5 3d ff c2 8b 3d ea e8 b8 bd 1e 6b 87 bd
       0.104117334 0.06824302 -0.090288 -0.06612228
0002c0 d0 9b 1d 3d bb 77 91 bd 45 a7 48 bd 28 c1 69 bd
       0.038478673 -0.07102915 -0.048987646 -0.057068974
0002d0 99 d0 77 3d 46 43 e6 3a 6c 12 af 3c a5 c4 a8 3d
       0.06050167 0.0017567656 0.021371089 0.08240632
0002e0 7a c4 6f ba c4 48 35 3d d3 f0 86 3d be 91 46 3d
       -0.0009146404 0.044258848 0.06588902 0.048478834
0002f0 6b d3 b6 bd 41 c1 87 3c d9 46 23 bd 43 1b 32 bd
       -0.089270435 0.016571643 -0.039862487 -0.04348303
000300 12 d6 07 3c 24 37 c7 bd 81 d5 45 3d 30 40 6b bd
       0.008290784 -0.09727314 0.048299316 -0.05743426
000310 5d 4e 07 3c cd 09 7f bd 07 96 63 3d d6 18 6e 3d
       0.008258429 -0.062265206 0.055563 0.058129154
000320 5e 7d b8 3d 98 ae f2 bc f2 0a 81 3d c3 13 d5 3c
       0.09008287 -0.029624268 0.06300916 0.0260104
000330 a5 ba 4b 3d 44 65 aa bd 68 ff 30 3d fc 26 bf 3d
       0.049738545 -0.08320096 0.043212324 0.093336076
000340 19 d0 0f 3d f5 87 8c bd 4e e6 28 3c 94 82 23 bd
       0.035110567 -0.06861869 0.010308815 -0.03991945
000350 29 92 fa bc ef 7e 35 bd 34 77 96 bd 7c db 6c bd
       -0.030587273 -0.044310506 -0.07346955 -0.057826504
000360 62 12 35 bb 19 d8 7c bd 81 dd d5 3d e6 67 83 bd
       -0.0027629365 -0.061729524 0.10442639 -0.064163014
000370 0e 6e 8a 3d 86 6f d0 bd 3a a7 76 bd 6b 9d cb bb
       0.067592725 -0.101775214 -0.060218073 -0.006213834
000380 6e e2 32 bc 67 f4 b1 bc 89 ec 4f 3d 89 d0 32 3c
       -0.010918243 -0.021722985 0.050762687 0.0109139765
000390 1b b3 03 3d d3 60 ff 3c 9e a3 b4 3b 14 80 75 3d
       0.03215323 0.0311741 0.0055126688 0.059936598
0003a0 1c 5a b8 b9 72 85 21 3d e4 b3 01 3d 45 a5 c6 bd
       -0.00035162352 0.039433904 0.031665698 -0.096994914
0003b0 24 96 90 bd 37 2e 7b 3d 5b 0e 84 bd de 24 45 bc
       -0.07059887 0.06132337 -0.064480506 -0.012032716
0003c0 3d 4f 4f bd 9d 09 1c 3d 84 55 a4 3c a4 0d 03 bc
       -0.050612677 0.038095105 0.020060308 -0.007998858
0003d0 85 5b c9 3d 9a a7 a4 3c f8 34 72 3c e1 8b 4f bd
       0.09831909 0.02009945 0.014783137 -0.05067051
0003e0 4b 8f b7 bd cd 8d d4 bd d0 47 02 3c bb 5d 39 3b
       -0.08962878 -0.10378609 0.007951692 0.0028284627
0003f0 ee 9d 91 3d 85 85 b0 bd 67 2f 19 3c ba ed d7 3d
       0.07110201 -0.08619217 0.0093496805 0.105433896

lstm.weight_hh_l1 f4 [512, 128]
000000 88 59 9f 3c b7 7c 81 3c 40 ff ac bc 2f 95 be bd
       0.019451872 0.015806539 -0.021117806 -0.09305798
000010 6c ee 5d 3b 0b 2c 92 bc 21 0a dd bd 6d 2d 5d 3c
       0.0033864034 -0.017843267 -0.107929476 0.0134996
000020 aa df 94 bd 16 1b bd 3d e6 4d 2a bd 77 7e 9f bd
       -0.07269223 0.09233682 -0.041578196 -0.07787793
000030 b9 83 7d 3d 9a d0 1d bc b0 a7 b9 3c d9 90 46 bd
       0.0618932 -0.009632254 0.022662967 -0.04847798
000040 4b 83 88 bd fd e0 87 3c 34 43 6f 3c 95 b2 c2 3c
       -0.06665667 0.016586775 0.014603425 0.023766795
000050 c6 64 22 3d c7 aa b5 bd 3c 50 bd 3d dc 0c 2d 3c
       0.039646886 -0.08870464 0.09243819 0.010562148
000060 12 c3 3b bd 25 21 a6 bd 55 fe 6b 3d 60 bf ac 3d
       -0.04584033 -0.081117906 0.057615597 0.084349394
000070 b0 85 38 bd 5e 8d 98 3d 85 11 81 3d 1d 3f 49 bd
       -0.04504937 0.07448839 0.0630217 -0.049132455
000080 26 e2 80 3d f8 c1 12 bd c6 b6 9f 3d 77 02 d7 bd
       0.062931344 -0.035829514 0.07798533 -0.10498517
000090 c5 84 2a bd 62 c4 0a 3d 6c 4a 91 bb 9b a1 46 3d
       -0.041630525 0.03387869 -0.0044339206 0.048493963
0000a0 c3 67 3b bc 2c 51 23 bd 4c 1d 7c 3d 57 b0 26 bd
       -0.011438313 -0.039872333 0.061551377 -0.040695515
0000b0 fe f5 97 3d 13 d1 1b 3d 9f c5 c4 3b 41 0b 2a 3c
       0.07419966 0.038041186 0.0060050036 0.01037866
0000c0 00 70 80 bd ba 87 d1 3c e9 5f 78 3d 82 7e 64 bc
       -0.06271362 0.025577415 0.060638342 -0.013946177
0000d0 e1 37 a7 bd 79 15 2d 3d 62 7f 6e bd 24 f3 aa bc
       -0.08164955 0.042256806 -0.05822695 -0.020867892
0000e0 e5 f4 0e bd 12 55 e7 bc ac dc fb bc f0 63 a0 3d
       -0.03490152 -0.028238807 -0.030744873 0.078315616
0000f0 0a e5 e1 bc 09 8e 2c bd e7 83 33 39 0f 76 6b bd
       -0.027575035 -0.042127643 0.00017119908 -0.057485636
000100 9a e8 02 3c af ee d0 3d 74 81 48 3c 88 fe 71 3d
       0.007990027 0.10201775 0.012237895 0.05908063
000110 f7 09 bd 3d c7 7f b2 3d 41 5a bc bc bf 1d 26 3d
       0.09230416 0.08715778 -0.022992255 0.04055571
000120 af 60 87 bd 90 2c 4f 3c 95 57 d3 bd 5a 34 ce 3d
       -0.06610238 0.012644902 -0.10319439 0.10068579
000130 c4 60 d0 bb b5 a3 da bc cd e2 9d bd 76 eb b2 3d
       -0.0063591916 -0.02668939 -0.077092744 0.08736317
000140 05 62 26 3d 8b 34 15 3c ac 59 83 bd 2c 65 bf 3d
       0.040620822 0.0091067655 -0.06413588 0.09345469
000150 5d 2a b3 bd fb 4d df 3c 09 d7 76 3d 94 9a 34 bd
       -0.087483145 0.027258864 0.060263667 -0.04409273
000160 3f c2 91 bd 81 51 1b 3d 9c 24 75 bd c0 1e 82 bd
       -0.071171276 0.037919525 -0.059849367 -0.06353521
000170 08 be 87 bd 7f 57 c8 3d 64 53 df bb 62 01 0a bd
       -0.066280425 0.097823136 -0.006815361 -0.033692725
000180 34 ee 54 3b f5 71 83 3b 0a d0 77 3d 4d b2 ed bb
       0.0032490613 0.0040113875 0.060501136 -0.007253921
000190 37 61 3e 3d 92 ca b3 bd 0f 85 b0 3d 27 b3 0f bd
       0.04647943 -0.087788716 0.08619129 -0.035082962
0001a0 a4 1d 0b 3b 5b 97 07 bd fd 03 28 bd f8 69 a4 bd
       0.0021227384 -0.03310333 -0.04101943 -0.080280244
0001b0 4d c5 05 bd 2f 67 a6 3d c1 83 8c bc 7a 1d 35 3d
       -0.032658864 0.081251495 -0.017152669 0.044217564
0001c0 1d bf 88 3d ff f5 99 3d c3 99 13 3d 54 97 1f 3d
       0.06677077 0.07517623 0.03603531 0.038962677
0001d0 99 c3 bb 3d d9 f0 4c bd 45 95 c2 bd 54 bf 4d bd
       0.09168167 -0.050034378 -0.09501127 -0.050231293
0001e0 ba 66 cc 3c 15 9d b2 3c 51 a5 bf bd 39 19 ca bb
       0.024951328 0.021803418 -0.093577035 -0.0061675576
0001f0 d2 25 7d 3d 43 c6 f5 3c 8f d0 8a bd 04 6d c1 bd
       0.061803646 0.030001765 -0.06778061 -0.09444621
000200 fd 63 a4 3d 82 74 08 bd 18 a7 9e bd 1e 25 98 bd
       0.08026884 -0.033314236 -0.07746714 -0.074289545
000210 7c 52 26 3c 67 a3 ed bb 5b 35 a8 bd d7 34 92 bd
       0.010151502 -0.007252145 -0.08213302 -0.07138985
000220 46 6a 78 bd 6b 4b ce 3c 98 ae 88 bd bd 94 50 bd
       -0.060648225 0.025182446 -0.06673926 -0.050923098
000230 cd 8d 15 bd 6f 7a 74 3d db 76 20 3d f1 29 09 3d
       -0.036512185 0.059687074 0.03917585 0.033487264
000240 c0 dc d9 bb 9e cb 28 3d 12 e1 04 3d f6 04 ba 3d
       -0.00664863 0.04120981 0.032441206 0.090829775
000250 2c 2e 4d 3d a2 fc a9 bc 9c 68 0a bd ee df 6b bd
       0.05009286 -0.020750348 -0.03379117 -0.057586603
000260 ab 99 bf bc 0c 1e 01 3d 67 6c 5c bd 6c cd c2 bc
       -0.023388704 0.031522796 -0.053814318 -0.023779593
000270 f6 f4 24 ba cb d6 41 3c 75 a1 7d 3d 02 22 5a ba
       -0.00062926055 0.011830996 0.061921556 -0.00083211076
000280 5c 89 ac bd 6d ee 95 3d fa bc f7 3c ee 63 34 bc
       -0.08424637 0.07320867 0.030241478 -0.011010153
000290 10 96 49 3c f2 e5 fb 3c 0e c2 13 bc 6a 02 55 bd
       0.012303844 0.030749295 -0.009018434 -0.052004255
0002a0 bc 3f 90 bc e7 86 aa bd 5d 82 9a 3d a7 9b c8 3d
       -0.017608516 -0.08326512 0.07544396 0.09795313
0002b0 29 45 6f bc 9a a1 2e bc be 6d 92 3d 2c c4 fa 3a
       -0.014603891 -0.010658646 0.07149838 0.001913195
0002c0 ed 59 73 bd 4c ba 0b 3d 15 3d 90 bd 04 af c8 3d
       -0.05941193 0.034113213 -0.070429005 0.097990066
0002d0 23 1d 6e 3d c9 df 39 3c f0 b6 a6 3d 6c 78 df bc
       0.058133256 0.011344858 0.08140361 -0.027279101
0002e0 da 6d b1 3c 06 1d 55 3d 7c cc 64 bd 8c e7 bf bd
       0.021658827 0.052029632 -0.055859074 -0.09370336
0002f0 be b6 73 bd 85 56 da bc cc 35 aa 3c e7 c4 0b bd
       -0.05950045 -0.026652584 0.020777605 -0.034123328
000300 9d 02 e8 bc 9d 0a 96 bd de 61 a9 3d 21 25 bb bd
       -0.028321559 -0.07326243 0.0827062 -0.09137941
000310 84 9c a3 3d 5d 66 7b 3a 01 16 38 3d 19 9e 96 3d
       0.07988837 0.00095901435 0.04494286 0.073543735
000320 7d 01 eb 3c bc 03 8e 3d f5 71 5f 3c 73 d1 c1 3d
       0.028687233 0.06934306 0.013638009 0.094637774
000330 62 78 be 3d 22 ec 84 3d 21 5c 80 bd b8 6d d1 3c
       0.09300305 0.06490351 -0.06267572 0.025565013
000340 4a b7 8e bd 19 fb 4d 3d 68 e1 1c bc 79 ec 41 bd
       -0.06968553 0.050288294 -0.009575225 -0.04734466
000350 d5 21 b0 bd e8 38 b1 bb 84 6b 60 3d ce a6 cc bd
       -0.08600203 -0.005408395 0.054790035 -0.09992753
000360 55 43 ad bd b8 7f 87 3c 0f f5 86 bd 3d fc d5 bb
       -0.08460108 0.016540393 -0.0658971 -0.0065303133
000370 9f f6 52 3d ce 51 ba 3c 90 bd 83 bd 30 49 bf bd
       0.051504727 0.022744086 -0.064326406 -0.09340131
000380 1c b3 47 3d 92 4c 44 3d 37 1b 8b 3c b6 e1 a2 bc
       0.048754796 0.047924586 0.01698075 -0.019883018
000390 59 c2 ce 3b e1 44 32 bd b2 fd d2 bc e6 31 bf 3d
       0.006309789 -0.04352272 -0.025755737 0.09335689
0003a0 66 b8 7d 3d 26 9f b7 3b a0 38 10 3d 3e 09 31 bd
       0.061943434 0.005603689 0.03521025 -0.043221705
0003b0 00 ce ac 3c 69 d6 a2 3d 61 0d ad 3d e0 d6 80 bd
       0.021094322 0.07951052 0.084498174 -0.06290984
0003c0 50 df d5 3d 20 55 a4 bd 85 35 76 bd 52 d2 87 3c
       0.10442984 -0.08024049 -0.060109634 0.01657978
0003d0 e5 93 1a 3d 4c c7 a4 3d 88 35 af 3c 48 f8 ae bd
       0.0377387 0.08045825 0.02138783 -0.0854345
0003e0 97 8f ab 3d d3 18 9a bd e1 a8 02 3d 92 48 47 3d
       0.08376997 -0.07524266 0.031899337 0.048653193
0003f0 01 22 ac bc 69 9e 39 bc 5f ec 82 bd fd 6e 67 3d
       -0.021012308 -0.011329272 -0.063927405 0.05650233

lstm.bias_ih_l1 f4 [512]
000000 d4 a9 41 3d de 5f c6 bc 40 b9 f5 bc 03 8a 97 3d
       0.0472811 -0.024215635 -0.02999556 0.073993705
000010 86 4f 52 3d ac 2f c2 3d 05 37 20 3b 7d 99 6b ba
       0.05134537 0.09481749 0.0024446857 -0.000898741
000020 36 d9 2a bd 80 45 07 3c 34 b7 5e bb 98 5a f3 3c
       -0.041711055 0.008256316 -0.003398371 0.029706284
000030 26 c9 68 bd f8 d4 85 bc f4 67 45 3c 12 9d 51 3d
       -0.056832455 -0.016336903 0.01204871 0.051175185
000040 d8 09 e7 bc ab e8 d2 bb bf 00 b5 bc 80 b1 8f 3d
       -0.028202936 -0.0064364276 -0.022095082 0.07016277
000050 bc d6 82 bd 06 cd 07 bd 6c f9 6f bd b5 77 66 bd
       -0.063886136 -0.03315451 -0.058587477 -0.056266505
000060 ed fa b7 3d 45 17 10 bd 5c b7 b8 3c 6a c1 a2 bc
       0.08983407 -0.03517844 0.02254837 -0.019867618
000070 36 40 b0 3d e3 b6 9d bc 07 de bd 3c 2a 74 7e 3c
       0.08605997 -0.019252246 0.02317716 0.015530625
000080 a9 ec d3 bc 40 7a d0 3d 69 6b c4 3d d5 d4 10 3c
       -0.025869684 0.10179567 0.09590799 0.008839806
000090 b1 2f 5f 3d 7c ee 18 3c ba 24 82 bd d0 d9 a5 3d
       0.05448884 0.009334203 -0.06354661 0.08098185
0000a0 48 06 cb bc 23 52 10 3d 6b 23 a5 3d 84 b5 84 bd
       -0.024783269 0.03523458 0.08063396 -0.06479934
0000b0 27 90 54 3d 23 4f 51 3d f5 7b 5c 3d d6 bf 4a bc
       0.051895287 0.05110086 0.053829152 -0.012374839
0000c0 ad 1e 8d bd 54 be 75 3d ac c7 95 3c 9c ef a8 3d
       -0.068906166 0.059995964 0.018283688 0.08248827
0000d0 a4 c2 95 bd c2 81 79 bd 36 bd 79 bd 1f 65 64 bd
       -0.073125154 -0.060914762 -0.06097146 -0.0557605
0000e0 c4 64 31 bd a9 b7 c1 3d a3 ac ab 3c e2 d3 dd 3c
       -0.04330899 0.094588585 0.020956343 0.027078573
0000f0 05 ce 5c bd dc 86 f0 3a 9e 5f d0 3d 63 42 7b 3d
       -0.053907413 0.0018350738 0.101744875 0.06134261
000100 49 f8 cc 3d 98 40 62 bd 53 47 95 3d 23 4e 13 3d
       0.10008294 -0.055237383 0.07288995 0.03596319
000110 9a 8b c9 bc ec bd 01 bc e8 51 b0 bc f7 b0 69 bd
       -0.0246027 -0.007918816 -0.021523431 -0.057053532
000120 84 d1 c7 bc db 9d 8d 3c 8b 77 64 3d b1 4e 8f 3d
       -0.024391897 0.017287185 0.055778068 0.06997431
000130 61 06 20 3d 9d 90 ee bc 61 4f 4f bd 01 12 ac 3d
       0.039068583 -0.029121691 -0.05061281 0.084018715
000140 96 bd 1d 3d 86 c2 c5 3d 0f 4d b8 3d d8 63 0b 3d
       0.03851088 0.09656243 0.08999073 0.034030765
000150 84 43 12 3d c7 91 82 bc 69 cd 8f 3d 6c ba 59 3d
       0.03570892 -0.015938653 0.07021601 0.0531563
000160 79 f3 a5 bb 24 d3 79 3d 24 c2 1f bd a9 2a fb bc
       -0.0050644246 0.060992375 -0.039003506 -0.03065999
000170 4a e8 b0 bc ca 8b 0d bd 32 b1 7b 3d 1a b1 2d bc
       -0.021595139 -0.03455714 0.061448283 -0.010601306
000180 27 08 b0 3d d6 e9 ae 3d 45 6c d4 bc 41 2e be 3c
       0.08595305 0.085406944 -0.025930533 0.023215415
000190 50 3c 31 bd 4c 64 02 bd 42 6a 82 bd 30 9c 7a bd
       -0.04327041 -0.03183393 -0.06367923 -0.06118411
0001a0 e8 03 25 3d af 9a 10 bc 16 e3 1c bc 60 4f 9c bb
       0.04028693 -0.008825942 -0.009575626 -0.0047702044
0001b0 97 df 1a 3b 66 40 8d 3d 61 02 41 bc 8c 8b ec bc
       0.0023631805 0.06897049 -0.011780352 -0.028875135
0001c0 03 c1 4a bd ba 62 8a 3d 69 ea 6b 3d e0 3e 99 3d
       -0.049500477 0.06757112 0.057596598 0.074826956
0001d0 91 d5 3f 3d 4f 85 87 bd 22 d3 9e 3d 75 8b 6a 3d
       0.046834532 -0.066172235 0.07755114 0.057261903
0001e0 2d 3f eb 3c 2a 87 80 3d 45 80 a1 3d 92 65 48 3c
       0.028716648 0.062757805 0.078857936 0.0122312475
0001f0 6f 0d cf 3d b7 d1 2d 3c ce 15 38 bd 67 93 92 3d
       0.10109984 0.010609082 -0.04494267 0.07157021
000200 29 6d cb 3c ba dd 8f bd 05 59 2a 3d 51 fa b4 3d
       0.024832325 -0.07024713 0.041588802 0.088368066
000210 af 33 7e bb 0c 9f 85 bd 7c a3 05 bd 46 a5 ad 3d
       -0.003878813 -0.065244764 -0.032626614 0.08478789
000220 55 16 8f 3d 88 a4 fb 3c 8a aa c6 3c 15 6c 29 bd
       0.06986681 0.030718103 0.024251241 -0.04136284
000230 11 2f 0a 3d 25 7c f9 3b ba 6e 6c bd 0f a0 75 3c
       0.033736292 0.007613676 -0.057722785 0.014991774
000240 31 18 ae bc 43 80 6a bd f6 c3 23 3d 6d a4 27 bd
       -0.02125177 -0.057251226 0.039981805 -0.040928293
000250 a7 c8 91 3d e7 7c 0d 3d f1 9c 2b bd aa f3 c6 bb
       0.071183495 0.034542944 -0.041897718 -0.0060715275
000260 15 f7 37 bd 77 5b db 3a c8 5e 0d 3d 87 3d 8e 3c
       -0.04491337 0.0016735633 0.03451422 0.017363323
000270 40 da 68 bd 1d b5 ca 3d 9b ab 82 bd 62 2a 38 bd
       -0.056848764 0.09897826 -0.063803874 -0.044962294
000280 c9 7a 6e 3d b3 d4 e2 3c c8 10 4b 3d cf 61 6d 3d
       0.058222566 0.027689314 0.04957655 0.057954606
000290 01 ea 81 3d f9 5e d4 bb 02 b7 8f 3c e8 cd 2a bd
       0.06343461 -0.006481048 0.01754332 -0.041700274
0002a0 3c f9 54 bc a8 d6 53 bd 6f 4e 82 bd 7c 31 ad bc
       -0.012998875 -0.051718384 -0.06362616 -0.02114176
0002b0 5b 23 d2 3b 9f a8 95 3d db 75 c4 3b cb 77 c1 3d
       0.006412906 0.073075525 0.005995495 0.09446677
0002c0 96 b1 84 3d ab a3 16 3d 57 72 91 3d 34 fc 53 3d
       0.06479184 0.03677718 0.07101887 0.05175419
0002d0 b8 cd 54 3d 02 74 29 3d 11 40 64 bd da 01 b3 bb
       0.051954 0.0413704 -0.05572516 -0.005462867
0002e0 b6 22 67 3d 86 59 04 bd 40 fd 3c bd d1 7b bb 3c
       0.056429587 -0.03231194 -0.046139956 0.022886189
0002f0 29 a2 27 bd 16 82 09 3d 98 fb e6 bc e8 df ab 3d
       -0.040926132 0.033571325 -0.028196141 0.08392316
000300 53 b2 6d 3c db bf 38 3d 2a 1f 31 bd a5 9c 9d 3d
       0.014507848 0.045104843 -0.04324261 0.07695893
000310 32 48 30 3d 07 a2 65 3b 0a 47 77 3c 82 28 be 3d
       0.0430376 0.0035039203 0.015092621 0.0928507
000320 57 b5 bf 3c c5 fe c9 3d 53 27 6c 3c 50 a6 67 3d
       0.0234019 0.098630466 0.0144136725 0.056555092
000330 49 2b 0a bc 6b 8c 3d bc 43 d6 ad 3d 06 fb 41 bd
       -0.008433172 -0.011569123 0.08488133 -0.047358535
000340 93 eb 77 3c bc 21 92 bc 15 2f 43 bd 9c 85 87 3d
       0.015131849 -0.017838351 -0.047652323 0.06617281
000350 7e 04 72 3d 5f 2c 6e 3d ce 26 83 bd e4 4e 4d 3d
       0.059086315 0.058147784 -0.06403886 0.050124064
000360 e4 38 48 3d b6 92 98 3d c0 83 1a 3d 70 a9 d1 3d
       0.04888238 0.07449858 0.037723303 0.10237396
000370 56 28 2c 3d fc cb 71 bc 4f 7a 0b 3d 75 26 ce 3d
       0.042030655 -0.014758106 0.03405219 0.10065929
000380 2a ea 25 3d a9 d1 fb bb de d6 9f bc 8e 10 25 3d
       0.04050652 -0.0076849055 -0.019511636 0.04029899
000390 8c ed ee bb 70 b6 ea bb c2 c1 d0 3a 43 6a 22 3d
       -0.0072915014 -0.0071628615 0.0015926885 0.03965212
0003a0 42 62 72 3d f1 7a 13 3d dc d2 71 bd 58 d2 8e 3b
       0.059175737 0.036005918 -0.05903898 0.004358571
0003b0 34 92 88 3d 26 df 29 bd db 75 37 bd 17 34 5a 3d
       0.06668511 -0.041472577 -0.04479013 0.053272333
0003c0 fb 50 9a 3d ab 49 15 3c 70 fd bb 3d 5d e8 c2 b9
       0.07534977 0.009111802 0.09179199 -0.00037175688
0003d0 8e 99 2e 3d 6a 78 94 3d 65 b4 eb 3c aa 78 94 3d
       0.04262691 0.0724953 0.028772542 0.07249577
0003e0 e2 f6 ab 3d 0d 6f d5 3b 21 89 05 3c 6f 10 86 3d
       0.083966985 0.0065134824 0.00815037 0.06546103
0003f0 bf 2b 04 3d e2 a5 9b 3d e5 aa ce 3c 2d ab e2 ba
       0.032268282 0.07599999 0.025227973 -0.0017293446
