models/WH004_SKU-004.pth (torch, 830897 bytes, 13 tensors)

lstm.weight_ih_l0 f4 [512, 6]
0	0x3d8e3ccf	0.06945192
1	0x3d8cea16	0.06880586
2	0x3d33fe97	0.043943968
3	0x3d22c37e	0.039737217
4	0xbaf901ae	-0.0018997693
5	0x3d10f7f1	0.035392705
6	0x3db7a5c9	0.08967168
7	0x3dca3794	0.09873882
8	0xbd762d07	-0.060101535
9	0xbcac1381	-0.021005394
10	0xbd3c6b37	-0.046000686
11	0x3db83dc9	0.089961596
12	0x3d0cc0fd	0.034363735
13	0x3c55304b	0.013012002
14	0x3c3e9333	0.011631775
15	0x3ca58bc6	0.02020825
16	0x3d61579b	0.055015188
17	0x3d8ad5ce	0.06779061
18	0xbd1b77b3	-0.03795595
19	0xbc9bacde	-0.019003328
20	0xbd341c29	-0.043972168
21	0x3d4ef4f8	0.05052659
22	0xbd83d2c9	-0.064366885
23	0x3c569312	0.013096588
24	0xbd39f9f8	-0.045404404
25	0xbc9fc575	-0.019503335
26	0xbd632966	-0.055459403
27	0x3d5d0e64	0.053968802
28	0x3d8d9fa7	0.06915217
29	0x3d97b08d	0.07406721
30	0xbcdb79ab	-0.026791414
31	0xb9ba5961	-0.00035543277
32	0x3d1f43af	0.038882907
33	0x3ce69da2	0.028151337
34	0x3a35d693	0.0006936576
35	0x3c80d2fb	0.015725603
36	0x3c0507bd	0.008119521
37	0x3dd2348a	0.10263927
38	0x3cc606ad	0.024173105
39	0xbd885691	-0.06657136
40	0x3d9d7dec	0.07690033
41	0xbcaf14cd	-0.021372223
42	0x3d638118	0.055543035
43	0xbd108d67	-0.0352911
44	0x3d07515f	0.033036586
45	0x3dd39ad1	0.10332263
46	0xbd784186	-0.060609363
47	0x3d25fbd6	0.040523373
48	0x3dcfcc71	0.10146416
49	0x3dbf695b	0.09346267
50	0xbcd5f65a	-0.026118446
51	0x3d6fd3d5	0.05855163
52	0x3d2eed2e	0.04270666
53	0xbcedba8f	-0.029019622
54	0xbc99e15f	-0.018784223
55	0x3d81cb1d	0.06337569
56	0xbd671646	-0.056417726
57	0x3d9782ce	0.07397996
58	0xbbebc5b0	-0.007195197
59	0x3d3665b2	0.044530578
60	0xbcc1e040	-0.023666501
61	0xbcf7ab3f	-0.030233024
62	0x3dac1438	0.08402294
63	0x3d3f0806	0.04663851
64	0x3b326ae5	0.0027224359
65	0xbd2906c6	-0.041266225
66	0x3b02e014	0.0019969987
67	0x3c848811	0.016178163
68	0x3b8f82a4	0.0043795872
69	0x3d8a3924	0.0674918
70	0xbc0938af	-0.008375331
71	0x3d9086ed	0.07056985
72	0x3d17687f	0.03696489
73	0x3dd0797c	0.10179421
74	0x3c7efa31	0.01556258
75	0x3bd29632	0.006426596
76	0x3d9f4ee2	0.077787176
77	0xbc1af872	-0.009458648
78	0x3c96cc72	0.018408034
79	0x3d9de05e	0.0770881
80	0xbcabd721	-0.020976605
81	0xbc857396	-0.016290467
82	0xbd48244f	-0.04886275
83	0x3da25116	0.07925622
84	0xbc4ea94c	-0.012613606
85	0x3cf23bc8	0.029569522
86	0x3cefc16c	0.029267035
87	0x3d29aa63	0.04142226
88	0x3d56fa16	0.052484594
89	0x3d7ff386	0.0624881
90	0xbc0338c7	-0.008009142
91	0x3d07e1b6	0.03317424
92	0x3d5f2282	0.05447627
93	0x3cac6a43	0.021046763
94	0xbce9f2c3	-0.02855814
95	0x3d904ec1	0.07046271
96	0x3da7f419	0.08200855
97	0xbc89ffdc	-0.016845636
98	0x3d5cefec	0.053939745
99	0x3d1a9744	0.037741914
100	0x3ade1073	0.0016942158
101	0xbd437220	-0.04771626
102	0xbd208b34	-0.039195254
103	0x3d83fbad	0.06444488
104	0x3dd05f54	0.101744324
105	0xbd81c7d9	-0.06336946
106	0xbd0dbda4	-0.034604684
107	0x3dd89713	0.1057569
108	0x3d9836c6	0.07432322
109	0xbd3f4903	-0.04670049
110	0x3d93b3da	0.07212038
111	0x3dc8cc8d	0.0980464
112	0x3d9da84f	0.07698118
113	0x3d5789b0	0.052621543
114	0x3d7934e2	0.06084145
115	0xbd81d49b	-0.063393794
116	0x3d2ff7c7	0.04296091
117	0x3d96ea2c	0.073688835
118	0x3d8d9b38	0.06914371
119	0x3d42d5bb	0.04756711
120	0x3b7ffe1a	0.0039061368
121	0xbceb97c7	-0.028758897
122	0xbcc3f537	-0.023920638
123	0x3d172cd2	0.03690798
124	0x3d55658f	0.052098807
125	0xbcb06086	-0.021530401
126	0xbd0aa0cb	-0.03384475
127	0xbc96de38	-0.018416509
128	0x3d7a405c	0.061096534
129	0xbd341036	-0.043960772
130	0xbc951945	-0.018200526
131	0xbc85893f	-0.016300796
132	0x3d98ac53	0.07454743
133	0x3d5244e5	0.051335234
134	0x3db30514	0.08741203
135	0xbd0a43aa	-0.033755936
136	0xbc1bcecc	-0.009509753
137	0x3d9ab4bc	0.075540036
138	0xbd6f9476	-0.058491193
139	0xbc07350b	-0.0082523925
140	0x3da8124b	0.08206614
141	0x3cd0bf15	0.02548174
142	0xbcd842a7	-0.02639897
143	0xbc5c84fe	-0.013459442
144	0x3dcc5188	0.09976488
145	0x3b72eaf2	0.0037066308
146	0xbcd89f53	-0.02644316
147	0x3da7a523	0.08185794
148	0xbd330fa2	-0.04371608
149	0x3db78e91	0.08962739
150	0xbb692ce4	-0.0035579735
151	0x3d39308c	0.045212314
152	0xbd1b08e5	-0.03785028
153	0xbcc16aaf	-0.023610441
154	0xbc14cf5e	-0.009082643
155	0x3ce185ba	0.027529586
156	0xbca29d1d	-0.019850308
157	0x3dce1383	0.10062315
158	0xbd50aa63	-0.050943743
159	0x3d316fec	0.043319628
160	0x3d8eb7b8	0.06968635
161	0x3d00b46c	0.031422064
162	0x3da1cabe	0.07899998
163	0x3ddcb1db	0.10776111
164	0xbd032682	-0.032019146
165	0xbd2733d6	-0.04082092
166	0x3dce8740	0.10084391
167	0x3d932029	0.071838684
168	0xbcd4c246	-0.025971543
169	0x3de1ab52	0.11019005
170	0x3db9b54f	0.09067785
171	0x3c8deb32	0.017324064
172	0x3dcdc5eb	0.100475155
173	0x3d32b039	0.04362509
174	0xbcd4599d	-0.025921637
175	0xbd5a7836	-0.0533373
176	0x3d591dc8	0.053006917
177	0xbba70f63	-0.00509827
178	0xbd4147a2	-0.047187455
179	0x3d53c8d5	0.0517052
180	0xbd12b124	-0.035813466
181	0x3d378620	0.044805646
182	0x3c6f851d	0.014619139
183	0x3de39ae0	0.111135244
184	0xbd2c9d7c	-0.042142376
185	0x3d2e9912	0.042626448
186	0x3d096351	0.03354198
187	0x3d127712	0.035758086
188	0xbcc79324	-0.024362154
189	0x3ddfb699	0.109234996
190	0xbd494b7d	-0.049144257
191	0xbc85cbdd	-0.016332561
192	0x3d58924e	0.052873902
193	0x3c016bf2	0.007899271
194	0xbd388f2e	-0.04505842
195	0x3dc739f8	0.097278535
196	0x3db6dd79	0.08928961
197	0x3dd60993	0.10451045
198	0xbcbdf705	-0.023189077
199	0xbd368ccd	-0.04456787
200	0xbd85e547	-0.06537872
201	0x3db1a47c	0.08673951
202	0x3dc2c066	0.09509353
203	0xbd14b73b	-0.036307555
204	0xbd845630	-0.064617515
205	0xbaed44a7	-0.0018102125
206	0xbd833b90	-0.06407845
207	0x3d5258ec	0.051354334
208	0xbd50a885	-0.050941963
209	0x3d967fc2	0.073485866
210	0x3dd19057	0.10232609
211	0x3d707c32	0.058712192
212	0x3d97608c	0.07391462
213	0x3c3e9527	0.01163224
214	0xbd883e01	-0.06652451
215	0x3d2fc49c	0.04291211
216	0x3d53ec42	0.051738985
217	0xbd03b292	-0.03215272
218	0xbc0338d6	-0.008009156
219	0x3d91ba07	0.0711556
220	0xbcaabe26	-0.020842623
221	0xbc9cefcc	-0.019157313
222	0xbd537923	-0.051629197
223	0xbd021b8a	-0.031764545
224	0x3da0a8a5	0.078446664
225	0x3cf884ab	0.030336699
226	0xbb51453e	-0.003193214
227	0x3d0d5a80	0.034510136
228	0x3dd9e134	0.10638657
229	0x3cb05744	0.021525986
230	0xbd82f52f	-0.06394421
231	0x3d284b1f	0.041087266
232	0xbd586792	-0.052833147
233	0x3d829fb7	0.063781194
234	0x3c736031	0.014854477
235	0xbd4f284a	-0.050575532
236	0xba832512	-0.0010005555
237	0x3d079a46	0.03310611
238	0x3dcd845d	0.10035012
239	0xbbe84646	-0.0070884554
240	0xbd5128b8	-0.051064223
241	0xbc391cb3	-0.011298346
242	0xbc391273	-0.011295903
243	0xbca19bd2	-0.019727621
244	0x3d85a6ba	0.06525941
245	0x3d525fc3	0.051360857
246	0xbd811336	-0.06302492
247	0xbc5f7b3b	-0.01364022
248	0xbd51d04c	-0.051224038
249	0x3de0e357	0.10980862
250	0x3d62e97f	0.05539846
251	0x3d9fd75d	0.07804749
252	0x3c8b42b4	0.01699958
253	0x3d5688aa	0.052376427
254	0xbc183a98	-0.009291314
255	0x3b3bdb98	0.0028664824

lstm.weight_hh_l0 f4 [512, 128]
0	0x3da98f44	0.08279279
1	0xbcdba423	-0.026811665
2	0x3d43a7c0	0.0477674
3	0x3d68cd6c	0.05683653
4	0xbdb8bdaa	-0.090205505
5	0xbd68a08b	-0.05679373
6	0x3d6dd180	0.058061123
7	0x3cf8ccdd	0.030371124
8	0x3daa354d	0.083109476
9	0xbbec103c	-0.0072040837
10	0x3d4c3d5d	0.049863208
11	0xbc704f4f	-0.014667346
12	0xbd187a6e	-0.037226133
13	0x3d6842b8	0.056704253
14	0x3d705952	0.058678932
15	0xbd280b91	-0.041026656
16	0xbd61a8eb	-0.055092733
17	0xbc80d0c2	-0.015724543
18	0x3ca28ba6	0.01984198
19	0xbd75c1d9	-0.05999932
20	0xbcca1ce8	-0.024671987
21	0xbb16fc16	-0.0023038439
22	0xbd15c86a	-0.036568083
23	0x3dc09a56	0.09404437
24	0xbda06d9d	-0.07833407
25	0x3b7ff026	0.0039053052
26	0xbcf0f6dc	-0.029414587
27	0xbd647890	-0.05577904
28	0xbc2e7e83	-0.01065028
29	0xbd3186c2	-0.043341406
30	0x3c85ac02	0.016317371
31	0xbc491ef0	-0.0122754425
32	0x3d5e86ab	0.054327648
33	0xba78c02d	-0.00094890856
34	0x3b98538f	0.004648633
35	0xbd6fc949	-0.05854157
36	0xbd0a05ef	-0.033697065
37	0xbce5f424	-0.028070517
38	0x3d96e956	0.07368724
39	0x3cb74fa0	0.022376835
40	0xbde50689	-0.11182887
41	0x3d4c58a9	0.04988924
42	0x3c380580	0.01123178
43	0x3dafb372	0.08579148
44	0xbce4a908	-0.027912632
45	0x3d8e74d7	0.06955879
46	0x3d18fb1a	0.037348844
47	0x3cac7fb5	0.02105699
48	0xbd2f0d75	-0.042737443
49	0x3d71f2a0	0.059069276
50	0xbd63beee	-0.055602007
51	0xbc90fe85	-0.01769949
52	0x3c8b2315	0.016984502
53	0xbc3e6e20	-0.0116229355
54	0x3d11852d	0.035527397
55	0x3c29519a	0.010334397
56	0xbb1bbd48	-0.0023763943
57	0xbb630b2d	-0.0034644112
58	0x3d347f4e	0.04406672
59	0xbc2bd2cd	-0.010487271
60	0x3d0a90e9	0.033829603
61	0x3d22d143	0.03975035
62	0xbde41e8f	-0.11138641
63	0x3d86f065	0.0658882
64	0x3c842c13	0.016134297
65	0xbdac977c	-0.08427331
66	0x3d625cf6	0.055264436
67	0x3d500ecc	0.05079536
68	0x3d453374	0.048144773
69	0xba9456e5	-0.00113174
70	0xbd82c463	-0.06385114
71	0x39fe4092	0.00048494764
72	0xbd7d0ff0	-0.061782777
73	0x3d7ef133	0.062241744
74	0x3dc0faff	0.09422874
75	0xbd2156d6	-0.039389454
76	0xbca5e725	-0.02025182
77	0x3db01bf7	0.08599084
78	0xbd04aec7	-0.032393243
79	0xbd796b4f	-0.060893353
80	0x3de52bd3	0.111899994
81	0xbd71a683	-0.05899669
82	0x3d1311d7	0.035905685
83	0xbd88e45b	-0.0668418
84	0xbd5a6265	-0.053316493
85	0x3d2bc021	0.041931275
86	0xbcdd1a21	-0.026989998
87	0x3ce9427f	0.02847409
88	0x3cac070a	0.02099945
89	0x3c28a39e	0.010292916
90	0xbd567b13	-0.052363466
91	0xbd00b245	-0.03142001
92	0xbcf62598	-0.030047223
93	0xbb8bc7f0	-0.0042657778
94	0xbdcd9385	-0.10037903
95	0xbd65ff1b	-0.05615149
96	0xbc9a547c	-0.018839113
97	0xbced8b98	-0.028997228
98	0x3d8512c9	0.064977236
99	0x3d453cda	0.048153736
100	0x3d442d0c	0.047894523
101	0x3cbf25c3	0.023333436
102	0xbdad3260	-0.08456874
103	0xbd892d6b	-0.06698116
104	0xbb9ca58f	-0.0047804783
105	0xbcd7baed	-0.02633425
106	0xbd1d8f2d	-0.03846662
107	0xbd2124b2	-0.039341636
108	0xbd4b2757	-0.049598064
109	0x3d6428f9	0.055703137
110	0xbc0323d8	-0.008004151
111	0x3b105b35	0.002202702
112	0x3dcdaf24	0.10043171
113	0x3ba08392	0.004898497
114	0xbd9f4953	-0.07777657
115	0xbd2be62d	-0.04196756
116	0x3a80d7e8	0.000982997
117	0xbd965dd7	-0.07342117
118	0x3ca5dff4	0.02024839
119	0xbd7859f6	-0.06063267
120	0xbd68c228	-0.056825787
121	0x3d62981d	0.055320848
122	0xbc992054	-0.018692173
123	0xba38f684	-0.00070557767
124	0x3d495596	0.049153887
125	0xbcc8ef22	-0.02452809
126	0x3cac03b8	0.020997867
127	0xbb1a4dd2	-0.002354492
128	0x3d814a81	0.063130386
129	0xbc91b066	-0.017784309
130	0xbcbe0ddc	-0.023199968
131	0xbda0ede0	-0.07857871
132	0x3ba4bf28	0.0050276704
133	0x3ce82b7e	0.028341051
134	0xbc0a8792	-0.008455174
135	0xbcf7a22c	-0.030228697
136	0x3d680068	0.056641012
137	0xbd17d775	-0.03707071
138	0xbc18f506	-0.009335762
139	0x3c21afaf	0.009868546
140	0xbd903986	-0.07042222
141	0x3d1db88a	0.03850607
142	0x3cb5e375	0.022203187
143	0xbcdef71f	-0.027217446
144	0xbc783e4a	-0.01515157
145	0xbd772e71	-0.060347024
146	0xbddc63d3	-0.107612275
147	0xbd80b3fe	-0.06284331
148	0xbc3dbf62	-0.011581274
149	0x3cc5923c	0.024117582
150	0x3c2c741c	0.0105257295
151	0xbd7e69a3	-0.06211246
152	0xbda0494a	-0.07826479
153	0xbd0da4da	-0.034581043
154	0x3dbd7b2e	0.0925201
155	0xbbe58d19	-0.0070053455
156	0x3c4b2dc1	0.012401045
157	0xbd606efc	-0.054793343
158	0xbd5caa54	-0.053873375
159	0xbccbb23e	-0.024865266
160	0x3c8c0488	0.017092004
161	0xbdaab106	-0.08334546
162	0xbca4ab39	-0.020101177
163	0x3c480e07	0.012210376
164	0xbd9e70e8	-0.07736379
165	0x3bafc38b	0.0053638867
166	0x3ce1db9e	0.027570542
167	0x3d3a9392	0.04555089
168	0x3c38296d	0.011240345
169	0xbcecf66b	-0.028926095
170	0xbdb9c7e4	-0.09071329
171	0x3d9a2104	0.075258285
172	0x3d4bb797	0.04973563
173	0x3dee4cf2	0.1163577
174	0x3c49796e	0.0122970175
175	0xbda0ed7f	-0.07857799
176	0x3bd47ec7	0.0064848396
177	0xbcc3cf42	-0.02390254
178	0x3d7241a1	0.05914462
179	0xbd917183	-0.07101729
180	0x3d323e88	0.043516666
181	0x3dcdeeb1	0.100552924
182	0xb9ee336b	-0.00045433207
183	0x3d56d78c	0.052451655
184	0xbb2e3472	-0.0026581553
185	0xbd689314	-0.05678089
186	0xbd79d59a	-0.060994722
187	0x3d1f8f00	0.038954735
188	0x3ca183f2	0.019716237
189	0x3c762aa5	0.015024816
190	0xbd741e50	-0.05959922
191	0x3da203a8	0.079108536
192	0x3d80a3f2	0.0628127
193	0xbd625754	-0.055259064
194	0x3bad15ef	0.0052821557
195	0x3c5130be	0.012767969
196	0xbca56092	-0.02018765
197	0xbd4caf31	-0.049971763
198	0x3d9860c4	0.074403316
199	0xbceb5ac2	-0.0287298
200	0x3c873ca0	0.0165084
201	0xbc97cba1	-0.018529715
202	0xbc843350	-0.016137749
203	0xbd831156	-0.06399791
204	0x3d6ba49a	0.057530023
205	0x3d1d329f	0.038378354
206	0x3cb4896c	0.022038184
207	0x3d70111b	0.058610063
208	0x3ca4fff1	0.020141574
209	0x3ddbf3e4	0.10739878
210	0xbcf5e58e	-0.030016687
211	0x3ce4e9e5	0.02794356
212	0xbd88950f	-0.06669056
213	0xbc5befdd	-0.013423887
214	0xbbe28b5a	-0.0069135847
215	0xbbca5209	-0.00617433
216	0x3d162c60	0.036663413
217	0xbd96625e	-0.07342981
218	0x3dc968f3	0.098344706
219	0x3b335266	0.0027362346
220	0xbd598020	-0.053100705
221	0x3d7787cc	0.06043224
222	0xbdab8fc5	-0.08377031
223	0xbd68cb7e	-0.05683469
224	0x3c83b68c	0.016078256
225	0xbd87cdc9	-0.06631047
226	0xbddaa674	-0.1067628
227	0xbc89efcc	-0.016837977
228	0xbb8ad182	-0.004236401
229	0xbd4681f6	-0.048463784
230	0x3ca1f646	0.019770753
231	0xbd685836	-0.05672475
232	0xbd2a2653	-0.041540455
233	0xbd779679	-0.060446236
234	0x3cd7b182	0.02632976
235	0xbd281b09	-0.041041408
236	0xbcde109f	-0.027107535
237	0xbd3088a4	-0.04309906
238	0x3d3ee9d7	0.046609726
239	0xbcfbd650	-0.03074184
240	0xbc30f475	-0.010800471
241	0xbd99253a	-0.074778035
242	0xbdb00fab	-0.085967384
243	0xbd4eaa57	-0.050455417
244	0x3cc2528d	0.023721004
245	0xbdd9260e	-0.106029615
246	0xbc81098f	-0.015751628
247	0x3db95f45	0.09051374
248	0xbdc963e5	-0.098335065
249	0xbd2e7c36	-0.042598926
250	0xbc110786	-0.008851891
251	0x3c7e27ed	0.015512449
252	0xba752cd3	-0.00093526876
253	0xbcd0f1e5	-0.02550597
254	0x3d1af773	0.037833642
255	0x3ddf3264	0.10898283

lstm.bias_ih_l0 f4 [512]
0	0x3db0d31d	0.08634017
1	0x3b9b421e	0.0047381064
2	0xbd26688a	-0.04062704
3	0x3db6a129	0.089174576
4	0x3b10f16c	0.0022116555
5	0x3d568e07	0.05238154
6	0x3dbb05f4	0.09131995
7	0x3ddfb546	0.10923247
8	0xbcc24794	-0.023715772
9	0x3d2d8c82	0.042370327
10	0x3d092da8	0.033490807
11	0xbc334c00	-0.010943413
12	0x3cc30e91	0.023810657
13	0x3cc0fe79	0.023558842
14	0x3d9c2ef3	0.07626142
15	0x3d547757	0.051871624
16	0x3b9013ed	0.0043969066
17	0x3b9a7487	0.004713598
18	0x3be56b3a	0.007001308
19	0xbc859bca	-0.016309638
20	0xbc96f956	-0.01842944
21	0x3dae22df	0.08502745
22	0x3db60cb2	0.0888914
23	0xbc82abff	-0.015951155
24	0x3d86cea1	0.0658238
25	0x3da003d4	0.0781323
26	0x3d99f3c9	0.075172015
27	0x3d104834	0.03522511
28	0xbd603a2f	-0.05474299
29	0xbc991c47	-0.018690242
30	0x3d5942c8	0.053042203
31	0xbc25d3af	-0.01012127
32	0x3cd714d7	0.026255054
33	0x3d7b072f	0.061286148
34	0xbd46cb9d	-0.048534025
35	0x3d64300b	0.05570988
36	0x3d6951b2	0.056962676
37	0x3c9b577d	0.018962616
38	0x3cb50449	0.02209677
39	0xbd7f98ee	-0.062401704
40	0x3bce93bf	0.006304234
41	0x3dcc8229	0.099857636
42	0xbd065e7c	-0.03280495
43	0x3d4205ca	0.047368802
44	0x3da0907f	0.078400604
45	0xbd09b14e	-0.033616357
46	0x3d7cc40a	0.061710395
47	0x3d255ae0	0.04036987
48	0x3dbe39db	0.09288379
49	0xbc020584	-0.007935885
50	0xbd79b21b	-0.06096087
51	0x3cdaa27b	0.026688805
52	0x3d0e4eaa	0.03474299
53	0x3d2d2430	0.04227084
54	0x3dc828da	0.09773417
55	0xbd2a57bc	-0.041587576
56	0xbc449c85	-0.012000208
57	0x3d568215	0.05237015
58	0x3be681da	0.0070345225
59	0x3da7e978	0.081988275
60	0xbd5d242d	-0.053989578
61	0x3cbd8334	0.023133852
62	0x3db283ca	0.08716543
63	0xbbb460c0	-0.0055046976
64	0xbd612f25	-0.0549766
65	0x3d85c968	0.06532556
66	0x3d8c7ea9	0.06860096
67	0x3dc80b9e	0.09767841
68	0x3d29edf4	0.041486695
69	0xbd8196ce	-0.06327592
70	0x3d8bd3ab	0.06827482
71	0xbcbe2c8b	-0.0232146
72	0x3d78327a	0.060595013
73	0xbc8f21e3	-0.017472213
74	0x3d143406	0.036182426
75	0xbc2c0ff9	-0.010501855
76	0x3d005295	0.031328756
77	0xbce04c6c	-0.02738019
78	0xbd1ad603	-0.037801754
79	0x3dbbf8bf	0.09178304
80	0x3dadcf7f	0.08486842
81	0xbd777bd2	-0.06042082
82	0xbd54c0d7	-0.05194172
83	0x3cff5b30	0.031171411
84	0x3da313c8	0.07962757
85	0xbcf0409e	-0.029327687
86	0x3d2a2d74	0.041547254
87	0xbd495bb0	-0.049159706
88	0xb9cdb484	-0.00039235142
89	0xbc5d2657	-0.01349791
90	0x3c947a15	0.01812462
91	0x3cd3401b	0.025787404
92	0x3d65eb69	0.056132708
93	0x3d424f17	0.047438707
94	0x3db979ff	0.09056472
95	0x3d9eb104	0.07748607
96	0x3d952993	0.0728332
97	0xbd4f691b	-0.050637346
98	0x3dd983a7	0.10620814
99	0x3cc7b34d	0.02437749
100	0x3d42d85e	0.047569625
101	0xbceef6c2	-0.029170398
102	0x3d465041	0.04841638
103	0x3d7b3a64	0.061334983
104	0x3db8fd68	0.090327084
105	0x3d088b3b	0.033335906
106	0x3dca42cc	0.09876022
107	0x3dd69311	0.104772694
108	0xbd21e5cf	-0.039525803
109	0xbccd5bcf	-0.025068192
110	0xbcc97106	-0.024590027
111	0xbb8c0753	-0.004273334
112	0x3d0d174a	0.03444604
113	0x3d1c6948	0.03818634
114	0x3db5e5ac	0.08881697
115	0x3d160867	0.036629107
116	0x3d81cbc7	0.063376956
117	0x3c9358ba	0.017986644
118	0x3db16969	0.086626835
119	0xbba40e2d	-0.0050065727
120	0xbd8c2d11	-0.06844533
121	0x3bbd71b4	0.0057813767
122	0xbcb0924b	-0.021554133
123	0x3d87c18f	0.06628715
124	0xbd56de6c	-0.05245821
125	0x3d7b76a7	0.061392453
126	0x3cdc1f9d	0.026870543
127	0x3b8f344c	0.004370248
128	0x3dd110e9	0.102083035
129	0xbd25d0c9	-0.040482316
130	0x3d393cce	0.045224003
131	0x3d2d10a4	0.042252198
132	0x3cd9b1b8	0.026574
133	0x3c2d5dac	0.010581415
134	0xbd0ace1c	-0.033887967
135	0xbbf1965f	-0.007372662
136	0xbd08ef78	-0.0334315
137	0x3db17dc0	0.08666563
138	0x3d95e1c2	0.073184505
139	0x3d6f8e04	0.058485046
140	0x3da616b5	0.081098
141	0xbd669237	-0.056291785
142	0x3c9e66f3	0.0193362
143	0x3d62873f	0.055304762
144	0x3d7832e8	0.060595423
145	0x3c0a30e6	0.00843451
146	0x3cab911c	0.020943217
147	0xbd4ef1a8	-0.05052343
148	0x3db30325	0.08740834
149	0x3d490fe9	0.04908744
150	0xbd4180d4	-0.047242
151	0xbd30c0df	-0.043152686
152	0x3dc888fc	0.09791753
153	0xbc3f2d6e	-0.011668546
154	0x3d6f231e	0.0583831
155	0x3c9edaf4	0.019391514
156	0xbd31e7e1	-0.043434028
157	0xbd8ac38f	-0.06775581
158	0x3ba3c95f	0.0049983705
159	0x3d638643	0.055547964
160	0xbd0779e0	-0.033075213
161	0x3aef5005	0.0018258101
162	0x3dc83373	0.09775438
163	0xbd410216	-0.04712113
164	0xbd4552c3	-0.04817463
165	0x3da715c3	0.081584476
166	0xbca5bfa7	-0.020232989
167	0xbcf08fe6	-0.029365491
168	0x3ccfa425	0.025346825
169	0x3d0cf332	0.034411617
170	0x3d7ea2d0	0.06216699
171	0x3d920bf1	0.07131184
172	0xbc92520c	-0.017861389
173	0x3dad623a	0.08466001
174	0xbd6d53bc	-0.057941183
175	0x3d071901	0.03298283
176	0x3d174bbb	0.036937457
177	0xbd34caa5	-0.04413857
178	0xbcb41de8	-0.021986917
179	0x3bbae1c3	0.0057031824
180	0xbbd88718	-0.0066079013
181	0x3c5c4c57	0.013445935
182	0x3d2ee1ac	0.042695686
183	0x3d6810d1	0.056656662
184	0x3dcf4a9a	0.10121651
185	0x3d91cffd	0.07119749
186	0xbdb3be68	-0.087765515
187	0x3d621fcb	0.0552061
188	0x3d2dcf1f	0.042433854
189	0xbbcfe4ce	-0.0063444143
190	0xbc48185d	-0.01221284
191	0xba049f1e	-0.00050591107
192	0xbd822e27	-0.06356459
193	0x3db21cba	0.086968854
194	0x3db3b0b5	0.087739386
195	0xbd2899b0	-0.041162193
196	0x3c738de9	0.014865377
197	0xbc40dd7b	-0.011771555
198	0x3d58c35a	0.052920677
199	0x3d226cdb	0.039654594
200	0xbd6ba8f3	-0.05753417
201	0xbcf4e70c	-0.029895328
202	0x3c91be01	0.017790796
203	0x3d53c3a2	0.051700242
204	0xbd3a2f9c	-0.04545556
205	0x3d02fb2c	0.031977817
206	0xbcaa91bb	-0.020821443
207	0x3dbdd4a4	0.092690736
208	0x3d1a19d6	0.037622295
209	0x3cdbc27a	0.026826132
210	0xbc9eca73	-0.019383645
211	0x3d7e0c5b	0.0620235
212	0xbd3b76d1	-0.04576761
213	0x3da76158	0.08172864
214	0x3d865402	0.06558992
215	0x3dc7a277	0.097477846
216	0x3dd5ce40	0.1043973
217	0xbd159100	-0.036515236
218	0x3da5962f	0.08085286
219	0xbd7be033	-0.06149311
220	0xbd64f896	-0.055901133
221	0x3d408a4a	0.047006883
222	0xbd26931a	-0.04066763
223	0x3b6b0f2e	0.0035867202
224	0x3d9219fd	0.07133863
225	0xbcf32e7d	-0.029685253
226	0xbd267d40	-0.04064679
227	0x3cf02938	0.02931653
228	0x3d8c9ab7	0.06865447
229	0xbd782b25	-0.06058802
230	0x3d440068	0.04785195
231	0x3d3f722a	0.046739735
232	0xbd67e77f	-0.056617256
233	0x3dcf9952	0.101366654
234	0x3d97f6d4	0.074201256
235	0x3dde8a01	0.10866166
236	0x3daf876d	0.08570752
237	0xbc3d2e76	-0.011546722
238	0x3caa53c7	0.020791901
239	0x3c6a36bd	0.014295277
240	0x39d72e19	0.0004104234
241	0x3d9a8552	0.0754496
242	0xbd078a22	-0.033090718
243	0x3dd036be	0.10166691
244	0x3c4d9b30	0.012549207
245	0x3d4bb7cb	0.049735826
246	0xbd500d72	-0.050794072
247	0x3ce8e1a6	0.02842791
248	0x3d9a2717	0.07526987
249	0xbd3eeb30	-0.04661101
250	0xbd807a24	-0.062732965
251	0x3de01420	0.109413385
252	0xbd5ff775	-0.054679353
253	0xbd121408	-0.035663635
254	0xbb3e4126	-0.002903053
255	0x3cab7104	0.020927913

lstm.bias_hh_l0 f4 [512]
0	0xbbba7493	-0.0056901663
1	0x39fb16db	0.0004789148
2	0x3d9c8145	0.07641844
3	0x3cec780b	0.028865835
4	0xbc237149	-0.00997574
5	0x3d79687d	0.060890663
6	0xbd7d9314	-0.061907843
7	0x3dafda42	0.08586551
8	0xbd5e2389	-0.054233108
9	0x3d1ba360	0.037997603
10	0x3d1a261c	0.037634
11	0x3db21e4e	0.086971864
12	0x3d8ffca0	0.07030606
13	0x3d86ca47	0.0658155
14	0xbd7a3b30	-0.0610916
15	0xbdae6a69	-0.0851639
16	0x3d947847	0.072495036
17	0x3d9b8455	0.075936
18	0x3daf5391	0.08560861
19	0x3b114ac8	0.0022169817
20	0x3d0a19a1	0.033715848
21	0x3c78c3aa	0.015183369
22	0xbd169070	-0.03675884
23	0xbc9f1331	-0.01941833
24	0x3da3b87b	0.07994171
25	0xbc2e5992	-0.010641472
26	0xbd2bbd73	-0.04192872
27	0x3d4848c6	0.048897527
28	0xbd6d5d4b	-0.0579503
29	0xbd4e5d86	-0.05038216
30	0x3d2babff	0.041912075
31	0xbc893802	-0.01675034
32	0xbc320800	-0.010866165
33	0x3ccca45d	0.024980718
34	0x3c6ead44	0.014567677
35	0xbd452a0b	-0.0481358
36	0x3ddd5d3f	0.10808801
37	0x3cf5e627	0.030016972
38	0x3db303c9	0.08740956
39	0xbcd97e8a	-0.026549596
40	0xbd283db6	-0.041074477
41	0x3de27aa5	0.11058549
42	0x3d21e19d	0.039521802
43	0xbb5a4a4f	-0.0033308452
44	0xbbeafd13	-0.007171282
45	0x3d02f0ca	0.031967916
46	0xbb5eaaef	-0.0033976396
47	0x3d81ea2f	0.06343495
48	0xbc9c53d7	-0.019082947
49	0xbd11dd42	-0.0356114
50	0xbcb17006	-0.021659862
51	0x3aa5cdab	0.0012649795
52	0x3d647715	0.055777628
53	0xbc5ce9c2	-0.013483467
54	0x3d607ff6	0.054809533
55	0xbd514ccb	-0.051098626
56	0x3c892094	0.016739167
57	0xbcf00474	-0.029298998
58	0x3d2242c2	0.039614446
59	0xbd1f03fd	-0.038822163
60	0x3d09e94e	0.033669762
61	0x3dc325b5	0.095286764
62	0x3da2903c	0.07937667
63	0x3c0a8a7c	0.008455869
64	0xbc7b297d	-0.015329716
65	0xbd46a116	-0.048493467
66	0xbbd073f7	-0.0063614803
67	0xbc0b5a7b	-0.008505459
68	0xbd2ee9d6	-0.042703472
69	0xbc2e7674	-0.010648359
70	0x3dc4a6d9	0.09602136
71	0x3c51913a	0.012790972
72	0x3cf4a18a	0.029862184
73	0x3d60c4b5	0.054875094
74	0x3d774df4	0.060377076
75	0x3d11a611	0.035558764
76	0x3ccc4e36	0.024939638
77	0xbd35a9d4	-0.044351414
78	0xbd3309e2	-0.043710597
79	0x3c7f2c02	0.015574457
80	0xbd21bdad	-0.03948753
81	0x3d49ec1f	0.04929745
82	0x3bda5761	0.0066632484
83	0x3d69fa50	0.057123482
84	0x3dd239e4	0.10264948
85	0xbbd83c4a	-0.006598984
86	0xbce2033e	-0.027589437
87	0xbd4fa1b7	-0.050691333
88	0x3d8adf86	0.06780915
89	0x3c2ab027	0.010417975
90	0xbd8610c7	-0.06546169
91	0xbbb82268	-0.005619336
92	0x3d5f970c	0.05458741
93	0x3d9c086d	0.076187946
94	0x3b814473	0.0039449274
95	0xbca58073	-0.02020285
96	0x3dad1059	0.08450384
97	0x3a590973	0.0008279301
98	0x3d363873	0.044487428
99	0x3b94bfa7	0.0045394483
100	0x3b1a6dad	0.0023563907
101	0x3d85919e	0.06521915
102	0x3dc95f47	0.09832626
103	0xbd7cc01b	-0.061706644
104	0x3cbd9b8d	0.023145461
105	0xbc1fb264	-0.0097471215
106	0x3d855262	0.06509854
107	0x3d5301b9	0.051515315
108	0xbd6b6787	-0.05747178
109	0x3ce67605	0.028132448
110	0x3dc6538a	0.096839026
111	0xbd100c7c	-0.035168156
112	0xbca50b4a	-0.020146985
113	0x3d05809b	0.03259335
114	0xbcdbbcc8	-0.026823416
115	0xbd02f25d	-0.031969417
116	0x3cd1ff07	0.025634302
117	0xbd65a8dd	-0.056069244
118	0xbc380af6	-0.011233082
119	0x3c99f803	0.018795019
120	0xbd87505c	-0.06607124
121	0xbd45b392	-0.048266955
122	0x3c615425	0.013752972
123	0x3c932e48	0.017966405
124	0x3d6e2714	0.058142737
125	0xbd52d240	-0.05147004
126	0xbd807b20	-0.06273484
127	0x3d825434	0.06363717
128	0x3dcd05a7	0.10010844
129	0xbd3e775b	-0.046500545
130	0x3c8e3cc6	0.017362963
131	0x3cd78500	0.026308537
132	0xbd442297	-0.04788455
133	0x3d0ff954	0.035149887
134	0x3d87ab61	0.06624485
135	0x3dc603f3	0.09668722
136	0xbce1881a	-0.027530719
137	0x3d4d14a6	0.05006852
138	0x3dc1ed2c	0.09469065
139	0x3d41a105	0.0472727
140	0xbc8fad99	-0.017538833
141	0x3dc8a74f	0.097975366
142	0x3d9218b3	0.07133617
143	0x3c9fc1e6	0.019501638
144	0xbbc90708	-0.0061348714
145	0x3dbd809f	0.09253048
146	0xbd0d8e12	-0.034559317
147	0x3d48f33a	0.049060084
148	0x3d0ae8be	0.033913366
149	0xbc33b2c7	-0.010967917
150	0xbaff98fe	-0.0019500551
151	0xbd68d3df	-0.05684268
152	0xba233656	-0.0006226053
153	0xbcbffdfd	-0.02343654
154	0x3dcf94f8	0.101358354
155	0x3ddc40c6	0.10754542
156	0x3d7d0b05	0.061778087
157	0x3d3d23bf	0.04617667
158	0xbd052170	-0.03250259
159	0x3d61b02f	0.055099662
160	0x3c9c5e89	0.019088047
161	0x3d94f98e	0.07274161
162	0x3d6358dd	0.05550467
163	0x3d23cbe2	0.03998936
164	0x3da7315d	0.08163712
165	0x3dc59508	0.09647566
166	0x3da35e4c	0.0797697
167	0x3be667d3	0.00703142
168	0xbd27d3df	-0.04097354
169	0x3dc5e9fc	0.096637696
170	0x3c50bd50	0.012740448
171	0xba4bd88e	-0.00077761046
172	0xbcf4e237	-0.029893024
173	0x3da5be43	0.0809293
174	0x3ce19b34	0.027539827
175	0xbd472c2c	-0.04862611
176	0x3dd1699c	0.102252215
177	0xbc979528	-0.01850374
178	0xbd49cc94	-0.049267367
179	0x3bded1fd	0.006799935
180	0xbc89e861	-0.01683444
181	0xbd424758	-0.04743132
182	0x3da4535c	0.08023712
183	0x3d743073	0.059616517
184	0x3d99082b	0.07472261
185	0x3c14886f	0.009065731
186	0x3d77631c	0.060397252
187	0x3c580859	0.013185584
188	0xba95f6a5	-0.0011441304
189	0xbcd49898	-0.025951669
190	0xbd5dacd6	-0.054119907
191	0xbcfe32a6	-0.03103001
192	0x3d910878	0.070816934
193	0x3c14d1ac	0.009083193
194	0x3d2ae6f6	0.041724168
195	0x3dd19a37	0.10234492
196	0x3d5a6646	0.05332019
197	0x3db306ac	0.08741507
198	0x3da852cf	0.082189195
199	0x3d362c25	0.044475693
200	0x3dafb417	0.08579271
201	0x3d91e002	0.07122804
202	0x3cdfc7d9	0.027316974
203	0x3de4af5d	0.111662604
204	0x3d61c39c	0.05511819
205	0x3bc8dd08	0.0061298646
206	0x3dc5a8e3	0.09651353
207	0x3dbeba38	0.09312862
208	0xbca5458d	-0.020174766
209	0x3dbc3d44	0.09191373
210	0x3c5f5234	0.013630439
211	0xbc28ff73	-0.01031481
212	0x3c9988cb	0.018741986
213	0x3dbf99f8	0.09355539
214	0x3cb5c479	0.022188412
215	0x3db10e10	0.0864526
216	0x3d155a95	0.03646334
217	0x3c0e504c	0.008686136
218	0x3cdd0af2	0.026982758
219	0x3dd43328	0.1036132
220	0xbd1daeb7	-0.0384967
221	0x3a3179d5	0.00067701685
222	0x3d81785c	0.06321785
223	0x3d86a1b5	0.06573812
224	0x3d1c365a	0.03813777
225	0x3d4f5c12	0.050624914
226	0x3c66e3d7	0.014092407
227	0xbd07ed91	-0.033185545
228	0x3d579bfe	0.052639
229	0x3db18606	0.08668141
230	0x3da8f52b	0.08249887
231	0x3cb3a065	0.021927068
232	0x3d84b16d	0.06479154
233	0x3cf6f585	0.03014637
234	0xbc9d1f6b	-0.01918002
235	0x3d8ac23d	0.06775329
236	0xbc57a525	-0.013161932
237	0x3dd8ead5	0.10591666
238	0x3c881d93	0.016615665
239	0x3d7bd000	0.06147766
240	0xbc3bf62c	-0.011472266
241	0x3d06b60c	0.032888457
242	0x3beca7ff	0.007222175
243	0x3ce37473	0.027765488
244	0x3d8126d8	0.06306237
245	0x3dd08c31	0.101829894
246	0x3c9de918	0.019276187
247	0xbd466d5a	-0.04844413
248	0x3c7ca00a	0.015419016
249	0x3db49156	0.08816783
250	0x3c6d1dca	0.014472434
251	0x3daa9785	0.08329681
252	0xbbda188c	-0.0066557582
253	0x3d22f14e	0.039780907
254	0x3c51361f	0.012769251
255	0x3d97a667	0.074047856

lstm.weight_ih_l1 f4 [512, 128]
0	0x3da8d8f5	0.08244506
1	0x3d992e38	0.07479519
2	0xbd4af670	-0.049551427
3	0x3a9dabe6	0.0012029379
4	0x3bee4089	0.007270877
5	0x3da09683	0.07841208
6	0xbd9d00e5	-0.07666186
7	0xbcdd4a7a	-0.027013052
8	0x3dc334b5	0.095315374
9	0xbcaff20b	-0.02147772
10	0x3c19b463	0.009381386
11	0x3d853af7	0.06505387
12	0xbcf7c3b1	-0.03024468
13	0x3cc55076	0.024086218
14	0xbdc4bdfa	-0.09606548
15	0x3d3bbee0	0.04583633
16	0x3dc017fc	0.09379575
17	0xbcdcd487	-0.02695681
18	0xbdb27777	-0.08714192
19	0xbd3006ce	-0.04297524
20	0xbc0a3f4f	-0.0084379455
21	0xbcf05dd4	-0.029341616
22	0xbd9bd2dd	-0.07608578
23	0xbd0dbea4	-0.034605637
24	0xbdd7b4d9	-0.10532541
25	0xbd6af1f9	-0.05735967
26	0xbce083b4	-0.027406551
27	0x3ddb7105	0.10714916
28	0xbd339a46	-0.0438483
29	0xbd27b8d5	-0.040947754
30	0xbd33ee3a	-0.043928362
31	0x3d9c5661	0.07633663
32	0xbd854323	-0.06506946
33	0xbdd73f30	-0.10510099
34	0x3cd4d4fb	0.025980463
35	0x3d765a59	0.060144756
36	0x3d265aa9	0.040613804
37	0xbcb2df58	-0.021835014
38	0x3dd02770	0.10163772
39	0x3d86ff9e	0.06591724
40	0x3d12de48	0.035856515
41	0x3ad06c56	0.0015901427
42	0xbdabdfa4	-0.083922654
43	0xbb6614a0	-0.0035107508
44	0x3d6ff38d	0.058581877
45	0x3dc37f95	0.09545819
46	0xbd55b53c	-0.05217479
47	0x3d5bd349	0.053668294
48	0x3cea9706	0.028636467
49	0x3dcf21a6	0.1011384
50	0x3d3e37db	0.046439987
51	0xbcea8ede	-0.028632578
52	0xbd912e8d	-0.07088957
53	0xbd5d5ab3	-0.054041576
54	0x3d3e7730	0.046500385
55	0x3da96a05	0.08272175
56	0x3d467bdf	0.048457976
57	0x3a7fb3da	0.0009754278
58	0x3d8fb784	0.07017425
59	0xbd779002	-0.06044007
60	0xbdeb842e	-0.11499821
61	0xbdb6f148	-0.089327395
62	0x3d4ec23d	0.05047821
63	0xbd87cf50	-0.066313386
64	0x3da53823	0.08067348
65	0xbd990b91	-0.07472909
66	0x3dcb1b99	0.09917373
67	0x3d0050cb	0.03132705
68	0x3d5b0591	0.053472105
69	0xbcdad711	-0.02671388
70	0xbd88d98b	-0.06682118
71	0xbd815712	-0.063154355
72	0xbd99f119	-0.07516689
73	0x3c8e8a96	0.017400067
74	0xbcd807b4	-0.02637086
75	0x3da816fe	0.082075104
76	0xbdd40e6a	-0.10354312
77	0x3d4207b2	0.04737062
78	0x3cefdb62	0.029279415
79	0x3d7eec1e	0.062236898
80	0xbc9c6175	-0.01908944
81	0xbc0e239c	-0.008675482
82	0xbc55b015	-0.0130424695
83	0x3c07e29d	0.008293775
84	0x3cb96948	0.02263321
85	0xbd1327ee	-0.03592675
86	0x3d29dea3	0.04147209
87	0x3bd53293	0.006506273
88	0x3d4bbcc0	0.049740553
89	0xbd9df520	-0.077127695
90	0xbab79d67	-0.0014008702
91	0x3c080ed7	0.008304319
92	0x3c65a73d	0.0140169235
93	0x3c1bf8d4	0.0095197745
94	0xbbb590e2	-0.005540953
95	0xbdd3cbad	-0.103415824
96	0xbc1034fe	-0.008801697
97	0xbccd4dd1	-0.02506152
98	0xbd4961a5	-0.049165387
99	0xbc0b216a	-0.008491853
100	0x3db3ae78	0.08773512
101	0xbb8ac20b	-0.0042345575
102	0xbd85ad6c	-0.06527218
103	0xbd69b081	-0.057053093
104	0x3d840e20	0.06448007
105	0xbdc2b065	-0.09506301
106	0x3cb97618	0.02263932
107	0x3db80a96	0.08986394
108	0xbd9690c5	-0.07351831
109	0x3d50cb97	0.05097541
110	0xbd18c645	-0.03729846
111	0xbcd97dd3	-0.026549255
112	0xbd83dc4d	-0.064385034
113	0xbd411e90	-0.047148287
114	0xbd859826	-0.06523161
115	0xbc6e7cc4	-0.014556114
116	0xbdcc46da	-0.09974451
117	0xbdc41de4	-0.09576014
118	0xbc7efc25	-0.015563046
119	0xbd4c8639	-0.049932692
120	0xbd0a0691	-0.03369767
121	0x3a396a06	0.00070729887
122	0x3d4499c1	0.047998194
123	0xbc6c5ee4	-0.014426921
124	0x3c567ce6	0.013091302
125	0x3bab418c	0.0052263197
126	0xbd400396	-0.04687842
127	0x3d7e03e3	0.062015425
128	0xbd28d191	-0.041215483
129	0xbd01cf0e	-0.031691603
130	0xbc7e9fe1	-0.015541048
131	0xbd651c32	-0.055935092
132	0xbd309109	-0.043107066
133	0x3c6e945c	0.014561739
134	0x3d7c6703	0.061621677
135	0xbbf495bd	-0.0074641393
136	0x3c0c53f6	0.00856494
137	0xbcec3ab0	-0.028836578
138	0x3cbe62bc	0.02324044
139	0x3c7a9cc2	0.015296163
140	0xbdb1e710	-0.0868665
141	0x3d277586	0.040883563
142	0xbdc68161	-0.09692646
143	0xbd38843d	-0.045047987
144	0xbcb16100	-0.021652699
145	0x3cd7a4ec	0.026323758
146	0x3d8a9b26	0.067678735
147	0xbc038e0a	-0.00802947
148	0x3da2c2cd	0.079473116
149	0x3d11afb8	0.03556797
150	0xbd9a36b2	-0.075299636
151	0xbd82fe24	-0.0639613
152	0xbd81b036	-0.06332438
153	0x3d87ce1f	0.06631111
154	0x3cf99a5a	0.030469108
155	0xbd8452a0	-0.06461072
156	0xbd718987	-0.058969047
157	0x3d447e5e	0.047972076
158	0x3d8c55af	0.0685228
159	0x3d82d901	0.063890465
160	0xbace05f6	-0.0015718329
161	0x3d6ad0e6	0.057328127
162	0xbb3c935b	-0.0028774354
163	0xbd084fef	-0.033279356
164	0xbbce5e33	-0.0062978505
165	0x3d6eb8c2	0.058281668
166	0x3d5afe17	0.053464975
167	0xbdc19681	-0.094525345
168	0x3d4db3c4	0.050220266
169	0xbcb09058	-0.021553203
170	0xbc4563a6	-0.012047684
171	0x3d59907e	0.053116314
172	0xbbc94602	-0.006142379
173	0xbc655019	-0.013996148
174	0xbd22fcb7	-0.03979179
175	0xbaed7faf	-0.0018119718
176	0xbd175ec1	-0.0369556
177	0xbd68d3a2	-0.056842454
178	0xbca6986c	-0.020336352
179	0xbdae4d80	-0.08510876
180	0xbd7d712f	-0.06187552
181	0xbd2a5fe6	-0.041595362
182	0x3d0dda26	0.03463187
183	0xbd643fc3	-0.05572487
184	0x3cd0ce81	0.025489094
185	0xbd3b1562	-0.04567469
186	0x3cdfad34	0.02730427
187	0xbccd6e1e	-0.025076922
188	0xbcba3f92	-0.02273539
189	0x3d693733	0.056937408
190	0xbd843c52	-0.06456818
191	0x39dd0c91	0.00042161767
192	0xbd2555f1	-0.040365163
193	0x3c92fbb4	0.017942287
194	0x3dd7b1bb	0.10531946
195	0x3d46c661	0.048529033
196	0xbccaba7d	-0.024747128
197	0xbc8559c3	-0.016278153
198	0x3d843081	0.06454564
199	0x3d099b78	0.033595532
200	0xbd3322f0	-0.04373449
201	0xbd27c968	-0.04096356
202	0x3d97a708	0.074049056
203	0x3cc2ed96	0.02379493
204	0xbd76e896	-0.060280405
205	0x3d982bef	0.07430255
206	0xbc913157	-0.017723722
207	0xbd877f3a	-0.066160634
208	0x3d3150d1	0.043289963
209	0x3d300878	0.042976826
210	0xbdcc882f	-0.099869125
211	0xbc1ce673	-0.009576428
212	0x3d24247e	0.040073864
213	0x3d931d04	0.07183269
214	0xbdbe4b29	-0.092916794
215	0xbd96e0bd	-0.07367084
216	0xbd0dc8be	-0.03461527
217	0x3d52b49d	0.051441777
218	0xbc58ff0e	-0.0132444035
219	0xbd4eeb3f	-0.050517317
220	0x3db78a9c	0.089619845
221	0xbd5cee12	-0.05393798
222	0xbc91be83	-0.017791038
223	0x3d7b0021	0.06127942
224	0x3cc7e61b	0.024401715
225	0xbd0f51c3	-0.034990083
226	0xbdb002cf	-0.08594286
227	0x3d6447ff	0.055732723
228	0x3d23d3f6	0.039997064
229	0x3d0294fc	0.031880364
230	0xbdba8483	-0.09107306
231	0xbc9f0944	-0.019413598
232	0x3c8ffc02	0.017576221
233	0x3d379524	0.044819966
234	0xbd8795de	-0.06620382
235	0x3dbc1654	0.09183946
236	0xbd8f1a17	-0.06987398
237	0x3dd41e41	0.10357333
238	0x3d450639	0.048101638
239	0x3d5de514	0.054173544
240	0x3d1ac86c	0.037788793
241	0xbcb650ac	-0.022255264
242	0xbd80ca76	-0.06288616
243	0xbcc9254d	-0.02455392
244	0xbd79c532	-0.060979076
245	0xbd8ff54b	-0.07029208
246	0xbd93a255	-0.07208697
247	0x3daecee2	0.085355535
248	0xbad5e545	-0.0016318938
249	0x3daf8e77	0.08572095
250	0x3d4f7d42	0.050656565
251	0xbc765b9b	-0.015036489
252	0xbd96cb04	-0.07362941
253	0x3af2e1fc	0.0018530483
254	0x3d18037c	0.037112698
255	0xbd2ef54b	-0.0427144

lstm.weight_hh_l1 f4 [512, 128]
0	0xbd8b28c7	-0.06794887
1	0xbc300a40	-0.010744631
2	0x3d469c3e	0.048488848
3	0x3dc4fa65	0.096180715
4	0xbcac6497	-0.021044059
5	0x3c95a044	0.018264897
6	0x3c20b97c	0.009809848
7	0x3d521c37	0.05129644
8	0x3ca263a0	0.019822896
9	0x3d475b7b	0.048671227
10	0xbdd4c600	-0.10389328
11	0x3cd6804b	0.026184222
12	0xbd7335ad	-0.05937736
13	0xbc9326a7	-0.017962767
14	0xbdce21b7	-0.10065024
15	0xbd22541a	-0.039630987
16	0x3db8f583	0.09031203
17	0x3dc47ea8	0.0959447
18	0x3d81c0e2	0.063356176
19	0xbd104d2e	-0.035229854
20	0xbd56dc86	-0.0524564
21	0xbceeffba	-0.029174674
22	0x3dd0f06e	0.10202108
23	0xbd2b5df5	-0.04183765
24	0x3d8f66cc	0.07002029
25	0xbd82ae02	-0.063808456
26	0xbdd3707a	-0.103241876
27	0x3d0341a7	0.032045033
28	0xbcdc125c	-0.026864223
29	0xbd5ed954	-0.05440648
30	0x3a9045af	0.0011007095
31	0x3c7faf3f	0.015605747
32	0xbd389ad1	-0.04506952
33	0x3d8729ee	0.06599794
34	0x3d62186c	0.05519907
35	0x3daba06c	0.083802074
36	0x3cfe381e	0.031032618
37	0x3d139502	0.036030777
38	0x3cf0ca6f	0.029393403
39	0x3b147a0d	0.0022655756
40	0xbd60e066	-0.054901503
41	0x3c7adead	0.015311879
42	0x3cb2289c	0.02174788
43	0xbd5a178a	-0.053245105
44	0xbc894869	-0.01675816
45	0xbd7b4d48	-0.061352998
46	0x3cc2f72e	0.023799505
47	0x3ca97638	0.020686254
48	0xbc08566c	-0.008321386
49	0x3db2f6ab	0.087384544
50	0xbcef0a8f	-0.02917984
51	0xbdd94981	-0.10609723
52	0x3d1b1a75	0.03786703
53	0x3bb11c9a	0.005405021
54	0xbc5546cd	-0.0130173685
55	0xbb9c89a1	-0.004777149
56	0x3c27e64f	0.010247781
57	0x3d38680d	0.045021106
58	0xbd4c8024	-0.049926892
59	0x3dcf06bc	0.10108706
60	0xbc5d1e6d	-0.013496024
61	0x3cc44c04	0.023962028
62	0xbdc1e85a	-0.09468146
63	0xbd02146f	-0.03175777
64	0xbcbdb7c6	-0.023158919
65	0x3d35fc2e	0.04442995
66	0x3c48c526	0.012254035
67	0xbc39e50d	-0.011346114
68	0xbbb1364b	-0.0054080836
69	0x3ad3597b	0.001612469
70	0xbd32a40b	-0.043613475
71	0x3d4d1075	0.050064523
72	0x3c7105f4	0.014710892
73	0x3d6309d5	0.0554293
74	0xbd0a9a43	-0.03383852
75	0x3d701ad7	0.058619346
76	0xbc4f1a58	-0.012640558
77	0x3d1ac9e9	0.037790213
78	0xbc5eab9a	-0.013590718
79	0xbce9da8d	-0.028546596
80	0xbcb77246	-0.022393357
81	0x3d0047f9	0.03131864
82	0xbd81582d	-0.06315646
83	0x3d20f6e4	0.039297953
84	0x3dc1ce7c	0.09463212
85	0xbda8734f	-0.08225118
86	0x3cb7b147	0.0224234
87	0x3d820921	0.063493975
88	0x3de2effd	0.110809304
89	0x3bde5256	0.0067847176
90	0x3d834638	0.064098775
91	0xbd2e98c1	-0.042626146
92	0xbdb2e142	-0.08734371
93	0xbd053540	-0.032521486
94	0xbd16b21f	-0.036790963
95	0x3c9c3628	0.019068792
96	0x3c4b6013	0.012413043
97	0xbca18f3b	-0.019721618
98	0x3d20fa89	0.03930143
99	0x3c53d7bd	0.012929854
100	0x3d399c9d	0.045315374
101	0xbd131194	-0.035905436
102	0xbd5af6b2	-0.053457923
103	0x3de3125f	0.110874884
104	0xbd23000d	-0.03979497
105	0x3d877592	0.06614222
106	0xbd1c0bb2	-0.03809709
107	0xbcb4c7d6	-0.022067945
108	0xbd36b481	-0.044605736
109	0xbd8d024b	-0.06885203
110	0xbd4c139c	-0.04982339
111	0xbc82ddb6	-0.01597486
112	0x3d087afe	0.03332042
113	0xbd29a8f5	-0.041420896
114	0x3dd0cd05	0.10195354
115	0x3dae9d22	0.085260645
116	0xbd272396	-0.04080542
117	0x3d87b7a8	0.066268265
118	0x3c20da7b	0.009817715
119	0x3c7c6630	0.015405223
120	0xbd360c55	-0.044445354
121	0x3d164d5c	0.03669487
122	0x3dbb6b5c	0.091513366
123	0x3cb9d9c5	0.022686848
124	0xbd59b31c	-0.053149328
125	0x3d159df0	0.036527574
126	0x3cbe8146	0.023255002
127	0x3d87a35f	0.066229574
128	0xbd441c26	-0.047878407
129	0xbcc3733c	-0.023858659
130	0xbd029d15	-0.031888086
131	0xbd2b7d63	-0.041867625
132	0x3d8442d3	0.06458058
133	0x3cd902e2	0.026490632
134	0xbc696915	-0.014246245
135	0x3d8f3446	0.06992392
136	0xbd0a36e7	-0.033743765
137	0x3d470504	0.048588768
138	0x3ce04f05	0.02738143
139	0xbd55d0c6	-0.052201055
140	0x3d0e60c7	0.034760263
141	0x3d4bb31c	0.04973136
142	0x3d88f62d	0.06687579
143	0xbaf83e65	-0.0018939493
144	0xbd8fe87c	-0.07026765
145	0x3dc94f2d	0.09829555
146	0x3dac7e4e	0.08422528
147	0x3d218fe8	0.03944388
148	0xbdbd9c80	-0.09258366
149	0xbd8f814d	-0.07007084
150	0xbcf5b3b7	-0.029992921
151	0x3d59afa5	0.053146023
152	0xbd06d628	-0.03291908
153	0xbcb9f569	-0.022700028
154	0xbdbd2162	-0.09234883
155	0xbcbe0b56	-0.023198765
156	0xbb660956	-0.003510078
157	0x3d4c9576	0.049947225
158	0xbd135a81	-0.035974983
159	0x3d19ca9a	0.03754673
160	0xbca2d119	-0.019875096
161	0x3dae80d9	0.085206695
162	0xbd825f8d	-0.06365881
163	0x3ba459d1	0.0050155898
164	0xbd6594d8	-0.05605015
165	0x3dc53434	0.096290976
166	0x3c914905	0.017735014
167	0x3dbc77e0	0.09202552
168	0x3dc593cc	0.09647331
169	0xbb969465	-0.0045953267
170	0x3d228db0	0.039685905
171	0xbcea807c	-0.02862572
172	0xbd287862	-0.04113043
173	0x3dbdd84b	0.0926977
174	0xbd82fc00	-0.063957214
175	0x3d277923	0.04088701
176	0xbd844d0e	-0.064600095
177	0xbd5b1c95	-0.053494055
178	0xbdc73b10	-0.09728062
179	0x3d65f1c7	0.05613878
180	0xbd3bac50	-0.045818627
181	0xbd80fcb2	-0.06298198
182	0xbc59bc60	-0.013289541
183	0xbda996a6	-0.08280687
184	0xbd87e6ca	-0.066358164
185	0xbd48787c	-0.048943028
186	0x3dae48ef	0.08510005
187	0x3d01f7b9	0.031730387
188	0x3d497474	0.049183324
189	0x3c2cbdb4	0.010543276
190	0xbd5f4b00	-0.054514885
191	0xbcf72107	-0.030167116
192	0x3d262fea	0.04057304
193	0xbd6217b0	-0.05519837
194	0x3c4775e6	0.012174105
195	0x3c041617	0.008061907
196	0x3cc55122	0.024086539
197	0x3d772373	0.06033654
198	0xbd8f33ec	-0.06992325
199	0xbce1d5f3	-0.02756784
200	0xbcab4c59	-0.020910429
201	0x3d2c0fae	0.04200714
202	0xbcb3f2e5	-0.021966407
203	0xba3296c7	-0.00068126287
204	0xbdd28703	-0.10279658
205	0xbc1c216f	-0.009529456
206	0x3db8bff8	0.0902099
207	0xbd90403b	-0.07043501
208	0xbc903684	-0.01760412
209	0x3d503772	0.050834127
210	0x3d0d6727	0.034522202
211	0x3d8dd1cd	0.06924782
212	0x3db2f3c5	0.087379016
213	0xbdad3804	-0.0845795
214	0xbd3b6ba5	-0.045756955
215	0xbaa0cccb	-0.0012268064
216	0x3d5638ec	0.05230038
217	0x3db45c5c	0.08806679
218	0x3d6eda78	0.058313817
219	0x3c61623d	0.013756332
220	0xbda33bd3	-0.07970395
221	0xbd68ad04	-0.056805626
222	0xbd603657	-0.054739323
223	0xbc5831c2	-0.013195457
224	0xbd2c17d7	-0.042014923
225	0xbd8c717d	-0.06857584
226	0xbdb8c152	-0.09021248
227	0xbd894bf4	-0.0670394
228	0xbd9022a7	-0.070378594
229	0xbd2a672f	-0.04160231
230	0x3d982d2c	0.07430491
231	0x3d8a2bb6	0.067466184
232	0x3d885811	0.06657422
233	0xbd64d523	-0.055867326
234	0x3d3adb18	0.0456191
235	0x3da04a7c	0.07826707
236	0xbdb0af37	-0.086271696
237	0xbdc2e772	-0.09516801
238	0xbd89a1aa	-0.06720288
239	0x3dc3bc6e	0.095574245
240	0xbdb20d58	-0.08693951
241	0x3d6c58a6	0.05770173
242	0x3d1edf77	0.03878733
243	0x3d83d532	0.06437148
244	0x3c992f17	0.018699212
245	0xbd3ade16	-0.045621954
246	0xbc0d94a7	-0.0086413985
247	0xbbca49f2	-0.0061733657
248	0xbcbb437c	-0.022859327
249	0x3d5aa1f6	0.053377114
250	0x3c41765a	0.011808002
251	0x3d62ae24	0.055341855
252	0x3cd24855	0.025669256
253	0x3d80741d	0.06272147
254	0xbca33498	-0.01992254
255	0xbd7fafc3	-0.06242348

lstm.bias_ih_l1 f4 [512]
0	0xbd5e0bbb	-0.054210406
1	0x3dd88702	0.10572626
2	0xbcdf7ad7	-0.027280254
3	0x3d450193	0.048097204
4	0x3dadf225	0.08493451
5	0xbd937927	-0.07200842
6	0x3d1077f6	0.035270654
7	0x3cb5486a	0.022129256
8	0xbd26e388	-0.040744334
9	0x3d50e473	0.050999116
10	0xbd84a5c0	-0.06476927
11	0xbd1c71f4	-0.03819461
12	0xbb8e405b	-0.004341168
13	0xbc5a9bc4	-0.0133428015
14	0x3da8c6fc	0.08241078
15	0x3c361bc2	0.011115016
16	0x3bdf024a	0.006805693
17	0xbd5b94e4	-0.05360879
18	0x3dbbc788	0.09168917
19	0x3cb6db80	0.022321463
20	0x3d91bce0	0.07116103
21	0x3c639e3a	0.013892705
22	0x3d660951	0.05616123
23	0x3db315b7	0.08744376
24	0x3d2b8f9f	0.041885015
25	0xbd4ec09b	-0.05047665
26	0x3d70c860	0.058784842
27	0xbd1ae846	-0.03781917
28	0x3c9bef6a	0.01903506
29	0x3bee267d	0.0072677718
30	0x3daf5047	0.085602336
31	0xbd3d8453	-0.046268772
32	0xbcd49c0b	-0.025953313
33	0x3d761774	0.06008096
34	0x3d41bbb1	0.047298137
35	0x3da95c1d	0.08269522
36	0xbd74efca	-0.059798993
37	0x3d59ae62	0.05314482
38	0x3c83df34	0.016097642
39	0x3d6cdb88	0.05782655
40	0x3d576013	0.052581858
41	0x3dad5d1e	0.08465026
42	0x3d8c046f	0.06836783
43	0xbd747c05	-0.059688587
44	0xbd608c37	-0.05482122
45	0xbd148667	-0.03626099
46	0xbcfe824c	-0.03106799
47	0xbd0caadb	-0.034342628
48	0xbc42c24f	-0.011887147
49	0x3dc641d7	0.09680527
50	0x3d9c725b	0.07638999
51	0xbd292844	-0.041298166
52	0xbc670c9c	-0.014102127
53	0xbb58969a	-0.003304875
54	0xbd176e30	-0.036970317
55	0x3d9fc7ad	0.07801757
56	0x3d33484b	0.043770116
57	0x3d8a061c	0.067394465
58	0x3d2a563f	0.041586157
59	0x3d38f3ed	0.0451545
60	0x3a9fcec3	0.0012192357
61	0xbd71ad3f	-0.05900311
62	0xbcc31cd2	-0.023817454
63	0x3d9109e6	0.07081966
64	0x3d0691ef	0.032854017
65	0x3dace872	0.08442773
66	0x3bf195f0	0.0073726103
67	0x3d7061e0	0.05868709
68	0xbd2b1ab8	-0.041773528
69	0x3d813ef5	0.06310836
70	0x3d7f16e2	0.062277682
71	0x3c6d9087	0.01449979
72	0xbcf8ffbb	-0.03039538
73	0xbd299046	-0.041397355
74	0x3ce3771c	0.027766757
75	0xbd7cf8e9	-0.061760817
76	0xbd67e11f	-0.056611177
77	0x3bc909b1	0.0061351885
78	0x3d903685	0.07041649
79	0x3d129672	0.035788007
80	0x3d83366b	0.06406864
81	0x3d34d940	0.0441525
82	0x3dd16bc7	0.10225635
83	0xbd0504b8	-0.032475203
84	0x3d93de8a	0.0722018
85	0x3da182ce	0.07886277
86	0x3d98d889	0.07463176
87	0x3aa09203	0.0012250546
88	0x3cb295fb	0.021800032
89	0x3c5d6def	0.01351498
90	0xbd882daf	-0.066493385
91	0x3dab5bd5	0.08367125
92	0x3d80695b	0.06270095
93	0xbc9fb977	-0.019497616
94	0xbd4e4024	-0.050354138
95	0x3dcd142e	0.100136146
96	0xbd0c1a4e	-0.034204774
97	0x3dbce9d4	0.09224287
98	0x3cc03fd3	0.023467934
99	0xbb1a73fc	-0.0023567667
100	0xbce9384b	-0.028469225
101	0x3d7c2d9e	0.06156694
102	0x3cd35927	0.025799347
103	0x3d5c6ad8	0.05381283
104	0xbd802a5c	-0.062580794
105	0xbc71cce9	-0.014758327
106	0xbd7ae5b1	-0.061254207
107	0x3c7aef09	0.0153157795
108	0xbcd25ef4	-0.025680043
109	0x3c94a300	0.01814413
110	0x3dbbae60	0.09164119
111	0x3d823763	0.063582204
112	0x3d04f0d7	0.032456245
113	0xbd7e8162	-0.062135108
114	0x3dabe817	0.08393877
115	0xbb594e4b	-0.0033158239
116	0x3d9c6735	0.07636873
117	0xbd4ffcb4	-0.050778106
118	0xbd600345	-0.054690618
119	0x3d966add	0.07344601
120	0x3ca77263	0.020440286
121	0xbd5e7943	-0.054314863
122	0x3d1e474f	0.038642224
123	0x3d0c88d4	0.034310177
124	0x3db19ce6	0.08672504
125	0x3dc00287	0.09375482
126	0x3d71a198	0.058992
127	0xbd90c23c	-0.07068297
128	0xbd730116	-0.059327208
129	0x3d7eba32	0.06218929
130	0x3d849bfd	0.06475065
131	0xbd66b464	-0.056324378
132	0xbc3bafa1	-0.011455447
133	0x3c028aa0	0.007967621
134	0xbcae4cd6	-0.021276873
135	0xbd39e644	-0.045385614
136	0x3d612192	0.054963656
137	0xbd16e8ec	-0.036843225
138	0x3d186adc	0.037211284
139	0x3db31e1d	0.08745978
140	0x3dc9ca2c	0.09853014
141	0xbce49b49	-0.027906077
142	0x3dd191bc	0.10232875
143	0x3d68a08d	0.05679374
144	0x3c57dca8	0.013175167
145	0xbd72d527	-0.05928531
146	0xbc798c61	-0.015231223
147	0x3d7c92c4	0.061663404
148	0x3da85285	0.08218864
149	0xbd3ec343	-0.046572935
150	0xbcfce21d	-0.030869538
151	0x3d9ebd0d	0.07750902
152	0x3dd5b6bc	0.104352444
153	0x3d5b50ea	0.053543963
154	0x3db08718	0.08619517
155	0xbc8fbe23	-0.017546719
156	0xbca2e7e2	-0.019885961
157	0x3db1bc9e	0.08678554
158	0x3d52b9d0	0.051446736
159	0x3c7429cb	0.014902542
160	0xbd853f5c	-0.065062255
161	0xbca61f56	-0.020278614
162	0x3aad3594	0.001321482
163	0xb981b95c	-0.000247429
164	0x3a9ded31	0.0012048838
165	0xbd4d75f8	-0.050161332
166	0xbd6c5fae	-0.057708435
167	0x3dc523db	0.096259795
168	0x3cbdd6cb	0.02317371
169	0xbc8fe3bf	-0.017564652
170	0x3d51f29c	0.05125676
171	0xbd5995c6	-0.05312135
172	0xbcafe9a6	-0.021473717
173	0x3c8b0e71	0.01697466
174	0xbcee94ce	-0.02912369
175	0xbd1c58d0	-0.038170636
176	0x3d84266b	0.0645264
177	0x3d461b6f	0.048366006
178	0xb9ad4d58	-0.00033054757
179	0xbc06007b	-0.0081788255
180	0xbd32aa34	-0.04361935
181	0x3db670ae	0.08908211
182	0x3da33fec	0.079711765
183	0x39fdd604	0.00048415374
184	0x3cb5b227	0.022179676
185	0xbce32d5b	-0.027731588
186	0x3d40a263	0.047029864
187	0x3dac0f44	0.08401349
188	0x3d240745	0.040045995
189	0x3d83298a	0.06404407
190	0xbcc80602	-0.024416927
191	0x3da13e8d	0.07873259
192	0xbd2dc2e8	-0.042422205
193	0x3da8be8b	0.08239468
194	0x3d365a9b	0.04452
195	0xbc4d9213	-0.012547034
196	0xbcf827df	-0.03029245
197	0x3b65f1c2	0.0035086726
198	0xbd537a05	-0.05163004
199	0xbc8b7f60	-0.01702851
200	0xbd76f596	-0.060292803
201	0x3d1440a3	0.036194455
202	0xba406926	-0.0007339887
203	0xbc8bc8d3	-0.017063534
204	0x3d76c54c	0.06024675
205	0x3d18d795	0.03731497
206	0x3d10fd53	0.03539784
207	0x3d9bd8f2	0.076097384
208	0xba7c8137	-0.00096322916
209	0xbd38ebb9	-0.045146678
210	0x3d5729ad	0.05252998
211	0x3d704c36	0.05866643
212	0x3d1ed9b3	0.038781833
213	0xbd365aa3	-0.04452003
214	0xbd7a5ce3	-0.06112374
215	0xbd6fa6d8	-0.058508724
216	0xbd07b645	-0.03313281
217	0x3d843f62	0.06457402
218	0x3d56f53b	0.052479964
219	0x3c0b8772	0.008516179
220	0x3cf223ba	0.029558051
221	0x3c803c68	0.015653804
222	0x3cc3b6b0	0.023890823
223	0xbcaf4afd	-0.021398062
224	0xbca895f8	-0.020579323
225	0x3d46e74c	0.048560426
226	0x3d184394	0.037173823
227	0xbcf09fab	-0.02937301
228	0x3d50cfc8	0.050979406
229	0xbcdf897f	-0.027287243
230	0xbc0705d2	-0.008241134
231	0x3dd57026	0.10421781
232	0x3c8e0955	0.017338434
233	0xbd3addf9	-0.045621846
234	0x3bcb96e8	0.006213058
235	0x3db5756b	0.08860286
236	0xbcf6967f	-0.030101059
237	0x3ac7cb69	0.0015243116
238	0xbc9ba7f4	-0.019000985
239	0x3c552f1a	0.013011718
240	0xbcb21f5d	-0.02174347
241	0x3d780661	0.06055296
242	0x3dc27e76	0.09496777
243	0xbcc44e1c	-0.023963027
244	0x3dc976fd	0.09837148
245	0x3dc7e47e	0.09760378
246	0x3d99dd15	0.07512871
247	0x3d1a8f5f	0.037734386
248	0xbd2fa8ba	-0.04288552
249	0x3c24d75a	0.010061109
250	0xbd4ecd4b	-0.05048875
251	0x3db5cceb	0.088769756
252	0x3d9a4015	0.07531754
253	0x3bf3481e	0.0074243685
254	0xbd3e02fb	-0.04638956
255	0xbd07f3e7	-0.033191588
