models/WH004_SKU-007.pth (torch, 830897 bytes, 13 tensors)

lstm.weight_ih_l0 f4 [512, 6]
-0.053218424 0.09516761 0.099464335 -0.027116505 -0.0034872312 0.096939 0.07682825 0.09368295
0.0068880576 0.003648022 -0.046714175 0.106990926 0.05247339 -0.058991723 -0.020759648 0.09269852
-0.020829914 0.04237403 0.11063217 0.112991236 0.06150726 0.07872563 0.032418255 0.032146048
0.032988604 0.07911868 0.006798607 -0.052102778 0.10662518 0.039421 0.022261126 -0.049759768
-0.020909144 0.092241265 0.004976244 0.035846673 0.035455056 0.08457939 0.0031194256 0.061679676
0.07660887 0.08837601 -0.035826202 -0.00076368614 0.082013816 0.026496258 0.05370728 -0.018887574
-0.06607912 0.05173261 -0.0008237577 -0.010755944 0.0054839756 0.014322035 0.00804433 -0.06536521
-0.0041676643 -0.045132704 0.06937242 0.03861151 0.0022786339 0.037164763 -0.04302668 0.04270652
0.080898315 0.058125295 -0.014001789 0.044101596 0.04419164 0.09530791 -0.012038634 0.0074479594
0.051409647 0.07760877 0.07377484 0.09870088 -0.033121098 0.09057577 0.052405354 -0.03607791
-0.0061747367 0.10254812 0.016819514 0.047500446 -0.025601024 0.11282419 -0.005241447 -0.03017159
0.0625594 0.0045628855 0.10792939 0.022503985 -0.04947066 0.024190327 -0.017314555 -0.018837733
0.055697244 0.08194953 0.053290803 -0.028274463 0.06613466 -0.012236763 -0.022558512 -0.021492967
0.012566931 0.06228898 0.09028992 -0.07426915 -0.0016679035 0.0006755546 0.08563513 0.065776326
0.03972027 0.058005895 -0.04948296 -0.04501664 0.09709112 -0.028219927 0.049240675 -0.01186013
-0.03611349 0.08110362 0.01702506 -0.023119792 -0.058632284 0.08735325 0.003927072 -0.04572335
0.05610345 0.010604344 -0.06552244 0.02006729 -0.025856854 0.04406892 0.089556776 -0.04241131
8.614031e-05 -0.058117155 -0.056794666 0.043345947 0.068449594 -0.046515297 0.04227233 0.10708246
0.07086882 0.07279562 0.06546705 0.09123585 0.09204629 -0.026783474 -0.066839576 0.021030474
0.026437456 0.07860092 0.100578025 0.025661228 0.088684775 0.087722614 -0.038615886 -0.05305671
-0.03328008 0.05523332 0.09516061 0.068221875 0.08858562 -0.054355178 0.007529068 0.05438344
0.0011216995 -0.019360526 0.10674699 -0.024838058 -0.058499467 0.027926989 0.04935746 -0.027911043
0.09035103 0.062357806 -0.059757426 0.01691242 0.013298448 0.042392172 0.06541384 0.021277905
0.057883304 -0.043515906 0.012971415 0.071997814 0.10213043 -0.0006491123 0.007159542 -0.04289807
0.084977634 0.049233347 -0.01156453 -0.04858258 0.10827341 0.064052865 0.002827869 0.00063287077
0.00022268196 -0.04012763 -0.02807397 -0.014497473 0.07845332 0.052916106 -0.031349983 0.055511158
0.0072919973 0.06511655 0.046169102 -0.010812951 -0.06304971 -0.013619629 -0.034778208 -0.014764933
-0.06087564 0.0934828 0.037610844 0.017564034 -0.051311124 0.060012177 -0.005534862 0.111591674
0.11130917 0.043099027 0.031699263 -0.017745363 0.108322226 0.06163791 0.1001421 0.008282233
-0.05921141 0.007438358 -0.050272137 0.03830318 0.06359712 0.087456584 -0.016102608 0.057877824
0.09510143 -0.01138461 0.06288565 0.113201275 -0.013447661 0.087240994 0.0669637 0.050631143
-0.030416485 0.08300946 0.017829172 0.022652805 0.08994391 0.07524015 0.027049113 -0.016741866
00000000: 90fb 59bd 3ce7 c23d f5b3 cb3d 6f23 debc
00000010: 088a 64bb f487 c63d 2158 9d3d d9dc bf3d
00000020: 37b5 e13b a713 6f3b 5d57 3fbd 0f1e db3d
00000030: 56ee 563d 4ea1 71bd 2310 aabc b9d8 bd3d
00000040: 7fa3 aabc 6490 2d3d 1f93 e23d f367 e73d
00000050: 09ef 7b3d e73a a13d 01c9 043d 93ab 033d
00000060: 0f1f 073d f908 a23d d9c6 de3b b969 55bd
00000070: 4d5e da3d ea77 213d f75c b63c e6d0 4bbd
00000080: a749 abbc fde8 bc3d c30f a33b f6d3 123d
00000090: 5239 113d f637 ad3d 476f 4c3b d4a3 7c3d
000000a0: 1ce5 9c3d 7bfe b43d 7fbe 12bd 1c32 48ba
000000b0: dcf6 a73d ae0e d93c 2afc 5b3d 1dba 9abc
000000c0: 7d54 87bd 93e5 533d 72f1 57ba b339 30bc
000000d0: ecb2 b33b f8a6 6a3c 5ecc 033c 32de 85bd
000000e0: e790 88bb 12dd 38bd 2113 8e3d 1a27 1e3d
000000f0: 2255 153b 143a 183d be3c 30bd 08ed 2e3d
00000100: 04ae a53d ca14 6e3d c267 65bc e0a3 343d
00000110: 4b02 353d cb30 c33d b13d 45bc 030e f43b
00000120: ec92 523d 59f1 9e3d 4317 973d b023 ca3d
00000130: fda9 07bd ca7f b93d ffa6 563d 6ec6 13bd
00000140: 7255 cabb c004 d23d 14c9 893c d48f 423d
00000150: 3db9 d1bc 5e10 e73d 72c0 abbb 692a f7bc
00000160: 251f 803d 4284 953b 160a dd3d 475a b83c
00000170: bfa1 4abd cb2a c63c 41d7 8dbc 9751 9abc
00000180: cb22 643d 28d5 a73d 7547 5a3d d99f e7bc
00000190: 9c71 873d b47c 48bc a1cc b8bc 0512 b0bc
000001a0: 87e5 4d3c bb22 7f3d ece9 b83d 6d1a 98bd
000001b0: 8e9d daba b417 313a 7961 af3d bdb5 863d
000001c0: b9b1 223d 9797 6d3d a5ae 4abd 5e63 38bd
000001d0: b6d7 c63d 7a2d e7bc 97b0 493d fe50 42bc
000001e0: bdeb 13bd a819 a63d 2378 8b3c b865 bdbc
000001f0: 6828 70bd 43e6 b23d abae 803b 6848 3bbd
00000200: bbcc 653d d8bd 2d3c a130 86bd 2864 a43c
00000210: c1d1 d3bc 9d81 343d 8b69 b73d 7bb7 2dbd
00000220: 3aa6 b438 410c 6ebd 86a1 68bd 858b 313d
00000230: 4d2f 8c3d d386 3ebd c025 2d3d 0c4e db3d
00000240: ac23 913d df15 953d 9713 863d dcd9 ba3d
00000250: c482 bc3d 0469 dbbc 30e3 88bd 1a48 ac3c
00000260: 5d93 d83c 85f9 a03d dafb cd3d 7f37 d23c
00000270: 5da0 b53d eaa7 b33d b12b 1ebd fe51 59bd
00000280: b150 08bd 553c 623d 91e3 c23d e9b7 8b3d
00000290: 616c b53d 89a3 5ebd 66b6 f63b 2cc1 5e3d
000002a0: fd05 933a f799 9ebc 2a9e da3d 2f79 cbbc
000002b0: 239d 6fbd 24c7 e43c 0c2b 4a3d b3a5 e4bc
000002c0: f609 b93d e66a 7f3d 34c4 74bd ea8b 8a3c
000002d0: bce1 593c 6aa3 2d3d b1f7 853d 004f ae3c
000002e0: 0b17 6d3d bc3d 32bd 0f86 543c 9773 933d
000002f0: c229 d13d 3029 2aba 979a ea3b e3b5 2fbd
00000300: c108 ae3d e8a8 493d 2879 3dbc 87fe 46bd
00000310: 73be dd3d 262e 833d c553 393b 3de7 253a
00000320: bc7f 6939 df5c 24bd 62fb e5bc cf86 6dbc
00000330: 22ac a03d 8fbe 583d d768 00bd ab5f 633d
00000340: b5f1 ee3b d35b 853d d01b 3d3d ce28 31bc
00000350: 3520 81bd dd24 5fbc 9873 0ebd 9ee8 71bc
00000360: bc58 79bd e973 bf3d d40d 1a3d 73e2 8f3c
00000370: 9d2b 52bd 54cf 753d ca5d b5bb 2d8a e43d
00000380: 10f6 e33d 9b88 303d 16d7 013d b95e 91bc
00000390: 0bd8 dd3d 0878 7c3d 4d17 cd3d 34b2 073c
000003a0: aa87 72bd 78bd f33b 28ea 4dbd cce3 1c3d
000003b0: 353f 823d 701c b33d 9ee9 83bc 4c11 6d3d
000003c0: 8ac4 c23d 8486 3abc 31ca 803d 12d6 e73d
000003d0: 9453 5cbc 68ab b23d 4424 893d 9a62 4f3d
000003e0: fe2b f9bc dd00 aa3d 7c0e 923c 6092 b93c
000003f0: 8334 b83d 8217 9a3d 1a96 dd3c 3d26 89bc

lstm.weight_hh_l0 f4 [512, 128]
0.06889779 0.10505512 -0.018730592 -0.029258382 0.00785237 -0.06885092 -0.060197573 0.05989987
0.040345814 -0.011745343 -0.07916078 0.11358263 0.10383011 0.08434214 0.025297442 -0.0076372596
-0.047139734 -0.11308644 -0.014415337 0.11136792 0.02062786 -0.07441081 0.053808067 0.03950311
-0.019740457 0.04520469 0.023035703 -0.023133803 -0.0868122 -0.058771547 0.07340341 0.05183661
0.043789875 0.031594362 -0.0035979422 0.016847944 -0.08748307 0.022292726 0.058340643 0.11426675
0.0959581 0.008407051 0.09973607 -0.04150375 0.10536514 0.057938676 -0.05458576 0.015529312
-0.05087102 0.026483579 0.039590962 0.034415428 -0.025518661 0.033379186 -0.036920223 0.089636706
-0.03271815 -0.033836305 0.09142342 0.0983367 0.026419254 0.00966177 -0.023696046 -0.015469037
0.044610597 0.045021445 0.02876188 0.0066104056 -0.039284952 0.0016142464 -0.06644589 0.019901926
0.0031954246 -0.105635434 0.10873841 -0.099186 0.02114483 -0.03230599 0.09937405 -0.02863822
0.042609017 -0.1034208 0.01266314 -0.05151051 0.05176644 0.03590648 -0.0044894596 0.019849963
0.06256661 0.060438637 -0.104131795 0.05414966 0.02910383 0.018201593 -0.004867096 -0.014042255
-0.007364187 0.084001176 0.0011906223 -0.041139323 0.019987827 0.0027987538 0.0770673 0.048447315
-0.0245472 0.03632464 -0.040998016 -0.05339372 -0.059752308 0.06281043 0.038346406 0.09546216
0.018227583 0.052015692 0.026854714 0.024830006 -0.0020340574 0.019926948 -0.081466354 -0.026601005
-0.056632556 -0.005860719 0.032030027 -0.024729282 -0.029416732 -0.041970167 0.041583393 -0.035051648
0.05742133 0.113578744 -0.019877788 0.1027395 0.01950581 -0.07677156 0.04918502 0.0008404766
0.02612045 0.03382937 -0.016382739 -0.060026273 0.11147794 -0.034241494 0.098009 -0.015079042
0.048005987 -0.08508759 0.019595798 0.06371634 0.030529844 -0.058547594 -0.061676517 -0.005223315
-0.008910911 -0.11118358 0.011397817 -0.035838004 -0.017740626 -0.05433072 0.025200326 0.0074957493
-0.08059057 0.07865111 0.108473375 -0.05446716 -0.0027279004 0.021735612 0.011401221 -0.032897983
0.09381458 0.023179332 -0.013980114 0.09317765 -0.046210613 -0.10380564 -0.030586595 0.023892958
-0.052907802 0.05613838 -0.08103621 -0.090270385 0.061283767 -0.05624348 -0.036311775 0.10303367
0.03046074 0.012185218 0.016250063 0.07259308 0.059302956 -0.06797025 0.050293725 0.06188873
-0.04299871 0.028899707 -0.08941682 -0.072289065 0.038825955 0.10768495 -0.038851406 -0.052051097
-0.026166948 -0.07174005 -0.03853654 0.013734593 0.10327386 0.0015785007 0.026322536 -0.113619186
0.072591476 -0.08650787 -0.0732978 -0.086760536 0.03966093 -0.037202388 0.014408056 -0.053671304
0.10844396 0.047359694 0.05562322 -0.08726237 -0.051584944 -0.052560322 -0.11097604 -0.077767774
-0.05326267 -0.024839852 0.052032646 0.0005996566 0.02438136 -0.05951883 0.06735656 0.01367762
-0.08714275 -0.063173324 0.05363627 0.048649997 0.013930112 0.06693881 0.0514158 0.053590987
-0.074500374 0.006461427 0.007125631 -0.01004643 -0.07212422 -0.08786616 0.025266405 -0.09809734
-0.058932092 -0.012411814 0.04060214 -0.03207387 -0.09370938 -0.09510155 -0.08364056 -0.019351788
00000000: 491a 8d3d 2427 d73d e670 99bc 46af efbc
00000010: 3aa7 003c b601 8dbd bb91 76bd 9159 753d
00000020: a741 253d 8a6f 40bc 0c1f a2bd 039e e83d
00000030: e1a4 d43d 92bb ac3d 953c cf3c fa41 fabb
00000040: 9815 41bd dd99 e7bd 4e2e 6cbc dd14 e43d
00000050: c2fb a83c b264 98bd d965 5c3d 03ce 213d
00000060: bdb6 a1bc 8e28 393d 5fb5 bc3c 1a83 bdbc
00000070: 98ca b1bd 6fba 70bd 8754 963d a052 543d
00000080: 035d 333d 1769 013d 74cb 6bbb b304 8a3c
00000090: 532a b3bd 3c9f b63c 99f6 6e3d b004 ea3d
000000a0: ae85 c43d babd 093c 6d42 cc3d d6ff 29bd
000000b0: aec9 d73d 1b51 6d3d 5195 5fbd a86e 7e3c
000000c0: 215e 50bd 17f4 d83c 222a 223d 31f7 0c3d
000000d0: 830c d1bc 9db8 083d a939 17bd 7393 b73d
000000e0: 7803 06bd f097 0abd 343c bb3d c064 c93d
000000f0: 316d d83c 674c 1e3c 361e c2bc d871 7dbc
00000100: 9ab9 363d 6868 383d 099e eb3c 1a9c d83b
00000110: 42e9 20bd 1f95 d33a c814 88bd 5d09 a33c
00000120: 546a 513b 6457 d8bd 3eb2 de3d 0822 cbbd
00000130: ec37 ad3c 4953 04bd 9f84 cb3d b39a eabc
00000140: cb86 2e3d 49ce d3bd 0f79 4f3c affc 52bd
00000150: 0c09 543d ac12 133d 511c 93bb 649c a23c
00000160: ec22 803d 818e 773d 0d43 d5bd 09cc 5d3d
00000170: 286b ee3c 821b 953c 297c 9fbb 7c11 66bc
00000180: 474f f1bb cf08 ac3d a80e 9c3a b581 28bd
00000190: 83bd a33c 4c6b 373b 76d5 9d3d b170 463d
000001a0: 3617 c9bc 25c9 143d 89ed 27bd 60b3 5abd
000001b0: d6be 74bd c1a2 803d 1f11 1d3d aa81 c33d
000001c0: 0352 953c 680e 553d 6bfe db3c 4c68 cb3c
000001d0: d24d 05bb d73d a33c d5d7 a6bd 5aea d9bc
000001e0: 8af7 67bd 460b c0bb eb31 033d 1095 cabc
000001f0: 5cfb f0bc e9e8 2bbd 5953 2a3d 5192 0fbd
00000200: a132 6b3d f99b e83d bed6 a2bc 1669 d23d
00000210: a6ca 9f3c 683a 9dbd 3b76 493d 6e53 5c3a
00000220: 8efa d53c aa90 0a3d 1835 86bc 1cde 75bd
00000230: 8c4e e43d cf40 0cbd f1b8 c83d 160e 77bc
00000240: eda1 443d 6742 aebd 5e87 a03c b67d 823d
00000250: b919 fa3c 9acf 6fbd 84a0 7cbd 5828 abbb
00000260: 12ff 11bc 37b4 e3bd e9bd 3a3c dfca 12bd
00000270: ca54 91bc e489 5ebd ea70 ce3c e79e f53b
00000280: ab0c a5bd d513 a13d 4a27 de3d f518 5fbd
00000290: 93c6 32bb e20e b23c 30cc 3a3c 09c0 06bd
000002a0: dc21 c03d 95e2 bd3c d90c 65bc ecd3 be3d
000002b0: 5747 3dbd 0d98 d4bd bd90 fabc 2abb c33c
000002c0: dab5 58bd 5cf1 653d 50f6 a5bd aedf b8bd
000002d0: b004 7b3d 905f 66bd a8bb 14bd 5103 d33d
000002e0: cd88 f93c 82a4 473c da1e 853c aeab 943d
000002f0: a8e7 723d fd33 8bbd cb00 4e3d 097f 7d3d
00000300: 6a1f 30bd 14bf ec3c 2a20 b7bd 4a0c 94bd
00000310: f707 1f3d ed89 dc3d a722 1fbd 8833 55bd
00000320: 115c d6bc 73ec 92bd 7ed8 1dbd 0f07 613c
00000330: 3f81 d33d b2e5 ce3a 5ca2 d73c 2db1 e8bd
00000340: d7aa 943d 0a2b b1bd 281d 96bd 82af b1bd
00000350: 8073 223d 8861 18bd c40f 6c3c 71d6 5bbd
00000360: de17 de3d 3dfc 413d 2cd5 633d 9db6 b2bd
00000370: bc4a 53bd 7e49 57bd 6847 e3bd b644 9fbd
00000380: f529 5abd f27c cbbc 2f20 553d 4632 1d3a
00000390: 6bbb c73c 04ca 73bd 3cf2 893d 1918 603c
000003a0: e677 b2bd 0461 81bd b5b1 5b3d 3845 473d
000003b0: 203b 643c 3717 893d 6099 523d 3982 5b3d
000003c0: a793 98bd 61ba d33b 207e e93b c899 24bc
000003d0: ddb5 93bd 2cf3 b3bd 7efb ce3c 42e7 c8bd
000003e0: c762 71bd ec5a 4bbc 6e4e 263d e45f 03bd
000003f0: b4ea bfbd 9ac4 c2bd be4b abbd a487 9ebc

lstm.bias_ih_l0 f4 [512]
-0.026241343 0.029758781 -0.041158415 0.009323773 -0.04248828 -0.054616153 0.033111423 0.025373343
-0.011888225 0.10821921 0.07051143 0.011087409 -0.05715524 -0.05030032 -0.020128213 0.029109783
-0.06918635 -0.062011264 -0.017735738 0.04353199 0.002466372 0.0538586 -0.04371523 0.021806967
0.033493064 0.010216555 -0.004433959 0.07598261 0.043626543 -0.040589713 0.008484657 -0.032055195
-0.008928311 0.081128776 0.065819174 0.09079668 -0.012712287 -0.012890537 -0.058543213 -0.026283942
-0.029757613 0.07369053 -0.054211468 -0.07214398 -0.018113269 0.00933916 -0.051176835 0.0017344945
0.07599213 0.03375202 0.08163585 -0.02539195 0.012173148 0.080179095 0.03387663 0.093284674
0.016466534 0.04051048 0.07680184 0.09236727 0.06450364 0.0868912 -0.021936545 0.056658812
-0.027250933 0.10034127 -0.017154384 0.10005758 0.08157926 0.01592252 -0.040433478 -0.056856524
-0.04800722 0.020012723 -0.0051483833 -0.057246648 -0.04942473 0.023267463 0.08752557 0.06318145
0.022116007 0.081314296 -0.005538497 -0.053588297 -0.020366468 0.07716333 -0.04076621 -0.046944205
0.047997214 0.07277928 0.045904927 -0.02904626 -0.056890983 0.0734579 0.06878662 -0.009619695
-0.05651606 0.048617534 0.045650028 0.03583943 -0.028855966 0.050772503 -0.015274434 0.0122034345
-0.0024027752 -0.067260206 0.061685484 0.09017834 -0.00027089275 0.07155665 0.04740383 -0.05668356
-0.028339293 0.0016121404 -0.040563203 0.0117249945 0.10836067 0.08811184 0.027389323 0.017359795
0.07184971 0.11321222 -0.05098739 -0.04377939 -0.041309185 0.08453663 0.04202404 0.008722342
0.038084302 -0.022114623 -0.04563236 0.09628996 -0.057916626 -0.021019801 0.025517842 0.036191616
-0.03430561 -0.01030947 -0.03878237 0.10391435 0.024002701 0.024660977 0.018618934 -0.03154153
-0.038933303 0.05244878 0.027989337 0.010949123 0.07703737 -0.014938147 0.024234513 0.046846393
0.08134285 0.021681655 0.090152554 0.08345279 -0.03969807 0.039736737 0.07491926 0.08464154
-0.018413402 0.09389519 0.07525214 0.052279815 0.0155832395 0.07896174 -0.024679596 0.087547064
-0.025646402 0.05767695 0.07225205 -0.035539232 0.050707284 0.06811236 0.029925684 0.025624067
-0.013690866 0.028898198 0.009526274 0.04090882 0.055016834 -0.025769759 -0.004325356 -0.03776467
0.005575462 0.02274427 0.018279457 -0.023736991 0.10984217 -0.041824155 -0.020646749 0.052220296
0.00038596411 0.034665663 0.07107652 0.107179776 -0.049243387 -0.017523244 0.016815942 0.09034955
0.027307998 -0.04281017 0.10106229 0.057638437 -0.0440152 -0.0010098835 0.046520453 0.07936519
-0.06005686 0.063862965 0.02034656 -0.0599498 -0.0542611 -0.018038142 0.072397016 -0.013290677
0.07226458 -0.017549219 0.008289053 -0.0055834767 0.0017337047 0.025609411 0.05563348 -0.0010262788
0.090638675 -0.026859362 0.066626616 -0.015911262 -0.026238533 -0.042089865 -0.04544559 -0.053670675
0.020508435 -0.028301265 0.04334302 0.024585916 -0.04282625 -0.06601509 0.0120830415 0.03542258
-0.06841653 -0.036565695 0.016956992 0.059349906 -0.052093603 -0.05303018 -0.05314689 -0.015836302
0.05396819 0.09189798 0.005639708 -0.032331906 0.053091835 0.08085359 -0.063728765 0.060702927
00000000: 16f8 d6bc b0c8 f33c ba95 28bd bdc2 183c
00000010: 3108 2ebd 30b5 5fbd d89f 073d c2db cf3c
00000020: d4c6 42bc 08a2 dd3d 4c68 903d f7a7 353c
00000030: 9d1b 6abd b507 4ebd ece3 a4bc a477 ee3c
00000040: 93b1 8dbd 86ff 7dbd 8a4a 91bc 9a4e 323d
00000050: dba2 213b d69a 5c3d be0e 33bd 86a4 b23c
00000060: 0630 093d 5663 273c be4a 91bb c59c 9b3d
00000070: bfb1 323d 6641 26bd 3b03 0b3c 4f4c 03bd
00000080: 0d48 12bc d826 a63d 34cc 863d 9cf3 b93d
00000090: 3247 50bc d532 53bc 02cb 6fbd 6c51 d7bc
000000a0: 3dc6 f3bc 10eb 963d d80c 5ebd 39c0 93bd
000000b0: 4762 94bc 4703 193c cd9e 51bd fa57 e33a
000000c0: c3a1 9b3d 8f3f 0a3d b230 a73d c702 d0bc
000000d0: e271 473c f034 a43d 39c2 0a3d 090c bf3d
000000e0: d3e4 863c 51ee 253d 484a 9d3d 0d2b bd3d
000000f0: 7c1a 843d 03f4 b13d 45b4 b3bc 1213 683d
00000100: 593d dfbc b97f cd3d 5a87 8cbc fdea cc3d
00000110: 0713 a73d f26f 823c 939d 25bd 63e2 68bd
00000120: 38a3 44bd b9f1 a33c c5b3 a8bb 767b 6abd
00000130: 9671 4abd 689b be3c 9b40 b33d 4765 813d
00000140: a12c b53c 1c88 a63d 487c b5bb 677f 5bbd
00000150: 94d7 a6bc cf07 9e3d 78fa 26bd 9148 40bd
00000160: ba98 443d 4e0d 953d ce06 3c3d 6cf2 edbc
00000170: 8506 69bd 1871 963d 00e0 8c3d ed9b 1dbc
00000180: 627d 67bd 2e23 473d 86fb 3a3d 5ecc 123d
00000190: 5963 ecbc d4f6 4f3d 9f41 7abc eaf0 473c
000001a0: e177 1dbb b8bf 89bd eba9 7c3d 6caf b83d
000001b0: 9c06 8eb9 4b8c 923d 852a 423d 052d 68bd
000001c0: ce27 e8bc 754e d33a 9a25 26bd 311a 403c
000001d0: 33ec dd3d fb73 b43d 935f e03c 2136 8e3c
000001e0: f125 933d cfdb e73d 27d8 50bd 0552 33bd
000001f0: d233 29bd 8a21 ad3d 6621 2c3d 27e8 0e3c
00000200: 49fe 1b3d ba29 b5bc ffe8 3abd ac33 c53d
00000210: fc39 6dbd b831 acbc cb0a d13c a93d 143d
00000220: 0a84 0cbd 0de9 28bc 43da 1ebd 0cd1 d43d
00000230: 50a1 c43c d105 ca3c bc86 983c b131 01bd
00000240: 8778 1fbd 88d4 563d e549 e53c f363 333c
00000250: c5c5 9d3d 21bf 74bc 7587 c63c 01e2 3f3d
00000260: 1597 a63d ba9d b13c e7a1 b83d 4ce9 aa3d
00000270: 729a 22bd fdc2 223d 456f 993d 8b58 ad3d
00000280: b4d7 96bc 1f4c c03d cb1d 9a3d 5c23 563d
00000290: d850 7f3c b1b6 a13d dd2c cabc e04b b33d
000002a0: 6718 d2bc aa3e 6c3d e2f8 933d 9691 11bd
000002b0: 71b2 4f3d 7e7e 8b3d b526 f53c 90e9 d13c
000002c0: a74f 60bc eabb ec3c 1714 1c3c 0290 273d
000002d0: 5559 613d 1a1b d3bc b7bb 8dbb 20af 1abd
000002e0: 5db2 b63b 3152 ba3c cdbe 953c 1474 c2bc
000002f0: eef4 e03d ce4f 2bbd 5f23 a9bc f3e4 553d
00000300: 3a5b ca39 95fd 0d3d 9190 913d 1281 db3d
00000310: 6fb3 49bd e88c 8fbc 96c1 893c 2f09 b93d
00000320: 06b5 df3c b859 2fbd bff9 ce3d 4816 6c3d
00000330: 4849 34bd 115e 84ba 3b8c 3e3d 378a a23d
00000340: 2ffe 75bd 96ca 823d d4ad a63c ec8d 75bd
00000350: e340 5ebd bac4 93bc e344 943d 24c1 59bc
00000360: 74ff 933d 61c3 8fbc cfce 073c 99f5 b6bb
00000370: 7a3d e33a d4ca d13c efdf 633d 3484 86ba
00000380: c5a0 b93d 2a08 dcbc 8973 883d 5658 82bc
00000390: 31f2 d6bc 6c66 2cbd 2825 3abd c8d5 5bbd
000003a0: 4e01 a83c 0ed8 e7bc 7388 313d 6768 c93c
000003b0: 946a 2fbd eb32 87bd f3f7 453c 4417 113d
000003c0: f71d 8cbd e9c5 15bd 64e9 8a3c e318 733d
000003d0: 1a60 55bd 2d36 59bd 8eb0 59bd 22bb 81bc
000003e0: c00d 5d3d 0235 bc3d 4dcd b83b 766e 04bd
000003f0: d376 593d 9196 a53d 3a84 82bd a2a3 783d

lstm.bias_hh_l0 f4 [512]
-0.05863158 0.07567501 0.0032157812 0.001195412 -0.05139323 -0.007894631 -0.02228965 -0.0180188
0.07311953 -0.06169444 0.004693703 -0.03299636 -0.034735356 0.09945547 0.09507372 0.069294095
0.06040479 -0.047915947 -0.009116876 -0.044424146 -0.0040194257 0.07804568 -0.05654107 -0.007690577
0.029616166 0.08368627 0.033075575 0.08649764 0.09424388 0.08267462 0.081218556 0.063547194
0.101021886 0.08346568 0.02452354 -0.0004898976 0.04997762 0.04554533 0.04349237 -0.05543759
0.044074517 -0.004829621 0.079951435 0.021143287 0.05644181 0.052630626 0.059837583 -0.018119445
-0.049642377 0.07797799 -0.026334278 -0.04308887 -0.04835557 -0.01616144 -0.03904853 0.028457982
0.030240718 0.09585612 0.0097662695 0.041713014 0.062495533 0.071895264 -0.056680493 -0.054484136
0.07272972 0.048350055 0.08923712 0.10757265 -0.010721805 0.051531773 0.045334186 0.03183983
-0.064450234 0.004988438 0.06456902 -0.050382104 -0.044523887 0.05398294 0.024620688 0.029584445
0.06286237 0.07491949 0.031145452 0.052634183 0.056428853 0.010259804 0.021666206 0.022662444
-0.044211514 0.10130863 0.008531936 0.04622824 0.015359488 0.05048736 0.03535626 0.026951917
0.08274219 0.03465741 0.10422365 0.002605229 0.046068683 0.028932797 0.000681517 -0.04665983
-0.054082192 0.0023104853 -0.035955247 -0.022478232 0.027027074 0.04354913 0.013911286 0.04456069
0.07959265 -0.048284885 0.101746835 -0.010718206 0.050736863 -0.04953447 -0.008530478 0.0943361
-0.0085146325 0.0022944484 0.042765826 -0.057243597 -0.012186568 -0.006782052 0.002657646 0.09655669
0.024209917 0.0032770713 0.09871755 0.062143948 0.09782062 0.08601692 0.07608712 0.03405921
0.017034207 -0.0024784305 0.042749073 0.07605199 0.07556779 0.047524814 -0.056605954 0.01723903
0.019451102 0.10262964 0.0651995 0.08470162 0.0801925 0.07428899 0.0274013 0.057933494
0.024567721 0.089845225 0.07492426 0.06105379 0.051095717 -0.051345054 -0.048127405 0.046656758
0.07312347 0.037227344 0.06993785 -0.026654173 0.094551 0.09926561 0.07115583 -0.040932067
-0.019161211 0.054272994 -0.011539715 0.04825525 -0.0023825923 0.0009955514 -0.044212807 0.04348575
0.032543655 0.0019197913 -0.049775682 -0.05888705 0.06256967 -0.034720033 -0.054985248 -0.04822713
0.004384098 0.07347038 0.011864479 0.0333147 0.041890766 0.0050080237 -0.011870972 0.03753269
-0.0071747396 0.0037392029 0.007819094 0.09960756 0.055012923 -0.017518658 0.083568014 0.002241352
-0.06882637 -0.013086988 0.09512361 -0.034860134 0.053367145 0.07429225 -0.05280324 -0.030140406
0.03485253 0.061089464 -0.058426436 0.04189755 0.01174346 -0.015926473 -0.03551174 0.055563968
0.09355908 0.044220917 -0.04059888 0.0721886 0.0039145728 0.042555787 0.110968865 0.08400307
0.0034130842 0.06599394 0.020763261 -0.010756748 0.09149833 0.0825451 -0.051565945 0.06634151
0.113860175 -0.015755123 -0.05864871 0.05197073 -0.01803291 0.053119916 0.011653806 0.11189381
-0.041536227 -0.05569188 0.0010916212 0.10378851 -0.051116057 0.0604158 -0.01285729 0.0650587
-0.051718727 0.088703364 -0.0037128874 0.085206464 -0.018563246 -0.002655653 0.034581717 0.034981303
00000000: ab27 70bd 80fb 9a3d dbbf 523b 5faf 9c3a
00000010: b581 52bd 7b58 01bc c998 b6bc 2a9c 93bc
00000020: b1bf 953d 4fb3 7cbd a2cd 993b 3127 07bd
00000030: a946 0ebd 4faf cb3d 03b6 c23d 10ea 8d3d
00000040: 036b 773d 8343 44bd f35e 15bc 18f6 35bd
00000050: 63b5 83bb 6ad6 9f3d 9c97 67bd 3c01 fcbb
00000060: 9a9d f23c b563 ab3d 417a 073d ad25 b13d
00000070: ef02 c13d 5051 a93d ea55 a63d 0825 823d
00000080: 90e4 ce3d 0ef0 aa3d 97e5 c83c 796c 00ba
00000090: 55b5 4c3d bd8d 3a3d 0e25 323d 8712 63bd
000000a0: 7b87 343d cc41 9ebb 94bd a33d b034 ad3c
000000b0: 872f 673d 3693 573d 4118 753d 3b6f 94bc
000000c0: ce55 4bbd edb2 9f3d fcba d7bc f47d 30bd
000000d0: 7d10 46bd ff64 84bc 5af1 1fbd b720 e93c
000000e0: 62bb f73c 3750 c43d b402 203c 44db 2a3d
000000f0: 51fb 7f3d d33d 933d ce29 68bd c22a 5fbd
00000100: 52f3 943d b50a 463d f3c1 b63d 0d4f dc3d
00000110: 82aa 2fbc fb12 533d 57b0 393d 7b6a 023d
00000120: 7cfe 83bd 0d76 a33b c33c 843d 775d 4ebd
00000130: ae5e 36bd 371d 5d3d 53b1 c93c 145b f23c
00000140: fcbd 803d 646f 993d bf24 ff3c f196 573d
00000150: f121 673d bd18 283c 547d b13c 97a6 b93c
00000160: 2217 35bd e67a cf3d 89c9 0b3c d359 3d3d
00000170: 5da6 7b3c d6cb 4e3d bad1 103d 44ca dc3c
00000180: bd74 a93d eef4 0d3d 3673 d53d 7dbc 2a3b
00000190: 84b2 3c3d 7904 ed3c d5a7 323a 611e 3fbd
000001a0: 4a85 5dbd 836b 173b cf45 13bd 4524 b8bc
000001b0: e267 dd3c 9360 323d 2aec 633c 4585 363d
000001c0: 7901 a33d 5fc6 45bd a560 d03d 6a9b 2fbc
000001d0: 75d1 4f3d a8e4 4abd 6bc3 0bbc 4933 c13d
000001e0: f580 0bbc 755e 163b 382b 2f3d 4378 6abd
000001f0: 2caa 47bc fa3b debb e72b 2e3b 84bf c53d
00000200: e053 c63c 22c4 563b 6d2c ca3d a78a 7e3d
00000210: 2d56 c83d a429 b03d 90d3 9b3d ac81 0b3d
00000220: 528b 8b3c 2a6d 22bb a719 2f3d 25c1 9b3d
00000230: 49c3 9a3d 61a9 423d a5db 67bd de38 8d3c
00000240: eb57 9f3c 7d2f d23d 5187 853d 0b78 ad3d
00000250: f73b a43d d324 983d b178 e03c ac4b 6d3d
00000260: 3f42 c93c c600 b83d e471 993d 8a13 7a3d
00000270: be49 513d 314f 52bd 3e21 45bd 281b 3f3d
00000280: c2c1 953d b37b 183d 933b 8f3d da59 dabc
00000290: f4a3 c13d c54b cb3d 26ba 913d 62a8 27bd
000002a0: f9f7 9cbc 5c4d 5e3d 1311 3dbc 4ca7 453d
000002b0: 4425 1cbb 297d 823a 7d18 35bd 1d1e 323d
000002c0: 7f4c 053d 82a1 fb3a 96e1 4bbd 8c33 71bd
000002d0: 8724 803d 9836 0ebd 3638 61bd d089 45bd
000002e0: 7ba8 8f3b a377 963d 3b63 423c ff74 083d
000002f0: a795 2b3d 591a a43b 777e 42bc e1bb 193d
00000300: 141a ebbb 6a0d 753b a81b 003c 0cff cb3d
00000310: 3b55 613d 4a83 8fbc b525 ab3d a6e3 123b
00000320: d7f4 8cbd ce6a 56bc 2bd0 c23d 80c9 0ebd
00000330: 8297 5a3d 8926 983d 3648 58bd 03e9 f6bc
00000340: 87c1 0e3d f238 7a3d 8f50 6fbd c49c 2b3d
00000350: a467 403c 3c78 82bc c274 11bd 0b97 633d
00000360: e79b bf3d fe20 353d 034b 26bd 9ed7 933d
00000370: d145 803b fa4e 2e3d a543 e33d cd09 ac3d
00000380: 0dae 5f3b d527 873d b717 aa3c 123d 30bc
00000390: 7a63 bb3d 680d a93d d036 53bd 0fde 873d
000003a0: 862f e93d e310 81bc a139 70bd 43df 543d
000003b0: c1b9 93bc 4594 593d 9bef 3e3c 9528 e53d
000003c0: e421 2abd 2b1d 64bd bb14 8f3a 128f d43d
000003d0: 125f 51bd 8f76 773d 62a7 52bc 7f3d 853d
000003e0: 04d7 53bd 1caa b53d ea53 73bb ba80 ae3d
000003f0: f311 98bc 770a 2ebb 8fa5 0d3d 8e48 0f3d

lstm.weight_ih_l1 f4 [512, 128]
-0.037526034 -0.058417037 -0.021487912 0.07544997 -0.072321504 0.039360553 0.09663896 0.07537922
0.03458342 0.04226658 -0.049708243 0.030721942 0.05811238 0.054126382 0.1109106 0.04516003
-0.04428369 0.030138766 0.042003598 0.0018775066 0.033841345 -0.05987548 -0.02568305 0.018569142
-0.1046709 0.03202384 0.012595183 0.019877037 -0.025656361 -0.05883226 -0.019166525 0.028316766
0.036761027 0.092699744 0.096896514 0.024719302 -0.039787747 0.000844481 0.050130762 0.103612356
-0.06315132 0.09486988 0.028207777 0.107276775 -0.022466347 0.010960295 0.044069372 -0.055791922
0.055850327 -0.015982373 -0.00027057467 -0.02337721 -0.083003476 0.042458832 -0.038987055 0.0675088
-0.03006804 0.09840982 0.108584866 0.07755886 0.042292785 0.041460264 0.06761719 -0.06841964
0.057077754 -0.008321873 0.03892895 -0.05031745 0.07630731 0.07820882 -0.10473032 -0.06668732
0.00014525301 -0.084911585 -0.013050675 0.0044389777 0.107282706 -0.04078605 0.06158985 -0.09249486
-0.049029216 -0.102533385 -0.014806461 -0.051617406 -0.10242009 -0.017716665 0.0060968176 0.034812957
0.061015915 0.10416028 -0.007825476 -0.014191261 0.023749623 -0.037073996 -0.00446842 -0.06511444
0.035417695 0.067509666 -0.021554925 0.014492739 -0.103752136 0.06998355 0.05971225 0.03779473
0.052123 -0.014552084 -0.012311161 0.008717094 0.0317352 -0.00061961345 0.06835247 0.059489693
-0.06657054 -0.012034968 -0.05632196 0.040989727 0.046794135 -0.091459386 0.01539919 0.04477029
-0.033253394 -0.022374209 -0.015387494 0.0024527642 0.014160227 -0.098283544 0.005728049 0.040358096
0.036726333 -0.033184413 0.05614053 0.04707831 -0.06735352 -0.08220123 0.077473834 -0.034611803
0.06368418 -0.10428929 -0.07648659 0.110078715 0.05305307 0.00460164 -0.008003504 -0.054792415
-0.030555284 -0.07327476 0.05693422 0.08244397 -0.052982982 -0.059187595 -0.11051735 0.047723062
-0.07391632 -0.022824412 -0.018091192 0.056283563 0.060854536 -0.06095468 0.021631585 -0.0016851083
0.039726477 0.10179745 0.06872976 -0.0014698874 0.06502938 -0.057904307 -0.019301469 -0.035021283
-0.034446165 0.110660225 0.10611799 0.018769711 -0.050273757 -0.035123497 -0.07577362 0.049005687
-0.026777592 0.04092815 0.050728712 -0.025298353 -0.04603168 0.060137708 -0.031237867 0.09902802
0.07320714 0.032085046 0.06044774 -0.03007026 -0.032732375 -0.058278274 0.086437926 0.055582132
0.009199881 -0.1034544 -0.02096993 0.026666883 0.072859205 -0.0578216 -0.069150545 -0.023942893
0.06620855 -0.032603506 0.1039776 -0.019200856 0.086618334 -0.038486116 0.11065814 -0.03307875
0.008427003 -0.10195377 -0.08456389 -0.07305146 -0.028925346 0.036297377 -0.022775777 0.011150546
0.006159612 -0.0450171 0.002001085 0.05081887 -0.100062266 0.0034644243 -0.06852389 0.029111627
-0.05418887 -0.0026474202 -0.07853839 -0.010557696 0.00763949 0.070473164 -0.0033384466 -0.012086468
-0.056244254 0.09322874 -0.057010036 -0.06715392 -0.023956308 -0.014938786 0.030666588 0.0235576
-0.11252208 0.049503557 -0.026286881 0.038980935 -0.04322922 -0.039378967 -0.05501387 0.01094438
-0.036122937 0.016732518 0.01682897 -0.11024523 -0.022747738 -0.0046910252 0.055964425 -0.053744506
00000000: e6b4 19bd b446 6fbd 6b07 b0bc 8485 9a3d
00000010: 4c1d 94bd 8838 213d a6ea c53d 6c60 9a3d
00000020: 58a7 0d3d b91f 2d3d df9a 4bbd 95ac fb3c
00000030: 3f07 6e3d a0b3 5d3d 1925 e33d b9f9 383d
00000040: d162 35bd 93e5 f63c f70b 2c3d ab16 f63a
00000050: 399d 0a3d fe3f 75bd 4265 d2bc 501e 983c
00000060: b25d d6bd 6e2b 033d 075c 4e3c 2bd5 a23c
00000070: 4a2d d2bc 19fa 70bd 1e03 9dbc 90f8 e73c
00000080: bb92 163d 5dd9 bd3d ae71 c63d 2280 ca3c
00000090: 7af8 22bd 2960 5d3a ea55 4d3d b732 d43d
000000a0: 7b55 81bd 244b c23d ff13 e73c edb3 db3d
000000b0: 580b b8bc cf92 333c 1682 343d 1286 64bd
000000c0: 50c3 643d 77ed 82bc ebdb 8db9 9081 bfbc
000000d0: bafd a9bd 50e9 2d3d e4b0 1fbd 0e42 8a3d
000000e0: 4051 f6bc 168b c93d be61 de3d 2ed7 9e3d
000000f0: 333b 2d3d 3dd2 293d e27a 8a3d 991f 8cbd
00000100: 5dca 693d 7758 08bc f673 1f3d ac19 4ebd
00000110: 0247 9c3d f22b a03d da7c d6bd 5d93 88bd
00000120: 0f4f 1839 20e6 adbd 80d2 55bc d874 913b
00000130: 09b7 db3d 460f 27bd a345 7c3d f26d bdbd
00000140: dcd2 48bd 06fd d1bd cc96 72bc c66c 53bd
00000150: a0c1 d1bd 8a22 91bc d0c7 c73b 0898 0e3d
00000160: d3eb 793d fc51 d53d 6d36 00bc 7682 68bc
00000170: 928e c23c e7da 17bd d36b 92bb b85a 85bd
00000180: 2512 113d 8242 8a3d f493 b0bc f472 6d3c
00000190: 007c d4bd 8953 8f3d d594 743d a6ce 1a3d
000001a0: ed7e 553d dd6b 6ebc c0b4 49bc 24d2 0e3c
000001b0: c5fc 013d 8e6d 22ba 61fc 8b3d 77ab 733d
000001c0: 2356 88bd 502e 45bc dbb1 66bd d8e4 273d
000001d0: 35ab 3f3d 0f4f bbbd e24c 7c3c 0d61 373d
000001e0: b634 08bd 1e4a b7bc d41b 7cbc 8ebe 203b
000001f0: 4c00 683c e248 c9bd 5cb2 bb3b 884e 253d
00000200: 5a6e 163d 61ec 07bd 9df3 653d 30d5 403d
00000210: a4f0 89bd 1e59 a8bd 9aaa 9e3d 1bc5 0dbd
00000220: da6c 823d a095 d5bd 00a5 9cbd f370 e13d
00000230: 2d4e 593d 5bc9 963b 2121 03bc 036e 60bd
00000240: 134f fabc 1411 96bd db33 693d 62d8 a83d
00000250: af04 59bd b16e 72bd ec56 e2bd 4279 433d
00000260: 7161 97bd 43fa babc fb33 94bc 9889 663d
00000270: 9b42 793d 9dab 79bd b934 b13c dade dcba
00000280: 3bb8 223d 2e7b d03d 30c2 8c3d 3da9 c0ba
00000290: 202e 853d 112d 6dbd 1d1e 9ebc 7a72 0fbd
000002a0: 6c17 0dbd d4a1 e23d 6454 d93d f0c2 993c
000002b0: dbeb 4dbd a8dd 0fbd 332f 9bbd 30ba 483d
000002c0: ae5c dbbc 47a4 273d e9c8 4f3d 7e3e cfbc
000002d0: b78b 3cbd f552 763d 8ee6 ffbc 34cf ca3d
000002e0: a0ed 953d 9c6b 033d 0d98 773d e855 f6bc
000002f0: 6212 06bd 33b5 6ebd 5e06 b13d 17aa 633d
00000300: 19bb 163c e7df d3bd 21c9 abbc 8274 da3c
00000310: 3537 953d 58d6 6cbd cd9e 8dbd e323 c4bc
00000320: 5998 873d 418b 05bd 35f2 d43d 1d4b 9dbc
00000330: f464 b13d 9ea3 1dbd bca0 e23d 957d 07bd
00000340: 6a11 0a3c 23cd d0bd d52f adbd 019c 95bd
00000350: d9f4 ecbc 8fac 143d 4494 babc c8b0 363c
00000360: 92d6 c93b da63 38bd a324 033b 7327 503d
00000370: 72ed ccbd 650b 633b 4156 8cbd 827b ee3c
00000380: 26f5 5dbd 5780 2dbb bcd8 a0bd 30fa 2cbc
00000390: b054 fa3b 3c54 903d d7c9 5abb 5206 46bc
000003a0: 6060 66bd b6ee be3d 5b83 69bd ff87 89bd
000003b0: 0540 c4bc cfc1 74bc 7f38 fb3c defb c03c
000003c0: fa71 e6bd 3ec4 4a3d 9657 d7bc 79aa 1f3d
000003d0: 1f11 31bd d74b 21bd 3956 61bd 0f50 333c
000003e0: a5f5 13bd a212 893c e8dc 893c 40c8 e1bd
000003f0: 7759 babc 2cb7 99bb f43a 653d 3323 5cbd

lstm.weight_hh_l1 f4 [512, 128]
0.100995906 0.022496967 0.012937594 0.07631773 -0.04853095 -0.013193725 0.004893328 -0.024626179
-0.039096057 0.05012985 -0.030128242 0.016149685 0.007752098 -0.03203677 -0.079514064 0.035338342
-0.096135184 0.07476571 -0.04757163 0.035753045 0.05427415 -0.080464214 0.013812999 0.09403977
-0.027359664 -0.047844168 -0.09062511 0.0072020744 0.029016405 0.05215349 0.015069678 -0.06586556
0.07105821 0.081961714 0.090329215 -0.054197602 -0.06402233 0.06315387 -0.022176433 0.04335527
-0.052992176 -0.046045527 0.020698335 0.09438379 0.0045117023 -0.026152853 0.09587828 0.03150223
-0.04557747 -0.058548883 -0.021935347 -0.07571007 -0.0047107465 -0.048398934 -0.037958357 -0.036845535
0.06918019 -0.017036952 -0.06633487 0.034538124 0.042807654 -0.10528553 0.09121747 -0.055234935
-0.024886332 -0.015645318 -0.07555937 0.058333796 0.020189373 -0.028364088 -0.0025664533 0.0025488285
0.050021287 -0.088576525 -0.0504795 -0.07830818 -0.055355184 -0.05315997 0.10708723 0.060711157
0.096750125 -0.05849929 0.032283213 -0.095102854 0.06485182 0.019208472 -0.06439477 0.046744432
-0.043571223 0.04405239 -0.041294552 -0.008178633 -0.057468016 0.04044449 0.014494011 0.056903142
0.0791481 0.08512054 -0.0640246 -0.02910186 0.04542185 -0.0992609 0.046385307 0.043007094
0.041289203 0.06084159 0.0011710552 0.057226103 0.0010559027 -0.011176372 -0.014583984 -0.029103026
0.042680085 0.0041082697 0.040300343 -0.009781688 0.046971153 0.017392762 -0.012894649 0.024362111
0.06652344 0.062073275 0.02672416 0.012981384 -0.056610152 0.0068880846 -0.027825024 0.025990667
0.075494714 -0.012958568 -0.052297086 0.06547909 -0.023420732 0.03405634 -0.002293292 -0.06229989
0.05295583 0.03539697 -0.004477785 -0.021770604 -0.05416796 -0.008152584 0.037746303 0.09535781
0.02430203 -0.028717369 0.048312522 -0.09812881 -0.04333591 -0.008221663 0.023401035 0.053146716
-0.054542713 -0.031258088 0.05683224 0.07076732 -0.008313937 0.08356585 -0.02197588 0.07624917
-0.019493934 0.05106486 0.048532784 0.07042336 0.05817526 0.018072888 0.05520769 -0.04235741
-0.012221691 0.037154317 -0.10719658 -0.041270062 -0.014360445 -0.057886854 0.07148409 -0.06841665
0.052731477 -0.07973757 0.019325167 0.006486424 -0.006646621 0.0028643748 0.059270293 -0.042944394
0.02776031 -0.06560885 -0.04542509 -0.01572987 -0.005407792 -0.03702852 0.023016287 0.016922621
-0.03288936 -0.048229445 0.020300264 0.03309998 0.07147572 -0.09151126 -0.0017949857 -0.06696498
0.062116917 -0.023686055 0.04777552 -0.032448407 -0.015926717 0.010796436 -0.03968585 -0.07469082
0.06730804 0.038625546 0.015908679 -0.03333068 -0.058321282 0.07900291 0.054874826 -0.06775091
0.0018984734 -0.06579395 0.0061214287 -0.03482033 0.082615316 0.0016075157 0.06769223 -0.04696184
-0.03449478 -0.018677766 0.09365115 0.028191324 0.0014218531 0.029097475 0.046070866 0.05089486
0.044079438 -0.06125764 0.0109688435 -0.02439313 0.011724721 0.069422506 -0.0558133 -0.084059596
0.006660626 0.021054277 -0.07637411 -0.0067511965 -0.07391637 0.10684131 0.0042093266 0.027458776
0.110383496 0.07028886 0.048930172 0.07456098 0.03859462 0.016246779 -0.044814203 -0.04321755
00000000: f1d6 ce3d 8f4b b83c 34f8 533c 784c 9c3d
00000010: 64c8 46bd 7e2a 58bc 3658 a03b d7bc c9bc
00000020: 3023 20bd f554 4d3d 81cf f6bc 584c 843c
00000030: 5005 fe3b fd38 03bd 45d8 a2bd f0be 103d
00000040: 86e2 c4bd c41e 993d 78da 42bd c971 123d
00000050: 924e 5e3d 6cca a4bd eb4f 623c ec97 c03d
00000060: 6021 e0bc 3ff8 43bd a899 b9bd 61ff eb3b
00000070: d0b3 ed3c e69e 553d d0e6 763c 86e4 86bd
00000080: f886 913d 8bdb a73d 86fe b83d 4efe 5dbd
00000090: 241e 83bd d156 813d 5aab b5bc 4c95 313d
000000a0: 530e 59bd 3c9a 3cbd 8e8f a93c 4a4c c13d
000000b0: e7d6 933b 823e d6bc d55b c43d 7b08 013d
000000c0: 71af 3abd f4d0 6fbd c2b1 b3bc e20d 9bbd
000000d0: 9b5c 9abb f63d 46bd 397a 1bbd 58eb 16bd
000000e0: 58ae 8d3d 1491 8bbc 94da 87bd d977 0d3d
000000f0: 1457 2f3d f19f d7bd 3ad0 ba3d 073e 62bd
00000100: 6cde cbbc 9c2a 80bc dfbe 9abd 6bef 6e3d
00000110: 2f64 a53c ce5b e8bc f131 28bb 3f0a 273b
00000120: 1fe3 4c3d 9c67 b5bd 98c3 4ebd 0a60 a0bd
00000130: 1ebc 62bd 45be 59bd 8d50 db3d 43ac 783d
00000140: ee24 c63d f49c 6fbd 673b 043d 49c5 c2bd
00000150: 08d1 843d 165b 9d3c 68e1 83bd 1777 3f3d
00000160: bd77 32bd 4770 343d 7a24 29bd acff 05bc
00000170: 9563 6bbd 1fa9 253d 4a78 6d3c 4513 693d
00000180: 6618 a23d ad53 ae3d 541f 83bd 0667 eebc
00000190: 430c 3a3d 4c49 cbbd 85fe 3d3d 3528 303d
000001a0: de1e 293d 0835 793d 187e 993a eb65 6a3d
000001b0: 3766 8a3a 1a1d 37bc aaf1 6ebc 7869 eebc
000001c0: 50d1 2e3d aa9e 863b f911 253d 6043 20bc
000001d0: d364 403d 447b 8e3c 1444 53bc 0d93 c73c
000001e0: 713d 883d 8c40 7e3d a0ec da3c dfaf 543c
000001f0: 0ce0 67bd 71b5 e13b 4ef1 e3bc 61ea d43c
00000200: f99c 9a3d 2c50 54bc 7835 56bd e719 863d
00000210: d6dc bfbc a97e 0b3d 0e4b 16bb 2b2e 7fbd
00000220: 36e8 583d 6afc 103d 62ba 92bb 4458 b2bc
00000230: 39df 5dbd 6a92 05bc de9b 1a3d f54a c33d
00000240: 0d15 c73c b040 ebbc 5ae3 453d c2f7 c8bd
00000250: ff80 31bd 27b4 06bc 87b3 bf3c 5fb0 593d
00000260: 2e68 5fbd 7b08 00bd ecc8 683d 75ee 903d
00000270: 2e37 08bc 9324 ab3d c306 b4bc 8628 9c3d
00000280: beb1 9fbc 6329 513d 50ca 463d 1f3a 903d
00000290: 2e49 6e3d 980d 943c 7521 623d f77e 2dbd
000002a0: 7d3d 48bc 202f 183d e189 dbbd cc0a 29bd
000002b0: 1248 6bbc c41a 6dbd 4066 923d 071e 8cbd
000002c0: f6fc 573d 734d a3bd d04f 9e3c 118c d43b
000002d0: e6cb d9bb 3cb8 3b3b 68c5 723d 76e6 2fbd
000002e0: 9769 e33c ef5d 86bd a90f 3abd eedb 80bc
000002f0: d933 b1bb 38ab 17bd a78c bc3c 4fa1 8a3c
00000300: feb6 06bd 3d8c 45bd bd4c a63c d893 073d
00000310: dd61 923d 416a bbbd ba45 ebba ef24 89bd
00000320: 4f6e 7e3d 4209 c2bc 43b0 433d 9fe8 04bd
00000330: bf78 82bc 89e3 303c a18d 22bd 80f7 98bd
00000340: ccd8 893d d235 1e3d eb52 823c c085 08bd
00000350: 4ce2 6ebd 47cc a13d 6dc4 603d fdc0 8abd
00000360: 32d6 f83a fabe 86bd 4496 c83b c39f 0ebd
00000370: 3832 a93d 47b3 d23a 39a2 8a3d 0f5b 40bd
00000380: 664a 0dbd 1d02 99bc 2dcc bf3d 7ef1 e63c
00000390: 795d ba3a d45d ee3c ceb4 3c3d 2177 503d
000003a0: a48c 343d 4be9 7abd aab6 333c 1ad4 c7bc
000003b0: 0b19 403c 632d 8e3d 7d9c 64bd 7027 acbd
000003c0: 6141 da3b 057a ac3c 086a 9cbd 2439 ddbb
000003d0: 7761 97bd 9ecf da3d 64ee 893b 3af1 e03c
000003e0: be10 e23d 9bf3 8f3d 016b 483d 6db3 983d
000003f0: 6415 1e3d f717 853c 198f 37bd e304 31bd

lstm.bias_ih_l1 f4 [512]
0.035741363 0.0012904435 0.027316097 0.09753785 -0.03363553 -0.013520363 0.104363665 -0.04837453
0.051327273 -0.012046129 0.045414582 0.09951539 -0.057711564 -0.051760986 0.080440454 -0.06766919
0.014693145 0.056586128 -0.056422327 0.020278575 -0.0071407026 0.029134445 0.103915684 -0.011645084
-0.042862445 -0.06429617 0.059304997 -0.06048874 0.10075195 -0.022182848 0.043727897 0.043542728
-0.029316392 -0.024631087 -0.022268172 -0.0369627 0.049822357 0.016909609 -0.0035004357 0.008586838
0.09419014 -0.0013040212 0.088416964 0.06189266 -0.004012677 -0.06093035 -0.05097615 0.079520635
0.048766714 -0.030223893 -0.00095198955 -0.030994784 0.011304717 0.0015699547 -0.0274321 0.08921906
0.017381929 -0.02400232 0.09587993 0.082131095 0.09998313 0.045465104 -0.034800194 0.086145036
-0.035428673 -0.0087764375 0.06526271 0.046214126 -0.019421985 -0.01025033 -0.0465184 0.09270447
0.024135616 0.06583964 0.044792656 -0.006002419 0.0028008388 -0.010506112 0.014730423 0.01134372
-0.058322843 -0.010879786 -0.035100393 0.030081332 -0.042719133 0.008259222 -0.04542648 -0.06372363
-0.009622138 0.07320163 0.063878335 -0.00309138 -0.011994758 -0.096412666 -0.06637698 0.06232923
0.07063804 -0.0022405372 -0.0014377172 -0.024811292 -0.036056664 0.035818126 -0.022971218 -0.058274854
-0.026194872 0.014252948 0.027527565 0.01613512 0.04105193 0.035144605 -0.05950163 0.03090748
-0.050568465 0.07724427 0.03452009 -0.059761148 0.08333384 0.041596323 -0.041429166 -0.06362124
0.044308975 0.013160404 0.007898632 0.027677268 0.09791061 0.026785338 -0.052843995 -0.005828111
0.08111148 0.04924212 -0.016610911 -0.034023862 -0.07602543 0.05851759 0.042729262 0.010761096
0.050411697 -0.047544103 -0.03205861 0.022741737 -0.054775123 0.012616353 -0.029687608 -0.03937374
-0.01856767 -0.040342618 0.06302859 -0.017748864 0.008987117 0.011270567 0.034306817 0.02864049
-0.023696635 0.10173912 -0.07449074 0.0041439245 -0.051642597 -0.05558619 -0.04598684 -0.0031851341
-0.007834928 0.07768667 -0.022196477 0.077021815 0.019869564 -0.06715041 0.0150347715 -0.087816864
0.012776697 0.031855684 0.04085676 0.04530315 0.058865912 0.016116882 -0.020373605 0.09971435
0.089400835 0.020590302 0.00863387 -0.040961675 0.036090724 0.030242972 0.063927464 -0.018941108
0.09162204 -0.019275028 0.07034418 0.09262472 -0.019066777 -0.0075544943 0.004140555 -0.04450142
-0.035456706 0.014216439 -0.03878647 0.002851414 -0.013117019 -0.0024229537 -0.01451471 0.038008824
0.05561104 0.10359685 -0.05977229 0.071198024 0.0028879447 -0.029340347 0.024957577 0.012506784
0.076673724 0.035705775 -0.025482176 -0.048224904 0.0032441057 0.102801986 0.05883209 0.08784306
0.102628306 -0.056717757 0.016819017 -0.044161864 0.0142492615 -0.017904067 -0.057731602 -0.010431652
0.100908704 0.0588036 0.0106877005 -0.011818887 -0.011979226 0.008334751 0.034661323 -0.047084965
0.037096545 -0.059238687 0.028224574 -0.016575871 -0.010532665 -0.036262255 0.034926802 0.02698346
0.0070102806 0.07747539 0.0037964988 0.054053992 -0.057895813 0.0036935396 0.052630093 -0.03717158
0.049168237 0.070079945 0.0065281508 0.08682159 0.0067338212 -0.018321028 -0.005988731 0.022040768
00000000: 8965 123d 1924 a93a 02c6 df3c edc1 c73d
00000010: 69c5 09bd 8384 5dbc 9ebc d53d 5f24 46bd
00000020: 8c3c 523d 215d 45bc a404 3a3d bace cb3d
00000030: f662 6cbd 5403 54bd f7bd a43d 2596 8abd
00000040: 84bb 703c dbc6 673d 191b 67bd 411f a63c
00000050: 8efc e9bb 5cab ee3c bfd1 d43d 06cb 3ebc
00000060: 8890 2fbd b6ad 83bd cce9 723d 0bc3 77bd
00000070: 0a57 ce3d ceb8 b5bc 061c 333d dc59 323d
00000080: ee28 f0bc 22c7 c9bc be6b b6bc 3366 17bd
00000090: 8712 4c3d 0586 8a3c 9167 65bb cfaf 0c3c
000000a0: c3e6 c03d b1eb aaba f413 b53d 2883 7d3d
000000b0: c67c 83bb 1a92 79bd 5ecc 50bd b7db a23d
000000c0: 9bbf 473d 1998 f7bc f08e 79ba c6e8 fdbc
000000d0: 6b37 393c f0c6 cd3a 49b9 e0bc 7cb8 b63d
000000e0: 8c64 8e3c 83a0 c4bc b25c c43d 5934 a83d
000000f0: f5c3 cc3d 9e39 3a3d a68a 0ebd cf6c b03d
00000100: a81d 11bd 0ccb 0fbc 75a8 853d 064b 3d3d
00000110: db1a 9fbc 00f1 27bc 148a 3ebd d7db bd3d
00000120: 0eb8 c53c efd6 863d 8178 373d f1af c4bb
00000130: 478e 373b d421 2cbc df57 713c 03db 393c
00000140: efe3 6ebd 2141 32bc 6ec5 0fbd 206d f63c
00000150: 42fa 2ebd b051 073c 1e11 3abd 8981 82bd
00000160: 2ca6 1dbc bcea 953d a5d2 823d c098 4abb
00000170: a985 44bc 0174 c5bd a7f0 87bd ef4c 7f3d
00000180: adaa 903d fad5 12bb c971 bcba 0d41 cbbc
00000190: 27b0 13bd 07b6 123d 232e bcbc 9db1 6ebd
000001a0: a196 d6bc 3285 693c 7d81 e13c cd2d 843c
000001b0: 1226 283d caf3 0f3d fbb7 73bd af31 fd3c
000001c0: e120 4fbd 3e32 9e3d f064 0d3d 1bc8 74bd
000001d0: efaa aa3d e860 2a3d a1b1 29bd da4b 82bd
000001e0: 547d 353d bc9e 573c 4469 013c 70bb e23c
000001f0: 5c85 c83d ed6c db3c f272 58bd bdf9 bebb
00000200: c71d a63d 1bb2 493d 9b13 88bc 9b5c 0bbd
00000210: 38b3 9bbd 24b0 6f3d e104 2f3d 4f4f 303c
00000220: 7f7c 4e3d 9bbd 42bd e44f 03bd e14c ba3c
00000230: e15b 60bd d2b4 4e3c 6d33 f3bc 5c46 21bd
00000240: 3a1b 98bc 4d3e 25bd 2215 813d 1166 91bc
00000250: b33e 133c 2fa8 383c 4e85 0c3d 769f ea3c
00000260: 721f c2bc 9a5c d03d 9a8e 98bd c2c9 873b
00000270: 3087 53bd 58ae 63bd b25c 3cbd afbd 50bb
00000280: 125e 00bc 301a 9f3d 63d5 b5bc 9dbd 9d3d
00000290: 7fc5 a23c 2786 89bd 6754 763c 54d9 b3bd
000002a0: 5a55 513c 1b7b 023d 6b59 273d cc8f 393d
000002b0: 621d 713d 8d07 843c 8ce6 a6bc 0a37 cc3d
000002c0: c917 b73d feac a83c 1375 0d3c 6ec7 27bd
000002d0: ded3 133d 1cc0 f73c 67ec 823d 622a 9bbc
000002e0: 56a4 bb3d aae6 9dbc 9c10 903d 07b2 bd3d
000002f0: ee31 9cbc b18b f7bb 7ead 873b 1f47 36bd
00000300: 0d3b 11bd 11ec 683c 90de 1ebd cade 3a3b
00000310: c4e8 56bc 6bca 1ebb 1bcf 6dbc 24af 1b3d
00000320: 67c8 633d 962a d43d cad3 74bd 45d0 913d
00000330: ac43 3d3b 2b5b f0bc d573 cc3c 41e9 4c3c
00000340: 1d07 9d3d 3840 123d ffbf d0bc 7a87 45bd
00000350: 109b 543b d989 d23d ebf9 703d 10e7 b33d
00000360: ca2e d23d e150 68bd 09c8 893c 12e3 34bd
00000370: bc75 693c 8dab 92bc f977 6cbd 85e9 2abc
00000380: 39a9 ce3d 0bdc 703d 771b 2f3c 01a4 41bc
00000390: 8444 44bc 7b8e 083c 08f9 0d3d 2adc 40bd
000003a0: 8cf2 173d 44a4 72bd 3937 e73c 1fca 87bc
000003b0: 3391 2cbc bb87 14bd 680f 0f3d 6b0c dd3c
000003c0: 7fb6 e53b 6bab 9e3d aece 783b b867 5d3d
000003d0: 2924 6dbd 500f 723b a792 573d 3a41 18bd
000003e0: a264 493d 1386 8f3d 19ea d53b 85cf b13d
000003f0: 63a7 dc3b fb15 96bc 1e3d c4bb d78e b43c
